RL/V1/V1_fullstack/learned_policy.pth (torch, 80526 bytes, 6 tensors)

rnn.weight_ih_l0 f4 [256, 9]
000000 63 23 95 be 89 74 e0 3d 12 52 29 be a7 f1 fb 3d
       -0.2912856 0.10959727 -0.16535214 0.12301951
000010 38 cd 70 3e 03 47 37 3e bf a2 8f 3e 73 b0 d1 be
       0.23515785 0.17898183 0.28053853 -0.40954933
000020 01 6b 7c 3f 6f fc 16 be 4e bd ed 3b a9 bb bf 3d
       0.98600775 -0.14744733 0.007255233 0.09361965
000030 bc 94 d6 3e 92 66 70 bd b0 ba 08 3f 44 03 15 3d
       0.4191035 -0.05869157 0.5340986 0.036380067
000040 cc 1c fd be 38 f2 a1 bb 5b 16 2b be d7 a8 a1 be
       -0.49436033 -0.004942205 -0.16707747 -0.31574127
000050 03 06 4e 3d 9d 08 9b 3c be 99 b0 3e a4 92 05 bf
       0.050298702 0.018925006 0.34492296 -0.5217688
000060 e9 ec 00 bf 70 a4 2b bd a4 a0 d4 39 19 67 45 3e
       -0.50361496 -0.041904867 0.00040555478 0.1927761
000070 94 3c a1 be e1 ce a5 be ce 61 3f bf 32 40 a6 3e
       -0.3149153 -0.323844 -0.74758613 0.32470852
000080 24 99 a5 be e7 52 e8 bd ce 65 6b 3e c8 76 b6 3e
       -0.323434 -0.11343937 0.22988054 0.35637498
000090 b8 26 00 3f 14 55 55 bd f1 10 6a be 1f fe 68 be
       0.5005908 -0.05208309 -0.22858025 -0.2275319
0000a0 7c c9 1d 3f 04 22 24 bf 3b 03 0d be 85 87 0f 3f
       0.61635566 -0.64114404 -0.13770764 0.5606616
0000b0 e9 68 3f 3e ac db d2 bb b2 72 4a 3e 09 d3 d6 be
       0.18692364 -0.0064348783 0.19770315 -0.41957882
0000c0 51 31 bb 38 82 77 b2 3e 21 c6 cc 3e 19 dc 8a bf
       8.926041e-05 0.34856802 0.3999491 -1.0848418
0000d0 fe 64 b8 bf 4e 50 54 bd 4a 34 27 3f 82 1e 2d be
       -1.440582 -0.051834397 0.6531416 -0.16906169
0000e0 bc a5 0a 3e 35 85 e2 be 0c d1 a4 3e 92 6d b1 3e
       0.13539785 -0.44242254 0.3219074 0.34653908
0000f0 53 05 26 3f c1 43 f6 be 28 72 94 3e f7 78 70 3e
       0.64851874 -0.48098567 0.28993344 0.23483644
000100 74 54 bb bd 80 c4 84 be aa 1f dc bc 3c 7b 1c be
       -0.091469675 -0.25931168 -0.026870567 -0.15281385
000110 fe 55 5b be 4d 57 42 3d 42 c2 23 3c 4d 9b 99 bb
       -0.21419522 0.047446538 0.009995045 -0.0046877027
000120 67 38 29 be b9 81 53 bd e7 0b 4f be b4 eb ab 3d
       -0.16525422 -0.051637385 -0.20219384 0.08394566
000130 15 65 a3 bc eb cb 92 3e 7a 45 ee be 67 f5 f6 3e
       -0.01994566 0.28671202 -0.4653738 0.48234102
000140 ae 51 99 3e 4a 5a ee bd ba b0 4a be 00 65 d0 3e
       0.2994513 -0.11638315 -0.19793978 0.40702057
000150 80 4f 4a 3d 7d 87 88 3e 2a 44 99 be 5e 21 0c be
       0.049392223 0.2666587 -0.29934818 -0.13684604
000160 df 3a 1c be 01 16 ba 3e 05 5f 12 be 49 07 d9 3d
       -0.15256833 0.36344913 -0.1429406 0.10597093
000170 32 56 9a bd 45 5a 0d be c4 43 1e be c6 d3 ff be
       -0.07535972 -0.13803966 -0.15455538 -0.49966258
000180 4a ff 9b 3c 1e 6d 9a be 94 91 79 3d 53 29 01 be
       0.01904263 -0.30161375 0.06092985 -0.1261342
000190 66 94 93 3d 4b 27 c7 bd 8e d7 b4 3c c9 26 0b 3e
       0.07206039 -0.097242914 0.02207544 0.13589014
0001a0 30 96 6c be a7 fd 32 3e 78 f1 1c 3e ee fd 53 3f
       -0.23104167 0.17479573 0.15326488 0.8280934
0001b0 4e 7f e1 3e ce 8c c2 bd 5d 7b 89 3c 6e 9f 91 be
       0.44042438 -0.094995126 0.016782457 -0.28441948
0001c0 e8 86 95 3d 42 9a 9f 3d d1 db 40 3f ef 00 29 3e
       0.07301122 0.07793094 0.75335413 0.16504262
0001d0 73 99 f6 3e fb 41 bd be ba be 4c 3e 0d f5 8b be
       0.48163947 -0.36964402 0.19994631 -0.27335396
0001e0 b4 99 25 3e e4 a0 21 bf c7 cf 0b 3e 1c 47 b4 be
       0.16171914 -0.63136125 0.1365348 -0.35210502
0001f0 52 c0 db be 1f 9a c1 3c 80 a4 a6 be 4c cd 82 3e
       -0.42920166 0.023633061 -0.3254738 0.25547254
000200 d9 6a fb bd b5 f6 e6 be 44 c6 fd be 49 8f 6e be
       -0.12276239 -0.45110098 -0.49565327 -0.23296846
000210 e0 56 25 bf 7c a0 8a 3e 04 4d be bd 2e 99 44 3e
       -0.64585686 0.27075565 -0.09292033 0.19199058
000220 49 b8 73 3d d1 71 bd bd 01 36 bd bd a5 7a 1d 3d
       0.05950192 -0.092502244 -0.09238816 0.03844704
000230 c6 e6 60 3d e7 9f b4 be ee eb 9a 3e 9a a2 9c be
       0.054907583 -0.35278246 0.30258125 -0.30592805
000240 58 9a bd 3e d9 2f f8 3d 66 78 04 3e 34 a0 2f bf
       0.37031817 0.12118501 0.12936553 -0.68603826
000250 f0 3e 1b be 8c 63 aa bb fe 95 9c be 5f 87 10 bf
       -0.15160728 -0.005199855 -0.30583185 -0.5645656
000260 6a 6a e3 3e 49 24 0a bd 47 f2 77 bd 58 be 02 be
       0.44417125 -0.03372601 -0.060533788 -0.12767923
000270 b6 7f 76 3e 88 76 7b be e3 30 bd 3e 16 8a 3e bf
       0.24072155 -0.24556935 0.3695136 -0.7442945
000280 70 a4 73 be a9 27 02 bd c0 fb 68 3e 45 ce d1 bd
       -0.23793197 -0.031776104 0.22752285 -0.10244421
000290 0b a1 61 be 15 b4 87 3e 54 b6 cb bd ff 20 f6 3e
       -0.2203409 0.2650458 -0.09946886 0.4807205
0002a0 9a fc 8b bf 33 de a8 bd dd 73 86 be f6 3e c8 3c
       -1.0936463 -0.08245506 -0.26260272 0.024444085
0002b0 99 bf 89 3e b8 61 8a 3e cc 70 ba 3e 90 5e d9 3e
       0.2690399 0.27027678 0.36414182 0.42454958
0002c0 bf 05 29 bc 60 aa 68 be db 3f f4 bd e3 c3 19 3f
       -0.010316311 -0.22721243 -0.11926242 0.60064524
0002d0 a2 c7 4e 3e aa 43 84 3d a3 e4 e6 be 5f 8b 78 3d
       0.20193341 0.064582184 -0.4509631 0.06067979
0002e0 38 17 31 be 1c 99 63 3e fc 20 91 3e 72 a8 95 be
       -0.17294014 0.22226375 0.28345478 -0.29230076
0002f0 fd b7 de bd 22 a7 36 3d 30 cd 31 be 3b 96 64 3d
       -0.10874937 0.044592984 -0.17363429 0.055807333
000300 30 1d 43 bc 35 ff a4 3c 6d f9 ae 3c ee f0 3e 3d
       -0.011908814 0.020141223 0.02135917 0.046616487
000310 76 89 a0 3e 40 d4 2f 3f 75 6c 82 bd 4a 05 b6 be
       0.31354874 0.6868324 -0.06368343 -0.3555091
000320 cb 16 f3 be b3 e6 29 be 6a e6 09 be 3c 0c 84 be
       -0.47478327 -0.16591911 -0.13466802 -0.25790584
000330 44 1f 76 be 1d 2b b8 bd a6 52 d2 be 3d 96 0a bd
       -0.24035364 -0.08992598 -0.4107868 -0.033834685
000340 37 56 98 3b 0f f2 db 3e 2d c9 60 3d 5a 7c 1e 3d
       0.0046489495 0.42958114 0.054879356 0.03869281
000350 c5 45 0b 3e 79 9a a2 3e d2 81 d0 3c 91 69 f4 3d
       0.13600834 0.31758478 0.025452528 0.11934198
000360 12 f5 d6 be fb 67 82 be 9e 0c e3 be 36 d1 39 be
       -0.4198385 -0.25469956 -0.44345564 -0.18146214
000370 24 ca 8b be ba 10 2d be 3f ee 4c bf e8 59 e2 bc
       -0.2730266 -0.16900912 -0.80051035 -0.027630761
000380 e9 58 69 bd 2d 76 9d 3e fb a4 69 3e 19 f5 08 3e
       -0.056969557 0.30754223 0.22816841 0.13374747
000390 99 57 d9 3d 65 5a ca 3c 51 0d 19 3f cc a1 3b 3e
       0.10612411 0.024701307 0.59785944 0.1832344
0003a0 73 19 b2 3e 20 b1 d5 bd 10 cb 34 be e6 7c e4 3d
       0.3478504 -0.104341745 -0.17655587 0.11156635
0003b0 77 ee 22 3e 8a 15 c8 bc f6 ff 98 bd c7 90 12 be
       0.1591128 -0.024424333 -0.07470696 -0.1431304
0003c0 f1 08 ff 3e e2 5e 51 3f 54 85 83 ba 47 6a b1 3e
       0.4981151 0.81785405 -0.0010034242 0.34651396
0003d0 2b cc 28 be af 10 52 be 5d ea 16 be 9d 09 5e 3f
       -0.16484134 -0.20514177 -0.1473784 0.8673342
0003e0 cf b1 ff 3e 51 d3 22 bf a1 f2 aa 3d 71 db df 3e
       0.49940345 -0.63603693 0.08347059 0.43722108
0003f0 9a 02 b7 3e 6d 0c bd 3d 84 e6 12 3e 13 e4 a9 3c
       0.35744172 0.09230886 0.14345747 0.020738637

rnn.weight_hh_l0 f4 [256, 64]
000000 fd 05 38 3e 64 d0 d5 3d cc cb c1 be 9e 61 70 bf
       0.17971034 0.10440138 -0.37850797 -0.9389895
000010 13 bc ea be 98 43 10 bf 5c d7 0b bf 74 93 f2 3e
       -0.45846614 -0.5635314 -0.5462549 0.47378123
000020 e1 31 55 3f a4 7a 5c 3e b2 79 09 3f 13 cd 26 3f
       0.83279234 0.21531159 0.5370132 0.6515667
000030 b5 da 83 3e 52 b9 a0 be e2 ec 01 3f e2 08 20 bf
       0.25752798 -0.31391388 0.5075208 -0.62513554
000040 f5 7d 0d 3e 6d 91 56 3f 22 5d 3a 3f 38 0b a9 3e
       0.1381758 0.8381565 0.7279836 0.33016372
000050 04 6d db 3e 9f 9b b8 3e 34 17 9f be f3 f8 3a bc
       0.4285661 0.3605623 -0.3107239 -0.011411893
000060 c4 ff 78 bf 46 4e 4f bd a9 31 b6 3e 85 25 39 3e
       -0.9726527 -0.050611757 0.35584763 0.18080719
000070 c9 83 98 3c 60 7d 59 bd 5a 39 20 bc 14 08 2d be
       0.018617528 -0.053098083 -0.009779299 -0.16897613
000080 fd 8c cf 3c 6c ac 89 3e eb 75 9b bd 9f 20 03 3f
       0.025335783 0.2688936 -0.075908504 0.5122165
000090 cc 48 a8 be 68 e1 c3 3e e7 ee 89 be 02 c1 62 bd
       -0.3286804 0.3825791 -0.2694008 -0.055359848
0000a0 ef 92 ad be 15 c5 0f 3f 8a 00 6d 3f e3 e2 18 bf
       -0.33901164 0.561601 0.9257895 -0.597212
0000b0 0b fd 1e bd f0 aa f5 be 89 75 c6 be 88 9a 17 bf
       -0.03881554 -0.47981977 -0.38761547 -0.5922017
0000c0 fd 1d 00 3f 65 35 29 3e 30 51 99 be bb 41 88 be
       0.5004576 0.16524275 -0.29944754 -0.26612648
0000d0 fa 5b 1d 3e 89 1b e5 3e 14 63 f3 be 24 b0 43 3d
       0.15367118 0.4474757 -0.47536528 0.047775403
0000e0 2c 2c 14 be ce ae ae bd 75 7c a0 be 77 fb b6 3d
       -0.14469975 -0.08529435 -0.31344953 0.08934682
0000f0 90 2e 0d be e4 66 10 bf 55 46 cd be 21 73 d6 3e
       -0.13787293 -0.56407 -0.40092722 0.4188471
000100 d6 4c a2 bd 0c 5e ca 3e d0 dd 06 3e 92 4f cc be
       -0.079248115 0.39524877 0.13170552 -0.39904457
000110 82 56 2e bf 19 7f 90 be f5 ac e9 be 16 a1 07 3e
       -0.6810075 -0.28221968 -0.45639768 0.13245043
000120 24 27 7d 3e 82 1a 2e 3e b7 93 9d be 41 c7 50 3e
       0.24721962 0.170023 -0.3077676 0.2038851
000130 f0 2e cc be 4f fc 65 3d d7 1b 2e 3e aa 1e 05 bf
       -0.3987956 0.056148823 0.17002808 -0.51999915
000140 a5 57 8d 3e d0 a2 48 3f 5e 74 32 bf 85 0b 91 3e
       0.2760593 0.7837343 -0.6970881 0.283291
000150 8b 00 e4 bd 17 b9 e9 bc 09 22 29 be 50 8a 80 3d
       -0.11132916 -0.02853064 -0.1651689 0.06276381
000160 67 53 87 be ef 13 fc 3d 4f a6 a5 3e af 42 8b 3c
       -0.26430818 0.123084895 0.32353446 0.01699957
000170 77 62 06 bd 70 ef 05 3d 3d 5c 06 be c1 85 1b 3f
       -0.032808747 0.03269905 -0.13121124 0.6075097
000180 09 f3 b5 bd 0a 73 a7 3e c3 3c af be e9 71 80 3d
       -0.08884246 0.32704955 -0.34226045 0.06271727
000190 9f e2 41 be c6 21 1e 3e 07 41 84 3e ac 6e 06 3e
       -0.18934105 0.15442571 0.25830862 0.13128155
0001a0 5c 26 48 3d e5 75 0c 3e 63 d9 93 3e fe d1 b6 be
       0.048864707 0.13716848 0.2887679 -0.35707086
0001b0 55 28 88 be 84 a6 95 bc ab 2a 00 3e 9b ee ef be
       -0.2659327 -0.018267877 0.12516277 -0.4686173
0001c0 68 a0 34 3d 1a 0a da bd b3 9b aa be 53 7f 3c be
       0.044098288 -0.10646458 -0.33321914 -0.18407945
0001d0 a1 7b e9 3e 24 02 46 bb 69 e9 c7 3c 0a 7e 1d bf
       0.45602134 -0.0030213678 0.02440329 -0.61520445
0001e0 19 cf 0b 3e 2b 3e 31 be ac 2a d4 bd 18 f6 99 be
       0.1365322 -0.17308871 -0.103597015 -0.30070567
0001f0 22 99 98 be 7a 86 61 3e f6 c2 b9 be 6e a0 47 bd
       -0.2980433 0.22023955 -0.36281556 -0.048736982
000200 35 e8 d2 3e a5 30 c2 3e 75 6c 74 bb 03 ec f1 3d
       0.41192785 0.37927738 -0.003729609 0.11812594
000210 f9 4f bb be dd 54 02 ba c7 ff af be 86 6a 70 3e
       -0.36584452 -0.0004971752 -0.3437483 0.23478135
000220 54 8a a9 3e 29 f0 b6 3e 0c c8 81 bd e1 80 a3 3d
       0.33113348 0.35730103 -0.06336984 0.07983566
000230 8a 0c 1a 3e 0c 5c 7d be c5 84 c7 3d 05 d8 16 be
       0.15043846 -0.24742144 0.09742121 -0.14730842
000240 bc 0e 00 3e 0a 8d 90 3e 0b 03 81 3e 3c 3a 36 3e
       0.1250562 0.28232604 0.25197634 0.17795652
000250 ea 06 0c 3d 9a 68 45 bd 6f 08 1b be d6 7d 7f 3e
       0.03418628 -0.04819546 -0.15139936 0.24950346
000260 5d e6 d8 bd 5a a5 08 bf 8d 35 81 be 07 b6 5e be
       -0.10590813 -0.53377306 -0.25236169 -0.21749125
000270 36 9b 26 be c1 3e 01 be 30 48 b7 3e 5b d7 03 3f
       -0.16270146 -0.12621595 0.35797262 0.5150048
000280 d8 27 f4 3e a7 2f 61 3e d6 44 31 3e e5 5a a6 3e
       0.47686648 0.21990834 0.17311415 0.32491222
000290 ef 3c 14 3e bc 9b 59 39 c6 ff 6e be 16 07 6a 3e
       0.1447637 0.00020752748 -0.23339757 0.22854266
0002a0 76 97 6f 3e ff 57 c4 3e 5b 6d 1e 3e d2 d8 b0 be
       0.23397622 0.38348386 0.15471403 -0.3454042
0002b0 18 e0 f1 3e 71 96 e7 bd cc 1d 66 3e 22 b1 b4 be
       0.47241282 -0.11307991 0.22472304 -0.35291392
0002c0 81 07 d9 3e 4a 47 a8 3d da 9c c6 3e ca b2 04 3b
       0.42388538 0.08216722 0.38791543 0.0020248168
0002d0 ee 40 94 3c 1b c2 6c 3e 01 20 e3 3d a4 ee 49 be
       0.018097367 0.2312092 0.11090089 -0.1971994
0002e0 34 0e a5 be 69 73 46 3e 01 71 81 bc a5 fd c2 3d
       -0.322374 0.19379963 -0.015800955 0.09521035
0002f0 8a 13 c6 be 80 fe 1e 3d 02 4c 07 bf 7e 07 b2 be
       -0.38686782 0.03881693 -0.52850354 -0.3477134
000300 cd b7 74 3f 29 c0 05 3f cb 3b 24 be bd 88 27 3e
       0.9559296 0.5224634 -0.16038434 0.16360755
000310 ab d3 f6 bb cc 37 d7 be bc c6 bc 3d a3 d4 6d bf
       -0.007532557 -0.42034757 0.09217593 -0.9290258
000320 31 bc df 3e 06 cc 2a 3f a2 3c 48 3e d6 25 e9 be
       0.43698266 0.66717565 0.1955438 -0.4553668
000330 bb d0 26 3e c2 25 0c 3f 25 9c 58 3e 11 49 08 bf
       0.16290562 0.54745114 0.21153314 -0.5323649
000340 b6 7c b3 bd e7 56 46 bd 9b f7 15 3e 55 9a f3 3e
       -0.08764021 -0.04842272 0.14645235 0.47578683
000350 95 88 bd 3e 16 cb b8 3e 1d a3 c7 3d c0 05 91 be
       0.37018266 0.36092442 0.09747908 -0.283247
000360 88 f4 f1 bc 5c 0f 8b be 2e 3c 25 bf f4 57 ca be
       -0.029535547 -0.27160156 -0.6454495 -0.39520228
000370 ee 12 0f 3d 4d 59 93 3e 64 2a fe 3d c1 33 a4 be
       0.034930162 0.2877907 0.12410429 -0.32070735
000380 2d fe 1d bf 61 cf 11 3e a2 96 a8 bd b0 2a 19 3e
       -0.61715966 0.14239265 -0.08231856 0.1495769
000390 c8 9c 63 3e 0b 77 45 3f cd d2 15 bf 03 fb 04 3f
       0.22227776 0.7713477 -0.5852478 0.51945513
0003a0 e9 90 ee 3b 36 8b 7e bf fe 0c 47 be 1d ee 0e be
       0.007280458 -0.9943117 -0.1943855 -0.1395802
0003b0 60 65 f4 be 64 b1 46 be bb b6 a9 be e6 61 a9 3e
       -0.47733593 -0.19403607 -0.33147225 0.33082503
0003c0 fc 71 a6 3e f6 0d cb 3e 32 59 69 3e 8b 8e 63 bd
       0.32508838 0.3965909 0.22787932 -0.05555586
0003d0 9f 68 5d bf c9 e9 31 bf ea 0b 27 be 46 3d f4 3e
       -0.86487764 -0.6949735 -0.16313139 0.47702998
0003e0 ec ff 16 3f f6 bc 50 3e cf c2 a8 3e e1 e3 85 3e
       0.58984256 0.20384583 0.32961127 0.2615042
0003f0 8f c0 c7 bd 46 69 e3 3e 69 3d 04 be ab 30 0e 3f
       -0.097535245 0.44416255 -0.12914051 0.5554301

rnn.bias_ih_l0 f4 [256]
000000 a9 ff 8e 3d e6 bd d3 b9 55 39 4b bd 8d 27 eb bd
       0.06982357 -0.00040386542 -0.049615223 -0.11482153
000010 70 c4 2d 3a 90 7e 9d 3d 5c 55 93 3c 35 51 9c 3a
       0.0006628698 0.076901555 0.017985038 0.0011926057
000020 e7 9a b7 bd cd 01 7e 3e 87 5f 68 bd 76 2a 5e 3d
       -0.08965092 0.24805374 -0.056731727 0.054239713
000030 2d be fc bd cf b9 d8 bc 64 4c 21 3e 24 b5 8f 3e
       -0.12340961 -0.026455788 0.15751797 0.28067887
000040 7d 38 72 bd 34 b5 21 be 6c cc 1f 3d a9 69 6b 3e
       -0.059135903 -0.1579178 0.03901331 0.22989525
000050 1e a3 b8 bd de 3d 9a bd fc 69 f4 bc 39 fc 24 3d
       -0.09015487 -0.075313315 -0.029835694 0.0402796
000060 b2 37 b0 bd 5c d5 e0 3d 55 a3 10 be 22 0d f8 3e
       -0.08604373 0.10978195 -0.14124806 0.4844752
000070 b8 c5 8f be c8 fa 76 be 58 9c 99 bd f8 c3 b9 bc
       -0.28080535 -0.24119103 -0.07500523 -0.022676453
000080 ee 64 ec bd a1 f4 ed bd b3 e4 c5 3e 95 26 04 3f
       -0.11542688 -0.11618925 0.38651046 0.5162137
000090 ab 2c 06 be 1f af d1 bd f3 4f ac bc e5 34 50 3e
       -0.13102977 -0.1023848 -0.021034217 0.20332678
0000a0 4b 9b b2 bd 25 f3 0d 3e 5d 4b 7b bd 7d 2d 11 3d
       -0.08721026 0.13862284 -0.06135117 0.03544377
0000b0 0e cb 8f 3e c4 c2 c2 3c d4 2d 8b be 2e fd 23 be
       0.28084606 0.023774512 -0.27183402 -0.16014549
0000c0 90 a2 25 be 2a ee a5 bd 98 b0 f5 3d db e9 85 3c
       -0.16175294 -0.08102067 0.11996573 0.016346863
0000d0 3f 15 87 3d af 85 35 3e 4f b4 bc 3d b0 15 5e be
       0.06595849 0.17726777 0.09214079 -0.2168796
0000e0 c5 27 69 3d 17 d0 6e 3e 58 b0 06 3e 6e f5 b8 be
       0.056922693 0.23321567 0.13153207 -0.36124748
0000f0 db b2 b2 3d 3f 77 8b bd c5 f4 28 3f 8c 5a 71 bc
       0.0872552 -0.06809854 0.6599849 -0.014731061
000100 c0 c6 61 be c9 5a 16 3e f1 b0 05 bf 4b 45 90 be
       -0.22048473 0.1468307 -0.52223116 -0.28177866
000110 ef 97 b3 be d9 e4 d2 3d 25 f6 a0 be 02 e8 26 be
       -0.35076854 0.102975555 -0.31437793 -0.16299441
000120 28 09 19 bf 1c 68 04 3e bf 9a 85 be 0d 9a a3 bd
       -0.59779596 0.1293034 -0.26094624 -0.07988367
000130 b1 60 be be 8a e5 eb ba 18 9b ea bc 0e 21 71 3e
       -0.37183145 -0.0017997485 -0.028638408 0.23547766
000140 b6 93 8b be f5 77 79 bd 94 99 7a bc eb 8b df 3d
       -0.27261132 -0.060905416 -0.015295405 0.10915359
000150 0d 17 7f 3c cf c9 64 be 4e ce fa 3e 2a 0d 71 3d
       0.015569461 -0.22342609 0.48985523 0.058850445
000160 e6 7f 15 bd 62 c2 a8 be 8f ad 45 3e 6f 72 34 bc
       -0.036498927 -0.32960802 0.19304489 -0.011013611
000170 72 a1 e6 bd bc f0 d7 3d a2 bc a3 be 37 ff 8d bd
       -0.11261262 0.10543963 -0.31979853 -0.06933444
000180 40 a0 2c bd 06 7a 64 3d 60 8b a9 3d e5 f4 dd 3e
       -0.042145014 0.055780433 0.08278537 0.43350902
000190 b7 91 ff bd 8e 19 a6 be 0b 04 de bd c4 88 90 bd
       -0.12478965 -0.32441372 -0.10840615 -0.07057336
0001a0 b9 ac d7 bc e4 b8 b8 bd cc 02 87 be fa 82 c8 3d
       -0.026327478 -0.0901964 -0.2636932 0.09790607
0001b0 5c 89 16 3d b6 e0 1a 3e 40 35 83 be 25 d1 98 3a
       0.03675209 0.15124783 -0.25626564 0.001165901
0001c0 80 f8 3e 3c d5 05 c6 be 38 77 2f bd 5a 4f a8 be
       0.011655927 -0.38676324 -0.042838305 -0.3287304
0001d0 15 6a 5d be bb 59 26 3e ca 8a 03 be 86 e4 ba be
       -0.21622498 0.16245167 -0.12845913 -0.36502475
0001e0 40 d9 26 3e d3 b0 a8 3e 61 a5 91 3e 09 08 cb 3d
       0.16293812 0.32947406 0.28446487 0.09913642
0001f0 93 64 15 3e 08 5e 33 be d4 b6 d1 3e f5 da 60 be
       0.14589147 -0.17516339 0.409598 -0.21958525
000200 0d c0 6d be 06 a2 42 3b 63 97 80 bd 05 c8 22 3e
       -0.23217793 0.0029698624 -0.06278875 0.15896614
000210 eb eb 26 bd ca 84 a8 bd e1 57 a7 be b7 b4 23 3e
       -0.040752333 -0.082284525 -0.32684234 0.15986906
000220 e1 25 81 bd 66 d9 30 bd 94 a2 cc bd d1 bb 80 3e
       -0.06306053 -0.043176077 -0.09991947 0.25143293
000230 21 69 99 3e 1b 18 72 bd ec 8b 6b 3e 48 26 dd bd
       0.2996302 -0.05910502 0.23002595 -0.10798317
000240 33 d0 80 3d 2c 0c d3 bd ab 47 cf 3d d9 d6 c7 3c
       0.06289711 -0.10305056 0.101210915 0.02439444
000250 c0 1d ba 3d 2d 96 c4 3e e6 98 e7 bd fb 9a 78 bc
       0.090877056 0.38395825 -0.1130846 -0.015173669
000260 1d ec 4a be 1b 11 82 bd ae 68 98 3e 7d 22 77 3e
       -0.19816633 -0.06350919 0.29767364 0.2413425
000270 e8 93 4c bd 80 0a 1d bd 0e 7c 39 3d 96 29 93 be
       -0.049945742 -0.03834009 0.045284323 -0.28742665
000280 76 30 e2 3d 76 3d 86 3d f8 ce 96 be 67 e0 ca bd
       0.110443994 0.065546915 -0.2945478 -0.099060826
000290 af dd 08 be 18 07 06 3e 94 70 0b bd 1d 5f 36 bd
       -0.13365816 0.13088644 -0.03404291 -0.0445243
0002a0 8d 48 3e be 16 db 1d 3e 12 81 09 be 9c f0 40 be
       -0.18582363 0.15415606 -0.13428143 -0.18841785
0002b0 a7 f0 af bc 05 4f 2d 3e 5b a1 8f bd b7 f6 83 bd
       -0.021477057 0.16924675 -0.07013198 -0.064435415
0002c0 79 a0 b5 3d 22 3d 3d 3e 22 53 03 be 22 11 78 3d
       0.08868498 0.18480352 -0.12824681 0.060563214
0002d0 cf 33 b6 bc ee 66 98 3e 71 14 0c 3c ca 5c 41 3e
       -0.022241501 0.2976603 0.0085497955 0.18883052
0002e0 cc 14 07 be 54 b8 d4 be 97 42 af be 8d 54 2e be
       -0.13191527 -0.4154688 -0.34230492 -0.17024441
0002f0 54 23 85 be fe 09 06 3d d2 78 02 bd 7f ab 1f 3e
       -0.26003516 0.032724373 -0.031853504 0.15592764
000300 f8 93 05 3e 63 f7 3c 3e 08 7e 27 be 91 d7 ef 3d
       0.13044727 0.18453746 -0.16356671 0.11711038
000310 a4 13 d2 3d 9d 2b b1 3e 2a 15 44 3e 2e aa 47 be
       0.102576524 0.34603587 0.19148698 -0.19498512
000320 c7 7e af bd 7d 2b 2c be f3 66 c6 bd dd c7 10 bb
       -0.08569103 -0.16813464 -0.09687605 -0.0022091784
000330 a1 fa c0 3d 4a 68 71 3e d4 02 78 3e e6 b9 9e 3e
       0.09422804 0.2357494 0.24219829 0.31001204
000340 fa 69 60 3e fd e5 3a bc c5 68 0c 3e aa 7c 8c be
       0.21915427 -0.011407373 0.13711841 -0.2743886
000350 f2 17 cb 3c 00 f3 c6 be f7 b2 80 3e b7 d2 fc 3c
       0.024791691 -0.3885727 0.2513654 0.030862195
000360 ce 28 b4 bc ce 11 37 3e fc f7 03 3e e8 97 18 3e
       -0.021992113 0.17877886 0.12887567 0.14901698
000370 cf 2e 39 3d 37 a2 53 3d 37 23 34 bd 58 ea 4a bd
       0.045210656 0.051668372 -0.043978896 -0.049539894
000380 ba c2 65 3d 89 4f f3 bd d9 da 11 3d 2f 06 17 3e
       0.05609391 -0.118804045 0.0356091 0.14748453
000390 fe a6 c7 bd 3c d6 35 be 58 c5 aa bd 66 47 10 bd
       -0.09748648 -0.17757505 -0.083384216 -0.03522434
0003a0 3d 68 9b bd eb 80 a0 3d d8 96 47 3c ad 99 93 3e
       -0.07588241 0.07837089 0.01218196 0.28828183
0003b0 83 82 70 3e 67 6d 46 3e 99 08 c0 3d c8 d3 14 be
       0.23487286 0.19377671 0.0937664 -0.14533913
0003c0 96 07 60 be a9 4f 0c bc 17 8f b4 bd 86 8a 7e 3d
       -0.21877894 -0.008563914 -0.08816355 0.062143825
0003d0 2e 66 65 3d 05 66 80 ba ee e9 a3 3d 0a be 6d 3b
       0.05600565 -0.0009796029 0.08003603 0.0036276602
0003e0 da 88 2e bd 92 8b ba be b1 b8 16 3e bc b9 86 3e
       -0.04261098 -0.3643461 0.14718892 0.2631358
0003f0 71 bb 02 3e 6e cd 00 be 6f 3b bc 3e 64 08 f4 3d
       0.12766816 -0.12578365 0.36764094 0.11915663

rnn.bias_hh_l0 f4 [256]
000000 f7 8c b9 3d 01 b5 4b 3d 2f 2d 3d be 6c 4f 28 3d
       0.0906009 0.049733166 -0.18474267 0.041091368
000010 31 cb 0f 3e 8b 2e 57 3d d4 a4 32 3d e1 5e 1e be
       0.14042355 0.05253462 0.043614224 -0.15465881
000020 d1 2a b6 bd d8 56 78 3e c9 1d 20 be a6 39 27 3d
       -0.08894885 0.24251878 -0.15636362 0.040826462
000030 1d be 9b bd 2b 61 0f 3e d2 1a 18 3e 75 5c 7c 3e
       -0.076046206 0.1400191 0.14853981 0.24644645
000040 44 c1 66 bd 1e 87 dd bd 31 29 93 bd 10 94 c9 3e
       -0.056336656 -0.10816787 -0.07185591 0.39370775
000050 64 66 9f 3d 65 5a a5 bc 76 33 29 bc 82 26 cd bd
       0.07783201 -0.020184705 -0.010327211 -0.100171104
000060 19 f8 b8 bc f2 fb 1c 3e 5c f5 aa bd c2 c5 e4 3e
       -0.02257924 0.15330485 -0.0834758 0.44682127
000070 a8 57 a6 be aa 9d 12 be 4e 79 ef 3d 12 35 08 3d
       -0.3248875 -0.14317957 0.11693059 0.033253737
000080 54 fd de bd 29 2e 8d bd c3 0d da 3e 77 22 94 3e
       -0.10888162 -0.0689357 0.42588624 0.28932545
000090 5c ad a5 3d df 6b 1a be ae 8b 0a be 68 ce 0d 3e
       0.08089706 -0.15080212 -0.13529846 0.13848269
0000a0 76 c8 cc 3b f3 90 13 3e ac ab 0d 3e 36 dc d2 3d
       0.0062494827 0.14410762 0.13835019 0.10295908
0000b0 b0 97 8d 3e 76 a9 9b 3d 8f 55 0c bd 4b e1 83 bd
       0.2765479 0.076006815 -0.034261283 -0.064394556
0000c0 76 bd 03 bd e9 db 3b bd b2 02 5d 3c 7c 35 a6 3d
       -0.032163106 -0.04586402 0.013489412 0.0811567
0000d0 4a f6 87 3c 55 58 f5 3c cd f2 9d 3c 58 53 d2 bd
       0.016596932 0.029949347 0.019280815 -0.10269803
0000e0 69 e9 27 3e 70 0c 8a 3e 30 33 c1 3d 6a 52 2a be
       0.16397633 0.26962614 0.09433591 -0.16633001
0000f0 59 66 92 3d ea 21 90 bc 61 03 23 3f c6 92 85 bd
       0.071484275 -0.017594296 0.6367703 -0.065221354
000100 9d d7 c1 be 27 d8 25 3e 77 e1 02 bf 79 96 96 bd
       -0.37859812 0.16195737 -0.5112528 -0.07352919
000110 44 1d 93 be 78 b2 6f 3e fc 9a 9e bd 88 b1 cb bd
       -0.28733265 0.23407924 -0.07744405 -0.09945971
000120 93 dd e9 be 87 d6 2b 3e cb fa 5d be 20 37 02 be
       -0.4567686 0.16781054 -0.21677701 -0.12716341
000130 3e 8b 70 be 4e e9 e5 bc d9 bb 1d 3d a6 cc a7 3e
       -0.23490617 -0.02806535 0.038509224 0.32773322
000140 66 b0 73 be 11 06 3c be cd 14 a5 bd 0c c3 31 3e
       -0.2379776 -0.18361689 -0.08060608 0.1735956
000150 4f 4c 85 3d a9 91 54 be 18 52 ec 3e f9 ee 81 3d
       0.06508695 -0.2075869 0.46156383 0.063444085
000160 2f 1d 48 be a8 63 89 be 39 00 46 3e c4 6b ff bd
       -0.19542383 -0.26833844 0.19336022 -0.124717265
000170 ea b0 13 bd f4 7d f2 bd b2 44 89 be 63 6b 03 be
       -0.03605739 -0.1184043 -0.26810223 -0.12833934
000180 b1 86 b0 bd a0 2c 06 bd b2 28 64 3e d9 47 ce 3e
       -0.0861944 -0.0327574 0.22281149 0.4028919
000190 16 4a 85 be 4f 02 77 be b8 ff 3a bc ee 8c 8a be
       -0.26033086 -0.24121974 -0.011413507 -0.27060646
0001a0 23 10 cb bd 9b b8 8e be d6 33 94 be a8 81 03 3e
       -0.09915187 -0.27875218 -0.28945798 0.12842429
0001b0 03 8c b4 bd 9d 03 f5 3d c7 7c 45 be 05 b2 30 be
       -0.088157676 0.1196358 -0.1928588 -0.17255409
0001c0 36 74 e0 3d 17 93 e2 be 2b c4 33 3c da 08 a4 be
       0.109596655 -0.44252846 0.010972063 -0.32038003
0001d0 15 91 3d be b6 df 9f 3d 82 23 9f be c3 bc 30 be
       -0.18512376 0.07806341 -0.31081778 -0.17259507
0001e0 dd ad cc 3c 37 0d a2 3e 45 22 a8 3e 1a 04 83 bd
       0.024985248 0.31650707 0.32838646 -0.06397267
0001f0 81 66 21 3e 4f 0c 8d be e1 bb 72 3e bd 5b 55 be
       0.15761758 -0.27548453 0.23704483 -0.20835777
000200 a5 d1 25 bc 51 3b 85 3d d6 45 b5 bc d9 17 59 3e
       -0.010120784 0.06505454 -0.022128027 0.21200503
000210 1f 02 1f 3e ea 08 fb 3a d1 7e b2 be b0 99 ea 3d
       0.15528153 0.0019152437 -0.34862378 0.11455095
000220 d2 12 ff bb 8d 8e 75 be da 01 da bd a3 a3 fa 3c
       -0.007784226 -0.2398016 -0.106448844 0.030595606
000230 5f 72 a2 3e 62 c3 37 be 85 e8 8a 3d 0a f8 f4 bd
       0.31727883 -0.17945626 0.06782631 -0.11961372
000240 89 f0 06 3e 64 4b 54 be ee da 4b 3d 7a 56 cd 3d
       0.13177694 -0.20731884 0.049769334 0.1002626
000250 c3 10 41 3a 83 2f 7d 3e 5f 47 b2 3c a2 ce d9 bd
       0.00073648634 0.24725156 0.021762548 -0.10635115
000260 e6 40 92 3c f4 35 1e be ec 59 b4 3e 2c cf 1b 3e
       0.017853212 -0.15450269 0.35224855 0.15215749
000270 5e b6 51 be 79 ba 2a be b4 05 e5 3d 7a 37 b5 be
       -0.20479724 -0.16672696 0.111827284 -0.35393888
000280 2d 56 1e 3d e6 d5 96 bd e3 2f f8 bd 10 75 16 be
       0.038656402 -0.07365017 -0.12118509 -0.14693093
000290 40 c7 17 be 5f cf bc bd 2c 8f a4 bd e4 4b 34 be
       -0.14822102 -0.092192404 -0.0803512 -0.17607075
0002a0 4e 5a 30 be ea 1f 17 3e 06 76 09 be 32 90 50 be
       -0.17221949 0.14758268 -0.13423929 -0.20367506
0002b0 1e 45 15 3e d8 1c f1 3d 23 a7 a9 bd a3 4e c4 bd
       0.14577147 0.1177308 -0.08283832 -0.09585311
0002c0 45 c6 28 bd 0a b0 27 3e f2 ed 80 be 78 b4 02 3e
       -0.04120471 0.16375747 -0.25181538 0.12764156
0002d0 58 39 4e be ae b0 c3 3e a1 39 b5 3c 0e 9c 2f 3e
       -0.20139062 0.38220733 0.022122206 0.17149374
0002e0 e6 64 04 be 52 48 c9 be 7d c9 b6 be 7a 9d 9f be
       -0.12929115 -0.3931299 -0.35700598 -0.31174833
0002f0 6a a6 e3 bd 5e f8 34 3e a4 de 50 be 3d 52 a1 3d
       -0.11115725 0.1767287 -0.2039743 0.07877014
000300 1c 23 8f 3e 3c ee f6 3d 6f e0 92 bd f5 de 91 3d
       0.27956474 0.12057158 -0.071717136 0.07122604
000310 7a bc 85 3e 19 bf c5 3e 22 87 5b 3e 56 fb bd bc
       0.2612036 0.38622358 0.21438268 -0.023191135
000320 ab a8 c7 bd 60 69 31 bd 89 61 f0 bd 26 56 60 3d
       -0.09748968 -0.043313384 -0.11737353 0.054769658
000330 15 0b 49 3d 47 70 00 3e d6 6e 3f 3e 51 73 7d 3e
       0.049082834 0.1254283 0.18694624 0.24751021
000340 3e 03 3c 3e 07 eb 1d be e3 a3 9a 3d 35 30 7e bd
       0.18360612 -0.15421687 0.0755079 -0.062057693
000350 26 92 3f be e5 b0 1c be 2c 0d 38 3e 62 86 30 3d
       -0.18708095 -0.15301855 0.17973775 0.043096907
000360 b6 7c bd 3d 5a 48 e9 3d 2b 8d 35 3e 1e bd 85 3e
       0.09252302 0.11390753 0.17729633 0.26120847
000370 ce b2 f4 3c a5 85 4d 3c 8b 4b 15 be 7d 6e 89 3d
       0.029870417 0.01254407 -0.14579599 0.06710527
000380 8c 29 1a 3e 94 cb 65 be f1 12 27 3c 10 7c b4 bc
       0.15054911 -0.2244094 0.010197387 -0.022031814
000390 d4 c4 64 bd 17 0f 88 bd d3 76 b5 3c 0e 2e 97 bd
       -0.055851772 -0.06643503 0.022151386 -0.07381831
0003a0 64 f9 40 be 91 7c f1 3d 84 1b c8 3d 09 59 8f 3e
       -0.18845135 0.11791337 0.09770873 0.27997616
0003b0 57 9c 8c 3e f4 2c d2 3e 42 02 84 3d 44 22 c9 bd
       0.27463028 0.41049922 0.06445743 -0.09820989
0003c0 68 90 20 be 17 5a 4f 3e 65 2c ba bd 84 7c ca ba
       -0.15680087 0.2024921 -0.09090499 -0.0015448486
0003d0 38 42 2a 3d 7e 37 b0 3d cb 33 36 3e 2b 42 88 bd
       0.041567057 0.08604334 0.17793195 -0.066532455
0003e0 47 ca d8 bd 62 04 a8 be 36 49 77 3e db a0 2e 3e
       -0.10585456 -0.32815844 0.24149022 0.17053549
0003f0 61 c2 85 3e 5b 8c 43 bd d1 52 95 3e 2b c9 d6 bd
       0.26124862 -0.047741275 0.29164746 -0.104875885

fc.weight f4 [4, 64]
000000 4c 91 8f be a5 6a ac 3c bc 4d 21 be 50 a5 2a 3d
       -0.2804054 0.021046946 -0.1575231 0.04166156
000010 9a 8a 41 3d a0 8e 8a 3d 50 27 d6 3d d3 c0 c2 bd
       0.04725132 0.06765485 0.10456717 -0.095094346
000020 11 c5 76 3e fd af a2 bd d0 c6 01 bf 9c d9 3e bc
       0.24098612 -0.07943723 -0.5069399 -0.011648562
000030 22 e0 8c 3e 20 3e 1f 3d 7f 35 90 bd 65 d0 ed 3d
       0.2751475 0.038877606 -0.070414536 0.11612014
000040 bf 5e 45 3f ec 4a d2 3d 9d ef 49 be a9 54 31 3e
       0.77097696 0.102681965 -0.19720311 0.17317452
000050 b4 c4 e9 bd 0b 44 69 be 9d 48 36 3f 6e a0 ea 3d
       -0.11414471 -0.22779863 0.7120455 0.11456381
000060 2a 8a 2f be 0e 25 1e 3e f1 64 79 be f2 91 d0 be
       -0.17142549 0.15443823 -0.24354912 -0.40736347
000070 6b e1 f5 bd 31 c2 93 be e1 6b c3 be 54 e6 1b 3e
       -0.12005886 -0.28859094 -0.38168243 0.15224582
000080 5b 49 03 be 19 ca 5a be 13 26 23 3e cc 2f d9 3d
       -0.12820952 -0.21366157 0.15932493 0.1060482
000090 60 be 83 be c0 96 d7 bc d6 5a a4 bd bc ab a0 bf
       -0.25731182 -0.026317 -0.08025138 -1.2552409
0000a0 62 73 24 3e 1e c7 9d 3e 04 e2 f5 3c af d4 c0 3e
       0.1605964 0.30815977 0.030015 0.37662265
0000b0 ce 0d f1 3d c7 8d 49 3f c6 ad b2 3d 4c c4 5a be
       0.11770211 0.7873196 0.08724551 -0.21363944
0000c0 cc 3d 44 be 3f 6a 49 3d c5 ec 62 bd 56 0b ef bc
       -0.19164199 0.04917359 -0.055401582 -0.02918021
0000d0 d4 6e c0 3e 4f 2b fa 3d 4b db 90 3e 39 b0 14 be
       0.37584555 0.12215292 0.28292307 -0.14520349
0000e0 1b 87 0c be f9 c1 bb 3e 04 53 82 3e aa 71 14 3f
       -0.13723414 0.36671427 0.2545396 0.5798594
0000f0 0e 09 ec bd a5 1b a8 be 5e d2 8e 3c 2c 4e a9 3d
       -0.115251645 -0.3283359 0.017434295 0.08266863
000100 34 4d be 3c 84 91 80 3e 7b 55 85 be 5d 50 24 bc
       0.023230173 0.2511102 -0.2604178 -0.010028926
000110 41 89 16 3e 9e 6f 22 bd 05 06 62 3e df b4 f2 be
       0.14700796 -0.039657228 0.22072609 -0.4740362
000120 98 ac c2 bd b4 3d 46 3e 82 c9 19 bf cd 88 3a 3e
       -0.09505576 0.19359475 -0.600731 0.18216248
000130 1c c8 a9 be e2 7e 17 bf 2f a2 b9 3e 99 46 e5 be
       -0.33160484 -0.5917798 0.3625655 -0.44780424
000140 53 32 8e 3e 9e 58 d9 3c 1a c6 43 be 2d 9a df bd
       0.2777277 0.026531514 -0.19118538 -0.109180786
000150 1a da d6 bd 7b e1 06 3e 4e 27 0c 3f 69 f3 07 bd
       -0.10490818 0.13171951 0.54747474 -0.03319112
000160 51 01 bb bd 88 7a da bd 09 ee ba be 5d ed 8e bd
       -0.091311105 -0.10667902 -0.3650973 -0.06978867
000170 8e ca 10 3e f1 8b 34 bf 40 d2 cb be 4e ef 88 3e
       0.14139768 -0.70526034 -0.39808846 0.26745075
000180 74 78 ce 3e 66 c3 18 3e 23 a3 60 be b0 65 2c be
       0.40326273 0.14918289 -0.21937232 -0.16835666
000190 b9 7f ed 3d 5f 48 a0 3e 07 cd 83 3e 10 84 c5 bd
       0.11596627 0.31305215 0.2574236 -0.096443295
0001a0 7b e6 b0 3e 6e 30 69 be e6 58 24 be df 92 3e be
       0.34550843 -0.2277238 -0.16049537 -0.18610714
0001b0 80 93 c8 3e 9a 8e 46 bf e1 46 90 3e 8f e3 1a 3e
       0.39175034 -0.7756134 0.28179076 0.15125869
0001c0 58 c2 20 3e cd 41 aa 3e 33 3c e7 3c 48 35 d9 be
       0.15699136 0.33253327 0.028226947 -0.42423463
0001d0 8d 17 d5 bd 7f 62 80 be 7c 41 3a 3f 30 24 42 3d
       -0.104048826 -0.25075147 0.7275617 0.047397792
0001e0 86 19 a5 be a7 7d 28 bb 2c 2e a3 3e 66 ce 95 bf
       -0.32246035 -0.002570966 0.31871164 -1.1703613
0001f0 00 8f 36 3e f3 6c 17 3d 4c ce 4e be a9 0f 9d bd
       0.17827988 0.036969136 -0.20195884 -0.076690026
000200 f7 a1 90 3e ff 46 39 3f 14 6b 60 3f 97 97 5d 3e
       0.2824857 0.72373956 0.8766339 0.21639858
000210 ca fc 96 3f bd 63 94 3c a4 8e 1f bc 5e 57 2d be
       1.1795895 0.018113965 -0.009738598 -0.16927859
000220 62 29 4e be a5 02 82 3e 30 a3 81 3d 7f 2d 1d be
       -0.20132974 0.25392643 0.06329954 -0.15349387
000230 01 42 8b bd 5f e1 0b 3f d8 3e f6 3c df 9f fc 3d
       -0.067996986 0.54640764 0.030059263 0.123351805
000240 30 79 96 3c 44 df f4 3e d9 93 76 be 2d d3 81 3d
       0.018368334 0.47826588 -0.24079837 0.06339107
000250 78 f7 26 bd 6f 8a 6b bd 57 71 be 3e 76 ad 3c bd
       -0.04076335 -0.057505067 0.37195846 -0.046063863
000260 29 ea 55 3f e3 26 fd 3d 74 0d a0 be d7 46 84 be
       0.83560425 0.12360933 -0.31260264 -0.25835297
000270 6b 25 56 3f 3d 4e 3b bf b7 67 2f be ae 59 42 3b
       0.83650845 -0.7316626 -0.17129408 0.0029655504
000280 c6 2e d2 be 44 d2 a2 be 18 d1 e4 3e 3f a2 10 3e
       -0.4105131 -0.31801045 0.44690776 0.14124392
000290 f6 44 1c 3f 92 69 18 bf fc b3 ef be e7 a2 2b be
       0.61042726 -0.5953609 -0.46817005 -0.16761361
0002a0 28 2d 6f 3e 27 7e 0c bf 23 4d b8 be b3 01 cb 3e
       0.2335707 -0.54879993 -0.3599635 0.39649734
0002b0 5f ba 3f bb 9d b5 b8 3e 84 c9 9c 3d 3f 16 80 3e
       -0.0029255373 0.3607606 0.076556236 0.25016972
0002c0 0a 5a af 3d a6 b6 0d 3c 43 cb 67 3f 39 65 e7 3e
       0.085620955 0.008649504 0.9054453 0.45194414
0002d0 1d 7a 15 bf b6 83 41 3d 12 97 0f be 24 fd df be
       -0.58389455 0.04724475 -0.14022473 -0.43747818
0002e0 b2 57 41 3d 04 89 a4 3e cd 62 d0 3e 76 a4 d8 3e
       0.047202773 0.32135785 0.4070038 0.42312974
0002f0 6e 56 11 3e ba e3 bf be 6e b4 c8 3c 39 cb d7 3e
       0.14193127 -0.3747843 0.024500098 0.42147234
000300 e6 e1 ce bd b3 4a 8b bd c7 32 fa 3e 82 ce 42 bf
       -0.101016805 -0.06801357 0.48866865 -0.76096356
000310 02 d0 80 3e 48 6b e1 bd b2 4f 5c bf 56 87 3c bf
       0.25158697 -0.110067904 -0.86059105 -0.73644006
000320 35 ac e9 be 57 10 1a be 41 53 63 ba 2b 0a 00 3f
       -0.45639196 -0.15045296 -0.00086717686 0.50015515
000330 d2 ac 34 3e 9d 53 9a 3e b4 03 34 3f ba c2 c1 be
       0.1764405 0.30141917 0.7031815 -0.37843877
000340 64 1a 07 3e 85 d7 46 be 66 a4 18 3e 34 35 b2 be
       0.13193661 -0.19418152 0.14906463 -0.34806216
000350 ac c5 9e 3f 86 74 8c 3e e9 62 e5 3d 9f 04 4c be
       1.2404075 0.2743265 0.11200506 -0.19923638
000360 74 05 23 be 29 0e f3 3e 58 13 8a 3c 7e 07 5e be
       -0.15920049 0.4747174 0.016854927 -0.21682546
000370 f7 f4 34 bf b1 22 d6 3e 48 bb 06 bf c3 ab 95 3c
       -0.70686287 0.41823342 -0.5262952 0.018270379
000380 75 1d 55 be c6 80 02 3f 86 ba 15 be d0 e1 f6 3e
       -0.20812018 0.5097774 -0.14621934 0.48219156
000390 4f 8a 73 3e ba f1 1f 3d 96 08 88 3e 51 a2 26 bd
       0.2378323 0.039048888 0.2656905 -0.04068214
0003a0 86 a7 7e be d1 f3 1d 3f a5 89 4e 3e c3 76 a6 3e
       -0.24868593 0.6170016 0.20169695 0.32512483
0003b0 0b c4 dd 3d 71 e3 11 3d 36 a7 d9 bd a1 b7 74 bf
       0.10828408 0.035617296 -0.10627596 -0.95592695
0003c0 11 63 a5 3e ac da b3 be 3a 94 1c be 98 a8 b3 3c
       0.32302144 -0.3512777 -0.15290919 0.021930978
0003d0 7e 16 c2 3e 04 5c 0f bf 63 77 d4 3d 61 29 e2 be
       0.37907785 -0.5599978 0.10374334 -0.44172195
0003e0 c2 11 91 3e 54 88 e4 be 2a a7 03 be be 12 8c 3d
       0.2833386 -0.4463526 -0.12856737 0.06839512
0003f0 02 b2 e4 be c4 75 63 bf e9 35 36 be 23 84 34 3f
       -0.4466706 -0.8885157 -0.17794003 0.70514125

fc.bias f4 [4]
000000 fd 7e 17 be ee c8 28 be 86 49 66 bd e3 9c 2f 3e
       -0.14794536 -0.16482899 -0.05622246 0.17149691
