Uni_Research/IRL/Final/Extended/Testing_Suite/model_C10000_R1000_S0.0.pth (torch, 91340 bytes, 11 tensors)

main_network.lstm.weight_ih_l0 f4 [256, 15]
0	0xbddb8fd1	-0.1072079
1	0xbd238a5b	-0.039926868
2	0xbdbf4a70	-0.0934037
3	0xbd96ceb8	-0.07363647
4	0xbeecefe2	-0.46276766
5	0xbe34e912	-0.17667034
6	0xbdf4cb15	-0.11952797
7	0xbf3a0726	-0.7266716
8	0xbe46b437	-0.19404684
9	0xbe9e4fab	-0.30920157
10	0xbeddfda8	-0.43357587
11	0xbee16fe8	-0.4403069
12	0xbe88e175	-0.2673451
13	0xbe965384	-0.29360592
14	0xbead42a8	-0.33839917
15	0x3e49d66a	0.19710699
16	0x3cb0ad9d	0.02156716
17	0xbe42e7ca	-0.19033733
18	0x3e85b549	0.26114872
19	0xbe0babe9	-0.13639797
20	0xbe406c91	-0.18791415
21	0xbeb84082	-0.35986716
22	0x3e717bdd	0.23582406
23	0xbe68dce2	-0.2274051
24	0x3eb37f49	0.35058048
25	0x3d8e8874	0.0695962
26	0xbe1b7433	-0.15181045
27	0x3dabf124	0.08395603
28	0x3ce7556c	0.028238975
29	0x3c2b6bf2	0.010462748
30	0xbe0564a8	-0.13026679
31	0xbe8fc8a9	-0.2808278
32	0xbda42b04	-0.08016017
33	0xbdbc4b71	-0.09194077
34	0x3db5baa2	0.08873488
35	0xbd5c4f6b	-0.053786676
36	0x3daad479	0.08341307
37	0xbefd5c46	-0.49484462
38	0xbe0f7b87	-0.14011966
39	0xbeb6f367	-0.35732576
40	0x3d8bd139	0.068270154
41	0xbd35cc2c	-0.044384167
42	0xbdbb79c3	-0.091540836
43	0xbe322973	-0.17398624
44	0x3c6d574a	0.014486143
45	0xbd82ba02	-0.063831344
46	0xbdc23402	-0.09482576
47	0xbdbfe51a	-0.093698695
48	0x3da17480	0.07883549
49	0x3e245a01	0.16049959
50	0xbb51c30e	-0.003200713
51	0xbe8710ea	-0.26380092
52	0x3f18486d	0.5948551
53	0xbe09892b	-0.13431232
54	0x3e564027	0.2092291
55	0x3f036b59	0.51335675
56	0xbdeed883	-0.1166239
57	0xbdbdd298	-0.09268683
58	0x3da9ddfc	0.08294293
59	0xbe292a7c	-0.16520113
60	0x3e5cfeb8	0.21581542
61	0xbe8c8ff2	-0.27453572
62	0xbd9132ed	-0.070897914
63	0x3ec119a3	0.37714872
64	0xbdef73d0	-0.11692011
65	0xbe05fdcd	-0.13085099
66	0xbe4fcbec	-0.20292634
67	0x3e9a766f	0.30168483
68	0xbeb51af7	-0.35372135
69	0xbe20547a	-0.15657225
70	0xbef1ba0a	-0.4721225
71	0xbe99cee0	-0.30040646
72	0xbf0230ad	-0.50855523
73	0xbe9d0daa	-0.30674487
74	0x3e81a376	0.25320023
75	0x3e6b34ab	0.2296931
76	0x3c9cad5f	0.019125639
77	0xbe21c9ae	-0.15799591
78	0xbe195bc1	-0.14976408
79	0xbe2fbd01	-0.17161943
80	0xbe63b6a7	-0.22237645
81	0xbd51f9ef	-0.051263746
82	0x3e8ed37f	0.27895734
83	0xbe05beb4	-0.13061029
84	0x3e5be766	0.2147499
85	0x3dba1629	0.09086258
86	0xbe766237	-0.24060903
87	0xbe31c1db	-0.17359106
88	0xbe47bed7	-0.19506393
89	0xbd5e9eee	-0.054350786
90	0xbe0cc913	-0.13748579
91	0x3df06130	0.11737287
92	0xbd7665d5	-0.06015571
93	0xbee2da5e	-0.44307226
94	0xbe055ae9	-0.1302296
95	0xbdbd060a	-0.092296675
96	0xbe9585dd	-0.29203692
97	0xbe19662e	-0.14980385
98	0xbe11d3fd	-0.14241023
99	0xbee1ca5a	-0.44099694
100	0x3dda8719	0.10670299
101	0x3e554679	0.20827664
102	0xbdd0a3d0	-0.10187495
103	0xbdbd8563	-0.09253957
104	0xbe5edc8d	-0.21763821
105	0xbd8820b7	-0.06646865
106	0xbcd504b1	-0.026003214
107	0x3e97a447	0.2961752
108	0xbddfbddf	-0.10924887
109	0x3e07c8c0	0.13260174
110	0x39b3b8a5	0.0003427911
111	0x3da69862	0.081345335
112	0x3d9d8561	0.07691456
113	0xbe0e183f	-0.13876437
114	0xbe7990c1	-0.24371625
115	0x3ee33837	0.44378826
116	0xbf29d799	-0.663446
117	0xbe8b1ae5	-0.27168956
118	0xbebba804	-0.36651623
119	0xbd8701e1	-0.06592155
120	0x3dccbc1f	0.09996819
121	0xbe3ac15d	-0.18237825
122	0x3e0e87c0	0.13918972
123	0x3d8c49ab	0.068499885
124	0x3d3e7885	0.046501655
125	0xbc862e5e	-0.016379531
126	0xbe8ca0e1	-0.2746649
127	0x3eac0e0d	0.3360447
128	0x3b83c279	0.0040209857
129	0xbdb0582f	-0.0861057
130	0xbe1eaf29	-0.15496506
131	0x3c9213e2	0.017831746
132	0x3dd52373	0.10407152
133	0xbd8ce9c9	-0.068805285
134	0xbbca15a3	-0.00616713
135	0xbd0e98a5	-0.034813542
136	0x3d0f742d	0.035022903
137	0xbd178c93	-0.036999296
138	0xbc8dd031	-0.017311187
139	0x3de426af	0.11140191
140	0xbd98fb74	-0.07469836
141	0x3de7aa58	0.11311787
142	0x3e07ce88	0.13262379
143	0xbdd77531	-0.10520399
144	0x3de89caa	0.11358006
145	0x3e1c5316	0.1526607
146	0xbe00d32d	-0.12580557
147	0x3d0fc0e2	0.035096057
148	0xbd532aee	-0.051554613
149	0x3e410f2f	0.18853448
150	0x3ebc80d5	0.3681704
151	0x3e3fe1f3	0.18738537
152	0x3da4080f	0.080093496
153	0x3e66b6ec	0.22530717
154	0x3e31635e	0.17323062
155	0xbe3f5f3c	-0.18688673
156	0x3e77f8c5	0.24215992
157	0xbded12ea	-0.11575873
158	0xbdaee62b	-0.08539995
159	0x3c26e1d9	0.010185682
160	0xbe55a8fb	-0.20865242
161	0xbe081348	-0.13288605
162	0xbe0782f8	-0.13233554
163	0x3caddf8a	0.021224756
164	0x3e0945a3	0.1340547
165	0x3e1361ab	0.14392726
166	0xbe118206	-0.14209756
167	0xbddfa30b	-0.1091977
168	0x3e62b770	0.22140288
169	0xbe088c32	-0.1333473
170	0xbee4216b	-0.44556746
171	0x3d8979e3	0.06712701
172	0x3d653b94	0.05596502
173	0x3d5dbb66	0.054133795
174	0xbedb8a6c	-0.42879045
175	0xbe90a4fb	-0.2825087
176	0xbd8a5c98	-0.06755942
177	0xbed81900	-0.42206573
178	0xbe02d760	-0.12777472
179	0xb735c4c6	-1.0834256e-05
180	0x3e990b66	0.2989151
181	0x3d40faba	0.04711411
182	0x3e5513b1	0.20808293
183	0x3f1cfdd0	0.6132479
184	0xbe651786	-0.22372255
185	0xbeaa9324	-0.33315384
186	0x3e9264fa	0.28592664
187	0x3f42da20	0.7611408
188	0xbd4a3c8c	-0.04937415
189	0xbe3a9674	-0.18221456
190	0xbea1092d	-0.31452313
191	0x3def22f6	0.1167659
192	0x3e16b3a3	0.14716963
193	0x3e0a1455	0.13484319
194	0x3bf3c8d6	0.007439713
195	0x3e81d54e	0.2535805
196	0xbe12a422	-0.14320424
197	0xbe47717c	-0.19476885
198	0xbf177cab	-0.59174603
199	0xbe67d59f	-0.22640084
200	0x3e3c2d4e	0.18376657
201	0xbe9b251f	-0.3030176
202	0xbdc7b066	-0.09750442
203	0x3ebefd89	0.37302807
204	0xbe77c722	-0.24197057
205	0xbd6a2569	-0.057164583
206	0x3cc79392	0.02436236
207	0x3f3d110f	0.73854154
208	0x3eabb024	0.33532822
209	0xbe51801f	-0.2045903
210	0xbe2e6fc4	-0.17034823
211	0xbd49f93a	-0.049309947
212	0xbe43d0c1	-0.19122602
213	0x3ebd6ca4	0.3699695
214	0xbdc865d2	-0.09785046
215	0xbe9b0c37	-0.30282757
216	0xbd8437ed	-0.064559795
217	0xbdfb5b77	-0.12273305
218	0xbd23e0de	-0.040009372
219	0x3e10971c	0.14120144
220	0xbd63fefb	-0.05566309
221	0xbebc5284	-0.36781704
222	0x3d14c1ee	0.03631776
223	0xbd0d3f62	-0.034484275
224	0xbcb33823	-0.021877354
225	0xbe4a6e27	-0.19768582
226	0x3cee31d1	0.029076489
227	0x3ea0b931	0.3139129
228	0x3e7b5990	0.24545884
229	0x3e756ce2	0.23967317
230	0xbc99c19c	-0.018769078
231	0x3ecb7a57	0.39741775
232	0x3e8cb121	0.2747889
233	0xbe313cf9	-0.17308415
234	0xbd5ce2b4	-0.05392714
235	0xbed89c5b	-0.4230679
236	0xbb668e60	-0.0035180077
237	0xbe6de91a	-0.23233452
238	0x3e915ef7	0.28392765
239	0x3e044b9e	0.1291947
240	0xbd3cb585	-0.046071548
241	0xbe594726	-0.21218547
242	0xbe1057fc	-0.14096063
243	0x3e83f76b	0.25774702
244	0xbf25cf83	-0.6476976
245	0xbd85546e	-0.06510244
246	0xbf0e372f	-0.55552953
247	0x3f1971fb	0.59939545
248	0xbdbee692	-0.093213215
249	0x3f0b0884	0.5430987
250	0xbe0c742f	-0.13716196
251	0xbe0f4ff0	-0.13995337
252	0x3ee6ddbc	0.45091045
253	0xbdecc745	-0.11561445
254	0xbd88d023	-0.06680324
255	0xbe27a1ad	-0.16370268

main_network.lstm.weight_hh_l0 f4 [256, 64]
0	0x3eaa7fc5	0.33300605
1	0xbde52b21	-0.11189867
2	0xbe36f202	-0.17865756
3	0x3d435562	0.04768885
4	0x3eb1fe30	0.34764242
5	0xbf09dd96	-0.5385374
6	0xbedb27e0	-0.4280386
7	0xbe882953	-0.26594028
8	0xbe58f96a	-0.21188894
9	0xbdaa8e86	-0.083279654
10	0x3e211060	0.15728903
11	0xbc876bf4	-0.016530968
12	0x3d24ed32	0.04026527
13	0x3f0d85c8	0.5528226
14	0xbe172d35	-0.14763339
15	0xbe225bdc	-0.15855354
16	0x3de785a4	0.11304787
17	0xbf3c0cdb	-0.73457116
18	0x3e12b278	0.14325893
19	0xbed95ef8	-0.42455268
20	0xbec51399	-0.38491514
21	0x3e664508	0.22487271
22	0x3ed3b9cd	0.41352692
23	0xbe277052	-0.1635144
24	0xbdf09105	-0.1174641
25	0x3eae2e4f	0.34019706
26	0xbea13851	-0.31488279
27	0x3f1e267b	0.61777467
28	0x3d87b899	0.06627006
29	0xbd8eef4a	-0.069792345
30	0x3b003dd2	0.0019568098
31	0xbdca5746	-0.09879927
32	0x3d97c59d	0.074107386
33	0x3d5f60f1	0.05453581
34	0xbedef013	-0.43542537
35	0x3e2b306b	0.16717689
36	0x3ea5eb91	0.32406285
37	0x3e8fdef6	0.28099793
38	0xbcc5579c	-0.024089627
39	0xbe6d4872	-0.23172167
40	0xbea8f07d	-0.32995978
41	0xbee520e1	-0.44751647
42	0xbe9fbafa	-0.3119734
43	0x3ea4a9d3	0.32160816
44	0x3f33e1a3	0.7026617
45	0xbe4af82c	-0.19821233
46	0x3f13a907	0.5767979
47	0x3e375d0c	0.17906588
48	0xbe22405b	-0.15844862
49	0x3db7d2f5	0.08975784
50	0x3d913f41	0.07092143
51	0xbee2e231	-0.44313195
52	0x3eb8934a	0.36049873
53	0xbf04d458	-0.5188651
54	0xbef33472	-0.4750095
55	0x3d6257e3	0.055259597
56	0x3eafb9ce	0.34321445
57	0x3e76413e	0.24048325
58	0xbf09ecda	-0.5387703
59	0xbea3644e	-0.31912464
60	0xbeaa1248	-0.33217072
61	0xbbbd8311	-0.0057834466
62	0xbf340ac7	-0.70328945
63	0xbf18a245	-0.59622604
64	0x3dbf9263	0.09354093
65	0x3d6eb6ab	0.058279675
66	0xbcee776b	-0.029109677
67	0xbed7d5d3	-0.42155322
68	0x3e9e22e7	0.30886003
69	0xbe35db9a	-0.17759553
70	0x3e5866ce	0.21132967
71	0xbdc8f706	-0.09812741
72	0x3da7900a	0.0818177
73	0x3e628287	0.22120105
74	0x3ead8391	0.3388944
75	0xbe3ced72	-0.18449953
76	0xbcd0ca75	-0.025487164
77	0x3e038180	0.12842369
78	0x3e40992a	0.18808427
79	0x3e9ab0d4	0.30213034
80	0xbdf1eba3	-0.11812522
81	0x3cfdef2f	0.03099784
82	0xbd39286b	-0.04520456
83	0x3c8e9a9b	0.017407706
84	0xbe25ca29	-0.16190399
85	0xbe8551c3	-0.26038942
86	0xbda1b059	-0.07894964
87	0xbe932e3e	-0.28746217
88	0xbd441c31	-0.047878448
89	0xbe2b8e2a	-0.1675345
90	0xbd80163d	-0.062542416
91	0xbcf50ac4	-0.02991236
92	0x3e8aafe4	0.2708732
93	0x3e5abb1c	0.21360439
94	0x3c8096a6	0.015696835
95	0x3d096790	0.03354603
96	0xbb2d498f	-0.002644155
97	0x3e89cb10	0.26912737
98	0x3d55bf6f	0.05218452
99	0xbd288231	-0.041139785
100	0xbe1dddb8	-0.1541661
101	0xbd213831	-0.03936023
102	0xbd4a2e4f	-0.04936057
103	0x3d2678f7	0.040642705
104	0x3d721e26	0.059110783
105	0xbd1e8b22	-0.038706906
106	0xbd6fc34e	-0.058535866
107	0x3e8155f8	0.252609
108	0xbe87e7bb	-0.26543984
109	0xbdad10d1	-0.08450473
110	0xbe053388	-0.13007939
111	0xbd3673f7	-0.044544186
112	0x3de625bb	0.11237665
113	0xbeb0d1cb	-0.3453506
114	0xbded9b35	-0.11601869
115	0x3d52b0eb	0.051438253
116	0x3d3a2e5c	0.045454368
117	0xbe04700c	-0.12933367
118	0x3cc2f803	0.023799902
119	0x3caa822e	0.020814028
120	0x3d39be30	0.045347393
121	0x3c979221	0.018502297
122	0xbdbadec9	-0.09124524
123	0x3d8a59d4	0.067554146
124	0x3dd0b85c	0.10191414
125	0xbccc88e9	-0.024967628
126	0x3d3c5c42	0.04598642
127	0xbdbcd09a	-0.09219475
128	0x3d4cc67a	0.04999397
129	0xbdc7cb60	-0.097555876
130	0xbd28f904	-0.041253105
131	0x3c951d0c	0.018202327
132	0x3d375f98	0.0447689
133	0xbc56aa3c	-0.0131021105
134	0xbea440b0	-0.32080603
135	0x3b948b0e	0.004533178
136	0xbdb7d1b8	-0.089755476
137	0xbe25dbb4	-0.16197091
138	0x3e0d9653	0.13826875
139	0x3d23a0e5	0.039948363
140	0x3d7816a9	0.060568485
141	0xbd86168d	-0.0654727
142	0xbd95349d	-0.07285426
143	0xbce7c60d	-0.02829268
144	0x3c9147bb	0.017734399
145	0x3d27fdc6	0.0410135
146	0x3cf739cf	0.030178932
147	0x3d18650e	0.03720575
148	0xbd191495	-0.037373144
149	0x3de54ee8	0.11196691
150	0x3ca33b96	0.019925874
151	0x3c21d313	0.009876984
152	0xbdae9e75	-0.08526317
153	0x3e0d3646	0.13790235
154	0xbdae7ed0	-0.08520281
155	0x3dc61453	0.09671845
156	0x3dc11bcf	0.09429132
157	0xbcfcfd46	-0.030882489
158	0xbd820eab	-0.06350454
159	0x3cb688a7	0.022281958
160	0x3dc6910f	0.096956365
161	0x3b5452f0	0.0032398067
162	0xbe752f46	-0.23943815
163	0xbe3e0095	-0.1855491
164	0x3e1200ac	0.14258069
165	0xbdaaf01b	-0.08346578
166	0x3dc05f75	0.09393207
167	0xbe7fe0e7	-0.24988137
168	0xbe326946	-0.17422971
169	0xbe1ed528	-0.15511
170	0xbd89a84c	-0.06721553
171	0x3dd94009	0.10607917
172	0x3db56efd	0.0885906
173	0xbdefa331	-0.11701048
174	0x3e1668a3	0.14688353
175	0x3c0521f9	0.0081257755
176	0xbd1d24e8	-0.038365275
177	0xbd0e20ce	-0.034699254
178	0xbcb2f262	-0.021844093
179	0x3d60216a	0.054719366
180	0x3dbf8520	0.093515635
181	0xbe97ee26	-0.2967388
182	0x3c651406	0.013981825
183	0xbcd86696	-0.026416104
184	0x3e12a147	0.14319335
185	0x3dce8cd9	0.10085458
186	0xbd27bd12	-0.040951796
187	0xbc9b3440	-0.018945813
188	0xbdeedfb2	-0.1166376
189	0xbe2357a7	-0.15951405
190	0xbe702c59	-0.23454417
191	0x3d09c529	0.033635292
192	0x3e3bfdd7	0.18358551
193	0x3e25f9ce	0.16208574
194	0xbb93f150	-0.0045148507
195	0xbdb2cb1d	-0.08730147
196	0x3e42da3d	0.19028564
197	0xbe136aa2	-0.14396146
198	0xbd10b9a9	-0.03533331
199	0xbd9c98e5	-0.0764635
200	0xbe302fd1	-0.1720574
201	0x3d59357c	0.053029522
202	0x3e54c372	0.20777681
203	0x3e31f9ae	0.17380401
204	0x3ebe17ba	0.37127477
205	0x3c9622e9	0.018327193
206	0x3e76d735	0.24105532
207	0x3ce2b4a4	0.027674027
208	0x3d1f079e	0.038825624
209	0x3c0b8380	0.008515239
210	0xbc914d6a	-0.01773711
211	0x3c09ea43	0.008417669
212	0xbe41abdf	-0.1891322
213	0xbe09e873	-0.13467579
214	0xbd89b1a5	-0.06723336
215	0xbe0ceb63	-0.13761668
216	0xbce4d2d0	-0.027932554
217	0xbdbc8410	-0.092048764
218	0xbdcff1b6	-0.101535246
219	0x3de14d70	0.11001098
220	0x3e24f342	0.1610842
221	0x3c0137a5	0.007886802
222	0xbe03b5f6	-0.12862381
223	0x3d900c81	0.07033635
224	0x3cb2d1a1	0.021828474
225	0xbdb9b63a	-0.0906796
226	0xbe393194	-0.18085319
227	0x3d6095a1	0.054830197
228	0x3e0937b6	0.13400158
229	0xbddc05c3	-0.107432865
230	0x3d352a8e	0.044230036
231	0x3dca45d4	0.098766
232	0xbe93761c	-0.28801048
233	0x3ded9263	0.11600187
234	0xbdd8267c	-0.10554215
235	0xbdd2cfc6	-0.10293536
236	0x3d4af5fd	0.049551
237	0x3cdd2d28	0.026999071
238	0xbd103de1	-0.035215262
239	0xbc051a73	-0.008123982
240	0xbd2c0552	-0.04199726
241	0x3dc68249	0.09692819
242	0xbcaddb74	-0.021222807
243	0xbdae6079	-0.085144944
244	0xbde8d159	-0.11368055
245	0x3d40b882	0.04705096
246	0xbd809bf6	-0.06279747
247	0xbd649d9d	-0.055814374
248	0xbd9030c4	-0.07040551
249	0xbe3b807b	-0.1831073
250	0xbe124464	-0.14283901
251	0xbdf1a201	-0.11798478
252	0x3e4ff06c	0.20306557
253	0x3e12058c	0.14259928
254	0xbbfe9a1b	-0.0077698356
255	0xba380362	-0.0007019547

main_network.lstm.bias_ih_l0 f4 [256]
0	0x3d913e70	0.07091987
1	0xbdb541e6	-0.0885046
2	0xbd6f5344	-0.058429018
3	0x3dab481f	0.083633654
4	0x3d007bc9	0.03136805
5	0x3e0a7154	0.13519794
6	0x3d68eaf6	0.0568647
7	0xbd9fb248	-0.07797676
8	0x3e0409f2	0.12894419
9	0xbcbb2249	-0.022843497
10	0x3d30c8a0	0.04316008
11	0xbe26b603	-0.1628037
12	0xbb9f24c8	-0.0048566796
13	0x3dd63eaa	0.10461171
14	0xbc926049	-0.017868178
15	0x3e484782	0.19558528
16	0xbe385fc1	-0.18005277
17	0x3e2d5272	0.16925982
18	0x3e2e6fcd	0.17034836
19	0x3e257b2b	0.16160266
20	0xbce1d69d	-0.027568156
21	0x3c1f34e9	0.009717205
22	0x3e525a90	0.2054236
23	0x3ca3f20a	0.020012874
24	0xbe1f6c2e	-0.15568611
25	0x3da725a8	0.08161479
26	0x3d6b4739	0.05744097
27	0x3d0d9feb	0.034576338
28	0x3bcf6328	0.006328959
29	0x3da79bfd	0.08184049
30	0xbe20f10a	-0.15716949
31	0xbe5c3b40	-0.21506977
32	0xbcf66634	-0.030078031
33	0x3d5a0d0b	0.053235095
34	0x3db5c235	0.08874933
35	0x3de3a893	0.11116137
36	0xbd8029c2	-0.06257965
37	0x3e10ca64	0.14139706
38	0xbce9ef4c	-0.028556488
39	0x3c9d9ca0	0.019239724
40	0x3c3f40d0	0.011673167
41	0xbdeaabba	-0.114585355
42	0xbe187db8	-0.14891708
43	0xbda554d5	-0.08072821
44	0x3d05c9b5	0.032663066
45	0x3d856d4c	0.06514987
46	0xbe2749ef	-0.16336797
47	0xbe36b932	-0.17844084
48	0x3e3cb22e	0.18427345
49	0x3d5b4317	0.05353078
50	0x3dd7a9b6	0.10530417
51	0x3b50c115	0.0031853367
52	0xbe1976c7	-0.14986716
53	0x3db01928	0.08598548
54	0x3e33564f	0.17513393
55	0x3e9f29f1	0.31086686
56	0xbcf4581c	-0.02982717
57	0x3e243ca2	0.16038755
58	0x3e3cfdc2	0.18456176
59	0xbe56f7ba	-0.20992938
60	0x3d467d8f	0.048459586
61	0x3e2a15e2	0.1660991
62	0x3e9078e7	0.2821724
63	0x3d98b50e	0.074564084
64	0xbc96aa2f	-0.018391697
65	0x3dc87533	0.09787979
66	0xbd954c9d	-0.072900034
67	0x3dba4a1a	0.09096165
68	0xbea48e0e	-0.3213963
69	0xbdc7167c	-0.097210854
70	0xbd0ce4ae	-0.034397773
71	0xbd2c3193	-0.042039465
72	0xbe05603f	-0.13024996
73	0x3c84a17a	0.01619028
74	0x3d84baaa	0.06480916
75	0x3dbb832a	0.09155877
76	0xbe07521a	-0.13214913
77	0x3de1df37	0.11028903
78	0x3e0874d5	0.13325818
79	0x3e1a3b1a	0.15061608
80	0xbc64b591	-0.013959304
81	0xbdf81143	-0.121126674
82	0x3e105e55	0.14098485
83	0xbdd3481a	-0.10316487
84	0x3d9e2ff7	0.07723992
85	0xbda0ca13	-0.078510426
86	0xbb93f72b	-0.0045155487
87	0x3e00d750	0.12582135
88	0x3c4e910c	0.012607824
89	0xbd52e8b0	-0.05149144
90	0xbe16d5ce	-0.14729998
91	0xbe27f171	-0.16400696
92	0xbdc5be25	-0.09655408
93	0x3e5284bb	0.20558445
94	0x3deeb7ae	0.11656128
95	0xbd7e2d07	-0.06205466
96	0xbd864f56	-0.06558101
97	0xbdabc16c	-0.08386502
98	0xbde452fe	-0.11148642
99	0x3c9bf184	0.019036062
100	0x3e6a777e	0.22897145
101	0x3cdfcba0	0.027318776
102	0xbd3b578d	-0.04573779
103	0xbc9f6ab1	-0.019460054
104	0x3e2bf738	0.16793525
105	0xbe1d1f51	-0.15343978
106	0xbdc5230e	-0.09625827
107	0x3e1218ea	0.14267316
108	0x3dfe1972	0.12407197
109	0xbe2631a4	-0.16229874
110	0xbdd303ca	-0.10303457
111	0x3d83ad53	0.06429543
112	0x3e205011	0.15655543
113	0x3d63d982	0.055627353
114	0x3caeda7c	0.021344416
115	0xbc5dd967	-0.013540602
116	0xbe316415	-0.17323335
117	0x3e504f53	0.2034276
118	0xbd83bce3	-0.06432512
119	0x3e54d83a	0.20785609
120	0x3d037680	0.032095432
121	0xbe2f358b	-0.17110269
122	0xbc3d8488	-0.011567242
123	0xbe2fb838	-0.17160118
124	0x3d43b91a	0.04778395
125	0x3c070818	0.008241676
126	0x3ba35b89	0.004985277
127	0x3b8ff9af	0.0043937783
128	0xbddd2692	-0.10798372
129	0x3d369453	0.044575047
130	0x3d15a469	0.036533747
131	0xbd182d4e	-0.03715258
132	0x3e1dbf42	0.1540499
133	0xbe2a4a03	-0.16629796
134	0x3ca2a17f	0.019852398
135	0x3e1c4b8a	0.15263191
136	0xbc7fe2f6	-0.015618077
137	0xbe150b8f	-0.1455519
138	0x3e26fc39	0.16307153
139	0xbe13ddaa	-0.14440027
140	0x3bf8aa69	0.007588674
141	0x3c3103ab	0.010804097
142	0x3e01e586	0.12685212
143	0x3e038c4b	0.12846486
144	0x3d4cff3e	0.050048105
145	0xbe711f9c	-0.23547214
146	0xbe28fe6f	-0.16503309
147	0x3ca9bd9a	0.020720292
148	0xbe184361	-0.14869453
149	0xbe3b3536	-0.18282017
150	0x3e410efe	0.18853375
151	0xbd6ac3da	-0.057315685
152	0xbd26c429	-0.040714417
153	0x3e08cd7e	0.13359639
154	0xbe450f45	-0.19244106
155	0x3e0a899b	0.13529055
156	0x3e35c952	0.17752579
157	0x3d90ab7f	0.0706396
158	0x3d30629e	0.0430628
159	0x3e05c2b6	0.13062558
160	0x3d9957f0	0.07487476
161	0xbc8c1515	-0.017099896
162	0xbd9fdd76	-0.07805912
163	0x3d860124	0.06543186
164	0xbd5b65de	-0.053563945
165	0xbb04fa4c	-0.002029079
166	0xbd2fb301	-0.04289532
167	0x3dc9d950	0.09855902
168	0xbc8cf8dc	-0.01720851
169	0x3dc3a835	0.09553567
170	0xbd21ca59	-0.039499614
171	0x3e0f1c5e	0.13975665
172	0x3d349302	0.04408551
173	0xbd5acb5e	-0.053416602
174	0x3da87618	0.082256496
175	0x3d466cf1	0.04844374
176	0x3d9d92dc	0.07694027
177	0xbda89da2	-0.08233191
178	0xbe6cfeda	-0.23144093
179	0xbe27e2c2	-0.16395095
180	0xbc817efd	-0.015807623
181	0xbca113f9	-0.019662844
182	0x3d3e49f4	0.046457246
183	0x3e188842	0.14895728
184	0x3c2e87ec	0.0106525235
185	0x3dd9ab13	0.10628333
186	0xbb5a2cb0	-0.0033290796
187	0x3df8b005	0.12142948
188	0xbd4c8781	-0.049933914
189	0x3d98145c	0.07425758
190	0xbe1d80d4	-0.15381175
191	0xbe1a4fa6	-0.15069446
192	0x3d53ac17	0.05167779
193	0x3d24a4fc	0.040196404
194	0xbdbf850a	-0.09351547
195	0xbd14c3b4	-0.03631945
196	0x3be757c3	0.0070600226
197	0x3e191c66	0.1495224
198	0xbd17641a	-0.0369607
199	0xbd1ac37d	-0.03778409
200	0xbda466b6	-0.08027403
201	0x3d91aaf2	0.07112683
202	0x3ce04837	0.027378185
203	0xbd40bc7d	-0.047054756
204	0x3cb437d9	0.021999286
205	0x3e9ceffc	0.30651844
206	0xbc124535	-0.008927633
207	0xbba17e60	-0.004928395
208	0x3de66af1	0.11250866
209	0x3e74c4a6	0.2390314
210	0x3dc80845	0.09767202
211	0x3e4069a7	0.18790303
212	0x3e72bc9f	0.23704766
213	0x3dbb0fda	0.09133883
214	0x3d40051e	0.04687988
215	0x3a22d5ed	0.0006211687
216	0xbe2e8212	-0.17041805
217	0xbd04bde2	-0.03240765
218	0x3e329b9e	0.17442176
219	0xbdba3cb2	-0.09093608
220	0x3e10f3e6	0.1415554
221	0x3c976358	0.018479988
222	0xbdf5b69f	-0.11997723
223	0xbd8cf4ea	-0.06882651
224	0x3ca23382	0.019799951
225	0xbd01e6e7	-0.031714346
226	0x3dcf1f4f	0.101133935
227	0x3dc9f103	0.098604225
228	0x3dcc4e9f	0.09975933
229	0x3d8dbafd	0.06920431
230	0x3ea3ecee	0.320167
231	0x3c5ef31f	0.013607769
232	0x3da6bcbf	0.08141469
233	0xbe431e94	-0.19054633
234	0x3d684e38	0.05671522
235	0x3d9d8a45	0.076923884
236	0x3e3a6ff3	0.18206768
237	0x3db30d62	0.08742787
238	0xbe158f3a	-0.14605418
239	0xbdfc3ee7	-0.12316685
240	0x3e2e12ad	0.16999312
241	0x3c7e015d	0.015503255
242	0x3e5316bb	0.2061414
243	0xbda48303	-0.08032801
244	0x3dbf1f0d	0.09332094
245	0x3e0faf93	0.1403182
246	0x3d7400d0	0.059571087
247	0x3e5cede8	0.21575129
248	0xbe3d50ad	-0.18487807
249	0x3ebb5cea	0.36594325
250	0x3e71b187	0.23602878
251	0xbe668fd5	-0.22515805
252	0xbccd0c70	-0.025030345
253	0x3c408468	0.011750318
254	0x3eacf1e7	0.33778307
255	0xbe2c90fe	-0.16852185

main_network.lstm.bias_hh_l0 f4 [256]
0	0x3d73f0c4	0.059555784
1	0x3cd7a6e6	0.0263247
2	0xbe8d3957	-0.2758281
3	0xbc758153	-0.014984447
4	0xbbe2ed9c	-0.006925298
5	0xbcb1a3f6	-0.021684628
6	0xbd9d5596	-0.0768234
7	0xbe2a6e0d	-0.16643544
8	0xbd3abf66	-0.045592688
9	0x3da370fb	0.07980534
10	0x3e56ccf2	0.20976618
11	0xbdb1e271	-0.086857684
12	0xbd35bae3	-0.044367682
13	0x3ce483be	0.02789485
14	0x3d9862ce	0.074407205
15	0x3de0feac	0.10986075
16	0xbdb2d7ec	-0.0873259
17	0x3c658ccc	0.014010619
18	0x3e4e53b2	0.20149115
19	0x3ea4e488	0.32205606
20	0x3d950954	0.0727717
21	0xbd90824d	-0.07056103
22	0x3e9089b3	0.28230056
23	0xbd893c6c	-0.06700978
24	0xbcc361e7	-0.023850394
25	0x3daecde8	0.08535367
26	0x3e36a37c	0.17835802
27	0xbcedcd0e	-0.029028442
28	0x3e00f1f2	0.12592295
29	0xbd7aed77	-0.06126162
30	0xbe556904	-0.20840842
31	0xbd7676f1	-0.060172025
32	0xbc9cba86	-0.01913191
33	0xbd9ea6ea	-0.0774668
34	0x3e5d7a42	0.21628669
35	0x3c3d9cbe	0.011573015
36	0x3dbf04b6	0.093270704
37	0x3db9ac9b	0.09066125
38	0xbd730c2a	-0.059337772
39	0xbd6ee431	-0.05832309
40	0xbdf03220	-0.117283106
41	0xbd0f58fa	-0.034996964
42	0xbe13ebef	-0.1444547
43	0x3da32342	0.07965709
44	0x3d1ce80f	0.038307246
45	0xbd8c781f	-0.06858849
46	0xbe021ac9	-0.1270553
47	0x3ba7c01f	0.005119338
48	0x3e561d8e	0.20909712
49	0x3d8cbf24	0.06872395
50	0xbc6d05fe	-0.014466761
51	0xbd56c2cf	-0.052431878
52	0xbda99bd0	-0.08281672
53	0x3deafafe	0.11473654
54	0x3da24034	0.07922402
55	0x3e8fccc8	0.28085923
56	0x3c86971a	0.016429473
57	0x3e05b00e	0.13055441
58	0x3cf4e5f1	0.0298948
59	0x3b749d66	0.0037325262
60	0x3dc12233	0.09430351
61	0xbc7640f0	-0.015030131
62	0x3e79012f	0.24316858
63	0x3d9a9268	0.07547456
64	0x3df3d7d7	0.119064026
65	0x3cc4e1db	0.024033478
66	0xbe003def	-0.12523626
67	0x3d41aed1	0.04728586
68	0xbe91775b	-0.28411373
69	0x3ce6e6ca	0.02818622
70	0xbd06e9ca	-0.032937802
71	0x3d05e5f9	0.032690022
72	0x3cf21634	0.029551603
73	0xbd743ad6	-0.059626423
74	0x3e532890	0.20620942
75	0x3d5a1d0d	0.05325036
76	0x3cdb0dae	0.026739921
77	0x3ddda931	0.10823286
78	0xbd33c270	-0.043886602
79	0xbd85c0e5	-0.06530932
80	0x3deb0709	0.11475951
81	0xbe3ea598	-0.18617857
82	0x3d8fafaf	0.07015931
83	0x3d144e90	0.036207736
84	0xbcca373a	-0.024684537
85	0x3c16866b	0.009187321
86	0xbdf1f5c5	-0.11814455
87	0xbcc8f5fb	-0.024531355
88	0x3db9696a	0.09053309
89	0x3c7f7445	0.015591686
90	0xbda9517d	-0.08267496
91	0xbd28250b	-0.041050952
92	0xbd8614a5	-0.065469064
93	0x3e8b9600	0.27262878
94	0xbae43b71	-0.0017412734
95	0xbdabe4ea	-0.08393271
96	0xbdf9ef6e	-0.12203871
97	0x3d572637	0.05252668
98	0xbe6bff7e	-0.23046681
99	0x3e0ee3b3	0.13954048
100	0x3e517d8d	0.2045805
101	0xbce3e903	-0.02782107
102	0x3e1bc6ed	0.15212603
103	0xbd7bb2e7	-0.06144991
104	0x3cd883ce	0.026430037
105	0xbc94e45c	-0.018175296
106	0x3d2acba0	0.0416981
107	0xbd78f89c	-0.060783967
108	0x3e69d724	0.22835976
109	0x3d4ea9fd	0.050455082
110	0xbd8851a6	-0.06656198
111	0xbbdc077c	-0.0067147594
112	0x3a99f40f	0.0011745709
113	0xbc973663	-0.01845855
114	0xbd02b41d	-0.03191005
115	0x3e2a8ebc	0.16656011
116	0xbda5cfb9	-0.080962606
117	0x3e2a975b	0.166593
118	0x3d9cb38a	0.07651432
119	0x3e1e9b7b	0.15488999
120	0x3d4bcac5	0.049753923
121	0xbd93ae23	-0.07210948
122	0x3c487fa7	0.012237466
123	0xbe36430b	-0.17799012
124	0xbc91d017	-0.01779942
125	0xbe049b36	-0.12949833
126	0xbdb3dc07	-0.08782201
127	0xbc1cb92e	-0.009565635
128	0xbe4d6b67	-0.20060502
129	0xbc7be1ab	-0.015373628
130	0x3d837ad7	0.06419914
131	0x3d2dcac0	0.042429686
132	0xbc8f6229	-0.017502861
133	0xbe65de06	-0.22447976
134	0xbd0d2ca2	-0.034466393
135	0x3e0233f6	0.12715134
136	0xbacef092	-0.0015788248
137	0x3d2c68db	0.042092185
138	0x3e876bb0	0.26449347
139	0xbcb1816e	-0.021668162
140	0xbd2a3f16	-0.04156407
141	0x3d8bff0f	0.06835758
142	0xbd2ab54a	-0.041676797
143	0x3e283373	0.16425876
144	0x3dcfa23b	0.10138365
145	0xbe3f9682	-0.18709758
146	0xbdf0fd57	-0.11767071
147	0xbdc2be77	-0.095089845
148	0xbe248ac6	-0.16068563
149	0xbcdd3a89	-0.02700545
150	0x3dc7bd86	0.097529456
151	0xbe26f5ba	-0.16304675
152	0x3dc10de4	0.094264776
153	0xbd0fcf56	-0.03510984
154	0xbe175c9e	-0.14781424
155	0x3dea2145	0.11432127
156	0x3e5874e5	0.21138342
157	0x3c0d05b6	0.008607319
158	0x3d86a5a2	0.06574561
159	0x3dab31da	0.08359118
160	0x3e1029eb	0.1407849
161	0xbc8acd65	-0.016943643
162	0xbe6c85d3	-0.23097925
163	0x3e0cbb92	0.13743427
164	0xbe300fe7	-0.17193566
165	0x3d23519d	0.039872754
166	0xbdce99f9	-0.10087962
167	0xb7163115	-8.9521245e-06
168	0x3dd49f9e	0.10382007
169	0xbda3ae27	-0.07992201
170	0xba2786ea	-0.0006390648
171	0x3e0ccaa6	0.13749179
172	0xbe10308f	-0.14081024
173	0x3b3fc22f	0.002926003
174	0x3e08e640	0.13369083
175	0x3d8b80b1	0.06811655
176	0x3d80fe4b	0.062985025
177	0x3cb9da9a	0.022687245
178	0xbdfb3ce0	-0.1226747
179	0xbe84dbe4	-0.25949013
180	0x3d94b686	0.07261376
181	0x3e473446	0.19453534
182	0xbdce2200	-0.10065079
183	0x3e4b8bca	0.19877544
184	0x3e167f9a	0.14697114
185	0x3d59e8d3	0.053200554
186	0xbe04380a	-0.12912002
187	0x3db5cf70	0.08877456
188	0xbd2ca0cc	-0.042145535
189	0x3bbcc358	0.0057605915
190	0xbc64d74a	-0.013967345
191	0xbe2a18b9	-0.16610993
192	0xbbbad910	-0.0057021454
193	0x3d89571b	0.06706067
194	0xbe7d9131	-0.24762417
195	0x3cab5e1b	0.020918896
196	0x3da3e3c5	0.08002428
197	0x3dc06862	0.093949094
198	0x3d94ebc4	0.07271531
199	0xbd263a5a	-0.040582992
200	0xbd570698	-0.052496523
201	0xbcf3e77a	-0.029773463
202	0x3c89faa7	0.016843153
203	0xbe09cae6	-0.13456306
204	0x3e656462	0.22401574
205	0x3e8caf06	0.27477282
206	0xbdc5c1dc	-0.09656116
207	0xbdb3b386	-0.08774476
208	0x3df54f76	0.119780466
209	0x3e0f62cb	0.1400253
210	0x3e5e343a	0.2169961
211	0x3ea21f61	0.31664565
212	0x3ab7aaf1	0.0014012737
213	0xbdeed867	-0.11662369
214	0x3d237adc	0.03991209
215	0xbd37dedf	-0.04489028
216	0xbe2b06d7	-0.16701828
217	0x3c70df8a	0.014701733
218	0x3e490c86	0.19633684
219	0xbd1626ea	-0.036658205
220	0x3e5895fe	0.21150967
221	0x3d647262	0.055773146
222	0x3c4d6357	0.0125358915
223	0xbe0763b1	-0.13221623
224	0xbe00a833	-0.12564163
225	0x3d65eba3	0.056132924
226	0x3dba9689	0.091107436
227	0x3de7efd7	0.11325043
228	0xbd2c2ef2	-0.042036958
229	0x3da6f71a	0.081526
230	0x3ed1a7ae	0.40948242
231	0xbd9fabf7	-0.077964716
232	0x3e6712f4	0.22565824
233	0xbdc4d68e	-0.096112356
234	0x3d8ff6a8	0.07029468
235	0x3e075282	0.13215068
236	0x3e129454	0.14314395
237	0x3d127199	0.035752866
238	0xbd1a6da7	-0.03770223
239	0xbd9adddb	-0.07561847
240	0x3d154b73	0.036448907
241	0x3cb30471	0.021852704
242	0x3dc8e641	0.098095424
243	0x3e01c002	0.12670901
244	0xbca973b4	-0.020685054
245	0x3d0e5b1d	0.03475486
246	0x3d2e26ae	0.042517357
247	0x3e9597a3	0.29217252
248	0xbc930316	-0.017945807
249	0x3e7e550d	0.24837132
250	0x3d456613	0.04819305
251	0xbdf59ec4	-0.11993173
252	0x3d8b7451	0.06809295
253	0x3db07723	0.086164735
254	0x3de26fcc	0.1105648
255	0xbdc20b2d	-0.09474788

main_network.fc.weight f4 [3, 64]
0	0x3ce5f306	0.028069984
1	0xbdb3a17d	-0.08771036
2	0xbe75a670	-0.23989272
3	0x3d5e0c34	0.054210857
4	0x3d5ae1a2	0.053437836
5	0xbc915540	-0.017740846
6	0x3bb54be4	0.0055327285
7	0x3d945a74	0.07243815
8	0x3d1753eb	0.036945265
9	0x3d2bf675	0.041983087
10	0x3c39e42e	0.011345906
11	0x3c22444f	0.009903981
12	0xbab7a147	-0.0014009856
13	0x3c8491b0	0.01618275
14	0x3d2baaca	0.041910924
15	0x3ca440dc	0.020050459
16	0xbddda30f	-0.108221166
17	0x3bda4464	0.006660985
18	0xbd48b229	-0.04899803
19	0xbc39b04c	-0.011333536
20	0xbd5ea7a5	-0.054359097
21	0xbde7e039	-0.11322064
22	0x3c8b4e0a	0.017004985
23	0xbc1d8b0c	-0.009615671
24	0x3d70f2b6	0.058825217
25	0xbc509198	-0.012730025
26	0xbb0d6b43	-0.0021578826
27	0x3cd6f6fd	0.02624082
28	0x3d094fdc	0.033523425
29	0x3c3c6497	0.011498592
30	0x3d46d86f	0.04854625
31	0xbd1d8941	-0.038460974
32	0x3e879668	0.26481938
33	0xbe2405db	-0.16017859
34	0x3e055bbb	0.13023274
35	0xbcaa232a	-0.02076872
36	0xbcc65c56	-0.024213951
37	0x3d0dbd2c	0.034604236
38	0x3d6ca8ed	0.057778288
39	0xbdb6a39c	-0.08917925
40	0xbcae1053	-0.021248018
41	0x3a9263ec	0.0011168695
42	0x3dae6e3e	0.08517121
43	0x3de0c3d1	0.10974849
44	0xbc41fc72	-0.011839973
45	0xbdb42cb3	-0.08797588
46	0x3d9510bf	0.07278585
47	0xbdb5f6e2	-0.0888498
48	0x3cc933a8	0.024560764
49	0x3c8218ba	0.015880931
50	0x3cf6821d	0.03009134
51	0x3d105e79	0.035246346
52	0xbc7e8252	-0.0155340005
53	0xbca5846a	-0.020204742
54	0x3d3fe518	0.04684934
55	0xbcbcfd1b	-0.023069909
56	0xbcf8d6cc	-0.03037586
57	0x3c112d81	0.008860947
58	0xbb98d976	-0.0046645952
59	0x3cd0cb05	0.025487432
60	0xbd35e273	-0.044405412
61	0x3cd36c7c	0.025808565
62	0xbcf88d5b	-0.030340841
63	0x3d1bfbbb	0.038081866
64	0x3ce451b4	0.02787099
65	0xbd59a7a0	-0.053138375
66	0x3dd1f775	0.10252277
67	0xbd0aef38	-0.033919543
68	0x3c98f74a	0.018672604
69	0xbd0bdfaf	-0.03414887
70	0xbce0ac6f	-0.027425973
71	0xbce19fd6	-0.027542036
72	0x3c871d6c	0.016493522
73	0x3d2d798d	0.042352248
74	0x3ce0189a	0.027355481
75	0x3d9c679f	0.07636952
76	0x3ca5619e	0.020188149
77	0xbd2a1d43	-0.041531812
78	0xbd0cc641	-0.034368757
79	0x3bed7d2d	0.007247588
80	0x3ce5b7f8	0.028041825
81	0xbc9c144d	-0.019052649
82	0xbd413978	-0.047173947
83	0x3ce74d4e	0.028235104
84	0xbd65a851	-0.056068722
85	0xbd35af45	-0.044356603
86	0x3c6764c6	0.014123147
87	0xbd12a093	-0.035797667
88	0xbd1fe477	-0.03903624
89	0xbbebd83b	-0.0071974075
90	0xbd010c7a	-0.03150604
91	0x3a77fb40	0.00094597414
92	0x3c49e069	0.01232157
93	0x3d649f5b	0.055816036
94	0x3e03d83a	0.12875453
95	0xbda00972	-0.078143016
96	0xbe05dd5c	-0.13072723
97	0x3a8bbbb2	0.0010660796
98	0x3dd53140	0.10409784
99	0x3d23915a	0.03993354
100	0x3da7f1c8	0.08200413
101	0xbc913c57	-0.017728968
102	0x3d6e4e38	0.058180064
103	0xbe0d1afc	-0.13779825
104	0xbcbe27b8	-0.023212299
105	0x3d75442b	0.059879463
106	0x3d99a5bd	0.07502315
107	0x3cc1e55a	0.023668934
108	0xbb8e6a94	-0.004346201
109	0xbd88b552	-0.06675209
110	0x3d309d27	0.043118622
111	0x3e1c1bfd	0.15245052
112	0x3dcc8d29	0.09987862
113	0xbdb0b0e5	-0.0862749
114	0x3d377617	0.044790354
115	0xbdc3c9de	-0.095599875
116	0x3cb4a20b	0.022049924
117	0xbd4c33fe	-0.04985427
118	0xbdcf099e	-0.10109256
119	0xbda741b1	-0.081668265
120	0xbd2d845c	-0.042362556
121	0xba95af53	-0.0011420049
122	0x3d725f0d	0.05917268
123	0x3db04636	0.08607142
124	0xbc81fdbb	-0.015868058
125	0x3d948a98	0.07252997
126	0xbcafd5f1	-0.02146432
127	0xbc8c11bc	-0.0170983
128	0x3f0c4a5f	0.5480098
129	0x3e5ddd3a	0.21666422
130	0xbe31277a	-0.17300215
131	0x3ea366c9	0.31914356
132	0x3ea27475	0.31729475
133	0xbe6a586d	-0.22885294
134	0xbd0376b1	-0.032095615
135	0x3ef738ba	0.48285466
136	0xbea8c5d0	-0.3296342
137	0xbe875613	-0.26432857
138	0x3e5171a9	0.20453514
139	0x3e7833d1	0.24238516
140	0x3e8387b6	0.25689477
141	0xbed19fba	-0.40942174
142	0x3e973221	0.29530433
143	0x3e8ceafb	0.27523026
144	0x3e6ab2bc	0.22919744
145	0xbdc1df19	-0.094663806
146	0xbea8e867	-0.3298981
147	0xbedbabf0	-0.42904615
148	0xbf1a4370	-0.6025915
149	0xbe5cc51b	-0.21559565
150	0xbe8f8764	-0.28032982
151	0xbd43b8bc	-0.0477836
152	0xbe90b5a8	-0.28263593
153	0x3edc9d82	0.4308892
154	0x3d78ae1b	0.060712915
155	0x3ad891b1	0.0016522912
156	0x3e87bcf0	0.26511335
157	0xbe5f5dea	-0.21813169
158	0xbe2bb343	-0.16767602
159	0x3f01ad19	0.5065475
160	0x3e468c88	0.19389546
161	0xbe350700	-0.17678452
162	0xbdfe52c9	-0.12418134
163	0x3ec6ea18	0.38850474
164	0x3e4718c8	0.19443047
165	0xbea9d872	-0.33172947
166	0x3e931377	0.28725788
167	0xbe758fd2	-0.23980644
168	0xbed84d48	-0.4224646
169	0xbf5bf400	-0.8591919
170	0xbea453c5	-0.3209516
171	0x3f19296f	0.5982885
172	0x3e155ee1	0.14586975
173	0xbe660bd1	-0.22465445
174	0x3e56b951	0.2096913
175	0x3eb939c3	0.3617688
176	0xbe59ce86	-0.21270189
177	0x3e583db3	0.21117286
178	0xbec5ec03	-0.38656625
179	0xbeb27981	-0.34858325
180	0xbe728987	-0.23685275
181	0x3cfe2ed4	0.031028189
182	0xbed94efd	-0.42443076
183	0x3ed528e8	0.41632771
184	0x3e543d0e	0.20726416
185	0x3e62a1d4	0.22132045
186	0xbdd65169	-0.104647465
187	0xbe7b35dc	-0.24532264
188	0xbefad35b	-0.48989376
189	0x3db84ba0	0.08998799
190	0x3eb0e465	0.3454925
191	0xbf08f43c	-0.5349767

main_network.fc.bias f4 [3]
0	0x3d0ae6d0	0.033911526
1	0x3db935a7	0.090434365
2	0x3e5eabef	0.21745275

short_term_context_network.fc1.weight f4 [32, 7]
0	0xbe49c3b1	-0.19703557
1	0x3e505a7a	0.20347014
2	0xbe631e52	-0.22179535
3	0x3e401d99	0.1876129
4	0xbd6fcb4a	-0.05854348
5	0xbdcfd7e0	-0.10148597
6	0xbc520c40	-0.012820303
7	0xbe8a0b4b	-0.2696174
8	0x3d6b221a	0.05740557
9	0xbeb24e03	-0.34825143
10	0xbe502ae9	-0.20328869
11	0xbe4a1e1b	-0.19738047
12	0xbe3f29b8	-0.18668258
13	0x3ed149d3	0.40876636
14	0xbea7665b	-0.3269528
15	0x3c216836	0.009851506
16	0x3e490a62	0.19632867
17	0x3e322084	0.17395216
18	0x3eac3811	0.33636525
19	0xbc27dc4b	-0.010245393
20	0x3e34823b	0.17627804
21	0x3d8cb7f6	0.06871025
22	0x3e08309a	0.1329979
23	0xbe78ff33	-0.24316101
24	0xbda9ed53	-0.08297219
25	0xbedecd00	-0.43515778
26	0xbf02074d	-0.5079239
27	0x3dee8240	0.11645937
28	0x3caec761	0.021335306
29	0xbd221294	-0.0395685
30	0xbe1afcae	-0.15135452
31	0xbeab34d9	-0.33438757
32	0xbf674cf7	-0.90351814
33	0xbe54a655	-0.20766576
34	0x3eef640d	0.4675602
35	0x3ecbdaa0	0.39815235
36	0xbe17ac74	-0.1481188
37	0xbeae430c	-0.34035528
38	0xbbb54c86	-0.005532804
39	0x3d7991e7	0.06093016
40	0x3e13330a	0.14374939
41	0x3e867842	0.26263624
42	0x3ea385da	0.31938058
43	0xbe80f5c4	-0.25187504
44	0xbe246646	-0.16054639
45	0xbde72030	-0.11285436
46	0xbebf636c	-0.3738054
47	0x3de54ecc	0.1119667
48	0xbaf744c4	-0.0018865098
49	0xbe108b32	-0.14115599
50	0xbdafce00	-0.08584213
51	0x3e1e1398	0.15437162
52	0xbbe8f948	-0.0071097948
53	0xbe149188	-0.14508641
54	0xbe5bd6a9	-0.21468605
55	0x3e9bdae7	0.30440447
56	0xbeb14756	-0.34624738
57	0xbd5abc19	-0.05340204
58	0xbdcc474e	-0.09974538
59	0xbc1e7c38	-0.009673171
60	0xbe6f3711	-0.2336085
61	0x3ec5412d	0.38526288
62	0xbe6d474f	-0.23171733
63	0xbe2c7b87	-0.16843997
64	0xbe6f323c	-0.23359007
65	0x3df9b03e	0.12191819
66	0xbe8f9709	-0.28044918
67	0x3dd2c37e	0.102911934
68	0x3df5a049	0.119934626
69	0x3e8ffdfd	0.28123465
70	0x3cf1c0af	0.029510824
71	0x3eb1694c	0.34650648
72	0xbe79539b	-0.24348299
73	0x3e8b3a5e	0.27192968
74	0xbdd69b0d	-0.10478792
75	0xbe03bf7a	-0.12866011
76	0xbe110605	-0.14162453
77	0x3e5108ca	0.20413509
78	0x3dc6fdf5	0.09716407
79	0x3cc967bd	0.0245856
80	0x3d8d7f5c	0.069090575
81	0xbeac29cd	-0.3362564
82	0xbe469ff9	-0.19396962
83	0x3df2d2ef	0.11856639
84	0x3e4190af	0.18902849
85	0x3c2ca6c9	0.010537812
86	0x3eb9c2b1	0.3628135
87	0x3e7e597c	0.24838823
88	0xbe76ce92	-0.24102238
89	0x3e954292	0.29152352
90	0xbeb38e6a	-0.3506959
91	0xbdd6794b	-0.104723535
92	0x3e785d1a	0.24254265
93	0x3e7b60ea	0.24548689
94	0xbea3c8c8	-0.3198912
95	0x3e047d2f	0.12938379
96	0xbd8f2231	-0.06988943
97	0xbe37261a	-0.17885628
98	0xbe8d24c8	-0.27567124
99	0xbe43432c	-0.19068593
100	0xbdd862fe	-0.10565756
101	0x3dcd8336	0.10034792
102	0x3dfc3e0a	0.123165205
103	0x3dab0a69	0.08351595
104	0x3ea7faa7	0.3280842
105	0xbe9ff3f8	-0.3124082
106	0x3e93d150	0.2887063
107	0x3e67580b	0.2259218
108	0xbea6decc	-0.32591856
109	0xbe081e9f	-0.13292931
110	0x3da2d3e8	0.07950574
111	0x3e56b6bc	0.20968145
112	0xbebf2535	-0.37333074
113	0xbeabf45c	-0.3358487
114	0x3ebc1643	0.36735734
115	0x3ea0edbd	0.3143138
116	0xbdb43119	-0.08798427
117	0xbd80059b	-0.06251069
118	0xbd22481b	-0.039619546
119	0x3e5b8574	0.21437627
120	0x3e0c5db8	0.13707626
121	0xbea9709d	-0.3309373
122	0x3e6e793f	0.23288439
123	0x3ef20d64	0.4727584
124	0xbf0cd3ce	-0.5501069
125	0xbf0feb84	-0.56218743
126	0x3e39e4e2	0.18153718
127	0x3e9bc242	0.30421644
128	0xbea4f7de	-0.32220358
129	0x3dc126d9	0.09431238
130	0xbe8ef3b3	-0.27920303
131	0xbee49d20	-0.44651127
132	0x3e89ab04	0.26888287
133	0xbd0b7bb8	-0.034053534
134	0x3eaa61e0	0.33277798
135	0xbeac963d	-0.33708373
136	0xbe62451f	-0.2209668
137	0xbdcc1a2f	-0.099659316
138	0xbd13be68	-0.036070257
139	0x3eeb1a4d	0.45918503
140	0x3e14ecc1	0.1454344
141	0xbeb3b55e	-0.3509931
142	0xbe644ef0	-0.22295737
143	0xbe2fef46	-0.1718112
144	0x3e7b3be0	0.24534559
145	0x3e6858bb	0.22690098
146	0xbe74a5ac	-0.23891324
147	0xbe84a2f4	-0.25905573
148	0x3e050c8d	0.12993069
149	0xbd9fc095	-0.07800404
150	0x3b4cfc96	0.0031278483
151	0xbdba86e5	-0.0910776
152	0xbe834ac3	-0.25642976
153	0x3e73f905	0.23825462
154	0x3d76c94e	0.060250573
155	0xbc440db6	-0.01196616
156	0xbd16541b	-0.036701303
157	0xbd9346b6	-0.071912214
158	0x3bbe5d45	0.0058094584
159	0xbf0c84cd	-0.5489014
160	0x3f06866e	0.52548873
161	0x3ef4593e	0.47724336
162	0x3e07c800	0.13259888
163	0xbda0de65	-0.078549184
164	0xbdd29eb0	-0.102841735
165	0xbe4cc690	-0.1999762
166	0xbe5e2313	-0.21693067
167	0xbec63c22	-0.38717753
168	0xbd5e6f86	-0.054305576
169	0x3e263437	0.16230856
170	0xbe82a901	-0.25519565
171	0x3e822502	0.2541886
172	0xbee4d46a	-0.4469331
173	0xbdaae3ab	-0.083442055
174	0xbde46545	-0.11152128
175	0xbd31b012	-0.043380804
176	0xbebcd38e	-0.36880153
177	0xbc1d3303	-0.009594682
178	0x3e1b8a76	0.15189537
179	0x3e4aa63f	0.1978998
180	0x3e85d0dd	0.26135913
181	0x3d921355	0.071325935
182	0xbea991bc	-0.33119
183	0xbea1355b	-0.3148602
184	0x3dfbb73c	0.122908086
185	0xbeb18d3f	-0.34678075
186	0x3e70f1d9	0.23529758
187	0x3e51b283	0.20478253
188	0xbe56e8b4	-0.20987207
189	0xbeb71a46	-0.35762233
190	0x3ea417a8	0.32049298
191	0x3deb1724	0.11479023
192	0xbe01625f	-0.12635182
193	0xbc94858d	-0.018130088
194	0xbd99e1b1	-0.0751375
195	0xbebaba35	-0.3647019
196	0x3edb3227	0.428117
197	0xbe05da7f	-0.13071631
198	0xbccf896d	-0.025334084
199	0x3ea02f52	0.31286103
200	0x3dff09e0	0.124530554
201	0x3d65f183	0.056138527
202	0xbe7b810b	-0.24560945
203	0x3d7b6477	0.061375108
204	0xbe175abb	-0.14780705
205	0x3e89cdb3	0.2691475
206	0x3e8a0b77	0.26961872
207	0xbf37660d	-0.7164009
208	0x3d9c190e	0.07621966
209	0x3f03cb19	0.5148178
210	0x3e229672	0.15877703
211	0xbe67c34b	-0.22633092
212	0xbe9ed95e	-0.31025213
213	0x3e48a84d	0.19595452
214	0xbe6e0035	-0.23242266
215	0xbec9893b	-0.3936251
216	0x3e817216	0.25282353
217	0xbec3a1b8	-0.3820932
218	0xbe6004d2	-0.21876839
219	0xbe2be382	-0.16786006
220	0xbd8aff10	-0.067869306
221	0x3db815b7	0.08988517
222	0x3e90c11a	0.28272325
223	0xbe3c8d1a	-0.18413201

short_term_context_network.fc1.bias f4 [32]
0	0xbe8920a2	-0.2678271
1	0x3a8aaaaa	0.0010579426
2	0xbeac8fab	-0.3370336
3	0x3d8e721b	0.06955358
4	0x3ea67233	0.32509002
5	0xbd32e8a4	-0.043678895
6	0x3e9ac6e6	0.30229872
7	0x3e00b14a	0.1256763
8	0x3e23ea9a	0.16007462
9	0xbe00cc03	-0.12577824
10	0xbe19aad1	-0.15006568
11	0x3ea83b2f	0.32857653
12	0x3e078f9f	0.13238381
13	0xbeb49160	-0.35267162
14	0x3dead521	0.11466432
15	0xbe92ba2e	-0.2865767
16	0xbe4107cb	-0.18850629
17	0x3e072293	0.13196783
18	0xbd830671	-0.06397713
19	0x3ead0c2b	0.33798346
20	0x3e376e70	0.17913222
21	0x3d546301	0.05185223
22	0x3ea2b836	0.31781167
23	0xbf0d5277	-0.55203956
24	0x3e8f5f82	0.28002554
25	0xbec0c664	-0.3765136
26	0x3e4fba25	0.20285852
27	0xbca9b54f	-0.020716337
28	0xbf18da01	-0.5970765
29	0x3d912a0d	0.07088099
30	0xbe8959e7	-0.26826403
31	0x3e923645	0.2855703

short_term_context_network.fc2.weight f4 [16, 32]
0	0x3e22550c	0.15852755
1	0x3e06c3aa	0.13160577
2	0x3e386e80	0.18010902
3	0x3d899a97	0.06718939
4	0x3e361f33	0.17785339
5	0x3e713bec	0.23558015
6	0x3d4ce191	0.050019804
7	0x3d90f086	0.07077126
8	0xbe3d5c25	-0.18492182
9	0x3b6644b5	0.0035136167
10	0xbd2e2928	-0.04251972
11	0x3dedfa18	0.11619967
12	0x3e06220a	0.13098922
13	0xbdc35234	-0.095371634
14	0x3e210c4b	0.15727346
15	0xbd1bc46d	-0.038029123
16	0x3dba8e86	0.091092154
17	0x3d637978	0.055535764
18	0xbd06301e	-0.032760732
19	0x3e53ca87	0.20682727
20	0xbdfe1d2e	-0.12407909
21	0x3d036314	0.03207691
22	0x3d4cdf53	0.050017666
23	0xbe832a36	-0.25618142
24	0xbd302098	-0.042999834
25	0xbe0c0078	-0.13672054
26	0xbaaa06cc	-0.0012971996
27	0x3dce0317	0.10059183
28	0x3b8e23fd	0.004337786
29	0x3e67f763	0.22652964
30	0x3d19e483	0.03757144
31	0xbb227bef	-0.0024793108
32	0xbcb132e3	-0.02163071
33	0xbd500b4a	-0.050792016
34	0x3d10e5e7	0.035375502
35	0x3dca3a10	0.09874356
36	0x3da8c021	0.08239771
37	0x3d126878	0.03574416
38	0xbc8f42cf	-0.017487912
39	0xbd86c612	-0.06580748
40	0xbda80225	-0.08203534
41	0x3d9fdd47	0.07805877
42	0x3e23148e	0.1592581
43	0xbc9fbdba	-0.019499648
44	0x3c1fc582	0.009751679
45	0xbd12e7f6	-0.035865746
46	0xbe0f896c	-0.14017266
47	0x3d9c5044	0.07632497
48	0xbe1b9bbc	-0.15196127
49	0x3d567799	0.05236015
50	0xbdb5c974	-0.08876315
51	0xbe0bf5f6	-0.13668045
52	0xbe4e6970	-0.20157409
53	0x3db69cf3	0.089166544
54	0x3d59fe70	0.053221166
55	0x3deb8f7c	0.11501977
56	0x3d58a4e2	0.05289162
57	0x3e1c03dd	0.15235849
58	0xbe08f7f9	-0.13375844
59	0x3e1789b4	0.14798623
60	0xbd827419	-0.063698
61	0x3d15c14d	0.0365613
62	0xbe21461d	-0.15749402
63	0xbdf401b6	-0.11914389
64	0xbde124fb	-0.109933816
65	0xbd80b9f0	-0.06285465
66	0xbe1fbdaa	-0.15599695
67	0xba9d2d8d	-0.0011991725
68	0xbe57d18a	-0.21076027
69	0xbc5c9a61	-0.013464541
70	0x3e839dfc	0.2570647
71	0x3ca86ce2	0.020559732
72	0x3cbabe92	0.02279595
73	0xbeb3731e	-0.35048765
74	0xbe113f08	-0.14184201
75	0xbd0de2e1	-0.034640197
76	0x3e043bd5	0.12913449
77	0x3e00eaec	0.12589616
78	0x3d94068f	0.072278135
79	0x3d76ad3b	0.0602238
80	0x3dc2e695	0.09516636
81	0x3da09402	0.0784073
82	0x3e850bbe	0.2598552
83	0xbf05db90	-0.5228815
84	0x3dddc7de	0.10829137
85	0xbdd9db8b	-0.106375776
86	0xbe86d67d	-0.26335517
87	0x3ee09945	0.43866935
88	0xbe2a7522	-0.16646245
89	0x3db94fb7	0.090484075
90	0xbe8034ac	-0.25040185
91	0xbe22485a	-0.15847912
92	0x3e83e403	0.25759897
93	0xbd76e047	-0.06027248
94	0xbdf767ed	-0.12080369
95	0xbe42820f	-0.18994926
96	0x3e259006	0.16168222
97	0x3e971d00	0.29514313
98	0xbdc9ecc5	-0.09859613
99	0x3d5d064b	0.05396108
100	0x3d8ac7c3	0.06776383
101	0x3e58c873	0.21170215
102	0x3da78cc7	0.08181148
103	0x3ddae9bb	0.10689112
104	0xbe3dfada	-0.18552724
105	0x3e4fcd64	0.20293194
106	0xbd907407	-0.070533805
107	0x3e435899	0.19076766
108	0xbe1165cd	-0.1419899
109	0xbd50af22	-0.05094827
110	0xbdd21c97	-0.10259359
111	0x3d528408	0.051395446
112	0x3dc1bd7c	0.094599694
113	0xbecaf239	-0.39637926
114	0xbcea8cab	-0.028631529
115	0x3e6b4181	0.22974207
116	0x39fca84b	0.00048190574
117	0x3e8e9d56	0.27854413
118	0x3dc9aca3	0.09847381
119	0xbe9d74f7	-0.307533
120	0x3d62d546	0.055379175
121	0xbd030952	-0.03199131
122	0xbd90cde3	-0.0707052
123	0x3c306a92	0.010767596
124	0xbe811cfa	-0.2521742
125	0x3e148df4	0.14507276
126	0xbb88256e	-0.0041548526
127	0x3da6447a	0.081185296
128	0xbe01ee56	-0.12688574
129	0xbc5cd5fb	-0.013478751
130	0xbd3cc4a6	-0.046085976
131	0x3e129fe7	0.1431881
132	0xbd6f7b78	-0.05846736
133	0x3e84b0b9	0.2591608
134	0x3c4970d3	0.012294966
135	0xbe9eefd5	-0.31042352
136	0xbc09d94f	-0.008413627
137	0xbe8eb9b4	-0.27876055
138	0x3e327699	0.17428054
139	0x3e73536c	0.23762292
140	0x3e476960	0.19473791
141	0xbe1a1325	-0.15046366
142	0xbe1acbdb	-0.15116827
143	0x3d8b1b8b	0.06792363
144	0x3e30ed23	0.1727796
145	0xbd822ced	-0.06356225
146	0x3ec5737e	0.38564676
147	0x3d03a49e	0.032139413
148	0xbd1ae6a6	-0.03781762
149	0x3e07392d	0.13205405
150	0xbebd6c39	-0.3699663
151	0x3efe1ab5	0.4962975
152	0xbdfd283a	-0.12361188
153	0x3e12fc39	0.14354028
154	0xbdd73035	-0.10507242
155	0x3e2f172d	0.17098685
156	0x3ec26510	0.3796773
157	0xbe4fb503	-0.20283894
158	0x3df62af8	0.120199144
159	0xbe4dafc6	-0.20086583
160	0x3ddf3979	0.10899634
161	0x3da5beac	0.080930084
162	0xbc8b1816	-0.016979259
163	0x3c5a070b	0.013307343
164	0x3e276cea	0.16350141
165	0x3e33b0e0	0.17547941
166	0xbdce8e57	-0.10085743
167	0x3e472152	0.19446304
168	0xbce624a1	-0.028093638
169	0xbdc92748	-0.098219454
170	0x3db8c1eb	0.09021362
171	0x3e41d05c	0.18927139
172	0xbd07142f	-0.032978233
173	0x3e19b1fa	0.15009299
174	0x3dacf3df	0.08444952
175	0xbc1c106b	-0.009525399
176	0x3dfadb4e	0.1224886
177	0xbe6bf07f	-0.2304096
178	0x3e66c680	0.22536659
179	0x3c662ff8	0.014049523
180	0xbe2c104e	-0.16803095
181	0x3e801520	0.25016117
182	0x3e33fedb	0.17577688
183	0xbeba7915	-0.36420503
184	0xbd762763	-0.060096156
185	0xbe2cd68c	-0.16878718
186	0x3b1eb5a3	0.002421715
187	0xbe165f52	-0.146848
188	0xbe6e882d	-0.23294134
189	0xbb850d90	-0.0040604547
190	0x3dedb437	0.11606639
191	0x3dc29538	0.095011175
192	0x3b6c4754	0.0036053257
193	0x3e8f4910	0.2798543
194	0x3ddab5dd	0.10679219
195	0x3e3facd0	0.18718266
196	0x3e9bcd26	0.30429953
197	0x3dae1ef6	0.08501999
198	0x3e6ad8b9	0.22934236
199	0x3e87f3b2	0.26553112
200	0xbe6033f3	-0.21894817
201	0xbc01a2bf	-0.007912337
202	0xbd3b84a5	-0.045780797
203	0x3e728bd3	0.23686151
204	0x3ddf3216	0.10898225
205	0xbdc7b887	-0.09751993
206	0xbdaf9172	-0.08572663
207	0xbde91485	-0.11380867
208	0x3cf16b79	0.029470192
209	0x3c4f932d	0.012669367
210	0xbdb11bd9	-0.0864789
211	0x3dfcb227	0.12338667
212	0xbc7e2c78	-0.015513532
213	0x3e433d57	0.19066368
214	0x3e844fed	0.2584223
215	0xbe903929	-0.2816861
216	0x3e3b272e	0.18276665
217	0xbd7696a6	-0.060202263
218	0xbd86f904	-0.06590465
219	0xbd37e621	-0.044897202
220	0xbe02bea3	-0.12768035
221	0x3da6bc1f	0.0814135
222	0xbddd1f4e	-0.107969865
223	0xbdc30499	-0.09522361
224	0x3dd877ae	0.10569702
225	0x3c68b7c7	0.014203972
226	0x3da91946	0.08256774
227	0x3d31f186	0.043443225
228	0xbe0f9060	-0.14019918
229	0xbe3bb412	-0.1833041
230	0xbda3602b	-0.07977327
231	0xbdc0632b	-0.09393915
232	0x3d4bce1e	0.049757116
233	0xbe07e6cc	-0.13271636
234	0x3dc989c5	0.098407306
235	0xbe4c7883	-0.19967847
236	0x3da1e957	0.07905834
237	0xbdd8f6e8	-0.10593969
238	0x3e22fcf1	0.15916802
239	0x3d215f41	0.03939748
240	0x3e24a03a	0.16076747
241	0xbe35d580	-0.17757225
242	0xbdb47a92	-0.08812441
243	0x3cdf78f6	0.027279358
244	0x3de5105d	0.11184762
245	0xbdf3e5e4	-0.119090825
246	0xbcad5ba8	-0.02116187
247	0x3bc2bf4f	0.005943216
248	0xbd691af3	-0.056910466
249	0x3d85619d	0.06512759
250	0xbe2f4902	-0.17117694
251	0x3e27c6b6	0.16384396
252	0x3e0a9eba	0.13537112
253	0xbdd80844	-0.105484515
254	0x3daefc12	0.08544172
255	0xbcdaa775	-0.026691178

short_term_context_network.fc2.bias f4 [16]
0	0x3a87a763	0.0010349568
1	0xbc99589b	-0.018719008
2	0xbe613f73	-0.2199686
3	0xbd7e4ad9	-0.0620831
4	0xbe3882da	-0.18018666
5	0xbd2900ea	-0.041260637
6	0x3d2bab81	0.041911606
7	0xbe1e83cb	-0.15479963
8	0xbd09e523	-0.033665787
9	0x3e438b10	0.19096017
10	0x3da3d505	0.079996146
11	0x3e98a908	0.2981646
12	0x3e0e8284	0.13916975
13	0x3c89fcbb	0.016844144
14	0x3db79b4f	0.0896517
15	0xbe2fb751	-0.17159773

short_term_context_network.fc3.weight f4 [1, 16]
0	0x3e1a8208	0.15088665
1	0xbd57acfb	-0.0526552
2	0xbef6f46a	-0.48233348
3	0x3e875931	0.26435235
4	0xbeccb67e	-0.3998298
5	0x3e4d17ac	0.20028561
6	0x3e249d35	0.16075595
7	0x3e4f97e6	0.20272788
8	0x3e3dead0	0.18546605
9	0x3e3ef9e8	0.18650019
10	0x3c553be6	0.013014769
11	0xbebf8398	-0.37405086
12	0x3e4c3d54	0.1994527
13	0xbe0470a9	-0.12933601
14	0x3e7e4a90	0.24833131
15	0xbdb5b8d8	-0.08873147
