Uni_Research/IRL/Final/Extended/Testing_Suite/model_C0_R1000_S10.0.pth (torch, 91237 bytes, 11 tensors)

main_network.lstm.weight_ih_l0 f4 [256, 15]
0.09994037 -0.11623119 0.0758762 -0.08309568 0.07225325 -0.0066365195 0.049843557 0.06368441
-0.023759821 -0.058956295 0.0034637963 -0.005572144 -0.07346654 -0.04786496 -0.050040778 0.055065624
-0.08795888 -0.027723905 -0.100340925 -0.03968966 0.03994409 0.09097028 0.055754498 -0.027369954
-0.043500856 -0.005041078 -0.063782066 0.12119177 -0.012134887 -0.023403918 -0.039084267 0.036683872
0.04283396 -0.025208836 -0.057106134 0.0907301 0.024579074 -0.09260498 0.07491191 0.047287803
-0.06402519 0.02742832 0.026695538 -0.09444015 -0.033923265 -0.09763818 -0.086429775 -0.053319395
0.06735329 -0.0025453367 -0.03775152 -0.050288863 0.006413317 -0.046387598 0.11480082 -0.027431546
-0.108021684 0.099509396 0.035754006 -0.03752772 -0.0039060162 0.068443544 -0.07583736 -0.020401392
-0.0041098 -0.082608245 -0.0708331 -0.113979325 -0.10395224 0.084381886 0.07849529 -0.050803825
0.05100204 0.011054768 0.07077822 -0.014681524 0.1272283 0.021369189 0.02053907 0.0567655
0.11523832 0.11129924 -0.07614777 -0.092405505 -0.02173874 0.106880516 -0.070033096 -0.09735012
0.08126051 -0.11844572 -0.12560734 -0.048367884 0.0025015387 -0.09072019 0.054681644 -0.09477716
-0.017905932 0.026932945 -0.09664509 -0.09982231 -0.10540529 -0.079170495 -0.110182874 0.07221869
0.052949797 -0.11706339 -0.023554238 -0.08626826 -0.014589925 0.06462354 -0.08412275 0.08563625
-0.062452905 0.03869701 0.01187709 0.040482566 -0.011231205 0.041521 0.040695265 -0.09749675
0.10266276 0.11160556 -0.054709204 0.08665155 0.023376148 -0.07609226 -0.092244074 0.006428402
-0.04122033 0.048026387 0.07662615 -0.07983982 0.07455046 -0.04699622 -0.022913374 0.034221236
-0.05395058 -0.11087928 0.091501676 0.009531869 0.08796903 -0.08214741 0.014783941 0.047152422
0.022196716 0.10915908 0.112481095 -0.08198115 0.12891497 -0.0168349 0.004486836 -0.052277487
0.10482007 -0.11493273 -0.021294529 0.015049574 -0.10561484 -0.019742088 -0.02052155 0.03665372
-0.12194231 -0.06431667 -0.03815856 0.025560291 -0.023284936 -0.015437597 -0.035475217 -0.02909455
-0.09462142 0.08601653 -0.073685646 0.04172071 0.015743412 -0.029070621 0.06468849 -0.11640551
-0.07601707 0.057503078 -0.09955324 -0.10184195 0.10992722 0.062499035 0.08878154 0.050962996
0.052244928 -0.033575695 0.07698134 -0.10304275 0.07503469 -0.00024081052 -0.052696418 -0.08023926
-0.059792288 0.104199596 -0.08092633 -0.08471557 0.023387855 -0.07469558 -0.088965304 -0.066339366
-0.0888957 0.034304995 0.079266466 -0.011154293 0.0116148405 -0.022110464 0.053326942 0.05856394
0.026681677 -0.11953187 -0.061301492 -0.09048744 0.11989945 -0.116428934 0.027481845 -0.0008339465
0.10352855 -0.121862076 0.057106413 0.06365799 -0.025829833 -0.101670004 -0.034967776 0.06745319
-0.10218629 -0.0833188 0.0939161 0.025573567 -0.011208451 0.04958472 -0.0794963 0.112172805
-0.07115168 -0.0545968 -0.07714817 -0.05926423 -0.01673212 -0.08977856 0.10741213 -0.05364274
-0.02032922 -0.10612688 -0.09154885 0.0019108858 -0.12826222 -0.10594643 -0.09168822 0.06344711
-0.025479285 -0.08817736 -0.12261454 0.019838342 0.010840844 -0.044427313 0.09080561 0.029191392
00000000: 89ad cc3d 9e0a eebd fb64 9b3d 112e aabd
00000010: 83f9 933d 2977 d9bb c228 4c3d f96c 823d
00000020: f5a3 c2bc 287c 71bd dc00 633b 8896 b6bb
00000030: a075 96bd 0c0e 44bd 8ff7 4cbd 7e8c 613d
00000040: c923 b4bd 3e1d e3bc 8b7f cdbd a091 22bd
00000050: 6a9c 233d a04e ba3d d45e 643d f436 e0bc
00000060: f42d 32bd a12f a5bb 2ca0 82bd 6433 f83d
00000070: 68d1 46bc 93b9 bfbc d316 20bd d441 163d
00000080: aa72 2f3d c382 cebc 1fe8 69bd b4d0 b93d
00000090: 0e5a c93c aea7 bdbd 6a6b 993d dbb0 413d
000000a0: a41f 83bd 5bb1 e03c 9ab0 da3c d669 c1bd
000000b0: 1ff3 0abd 87f6 c7bd 1802 b1bd 7065 5abd
000000c0: 86f0 893d aacf 26bb 56a1 1abd b2fb 4dbd
000000d0: cd26 d23b ec00 3ebd b11c eb3d 1fb8 e0bc
000000e0: 793a ddbd 95cb cb3d cb72 123d abb6 19bd
000000f0: 14fc 7fbb 212c 8c3d 9e50 9bbd d220 a7bc
00000100: 80ab 86bb 832e a9bd f210 91bd fe6d e9bd
00000110: e9e4 d4bd 69d0 ac3d 23c2 a03d ac17 50bd
00000120: 84e7 503d 0f1f 353c 2cf4 903d c68a 70bc
00000130: 2348 023e 700e af3c 8d41 a83c f182 683d
00000140: 1102 ec3d dbf0 e33d 5df3 9bbd 193f bdbd
00000150: 7115 b2bc 2ce4 da3d 836d 8fbd 805f c7bd
00000160: e96b a63d ab93 f2bd 369f 00be 671d 46bd
00000170: dbf0 233b 82cb b9bd dcf9 5f3d 871a c2bd
00000180: 76af 92bc 7ba2 dc3c dced c5bd a46f ccbd
00000190: bbde d7bd 2424 a2bd 8fa7 e1bd 64e7 933d
000001a0: e3e1 583d eebe efbd d1f4 c0bc 6aad b0bd
000001b0: 950a 6fbc 5959 843d 8c48 acbd 0f62 af3d
000001c0: 9ece 7fbd c280 1e3d 2098 423c 0cd1 253d
000001d0: 1703 38bc ed11 2a3d 14b0 263d 60ac c7bd
000001e0: da40 d23d 7591 e43d c216 60bd 5e76 b13d
000001f0: 567f bf3c 42d6 9bbd 76ea bcbd 58a5 d23b
00000200: a6d6 28bd 51b7 443d 2cee 9c3d 0f83 a3bd
00000210: e9ad 983d 1c7f 40bd d4b4 bbbc 912b 0c3d
00000220: 49fb 5cbd ad14 e3bd 3b65 bb3d 8e2b 1c3c
00000230: 1b29 b43d e73c a8bd 5838 723c e622 413d
00000240: e3d5 b53c cc8e df3d 7d5c e63d bce5 a7bd
00000250: 4902 043e 58e9 89bc 4f06 933b eb20 56bd
00000260: e8ab d63d da61 ebbd dd71 aebc 7d92 763c
00000270: 984c d8bd 29ba a1bc cf1c a8bc 3622 163d
00000280: e4bc f9bd 75b8 83bd 264c 1cbd d163 d13c
00000290: 0dc0 bebc faed 7cbc 764e 11bd b257 eebc
000002a0: e0c8 c1bd 6f29 b03d 80e8 96bd 56e3 2a3d
000002b0: 54f8 803c 8325 eebc 667b 843d 0366 eebd
000002c0: d6ae 9bbd 5988 6b3d 92e2 cbbd 8392 d0bd
000002d0: 8621 e13d fdfe 7f3d 19d3 b53d 93be 503d
000002e0: c7fe 553d ab86 09bd 65a8 9d3d 1408 d3bd
000002f0: caab 993d 1582 7cb9 33d8 57bd 7b54 a4bd
00000300: c2e8 74bd 9966 d53d b4bc a5bd 5b7f adbd
00000310: e397 bf3c fff9 98bd 7133 b6bd efdc 87bd
00000320: f30e b6bd 6583 0c3d 7556 a23d 7fc0 36bc
00000330: 2c4c 3e3c 0121 b5bc 5a6d 5a3d bee0 6f3d
00000340: 8893 da3c 20cd f4bd 4617 7bbd 7b51 b9bd
00000350: d88d f53d 4b72 eebd 9b21 e13c 349d 5aba
00000360: c706 d43d d392 f9bd 6ae8 693d 1f5f 823d
00000370: 1699 d3bc 5d38 d0bd 5f3a 0fbd e624 8a3d
00000380: 0c47 d1bd 0ca3 aabd 1657 c03d a87f d13c
00000390: a7a3 37bc 5919 4b3d f5ce a2bd dbba e53d
000003a0: f9b7 91bd e5a0 5fbd dcff 9dbd 0dbf 72bd
000003b0: cd11 89bc d2dd b7bd e4fa db3d 7db8 5bbd
000003c0: 7789 a6bc 0d59 d9bd f77d bbbd b076 fa3a
000003d0: 2c57 03be 71fa d8bd 09c7 bbbd 8ff0 813d
000003e0: efb9 d0bc 5596 b4bd 551d fbbd 0584 a23c
000003f0: cc9d 313c 6af9 35bd 4bf8 b93d c922 ef3c

main_network.lstm.weight_hh_l0 f4 [256, 64]
0.022147775 -0.048912678 -0.044032488 0.08987838 0.0041441466 0.06708835 -0.098039486 0.044562936
0.07856964 -0.06221414 -0.0012154771 -0.03485288 -0.0019719102 0.02374359 -0.097399436 -0.09107377
-0.03998889 -0.019215923 0.08538197 0.056106724 -0.0793161 0.026786797 0.0695757 0.09772976
-0.043437578 0.10787947 0.10231978 -0.04684066 0.025463343 0.08313624 0.034437437 0.065503106
-0.015253632 -0.020608654 -0.082680814 0.06549197 0.10829145 -0.06768035 0.023944344 -0.07387734
-0.050715804 0.067910075 -0.007852812 -0.105102696 -0.060700852 -0.10924295 0.09053377 -0.026734492
0.122718245 -0.10974114 -0.0395211 0.058079902 -0.07848013 -0.029034724 -0.10802737 0.09411277
0.08503455 0.013674457 0.11855014 -0.08053467 0.012464013 0.12271077 0.051464166 0.055959836
-0.013359217 -0.100935034 -0.102000915 -0.05727858 -0.06826804 -0.037529297 0.110428676 0.104376994
0.088294566 -0.089917876 0.12428538 0.07564489 -0.11538251 0.04955484 0.03429689 0.058280252
-0.06301488 0.05287686 -0.021722673 0.06621957 0.026197463 0.0019240963 0.02398431 -0.08490578
-0.12814783 -0.07108622 0.0018089361 -0.119688444 0.034358807 -0.1297931 -0.1216832 -0.03524082
0.026215406 -0.0029950354 -0.09129216 0.061730463 0.09489397 -0.087463655 0.065650865 0.077090986
0.027117878 0.05987849 -0.10937512 0.079128124 -0.011912905 -0.09703388 0.09300841 -0.00083226775
0.018338906 -0.114029326 -0.124065496 -0.021789458 0.10323403 -0.09025255 0.09129932 -0.005171335
-0.038948946 -0.081806354 -0.06883867 -0.08234943 -0.07293461 -0.06439603 0.026230203 -0.097266145
0.052511584 -0.10732314 -0.09773861 0.006907131 0.06477247 0.05748701 -0.006093588 0.09940344
-0.05666169 0.03266639 -0.05113163 -0.065848716 -0.075325385 0.08208357 -0.079178505 -0.057974063
-0.08693005 0.09616327 -0.004045078 0.110125355 -0.0867085 -0.020543393 -0.12211819 0.047737885
-0.102648824 0.04167592 -0.10959452 0.044616025 -0.113011025 0.033852786 -0.07998586 -0.090107135
-0.11901066 -0.1139558 0.06420793 0.078978725 -0.1038066 -0.06717164 0.085703924 0.079481184
-0.013308878 0.07151353 -0.06116462 0.021013517 0.06938811 0.09218139 0.012275993 -0.01906437
-0.029383196 -0.09449721 0.028795758 0.09362588 0.04238629 -0.0697159 -0.10026653 -0.0927532
-0.011125448 -0.10013615 0.11069146 -0.026459921 -0.03502409 0.08753863 -0.04100816 -0.049428068
0.015947131 0.07826409 -0.05300291 -0.12724647 0.08794213 0.055717748 0.08205753 0.12399368
-0.01856743 0.0006516158 0.04633078 0.12243656 0.07508207 0.08158501 -0.042054653 -0.032761034
-0.0223442 -0.070517115 0.09767287 0.03138483 -0.04349877 0.00740628 -0.034563508 -0.033434343
-0.042330153 0.11311121 -0.076750405 0.12082478 0.05320986 -0.026849793 0.06423298 0.02551767
0.027378716 0.004982019 0.043621685 0.039668463 0.07730578 0.05608141 -0.045020573 -0.10446258
-0.026440887 -0.05192384 -0.07775936 -0.06823808 0.041451324 0.045825686 0.029735463 0.06466301
-0.025954666 0.07801245 0.057994697 0.05462834 0.003497587 -0.09738711 -0.07471817 -0.04176328
0.025198305 0.060008597 -0.025617924 0.09018893 -0.016625699 -0.083198644 -0.05203281 -0.069171034
00000000: 406f b53c a958 48bd 695b 34bd 2812 b83d
00000010: 9fcb 873b 9e65 893d edc8 c8bd a087 363d
00000020: 1fe9 a03d 41d4 7ebd a550 9fba e5c1 0ebd
00000030: 2a3b 01bb eb81 c23c 5b79 c7bd e284 babd
00000040: 64cb 23bd b66a 9dbc bedc ae3d 2ad0 653d
00000050: 7b70 a2bd fc6f db3c b47d 8e3d 8a26 c83d
00000060: 9aeb 31bd e9ef dc3d 088d d13d fedb 3fbd
00000070: 8098 d03c 5543 aa3d 450e 0d3d 7e26 863d
00000080: 5fea 79bc 7bd3 a8bc 8f54 a9bd a720 863d
00000090: e8c7 dd3d ff9b 8abd ee26 c43c 014d 97bd
000000a0: 60bb 4fbd 7014 8b3d 15a9 00bc 1540 d7bd
000000b0: 75a1 78bd c5ba dfbd c569 b93d 4b02 dbbc
000000c0: b453 fb3d f6bf e0bd e1e0 21bd 31e5 6d3d
000000d0: 31ba a0bd 3bda edbc 743d ddbd 32be c03d
000000e0: 9826 ae3d d40a 603c 6aca f23d 5cef a4bd
000000f0: dc35 4c3c c94f fb3d 17cc 523d 2436 653d
00000100: 9ee0 5abc 07b7 cebd dbe5 d0bd f29c 6abd
00000110: 1dd0 8bbd 52b8 19bd 6e28 e23d 9bc3 d53d
00000120: c8d3 b43d dd26 b8bd 5589 fe3d b5eb 9a3d
00000130: aa4d ecbd 04fa 4a3d e57a 0c3d 46b7 6e3d
00000140: f20d 81bd 6895 583d bff3 b1bc 209e 873d
00000150: 109c d63c f531 fc3a be7a c43c 15e3 adbd
00000160: 2f39 03be a795 91bd d319 ed3a 371f f5bd
00000170: d2bb 0c3d 7be8 04be 0b35 f9bd ae58 10bd
00000180: b1c1 d63c 5b48 44bb 62f7 babd 15d9 7c3d
00000190: c557 c23d 2520 b3bd f673 863d e1e1 9d3d
000001a0: 5026 de3c 2643 753d 1000 e0bd ed0d a23d
000001b0: 582e 43bc b3b9 c6bd 317b be3d 8b2c 5aba
000001c0: 793b 963c 3588 e9bd 0d16 febd ce7f b2bc
000001d0: 5d6c d33d 54d6 b8bd 23fb ba3d 4d74 a9bb
000001e0: ee88 1fbd 178a a7bd 4afb 8cbd d1a6 a8bd
000001f0: be5e 95bd 11e2 83bd b9e0 d63c 7933 c7bd
00000200: 6316 573d 3ccc dbbd 2e2b c8bd 3755 e23b
00000210: 6ea7 843d 8077 6b3d b9ac c7bb 0894 cb3d
00000220: 1716 68bd 31cd 053d 666f 51bd b1db 86bd
00000230: 3244 9abd 6e1b a83d 5728 a2bd 3676 6dbd
00000240: 6208 b2bd 40f1 c43d 938c 84bb 6789 e13d
00000250: 3a94 b1bd 9e4a a8bc 1a19 fabd cd88 433d
00000260: 8c39 d2bd 5fb4 2a3d 1773 e0bd 4bbf 363d
00000270: 5372 e7bd 38a9 0a3d a0cf a3bd 178a b8bd
00000280: dcbb f3bd a961 e9bd 727f 833d 99bf a13d
00000290: 8e98 d4bd 4991 89bd 8a85 af3d 08c7 a23d
000002a0: 7b0d 5abc b075 923d c187 7abd 8a24 ac3c
000002b0: 5a1b 8e3d 99c9 bc3d 3f21 493c e22c 9cbc
000002c0: 07b5 f0bc c187 c1bd 15e5 eb3c edbe bf3d
000002d0: 3f9d 2d3d 36c7 8ebd 8a58 cdbd 64f5 bdbd
000002e0: 8347 36bc 2f14 cdbd 34b2 e23d 7ac2 d8bc
000002f0: 6c75 0fbd 7447 b33d 2cf8 27bd 1675 4abd
00000300: 8fa3 823c ec48 a03d 9419 59bd e64c 02be
00000310: 011b b43d 4b38 643d c70d a83d 66f0 fd3d
00000320: b91a 98bc 32d1 2a3a 58c5 3d3d 05c0 fa3d
00000330: a1c4 993d 0b16 a73d 8041 2cbd 6f30 06bd
00000340: 2f0b b7bc 476b 90bd b708 c83d 618d 003d
00000350: c42b 32bd 61b0 f23b 7792 0dbd 73f2 08bd
00000360: 6262 2dbd daa6 e73d 512f 9dbd fb72 f73d
00000370: 95f2 593d 19f4 dbbc 958c 833d 6f0a d13c
00000380: 5449 e03c 3440 a33b a7ac 323d 667b 223d
00000390: 7e52 9e3d 9fb5 653d 7e67 38bd 7af0 d5bd
000003a0: 8f9a d8bc 18ae 54bd 4d40 9fbd 68c0 8bbd
000003b0: ddc8 293d b7b3 3b3d c997 f33c 0a6e 843d
000003c0: e19e d4bc fec4 9f3d d98b 6d3d f7c1 5f3d
000003d0: c637 653b e572 c7bd d705 99bd f90f 2bbd
000003e0: ad6c ce3c 93cb 753d aedc d1bc f9b4 b83d
000003f0: 9e32 88bc 0d64 aabd 5b20 55bd 8ba9 8dbd

main_network.lstm.bias_ih_l0 f4 [256]
0.092367016 0.042117342 -0.09077351 -0.040708467 -0.06805894 -0.07657988 -0.0149396 0.06200131
0.1086582 -0.0019340186 -0.10674328 -0.094595306 0.09595494 0.11454189 -0.020625178 -0.016074171
-0.02151077 0.094190925 0.043655522 0.015970072 -0.120268025 0.055260144 0.11416804 -0.06479698
-0.11469679 0.017330062 -0.0034269667 -0.0005584718 -0.1050128 0.04027121 0.029940732 0.01945728
-0.10463298 -0.06306466 -0.115393646 0.009438547 0.0011896512 0.103731036 0.03316448 -0.10263876
-0.06956873 -0.07798175 -0.07023261 0.11445754 -0.047023594 -0.027273016 0.01462378 -0.07856315
-0.12282324 0.019079436 0.05415278 0.041595727 -0.10316145 -0.01972799 -0.092492975 0.006482175
-0.06942018 0.09581225 0.064628385 -0.07997612 -0.11581991 -0.011281738 0.08721861 0.038538452
0.06260169 -0.0055023027 0.10740927 0.039174173 -0.103388 -0.10445794 -0.09474832 0.09470269
-0.1162821 0.02171136 -0.07462893 -0.010693108 -0.061571185 0.07616054 0.0075923656 -0.0273208
-0.07727029 -0.041203592 -0.09707565 0.07792782 -0.07579381 0.001453696 -0.015750306 0.06665288
-0.044537976 0.033903405 0.01085616 0.010982282 0.027428327 0.11709701 0.046093192 0.0671872
-0.016433325 -0.012692411 -0.049754497 -0.087881505 -0.09160304 0.06532842 -0.023609987 0.012567665
0.10397983 0.020322202 0.07053522 0.03198726 0.03649553 -0.054439273 -0.103635356 0.02447013
-0.071571045 -0.0073488434 0.06008748 -0.09591759 0.032564815 0.11139967 -0.11356229 0.08371461
0.071159035 0.045590304 0.059550613 0.023439554 0.022964297 0.114258595 -0.066336215 -0.005827839
0.012402552 -0.04596356 0.028562644 -0.08128354 -0.046349544 0.0932275 -0.05157822 -0.028931452
0.082241006 0.1094748 -0.09203291 0.04009106 0.09007107 -0.09247179 -0.0073966305 -0.12787582
0.115187116 -0.09491138 -0.11432115 -0.06930874 -0.060027864 0.030154848 0.097313076 0.099624194
0.11126608 0.10198821 0.07130397 0.06825024 -0.017323188 -0.097964086 0.04677942 -0.033264834
-0.027417812 -0.057006873 -0.0053662537 -0.092655204 0.0018255003 0.10780746 0.09011368 0.064014345
-0.048838086 -0.06312353 -0.06885708 -0.074622475 0.07561511 -0.12629712 0.0634584 -0.07771407
-0.08619872 0.07541131 0.05427838 0.0040990566 0.007686781 -0.060921263 0.01215262 0.11877464
-0.024153987 0.11002863 -0.049382012 0.00958928 -0.008880041 0.01091545 0.10541984 -0.014365402
0.10966622 -0.027989587 -0.018093152 -0.09910497 -0.06384944 -0.020955468 -0.124145284 -0.1108143
-0.05691025 -0.0065478315 -0.025937114 0.10480123 0.050132196 -0.08774062 -0.11847557 0.05501932
0.034827147 0.12405022 0.06714312 -0.03086366 0.05453726 0.08125818 -0.076183885 0.06328368
0.09845226 0.063365825 0.026004996 -0.00011724291 -0.06499602 -0.097217634 -0.11801388 -0.102600195
-0.10153862 -0.029839627 -0.006879741 0.03576182 -0.036252648 -0.030145235 -0.01658367 -0.1070389
0.05091211 0.048576597 -0.045749474 0.04361896 -0.036320988 0.12351638 -0.047045592 0.030466102
0.0022351854 0.045559693 0.012890211 0.11163495 -0.04921615 -0.09868009 -0.09308844 -0.10778031
-0.10008281 -0.0379528 -0.07428664 -0.07704186 0.105227 -0.10375847 -0.13187082 0.121783555
00000000: eb2a bd3d 3c83 2c3d 76e7 b9bd ecbd 26bd
00000010: 7c62 8bbd ead5 9cbd 39c5 74bc 16f5 7d3d
00000020: 3188 de3d e57e fdba 399c dabd 2fbb c1bd
00000030: 0684 c43d f094 ea3d 22f6 a8bc fbad 83bc
00000040: 5b37 b0bc 2ce7 c03d 22d0 323d abd3 823c
00000050: 154f f6bd 7658 623d efd0 e93d 47b4 84bd
00000060: 27e6 eabd c6f7 8d3c f696 60bb 6866 12ba
00000070: f310 d7bd 6df3 243d 4446 f53c e064 9f3c
00000080: d149 d6bd 0b28 81bd 8153 ecbd 23a4 1a3c
00000090: 12ee 9b3a f070 d43d 7ad7 073d 4534 d2bd
000000a0: 0d7a 8ebd e5b4 9fbd 1dd6 8fbd b768 ea3d
000000b0: d09b 40bd a96b dfbc 9498 6f3c b7e5 a0bd
000000c0: c08a fbbd 7a4c 9c3c 4ecf 5d3d 4860 2a3d
000000d0: 4f46 d3bd 989c a1bc f56c bdbd 6d68 d43b
000000e0: 2b2c 8ebd 3739 c43d e35b 843d 85ca a3bd
000000f0: fd32 edbd 0ad7 38bc ac9f b23d 7fda 1d3d
00000100: 5135 803d a94c b4bb 64f9 db3d 1975 203d
00000110: 16bd d3bd 0bee d5bd 680b c2bd 7cf3 c13d
00000120: 4f25 eebd 06dc b13c 0dd7 98bd 2532 2fbc
00000130: 1132 7cbd 0ffa 9b3d 61c9 f83b dfcf dfbc
00000140: e33f 9ebd 19c5 28bd 99cf c6bd 9f98 9f3d
00000150: c939 9bbd f289 be3a c906 81bc 4e81 883d
00000160: 746d 36bd 4cde 0a3d 09de 313c 08ef 333c
00000170: 5fb1 e03c 8fd0 ef3d 37cc 3c3d 7199 893d
00000180: 2e9f 86bc d5f3 4fbc 5fcb 4bbd 38fb b3bd
00000190: 609a bbbd e8ca 853d bb69 c1bc 9ce8 4d3c
000001a0: 61f3 d43d bf7a a63c c574 903d 1305 033d
000001b0: 567c 153d b7fb 5ebd c63e d4bd 9575 c83c
000001c0: d793 92bd 91ce f0bb 4a1e 763d 7170 c4bd
000001d0: af62 053d 8325 e43d 5993 e8bd 9172 ab3d
000001e0: d4bb 913d e6bc 3a3d 58eb 733d 4f04 c03c
000001f0: 9f1f bc3c 6900 ea3d 48db 87bd 75f7 bebb
00000200: 1334 4b3c 4944 3cbd 35fc e93c fc77 a6bd
00000210: 05d9 3dbd 0fee be3d af43 53bd a701 edbc
00000220: f96d a83d 5334 e03d c07b bcbd 8636 243d
00000230: 2e77 b83d da61 bdbd 6f5f f2bb e1f1 02be
00000240: 39e7 eb3d e660 c2bd 3521 eabd bef1 8dbd
00000250: c7df 75bd 4d07 f73c 144c c73d c507 cc3d
00000260: 78df e33d 32df d03d d107 923d c8c6 8b3d
00000270: 5ce9 8dbc 65a1 c8bd c79b 3f3d b540 08bd
00000280: 529b e0bc 0a80 69bd 66d7 afbb 03c2 bdbd
00000290: a045 ef3a 28ca dc3d 858d b83d f419 833d
000002a0: 720a 48bd e946 81bd f104 8dbd abd3 98bd
000002b0: 18dc 9a3d 0854 01be 7af6 813d 8e28 9fbd
000002c0: f488 b0bd 3f71 9a3d 0253 5e3d 6151 863b
000002d0: 65e1 fb3b 9388 79bd c81b 473c 1e40 f33d
000002e0: 95de c5bc b156 e13d cb44 4abd 5b1c 1d3c
000002f0: 977d 11bc b7d6 323c 5be6 d73d dd5c 6bbc
00000300: af98 e03d 6b4a e5bc 1738 94bc 8cf7 cabd
00000310: 7fc3 82bd cdaa abbc e23f febd 9cf2 e2bd
00000320: b91a 69bd 318f d6bb 127a d4bc 07a2 d63d
00000330: 6b57 4d3d 5bb1 b3bd 52a3 f2bd f05b 613d
00000340: e9a6 0e3d 0b0e fe3d 5582 893d c9d5 fcbc
00000350: 7662 5f3d b06a a63d 4c06 9cbd e09a 813d
00000360: 57a1 c93d f1c5 813d 6e08 d53c 4fe0 f5b8
00000370: a21c 85bd 0a1a c7bd 43b1 f1bd 0d20 d2bd
00000380: 7bf3 cfbd 3c72 f4bc 736f e1bb fc7a 123d
00000390: a87d 14bd 24f3 f6bc 7ada 87bc 3637 dbbd
000003a0: 3789 503d 41f8 463d cd63 3bbd cba9 323d
000003b0: 51c5 14bd 28f6 fc3d e1b2 40bd 0c94 f93c
000003c0: 307c 123b cd9c 3a3d 7731 533c dda0 e43d
000003d0: e096 49bd c918 cabd 27a5 bebd ecbb dcbd
000003e0: 37f8 ccbd 6574 1bbd 9823 98bd 1fc8 9dbd
000003f0: 4181 d73d 527f d4bd 2509 07be a869 f93d

main_network.lstm.bias_hh_l0 f4 [256]
-0.07711958 0.0072543756 0.0951477 -0.06617043 -0.07796162 -0.07814509 0.1095604 -0.010369856
-0.025436128 -0.04783864 -0.091787465 0.043873146 0.075654104 0.052488547 -0.091870576 -0.10495473
-0.07869963 -0.06561977 0.04234361 -0.009932913 0.09179341 0.0551512 -0.013730968 0.017055688
0.06499147 0.08233895 -0.043637138 0.026662892 0.09563071 -0.058602877 -0.07138686 -0.050083768
0.0022268256 0.010649216 -0.02871773 0.10380321 -0.062343325 0.085917205 -0.037835043 -0.01199337
0.11311326 -0.111075036 -0.06408714 -0.1023714 -0.039522603 -0.11113867 -0.10341801 -0.0952804
-0.09051812 -0.014963309 0.056707997 -0.102427326 0.00046030086 0.025391594 -0.088929124 -0.0473667
0.055206615 0.060769502 0.0010037457 -0.019974034 -0.050084822 0.02745429 0.0952664 0.12359323
0.060453985 -0.07575469 0.105158135 0.12220494 -0.042522483 0.008280182 0.04556367 -0.053738423
-0.105239056 0.10368407 -0.01534362 -0.12052362 -0.032784317 0.07863311 -0.107589565 0.0692343
-0.0022343171 0.06027962 -0.04277449 0.03211731 -0.07450908 0.061887592 0.007985429 0.08752358
0.08856336 0.0021715902 0.10696445 0.021923356 0.09151164 -0.063848786 0.012207222 -0.05213783
0.06514077 -0.06772367 0.021636358 0.053182088 -0.10415125 -0.10058519 -0.025790622 0.03786492
-0.113189764 -0.055505037 0.022432674 0.10692678 0.017520444 -0.012840447 -0.040091418 0.043978974
0.10871329 -0.051134773 0.09545214 0.030627215 -0.121154755 -0.044128124 0.0048368094 -0.08846494
0.0076257624 -0.015542526 0.102246776 0.11246105 -0.091897696 0.09827759 -0.016662065 -0.09258729
-0.09107514 -0.027648976 -0.06065839 0.02494434 0.031754386 0.033622168 0.10747401 0.06821339
0.08592225 0.08238315 0.05649661 -0.08610595 0.108596236 -0.11092287 -0.096385196 0.074471526
-0.06420917 0.06489369 -0.011423255 -0.009223553 0.10045277 -0.002683437 -0.099137485 0.1180334
-0.058172207 -0.094141096 -0.09515757 -0.058394115 0.11340808 0.11318498 -0.09110135 -0.044213016
-0.010066023 -0.08787236 -0.076604776 0.12516901 0.11753103 0.06042622 -0.09722752 -0.038630657
0.0015133561 0.12596019 -0.09814472 0.027826762 0.11006333 -0.08000062 -0.08708855 -0.03328523
0.009033624 -0.096276455 -0.11108726 0.04114066 0.024222314 -0.055756137 -0.09597447 0.014263026
0.019761479 -0.036364496 -0.04642306 0.041117463 0.08089481 0.0925672 -0.069682024 -0.015503807
0.106288515 -0.08284351 0.021457748 -0.106879994 -0.11032685 -0.097505115 -0.105613455 -0.050627586
0.039887812 0.044335596 0.05431674 0.049445137 -0.021527043 -0.11854253 0.11548178 0.02769929
0.081709646 0.12195697 -0.009014651 -0.10284458 -0.087497324 -0.107469365 0.0045552123 -0.048503432
-0.036151867 0.03120756 0.06126143 0.06890414 0.01071348 0.04790488 0.050337493 -0.108356826
0.10236598 -0.008439775 -0.11277797 0.066569075 -0.123884656 0.028681524 0.016843552 0.009074436
-0.101270005 0.02165285 -0.118971355 0.084537104 0.10116142 0.11296059 -0.012798189 0.0013870982
0.026765607 -0.08088438 -0.096783616 0.111835666 0.025754217 -0.073108084 -0.05587517 0.067779556
-0.033832423 0.0061399513 0.109439135 -0.058995917 0.079234 0.027608726 -0.036731083 -0.118380696
00000000: dff0 9dbd 1db6 ed3b ccdc c23d 5d84 87bd
00000010: 58aa 9fbd 880a a0bd 3461 e03d 54e6 29bc
00000020: 6d5f d0bc 73f2 43bd 11fb bbbd 54b4 333d
00000030: 8af0 9a3d 3bfe 563d a426 bcbd 81f2 d6bd
00000040: 462d a1bd a863 86bd 7e70 2d3d a8bd 22bc
00000050: 2ffe bb3d 3ae6 613d dbf7 60bc 5fb8 8b3c
00000060: 3f1a 853d 53a1 a83d dbbc 32bd 236c da3c
00000070: 09da c33d 9209 70bd 4633 92bd a324 4dbd
00000080: efef 113b 0d7a 2e3c 7241 ebbc c796 d43d
00000090: b75b 7fbd 5cf5 af3d ebf8 1abd d77f 44bc
000000a0: eda7 e73d 4f7b e3bd 1e40 83bd 19a8 d1bd
000000b0: 74e2 21bd ac9c e3bd d2cc d3bd 5f22 c3bd
000000c0: 9061 b9bd ab28 75bc a546 683d 6bc5 d1bd
000000d0: 8954 f139 0802 d03c 7920 b6bd 9603 42bd
000000e0: 5520 623d 71e9 783d 1e90 833a 96a0 a3bc
000000f0: be25 4dbd d2e7 e03c 081b c33d 731e fd3d
00000100: 999e 773d 4625 9bbd 265d d73d 9546 fa3d
00000110: 0e2c 2ebd 9aa9 073c f9a0 3a3d d21c 5cbd
00000120: 9387 d7bd 5058 d43d cf63 7bbc 16d5 f6bd
00000130: d948 06bd 650a a13d eb57 dcbd b6ca 8d3d
00000140: 9f6d 12bb c3e7 763d 4e34 2fbd 718d 033d
00000150: 3798 98bd d87d 7d3d 51d5 023c 903f b33d
00000160: b560 b53d 3d51 0e3b 2d10 db3d 9c98 b33c
00000170: 746a bb3d 27c3 82bd cd00 483c 7a8e 55bd
00000180: 8668 853d b5b2 8abd bb3e b13c 76d5 593d
00000190: 404d d5bd 9cff cdbd db46 d3bc 3f18 1b3d
000001a0: 09d0 e7bd 4059 63bd bac4 b73c 6dfc da3d
000001b0: 0987 8f3c bd60 52bc e636 24bd 4c23 343d
000001c0: 13a5 de3d b272 51bd 697c c33d ede5 fa3c
000001d0: fc1f f8bd b1bf 34bd 197e 9e3b 1b2d b5bd
000001e0: 88e1 f93b 14a6 7ebc c266 d13d fb51 e63d
000001f0: dc34 bcbd c345 c93d e27e 88bc 689e bdbd
00000200: 9a85 babd 1b80 e2bc ef74 78bd 1358 cc3c
00000210: e310 023d 66b7 093d 551b dc3d 76b3 8b3d
00000220: 01f8 af3d 7fb8 a83d fd68 673d 5158 b0bd
00000230: b467 de3d 882b e3bd 9a65 c5bd 8784 983d
00000240: 1980 83bd fce6 843d 9b28 3bbc 631e 17bc
00000250: 2fba cd3d 9adc 2fbb 9808 cbbd 7fbb f13d
00000260: fb45 6ebd 0ccd c0bd f9e1 c2bd ab2e 6fbd
00000270: 7f42 e83d 87cd e73d 5893 babd b518 35bd
00000280: f6eb 24bc 6df6 b3bd f7e2 9cbd 4e2c 003e
00000290: 1cb4 f03d 7c81 773d 391f c7bd 2e3b 1ebd
000002a0: ce5b c63a b5fb 003e 1900 c9bd f3f4 e33c
000002b0: e268 e13d 5dd7 a3bd 7b5b b2bd 1856 08bd
000002c0: c401 143c 972c c5bd b881 e3bd 1c83 283d
000002d0: e06d c63c 8c60 64bd 438e c4bd 78af 693c
000002e0: d3e2 a13c f0f2 14bd 1b26 3ebd c96a 283d
000002f0: 2eac a53d df93 bd3d 73b5 8ebd ae03 7ebc
00000300: cbad d93d dca9 a9bd 29c8 af3c e6e3 dabd
00000310: 0bf3 e1bd c3b0 c7bd de4b d8bd df5e 4fbd
00000320: 6761 233d 3e99 353d 3b7b 5e3d fc86 4a3d
00000330: 7b59 b0bc 6dc6 f2bd b681 ec3d 9fe9 e23c
00000340: 6357 a73d 93c4 f93d 30b2 13bc 2ea0 d2bd
00000350: cc31 b3bd e618 dcbd e443 953b 89ab 46bd
00000360: fb13 14bd ffa6 ff3c 44ed 7a3d 9d1d 8d3d
00000370: 9887 2f3c e837 443d b02e 4e3d 2fea ddbd
00000380: 41a5 d13d fb46 0abc 23f8 e6bd 5e55 883d
00000390: 3db7 fdbd 84f5 ea3c 7dfb 893c f1ac 143c
000003a0: a666 cfbd 5161 b13c 41a7 f3bd ca21 ad3d
000003b0: b82d cf3d e257 e73d 7faf 51bc 4bcf b53a
000003c0: 8c43 db3c b6a6 a5bd 7d36 c6bd 190a e53d
000003d0: 82fa d23c b1b9 95bd 5ddd 64bd 02d0 8a3d
000003e0: de93 0abd a531 c93b a021 e03d b4a5 71bd
000003f0: 6f45 a23d b22b e23c 5573 16bd 9471 f2bd

main_network.fc.weight f4 [3, 64]
0.052216243 0.08235447 -0.036744304 0.0055317595 -0.12636712 -0.07117124 0.10444327 0.1247681
-0.10542064 -0.11868656 -0.05949119 -0.0459195 -0.05394698 0.05156116 -0.099511445 0.0013714457
0.11040532 0.070033886 -0.035748508 0.037183985 0.08483363 0.13140455 -0.029634286 0.06611125
-0.024040075 -0.05229494 0.0865704 -0.0360492 0.10105567 0.006870172 0.024174172 -0.09104134
-0.0147910975 -0.11088345 -0.11959675 -0.061246853 0.0038618173 0.11341966 0.06687862 0.08325878
-0.09743149 -0.006153877 -0.10535278 -0.10809591 0.10036735 0.04961734 -0.036764067 0.003227709
0.043750163 0.043928888 -0.039884977 0.09343933 0.038398914 0.11944411 0.05549776 -0.11018155
-0.017587287 -0.06353325 -0.012536703 0.08916156 -0.028072294 -0.013423949 -0.04746082 -0.04441918
-0.012961921 0.044225913 -0.07466894 0.050275322 0.046716183 0.10235021 -0.098542996 -0.11210827
-0.10586073 -0.024753 0.10129592 0.11556869 0.11163365 -0.0625415 0.12227581 0.036887575
0.033757254 0.052212164 0.0032244406 0.013439669 -0.056962848 0.05859282 -0.102595806 0.10676235
0.08116554 -0.06581869 -0.0708837 0.111643486 -0.007298754 -0.03178865 0.07159138 -0.08963654
-0.09620427 0.10181598 0.100759216 0.09266513 0.003308937 -0.07002759 0.015575815 0.040984523
0.026161885 -0.0908784 0.10251783 0.10859973 0.011479629 -0.03688546 -0.08548417 0.12519039
-0.044092022 -0.09981579 -0.12244139 0.08678574 0.11505452 0.027408507 -0.022893641 -0.09050573
0.09433674 0.010049922 0.09806687 0.061318565 0.09969202 0.10487674 0.099089585 0.08901822
-0.1030236 0.0075233458 -0.07377891 -0.014083815 -0.024231562 0.03127506 -0.04844973 0.005135733
0.042220365 -0.11736161 -0.0011505702 0.052765764 -0.0353303 0.0029557233 -0.11023758 -0.09580116
0.0714682 0.023727302 -0.06705799 0.084619105 0.10760317 -0.045960706 -0.0047004875 0.12391998
-0.09201979 -0.065757655 -0.07486708 0.09563077 0.077851534 -0.08823438 -0.02310237 -0.02219602
0.10466872 -0.06629396 0.07399243 -0.11455941 0.09890615 0.043117356 -0.11923655 -0.05940339
-0.1120429 0.09861991 0.013299796 -0.001793685 0.05852462 0.03892589 -0.11675484 -0.08049619
0.09472208 0.10963298 0.1161146 0.046536505 0.09749492 -0.0024554257 -0.060986828 -0.04295655
-0.027790282 0.019769918 0.0954702 -0.11065155 -0.0658042 0.039282266 0.012724402 -0.05478466
00000000: b3e0 553d 76a9 a83d 3281 16bd c343 b53b
00000010: 6266 01be 3ac2 91bd 5ae6 d53d 6b86 ff3d
00000020: c7e6 d7bd f011 f3bd 09ad 73bd 1616 3cbd
00000030: 82f7 5cbd cb31 533d a8cc cbbd 15c2 b33a
00000040: 2f1c e23d ed6d 8f3d 076d 12bd 3c4e 183d
00000050: 41bd ad3d ea8e 063e 9ac3 f2bc 5665 873d
00000060: b1ef c4bc 3833 56bd d24b b13d 53a8 13bd
00000070: 46f6 ce3d 2e1f e13b ea08 c63c e273 babd
00000080: 5c56 72bc dd16 e3bd 24ef f4bd fbdd 7abd
00000090: 8b16 7d3b 9148 e83d a8f7 883d 9483 aa3d
000000a0: 298a c7bd 76a6 c9bb 33c3 d7bd 6361 ddbd
000000b0: 668d cd3d 8d3b 4b3d eb95 16bd f987 533b
000000c0: 5f33 333d c7ee 333d 6e5e 23bd 1f5d bf3d
000000d0: 2e48 1d3d 1d9f f43d 9f51 633d dda6 e1bd
000000e0: 3713 90bc b81d 82bd be66 4dbc 569a b63d
000000f0: def7 e5bc 1ff0 5bbc 4766 42bd e3f0 35bd
00000100: 3d5e 54bc 3b26 353d 07ec 98bd 7fed 4d3d
00000110: 7859 3f3d fd9c d13d e9d0 c9bd 0599 e5bd
00000120: 83cd d8bd cec6 cabc 3c74 cf3d 47af ec3d
00000130: 2fa0 e43d c215 80bd bd6b fa3d 6d17 173d
00000140: 0c45 0a3d 6cdc 553d 2351 533b 0f32 5c3c
00000150: e051 69bd 06ff 6f3d c01d d2bd 38a6 da3d
00000160: 1e3a a63d f3cb 86bd 792b 91bd 57a5 e43d
00000170: 632a efbb d134 02bd 809e 923d 5d93 b7bd
00000180: bf06 c5bd e684 d03d d95a ce3d 37c7 bd3d
00000190: c0da 583b a06a 8fbd b431 7f3c 63df 273d
000001a0: 7351 d63c 741e babd def4 d13d 8969 de3d
000001b0: 0e15 3c3c 3515 17bd 5312 afbd e931 003e
000001c0: d699 34bd 396c ccbd 8dc2 fabd b9bc b13d
000001d0: b4a1 eb3d ce87 e03c 728b bbbc 115b b9bd
000001e0: 9f33 c13d 6ea8 243c 48d7 c83d 2d29 7b3d
000001f0: 542b cc3d 9ec9 d63d 7bef ca3d 2f4f b63d
00000200: 0afe d2bd 6686 f63b 6619 97bd cdbf 66bc
00000210: 4581 c6bc 471a 003d 3973 46bd a749 a83b
00000220: 43ef 2c3d 495b f0bd bbce 96ba ea20 583d
00000230: 81b6 10bd cfb4 413b 3ec4 e1bd 6633 c4bd
00000240: eb5d 923d c25f c23c b355 89bd c84c ad3d
00000250: 0d5f dc3d 4b41 3cbd 8c06 9abb c2c9 fd3d
00000260: df74 bcbd f3ab 86bd e953 99bd 11da c33d
00000270: a070 9f3d 3ab4 b4bd 2e41 bdbc 6ed4 b5bc
00000280: 8e5c d63d 21c5 87bd 5889 973d 209e eabd
00000290: 4f8f ca3d d39b 303d 4b32 f4bd f850 73bd
000002a0: bf76 e5bd 3cf9 c93d 63e7 593c 151a ebba
000002b0: 83b7 6f3d c170 1f3d 291d efbd 30db a4bd
000002c0: a6fd c13d 4187 e03d 7ecd ed3d 109d 3e3d
000002d0: 6bab c73d 35eb 20bb 53cd 79bd 35f3 2fbd
000002e0: 72a8 e3bc 86f4 a13c e185 c33d 489d e2bd
000002f0: 5ac4 86bd 71e6 203d 037a 503c e165 60bd

main_network.fc.bias f4 [3]
0.08162526 -0.023033377 0.020408032
00000000: 252b a73d 7eb0 bcbc bf2e a73c

short_term_context_network.fc1.weight f4 [32, 7]
0.24769679 -0.15983026 -0.27320147 0.12733163 -0.28128353 0.34670037 0.13075964 0.20142439
-0.26265204 0.077226944 -0.16938853 -0.2665154 -0.12629394 0.36501595 -0.21407382 -0.003945721
0.09375647 0.050693534 0.043270092 -0.09125021 -0.111948915 0.15364404 -0.09397927 0.15328652
-0.2641433 -0.20852205 -0.34032685 0.19929367 -0.32318652 -0.35476404 0.3098404 0.27269268
-0.11262206 0.21727505 0.11776966 0.023550991 0.01536854 -0.0926592 -0.21176574 0.15818806
0.27263755 -0.29116705 -0.108551204 0.21158014 0.33208588 -0.15927781 0.09034912 -0.10608344
0.26767159 0.26731142 0.2353372 0.3210794 0.11017762 -0.22261123 -0.18668658 0.055980995
0.12240687 -0.22560892 0.046017442 0.15104002 -0.33219746 -0.35765126 0.18298016 0.15584287
-0.2833376 0.114407875 -0.078135155 -0.22092079 0.31684875 0.0084027 -0.31060344 -0.1427241
-0.01577198 -0.35438314 0.028859785 0.12242692 -0.27516535 0.21801923 -0.24623615 0.3530299
-0.13884786 0.1417108 -0.11158657 0.34307122 0.017446429 -0.2791169 0.27959234 -0.20230402
0.10293441 0.2212079 0.24392942 -0.11862835 0.37638995 -0.25423834 0.37240314 -0.12707886
-0.2530141 0.2128855 0.059441827 -0.31842083 -0.06588748 0.22821145 0.30759573 -0.09657206
-0.25404844 -0.31984475 0.33220533 0.12016443 -0.37145275 0.33624148 -0.23273881 -0.32568917
0.23683228 0.034644954 0.32889572 0.073366426 -0.2960298 0.019743599 -0.07553948 0.19853574
0.18381575 0.07135342 0.24960315 -0.16587517 -0.35944566 -0.034294993 0.12697427 0.08678355
-0.26667073 0.07227596 0.21502978 -0.07456792 0.13619083 0.3531378 -0.08554696 -0.115691416
-0.21314353 0.19753715 0.054518424 0.0771986 0.09616048 -0.20460224 -0.36613718 -0.24194893
0.20544827 -0.13684256 -0.09288368 -0.094554335 0.14518821 -0.27585143 -0.30253395 0.247997
-0.1169672 0.30203044 -0.30732992 0.017108366 -0.35051873 0.28824067 0.00070381816 0.18860334
-0.025064664 -0.035923064 0.23406024 0.034737725 0.078983895 0.32224506 -0.33199555 -0.13752943
0.1569839 -0.08545343 -0.29629523 -0.03267056 0.16893694 0.18890528 -0.16018927 -0.026685972
-0.16635044 0.051027723 0.34022367 -0.34113917 0.25497812 0.12779297 -0.1328954 0.3196565
-0.2706149 -0.34123555 -0.10319593 0.004000645 -0.2095785 0.29023436 0.1403955 -0.0069551594
0.22235091 0.06834327 -0.20666106 0.37558317 -0.33256006 0.2060076 0.11730652 -0.17927735
-0.037045762 -0.08659612 -0.22055633 -0.12582196 -0.018472733 -0.07025015 -0.36717677 0.27993083
0.12196103 0.3056609 -0.3226778 0.23931275 -0.24126601 -0.10610863 -0.35472608 0.17070225
0.118178375 -0.30666143 -0.059484538 0.23765236 -0.29124552 0.12231018 0.008294737 0.10883737
00000000: 3aa4 7d3e 8baa 23be 10e1 8bbe 3963 023e
00000010: 6504 90be b682 b13e dbe5 053e 3242 4e3e
00000020: 547a 86be 2929 9e3d 3074 2dbe b574 88be
00000030: 3353 01be 5fe3 ba3e 2b36 5bbe 1b4b 81bb
00000040: 6403 c03d 06a4 4f3d fb3b 313d 64e1 babd
00000050: 7945 e5bd dd54 1d3e 3478 c0bd 24f7 1c3e
00000060: ca3d 87be ce86 55be 523f aebe a413 4c3e
00000070: b478 a5be a2a3 b5be 67a3 9e3e 609e 8b3e
00000080: 65a6 e6bd 5a7d 5e3e 3831 f13d 02ee c03c
00000090: 54cc 7b3c 1bc4 bdbd 1ed9 58be 0dfc 213e
000000a0: 2697 8b3e d913 95be 1850 debd 77a8 583e
000000b0: 2907 aa3e b919 23be f608 b93d 4642 d9bd
000000c0: 400c 893e 0bdd 883e 3cfc 703e 8564 a43e
000000d0: cea4 e13d 33f4 63be c42a 3fbe 544c 653d
000000e0: 74b0 fa3d 0606 67be c97c 3c3d 3caa 1a3e
000000f0: c915 aabe 111e b7be 275f 3b3e 4695 1f3e
00000100: a011 91be ad4e ea3d 5305 a0bd 0f39 62be
00000110: 003a a23e 7aab 093c 6a07 9fbe 4426 12be
00000120: 3d34 81bc b571 b5be 5b6b ec3c f7ba fa3d
00000130: 79e2 8cbe 6f40 5f3e 5425 7cbe 56c0 b43e
00000140: 222e 0ebe a31c 113e 8087 e4bd 08a7 af3e
00000150: d0eb 8e3c 69e8 8ebe ba26 8f3e c928 4fbe
00000160: 47cf d23d 5384 623e a2c8 793e 6cf3 f2bd
00000170: 2fb6 c03e 872b 82be a0ab be3e f620 02be
00000180: 108b 81be a8fe 593e 4679 733d 0e08 a3be
00000190: 04f0 86bd 43b0 693e 307d 9d3e 92c7 c5bd
000001a0: a312 82be b1c2 a3be d116 aa3e c518 f63d
000001b0: 0e2f bebe d827 ac3e 1553 6ebe bbc0 a6be
000001c0: 2984 723e dee7 0d3d 0565 a83e 2341 963d
000001d0: 3891 97be 54bd a13c 71b4 9abd f44c 4b3e
000001e0: 323a 3c3e be21 923d f897 7f3e 2edb 29be
000001f0: 4309 b8be e878 0cbd 8b05 023e 93bb b13d
00000200: 1189 88be 6b05 943d c430 5c3e 11b7 98bd
00000210: 9c75 0b3e 7ace b43e 3f33 afbd 9fef ecbd
00000220: 4c42 5abe 2e47 4a3e b64e 5f3d 4d1a 9e3d
00000230: c9ef c43d 4083 51be 5576 bbbe 76c1 77be
00000240: 0861 523e 7520 0cbe cc39 bebd b4a5 c1bd
00000250: 38ac 143e 663c 8dbe bbe5 9abe edf2 7d3e
00000260: 808c efbd bca3 9a3e 595a 9dbe d826 8c3c
00000270: 3177 b3be 4894 933e 7080 383a 3c21 413e
00000280: 6954 cdbc 1024 13bd 7dad 6f3e 2549 0e3d
00000290: 4fc2 a13d 4efd a43e 52fb a9be 84d4 0cbe
000002a0: 63c0 203e 3502 afbd 02b4 97be 91d1 05bd
000002b0: cefd 2c3e 6370 413e a808 24be 8a9c dabc
000002c0: c557 2abe 7202 513d cc31 ae3e cba9 aebe
000002d0: 7e8c 823e 29dc 023e bb15 08be 04aa a33e
000002e0: 098e 8abe 6db6 aebe 6358 d3bd d817 833b
000002f0: bf9b 56be 9999 943e d7c3 0f3e 1be8 e3bb
00000300: f5af 633e 8ef7 8b3d f59e 53be 704c c03e
00000310: 5045 aabe a8f3 523e 673e f03d 7b94 37be
00000320: 4cbd 17bd 4e59 b1bd 85d9 61be 79d7 00be
00000330: 2154 97bc 50df 8fbd 98fe bbbe 1853 8f3e
00000340: b4c6 f93d 967f 9c3e 0636 a5be 670e 753e
00000350: 700e 77be 7b4f d9bd a89e b5be 92cc 2e3e
00000360: 8107 f23d ba02 9dbe 0fa6 73bd 245b 733e
00000370: 221e 95be c27d fa3d a6e6 073c 21e6 de3d

short_term_context_network.fc1.bias f4 [32]
0.34479845 -0.09057176 0.16484793 -0.19987397 0.34619683 -0.2841201 -0.06541073 0.22125496
-0.34412733 0.10799447 -0.22352378 0.023360118 -0.36830568 0.015739633 0.25938395 -0.34827238
0.029764328 0.17389002 -0.13104631 -0.20236537 0.22119309 -0.33832505 0.16648602 0.18163446
0.3414179 -0.26176003 -0.21903265 -0.05353234 -0.30767718 -0.08791281 -0.18718469 0.31730467
00000000: 6c89 b03e b07d b9bd e5cd 283e c3ab 4cbe
00000010: b640 b13e 3178 91be 10f6 85bd a990 623e
00000020: 7531 b0be 342c dd3d 6be3 64be b85d bf3c
00000030: 9092 bcbe 67f0 803c f9cd 843e c250 b2be
00000040: 52d4 f33c 3a10 323e 0131 06be de38 4fbe
00000050: 7180 623e f138 adbe 507b 2a3e 62fe 393e
00000060: 54ce ae3e 6905 86be 184a 60be ba44 5bbd
00000070: dd87 9dbe a20b b4bd 58ad 3fbe c275 a23e

short_term_context_network.fc2.weight f4 [16, 32]
-0.039981928 -0.041039277 -0.13675211 -0.11315052 -0.07223519 0.066637814 -0.16444063 0.093800664
-0.15818736 -0.15166582 -0.017604275 0.17245466 0.01987561 0.13674225 0.1724508 -0.054499034
-0.09850824 -0.044835046 0.17630926 -0.14114271 0.1768913 0.0005492788 0.014802247 0.026639242
0.060572606 0.020749673 0.024611989 -0.16443074 -0.10122071 0.048296705 0.034335203 0.10346718
0.030788844 -0.08600077 0.13310201 0.07427549 -0.10428245 -0.110444844 -0.039240558 -0.15595414
0.017102685 -0.011318464 0.028981542 -0.10551298 0.10323491 -0.16071124 0.074540466 -0.16771655
0.08936964 0.15184896 -0.11966685 -0.17326844 0.08919273 0.055316873 0.08777455 -0.035537392
0.015052525 0.020864965 0.054134592 -0.049820177 -0.015502728 0.095992185 -0.14956953 -0.016541084
-0.12471231 -0.04025905 0.11254911 -0.088588856 0.1498507 -0.017733835 -0.12422741 -0.1109097
0.053777672 -0.074014224 0.17323224 -0.12059623 -0.002630785 -0.008120307 -0.1717349 -0.052128844
0.1080347 -0.054907165 -0.17300323 -0.112124376 -0.16615969 -0.018024985 -0.13010632 0.027762255
-0.17386869 0.13675715 -0.12028462 -0.042141538 -0.15210256 0.0687147 -0.037698228 0.1552295
-0.10448489 0.13856176 -0.059726927 -0.08980577 -0.086466685 -0.052505154 -0.1298294 -0.0019085509
-0.14398433 0.12328241 0.08886006 0.1321205 -0.06162891 -0.16613297 0.086995214 0.04546492
0.07811471 0.032905277 0.16263701 0.017263964 0.16308475 -0.14131168 0.02504417 0.15395087
0.14744502 0.031787068 -0.07867935 -0.16436325 0.02678154 -0.1525059 0.11710605 0.16952832
-0.102454014 -0.14477162 -0.018095708 0.10036271 -0.0903219 0.067695975 0.10524266 0.002506178
0.0034061607 0.062704414 0.121746354 -0.038067307 0.0008744839 0.17247371 -0.02179563 -0.05604612
-0.014935832 -0.025519473 -0.037836026 -0.10750588 -0.11741747 -0.02132955 -0.15117672 -0.14125948
-0.036261693 -0.150681 -0.14915428 -0.0786429 0.1479737 -0.04843872 -0.16791423 -0.14806858
0.13208456 0.06756091 -0.072830655 -0.07664531 0.025439532 -0.08684437 0.07751054 0.13887061
-0.08867743 0.17094994 0.16309083 -0.11266776 -0.12537295 -0.112833075 0.106160685 0.1338468
0.07714661 0.1336716 0.029136758 -0.03710799 0.06463728 -0.007550376 -0.09128082 -0.040914975
0.13824387 0.103925385 0.010170371 -0.17317712 -0.01547569 -0.16544648 -0.16291876 -0.009218469
0.13891469 -0.015378542 -0.1649052 -0.14452738 -0.13052239 0.10236096 0.10681086 -0.14993629
-0.09782336 -0.037519418 -0.07476341 0.028386429 0.033415012 0.08994599 -0.08143938 0.025808454
-0.121796995 0.015577833 0.0643662 -0.16668642 0.010096826 -0.16433728 -0.16805027 0.06389304
-0.08387661 0.11247681 0.059401684 0.09367541 -0.06579064 -0.14842841 0.1389093 0.070738345
-0.16721365 0.05127523 -0.087347955 -0.0017938542 0.15390332 -0.05165364 0.015955333 -0.12755801
0.049586587 0.051837903 0.15587308 -0.1390911 -0.04765093 0.16116373 -0.011899462 -0.07472263
0.109439686 -0.09246303 0.07153481 -0.15874027 -0.025936646 -0.12411092 0.16755697 0.04265212
-0.1422107 0.006004198 0.0076713376 0.15399809 0.122766055 0.009701615 0.0011326544 -0.02900335
00000000: 17c4 23bd cd18 28bd bf08 0cbe 76bb e7bd
00000010: 0bf0 93bd 6879 883d 2063 28be 901a c03d
00000020: defb 21be 494e 1bbe d736 90bc f497 303e
00000030: 2dd2 a23c 2906 0c3e f196 303e 613a 5fbd
00000040: b0be c9bd f4a4 37bd 6a8a 343e b787 10be
00000050: fe22 353e 7afd 0f3a 2085 723c 8a3a da3c
00000060: fb1a 783d 38fb a93c 159f c93c 8860 28be
00000070: ce4c cfbd c4d2 453d 12a3 0c3d 9ae6 d33d
00000080: e338 fc3c 2c21 b0bd e54b 083e c01d 983d
00000090: 0a92 d5bd e830 e2bd b5ba 20bd 71b2 1fbe
000000a0: ee1a 8c3c 1471 39bc b36a ed3c 3017 d8bd
000000b0: d36c d33d 7d91 24be aca8 983d e3bd 2bbe
000000c0: 6e07 b73d 4b7e 1b3e e513 f5bd 486d 31be
000000d0: aeaa b63d f293 623d 25c3 b33d a88f 11bd
000000e0: de9e 763c 01ed aa3c 3cbc 5d3d 3e10 4cbd
000000f0: 27ff 7dbc 8d97 c43d c128 19be 2b81 87bc
00000100: 2b69 ffbd ace6 24bd 2680 e63d 136e b5bd
00000110: 7672 193e 8c46 91bc f16a febd a024 e3bd
00000120: fa45 5c3d c594 97bd cb63 313e 28fb f6bd
00000130: 4069 2cbb 090b 05bc 46db 2fbe 0e85 55bd
00000140: 4c41 dd3d 56e6 60bd c227 31be 77a1 e5bd
00000150: c425 2abe 22a9 93bc 973a 05be ab6d e33c
00000160: a20a 32be 110a 0c3e c857 f6bd 9b9c 2cbd
00000170: c6c0 1bbe 4bba 8c3d 7569 1abd 7bf4 1e3e
00000180: 2dfc d5bd 22e3 0d3e 39a4 74bd 16ec b7bd
00000190: 7215 b1bd a50f 57bd 00f2 04be 5728 faba
000001a0: a170 13be 7d7b fc3d 43fc b53d 994a 073e
000001b0: 996e 7cbd c31e 2abe 8c2a b23d 6d39 3a3d
000001c0: 9bfa 9f3d afc7 063d 518a 263e 286d 8d3c
000001d0: b0ff 263e 02b4 10be 6e29 cd3c 4ca5 1d3e
000001e0: d4fb 163e 2833 023d a422 a1bd d74e 28be
000001f0: f664 db3c 822a 1cbe 4cd5 ef3d d598 2d3e
00000200: 69d3 d1bd 033f 14be 733d 94bc f78a cd3d
00000210: b0fa b8bd 30a4 8a3d 7789 d73d b13e 243b
00000220: e539 5f3b 2c6b 803d 2756 f93d 77ec 1bbd
00000230: 9f3d 653a f39c 303e c08c b2bc 9e90 65bd
00000240: 6bb5 74bc 370e d1bc f3f9 1abd 0b2c dcbd
00000250: 9278 f0bd 4fbb aebc 12ce 1abe 53a6 10be
00000260: 2487 14bd 1f4c 1abe e6bb 18be 870f a1bd
00000270: 6b86 173e ae67 46bd b5f1 2bbe 4a9f 17be
00000280: 2d41 073e 605d 8a3d 3d28 95bd 37f8 9cbd
00000290: 9166 d03c 76db b1bd d9bd 9e3d 1934 0e3e
000002a0: 839c b5bd 800d 2f3e 4801 273e 5bbe e6bd
000002b0: c461 00be 0715 e7bd c66a d93d 230f 093e
000002c0: 0bff 9d3d 35e1 083e 36b0 ee3c 8cfe 17bd
000002d0: 8d60 843d 2569 f7bb 70f1 babd 7696 27bd
000002e0: cd8f 0d3e d5d6 d43d a1a1 263c 5855 31be
000002f0: c08d 7dbc cd6a 29be 2dd4 26be 1009 17bc
00000300: a73f 0e3e 48f6 7bbc e9dc 28be fcfe 13be
00000310: a9a7 05be 9fa2 d13d a7bf da3d e688 19be
00000320: 9d57 c8bd f6ad 19bd 8f1d 99bd a88a e83c
00000330: 2ede 083d 9a35 b83d b1c9 a6bd 406c d33c
00000340: b470 f9bd 2b3a 7f3c 6dd2 833d d8af 2abe
00000350: 286d 253c 0848 28be 5f15 2cbe 5bda 823d
00000360: 80c7 abbd 3e5a e63d 2e4f 733d e5d8 bf3d
00000370: 3ebd 86bd 9efd 17be 3d3e 0e3e 44df 903d
00000380: 0e3a 2bbe fa05 523d 7ce3 b2bd c21f ebba
00000390: d598 1d3e c492 53bd c2b4 823c 919e 02be
000003a0: 4e1b 4b3d fb53 543d 319d 1f3e e66d 0ebe
000003b0: 9f2d 43bd 1b08 253e f6f5 42bc 2e08 99bd
000003c0: ea21 e03d 425d bdbd d880 923d cf8c 22be
000003d0: 1779 d4bc de2d febd 0e94 2b3e fdb3 2e3d
000003e0: af9f 11be ddbe c43b d85f fb3b adb1 1d3e
000003f0: c56c fb3d 86f3 1e3c 9375 943a 6f98 edbc

short_term_context_network.fc2.bias f4 [16]
0.0037189734 0.14149316 -0.13306215 -0.14265111 -0.17324302 -0.12747644 -0.0021388473 0.1625601
-0.17215157 -0.15372424 -0.024729848 0.14473902 0.06424725 -0.10958038 0.071656644 0.0881918
00000000: 05ba 733b 95e3 103e 7241 08be 2213 12be
00000010: 9e66 31be 2f89 02be e72b 0cbb 2876 263e
00000020: 8048 30be e369 1dbe 4096 cabc 7736 143e
00000030: 1094 833d ae6b e0bd b8c0 923d e79d b43d

short_term_context_network.fc3.weight f4 [1, 16]
-0.058346625 0.19389002 -0.16208744 0.08448778 0.11964333 0.074583665 0.010545492 -0.12118368
-0.103025734 -0.015823267 0.08562549 0.06256843 -0.12436896 0.17026453 -0.15256004 0.1640564
00000000: dffc 6ebd 1b8b 463e 40fa 25be ee07 ad3d
00000010: 9007 f53d 52bf 983d 00c7 2c3c 262f f8bd
00000020: 28ff d2bd cc9f 81bc 6b5c af3d e123 803d
00000030: 27b5 febd d359 2e3e b338 1cbe 67fe 273e
