Uni_Research/IRL/Final/Extended/Testing_Suite/model_C1000_R0_S10.0.pth (torch, 91237 bytes, 11 tensors)

main_network.lstm.weight_ih_l0 f4 [256, 15]
000000 32 de b6 bd 9e a7 81 3d 15 50 6c bd 39 c8 41 3d
       -0.08929099 0.063307986 -0.05769356 0.047310088
000010 73 d0 31 3c 9e 9a b3 bc b7 a5 b1 bd 73 da 07 3d
       0.010852921 -0.021924313 -0.08674186 0.033167314
000020 ee 5a ab 3d 6e 41 76 3d 97 6a 46 bb 71 b5 69 bd
       0.08366953 0.060120992 -0.0030275935 -0.0570578
000030 2e 72 b3 bd 5e 64 df 3c 04 66 2f be 30 fa c1 bc
       -0.087620124 0.027269538 -0.1712876 -0.023678869
000040 db 5a 2e bc 95 ea 3a be 7b 19 13 3e 7c ef cb bc
       -0.010641779 -0.18253548 0.14365189 -0.024894468
000050 58 c8 89 bd 36 ad 1c 3c d6 bf 4c bd 44 a6 24 bd
       -0.06727666 0.009562781 -0.049987637 -0.040197626
000060 fd 01 10 3d bc b7 63 bd 6b 05 0e 3d 89 19 01 3d
       0.035158146 -0.055595145 0.034673136 0.031518493
000070 9d 52 83 bd a8 a0 b3 bd d2 2b 08 3e 56 d1 74 3d
       -0.064122416 -0.08770877 0.13297966 0.05976995
000080 52 10 00 3d 1e dd d6 3e 44 2c eb 3d 82 b0 5b 3c
       0.031265564 0.41965574 0.114830524 0.013408782
000090 0d b5 19 be 83 c1 23 3d 73 52 4e 3e 98 f9 12 bc
       -0.15010472 0.03997947 0.2014864 -0.008970641
0000a0 88 ff 3b bd 7b 38 1f 3e ab ec 34 3d 99 ce 6d 3e
       -0.04589799 0.1554889 0.044171017 0.23223342
0000b0 71 21 a9 bc a3 ee 0f be a7 b6 12 be 9a b7 bb bb
       -0.020645829 -0.14055876 -0.14327489 -0.005728674
0000c0 c5 8a 3c 3e 64 d4 46 be e4 12 5d bc 00 cf 13 be
       0.18412311 -0.19416958 -0.013493273 -0.14434433
0000d0 26 c5 3a be 65 de 42 bd 3b 45 1a be 4d e5 5f be
       -0.18239269 -0.047575373 -0.15065472 -0.21864815
0000e0 87 64 28 bd 50 19 7c be 31 61 9b bd da e5 c9 bd
       -0.041111495 -0.24619031 -0.07586897 -0.09858294
0000f0 a4 e6 69 be f4 db 84 be 8b 57 4e be 7e 9c a9 3c
       -0.22841889 -0.2594906 -0.20150582 0.020704504
000100 ed b2 21 be aa 62 17 3c 89 4b 26 be e6 b4 23 be
       -0.15790911 0.009239832 -0.16239752 -0.15986976
000110 ba 76 4d be ef 66 0c be ec 8e 2a be 9d a9 0b be
       -0.20064822 -0.13711141 -0.16656083 -0.13638921
000120 a7 6b 14 be 39 9d 1c be 59 f0 3f be ce e1 4c be
       -0.14494191 -0.1529435 -0.18744029 -0.20008013
000130 a6 e9 6b be de e7 7e 3d 09 a5 2d 3e 8a 54 8d be
       -0.23038349 0.062232845 0.16957487 -0.2760356
000140 3c e8 0e bd c3 b4 5e be 00 0e e8 bd 83 61 cf bd
       -0.034889445 -0.21748643 -0.11330795 -0.10126021
000150 04 d1 87 3d dd ff dc bd 03 c9 0f be 94 47 2c bd
       0.066316634 -0.107909895 -0.14041524 -0.04206045
000160 33 63 cf bd 55 b1 64 bd a6 5e 8c 3b b8 2b 2a 3e
       -0.101263426 -0.05583318 0.004283744 0.1661824
000170 03 4e d1 3c 8c e3 9e bd 4f 05 30 3e 51 5f 22 3d
       0.025549894 -0.07758245 0.17189525 0.039641682
000180 bb 4d ee 3c d4 f5 9b bd d3 9e 67 3e 80 4d 7d be
       0.0290898 -0.07615247 0.2261918 -0.24736595
000190 97 92 df bd 0f a2 11 3e 6a 56 2f bd 11 33 0e 3e
       -0.10916632 0.14221977 -0.04280702 0.13886668
0001a0 3e 88 26 3d 39 14 be 3d fa 54 90 3d d9 bc 08 3e
       0.040657274 0.09281201 0.07047458 0.1335329
0001b0 26 98 c2 bd c8 6b 20 3e 3c 00 36 bd 0a 0e 51 bd
       -0.09501676 0.15666115 -0.044433817 -0.05103878
0001c0 78 36 cb 3d e9 31 cd 3d 9f ad 31 bd 29 b6 09 be
       0.099224985 0.10019285 -0.04337847 -0.13448395
0001d0 b6 36 3d be 23 66 ed 3d a4 75 46 bc 7f ba ff bd
       -0.18477902 0.11591747 -0.012113009 -0.12486743
0001e0 ec 5f 0a 3d ee d9 24 bd 9d 42 0d bd 60 83 c6 3d
       0.033782884 -0.040246896 -0.034487356 0.096930265
0001f0 60 7b 5f 3d 11 bb 61 bd 2c 72 0b be 14 55 a6 bd
       0.05456102 -0.05511004 -0.13617772 -0.08121696
000200 bc af e1 3c dd 0a ca bd 4d 52 2b bd 1d 6f 8b bd
       0.027549617 -0.09865353 -0.041826535 -0.068083026
000210 7b e1 f6 bd f1 a5 4b bc c5 56 4c 3d 4b 7d 89 bd
       -0.12054726 -0.0124297 0.049887437 -0.06713351
000220 1d c6 19 3d 6c 5d d1 bc fe 6e d7 3d 4e 7e 18 be
       0.03754245 -0.025557242 0.10519217 -0.14891931
000230 db b7 db bd 29 3d d3 3d 43 ef 3d bd 42 4c 13 bd
       -0.10728427 0.103144 -0.046370756 -0.035961397
000240 63 52 5a bc 9e d1 e2 bd 2b 79 95 3d d2 f5 3e bc
       -0.013325307 -0.110751376 0.072985016 -0.011655288
000250 a7 d3 85 bd 64 02 2b be fe 16 d7 bc c6 79 41 bc
       -0.0653451 -0.1670013 -0.02625608 -0.011808818
000260 a8 f9 e4 bc 9a a6 1e 3e 56 cd ce bc 00 e6 98 3d
       -0.027951077 0.15493241 -0.025244396 0.07465744
000270 39 99 63 3d 6e 9b 22 3e 41 e4 92 bd 27 21 73 3d
       0.055566046 0.15879604 -0.07172442 0.05935779
000280 a8 1b 54 bd c3 6a b6 bd ba c1 b8 3d c0 2d dd 3d
       -0.051784188 -0.08907082 0.090213254 0.10799742
000290 11 73 bc 3d df eb 95 bb 2b 16 29 bd f4 e1 d5 3d
       0.09201635 -0.004575237 -0.041280907 0.10443488
0002a0 2e 65 af 3e e6 e3 20 bc 59 f4 bc bc 88 71 c3 3d
       0.3425688 -0.00981996 -0.023065733 0.09543139
0002b0 e6 a1 36 3d 65 12 22 bd b1 54 ab 3d af c6 a9 3c
       0.044587992 -0.039568324 0.08365763 0.020724623
0002c0 e2 bf 2e 3e 3e ee d1 ba 6f 15 a7 3e 52 3d a6 bd
       0.17065385 -0.0016016436 0.3263354 -0.08117165
0002d0 82 52 26 b8 2e 67 19 3d 2f 5b b6 3d 83 b6 94 3e
       -3.9654326e-05 0.037451915 0.08904111 0.29045495
0002e0 c6 7d 91 3d 0b 8d e9 3c 08 14 ae 3d 94 9e c7 bc
       0.071040675 0.028509637 0.084999144 -0.024367608
0002f0 61 26 21 bd 6b 88 be 3d b3 dc ac bd 3c e6 eb bd
       -0.03934324 0.093033634 -0.084405325 -0.11518523
000300 cd 6f 58 3d c0 0c c7 3d 95 67 3c 3d 9f bb 02 be
       0.052840997 0.09719229 0.04599722 -0.12766884
000310 7c c3 36 be e2 fd de bc 0b a2 94 3e fc 55 ef bc
       -0.17848009 -0.02722067 0.2902988 -0.029215805
000320 4b 7c 22 be 30 35 0b be 19 26 75 bb f9 ba 03 be
       -0.15867727 -0.13594508 -0.0037406741 -0.12864293
000330 30 a2 2c 3c d1 44 95 3d 25 3c eb bd 1b af 22 ba
       0.010536715 0.07288516 -0.11486081 -0.00062059023
000340 52 ea 11 3e cc 0e a4 bc 2e e1 94 bd a8 48 02 be
       0.14249542 -0.020026587 -0.07269512 -0.12723029
000350 d4 f7 1c 3c fd c8 ce 3d a1 22 de 3d 5b e6 c4 bd
       0.009580571 0.10096929 0.10846449 -0.09614249
000360 1a da e9 bc c6 9d 8f bc 7e 82 17 be 09 28 d6 3d
       -0.028546382 -0.017531287 -0.14795873 0.10456855
000370 3f 99 32 be fb e3 2a be f0 e1 04 be 5c 66 01 be
       -0.17441271 -0.1668853 -0.12976813 -0.12636703
000380 0d cc ee bc b2 0f be 3d fb 1b 7a bd e1 66 01 3d
       -0.029150033 0.092803374 -0.06106184 0.031592254
000390 39 84 70 3e 1e 09 f4 3d e4 6a b4 bd ee 27 46 3e
       0.23487939 0.119158015 -0.0880945 0.1935117
0003a0 9f bc 1c be 42 11 08 be d3 59 22 3e 75 e8 92 3d
       -0.15306328 -0.13287833 0.15854578 0.07173244
0003b0 86 18 20 be 76 ee 08 3d 43 e9 cd 3d 0b c4 a6 3c
       -0.15634355 0.03343054 0.10054257 0.020357152
0003c0 b6 43 f3 bd 63 c9 a9 bc bc b8 3f be ff 50 86 bd
       -0.11878149 -0.020725911 -0.18722814 -0.065584175
0003d0 bd 54 af ba fe 41 1f bd e9 5a 90 bd 62 96 2f 3c
       -0.0013376694 -0.038881294 -0.0704859 0.010717006
0003e0 0a 79 3b bd 1a b8 cc bd 8a 2a 4e bd 99 43 cd bc
       -0.04576973 -0.09996052 -0.050333537 -0.025056647
0003f0 50 7f 1e bd fe a8 99 3d 14 51 71 bd 82 ea 0c 3d
       -0.038695633 0.07502936 -0.058915213 0.03440333

main_network.lstm.weight_hh_l0 f4 [256, 64]
000000 47 5f fd bd e6 44 ee bc c8 4f 36 be 48 09 bb 3d
       -0.12371688 -0.029085588 -0.17803872 0.0913263
000010 9e f9 08 3d a4 e5 da bc e5 d3 0e 3e 05 dc 3d be
       0.03344118 -0.02672083 0.13948019 -0.18540962
000020 26 06 82 bd 4a b6 bb bd 83 18 dd bc f5 5c 9f 3d
       -0.06348829 -0.09165628 -0.026989227 0.07781402
000030 c7 22 3e 3c 3c 5c 02 3e 71 04 f7 3c b8 2e c2 bc
       0.011604971 0.12730497 0.030153485 -0.023703918
000040 17 e8 7f bd 93 6e 81 3d 4d ad c2 3d 53 79 4a bd
       -0.062477197 0.063199185 0.09505711 -0.04943211
000050 1b 79 42 bd bd c4 19 bd d5 c0 2d 3d ef c0 83 3c
       -0.047478776 -0.03754114 0.042420227 0.016083209
000060 89 79 a1 bd ed 75 21 be fa b7 10 3e 46 b3 26 bd
       -0.07884509 -0.15767641 0.14132681 -0.040698312
000070 f4 88 be 3e 52 1e 96 bb 0a 41 c0 3c 63 d6 17 be
       0.37213862 -0.004581251 0.023468513 -0.14827876
000080 37 05 64 bd 69 e1 8d bc ed 81 4c bd 01 90 f7 bc
       -0.055669036 -0.017319398 -0.049928594 -0.030220034
000090 e4 60 f4 3d 2d 73 ac 3d f4 42 bf bd 12 90 8a 3e
       0.11932543 0.084204055 -0.09338942 0.27063042
0000a0 9d 59 8a bd dd 0c cb 3d 35 72 64 bd 94 2a 8d bd
       -0.067553736 0.09914563 -0.05577298 -0.06892887
0000b0 b2 2b 5c bd fd 01 22 3e cc 4d 0c 3d aa 7a 54 3e
       -0.05375261 0.15821071 0.03425388 0.20749918
0000c0 d8 e8 dc 3a f0 62 0c 3d 31 c3 6e 3d a6 e2 0c bc
       0.0016854061 0.03427404 0.058291618 -0.008598959
0000d0 ac 16 2d 3e 97 11 9d 3d 6e bf 92 bd 42 ea 67 3d
       0.1690318 0.076693706 -0.071654186 0.05661989
0000e0 9b e5 db bc 9a 95 94 3d 49 13 03 3e 14 79 17 be
       -0.026842883 0.07255097 0.12800325 -0.14792281
0000f0 f3 ad 16 bd 0f 14 1a 3d 79 58 06 3e a6 01 ab 3c
       -0.036786985 0.037616786 0.13119687 0.02087481
000100 58 ad 8f 3d bf d6 cd bc 47 88 42 bd 3b 38 8c bd
       0.070154846 -0.025126813 -0.047493245 -0.068466626
000110 21 ff 2c 3e be ed 16 3d 2f 4e 6c 3e e3 06 a5 bd
       0.16894199 0.036847822 0.230767 -0.08057954
000120 7e ad 55 bd 12 99 b1 3c d9 7f ec 3b a6 49 8c bc
       -0.05216741 0.021679435 0.007217389 -0.017124962
000130 37 d4 31 3d e7 25 50 3d 17 4f 1b be f6 ca a4 39
       0.043415274 0.050817396 -0.15166889 0.00031431735
000140 04 32 86 bc 84 4d 7c bc ce a8 42 3a 1c 07 86 be
       -0.016381271 -0.015399341 0.00074256666 -0.261773
000150 00 65 46 3d de ed 46 bd fd 15 05 be 36 31 2f bd
       0.048436165 -0.04856669 -0.12996669 -0.04277154
000160 4d 82 dc bc d7 6e a7 3d 59 21 24 bc a8 f7 18 be
       -0.026917601 0.08175438 -0.010017716 -0.14938223
000170 c9 09 13 3e 2b 22 f8 bd f5 78 8d bd 57 e6 86 bd
       0.14359201 -0.12115892 -0.06907836 -0.065869026
000180 f0 a7 04 bd fc 8f 14 3e 24 16 6a bd 81 89 1b 3d
       -0.03238672 0.1450805 -0.05715002 0.03797293
000190 7c 5d 96 3d e4 2d 25 3c f3 55 04 be ce ef ab bc
       0.073420495 0.010081742 -0.12923412 -0.020988371
0001a0 0e 13 a3 3d 75 ed 19 3d 93 0e 01 3e a6 6c f7 3d
       0.07962619 0.037579972 0.12603216 0.1208127
0001b0 37 50 5b be fc 02 c9 bd 2b c5 b6 bc 2b 76 e6 3c
       -0.21417318 -0.09815022 -0.022310814 0.028132519
0001c0 45 1f af 3c 29 c8 c6 bc 84 06 d8 bd 16 f9 3d be
       0.021377215 -0.024265366 -0.10548118 -0.1855205
0001d0 5f 72 46 3d 1d 9a 59 3d 1d 46 e9 bc a1 00 3a 3d
       0.048448917 0.05312549 -0.028475815 0.045410756
0001e0 54 76 18 3e 78 28 92 bc 5c cd ab 3b 02 85 55 3d
       0.14888889 -0.017841563 0.0052429866 0.0521288
0001f0 87 1b 15 bd 86 a5 55 3e 10 7a a4 3d 0d e5 bf 3d
       -0.036403205 0.20863923 0.08031094 0.0936986
000200 5c 29 90 ba 44 b8 04 3e 49 e5 b2 3d 06 73 4c 3e
       -0.0010998654 0.12960917 0.08735139 0.19965753
000210 c4 41 69 be 86 37 c5 3c 1d 78 b5 be 23 46 ad bd
       -0.22778994 0.024074327 -0.35443202 -0.08460643
000220 cd 6a 95 3c cf 7d 6a 3e f4 02 1d be 4a fc 99 3a
       0.018239403 0.22899555 -0.15333158 0.0011748162
000230 b0 2c 03 3e 42 56 7e 3e a5 d3 27 3e 0b 63 53 3d
       0.12810016 0.24837592 0.1638933 0.051608127
000240 c4 e1 6a bd 24 35 68 be 20 b2 6e 3d 47 08 76 3e
       -0.057344213 -0.22676522 0.058275342 0.24026595
000250 34 8e 41 be f5 6e 14 3e 4d be 7d bd 63 eb bd bd
       -0.18901902 0.14495452 -0.061949063 -0.09273412
000260 f3 ab a2 3d 59 e2 b6 3d ba 42 9a 3d a6 26 24 bd
       0.07942953 0.08929891 0.07532258 -0.04007592
000270 1b eb f5 bd e3 25 32 3d eb a3 16 be 5b 25 74 bd
       -0.120077334 0.043493163 -0.14710967 -0.059605937
000280 2c 49 5b 3d 3a f3 e9 bc ff bf 5a be 03 97 04 3d
       0.05353658 -0.028558362 -0.21362303 0.03237058
000290 69 07 34 3e 9b 2a 0a 3e e9 f8 2c 3e e6 5a 87 be
       0.17580952 0.13492815 0.16891827 -0.26436538
0002a0 08 02 33 bd 72 c5 62 be d5 79 0f be b1 18 f8 bd
       -0.04370311 -0.22145632 -0.14011319 -0.121140845
0002b0 66 eb 1e 3e c4 f4 4d 3d c6 90 15 3e df e7 41 be
       0.15519485 0.050282255 0.14606008 -0.18936108
0002c0 e1 d3 fe bd 6d 8f 5d 3e c9 bb 0b bc cd 27 3c bc
       -0.124427564 0.21636744 -0.008528658 -0.011484099
0002d0 dd 1e 92 bc f6 7f f1 bd fa de 03 3e b4 40 34 3e
       -0.017836982 -0.11791985 0.12878028 0.17602807
0002e0 7c 1a ea bd 94 6d 16 bd cf 7b 08 3b 84 d1 12 3b
       -0.11430833 -0.036725596 0.0020825749 0.0022402713
0002f0 27 a4 14 3e d2 80 8f be 34 e0 8a 3e 81 c5 1f be
       0.14515744 -0.2802797 0.27124178 -0.15602686
000300 b5 45 55 bd 56 85 83 bd de 60 0b be cd aa 38 3e
       -0.05206843 -0.06421916 -0.1361117 0.18033905
000310 f2 d9 ad bd 98 bb 81 3d 1c 47 18 bc 74 ee 3a be
       -0.084888354 0.06334609 -0.009294298 -0.18255025
000320 82 e0 fc 3d 63 02 06 3d c4 e4 d7 bc ce 4b 84 3d
       0.12347509 0.03271712 -0.026354201 0.06459771
000330 eb 4d 0d bd 2e ab f8 3d c4 72 14 3e 2b 1b bc 3d
       -0.034498136 0.12142025 0.14496905 0.091848694
000340 19 c5 be 3d 59 41 fe 3c f6 7b e3 bc 97 69 4f 3e
       0.09314937 0.03103702 -0.02776907 0.20255123
000350 ac cc 6a 3d 19 56 c8 3c df e1 4c 3d f0 50 0a be
       0.057324097 0.024455117 0.050020095 -0.13507438
000360 a4 b2 5a bd 35 11 91 bd 0b 66 c0 3d 40 ef 26 3d
       -0.05339302 -0.0708336 0.09394463 0.04075551
000370 d8 49 7c bc 1a c8 b2 3d f8 6c d4 bd 67 bd 26 be
       -0.015398465 0.087295726 -0.10372347 -0.16283189
000380 99 f1 c7 bc b4 48 e1 3d 12 99 64 bd eb 5e a3 bd
       -0.024407195 0.11000195 -0.05581004 -0.079770885
000390 f0 9e f0 3c 3b 62 9e 3d 95 27 0c 3e 49 74 20 bd
       0.029372662 0.0773358 0.13686974 -0.0391734
0003a0 e4 4e 32 be f1 2d 12 3d c8 7d 80 3d b7 79 92 bc
       -0.17412907 0.035688344 0.06273991 -0.017880304
0003b0 58 6d 0d 3e 48 2d 19 3e fa d7 d4 3d 45 1d 6b be
       0.13811243 0.1495868 0.10392757 -0.22960384
0003c0 06 ab 04 bd be fc d0 3c b0 ad 6a 3e af 44 17 3d
       -0.032389663 0.025511142 0.22917819 0.036930736
0003d0 f8 9e bf bc 94 b3 d1 bd af f3 1e 3e 4d 82 07 3e
       -0.023391232 -0.1023933 0.15522645 0.132333
0003e0 b2 75 b5 bd a1 3a 37 bd cd a7 0c 3e 62 4b 32 be
       -0.08860339 -0.044733647 0.13735886 -0.17411569
0003f0 27 7b 85 bd c5 4a 83 bc 93 63 3e 3e 0e a6 dc bc
       -0.0651763 -0.016026864 0.18592672 -0.02693465

main_network.lstm.bias_ih_l0 f4 [256]
000000 52 38 bc bd a6 57 07 be db 96 06 3e 43 af 24 3d
       -0.0919043 -0.13217029 0.13143484 0.040206205
000010 49 be ba bd 3f ba f5 bd 29 fd 02 bb a1 22 5e bd
       -0.09118325 -0.11998414 -0.001998732 -0.054232243
000020 ec 06 5a bc b2 5b 3b 3e 7a ee 7b bd 4f 96 00 3d
       -0.013307314 0.18296698 -0.061506726 0.031393345
000030 38 6f c0 3d 01 28 c1 3d d0 13 10 3e 85 4c a1 3d
       0.09396213 0.09431458 0.14070058 0.07875923
000040 5a f8 a9 bc 07 89 1f 3e 13 51 ad 3d 1f 71 3f be
       -0.020748306 0.15579616 0.08462729 -0.18695496
000050 4e 51 e3 bc 33 ef b7 3d 39 ae 18 be ee d7 83 3d
       -0.02774873 0.089811705 -0.1491021 0.0643767
000060 b7 d9 b2 bd 28 64 e4 bc c7 c3 0c bd 7c 86 bf 3d
       -0.08732932 -0.02787979 -0.034366395 0.09351823
000070 04 7a a0 3e c1 f9 46 bd 88 15 40 bc 7b c7 6f 3d
       0.3134309 -0.048578028 -0.011723883 0.05853985
000080 52 8e fc 3d 82 16 63 bd 67 ac 9e 3c de 78 c0 3b
       0.12331833 -0.055441387 0.019369317 0.0058737835
000090 0c 06 14 3d 71 e8 b8 bc ef d6 f9 3d 19 f8 14 3e
       0.03613858 -0.022571774 0.121991985 0.14547767
0000a0 d0 08 aa 3d 61 65 92 3d 17 60 03 be c9 1d 6a 3e
       0.08302462 0.07148243 -0.12829624 0.22862925
0000b0 18 9f 77 3d 88 a9 dd 3d a6 2a 72 bd b2 1b 93 3d
       0.060454458 0.10823351 -0.059122704 0.07183017
0000c0 7c 3b 4a 3e 25 8c f3 3d 60 5e 37 3b bf 47 e8 3c
       0.19749254 0.11891965 0.0027979836 0.028354524
0000d0 8b ed 7a 3d a1 73 05 bc 0a 2b e9 3d 99 0c 07 3e
       0.061261695 -0.008145244 0.11385162 0.131884
0000e0 9b 90 68 bc fd 32 a0 3c 9d 94 72 bd ef ec 6e 3d
       -0.014194633 0.019555563 -0.05922376 0.058331426
0000f0 b1 79 b6 bc 77 01 14 3e 86 a4 b1 3d cc 85 8e 3d
       -0.022274824 0.14453684 0.086739585 0.069591135
000100 8d 19 39 bd 1d f7 32 bd d0 68 9a bd b4 ab d8 3d
       -0.045190383 -0.043692697 -0.07539523 0.10579625
000110 68 14 8c 3d 13 2d b8 3c f6 34 47 3d ea 96 e1 bd
       0.0683983 0.02248243 0.04863449 -0.11015113
000120 1c 4f 11 bd c8 41 b7 bd 11 2a ca 3d 9d da e8 3c
       -0.035475835 -0.08948094 0.09871305 0.028424555
000130 31 e0 17 3d d8 25 ce 3d 6a 96 1e 3e ed cf f4 3c
       0.03707904 0.10065812 0.15487066 0.029884303
000140 d0 75 91 bd bb c3 8d 3d cf 69 ab 3c 61 ad 8d bd
       -0.07102549 0.06922098 0.020924477 -0.06917835
000150 3f b0 4d 3e 89 99 b9 3d db ac dd 3d ff e2 13 3d
       0.20086764 0.09062488 0.10823985 0.036105152
000160 a9 25 39 be 09 f5 3a bd 69 8c e2 bc 70 70 99 bd
       -0.18080772 -0.04564384 -0.027654843 -0.07492149
000170 df 66 d7 3d ae f7 52 bd 2e 1a 0a be 60 a0 26 3d
       0.10517668 -0.051505737 -0.1348655 0.04068029
000180 b3 26 aa bd 00 2e ac bd 5b 8c c7 3d 6d 91 2f bd
       -0.083081625 -0.08407211 0.097435676 -0.0428633
000190 f0 3c 26 bc eb ab 49 bd de d8 51 3d b8 81 56 bc
       -0.010146365 -0.04923622 0.05123221 -0.013092451
0001a0 25 cf 83 bd 1f de 9a bd f8 82 af 3d c9 f2 d2 bd
       -0.06435994 -0.075618975 0.08569902 -0.10300214
0001b0 e0 22 87 3d 0a fb 21 be 1a d6 10 3b 7b 89 fb bd
       0.06598449 -0.1581842 0.002210027 -0.12282082
0001c0 5d 38 31 3d c6 a6 e9 bd 68 06 1d bd f6 72 1b be
       0.043266643 -0.11408763 -0.038336188 -0.15180573
0001d0 82 95 2b 3d de 54 38 3e 75 21 7e 3c ca 19 86 bd
       0.04189063 0.18001124 0.015510906 -0.065478876
0001e0 23 a9 c9 3c 3b 92 88 bd fd 3e 8f 3c 90 5b ec bc
       0.024616783 -0.06668516 0.01748609 -0.028852254
0001f0 dd 72 ae 3d ce 00 c8 bd c8 ba 19 bd e6 54 70 bc
       0.08518002 -0.097657785 -0.037531644 -0.014668679
000200 af e1 61 bb 7e 66 a3 3d 6c e9 ea bc dc 46 8e bd
       -0.0034466793 0.07978533 -0.028675757 -0.06947109
000210 f8 d9 30 3d 13 04 9e bb 1f e1 f1 3d 8a b3 70 bd
       0.04317662 -0.004822263 0.118105166 -0.05876497
000220 08 50 2c 3d 5d 35 ce 3c 00 f0 9f 3d f9 9a 64 3d
       0.04206851 0.02517193 0.07809448 0.055811856
000230 64 f8 19 3e 62 bf 93 3d d4 31 13 3d 5c 82 02 3c
       0.1503616 0.07214238 0.03593619 0.00796565
000240 3d ea 27 bd 75 91 36 be e2 23 93 bd 71 a7 58 bd
       -0.04099487 -0.17828925 -0.071845785 -0.05289406
000250 d5 58 bd bd 39 ba fe bc 27 6a ef bc c2 0a 1c 3e
       -0.09245459 -0.031094657 -0.029225422 0.15238479
000260 2c 31 8c 3d cf f2 fa bc 3a 0b 39 3d 4a 8d b4 3c
       0.06845316 -0.030633358 0.045176722 0.022040028
000270 4e b0 1f be 07 a0 89 bd 35 b3 bf 3d fe 87 43 bc
       -0.15594599 -0.06719976 0.09360353 -0.0119342785
000280 84 e6 2e 3e 17 7b 08 bc c6 a0 18 be 1c 83 ba 3d
       0.17080122 -0.008330128 -0.1490508 0.091070384
000290 68 58 da 3d 45 4f 73 3c 6b 53 01 3e 55 e9 dd bc
       0.106613934 0.014850442 0.12629478 -0.0270888
0002a0 26 c1 df bd ac 95 af 3d 03 7a 57 bc 58 45 d0 bd
       -0.10925512 0.085734695 -0.013151648 -0.10169476
0002b0 ef 6c ce 3c 04 e1 98 3c f6 e2 18 3e 1a 8b 3b bd
       0.025198428 0.018661983 0.14930329 -0.045786954
0002c0 a4 f7 12 be f2 67 2c 3e 20 94 84 bd b5 21 d2 bc
       -0.1435228 0.16836527 -0.06473565 -0.025650838
0002d0 fd 1d 19 be e1 c2 f1 bd d0 22 49 bc cb af 0c be
       -0.14952846 -0.11804748 -0.012276366 -0.13738935
0002e0 13 62 c5 bd 1d 75 52 3d 7c ce c2 bd 29 d0 f4 3d
       -0.09637847 0.05138122 -0.0951204 0.11953766
0002f0 e9 1a dd 3d 9c cb c6 bc 62 80 53 bd d9 72 a6 bd
       0.10796148 -0.02426701 -0.051636107 -0.08127374
000300 54 f3 4e 3b d7 63 ad 3d 05 f9 cd 3d 4f 85 3f 3c
       0.003157814 0.084663086 0.10057262 0.011689498
000310 7f 94 69 3c 04 2b 0c bd a1 f9 b0 3b e8 fd a4 bd
       0.014256596 -0.03422071 0.005400852 -0.08056241
000320 a6 b9 6d 3d b0 d2 37 3e 96 a2 b6 bd c5 a6 83 3d
       0.058038376 0.17951465 -0.089177296 0.06428293
000330 af cc 1a bd ea 76 87 3d 1b 1d e6 bc c2 c3 ac 3d
       -0.037792858 0.06614478 -0.02809005 0.08435775
000340 19 3a 10 bc d5 51 26 3c be a8 f0 bd 22 a0 71 bc
       -0.008802914 0.010151346 -0.11750935 -0.014747651
000350 e8 83 06 3e 6a b5 dc bd 00 73 c4 bd 80 2d 79 bd
       0.13136256 -0.107767895 -0.09592247 -0.060834408
000360 f9 11 c5 3d d0 5f ea 3b 64 ec ec 3a f5 21 8f 3d
       0.09622569 0.007152535 0.0018075821 0.06988899
000370 3f 41 12 3e 54 38 92 3d cf b3 d6 3d 5e d2 94 bd
       0.14282702 0.0713965 0.104835145 -0.07266687
000380 6f aa dc b9 9a 72 f0 3b 4c c2 bd 3d a9 cf 04 3e
       -0.00042088653 0.0073378803 0.09265575 0.12969841
000390 a4 cd 2b 3c 7b bf f7 bd e6 dc 17 3e 82 94 1d 3d
       0.01048604 -0.12097069 0.1483036 0.038471706
0003a0 2c df 20 3e 95 5e af bc 92 b3 02 3d af 6e 81 3e
       0.15710133 -0.021407405 0.031909533 0.25279757
0003b0 f6 a3 0e 3d 55 2e bb 3d 0a 7c c6 3d 1e 99 81 bc
       0.034824334 0.091396965 0.09691627 -0.015820082
0003c0 1a 27 7b 3c 6a f2 d4 3d d6 04 2c 3e 2b d1 8a 3d
       0.015329147 0.10397799 0.1679872 0.06778177
0003d0 e9 31 dd 3d fc 98 35 3e c4 81 07 3e b6 a0 5e bc
       0.10800535 0.1773414 0.13233095 -0.013588121
0003e0 57 53 0a 3e 19 e2 0f 3e ea 1b e5 3d a9 77 c5 bd
       0.13508354 0.14051093 0.11186965 -0.09641964
0003f0 e9 e3 6f bc cc eb cc 3d 0b 01 0d 3e 1e b4 5d 3e
       -0.01464174 0.10005912 0.13769929 0.2165074

main_network.lstm.bias_hh_l0 f4 [256]
000000 4e 2e ea 3c c7 41 55 bd e0 a8 04 3e 61 c5 41 3d
       0.028586533 -0.052064683 0.12955046 0.047307376
000010 22 ea 0d 3b 36 5d d4 bc 1a cf 42 3d 27 dd 2d 3d
       0.0021654447 -0.025923353 0.04756079 0.042447235
000020 60 78 94 bd 41 15 1b 3e f3 d0 b6 bd 93 6e 89 3d
       -0.07249522 0.15144826 -0.08926573 0.067105435
000030 33 f1 3f bd 24 e7 8e bd 8d 3b 55 3e 88 9b 4e 3d
       -0.046860885 -0.0697768 0.20823498 0.050441295
000040 1e 3f 93 3d 65 1e 82 3d dd ce 94 3d c0 50 50 be
       0.07189773 0.063534535 0.072660185 -0.20343304
000050 09 50 da 3d 48 06 16 be a7 b5 90 3c 5e 3b 54 bd
       0.10659797 -0.14650834 0.017664744 -0.05181443
000060 be e6 b0 3d 98 a1 8c 3d f5 85 17 3d 08 c5 41 3e
       0.086377606 0.06866759 0.036992986 0.18922818
000070 89 1f 98 3e 66 5c b0 3d 19 7e 49 bd d2 85 1e 3d
       0.2971156 0.086113736 -0.04919252 0.03870184
000080 71 21 1a 3d 01 ed 4c 3d 8e cf 80 3d 6a 26 1d bd
       0.03762955 0.050030712 0.06289588 -0.038366713
000090 2a be b3 3d cf 0f 94 bd fc 63 9a 3b e6 80 f2 3d
       0.08776505 -0.07229578 0.004711626 0.11840992
0000a0 00 51 5c 3e c0 e7 10 be 54 9a a0 3d f7 6f 3c 3d
       0.21515274 -0.14150906 0.07841936 0.046005215
0000b0 54 ab 19 bd a1 be 99 3d cf 0d 23 bd fc cd 01 3e
       -0.037516907 0.07507063 -0.03980809 0.12676233
0000c0 56 89 60 3e 73 f7 19 3d 2a 1d e6 bd 5c bd a7 3d
       0.2192739 0.0375895 -0.11236031 0.08190414
0000d0 6b b4 89 3d 3a 51 35 3e d7 00 0f bd b5 be fb 3d
       0.06723865 0.17706767 -0.03491291 0.12292234
0000e0 00 3c e5 3d 5c 52 2d bd ff 83 a2 bc da f7 cc bd
       0.11193085 -0.042314872 -0.019838331 -0.100082114
0000f0 3b 92 46 3e 88 2e 8e 3d a6 10 6a bd 33 72 0f 3e
       0.1939172 0.06942469 -0.057144783 0.14008407
000100 b5 4a 63 3d c5 6d 5e bd 53 81 de bd 61 ca ef 3c
       0.055491168 -0.054303903 -0.108645104 0.029271306
000110 13 a1 d5 bd 2f 22 11 3b 3e 74 d4 bd 96 f6 1a be
       -0.10431113 0.002214562 -0.10373734 -0.15133128
000120 47 22 a2 3d 37 44 28 be 63 b5 bf bb c8 84 c4 bc
       0.07916694 -0.16432272 -0.0058504804 -0.023989096
000130 8d 72 f0 3d 93 d0 5f 3d db b6 67 3d 76 dc f1 bd
       0.11740599 0.05464227 0.05657087 -0.11809628
000140 75 b8 c1 3d b1 c7 f0 3d e3 36 ba bc af 69 86 bd
       0.094590105 0.11756838 -0.02273125 -0.06563126
000150 e4 13 5c 3d 0a bb 11 be 30 51 d8 3d 53 61 c2 bd
       0.053729907 -0.14231506 0.1056236 -0.09491219
000160 ba 6d b7 bd 02 a0 34 bd f7 7f b2 3c 73 95 4f be
       -0.089564756 -0.044097908 0.021789534 -0.20271854
000170 fc a3 3b 3c d7 04 02 bd ef 1c 86 3d 6a 2b aa bd
       0.011452671 -0.031742897 0.065484874 -0.08309062
000180 82 c5 10 3e 9a b8 69 be 91 f4 2c 3e ed 88 d5 3d
       0.14137843 -0.22824326 0.1689017 0.10426507
000190 54 7c 82 bd 5f b6 c5 bd bd bc 6b 3d f5 a5 b2 3d
       -0.0637137 -0.09653925 0.05755304 0.0872306
0001a0 3c dc d8 bd 58 29 96 bd d1 c5 fe 3d 32 f0 0b be
       -0.105888814 -0.073321044 0.12440074 -0.13665846
0001b0 f1 d7 c3 bd 17 eb 9e 3d df 04 3f 3e 1b 17 ac bd
       -0.09562672 0.077596836 0.18654202 -0.084028445
0001c0 3b 86 5e 3e 92 77 a9 bd 22 f0 b5 bb 35 d8 8c bc
       0.21730892 -0.08274759 -0.0055523077 -0.01719294
0001d0 71 7c 7f 3d 89 80 42 3e d1 f1 2d bd 22 ba fb 3d
       0.062374536 0.18994345 -0.042466942 0.122913614
0001e0 82 1c 56 3d 3c 2b 83 3d 04 b6 43 3b ab 7f 10 bd
       0.05227328 0.06404731 0.0029863128 -0.035278004
0001f0 19 2a c6 3d c5 27 16 be c5 36 c0 bd 8d 09 a6 bd
       0.09675998 -0.14663608 -0.093854465 -0.081072904
000200 37 77 d3 3d 76 9d 20 3d 1d f6 e7 3d 51 2f 0e bd
       0.10325473 0.039212666 0.11326239 -0.034713093
000210 2b 3e be bd c9 32 e8 bc d0 48 30 3b 69 5a a8 3c
       -0.09289201 -0.028344529 0.0026898868 0.020550923
000220 3d 5b f0 3d 7c 59 b0 3d 35 48 0b 3d 07 50 d4 3b
       0.11736152 0.08610818 0.03400441 0.0064792666
000230 b0 52 b9 bc 92 af 11 3c b9 99 41 3e 9e 6b eb 3d
       -0.022622436 0.008891957 0.18906297 0.11495136
000240 ac 50 76 3d 3c bd 03 be 64 74 e0 bc 99 c8 43 bb
       0.06013553 -0.12865156 -0.02739925 -0.0029874204
000250 d2 11 44 bd 4d a0 4c 3b 50 3c 69 3d 85 c8 36 3d
       -0.047868557 0.0031223476 0.056942284 0.044624824
000260 58 74 9b 3d fb ec c1 3c 0d 3e ef bd 39 b4 11 3e
       0.0759055 0.023672571 -0.11681757 0.14228906
000270 bb 34 b6 bd 5d e8 8c 3c f1 06 a5 bd a6 e9 c9 bc
       -0.08896776 0.017200643 -0.080579646 -0.024647545
000280 58 c9 82 3d dd 30 f9 bc ac 67 03 bd c9 fd 33 bd
       0.063860595 -0.030418808 -0.03208129 -0.0439432
000290 72 a6 fb 3c 95 4b e6 bc ea a3 b0 bd e3 12 0b bc
       0.030719016 -0.028112212 -0.08625014 -0.00848839
0002a0 47 4e c4 3d 65 08 33 bd 77 d0 1b be 3b f6 bc b9
       0.09585243 -0.043709178 -0.15216242 -0.0003604161
0002b0 e2 ae e4 3d bd 12 02 bd a5 d3 66 3d 35 7d 8a 3d
       0.11166169 -0.03175615 0.056354184 0.067621626
0002c0 0e a9 ea bc 69 da ac 3c 1e 92 cf bd d6 fa 7c 3d
       -0.028645065 0.02110024 -0.101352915 0.061762653
0002d0 26 39 79 3d 00 a0 20 be c0 04 19 be 60 d8 04 be
       0.060845517 -0.15686035 -0.14943218 -0.12973166
0002e0 a3 69 27 be 01 f0 92 3d 83 45 97 bd b3 1d 0d 3e
       -0.16348891 0.07174683 -0.07386305 0.1378086
0002f0 f7 8e 0a 3d 63 19 7b bc 2f a5 34 ba b1 31 13 3d
       0.03382775 -0.015325877 -0.00068910694 0.03593606
000300 59 77 b1 3d c7 db 1c bd f4 50 2f bb c9 38 f8 3d
       0.08665342 -0.038295534 -0.0026751133 0.12120206
000310 d8 0c 04 3e 78 9e ef bc f4 5a 20 3e 08 dd c6 bd
       0.12895525 -0.029250368 0.15659696 -0.09710127
000320 9c 2e e3 3c 63 bb 2b 3e 2b d7 13 bd ab 9d 01 3d
       0.027732186 0.16770701 -0.036093872 0.031644505
000330 8e 01 30 bc bf ed 1d bd ed a6 2a 3e c9 df 05 3d
       -0.010742558 -0.03855681 0.1666524 0.03268412
000340 db 3c de bc 02 87 8a 3d 76 db c9 3d 09 64 3c 3c
       -0.027128628 0.06764032 0.09856312 0.01149846
000350 d4 fc b8 3d 6c 5b ac 3d ed 3e 09 be fe 54 29 3c
       0.09032598 0.08415875 -0.1340291 0.010335205
000360 10 c9 03 3d bf 44 24 3c 95 c9 ae 3d a8 60 4a ba
       0.03217417 0.010026156 0.085345425 -0.00077200914
000370 2b 75 86 3e 91 ce e6 bd a8 a2 93 bd bf 58 db 3d
       0.26261267 -0.11269868 -0.072087586 0.10710286
000380 ce 7c 8a 3c e1 42 0b 3d 7d ae 38 3e e1 9e 11 bd
       0.016905215 0.033999328 0.18035312 -0.03555191
000390 f9 a8 7a bd 40 3f 89 bd 4b fa 34 bc 75 5e df 3d
       -0.0611963 -0.06701517 -0.011046003 0.10906688
0003a0 32 85 57 3e aa 0a 16 bd 48 ac ef bd be dc 33 3e
       0.21046904 -0.036631264 -0.11702782 0.17564675
0003b0 b3 05 6e 3d 62 42 12 3e 2b 8e 46 3e d2 dc 86 bd
       0.058110904 0.14283136 0.1939017 -0.06585087
0003c0 c8 59 08 3d e4 2d 87 3d f5 bd 5e 3c 80 dc 62 3d
       0.033288747 0.0660055 0.013595094 0.055386066
0003d0 4f a0 c0 3b d4 34 dc 3d 7a ba d0 3c 49 8f 70 bc
       0.0058784853 0.10752264 0.025479544 -0.014682599
0003e0 71 e0 ed bc 09 6b 11 3e e8 c1 dc 3d 70 dd 9c bd
       -0.029037686 0.14200987 0.10779172 -0.07659423
0003f0 bc 2f 2d 3e a7 3b 9a 3d 74 7d 83 3d 75 9f 30 3e
       0.1691274 0.07530909 0.06420413 0.17248328

main_network.fc.weight f4 [3, 64]
000000 f3 8e 96 3b c6 a0 04 bb bc 89 84 bc da dc fd bc
       0.0045946776 -0.002023743 -0.016178958 -0.0309891
000010 a9 36 26 3e 67 41 f6 3d a6 f6 8c 3d 53 a1 87 be
       0.16231789 0.12024193 0.06882982 -0.26490268
000020 0a 68 e1 3c 52 96 bb bb ad ad 02 3d a3 8e 30 bd
       0.02751543 -0.0057247067 0.03190391 -0.04310478
000030 28 e4 1a bd 12 80 fa bd 74 fd 00 be 57 d8 06 3d
       -0.037815243 -0.12231459 -0.12596685 0.03292116
000040 1e 39 82 bc 9a 10 f0 3c d2 01 9a bd 7b ab 68 3d
       -0.015896376 0.029304791 -0.075198784 0.05680416
000050 e9 48 15 bd 12 1d 5c 3d b2 8b 67 bd 1d fb a2 3d
       -0.036446486 0.05373866 -0.05652971 0.07958052
000060 53 9f a7 3d 42 bf 84 3d e9 23 9b 3c cd 7d 1e 3d
       0.081846856 0.06481792 0.018938022 0.03869419
000070 25 36 cf bd dc 52 0a 3d 60 49 90 bc cd 5c 23 bd
       -0.10117749 0.033770427 -0.017613113 -0.039883424
000080 ec 7c 9d 3c 02 cb a2 3b 7c 4e 65 bd 27 03 9c bd
       0.019224606 0.004968048 -0.05598305 -0.07617789
000090 91 d3 bb bd 0b 7e 2b 3d 45 7c 64 3d 76 91 90 3d
       -0.091712125 0.04186825 0.055782575 0.070589945
0000a0 27 e2 c8 bd 34 1f 1b bd 9f cf c0 3d 60 8f 02 bd
       -0.0980876 -0.037871554 0.094146006 -0.031875014
0000b0 ed 98 da 3c 89 a1 a3 bd 03 49 eb bd 06 2f 90 bc
       0.026684249 -0.07989795 -0.11488535 -0.017600548
0000c0 f6 1f 01 be 1e 05 00 3d f9 49 51 bd 6f 93 a2 ba
       -0.12609848 0.03125488 -0.051095936 -0.0012403558
0000d0 25 72 56 3d fa b5 19 3a 5b 47 3e 3b 4b 0e 70 bd
       0.05235495 0.00058636034 0.002903423 -0.05860738
0000e0 73 2f d0 bd a6 50 fa 3c 26 80 67 bd fa f7 16 3c
       -0.101653 0.030556034 -0.056518696 0.009214396
0000f0 c1 35 bb bc 04 34 07 3e 53 b8 16 3d ab 24 83 bd
       -0.02285278 0.13203436 0.03679688 -0.06403478
000100 bd cd 74 3c 12 cf a3 bd 28 21 7c 3c d2 d7 13 bd
       0.01494163 -0.0799848 0.015388764 -0.036094494
000110 6e a4 95 3d 51 1a 51 bd 06 1a fc 3d 4c 13 8d be
       0.07306753 -0.051050488 0.12309651 -0.27553785
000120 77 0b 01 bc c9 e2 4e bd 40 88 a5 3d 5b 06 81 bd
       -0.007876269 -0.050509248 0.08082628 -0.0630004
000130 78 90 af bd 5f 17 16 be b7 46 38 3d 85 86 96 3d
       -0.08572477 -0.14657353 0.044989314 0.07349876
000140 fc 2c 84 bc f2 12 b7 bd 64 bf d7 ba 60 33 4f 3d
       -0.016134731 -0.089391604 -0.0016460237 0.050586104
000150 a0 0d 67 bc 82 4a 0b bb bf 60 c4 3d 18 66 c1 3d
       -0.01410237 -0.0021254127 0.09588765 0.09443301
000160 5e e2 2c be aa 3f 00 b9 f3 0b 90 3c cc ea 8b bc
       -0.16883227 -0.00012230748 0.017583823 -0.017079733
000170 42 b7 a9 bd 37 fd 27 3d c5 45 05 3e ab 5d 9b bd
       -0.08286907 0.04101297 0.13014896 -0.07586225
000180 32 32 15 bd 7b 2d 0d bd ad 59 87 bd 2c 8a 38 3d
       -0.036424823 -0.0344672 -0.06608901 0.045053646
000190 27 99 d5 3d 20 9e 00 bd d4 1e 68 3d dc d9 77 3d
       0.10429602 -0.0314008 0.056670025 0.0605105
0001a0 fa 96 65 3d 6a 7e 5a bd 89 01 9e 3d 86 5d 85 bc
       0.056052186 -0.053343214 0.077151366 -0.016279947
0001b0 a0 09 48 3d 1b dd 8a bd c6 f0 d4 bd 2f 63 ba bd
       0.048837304 -0.06780454 -0.103974864 -0.09100949
0001c0 d0 17 f1 3b 3d 4c 03 be f2 ca 89 bc aa b0 e6 bc
       0.007357575 -0.12822051 -0.016820405 -0.028160412
0001d0 d9 24 db bc 82 97 4e bd 7f 47 e4 3c 07 91 ed 3c
       -0.026750969 -0.050437458 0.027866123 0.028999818
0001e0 0c 72 01 3d 7f 3a 08 3e fa d9 29 3d ee 5c e4 bb
       0.031602904 0.13303564 0.041467644 -0.006969086
0001f0 05 c1 91 3c 8c 40 66 be c8 0c bd 3d bd 25 81 3c
       0.017792234 -0.2248556 0.092309535 0.015765065
000200 d6 30 e9 bd 14 78 8e 3d 16 31 70 3e 8f 8a 1a 3e
       -0.11386268 0.06956497 0.23456225 0.15091918
000210 47 e1 81 be de 9c c4 3d 44 39 5a be 17 00 31 3e
       -0.25367185 0.096002325 -0.21310908 0.1728519
000220 c1 39 9a 3d 83 0e 2b 3e a4 59 87 3c 0a 8c 26 bd
       0.07530547 0.16704755 0.016522236 -0.040660895
000230 a7 7b 77 3c 38 8d 19 3e 3b 9f f1 3d 2f 4d bc 3d
       0.015105165 0.14995277 0.11797949 0.09194409
000240 4e fa b1 bd 82 0a 92 be 7d db ea 3c 9d 40 64 3e
       -0.0869032 -0.28523642 0.028669113 0.22290273
000250 fa 6c 2d be e4 8c f0 3d 02 eb d5 bd 1b bc 84 3e
       -0.16936103 0.11745623 -0.10445215 0.25924763
000260 9e 06 c7 bd 3e d1 bf 3e a4 a8 82 be 76 f3 81 3e
       -0.09718059 0.37464327 -0.25519288 0.25381058
000270 06 61 82 be 72 79 8f 3d 7c 4f f3 bd 9c 8d 4f bd
       -0.25464648 0.07005586 -0.11880395 -0.05067216
000280 e7 4f b2 3e 16 66 97 3d 4d ad 59 be 46 19 d8 3c
       0.34826586 0.07392518 -0.21257515 0.026379239
000290 a9 c5 94 3c d9 c1 d9 3c 9e c0 5e 3e 58 6f 6e be
       0.018160658 0.026581692 0.21753165 -0.23284662
0002a0 d5 03 44 be 9f 53 85 be d4 0b c4 bd 3e 70 61 3e
       -0.19142087 -0.2604036 -0.095725685 0.22015473
0002b0 2c ab 9c 3e c6 8e 32 be 11 81 17 3e 69 6f 7f be
       0.30599344 -0.17437276 0.14795329 -0.24944843
0002c0 5b 90 52 be 65 56 29 3e 0e f1 1c be 47 74 23 3e
       -0.2056288 0.16536863 -0.1532633 0.15962325
0002d0 f0 ed 22 bc 6c 0a 4a be ee 5b af bc ae cf 2f bc
       -0.009944424 -0.19730538 -0.02140614 -0.010730667
0002e0 2d 80 66 be ea 6d 66 3e bc fa 8e be ae 2c e4 bd
       -0.22509833 0.22502866 -0.2792567 -0.111413345
0002f0 91 94 00 3e f5 e4 44 be 15 0c 9d bd ab eb 2f 3e
       0.12556674 -0.19227965 -0.0766832 0.17179744

main_network.fc.bias f4 [3]
000000 bd d5 a6 3d e2 83 aa 3d 42 04 25 3d
       0.08146236 0.08325936 0.040287264

short_term_context_network.fc1.weight f4 [32, 7]
000000 07 a7 64 be 77 21 f6 3d c5 67 bd be 9f 7c 4d be
       -0.22329341 0.12018102 -0.36993232 -0.2006707
000010 e8 e8 39 3d be a6 84 3e 54 d6 2e be 9c 8b 6a 3e
       0.045388132 0.25908464 -0.17073947 0.22904819
000020 38 d0 22 bd 0a 3f e1 bd 98 61 00 be 99 14 2c bd
       -0.039749354 -0.10998352 -0.12537229 -0.04201183
000030 9a 2c 5e bc 16 f9 0b 3f 9f 3e 1a 3e 10 1c b8 be
       -0.0135604385 0.5467695 0.1506295 -0.3595891
000040 b0 19 98 3e b7 5d 86 3e a2 c8 47 bd 03 1f 5b 3e
       0.29707098 0.26243374 -0.048775323 0.21398549
000050 4d 01 8e bd a8 65 03 bd 3a d2 1a be 8f 66 4e be
       -0.06933842 -0.03207937 -0.15119258 -0.2015631
000060 3a e5 fd 3d ac 43 b5 be 6c a4 99 3d e2 4f f7 3d
       0.12397237 -0.35403192 0.07502064 0.12075783
000070 54 be dd bc 57 d0 99 bc fd 15 00 3e 61 9a a0 be
       -0.027068295 -0.018776102 0.12508388 -0.31367782
000080 bc c3 c4 3b 18 83 63 be 92 13 8a 3e 86 5d 3d 3d
       0.0060047787 -0.22217977 0.26968056 0.04623177
000090 c4 ef 81 3e 5b 16 09 3e 88 1e 98 3d d4 5e 81 bd
       0.2537824 0.13387434 0.074276984 -0.06316915
0000a0 56 71 b6 3c e6 99 49 3e f1 11 4c be 1d a6 1b be
       0.02227084 0.19687614 -0.19928719 -0.15200086
0000b0 76 84 05 bd 91 05 f9 3d 83 a5 b7 bd f1 b4 a7 be
       -0.032597028 0.12159265 -0.08967116 -0.32755235
0000c0 9e 6a 03 be 36 73 63 3d cd 99 c0 3e cf d0 8a 3d
       -0.1283364 0.055529796 0.3761734 0.06778108
0000d0 b3 09 6d 3e 39 4a 02 3f df 67 7f 3e 97 ad 67 be
       0.23148231 0.50894505 0.24941967 -0.22624813
0000e0 35 31 63 be 92 a3 b8 be 53 9f c7 bd 54 9e 0e be
       -0.2218674 -0.36062294 -0.097471856 -0.13927585
0000f0 17 61 eb 3d 88 f9 01 be d1 9f 8d be c0 9d 20 3e
       0.11493128 -0.12692845 -0.27660993 0.15685177
000100 14 53 1e be d2 01 55 3e c0 72 d3 3c e1 4c 04 bf
       -0.1546138 0.20801476 0.025811553 -0.5167981
000110 f4 77 86 3d ec ba 9d 3e 6f 8a 60 3e fe 38 a2 3e
       0.06565848 0.30806673 0.21927808 0.31684107
000120 8c 77 f1 3d 1c 9c a3 be cf 75 e7 3d 7c 4f 6d 3e
       0.1179038 -0.3195504 0.11301767 0.23174852
000130 51 1f 4e bd 6f 43 b2 3c 8d d3 a8 3d 8d 41 36 be
       -0.050322834 0.02176067 0.08243475 -0.17798443
000140 a3 4e 1e 3e b2 49 b7 bd eb c4 3a be 79 2a cf 3e
       0.15459685 -0.08949603 -0.1823918 0.40462092
000150 87 fd bf be 14 ff 44 be 12 dd a9 bd 62 3f 7d be
       -0.37498114 -0.1923793 -0.08294119 -0.2473121
000160 5d 54 a3 be 42 78 95 be be 69 ae 3e 4c 8d 72 be
       -0.31900302 -0.29193312 0.3406505 -0.23686713
000170 eb 6e a3 3e 0b d6 24 3e 46 5b 0c 3e 1d c6 a7 3d
       0.3192056 0.16097276 0.13706693 0.08192084
000180 7c bb 55 be 93 b3 f7 3d 25 70 01 bb 8f 51 6b 3e
       -0.20872301 0.12094798 -0.0019750681 0.22980331
000190 d9 cc fd 3d 9e 25 38 bc fe 9b 47 3d df 68 3d 3d
       0.12392587 -0.011239437 0.04873275 0.04624259
0001a0 df 7e be be e9 aa cb 3e fd b4 e7 3b ad ae 36 3c
       -0.3720617 0.39778832 0.007071136 0.011150044
0001b0 ea 81 41 3e 21 93 9b bd dc 33 90 be a1 2f ee bd
       0.18897215 -0.07596422 -0.28164566 -0.11630178
0001c0 bd fb 0b bb 8b 38 f8 3d bc 37 19 3d 16 5d 51 3e
       -0.0021359765 0.1212016 0.037406668 0.20445666
0001d0 d7 8c f4 3d c5 f4 bb 3e 08 16 fc 3d 26 14 5e 3e
       0.119409256 0.36710182 0.123088896 0.21687374
0001e0 87 55 7c 3c 82 a2 86 3d 2a bb 82 3e 10 55 3e be
       0.015401251 0.06573965 0.2553342 -0.18587136
0001f0 51 f8 6b 3e e3 89 a3 3e 17 e9 d1 3e 8b 7d 44 be
       0.23043944 0.31941137 0.40998146 -0.19188516
000200 3b 31 75 3e 0f 42 8f bd a6 3d 1b be dd 61 2d 3e
       0.23944561 -0.069950216 -0.15160236 0.16931863
000210 ea dd 06 bf de f2 75 3e 0a a8 b3 3c e9 a2 9e 3e
       -0.52682364 0.24018428 0.021930713 0.30983666
000220 d2 4d 01 3e ac 5f c4 bd de 83 30 3d 0a 1a 1b bc
       0.12627342 -0.095885605 0.04309451 -0.009466657
000230 2b f5 5a bd e8 bd 94 3e d2 5e 9a 3e a6 88 9a 3e
       -0.053456467 0.29051137 0.30150467 0.3018238
000240 c8 47 68 be 8d 7c e8 bd f0 63 9f 3e 93 d8 3c be
       -0.22683632 -0.11351881 0.31130934 -0.18441992
000250 56 94 26 3e 8c e4 1d 3e 3d cd 78 be 2d a8 b4 be
       0.16267523 0.15419215 -0.24297042 -0.35284558
000260 59 18 af be be 8d 1f bd 8b 35 2f bc be 04 bb 3e
       -0.34198263 -0.038953535 -0.010693918 0.36527056
000270 9b e7 05 be 06 5c d9 3c 0a 0c 84 3e 80 19 b3 3e
       -0.13076632 0.026533138 0.25790435 0.34980392
000280 ce 0d d1 be 29 ff a0 3d f4 ef 7f 3d 14 88 b8 3c
       -0.40830845 0.07861168 0.062484697 0.022525825
000290 62 4f 46 3d 94 7d 35 be b6 54 61 be 48 9b 82 be
       0.04841555 -0.17723686 -0.22004971 -0.25509095
0002a0 23 58 ce bd 10 63 c3 3b a6 43 fe 3d c3 d7 8a 3e
       -0.100754045 0.005962737 0.12415247 0.27117738
0002b0 71 cc 50 bd 44 ac b5 be db f8 f5 ba f1 cb a8 3d
       -0.05097622 -0.3548299 -0.0018766181 0.08242024
0002c0 c4 97 98 be ab bd 4e be d4 32 ba 3e ee 4d 3f be
       -0.29803288 -0.2018954 0.36366904 -0.18682072
0002d0 ed aa 0e bb 1a 87 b7 3e e3 92 8f bd 15 78 89 3c
       -0.002176936 0.35845262 -0.07010438 0.016780892
0002e0 32 46 8b be 32 5b 30 3e b7 e9 3a be 90 ae 10 3c
       -0.27201992 0.17222288 -0.18253218 0.008830681
0002f0 72 12 99 3e cf 9e 67 be d1 18 42 bd 29 62 99 3d
       0.29896885 -0.22619174 -0.047386948 0.07489426
000300 f9 8e 99 3d af 85 6f bc 0e dc 36 be e9 72 be 3e
       0.07497973 -0.014619275 -0.17857382 0.37197044
000310 83 57 8b be 20 58 36 bc b6 ca b0 be 03 e2 3d bb
       -0.27215204 -0.011129409 -0.34529656 -0.0028973825
000320 3f 03 c1 be 9c 62 cd 3e 0b fe a5 be b5 22 0f 3d
       -0.3769779 0.40114295 -0.32420382 0.03494521
000330 f5 fa 5d bb bf c9 13 be 35 2c 9d bb e0 5b e3 3d
       -0.0033871506 -0.14432429 -0.0047965297 0.11101508
000340 d5 85 89 be cb fb 05 3e 8b b1 c3 bd 63 0e 4a be
       -0.26859918 0.13084333 -0.09555348 -0.1973205
000350 b9 b1 aa be 7f d6 6a 3e f3 c9 6e 3e 62 13 8b 3e
       -0.33338717 0.22933386 0.23319225 0.27163225
000360 b4 ab 8f be a5 6d a8 3e b0 66 5a 3e 57 9a bf bb
       -0.28060687 0.32896152 0.21328235 -0.005847256
000370 53 ea 39 3d f6 ac bd be e5 bd 49 bc 8e 5e f7 3e
       0.045389485 -0.3704602 -0.012313341 0.48314327

short_term_context_network.fc1.bias f4 [32]
000000 b4 dd a7 be 68 0f 66 3d 7a 12 6f be ff 25 2f be
       -0.32786334 0.056167036 -0.23346892 -0.17104338
000010 db 70 ba 3d 77 6a 91 3d 23 3e b5 3d 44 57 9a 3d
       0.09103557 0.07100385 0.08849742 0.07536176
000020 6a 67 88 3d ad f9 49 bd 4d 9a 39 be f8 90 3b bd
       0.0666035 -0.049310375 -0.18125267 -0.04579255
000030 81 52 aa 3e e1 04 f5 3d 48 36 01 be 8b 73 bc bd
       0.3326607 0.11963821 -0.12618363 -0.092017256
000040 50 69 34 be 7c c5 0c be 70 b1 99 be 91 9e 54 3e
       -0.17618299 -0.1374721 -0.30018187 0.20763613
000050 38 ce a8 be 1c ba 9c 3e 76 49 b7 3e fe 14 73 be
       -0.32969832 0.3061074 0.35798234 -0.23738477
000060 aa 42 9e 3e d9 8a 25 3e dd 6f d1 3e c0 1a b3 3e
       0.30910236 0.16166247 0.40905657 0.34981346
000070 9d 59 60 bd 81 ba 6a 3e 9a d1 61 be 81 52 dc bd
       -0.054772962 0.22922708 -0.22052613 -0.10757924

short_term_context_network.fc2.weight f4 [16, 32]
000000 5a 70 f6 3d 66 28 47 be fa cd 9a 3b 07 05 cc ba
       0.12033148 -0.19449005 0.0047242614 -0.0015565463
000010 98 2f 41 be 52 b2 2d be f6 b7 97 3d 20 44 09 be
       -0.18865812 -0.16962555 0.07408135 -0.13404894
000020 10 13 82 bd 08 89 90 bd 18 22 87 3c 59 ef 82 3d
       -0.06351292 -0.07057387 0.01649575 0.06393308
000030 a2 68 e1 3d 4c 2f 81 3c db ac 7a bc 2c a8 99 bc
       0.11006285 0.015769623 -0.015300001 -0.018756948
000040 d4 7a 11 bd fa 6e 38 bd 67 74 f3 bd d4 69 31 be
       -0.03551753 -0.04502771 -0.11887436 -0.17325526
000050 50 2e 60 3c 8c 3f 03 3e 36 22 de bd 2e a5 9f 3d
       0.013682917 0.1281721 -0.10846369 0.077951774
000060 05 39 ef bd 1e e7 b7 3d 89 5c b7 3d fb 88 1c 3d
       -0.116807975 0.08979629 0.089531966 0.038216572
000070 f2 61 a0 3d fa e4 05 3e 01 f9 fa 3c 9a 10 49 3c
       0.078311816 0.13075629 0.030636312 0.0122720245
000080 03 2d 0f bd 47 6e d0 bd 18 7f bd bd 8b 8e b2 3d
       -0.034955036 -0.10177284 -0.09252757 0.08718594
000090 81 8b 6b bc 29 cd 23 be 90 84 ac bc d2 9c 64 bd
       -0.014376522 -0.15996231 -0.021059304 -0.055813618
0000a0 14 e0 11 bb c0 6a 20 be a2 96 ff bd 9c c4 82 3d
       -0.0022258805 -0.15665722 -0.12479903 0.063851565
0000b0 f2 51 34 3e 9d 04 12 3e 79 3b d3 bd 10 a2 06 3e
       0.17609385 0.14259572 -0.10314078 0.1314776
0000c0 4c 58 13 3e a4 bc 14 bd 6c cd 3c 3d 03 d4 2b 3e
       0.14389151 -0.036312714 0.046094343 0.16780095
0000d0 6a 92 7d bd 86 db d0 3c e1 1b 80 bc 38 ee 99 3d
       -0.06190721 0.025495302 -0.015638294 0.0751614
0000e0 19 76 11 be 1d e2 f5 3c e3 f3 f4 bd 0f 54 78 bd
       -0.14205207 0.030015046 -0.1196058 -0.06062704
0000f0 fc ab d8 3d a6 74 a0 3d 82 7f 16 be c2 5f ee bc
       0.105796784 0.07834749 -0.14697078 -0.029098395
000100 64 ba 10 3e 0f 1d 34 bd 11 2a 64 3e b4 18 b3 bd
       0.14133602 -0.043973025 0.22281672 -0.08744946
000110 2d 1b eb bb 31 b1 04 bd a3 25 1f 3c 25 60 cb 3e
       -0.0071748705 -0.032395545 0.009713563 0.3972179
000120 7b b6 76 3e 9c 9e e7 3d a4 00 b1 3d 02 a3 fc bd
       0.24093048 0.11309549 0.086427 -0.12335779
000130 fc 74 48 be 16 a9 86 3d ed e1 cd bc 36 6a 4c 3e
       -0.19575876 0.06575219 -0.025132144 0.19962391
000140 b8 84 1a 3d d9 82 27 be d7 01 c1 3e e0 73 82 3e
       0.037724227 -0.16358508 0.37696716 0.2547903
000150 04 94 05 3e fc ab ab be 28 5f 4f 3e 44 f1 d7 3d
       0.13044745 -0.3352965 0.20251143 0.10544065
000160 2d f9 9d bd a5 3d f8 bd 07 10 91 3d e5 e5 db 3c
       -0.07713542 -0.12121133 0.07083135 0.02684302
000170 83 dc ca 3d c6 38 32 bc 72 85 df 3d b4 25 34 bd
       0.099053405 -0.010877794 0.109141245 -0.04398127
000180 52 e2 bd 3c d2 39 e4 3c f5 0f 2a bc 00 8f f4 3d
       0.023179207 0.027859602 -0.010379781 0.119413376
000190 92 50 dc bc 34 7f c7 3d d0 d7 19 3c bd 1a 25 be
       -0.026893888 0.09741059 0.009389833 -0.16123481
0001a0 5e dc 50 b9 e4 ad ad 3c d9 f3 4d bd 4d b7 01 be
       -0.00019918519 0.021201082 -0.05028138 -0.1266758
0001b0 58 f7 2b 3d 74 ed 23 be f0 43 db bd 07 e6 f6 bd
       0.041983932 -0.1600855 -0.107063174 -0.12055593
0001c0 c1 22 94 bd ea 13 31 3d ce 0b a5 3d 96 b7 1c be
       -0.07233191 0.043231882 0.08058892 -0.15304407
0001d0 57 b5 fd 3d f4 4a 06 3e 83 c5 c0 bd 17 5c a6 bd
       0.123881035 0.1311453 -0.09412672 -0.081230335
0001e0 45 e0 35 be cf 1d 7c 3d 81 33 59 be 12 81 fc bd
       -0.17761333 0.061551865 -0.21211053 -0.12329306
0001f0 e4 fa 25 be 89 07 69 3d e3 21 16 3e cb d3 b1 bd
       -0.16208988 0.05689195 0.14661364 -0.086829744
000200 dc 93 89 bd ad b2 8a 3e a9 ca 3a bd ef b7 ea 3d
       -0.06717655 0.27089444 -0.045603428 0.11460864
000210 27 79 a0 3e 18 53 06 3d 96 38 18 bd 30 b7 86 be
       0.31342432 0.032794088 -0.03716334 -0.26311636
000220 9c 51 61 bd 53 fb b2 3e f7 fd a5 3d 61 ef ab 3e
       -0.05500947 0.3495737 0.081050806 0.3358107
000230 de 7c 22 3c 48 7e 11 bd cc 5e fa bd 2c d3 42 be
       0.009917466 -0.03552082 -0.12225112 -0.19025868
000240 e2 90 a4 3d 65 19 85 bc 11 5b 0e be fa 6b e2 bc
       0.08035447 -0.01624746 -0.13901927 -0.027639378
000250 e1 88 75 ba e1 0e 87 3e 92 a4 93 bc 9a 78 17 3e
       -0.0009366405 0.2637854 -0.01802281 0.147921
000260 17 c1 70 3e c4 6f ca 3c 03 cd 71 3e 99 83 25 3e
       0.23511158 0.024711497 0.23613362 0.16163482
000270 88 1d 92 3d 6c 74 2f 3e 75 7d 8a b9 19 d1 17 3e
       0.07134539 0.17134255 -0.00026414884 0.14825858
000280 c7 dd b7 3d 20 0c 11 be 62 b0 3f be e1 f5 56 ba
       0.089778475 -0.14164782 -0.18719628 -0.0008200091
000290 77 dc 85 bb 0b 9d e3 3d e7 41 33 bc ee d5 53 be
       -0.0040851193 0.11113938 -0.010941005 -0.20687076
0002a0 c0 28 fa bd f0 1c 18 3e 96 80 2b bd ce 78 19 be
       -0.12214804 0.14854789 -0.041870676 -0.1498749
0002b0 4b 4a 51 be 34 b5 ba 3d 65 4b 8b 3b b7 e3 e8 bd
       -0.20438497 0.09116593 0.004250931 -0.11371558
0002c0 f4 e7 88 bd df fd 8b 3d 53 35 1c bd 9c 4f 83 bd
       -0.066848665 0.068355314 -0.03813679 -0.06411669
0002d0 3a 6b 46 bb c2 59 e4 3d 1e bf e6 bd bb d2 2f be
       -0.0030276314 0.111499324 -0.112669215 -0.17170231
0002e0 65 7b 9e 3d 1f d6 b2 3d bc cc b3 bd 2a 54 af 3d
       0.077383794 0.087322466 -0.08779284 0.08560975
0002f0 f2 1e 08 be 56 52 f0 3d 49 8c 1b be d6 10 15 be
       -0.13293055 0.11734454 -0.15190233 -0.14557204
000300 e6 29 07 be bc 5d 4f bd 4f f3 6b 3e 96 7a e9 3d
       -0.13199577 -0.0506265 0.23042034 0.114003345
000310 3b ff eb bd a4 3f 1d be 4b 2f 34 be 56 ce 89 3e
       -0.11523291 -0.15356308 -0.17596166 0.26915234
000320 cd 57 44 3e 9b 92 05 be 7a 5c 5b 3e 5f 2e 7a bd
       0.19174118 -0.13044207 0.21421996 -0.06107938
000330 2d b3 04 be f1 c7 94 bd c1 99 a6 bd 9e a3 09 3e
       -0.12958975 -0.07264698 -0.08134795 0.13441321
000340 03 39 a1 3d 66 18 80 be 0a 0c 22 3e b9 ea 49 bd
       0.07872202 -0.25018615 0.15824905 -0.049296115
000350 14 f7 c4 ba 2f e5 02 3c dd e2 dc 3d 9d 77 b7 bd
       -0.0015027248 0.007989212 0.10785458 -0.08958361
000360 f9 37 56 3e 66 40 cd bd e6 de 20 bd bb c3 40 3d
       0.2091979 -0.10022049 -0.039275073 0.047061663
000370 82 0c 91 3d c2 08 c5 3d a7 6c 97 3c ea 29 82 bd
       0.07082464 0.09620811 0.018484427 -0.06355651
000380 cb 29 18 be 16 71 15 3e 32 8d 23 bc 1a 7f 0f 3e
       -0.14859693 0.1459392 -0.009982394 0.14013329
000390 a7 a2 4c bd 52 6a 26 be de 78 24 be f4 14 61 3d
       -0.049959805 -0.16251495 -0.16061732 0.054951623
0003a0 91 a1 9d bd a3 ba 1b be 44 ce a0 3c 5f 62 52 be
       -0.07696832 -0.15207915 0.019629605 -0.20545338
0003b0 ff ad fc 3c 1a a1 86 bd 2e a7 21 3e 15 ea cd 3d
       0.030844687 -0.065736964 0.1578643 0.10054413
0003c0 03 76 72 be bd 99 1f 3e 43 79 ff bc 3b fb 1a 3e
       -0.2367783 0.1558599 -0.031185752 0.151349
0003d0 fc 98 3c 3c 56 e7 24 bc 87 2c 69 3d 6d 8b d6 bd
       0.011511084 -0.01006492 0.05692723 -0.10475812
0003e0 95 58 31 bd ee 5d c2 bc 96 e2 33 be 2f 9f 37 be
       -0.04329737 -0.02372643 -0.17566904 -0.17931817
0003f0 c0 5d 20 be cf 4f f1 bd 2b 60 4d be 19 c2 f7 3d
       -0.15660763 -0.117828004 -0.20056216 0.12097568

short_term_context_network.fc2.bias f4 [16]
000000 1a 06 bc bd 87 0d 21 be 10 7c 31 3e cb 57 c8 3d
       -0.09180851 -0.15727817 0.17332482 0.0978237
000010 27 23 4e 3e 16 c2 77 bc 4a 7d 13 3e aa 7c 27 be
       0.20130597 -0.015121957 0.14403263 -0.1635615
000020 72 d6 8a bd e5 50 80 3e 2e ee 5f 3d d6 10 45 3e
       -0.067791834 0.25061718 0.054670505 0.19244704
000030 0f 76 0b 3e 9e be 2c 3e 48 26 3b 3d f2 7b 12 3e
       0.13619255 0.1686959 0.045690805 0.14305094

short_term_context_network.fc3.weight f4 [1, 16]
000000 ff eb 64 be 1a 13 6f 3e bf e8 95 be a0 b5 0a be
       -0.2235565 0.2334713 -0.29279134 -0.13545847
000010 d2 9a 14 3e d5 67 ec bd bf a1 aa be 40 78 62 bd
       0.14512184 -0.11543242 -0.33326527 -0.05529046
000020 7b 13 09 3c 00 a9 ad be 93 27 b2 3e 58 77 1d 3e
       0.008366461 -0.33918 0.34795818 0.15377557
000030 47 6d cd bd 94 12 c3 3e 68 83 28 be 16 18 63 3e
       -0.100306086 0.3810011 -0.16456378 0.22177157
