Uni_Research/IRL/Final/Extended/Testing_Suite/model_C0_R1000_S100.0.pth (torch, 91250 bytes, 11 tensors)

main_network.lstm.weight_ih_l0 f4 [256, 15]
00000000: febc ea3d 96fb c1bd bd0e 903d cabf 89bd
00000010: 420e c53d b527 0fbc 0e1f 653d 81f2 863d
00000020: 7c03 8bbc 2077 8cbd 0d3a 203c a847 b2ba
00000030: c4a3 94bd eb84 0ebd f81a 30bd fb33 733d
00000040: 3d39 bcbd 20c2 2bbd 73d1 8ebd 9627 0dbd
00000050: 8827 2a3d d595 e73d e8da 6e3d 7b4b 4cbd
00000060: 2274 3ebd 48cc ffbb fc57 98bd dd78 043e
00000070: 4de2 bebb 5336 b7bc c4e2 f1bc 5de2 173d
00000080: 9d96 153d ecf6 b43b 491f 45bd 9724 a23d
00000090: b942 173d 415f b8bd 924a 7c3d f939 213d
000000a0: 7529 86bd 6125 763c a44e f13c 9e6b b9bd
000000b0: bbf3 05bd 139b b8bd ff86 a6bd d17c 29bd
000000c0: 539a e13d 824f c9bb c217 fabc 9fe2 b4bc
000000d0: fe44 433c 7f42 51bd 8ebf 023e 3707 d1bc
000000e0: 60fc d2bd c3f1 ee3d b65b 103d fb84 e1bc
000000f0: de06 8dbc 9b3e 8c3d 0e2b 87bd 46a6 12bd
00000100: 45a9 04bc 9806 98bd 0811 7abd c7b2 e7bd
00000110: 3bfe d9bd a4bc 9e3d 74ed 883d 0aba 4cbd
00000120: a93b 853d 9c7a 803c 9d27 7e3d f8ed 72bc
00000130: a941 f83d 2c4c 013d c612 583d ef74 3c3d
00000140: 3f85 f73d 808d 033e a3bf a1bd 59e5 b9bd
00000150: e260 13bc c87a ca3d 8a3a 87bd 8e3a b3bd
00000160: 4b19 a53d d388 ebbd e5f4 dcbd 138a 4cbd
00000170: aec6 0e3b 179c 3cbd 033d 573d 11ca ccbd
00000180: 523d 463b d4f6 bb3c f1ca aebd df6e b1bd
00000190: c3b7 e1bd 8f68 9abd ec05 d8bd c451 a43d
000001a0: 14b7 5c3d 888f 04be 27b0 8abc b0df 98bd
000001b0: 5665 9bbc 3ffd 503d 2ab0 a4bd eae7 aa3d
000001c0: 0439 8cbd 3cb2 323d 390f c53c 71e3 cc3c
000001d0: a0cd 2c3b 7ba4 6d3d 9743 373d 88c6 d1bd
000001e0: af72 d33d c424 e23d 24ba 62bd dd1f fd3d
000001f0: 63e7 9d3c 15c8 a1bd 75c3 8bbd 7db3 323c
00000200: 1680 5ebd b513 603d 959f 983d 8b56 a6bd
00000210: b688 b23d 8b1c 44bd b416 d8bc 2f1a fa3c
00000220: 1b47 12bd ee62 ccbd 855e e73d 4772 753c
00000230: 9e44 b83d 2ada aabd 4656 153d c4b8 2d3d
00000240: cee9 b53c 7953 f83d 3980 f63d 33a1 b7bd
00000250: 914a 173e 47ad 70bc ca68 453c 3039 0cbd
00000260: a3c1 e33d 1887 a4bd 81e9 1bbd bc9e c43c
00000270: 4666 dbbd efbb 05bc 1abd 2cbc 4089 5e3d
00000280: 9b90 0bbe 1816 23bd 3c05 cabc 19ba 303d
00000290: 7bfe 84bc 07fd 2abc 7908 b1bc a7c6 c4bc
000002a0: 0eb9 7fbd 545e aa3d c578 b3bd b18b 5d3d
000002b0: e000 023d 8521 00bd d816 8a3d a4da f0bd
000002c0: 9e86 8dbd 9771 6b3d e1fa abbd 7a9c cebd
000002d0: 1311 053e 53ff 363d 4afa a03d 6824 8a3d
000002e0: f9ec 4e3d 81bb fbbc 4d5f a93d 6293 e6bd
000002f0: 5afa a63d 4824 90ba 0f08 45bd 3c7a 90bd
00000300: 81b5 8ebd 163c dc3d 1772 94bd 2359 b3bd
00000310: 7490 f53b 26ab 9ebd 10f1 65bd 2192 9bbd
00000320: 8ce1 bdbd a736 543d cb9d 8e3d 2609 a7bc
00000330: c9a5 753c 0dfd 0abd 58bc 3a3d b2b3 653d
00000340: 0376 1d3c 59a2 02be ef0e abbd f96b d7bd
00000350: d171 f43d 6303 03be a7fe 1b3d edce abba
00000360: b125 e73d 713f 06be 9781 223d 4709 4d3d
00000370: 0e0a d9bc 405a efbd 1357 39bd f740 973d
00000380: 3543 f4bd ab23 b1bd 0b65 9b3d 1a97 d13c
00000390: eb39 fe3b ea43 553d 9d09 9bbd 9af5 023e
000003a0: 885c 9fbd 65ba 7bbd 1171 6dbd 0169 92bd
000003b0: 6785 83bc b700 8ebd 3872 b93d efba 33bd
000003c0: fa63 01bd d334 ddbd 246c b1bd 3306 14bc
000003d0: a5e9 e9bd 8880 e7bd e6e0 a6bd f78e 663d
000003e0: a09d 07bd 582c b3bd ca4d d1bd 8d7f 9d3c
000003f0: efb8 103c b9f9 0abd 8c7f 803d df5a 1f3d
0.11461829 -0.09471814 0.07034061 -0.06726034 0.0962186 -0.008737494 0.05593782 0.06589223
-0.016969435 -0.06858659 0.009779465 -0.0013601677 -0.07257798 -0.03479473 -0.04299447 0.059375744
-0.09190605 -0.04193318 -0.06973543 -0.03446158 0.041541606 0.11307875 0.058314234 -0.04987667
-0.04649747 -0.0078063346 -0.07438657 0.1293673 -0.005825317 -0.022364771 -0.029527076 0.03708111
0.03652059 0.0055225994 -0.04812554 0.07917135 0.036928866 -0.09002543 0.061594553 0.039361928
-0.06550876 0.01502356 0.029456444 -0.090537295 -0.032703143 -0.09013953 -0.08131217 -0.0413788
0.11015763 -0.0061435113 -0.030528907 -0.022080718 0.0119183045 -0.051088806 0.12768385 -0.025516136
-0.10302043 0.11667206 0.035243712 -0.02752923 -0.017215189 0.068478785 -0.06600009 -0.035803102
-0.008096998 -0.07423133 -0.0610514 -0.11313396 -0.10644194 0.07750824 0.066859156 -0.04998211
0.0650552 0.015683465 0.062049497 -0.014827244 0.12121899 0.031566784 0.05275228 0.046009954
0.120859616 0.12846947 -0.0789788 -0.09076948 -0.008995267 0.098867 -0.06602962 -0.08751403
0.08061465 -0.115007065 -0.107888974 -0.049936365 0.0021785903 -0.046047296 0.05254842 -0.099994786
0.0030248952 0.022944845 -0.08534802 -0.08663725 -0.11021378 -0.07539474 -0.105480045 0.08023408
0.053885534 -0.12945378 -0.0169297 -0.0746454 -0.01896922 0.051022764 -0.08041413 0.08345015
-0.06846812 0.04362701 0.02405511 0.025010796 0.002636768 0.05801819 0.044742193 -0.10242945
0.103246085 0.11042169 -0.0553533 0.12359593 0.019275373 -0.07899491 -0.0682439 0.010907051
-0.05432137 0.054706294 0.07452313 -0.081219755 0.08717482 -0.047878783 -0.026378013 0.030530063
-0.035712343 -0.09979807 0.11297325 0.014980859 0.08997463 -0.08342393 0.03645923 0.042412534
0.022206213 0.12125296 0.12036175 -0.08966293 0.14774539 -0.01468975 0.012048909 -0.034234226
0.11120918 -0.080335796 -0.038064484 0.024001472 -0.107128665 -0.008162483 -0.010543132 0.05433011
-0.13629381 -0.039815992 -0.0246607 0.043146227 -0.016234627 -0.010436303 -0.021610485 -0.024020506
-0.06243234 0.08318773 -0.08763269 0.0540883 0.031739116 -0.031281967 0.06742638 -0.117604524
-0.06910442 0.057481375 -0.08397461 -0.10088439 0.12994795 0.04467709 0.07860239 0.06745225
0.050518963 -0.030729057 0.0827013 -0.1125858 0.081532195 -0.0010997141 -0.04810339 -0.07054564
-0.06968213 0.10753648 -0.072483234 -0.08757236 0.007494027 -0.07747488 -0.0561381 -0.07596231
-0.09271535 0.051809933 0.0696369 -0.020390105 0.01499314 -0.033932734 0.045589775 0.056079574
0.009610656 -0.12757243 -0.08352458 -0.10518641 0.11935771 -0.1279426 0.038084652 -0.0013107933
0.11286486 -0.13110138 0.039674368 0.050057676 -0.026494052 -0.11687136 -0.045249056 0.07385438
-0.11926881 -0.08649381 0.07587632 0.025584746 0.007758369 0.05206672 -0.07570193 0.12789002
-0.07781321 -0.061457057 -0.057969157 -0.07148934 -0.016054822 -0.0693373 0.090549886 -0.043879446
-0.031589486 -0.10801091 -0.08663204 -0.009034681 -0.11421517 -0.11303812 -0.08148365 0.056288686
-0.033109307 -0.08748692 -0.10219915 0.01922586 0.008833154 -0.03392956 0.06274328 0.03890502

main_network.lstm.weight_hh_l0 f4 [256, 64]
00000000: d62f cb3b 26a6 54bd 3fe2 6ebd 3227 be3d
00000010: b3e7 d23b d672 803d d764 bebd aedf 343d
00000020: f1db 9f3d f072 99bd 6e03 053b af39 17bd
00000030: 6ecb 623b 8046 d33c 8001 dcbd 3086 b8bd
00000040: 663c b1bc b2cb 41bc 7b06 a13d 147a 8d3d
00000050: c20b bfbd 5ebd 123d e2ac 8f3d e1f6 c53d
00000060: f824 0ebd 00f7 e03d 120b ea3d b15d 23bd
00000070: f6f8 e43c 0bc9 ca3d ca85 0f3d 9e22 933d
00000080: 90c4 4bbc 865d 59bc 6ed2 91bd 97d3 473d
00000090: ba9a d93d 1e6f 87bd de10 f43c 3451 91bd
000000a0: 360e 4bbd db36 753d ac38 5abb 2f1a d0bd
000000b0: 85f6 81bd 1bea dfbd b9cc c33d 1003 d7bc
000000c0: 0142 083e bbc4 c7bd 3a72 b0bc 510e 753d
000000d0: c565 b1bd 2687 cebc 633b d8bd 066c ba3d
000000e0: d2cf ab3d 5701 763c 1ff9 fc3d eadb aebd
000000f0: 6259 433b 73fc 003e d5ca 643d 2405 453d
00000100: 5d9f 04bd 8afe d7bd 380a e1bd 7feb 6cbd
00000110: d16c 8abd f61e 09bd 7e84 033e b8d2 d23d
00000120: 9d43 c53d db97 d6bd cace e13d 32b0 7e3d
00000130: e2aa d3bd 9a4c 4e3d 7c88 053d 47d4 5d3d
00000140: f67b 97bd 11bf 453d 14c0 0bbd 0573 4d3d
00000150: 82a2 8a3c 7a7f 1d3c d9f4 f33c 95f9 9ebd
00000160: 0f8a 07be 6461 a9bd cefd 4abb e8c1 05be
00000170: e82d 9d3c e8fc 01be c371 0abe 1124 16bd
00000180: c327 be3b fa66 15bb 3047 b0bd 32aa 9b3d
00000190: 4e3d d63d c1e6 adbd 5b4f 853d ece9 ad3d
000001a0: 6348 8c3c 318a 5f3d b76a eabd 1321 a93d
000001b0: 86f5 fbbb ab3c e7bd a764 a83d d10a fabb
000001c0: 5641 1d3c e807 dabd 75c2 fabd a335 1dbc
000001d0: e3f5 d13d 6915 cfbd 7238 ad3d ad74 85ba
000001e0: bd20 93bc 5493 9cbd f148 87bd 3784 c0bd
000001f0: 52ba 97bd 2f25 79bd 3ce4 cf3b 1ff9 bebd
00000200: a374 613d 0d00 cfbd 4062 cbbd e5c1 a43c
00000210: b486 a43d 9552 233d 90ac 0abc ed16 bb3d
00000220: 97eb 7cbd a3b2 fd3c 8be6 23bd a4bf 69bd
00000230: 1037 9bbd e493 d33d a0d3 9dbd 06f7 14bd
00000240: 6781 c9bd 0f4d dc3d 56fe eaba 99c8 013e
00000250: 40bb bbbd b701 29bb 48c9 03be 71c3 f73c
00000260: 86cb d5bd 7808 373d 7bf2 b7bd 016c 1f3d
00000270: 43e7 ebbd 544e 2e3d 285d 93bd f4f4 a5bd
00000280: f096 05be 7dca c9bd 1195 833d c5fd 9a3d
00000290: c242 dabd d656 b3bd 142a cb3d 80af b63d
000002a0: 6f07 90bb 6aa5 4c3d 2919 3abd 3c73 a33c
000002b0: 6ef7 5f3d 495c cb3d de64 c03c e8dd 743a
000002c0: 0b5e cbbc a8fa b7bd 4595 153d 35a5 af3d
000002d0: 5f7c ba3c 454e 6abd 2089 b3bd cbd7 e9bd
000002e0: 1a90 9ebc dcb7 e1bd afe2 d73d 678f d4bc
000002f0: 3487 00bd 4612 ad3d 912a b4bc 9308 8abd
00000300: b259 433a 1c3d 6a3d 71d7 73bd fae4 1bbe
00000310: 2219 aa3d cf5a a13d f170 d83d d30d 023e
00000320: 2d03 053c 25d3 8ebb 8baf ac3c f505 bf3d
00000330: 920d c93d a3b4 783d dc47 4bbd 1b2d 61bd
00000340: 4a1a f0bc 2598 bdbd a7da 943d 3b87 2e3c
00000350: ee1d cdbc 37b8 ccbb 857a 0ebd ef05 21bc
00000360: 5152 13bd 9cba e83d e4d8 c6bd a45b f13d
00000370: 1b90 ea3c 6f75 19bd 2896 013d de4d 423b
00000380: 3cec e9bb 6574 69bc 3335 603d a9b1 4e3d
00000390: 18be cf3d 0e54 a33d 7920 85bd c32c febd
000003a0: 6392 4fbd 92e4 18bd 5d9e cfbd a22a 37bd
000003b0: 145d 873d cac3 a63c 45d9 753b 7d7d 1c3d
000003c0: 5042 1bbd b436 d93d c0b1 6a3d a6b0 ab3d
000003d0: ab6e 703c 496d f8bd da6d cdbd 6b3f 94bc
000003e0: 8b31 803d acaa 993d 8c69 55bb a5f0 833d
000003f0: 1000 8dbc 809e 84bd 5832 99bd 0770 46bd
0.006200771 -0.051916264 -0.058321234 0.0928482 0.006436312 0.06271903 -0.092965774 0.04415863
0.07805622 -0.07492626 0.0020296234 -0.036920246 0.0034606117 0.025790453 -0.107424736 -0.09009969
-0.021635246 -0.01182835 0.07862564 0.0690805 -0.093284145 0.035825126 0.07015397 0.09666229
-0.034703225 0.109846115 0.11427893 -0.039884273 0.027950745 0.09901627 0.0350397 0.07184337
-0.012437001 -0.013266927 -0.071202144 0.048785772 0.10625215 -0.06612991 0.0297932 -0.070955664
-0.0495741 0.059866767 -0.003329794 -0.10161244 -0.06345848 -0.10933324 0.09560532 -0.026246578
0.13306428 -0.0975432 -0.021538842 0.059828106 -0.08661989 -0.025210928 -0.10558202 0.09102635
0.08389248 0.015014968 0.123522036 -0.08538039 0.0029807915 0.12596302 0.0558575 0.048100606
-0.032378543 -0.10546596 -0.10988277 -0.057841774 -0.06759036 -0.033476792 0.1284351 0.10294098
0.09632037 -0.10478183 0.1102577 0.06217975 -0.10335328 0.05036602 0.032600865 0.05415752
-0.073966905 0.04827792 -0.034118727 0.05015852 0.016923193 0.009612912 0.029779838 -0.07762448
-0.13236259 -0.08270529 -0.0030974033 -0.1306225 0.019186929 -0.12694132 -0.13519959 -0.03665549
0.00580308 -0.0022796975 -0.08607328 0.076008216 0.10460912 -0.084912784 0.065092765 0.08491883
0.01712436 0.05457515 -0.114461355 0.082582615 -0.007689181 -0.11290868 0.08222323 -0.007630684
0.009598097 -0.10646039 -0.12244121 -0.0095953075 0.10251977 -0.101115055 0.08458032 -0.0010181867
-0.017959947 -0.07645288 -0.06605709 -0.09400218 -0.07408585 -0.060826477 0.0063443463 -0.0932486
0.055042874 -0.101074316 -0.09930849 0.020111987 0.08033505 0.03987368 -0.008463994 0.09135232
-0.061748113 0.03096897 -0.040014785 -0.05706753 -0.07578862 0.10330942 -0.0770638 -0.036368392
-0.09839135 0.10756885 -0.0017928581 0.12674178 -0.091665745 -0.0025788376 -0.12869751 0.03024456
-0.1043921 0.04468581 -0.08981796 0.03892136 -0.11518719 0.04255517 -0.071955025 -0.08103362
-0.1304586 -0.09853075 0.064249165 0.07567934 -0.10657264 -0.08756797 0.09920135 0.08920193
-0.0043954174 0.04996244 -0.04543415 0.019952409 0.054679327 0.09929711 0.023485597 0.0009340928
-0.024825117 -0.08983356 0.036519308 0.085764326 0.022764383 -0.05720355 -0.08766389 -0.11418112
-0.019355822 -0.110213965 0.10541283 -0.025947286 -0.03137894 0.08450751 -0.021992953 -0.06739917
0.00074520253 0.057187185 -0.059531633 -0.15224066 0.08305575 0.078786485 0.10568417 0.12700586
0.008118433 -0.0043586665 0.0210798 0.09327308 0.098170415 0.060719144 -0.049629077 -0.054974657
-0.02930941 -0.09257535 0.07268267 0.010652359 -0.025038686 -0.006247546 -0.034784812 -0.009828075
-0.035967175 0.11363718 -0.09709337 0.11785057 0.028633168 -0.03746551 0.03163734 0.0029648463
-0.007138757 -0.014248942 0.054738235 0.0504624 0.101436794 0.079750165 -0.06500334 -0.12410881
-0.050676715 -0.037327357 -0.10137627 -0.044718392 0.0660955 0.020357031 0.0037513536 0.038205612
-0.037905037 0.10606137 0.05729842 0.083833024 0.014674823 -0.121302195 -0.10030718 -0.018096646
0.062594496 0.07503256 -0.0032564132 0.06442384 -0.017211944 -0.06475544 -0.074803054 -0.04844668

main_network.lstm.bias_ih_l0 f4 [256]
00000000: fed5 b63d 0d1d 423d f2a7 cfbd 22b3 92bc
00000010: e7ea 73bd 072e 87bd 4451 c0bb 7515 693d
00000020: 3c7d 043e 8c2e d1bb ff58 aabd 3716 a2bd
00000030: da78 d13d b56f f33d 9f64 cabc 9776 7cbb
00000040: 5b4a fcbc 8ad6 e33d a801 4b3d 2500 883c
00000050: b399 d4bd 1b2e 803d 82b1 013e be8b 5fbd
00000060: c676 d3bd 0c5d 4b3c e0a9 263b 13b2 4fbc
00000070: f050 d3bd f41c 5d3d 343e 573d 8384 283d
00000080: e769 bebd 5c41 41bd 48f1 e0bd 765d f3bb
00000090: 9496 5d3b b58c f63d 05f8 323d 2a60 abbd
000000a0: 7a4a 66bd 5e96 91bd bffe 73bd 5a0f 063e
000000b0: 171b d7bc ecf7 9dbc 6e97 103d 5b31 81bd
000000c0: b803 05be 6722 e33c 4ec6 3a3d 0a8d 783d
000000d0: 91e7 b6bd 84c6 21bc 344a adbd 7f16 c73b
000000e0: 9e1d 27bd a065 d13d cc07 8e3d 7e62 8bbd
000000f0: 647a f4bd f6bd 3dbc 5146 c43d 5a67 2e3d
00000100: 2923 5b3d 443d a33b 9c71 d03d ab3f 7b3d
00000110: 32d7 c7bd 35d4 bbbd e4a2 aebd 45df be3d
00000120: 24dc c5bd 8861 033d 28f8 58bd 16a9 d7bb
00000130: c586 61bd 341f a43d 78fd f73b 01ee 69bc
00000140: 812e 8bbd f82e f8bc 867f b4bd 00bd 6c3d
00000150: 8691 8cbd e798 f43b 8dac 55bc 15d2 a03d
00000160: eada 03bd f886 dd3c e7da 953c 7ef3 063c
00000170: 112d fa3b a59c f33d 44f5 8e3d 5861 a93d
00000180: 931e 94bc ac9e 83ba 14dc 2dbd c895 e6bd
00000190: b8ed 95bd 76c8 913d 93df 2dbc e6dc c93c
000001a0: 6ab8 ee3d fe52 d63c ac21 a83d 535f 1d3d
000001b0: b388 4f3d aba0 4ebd 390b a1bd 8404 2a3d
000001c0: 160c 97bd 256f 683c 1b57 5b3d abb6 91bd
000001d0: b737 233d d7bc 003e 9d97 cabd 1efc 8d3d
000001e0: d13f ae3d ffac 573d c8fe a03d f7a2 363d
000001f0: 03b0 e83c be6a e73d fa97 82bd a958 04bc
00000200: 42e2 e0b9 775c 5bbd 3ab4 533c baa6 cbbd
00000210: e11c 68bd 5364 de3d d6a8 47bd 6478 aabc
00000220: 7eac c63d 12fc c23d 8106 dfbd eb34 0e3d
00000230: dc8e 973d 7677 dfbd db13 e8bc 6a8f 1bbe
00000240: cf14 053e e6d7 e9bd 3b9f 02be 1c65 44bd
00000250: 2062 55bd ead2 8e3c c10f d13d 1905 f43d
00000260: 9b7a c73d 4711 ce3d 9978 6f3d 1152 a43d
00000270: d8bc 17bc fbba dbbd d0ad fa3c e4d2 33bd
00000280: c6b5 31bc a61d 99bd cb98 ae3b 16e8 e2bd
00000290: c6ba a03c e7ac f13d 3689 833d b5d3 303d
000002a0: 83f6 8bbd ae0f 3fbd c9c6 b0bd 8429 9dbd
000002b0: 0734 b53d 4c53 fcbd 52d5 4c3d 6311 cabd
000002c0: 7c54 8bbd 701f c13d 29f7 933d 3f18 8f3c
000002d0: 484d bd3c 011c 8dbd 1629 92bb 717c cb3d
000002e0: daf0 74bc f57e 023e ea6a 10bd 8320 5abc
000002f0: 743e eebc 7990 ea3c 456a c83d 7950 aebc
00000300: 258f da3d 40a7 cdbc ba7f febc 0e3d 9bbd
00000310: b24f 75bd 77c2 27bc a9c4 ecbd 4abd edbd
00000320: e353 0cbd 75c2 10bc 5775 9bbb edc9 f53d
00000330: 162d 603d 9788 abbd 37f7 fabd 5472 883d
00000340: 5f8a d33c 581e 113e 4f39 953d 8df2 04bd
00000350: c120 913d e4d5 b13d 09f9 72bd 7198 973d
00000360: 1f93 e43d bed0 6f3d b473 f63c 7fb7 4dbc
00000370: 7151 81bd 6037 a7bd e277 c6bd 48ae a5bd
00000380: 4770 b8bd 878c 85bc c645 a73a 80bc 8c3c
00000390: e6cf f1bc af15 6bbc 0e87 c2bb 5196 b8bd
000003a0: 6ce9 833d 7315 663d 3fc8 11bd 4190 783d
000003b0: 1ee5 7bbc 8a56 053e b7b8 c6bc a206 423d
000003c0: 7285 0bbc b0dd 663d 9a9f 853b 7e94 063e
000003d0: ef14 1fbd 5f74 b6bd ba16 b0bd 87a5 dcbd
000003e0: 0344 95bd 6fa7 0bbd 3eef 8dbd ac00 84bd
000003f0: 6e1c d23d b49c d5bd 2ba9 f7bd e61a fe3d
0.089275345 0.047390986 -0.10139455 -0.017907683 -0.059550192 -0.06600576 -0.0058690626 0.05690523
0.12938398 -0.0063837226 -0.08317756 -0.079143934 0.10228129 0.11886541 -0.024706183 -0.0038522833
-0.030797174 0.111249045 0.049562126 0.016601631 -0.10380878 0.06258794 0.1266537 -0.054576628
-0.103253886 0.012412321 0.0025430843 -0.012676734 -0.10318172 0.05398269 0.052549556 0.041141998
-0.09297543 -0.047181472 -0.10983521 -0.007426913 0.0033811675 0.120385565 0.04369356 -0.08367951
-0.05622337 -0.071087584 -0.059569117 0.13091794 -0.026258035 -0.019283257 0.035300665 -0.06308242
-0.129897 0.027726365 0.045599274 0.06068138 -0.089308865 -0.00987399 -0.08461419 0.00607568
-0.04079973 0.102244616 0.06935081 -0.06805895 -0.11937407 -0.011580935 0.09583724 0.042579032
0.05350033 0.0049816687 0.10177919 0.061340015 -0.09757842 -0.09171335 -0.08527163 0.09319929
-0.09661129 0.032075435 -0.052971035 -0.006581436 -0.055060167 0.08013764 0.0075680576 -0.014277936
-0.06795979 -0.030295834 -0.08813386 0.057797432 -0.06863694 0.0074645164 -0.013041628 0.0785257
-0.032191195 0.027041897 0.018292857 0.008236764 0.007634767 0.11895112 0.069803745 0.0827052
-0.018080985 -0.0010041795 -0.04244621 -0.11259037 -0.07320732 0.07118313 -0.010612386 0.024641465
0.11656268 0.02616262 0.082095474 0.038420986 0.050667476 -0.050446194 -0.07863469 0.041508213
-0.07375352 0.014186655 0.053549867 -0.07114919 0.039848056 0.12572037 -0.09892199 0.06932853
0.08508266 0.052655216 0.07861096 0.04458901 0.028404241 0.11299656 -0.063766435 -0.008077779
-0.00042893185 -0.05355498 0.012921387 -0.0994391 -0.056668166 0.10858979 -0.048745 -0.02080936
0.09700869 0.09520735 -0.108899124 0.034718435 0.07400295 -0.10911457 -0.02832978 -0.15191427
0.12996219 -0.114181325 -0.12756054 -0.047947988 -0.052095532 0.017434556 0.10208083 0.11915035
0.09740182 0.10061889 0.05846462 0.080234654 -0.009261332 -0.10729023 0.030600458 -0.043902293
-0.010846561 -0.07476358 0.005328273 -0.11079423 0.01962031 0.11800557 0.06422655 0.04317065
-0.06834128 -0.046645813 -0.08631665 -0.07673934 0.08847814 -0.12320575 0.050008126 -0.098665975
-0.068032235 0.09429824 0.072248764 0.017467616 0.02310814 -0.06890107 -0.004460464 0.09935845
-0.014950002 0.12743743 -0.03525821 -0.013313415 -0.029082514 0.028633343 0.09785894 -0.021278607
0.10671834 -0.025104165 -0.031066764 -0.07580005 -0.059890456 -0.010239235 -0.115609474 -0.1160837
-0.034259688 -0.008835425 -0.0047442126 0.12001405 0.054730497 -0.08375662 -0.12254184 0.06662431
0.025822816 0.14171731 0.07286321 -0.032457877 0.070863254 0.086833745 -0.05931953 0.07402123
0.111608736 0.05854868 0.030084468 -0.012555956 -0.06314362 -0.08164859 -0.096908346 -0.08089882
-0.0900579 -0.01630236 0.0012761883 0.017179728 -0.029518079 -0.0143484315 -0.00593651 -0.090130456
0.06441006 0.0561728 -0.03559136 0.060684446 -0.01537445 0.13021293 -0.024258 0.047369607
-0.008515703 0.05636376 0.004077864 0.13142583 -0.038838323 -0.08908915 -0.08598085 -0.10773759
-0.07288363 -0.034095224 -0.069303975 -0.06445441 0.10259329 -0.104302794 -0.12092813 0.12407474

main_network.lstm.bias_hh_l0 f4 [256]
00000000: cc45 a4bd 5142 4d3c 501c ad3d 5da4 31bd
00000010: 503d 8ebd a562 8abd c7f4 f23d f564 7dbc
00000020: 8659 9abb 4e2c 56bd d7b7 8bbd 50fe 723d
00000030: 5ee5 a73d c6b3 683d 3f82 c4bd baea bdbd
00000040: 0a32 b4bd 92e8 46bd 04a2 453d b164 18bc
00000050: 92b3 dd3d fbe9 7f3d 353a a3ba 0b72 df3c
00000060: a089 9c3d 048f 9e3d d548 1abd 9d4c 6e3c
00000070: 0c9a c73d 0ce0 37bd 7fcb 47bd 20a5 e8bc
00000080: 547b 633c 885a d93c 80b8 bdbc 680c b23d
00000090: bb61 76bd 2111 d23d c4b0 dfbc 0e42 e43b
000000a0: 607e 013e c85c d5bd bdd2 5abd 1af2 afbd
000000b0: 59a8 99bc c13f d3bd 2974 a9bd 026e a3bd
000000c0: 41de c7bd 96f9 cebb a63d 453d 07af aabd
000000d0: b780 6a3c ae5d 103d b8fd a5bd d5ad 43bd
000000e0: 84ad ab3d 22a1 893d 92a2 bb3b 0a01 04bc
000000f0: 81b4 5bbd 5d74 de3c adc1 d43d 71b2 023e
00000100: 2157 523d a2ac 85bd 5ed5 cb3d eed5 133e
00000110: 4b60 16bd 2a3c ac3c 0a72 613d 3745 62bd
00000120: 683e afbd 1592 e93d d1e7 ce3b 6069 eebd
00000130: 063b d7bc 8a2f a93d a864 dcbd f180 a83d
00000140: 41df e73b b0ca 913d 2a94 0abd c764 443c
00000150: f4ef 89bd 510e 8b3d 5136 2f3c 5790 cb3d
00000160: fba9 ce3d c8ad 99bb 294b ea3d d41a 9d3c
00000170: efe0 923d 1fee 7dbd 7f1e 133d b1fe 15bd
00000180: b008 823d 6b85 65bd 461d ed3c bf40 e93c
00000190: 98a0 afbd 0e02 c2bd d499 51bc 8c8c 4c3d
000001a0: 000b cebd 226d 4bbd 343c 0b3d 9129 e83d
000001b0: e5cf 013d 6df4 10bc 403f 77bc 04ed 793d
000001c0: d42c da3d 267a f2bc d318 b63d 7ee6 623d
000001d0: 7a35 e9bd a92e f4bc 768e 9f3c 8ea3 d2bd
000001e0: 5988 b03c aae5 0abc dd6f f83d 35d1 083e
000001f0: c310 b1bd 18b0 c63d 4ce3 66bc ff39 c2bd
00000200: 03cd d4bd 3b58 10bd fd42 9cbd b974 de3b
00000210: 109a af3c e7a3 483d c2e8 e13d c755 9c3d
00000220: 8636 ce3d 3e80 8b3d 8153 223d 1f59 bbbd
00000230: 627f bd3d 92a0 02be 9e44 f0bd ea92 4e3d
00000240: 637b 4abd f8df 3a3d 5309 cabc 1bdb 463c
00000250: 05f9 dd3d ea5f 7cbc eb44 c1bd 69dc 0c3e
00000260: dc87 93bd f79a c3bd 7c2d ddbd 1f18 3ebd
00000270: 3bc5 f83d f1b3 d43d c2b5 dbbd e4aa 60bd
00000280: d229 d53b 0d54 d8bd f1fb 86bd 8632 db3d
00000290: da92 0a3e 7ca3 903d 8823 fcbd 619b 73bd
000002a0: 785f 93bc 3fdb 113e f1c1 ecbd 8f9d d23c
000002b0: d0c0 fb3d 9782 9dbd 4ae7 cdbd cd27 5ebd
000002c0: a7d2 de3c 667e 9ebd 0fb4 bebd 0f45 5f3d
000002d0: 6661 223d fc87 82bd 4f94 e6bd 86db a8bb
000002e0: fa48 ed3c f448 9bbc 394c 04bd 2737 953c
000002f0: 8998 783d 29dd e13d 8931 9ebd e1a3 b7bc
00000300: 41a4 d33d 11c1 a3bd 1401 0b3c 6829 abbd
00000310: 68d7 d9bd 5bbe b1bd a5d0 c6bd 3ff4 64bd
00000320: 1e14 803d 873a 2c3d cba4 9a3d 676b 843d
00000330: 24ae 8abc a99d eabd d12d e43d 81fd 203d
00000340: 86e6 943d 9cf9 0e3e eee9 57bb 04e4 d5bd
00000350: 49c2 91bd b2ad d0bd 2078 af3c 6bb0 1abd
00000360: da60 bcbc b130 d83c 76d1 853d 4548 673d
00000370: 26e1 4d3c 97fe 813d ba50 923d 6a78 b1bd
00000380: 7528 e93d e108 a73b 1544 d6bd 048e 443d
00000390: 63ec efbd e92e 363d 3334 e13c 15da d43c
000003a0: d6c1 b3bd ab9b ef3c 75d9 debd 0315 d03d
000003b0: be13 fa3d c90e f53d 94aa 233c 32d6 953c
000003c0: 5031 833c 3f86 8fbd b242 d8bd 1cc9 063e
000003d0: 31ff 133d 4715 82bd 90c0 47bd 67e6 8a3d
000003e0: 815b d9bb a0cc 233c fa55 ea3d d516 3ebd
000003f0: 9ce0 9c3d 34b6 dd3c 2e42 d3bc 5ac0 edbd
-0.08021125 0.012528018 0.08452666 -0.04336964 -0.06945288 -0.06757096 0.11863094 -0.015465965
-0.004710379 -0.052288346 -0.06822174 0.059324563 0.08198045 0.05681207 -0.09595155 -0.09273286
-0.08798607 -0.04856164 0.048250213 -0.00930135 0.10825266 0.062479 -0.001245326 0.02727606
0.076434374 0.07742122 -0.037667114 0.014544633 0.09746179 -0.044891402 -0.048778053 -0.02839905
0.013884384 0.026532426 -0.023159266 0.086937726 -0.060151797 0.10257173 -0.027305968 0.006965882
0.12645864 -0.10418087 -0.053423632 -0.08591099 -0.018757032 -0.103148945 -0.08274109 -0.07979967
-0.097591884 -0.006316374 0.048154496 -0.08334165 0.014312915 0.03524559 -0.08105034 -0.0477732
0.08382705 0.06720187 0.005726167 -0.008056888 -0.05363894 0.027155096 0.10388503 0.12763382
0.051352624 -0.06527068 0.09952806 0.14437076 -0.036712926 0.021024782 0.055040397 -0.05524179
-0.08556825 0.11404816 0.0063142558 -0.116411924 -0.026273262 0.082610205 -0.10761386 0.082277186
0.0070761745 0.07118738 -0.033832707 0.011986918 -0.067352206 0.0678984 0.010694102 0.0993964
0.10091015 -0.004689906 0.11440117 0.019177832 0.07171809 -0.061994668 0.035917755 -0.036619846
0.06349313 -0.05603544 0.028944623 0.028473256 -0.08575553 -0.09473048 -0.012793023 0.049938723
-0.10060692 -0.049664624 0.03399296 0.11336053 0.031692404 -0.008847338 -0.015090764 0.06101705
0.106530815 -0.02959926 0.088914536 0.055395596 -0.11387153 -0.029807406 0.01947711 -0.10285102
0.02154939 -0.008477608 0.12130711 0.13361056 -0.08645775 0.09701556 -0.014092278 -0.09483718
-0.103906654 -0.035240393 -0.076299645 0.006788817 0.021435767 0.048984434 0.11030723 0.07633548
0.10068993 0.0681157 0.039630417 -0.09147858 0.09252812 -0.12756565 -0.11731838 0.050433077
-0.049434077 0.04562375 -0.02466265 0.0121372 0.10838512 -0.015403727 -0.09436973 0.13755955
-0.072036475 -0.095510416 -0.10799691 -0.046409722 0.12146994 0.103858836 -0.10728027 -0.054850474
0.0065052295 -0.105629064 -0.06591023 0.10702996 0.13532582 0.07062432 -0.123114645 -0.059474353
-0.017989859 0.14243792 -0.11560429 0.025709895 0.122926354 -0.07690924 -0.100538805 -0.054237176
0.027200056 -0.07738952 -0.09311687 0.05450922 0.039643668 -0.06373593 -0.11258756 -0.0051531224
0.028965462 -0.018955685 -0.032299254 0.018214775 0.060692344 0.11028511 -0.07724292 -0.02241701
0.10334063 -0.07995809 0.008484144 -0.08357507 -0.106367886 -0.086788855 -0.097077645 -0.055896994
0.06253837 0.042048004 0.07550963 0.06465798 -0.01692874 -0.114558525 0.11141551 0.03930426
0.07270531 0.13962406 -0.003294583 -0.10443881 -0.07117135 -0.1018938 0.021419585 -0.0377659
-0.022995401 0.026390405 0.06534092 0.056465406 0.012565887 0.06347387 0.071443036 -0.08665545
0.1138467 0.005097494 -0.10462204 0.047987 -0.11715009 0.04447833 0.02749071 0.025982896
-0.08777206 0.029249033 -0.108813204 0.10160258 0.12210797 0.11965711 0.009989399 0.018290613
0.016014725 -0.07008027 -0.10559596 0.13162655 0.03613204 -0.063517146 -0.048767626 0.06782227
-0.0066332226 0.009997517 0.1144218 -0.046408493 0.07660028 0.02706442 -0.025788393 -0.11608954

main_network.fc.weight f4 [3, 64]
00000000: 837c 893d 05f5 963d 433e 1abd d3bd 15bc
00000010: c4f5 05be 35b8 76bd 83e7 f03d 9c44 093e
00000020: 58d2 c4bd bae6 f5bd d150 99bd d9b5 71bd
00000030: 5506 24bd 0ed6 253d e9ff d6bd 648b 3cbc
00000040: ba91 e83d b054 7b3d 0311 1abd b6e0 a83c
00000050: 8fcc c23d d1e4 f13d f11d f0bc 7add a53d
00000060: dce7 86bc 2096 42bd 5740 8e3d b1f5 2cbd
00000070: c4f2 b83d 1056 e6bb 7067 5e3c a785 cabd
00000080: 3412 86bc d044 f7bd 4f21 d4bd 234b 72bd
00000090: 6ee4 423c 809e 013e 6b9e 543d de04 923d
000000a0: 5764 c7bd 9ea4 fa3b c802 f5bd a537 ecbd
000000b0: 6224 e03d a962 2a3d f2b8 35bd 7d2d 51bc
000000c0: b9ce 4a3d 2bdb 303d 72d4 1bbd 6ee0 cc3d
000000d0: bc1a 473d 2592 de3d e80d 303d 109e c2bd
000000e0: e38a f8bb 29a9 86bd 8880 29bc 7bc4 ae3d
000000f0: 4d14 1dbd 8e50 0ebb 2ef3 82bd f031 16bd
00000100: b1b7 71bc 4cd2 3d3d a30b 98bd d356 543d
00000110: 1714 463d 9724 d23d 2b3a cfbd 9276 e1bd
00000120: eb44 dcbd 2e8b ddbc fec2 ca3d 3543 eb3d
00000130: ff39 e53d a8bc 7ebd 7054 f73d 0c96 163d
00000140: e311 123d a3f9 593d 256b 8f3a 7516 653c
00000150: 7ea8 5ebd 38fa 763d 795e cdbd e1b2 da3d
00000160: edbd a43d dcee 8abd 8ff4 90bd 12bf e23d
00000170: 3a01 f7bb 9a57 fbbc cd5f 8f3d fd62 b3bd
00000180: 5ceb c0bd 2f6b d23d 1657 d13d f249 bf3d
00000190: e3c9 283b 5fd7 8ebd 5a12 8f3c 67b2 1c3d
000001a0: e176 ce3c 960a bebd 6dca d03d 70a0 da3d
000001b0: 4605 1c3c 2253 0fbd ac29 acbd 1278 ff3d
000001c0: c5c8 2cbd 43f3 c3bd b934 f7bd 4a41 b53d
000001d0: 9367 eb3d 9d0b ef3c 0725 b8bc dbaa bcbd
000001e0: 400f be3d 8abd ff3b baad cd3d 442c 803d
000001f0: 35ee c93d 26a3 d43d 5066 cd3d d5b4 bb3d
00000200: 145b cfbd 42ae 92bb 20cb 85bd 93ff 19bd
00000210: bc6f 14bd 4b41 363d 6162 3dbd 5a12 8c3b
00000220: 10ad 833d cd2d e0bd 4db5 80bb fbc4 d63c
00000230: 4bba 1dbd 90cd 16bc aff0 e4bd 66c6 d7bd
00000240: b4c2 833d 5aa2 923b 67a6 94bd 873d a33d
00000250: 5718 fb3d 0b71 50bd ac33 053c 01c9 073e
00000260: 4d54 cfbd fd53 66bd a501 a3bd 197b b33d
00000270: 58e9 8c3d 8b2e d3bd 06c7 37bd 0fe7 45bd
00000280: 19a8 d73d 7db5 a3bd c107 9a3d eb59 c4bd
00000290: 49c1 d13d 4c52 693d c98a 04be cc33 a4bd
000002a0: 3499 09be 938c da3d c566 563b 9fc4 623c
000002b0: 97e3 a13d cef4 5b3c 6a63 0cbe 8fbd b2bd
000002c0: a585 a83d 4dd7 ef3d 00db df3d e130 803d
000002d0: 1128 e53d 935e adbb 0d0d 90bd d3b0 23bd
000002e0: 078c b6bc 7c70 cd3c fd52 c63d c379 edbd
000002f0: e476 84bd a94c 253d f87d 133c ce9a 58bd
0.06713202 0.073709525 -0.037657034 -0.009139496 -0.13082033 -0.060234267 0.11762907 0.13405079
-0.096104324 -0.12006898 -0.07486118 -0.059011314 -0.0400451 0.04048734 -0.1049803 -0.011507843
0.1135592 0.06136006 -0.03761388 0.020614963 0.09511673 0.118112214 -0.029311152 0.08098884
-0.016467981 -0.04750645 0.069458656 -0.042226497 0.09030679 -0.0070293024 0.013574466 -0.098887734
-0.016366102 -0.12073672 -0.103579156 -0.059153687 0.011895282 0.12658119 0.05190889 0.071298346
-0.09735935 0.0076490184 -0.11963421 -0.11534051 0.109444395 0.041597996 -0.04436583 -0.012767193
0.049513552 0.043177765 -0.0380444 0.10003744 0.04860948 0.108677186 0.042982012 -0.09502804
-0.007584916 -0.065752335 -0.010345586 0.085335694 -0.03834944 -0.0021715495 -0.06394039 -0.036668718
-0.014753268 0.046343133 -0.074240945 0.051840615 0.048359003 0.10260885 -0.101185165 -0.110089436
-0.107553326 -0.027043905 0.09900473 0.11487428 0.111927025 -0.062191635 0.12076652 0.03676419
0.03566159 0.053216588 0.0010941966 0.013982405 -0.054359905 0.06029722 -0.10027785 0.1067865
0.08044038 -0.0678384 -0.07077896 0.110716 -0.007537988 -0.03068142 0.070006944 -0.08759115
-0.09419891 0.1027435 0.102216884 0.09340276 0.00257551 -0.069746725 0.017464805 0.038256075
0.02520317 -0.09279363 0.1019486 0.10675132 0.009522742 -0.03499139 -0.08406386 0.124740735
-0.042183656 -0.09567883 -0.12070603 0.088503435 0.114943646 0.029180342 -0.022478594 -0.092122756
0.092802525 0.0078045772 0.10042901 0.06258443 0.098598875 0.103826806 0.1002928 0.0916535
-0.10124794 -0.0044763396 -0.06532884 -0.03759725 -0.03623937 0.044495862 -0.0462364 0.0042746486
0.064294934 -0.10946236 -0.0039278627 0.026216974 -0.03850774 -0.009204283 -0.11178719 -0.105358884
0.06433621 0.00447492 -0.07258301 0.0797072 0.12260502 -0.050889056 0.008129995 0.1326027
-0.10123501 -0.05623244 -0.07959298 0.087637134 0.06880444 -0.10311612 -0.044867538 -0.048316058
0.10530109 -0.079936005 0.0752101 -0.09587463 0.10241944 0.05696325 -0.12943567 -0.08017692
-0.13437349 0.10671344 0.0032715064 0.013840823 0.079047374 0.013425065 -0.13709798 -0.08727562
0.08228616 0.11710987 0.10930443 0.06259323 0.11189283 -0.005290815 -0.07033739 -0.039963555
-0.022283567 0.02507805 0.096837975 -0.1159549 -0.06467989 0.040356312 0.009002201 -0.05288201

main_network.fc.bias f4 [3]
00000000: 7ca8 bf3d 177c cabc 60b2 1d3d
0.09358308 -0.024717374 0.03850019

short_term_context_network.fc1.weight f4 [32, 7]
00000000: 24d5 853e 8baa 23be 10e1 8bbe 3963 023e
00000010: 0010 6dbe afe7 b03e 3efc 423e 9063 603e
00000020: 547a 86be 2929 9e3d 3074 2dbe 9aa2 85be
00000030: e0f4 fabd c8c3 bb3e 2b36 5bbe 1b4b 81bb
00000040: 6403 c03d 06a4 4f3d 488a c63d 3a57 bdbd
00000050: 00ff 55bd d513 253e 3478 c0bd 24f7 1c3e
00000060: ca3d 87be ce86 55be 523f aebe 712d 783e
00000070: b478 a5be a2a3 b5be 67a3 9e3e 609e 8b3e
00000080: 0bba 18be d8b9 5f3e 70a8 943d d2e0 a73c
00000090: 54cc 7b3c 1bc4 bdbd 1ed9 58be 0dfc 213e
000000a0: 5306 8a3e d913 95be 1850 debd 77a8 583e
000000b0: 2907 aa3e b919 23be 562e a13d 4642 d9bd
000000c0: ef6b 583e 2e79 913e 3cfc 703e 8564 a43e
000000d0: cea4 e13d 0fa1 35be ae54 40be 4da4 ec3d
000000e0: dfbd e83d 0606 67be c97c 3c3d 3caa 1a3e
000000f0: c915 aabe 111e b7be 9366 323e c8e2 303e
00000100: a011 91be ad4e ea3d 5305 a0bd 6095 5cbe
00000110: 0660 a13e 7f24 8b3d 6a07 9fbe 4426 12be
00000120: 3d34 81bc b571 b5be 5b6b ec3c f7ba fa3d
00000130: 79e2 8cbe 6d2e 633e 5425 7cbe 56c0 b43e
00000140: 222e 0ebe fa71 2f3e c1ca eabd 4911 c23e
00000150: d0eb 8e3c 69e8 8ebe ba26 8f3e c928 4fbe
00000160: 47cf d23d 5384 623e a2c8 793e 6cf3 f2bd
00000170: 2fb6 c03e 872b 82be a0ab be3e f620 02be
00000180: 108b 81be a606 1d3e d9da 963d 0e08 a3be
00000190: 04f0 86bd 43b0 693e a37f ac3e e848 c9bd
000001a0: 3eb0 4bbe b1c2 a3be d116 aa3e c518 f63d
000001b0: 0e2f bebe d827 ac3e 1553 6ebe bbc0 a6be
000001c0: 512a 813e dee7 0d3d 0565 a83e 2341 963d
000001d0: 66bf 94be f9be 983c 0737 8bbd a291 5c3e
000001e0: 323a 3c3e be21 923d f897 7f3e 929d e6bd
000001f0: 8778 b6be 9e69 d03c d23a 133e 93bb b13d
00000200: 1189 88be 6b05 943d 7322 873e 9f73 92bd
00000210: d32b 3c3e 7e14 b13e 3f33 afbd 9fef ecbd
00000220: 4c42 5abe f5b0 463e 1cc8 523d 1b4e 993d
00000230: 295f e73d 4083 51be 5576 bbbe 76c1 77be
00000240: 1a95 843e 0f36 0ebe d636 08bd b4a5 c1bd
00000250: 38ac 143e 663c 8dbe bbe5 9abe edf2 7d3e
00000260: 808c efbd bca3 9a3e 595a 9dbe d826 8c3c
00000270: 3177 b3be 4894 933e 3be5 f63c f25d 423e
00000280: 49f9 0c3d c554 0dbd 7dad 6f3e 2549 0e3d
00000290: 4fc2 a13d f202 a43e 52fb a9be c512 16be
000002a0: 70ff 313e 3502 afbd 02b4 97be 91d1 05bd
000002b0: 169b 633e 3d52 403e 106d cebd 8a9c dabc
000002c0: c557 2abe 7202 513d cc31 ae3e cba9 aebe
000002d0: 7e8c 823e 29dc 023e bb15 08be 04aa a33e
000002e0: 098e 8abe 6db6 aebe 6358 d3bd d817 833b
000002f0: bf9b 56be 7ce3 993e d7c3 0f3e 1be8 e3bb
00000300: f5af 633e aa9d c83d a4c0 56be 9222 d93e
00000310: 5045 aabe a8f3 523e 673e f03d 7b94 37be
00000320: 4cbd 17bd 4e59 b1bd 85d9 61be 6994 fabd
00000330: 2154 97bc 50df 8fbd 98fe bbbe 54dd 923e
00000340: aa3f fc3d 8fe5 b23e 0636 a5be 670e 753e
00000350: 700e 77be 7b4f d9bd a89e b5be 92cc 2e3e
00000360: 8107 f23d ba02 9dbe 0fa6 73bd 245b 733e
00000370: 221e 95be 0b54 2f3e b28c e83b 8987 ce3d
0.26139176 -0.15983026 -0.27320147 0.12733163 -0.23150635 0.3455176 0.19041535 0.2191298
-0.26265204 0.077226944 -0.16938853 -0.26100618 -0.122537374 0.36672807 -0.21407382 -0.003945721
0.09375647 0.050693534 0.09694344 -0.09245153 -0.05224514 0.16120847 -0.09397927 0.15328652
-0.2641433 -0.20852205 -0.34032685 0.24236085 -0.32318652 -0.35476404 0.3098404 0.27269268
-0.1491472 0.21848238 0.072586894 0.020492945 0.01536854 -0.0926592 -0.21176574 0.15818806
0.2695795 -0.29116705 -0.108551204 0.21158014 0.33208588 -0.15927781 0.07870166 -0.10608344
0.21134923 0.28412765 0.2353372 0.3210794 0.11017762 -0.1773722 -0.18782303 0.115547754
0.1136434 -0.22560892 0.046017442 0.15104002 -0.33219746 -0.35765126 0.17421941 0.1727401
-0.2833376 0.114407875 -0.078135155 -0.21541357 0.31518573 0.067940705 -0.31060344 -0.1427241
-0.01577198 -0.35438314 0.028859785 0.12242692 -0.27516535 0.22185679 -0.24623615 0.3530299
-0.13884786 0.17133322 -0.114644535 0.37903813 0.017446429 -0.2791169 0.27959234 -0.20230402
0.10293441 0.2212079 0.24392942 -0.11862835 0.37638995 -0.25423834 0.37240314 -0.12707886
-0.2530141 0.15334567 0.07365961 -0.31842083 -0.06588748 0.22821145 0.3369113 -0.09828359
-0.1989145 -0.31984475 0.33220533 0.12016443 -0.37145275 0.33624148 -0.23273881 -0.32568917
0.25227597 0.034644954 0.32889572 0.073366426 -0.29052275 0.01864575 -0.06797605 0.2153993
0.18381575 0.07135342 0.24960315 -0.11260523 -0.3563883 0.025440987 0.14377907 0.08678355
-0.26667073 0.07227596 0.2639347 -0.07150959 0.18376093 0.34585947 -0.08554696 -0.115691416
-0.21314353 0.19403441 0.05146037 0.074856006 0.11297447 -0.20460224 -0.36613718 -0.24194893
0.25895005 -0.13887809 -0.03325542 -0.094554335 0.14518821 -0.27585143 -0.30253395 0.247997
-0.1169672 0.30203044 -0.30732992 0.017108366 -0.35051873 0.28824067 0.030138602 0.1898115
0.034417424 -0.03450467 0.23406024 0.034737725 0.078983895 0.32033497 -0.33199555 -0.14655598
0.17382598 -0.08545343 -0.29629523 -0.03267056 0.2222713 0.18781371 -0.10079396 -0.026685972
-0.16635044 0.051027723 0.34022367 -0.34113917 0.25497812 0.12779297 -0.1328954 0.3196565
-0.2706149 -0.34123555 -0.10319593 0.004000645 -0.2095785 0.3005637 0.1403955 -0.0069551594
0.22235091 0.09795697 -0.20971924 0.42409188 -0.33256006 0.2060076 0.11730652 -0.17927735
-0.037045762 -0.08659612 -0.22055633 -0.12235338 -0.018472733 -0.07025015 -0.36717677 0.28684485
0.123168305 0.34940764 -0.3226778 0.23931275 -0.24126601 -0.10610863 -0.35472608 0.17070225
0.118178375 -0.30666143 -0.059484538 0.23765236 -0.29124552 0.17121904 0.0070968503 0.10084445

short_term_context_network.fc1.bias f4 [32]
00000000: 6cb9 cc3e d05b b3bd 78ff 613e f691 20be
00000010: 6bbe 9b3e 0409 93be f8b1 f3bd a860 8e3e
00000020: c0ad b4be aed5 283e 6be3 64be bfc5 463d
00000030: 9092 bcbe b667 33bd e16a 9a3e c250 b2be
00000040: e171 223d 2ef6 6f3e f470 a6bd c9ac 56be
00000050: 6677 8e3e f138 adbe 004b 5e3e 78e6 323e
00000060: 5d0c cc3e 6905 86be 184a 60be 2cd8 d6bb
00000070: dd87 9dbe ea62 6cbd 58ad 3fbe efab 9e3e
0.39985216 -0.08757746 0.2207011 -0.1568068 0.30418715 -0.28717816 -0.11899179 0.27808118
-0.3528881 0.16487762 -0.22352378 0.04852843 -0.36830568 -0.04380008 0.30159667 -0.34827238
0.039659385 0.23433754 -0.08127013 -0.2096435 0.2782547 -0.33832505 0.21708298 0.1747073
0.39853182 -0.26176003 -0.21903265 -0.0065565314 -0.30767718 -0.05771152 -0.18718469 0.3099055

short_term_context_network.fc2.weight f4 [16, 32]
00000000: a322 ccbd 8520 48bd 1b77 45be 76bb e7bd
00000010: c21f 05be 6879 883d 8783 3bbe af63 0a3d
00000020: defb 21be f321 23be d736 90bc d975 eb3d
00000030: 2dd2 a23c a4be 033e 6868 f33d 613a 5fbd
00000040: d2ee cdbd ef50 d6bd 3516 fb3d 949f 12be
00000050: 113f f73d 7afd 0f3a 5997 2cbd 8e3f debc
00000060: d0f2 8d3b 38fb a93c 159f c93c 81e1 65be
00000070: ce4c cfbd 4503 12bc 12a3 0c3d 9a31 3e3d
00000080: 4b95 b23d 34cf dcbc 8e4f 413e 0d6e e33d
00000090: 5dcb 41bd a0ed dbbd d6fa af3c c289 cabd
000000a0: 1120 d53c 6957 273d b36a ed3c 2f6f 39bd
000000b0: d36c d33d b3b1 cebd b9b5 023e e3bd 2bbe
000000c0: 7045 ce3d af8b 5a3e e6bf 8bbd 48dd 21be
000000d0: ebc6 143e f293 623d 289f 133e e411 953c
000000e0: 2d93 913d 01ed aa3c 3cbc 5d3d 83e6 453c
000000f0: 27ff 7dbc d1ca 1a3e c128 19be 6a41 233d
00000100: 2b69 ffbd ace6 24bd 2680 e63d 136e b5bd
00000110: 7672 193e 8c46 91bc f16a febd a024 e3bd
00000120: fa45 5c3d c594 97bd cb63 313e 28fb f6bd
00000130: 4069 2cbb 090b 05bc 46db 2fbe 0e85 55bd
00000140: 4c41 dd3d 56e6 60bd c227 31be 77a1 e5bd
00000150: c425 2abe 22a9 93bc 973a 05be ab6d e33c
00000160: a20a 32be 110a 0c3e c857 f6bd 9b9c 2cbd
00000170: c6c0 1bbe 4bba 8c3d 7569 1abd 7bf4 1e3e
00000180: 4719 59bd 6d24 2c3e 86cd cabb 2260 88bd
00000190: 2ff8 06bd 7a89 4abd 53bc bcbd 7da3 433d
000001a0: bfff 08be 7b69 1c3e 43fc b53d 7dfb 3a3e
000001b0: 996e 7cbd 46b5 0fbe 32f2 0f3e 6d39 3a3d
000001c0: 9d64 c23d 3f31 a93d 4e1a 583e d2d6 0b3d
000001d0: 60df 5d3e 02b4 10be befc a03d 2163 543e
000001e0: 1046 503e 2833 023d a422 a1bd 3f12 ebbd
000001f0: f664 db3c 5aa9 cabd 4cd5 ef3d ae6a 643e
00000200: 69d3 d1bd 033f 14be 733d 94bc f78a cd3d
00000210: b0fa b8bd 30a4 8a3d 7789 d73d b13e 243b
00000220: e539 5f3b 2c6b 803d 2756 f93d 77ec 1bbd
00000230: 9f3d 653a f39c 303e c08c b2bc 9e90 65bd
00000240: 6bb5 74bc 370e d1bc f3f9 1abd 0b2c dcbd
00000250: 9278 f0bd 4fbb aebc 12ce 1abe 53a6 10be
00000260: 2487 14bd 1f4c 1abe e6bb 18be 870f a1bd
00000270: 6b86 173e ae67 46bd b5f1 2bbe 4a9f 17be
00000280: 795e 1a3e d5e9 b23d 9bd7 7ebd 8cfd 7fbd
00000290: 10a1 123d 6198 abbd 8bf4 af3d c7e5 213e
000002a0: e9c0 a0bd 92c3 3d3e 4801 273e 23b5 b4bd
000002b0: c461 00be 1ade d5bd cda0 003e 230f 093e
000002c0: a3ac b83d e7d4 1f3e c810 543d 32d7 a5bc
000002d0: c1ae ad3d 2569 f7bb 4e73 a5bd c69d d4bc
000002e0: 76f9 203e d5d6 d43d a1a1 263c fc7d 1abe
000002f0: c08d 7dbc ebc0 1dbe 2dd4 26be 408b ab3a
00000300: a73f 0e3e 48f6 7bbc e9dc 28be fcfe 13be
00000310: a9a7 05be 9fa2 d13d a7bf da3d e688 19be
00000320: 9d57 c8bd f6ad 19bd 8f1d 99bd a88a e83c
00000330: 2ede 083d 9a35 b83d b1c9 a6bd 406c d33c
00000340: b470 f9bd 2b3a 7f3c 6dd2 833d d8af 2abe
00000350: 286d 253c 0848 28be 5f15 2cbe 5bda 823d
00000360: 80c7 abbd 3e5a e63d 2e4f 733d e5d8 bf3d
00000370: 3ebd 86bd 9efd 17be 3d3e 0e3e 44df 903d
00000380: 9b6f 42be 3424 d73c 1ca2 ddbd ab45 20bc
00000390: e8da 063e c492 53bd 14fa 23bc b638 1cbe
000003a0: 4e1b 4b3d 9ba2 fc3c 319d 1f3e 7772 26be
000003b0: 9f2d 43bd 056b 0b3e 3438 f7bc 2e08 99bd
000003c0: 2c98 e23d e92e f2bd b19b 563d cf8c 22be
000003d0: 822a 41bd de2d febd 007a 153e 6607 d13c
000003e0: 2a07 27be ddbe c43b d85f fb3b 61fc 023e
000003f0: c56c fb3d f1ce 2ebc 9375 943a dd48 4fbd
-0.09967544 -0.048859138 -0.19283716 -0.11315052 -0.13000396 0.066637814 -0.18311892 0.033786472
-0.15818736 -0.1593092 -0.017604275 0.11497087 0.01987561 0.12865692 0.11885148 -0.054499034
-0.10055317 -0.104646556 0.12260095 -0.14318687 0.12072576 0.0005492788 -0.042136524 -0.027129915
0.004331924 0.020749673 0.024611989 -0.22449304 -0.10122071 -0.008911912 0.034335203 0.046434022
0.087198816 -0.02695427 0.18878004 0.11104975 -0.047313083 -0.10738683 0.021481913 -0.098895565
0.026016267 0.040854845 0.028981542 -0.04527205 0.10323491 -0.10092487 0.12764634 -0.16771655
0.10071838 0.21342348 -0.06823711 -0.15807068 0.14529006 0.055316873 0.14416182 0.018197007
0.0710815 0.020864965 0.054134592 0.012078884 -0.015502728 0.15116431 -0.14956953 0.039857306
-0.12471231 -0.04025905 0.11254911 -0.088588856 0.1498507 -0.017733835 -0.12422741 -0.1109097
0.053777672 -0.074014224 0.17323224 -0.12059623 -0.002630785 -0.008120307 -0.1717349 -0.052128844
0.1080347 -0.054907165 -0.17300323 -0.112124376 -0.16615969 -0.018024985 -0.13010632 0.027762255
-0.17386869 0.13675715 -0.12028462 -0.042141538 -0.15210256 0.0687147 -0.037698228 0.1552295
-0.053002622 0.1681077 -0.006189051 -0.06658961 -0.03295153 -0.049447514 -0.092156075 0.047763336
-0.1337881 0.15274613 0.08886006 0.18259998 -0.06162891 -0.14033994 0.14057234 0.04546492
0.09491847 0.08261346 0.21103784 0.034140415 0.21667242 -0.14131168 0.07860707 0.2074094
0.20339227 0.031787068 -0.07867935 -0.114780895 0.02678154 -0.098955825 0.11710605 0.2230632
-0.102454014 -0.14477162 -0.018095708 0.10036271 -0.0903219 0.067695975 0.10524266 0.002506178
0.0034061607 0.062704414 0.121746354 -0.038067307 0.0008744839 0.17247371 -0.02179563 -0.05604612
-0.014935832 -0.025519473 -0.037836026 -0.10750588 -0.11741747 -0.02132955 -0.15117672 -0.14125948
-0.036261693 -0.150681 -0.14915428 -0.0786429 0.1479737 -0.04843872 -0.16791423 -0.14806858
0.15075101 0.08736006 -0.062217336 -0.06249766 0.035798132 -0.08378673 0.08591565 0.1581031
-0.07849295 0.18531635 0.16309083 -0.088236116 -0.12537295 -0.10442753 0.1256134 0.1338468
0.09017303 0.1560856 0.051773816 -0.020244215 0.08480597 -0.007550376 -0.08078633 -0.025954138
0.15720162 0.103925385 0.010170371 -0.15087122 -0.01547569 -0.15405624 -0.16291876 0.0013087764
0.13891469 -0.015378542 -0.1649052 -0.14452738 -0.13052239 0.10236096 0.10681086 -0.14993629
-0.09782336 -0.037519418 -0.07476341 0.028386429 0.033415012 0.08994599 -0.08143938 0.025808454
-0.121796995 0.015577833 0.0643662 -0.16668642 0.010096826 -0.16433728 -0.16805027 0.06389304
-0.08387661 0.11247681 0.059401684 0.09367541 -0.06579064 -0.14842841 0.1389093 0.070738345
-0.18987887 0.02626238 -0.108219355 -0.009782235 0.13169444 -0.05165364 -0.010008354 -0.15256009
0.049586587 0.030839255 0.15587308 -0.16254602 -0.04765093 0.13615043 -0.030178167 -0.07472263
0.11064181 -0.11825354 0.052394573 -0.15874027 -0.04715968 -0.12411092 0.1459732 0.025516223
-0.16311327 0.006004198 0.0076713376 0.12791587 0.122766055 -0.010669456 0.0011326544 -0.050606597

short_term_context_network.fc2.bias f4 [16]
00000000: 8c30 5abd 5be1 4a3e 7241 08be bcf7 b1bd
00000010: 9e66 31be ff9b debd e72b 0cbb 0f55 103e
00000020: 4cfe 31be feb6 2dbe f023 013d 252a 4e3e
00000030: 80ab 763d 415c 42bd fbe1 753c 9875 133e
-0.053268954 0.19812529 -0.13306215 -0.0868983 -0.17324302 -0.10869598 -0.0021388473 0.14094947
-0.17382163 -0.16964337 0.031528413 0.20133264 0.06022215 -0.04745126 0.015007491 0.14400327

short_term_context_network.fc3.weight f4 [1, 16]
00000000: fcae 94bb b4f9 7c3e 40fa 25be a642 0d3e
00000010: 9007 f53d 9326 bb3d 00c7 2c3c 6e71 cbbd
00000020: de95 cfbd f26e c13a f1b9 0f3e 2e4b f33d
00000030: c78e f8bd 8607 6b3e cc01 c5bd 54f8 5f3e
-0.0045374613 0.24704629 -0.16208744 0.13794956 0.11964333 0.09138217 0.010545492 -0.09933744
-0.10136007 0.0014757796 0.14035775 0.11879574 -0.121366076 0.22952089 -0.09619483 0.21872073
