Uni_Research/IRL/Final/Extended/Testing_Suite/model_SC_C10000_R0_S10.0.pth (torch, 91353 bytes, 11 tensors)

main_network.lstm.weight_ih_l0 f4 [256, 15]
00000000: 9642 d9bd 7db8 23bd 1bb2 b7bd c825 91bd
00000010: c595 ebbe b898 34be cf02 eebd e327 39bf
00000020: 052a 47be 344c 9bbe 7a48 debe 4c3a e1be
00000030: 04bf 86be 8408 94be bfe2 aabe 820c 4f3e
00000040: 4a08 8e3c 37c7 3dbe 5da3 843e 01d5 05be
00000050: a451 41be 888c b8be 9667 703e 614a 6ebe
00000060: b169 b23e ecc5 813d c10f 1dbe 83e1 ab3d
00000070: 981d c33c e40e 6f3c fae8 0bbe 7b18 90be
00000080: c5fe 9bbd a26f b4bd cbb8 c23d e8ca 67bd
00000090: c0b5 9f3d d9b0 f9be 0b80 11be dc93 b7be
000000a0: c2dc 903d ce98 2abd 1c2a c4bd c6d8 2ebe
000000b0: 7664 833c 3bff 81bd f0b8 c5bd 7193 bbbd
000000c0: adc4 a53d fd6c 253e a574 acbb c917 8abe
000000d0: 2a6e 193f 85a1 0bbe 353c 553e a811 023f
000000e0: 0549 efbd 839b bfbd 64a4 ac3d c92b 2ebe
000000f0: ba69 633e da79 8abe 0519 98bd 4ca5 bf3e
00000100: cb56 edbd b1d0 05be f841 4abe 9795 963e
00000110: cd8e b5be 195d 20be 765f f4be 1c80 9bbe
00000120: aa43 03bf bdfb 9cbe 3622 7f3e 7017 6d3e
00000130: a32c 7c3c b6c4 22be 6edc 1dbe 3cff 31be
00000140: 8259 65be cc63 51bd 0f62 8c3e 8cdc 09be
00000150: 9037 5e3e a38f bb3d 377b 72be abd7 33be
00000160: e4fd 4fbe 9362 76bd 57d2 07be 1484 fa3d
00000170: c84a 58bd d184 debe e588 00be be0e c0bd
00000180: 2af0 95be 9633 14be 26b9 10be 73a3 e1be
00000190: b4e7 e73d 3e67 5c3e d73d d0bd 801d aebd
000001a0: b569 59be d8f9 89bd 4e0f e5bc a8e0 953e
000001b0: dbd3 debd a3ec 043e 5c5b b13a 1db7 983d
000001c0: 1639 933d c285 0ebe 0c15 79be 8871 e03e
000001d0: 94f6 2abf 4473 8abe e676 bdbe 482d 86bd
000001e0: a0c0 cf3d 14db 39be 9c15 0d3e 188d 973d
000001f0: 1f13 3a3d b18d a6bc 6c3f 8fbe 50db ac3e
00000200: 35f9 a03b b133 b2bd 5c06 19be a34a 963c
00000210: 0d32 d33d da61 83bd c2f9 37ba 279a e9bc
00000220: 0a6b 103d ab11 26bd 7993 9bbc 0787 da3d
00000230: 7fea 9fbd e32e e83d 8d9f 023e bfe5 debd
00000240: 6bba ea3d b747 1c3e 336b 04be 7faf 163d
00000250: 7060 34bd 5d94 403e dd73 be3e 65b3 453e
00000260: 2520 ae3d fc6a 653e f32d 2d3e 7991 38be
00000270: b610 7b3e a164 f8bd 5b40 b3bd eafd 7b3c
00000280: 1d11 5bbe c34f 02be 4e32 07be f256 993c
00000290: 93bf 053e 2b57 133e c422 10be b7b7 e3bd
000002a0: 4d0f 613e f90d 09be 7503 e4be d2ae 813d
000002b0: 5f49 4f3d d222 553d 5760 dfbe f367 90be
000002c0: eb1c 8dbd 337f d7be 0599 02be 64d9 fcbb
000002d0: 5c1e 973e 67e7 283d 6e1f 553e 02b1 1b3f
000002e0: cdfa 62be cbd7 abbe 6743 903e 564a 423f
000002f0: f9bf 50bd f7eb 39be 844b a3be 8229 ef3d
00000300: bce8 133e 9f95 053e c791 133b b318 813e
00000310: 3677 14be 030c 45be ece3 17bf 528c 62be
00000320: 3220 393e 24ce 9cbe c677 bbbd f3a8 c03e
00000330: 58a9 75be 5127 57bd 15c6 b13c 0826 3e3f
00000340: d1eb ac3e ae6e 4ebe 8efc 32be 45b0 55bd
00000350: 8c92 41be 35b4 bb3e 1ac5 c9bd 6473 9bbe
00000360: 6594 81bd c6ee f1bd 7f5f 37bd d46b 113e
00000370: 9944 65bd 1d08 bcbe f49d 033d ce4e 12bd
00000380: a329 c4bc b17c 4abe 75e0 f93c 0fe7 a03e
00000390: 68d2 783e 2749 783e 32b0 8bbc 4999 c93e
000003a0: 42cc 8b3e fa81 2ebe 47fb 54bd 3759 d8be
000003b0: 95fa 08bc 9fb9 69be 13d3 923e 78bd 053e
000003c0: ea5d 31bd ae90 5dbe 98e1 13be 7d39 7f3e
000003d0: 4de8 25bf b7c4 7abd 4c8b 0ebf 9d9f 183f
000003e0: 4f39 cdbd 69f8 083f e83c 13be 8b91 12be
000003f0: a125 e63e 390e edbd 8cbb 97bd ad27 2abe
-0.106084034 -0.039970864 -0.08969518 -0.07087284 -0.46012703 -0.17636383 -0.116216294 -0.7232649
-0.19449623 -0.30331576 -0.4341467 -0.4398979 -0.26317608 -0.28912747 -0.3337612 0.20219615
0.017337937 -0.18533026 0.25905886 -0.13069536 -0.188788 -0.36044717 0.23477015 -0.23270561
0.3484626 0.06336579 -0.15338041 0.08392622 0.023817822 0.014590953 -0.13663092 -0.28143677
-0.07616953 -0.08810355 0.09507903 -0.05658999 0.07798338 -0.48767737 -0.14209001 -0.35854995
0.07073356 -0.041649632 -0.09578344 -0.1707488 0.016039114 -0.063475095 -0.09654415 -0.091589816
0.080941536 0.16154857 -0.0052629285 -0.26971272 0.5993372 -0.13635834 0.20823748 0.5080819
-0.11683849 -0.093558334 0.084297925 -0.1700889 0.222083 -0.2704609 -0.07426647 0.374308
-0.1158882 -0.1306789 -0.19751728 0.29411003 -0.3546051 -0.15660514 -0.4772908 -0.30371177
-0.5127512 -0.3066081 0.24915394 0.23153472 0.015391502 -0.15895352 -0.15416119 -0.1738252
-0.22397426 -0.051120564 0.27418563 -0.13463038 0.21700883 0.09158256 -0.23679815 -0.1756274
-0.20311695 -0.0601526 -0.13263832 0.12232223 -0.052805692 -0.43460706 -0.12552221 -0.09377812
-0.29284793 -0.14472803 -0.14133129 -0.44070014 0.11323491 0.21523759 -0.10168045 -0.085017204
-0.2123173 -0.06737107 -0.0279614 0.29272962 -0.10880252 0.12980895 0.0013531256 0.07456801
0.07188623 -0.13918212 -0.24324435 0.43836617 -0.667825 -0.27041066 -0.37004775 -0.065516055
0.10144162 -0.18149978 0.13777775 0.07399958 0.04542839 -0.020331236 -0.27978075 0.33761072
0.0049125203 -0.087012656 -0.14943832 0.018346136 0.10312281 -0.06415148 -0.0007018113 -0.028515888
0.03525833 -0.040544193 -0.018991219 0.10670286 -0.078083985 0.11337068 0.12756176 -0.10883664
0.11461338 0.15261732 -0.12931518 0.03678846 -0.044037282 0.18806596 0.37197772 0.19306715
0.08502225 0.22404093 0.1691206 -0.18024243 0.24518093 -0.121285684 -0.08752509 0.015380362
-0.21393247 -0.12725739 -0.13202783 0.018718217 0.13061361 0.1438872 -0.14075762 -0.11119025
0.21978493 -0.13384236 -0.44533888 0.063321725 0.05060708 0.05203516 -0.4362819 -0.28204307
-0.06890281 -0.42089233 -0.12753685 -0.0077163447 0.2951535 0.041236307 0.2081277 0.6081697
-0.22165985 -0.33563074 0.28176424 0.7589468 -0.05096433 -0.1815642 -0.3189355 0.11677839
0.1444425 0.13045357 0.002251731 0.25214157 -0.144986 -0.19242863 -0.59332156 -0.2212384
0.18078688 -0.30626023 -0.09153704 0.37628898 -0.23990381 -0.05252773 0.021700898 0.7427678
0.33773664 -0.20159408 -0.17479154 -0.052170057 -0.1890356 0.36660925 -0.09852047 -0.30361474
-0.06327132 -0.118131205 -0.044768807 0.1420129 -0.055973623 -0.3672494 0.032133058 -0.035719685
-0.023945635 -0.19774128 0.030502537 0.31426284 0.24299014 0.24246655 -0.01705179 0.3937476
0.27304274 -0.1704177 -0.05199745 -0.42255566 -0.008360525 -0.22824715 0.28676662 0.13060558
-0.043302454 -0.21637222 -0.14441526 0.24924274 -0.6480759 -0.06122276 -0.556813 0.5961855
-0.10020696 0.53504044 -0.14378703 -0.14313333 0.44950584 -0.115749784 -0.074088186 -0.16616698

main_network.lstm.weight_hh_l0 f4 [256, 64]
00000000: 8d49 a83e fb56 d4bd 3d1f 2ebe b35a 223d
00000010: 0bb0 b63e 061a 0cbf b12a d8be 68a9 84be
00000020: 161e 51be 0c60 a5bd 087c 223e 959d cebc
00000030: b3d1 0e3d f4d2 0c3f c52e 14be ec2f 1cbe
00000040: 6659 db3d 1c76 3cbf 3d6c 0d3e 4f93 d8be
00000050: 0681 c9be b479 613e c1f6 d63e 4916 2cbe
00000060: db07 e1bd 55da ad3e 3f48 a2be 022c 1d3f
00000070: 7220 883d 2fde 7dbd d274 1a3c f4fe b9bd
00000080: 8b84 933d f224 823d 94ab dabe 8bbd 2a3e
00000090: 72b9 a23e 6c76 903e d73c 90bc b04b 64be
000000a0: f5fb a6be 3327 e8be 7552 9dbe 4da6 a83e
000000b0: 4ec0 313f 15f8 46be 696d 153f e54d 333e
000000c0: 4292 1dbe 8040 a93d 15c0 863d 2c76 e5be
000000d0: 89b6 b43e d395 03bf 79fc eebe 7c74 803d
000000e0: 1823 ae3e e810 7e3e 9ea6 08bf 6368 9fbe
000000f0: 9b5e acbe 656c 36bb 766e 33bf a315 19bf
00000100: 919d c13d 2e30 4c3d d6dd 18bd c394 d3be
00000110: f9d4 993e 1960 2dbe f04c 513e b8ac d4bd
00000120: 474d 963d ba00 5e3e 300e ac3e 2038 34be
00000130: 5f05 a1bc 4f56 063e d131 433e a67f 993e
00000140: 52a1 eebd fb91 1e3d e360 19bd 0001 363c
00000150: 8712 1dbe e66e 83be 8d1f b2bd 974c 90be
00000160: e753 65bd 4841 23be 24e8 86bd f6c7 f4bc
00000170: e753 8c3e e475 523e 3b0c 023c 95b3 d53c
00000180: 5da0 413a b297 873e 63d0 343d 3a36 23bd
00000190: 8f15 17be 146a 27bd e235 6abd 771c 053d
000001a0: bf08 623d de07 00bd ce50 82bd eb28 7b3e
000001b0: 45c3 83be a540 bebd 3b60 0abe 3fec 3cbd
000001c0: d60e d53d 6bfd acbe fd1d debd 9702 743d
000001d0: c628 413d 7194 09be 4623 833c 0b82 5a3c
000001e0: d1e9 543d 5f2e 263c 0a15 c7bd 3f2b 743d
000001f0: 4892 d93d cf6d bfbc ecf4 2f3d d57b aebd
00000200: 44fa 433d 3e7d bfbd b942 26bd 0e97 623c
00000210: 15e2 5a3d 0630 90bc 8dc8 a1be b672 193c
00000220: 4abd adbd 148b 20be 8b92 0f3e 7264 103d
00000230: f9e0 633d 461c 90bd d4e9 99bd 6da3 a4bc
00000240: 01d5 763c 2368 0c3d 424b b23c c7d2 0c3d
00000250: e6ea 30bd d42f dc3d 5f40 9a3c d83b a83a
00000260: 6f25 afbd d617 143e d25c adbd 2752 c93d
00000270: d548 cb3d 283b d8bc f14a 70bd 0cca e23c
00000280: 8cd3 c33d be78 e23b 8d85 73be 4058 3dbe
00000290: b4bb 0c3e 853f a9bd 9a1c ce3d caa5 7abe
000002a0: eb95 2cbe fbdd 1fbe 5f85 82bd 37f7 e13d
000002b0: 2739 a43d eb3e f0bd 5590 1e3e cce9 b33b
000002c0: 049e 09bd a9f6 0cbd 70cb e2bc 2839 4c3d
000002d0: be7b b73d 73ff 94be ace2 833c 4897 b2bc
000002e0: 2b12 123e a440 dc3d 14df 15bd 18fe 66bc
000002f0: da8f febd decc 1ebe 42e3 68be d098 033d
00000300: 1b44 433e 938a 213e 4096 22bc 7e20 a9bd
00000310: 47c8 3d3e 4e14 0fbe 4bb7 20bd 92f6 a0bd
00000320: da47 38be 45b3 513d e754 4e3e 9f0d 373e
00000330: e344 c13e 2909 813c d09e 793e 06e0 c13c
00000340: d0f4 383d 9a3d 773c 1830 5bbc 90ea de3b
00000350: 8425 3dbe 2dd4 06be 5996 97bd 11de 09be
00000360: 593f 11bd 6915 babd d01e c8bd fdf0 d63d
00000370: a4ef 223e f8b3 593b 39a6 08be 4880 873d
00000380: 3352 c03c efeb c0bd b81a 3bbe a95d 603d
00000390: 9389 0e3e 6057 e0bd 818b 293d a9fb bf3d
000003a0: 18d9 95be 839f f03d 94a5 e6bd 05bb dcbd
000003b0: f433 5f3d fc48 bb3c 9eb4 1dbd 4231 c1bb
000003c0: 7049 42bd e866 ce3d 7bc9 83bc 09a3 a4bd
000003d0: 925b e4bd 891f 233d bf8c 8abd 8af1 74bd
000003e0: 544c 93bd 32e3 3ebe ec2f 16be 6f93 fcbd
000003f0: 9159 4e3e d6aa 153e efec 46bc 16f8 143b
0.32868615 -0.10368153 -0.17004104 0.03963728 0.35681185 -0.5472721 -0.4222007 -0.25910497
-0.20421633 -0.0807496 0.15867627 -0.025221625 0.034867954 0.5500939 -0.14470966 -0.15252656
0.10710411 -0.7361772 0.13810821 -0.42299888 -0.3935625 0.22019082 0.41985133 -0.16805376
-0.109878264 0.33955637 -0.31695744 0.61395276 0.066468135 -0.06197947 0.009427266 -0.090818316
0.07203015 0.06354703 -0.4270903 0.16673867 0.3178211 0.2821535 -0.017607136 -0.22294497
-0.32614103 -0.45342407 -0.30726972 0.32939377 0.6943406 -0.19430573 0.5837007 0.17510183
-0.15387824 0.082642555 0.065796055 -0.4481672 0.35295513 -0.5140049 -0.46676996 0.06272218
0.3401115 0.24811137 -0.5337924 -0.31134328 -0.33665928 -0.0027835604 -0.70090425 -0.5979864
0.094538815 0.049850635 -0.037320934 -0.41324434 0.30045298 -0.1693119 0.20439506 -0.10384506
0.07338958 0.21679965 0.33604574 -0.17599535 -0.019655881 0.13118862 0.19061972 0.299802
-0.11651863 0.038713437 -0.037445914 0.011108637 -0.15339099 -0.25670546 -0.08697424 -0.28183433
-0.05598822 -0.15942872 -0.06587246 -0.029880505 0.27407762 0.20552784 0.007937486 0.026086608
0.0007386262 0.26482922 0.044144046 -0.039846636 -0.14754318 -0.04087265 -0.057180293 0.03249785
0.055184122 -0.031257503 -0.063630685 0.24527328 -0.25734916 -0.09289674 -0.13513272 -0.04612374
0.1040322 -0.33787093 -0.108455636 0.059572782 0.047158025 -0.13435532 0.01600803 0.013336669
0.051980797 0.010142892 -0.0972081 0.059611555 0.10623604 -0.02336779 0.042958185 -0.08519713
0.047846094 -0.0935006 -0.040590975 0.01382996 0.053438265 -0.017601024 -0.3159832 0.009365728
-0.0848337 -0.15678054 0.14020745 0.035252042 0.055634473 -0.07036643 -0.07515302 -0.020097459
0.0150654325 0.034279 0.021764401 0.0343807 -0.043192767 0.1075131 0.018829523 0.0012835218
-0.08552062 0.14462218 -0.0846497 0.098301224 0.09926001 -0.026395395 -0.05866522 0.027684234
0.09561834 0.0069113662 -0.23781414 -0.18490696 0.13743478 -0.082640685 0.10064049 -0.24477306
-0.16854064 -0.15612023 -0.06373095 0.110334806 0.080187134 -0.11730751 0.15484746 0.0054905172
-0.03359796 -0.03441492 -0.027684897 0.049859196 0.08959149 -0.29101142 0.016099297 -0.021800652
0.14264743 0.10754517 -0.036589697 -0.014098667 -0.12429781 -0.15507838 -0.22742942 0.032128155
0.19068949 0.15775518 -0.009923518 -0.082581505 0.18533431 -0.1397259 -0.0392373 -0.078595296
-0.17996159 0.051196355 0.20149575 0.1787629 0.3774787 0.015751438 0.24376988 0.023666393
0.045155346 0.015090371 -0.013378166 0.0068028644 -0.18471342 -0.13166876 -0.074017234 -0.13463618
-0.035460804 -0.09086115 -0.09771502 0.104951836 0.15911728 0.0033218842 -0.13344659 0.066162646
0.023476696 -0.09420001 -0.18271911 0.05477682 0.13919668 -0.109541655 0.041392807 0.09374172
-0.29267192 0.117491744 -0.1126205 -0.10777859 0.054492906 0.02286195 -0.038502328 -0.0058957646
-0.047433317 0.100782216 -0.016087284 -0.08038909 -0.11150278 0.039824996 -0.067651264 -0.059800662
-0.07192293 -0.18641356 -0.14666718 -0.12332808 0.20151354 0.1461595 -0.01214145 0.0022730879

main_network.lstm.bias_ih_l0 f4 [256]
00000000: d07d 9a3d 2f3e c0bd 6a3f 4ebd 78fe 9c3d
00000010: ac99 c53c 797f 033e c2ed 833d 564f a3bd
00000020: d9ca 063e ece0 c8bc 99fd 1a3d 96c3 22be
00000030: 64d6 93bb 6b4c e63d 0e6e a5bc e1b2 493e
00000040: 781e 41be 0117 263e d339 2f3e 0f11 263e
00000050: d590 f5bc 4771 923b 97e0 553e 1c4d 4e3c
00000060: 60ab 28be a1ce 953d 173a 633d c929 df3c
00000070: d204 94b9 3f5e b43d b1dd 1cbe f416 63be
00000080: 1fc6 0cbd f2f4 5f3d 71b4 ae3d bb22 ef3d
00000090: a17e 68bd 51b2 0b3e 42e2 18bd 6ad1 e23c
000000a0: c210 5d3c 9b14 e8bd dbf1 17be 3f94 abbd
000000b0: 2665 103d 3bf4 6b3d 70a5 21be e6fc 3dbe
000000c0: facf 403e 55f6 6a3d f437 cc3d 6c8c 90bb
000000d0: 4cfd 21be 6927 bd3d 64b1 353e 881a a03e
000000e0: 07a9 e0bc bd41 1c3e 10e7 353e 0c0f 4ebe
000000f0: 6d41 3d3d 80d0 213e 703e 8d3e 23e8 8a3d
00000100: e7f4 63bc 74dd cd3d 6815 99bd 8664 b43d
00000110: 8c09 a9be c99e bfbd 4f55 d6bc fa32 2cbd
00000120: 712e 01be cef9 a33c 34bc 803d 5024 c63d
00000130: 46b3 0cbe 5821 f43d 3b45 043e 4b6b 1e3e
00000140: fec8 87bc 0683 febd a1e4 153e 8ab4 d6bd
00000150: bdf6 993d 85f0 98bd 656d 98bb 1046 f33d
00000160: cfa2 343c bfbd 5abd 98b3 1bbe 9e1e 2abe
00000170: fc79 d6bd 642d 583e 837b f73d f522 89bd
00000180: fff3 8abd 210a a8bd a648 ecbd a952 a93c
00000190: 3473 6f3e 681a d53c ab2a 29bd 8575 32bc
000001a0: f340 2d3e dacc 24be c6d3 b8bd e137 123e
000001b0: ce5f 083e 274e 2dbe bbd4 cabd 439f 793d
000001c0: 00c5 283e 6879 713d 814b b73c aa30 68bc
000001d0: 64e5 32be f8f1 563e 927f 80bd d8b5 573e
000001e0: 0355 ff3c 1e93 36be 36f4 9fbc 0b76 26be
000001f0: 0cc1 493d 7b50 a8b9 2202 2a3c 884e c23b
00000200: 1dc0 eabd eb32 463d 1695 263d 2832 28bd
00000210: 5b0d 173e b08f 28be ceba eb3c de65 1e3e
00000220: f547 f9bb 1278 10be 1716 223e 0a18 18be
00000230: 9314 81ba 622f 483b 6bf7 023e c069 083e
00000240: e52a 563d a1f1 76be 5f9b 31be 1f8d db3c
00000250: 198b 13be e090 42be 04fe 3c3e 0645 50bd
00000260: a4af 12bd 0e50 003e aaa5 4cbe 0563 103e
00000270: 2dc5 363e 135d 903d 8a97 443d d805 063e
00000280: dac0 a53d 3e32 8abc 6c9a 8fbd ac01 963d
00000290: 87f3 67bd 7194 94bb 3c03 1ebd 2835 c93d
000002a0: f5c1 17bc 494f ce3d 1f43 ffbc 48f5 083e
000002b0: c44e 163d f5e5 35bd 2196 b63d 2526 383d
000002c0: fc4e ab3d 83f9 a7bd 14f6 71be 96cc 26be
000002d0: bf60 c9bc ce62 62bc 3d34 513d 93f6 1a3e
000002e0: d9c1 3e3b 1518 e63d 09b1 9e3b 49c0 023e
000002f0: 604e 6bbd 629b 973d a2fa 14be 1e27 14be
00000300: 7ed2 643d ee27 083d bc10 afbd df55 31bd
00000310: 7e7c ea35 d1ff 123e 301b 19bd 1be2 2fbd
00000320: b602 a3bd a006 8d3d c8ef d73c 11ae 2fbd
00000330: 1d85 8d3c 140d a03e 99ad 36bc 69db 76bb
00000340: 7f97 d43d 4c84 6d3e 69e8 ca3d de0d 433e
00000350: 9502 703e e227 ae3d f824 4e3d 2527 efbb
00000360: e1c8 37be e5f8 28bd fcd3 303e 8951 c9bd
00000370: 3a9a 073e a67e c63c 11ae edbd a76f 9bbd
00000380: cbb3 7e3c a8a4 e4bc 7f67 c63d 5329 d33d
00000390: a31e d83d 44fb 853d 0a63 9f3e 4f0c b43c
000003a0: c5c1 a93d 556b 40be 2f2d 623d 2e28 943d
000003b0: 8741 3e3e cc02 a43d 06e4 0ebe eccd 04be
000003c0: e85b 323e 15d8 9a3c 7a73 4a3e dff5 b3bd
000003d0: 28f5 ad3d fb49 183e c11c 683d cb82 603e
000003e0: 2402 3bbe bfbc b73e 4075 693e e2b8 5dbe
000003f0: c04c f0bc d735 733b a053 aa3e fc9c 31be
0.07543528 -0.093868606 -0.050353445 0.076657236 0.024121128 0.12841596 0.06441833 -0.079741165
0.13163318 -0.024521314 0.037839506 -0.15894923 -0.0045116413 0.11245044 -0.02019408 0.19697143
-0.18859279 0.16219713 0.17111902 0.16217445 -0.029976288 0.00446907 0.20886455 0.0125916265
-0.16471624 0.07314802 0.05547532 0.027241604 -0.0002823235 0.088070385 -0.15318944 -0.22176725
-0.03436863 0.054676957 0.0853051 0.11676546 -0.056761388 0.13642241 -0.03732515 0.027687747
0.013492765 -0.11332055 -0.14838354 -0.08377885 0.035252713 0.057605963 -0.15785766 -0.18553504
0.18829337 0.057363827 0.0997161 -0.004411271 -0.15819281 0.092360325 0.1774345 0.31270242
-0.027424349 0.15259452 0.17763925 -0.20122927 0.046204973 0.15802193 0.275867 0.06782558
-0.01391337 0.100520045 -0.07474786 0.08808236 -0.33015096 -0.09356458 -0.026163725 -0.042040803
-0.12615372 0.020016577 0.06285897 0.09674895 -0.13740262 0.11920422 0.12917034 0.15470617
-0.016575333 -0.124273345 0.14637996 -0.10483654 0.07517765 -0.074677505 -0.0046517127 0.11878598
0.011025145 -0.053403612 -0.15205228 -0.16613242 -0.104724854 0.21111065 0.12084105 -0.06696121
-0.0678482 -0.08205057 -0.11537294 0.020669298 0.2338379 0.026013568 -0.041300457 -0.010892277
0.16919307 -0.1609377 -0.090247676 0.14279129 0.13317797 -0.16924344 -0.09903856 0.0609429
0.164814 0.058953673 0.02237487 -0.014171759 -0.17470318 0.20990741 -0.06274332 0.21065462
0.031168466 -0.17829558 -0.019525629 -0.16255967 0.04925637 -0.0003210342 0.010376485 0.005929772
-0.11462424 0.048388403 0.040669523 -0.041063458 0.14751188 -0.16461062 0.028775599 0.15468547
-0.007607455 -0.14108303 0.15828739 -0.1485292 -0.000984805 0.003054582 0.12789695 0.1332159
0.052287 -0.24115612 -0.17344426 0.02680069 -0.1440853 -0.19000578 0.18456274 -0.050847076
-0.035812035 0.12530538 -0.19985071 0.14100273 0.17848654 0.070490025 0.04799608 0.13088167
0.08093424 -0.01686966 -0.070118755 0.07324538 -0.05662873 -0.004534297 -0.038577303 0.09824592
-0.009262552 0.10073716 -0.031159936 0.13374817 0.03669621 -0.044408757 0.089153536 0.044958252
0.083646744 -0.082018875 -0.23629028 -0.16288981 -0.024582265 -0.013817502 0.05107521 0.15133123
0.0029107241 0.11235062 0.0048428816 0.12768663 -0.05744779 0.07402684 -0.14548734 -0.14468047
0.055864803 0.033241205 -0.08548114 -0.043294784 1.7470591e-06 0.14355399 -0.037379444 -0.04294024
-0.079595014 0.06886029 0.026359454 -0.042890612 0.017275387 0.31259978 -0.011149787 -0.00376674
0.10380458 0.23194999 0.0990761 0.19048259 0.23438485 0.08503701 0.050328225 -0.0072983676
-0.17947723 -0.04125299 0.17268366 -0.09830005 0.13242427 0.024230313 -0.11605466 -0.07589655
0.015545796 -0.027910545 0.09687709 0.10310616 0.105527185 0.06542066 0.31130248 0.021978525
0.08288912 -0.18790944 0.05521887 0.07234226 0.18579684 0.08008346 -0.13954172 -0.12969178
0.17417872 0.018901864 0.19770613 -0.087871306 0.084940255 0.14871971 0.056668047 0.21924894
-0.18262535 0.3588619 0.22798634 -0.21652558 -0.029333472 0.0037110948 0.33266926 -0.17345041

main_network.lstm.bias_hh_l0 f4 [256]
00000000: c137 833d c8b5 ab3c dd16 89be 45e7 b3bc
00000010: 9832 68bc ce32 e9bc 4fdd 8dbd 933c 2cbe
00000020: c5bb 2fbd 5301 a03d 2f5a 513e 9afd a9bd
00000030: 1751 34bd 5f5d 123d 5c9f 933d 6cd5 e33d
00000040: 5855 c4bd 9aab e33b b81d 4f3e 792f a53e
00000050: c81a 903d d741 9bbd b54c 923e 4b6f 98bd
00000060: baad 06bd e176 9d3d 33a0 343e 90f1 14bd
00000070: ac59 f43d f468 61bd ab55 51be dff2 88bd
00000080: 90e0 bfbc f5b2 9bbd 5ef3 593e fbb6 8c3c
00000090: 27ef ca3d 787c af3d 657b 8bbd cc49 4cbd
000000a0: 2278 ecbd bc2a 0abd 1260 13be d8e3 9c3d
000000b0: 8083 273d 4deb 9bbd 93ec f8bd 396c 01bb
000000c0: 5a3b 5a3e c498 943d 064a a4bc 6ce0 75bd
000000d0: dea8 babd 3f09 f83d 61f6 a63d 5fbd 903e
000000e0: 2f46 9a3c 536a fb3d 5c30 bc3c 22b2 4b3c
000000f0: 2084 bc3d 824b bdbc 428c 723e 7dc5 8c3d
00000100: c603 fd3d db82 da3c 5222 02be ace3 353d
00000110: d9f2 95be cc62 023d 865f cabc 93e4 053d
00000120: 51d2 093d ab8e 64bd 5629 513e 5d5f 6f3d
00000130: 5304 b03c 52eb ef3d d980 44bd 03c1 7abd
00000140: 7cab e53d 78de 41be 4abc 9a3d b075 0d3d
00000150: 231c dbbc d152 553c 283d f2bd 1f4c 01bd
00000160: a42b b63d 0320 603c 0d0d b3bd bbd9 30bd
00000170: 7cd0 96bd 526a 8e3e 0a5d 263b 5cf1 b5bd
00000180: 1794 febd ce94 5e3d 52fa 6fbe d78f 103e
00000190: 4379 563e 3b9a eebc 2652 203e f29a 58bd
000001a0: b7d1 e23c a350 d2bc 316a 433d ba7c 78bd
000001b0: 392a 733e f337 323d 9722 80bd 3df1 24bc
000001c0: 668d 1a3c 2eed 77bc 32f7 fcbc 48e9 293e
000001d0: 59d2 a8bd 003a 313e dbf0 9f3d 1979 213e
000001e0: c5fe 473d 4969 a2bd 8337 8c3b de00 2dbe
000001f0: 36c0 85bc e05f 0dbe 7bd1 a8bd c08e 03bc
00000200: 2c38 54be 4567 3dbc 2ef3 8b3d e6c5 1d3d
00000210: 52f1 c4bc b323 64be f63f d1bc 4a4e 043e
00000220: d5c1 d23b d0b6 3e3d a0f8 843e 6b54 d3bc
00000230: 075d 4dbd 2940 783d b96d 26bd e810 2d3e
00000240: 0c38 d43d 8768 45be 991b 01be 964a b6bd
00000250: 7ed2 1fbe e10b 0cbd 909b bf3d 0356 20be
00000260: 2818 cb3d 10c5 31bd 03f3 1ebe 1ed4 f53d
00000270: c070 593e 5892 0a3c 18c0 903d 1cb8 ab3d
00000280: 5f5e 163e 8eea 88bc 4d64 64be d5bb 143e
00000290: 5133 33be b30e 193d 14c2 c5bd d1da a8b9
000002a0: 96e5 e43d 1307 99bd 7b55 fc3b 90a3 063e
000002b0: 9dc1 17be 3286 433c 46f6 0f3e 4c5d 843d
000002c0: 6bba 8e3d 1d6b bc3c aa95 02be cf50 84be
000002d0: 15be 823d 9930 4d3e dbac c4bd 1bfa 4d3e
000002e0: 2392 0e3e d5c2 723d 9eb3 f7bd fd9f c23d
000002f0: ab67 4bbd bf33 b53b 72e8 b8bb 31f0 23be
00000300: 3d97 c6ba 2831 763d 0957 75be 8973 643c
00000310: 326f 953d 3b2f b43d 3810 943d f858 3bbd
00000320: 953e 54bd 613c 03bd 38a2 813c 4a87 05be
00000330: 0b8e 603e 1ecc 8f3e e84e cabd 7b52 b1bd
00000340: 047c e33d 7122 083e 4ba4 5f3e 7c71 a33e
00000350: 8759 a5ba 5fc0 fbbd b69a 313d 1b4f 58bd
00000360: a64d 34be fce6 bf3b e444 473e 9550 34bd
00000370: 523c 4f3e 0800 7c3d e7d3 863c 0fa1 0ebe
00000380: 6603 05be 3680 753d b9de b13d 2728 f13d
00000390: e88e 14bd 6137 9f3d ca1d cd3e 4887 8ebd
000003a0: 7895 683e 1070 bfbd 23e6 8c3d 77a1 023e
000003b0: e865 163e deb8 e83c b581 ffbc cd3a a8bd
000003c0: 6270 263d d8db ce3c be9f b73d 280d f43d
000003d0: 411b eebc bcc4 303d 9f42 223d 1562 973e
000003e0: c38e 80bc b614 773e f674 243d ddf0 e3bd
000003f0: 3da4 823d 4400 a03d aef6 d73d 2823 ccbd
0.064071186 0.020960703 -0.26775256 -0.021960864 -0.014172219 -0.028466608 -0.06926977 -0.16819982
-0.04290368 0.078127526 0.20444559 -0.08300324 -0.044022646 0.035733577 0.0720813 0.11124691
-0.095865905 0.0069479467 0.2022618 0.3226278 0.07036358 -0.07580917 0.28574148 -0.074431024
-0.032880522 0.0768869 0.17639236 -0.036363184 0.11931166 -0.05503173 -0.20442836 -0.06686949
-0.02342251 -0.07602493 0.21284243 0.017177096 0.09908896 0.085686624 -0.06810645 -0.049875066
-0.11546351 -0.03373216 -0.14392117 0.07660645 0.040896893 -0.076132394 -0.12154498 -0.0019748344
0.21311703 0.072557 -0.020054828 -0.06002848 -0.0911424 0.121111386 0.08152462 0.2826948
0.018832294 0.12276139 0.022972278 0.012432607 0.09204888 -0.023107294 0.23686317 0.068736054
0.12354235 0.026673725 -0.12708405 0.044406578 -0.2928684 0.0318325 -0.024703752 0.03268869
0.03364784 -0.05580012 0.20425925 0.058440555 0.021486437 0.11714806 -0.04797444 -0.061219227
0.11214349 -0.18932521 0.075554445 0.034536064 -0.026746815 0.013020233 -0.11828071 -0.031566735
0.088950425 0.013679507 -0.087427236 -0.043176394 -0.07363984 0.2781549 0.0025385045 -0.08883926
-0.1243059 0.05434113 -0.23435333 0.1411737 0.20944695 -0.029126277 0.15656337 -0.052882142
0.02768789 -0.025673216 0.047708694 -0.060665824 0.23746575 0.04351039 -0.062565975 -0.010067281
0.009433126 -0.015132232 -0.03087959 0.16592896 -0.08243246 0.17307281 0.078096114 0.15768851
0.04882695 -0.07930238 0.0042790785 -0.16894862 -0.016327005 -0.13806105 -0.0824308 -0.00802964
-0.20724553 -0.011560266 0.06833492 0.03851881 -0.024040852 -0.22279243 -0.025543194 0.1292049
0.006431798 0.046561062 0.25970936 -0.02579709 -0.050137546 0.060608063 -0.040631983 0.1690098
0.103622526 -0.19278155 -0.12608184 -0.08900945 -0.1560764 -0.034191016 0.09355843 -0.15657811
0.09916717 -0.043400824 -0.15522389 0.12003349 0.21234417 0.008457743 0.07067889 0.083847255
0.14684437 -0.016713407 -0.22303887 0.14524777 -0.17500044 0.037367534 -0.09656158 -0.00032206488
0.111766025 -0.074720524 0.0077006198 0.13148332 -0.14819951 0.01193385 0.1405879 0.064631075
0.0696915 0.023000294 -0.12752405 -0.25842902 0.063839115 0.2003807 -0.09603282 0.20114939
0.13922934 0.059267838 -0.12094806 0.095031716 -0.049659412 0.0055298503 -0.005642944 -0.16009595
-0.0015151274 0.060105473 -0.23958983 0.013943561 0.072965994 0.08798071 0.07229656 -0.045739144
-0.051817495 -0.032040004 0.015824422 -0.1303989 0.21929185 0.28085417 -0.098783314 -0.0865831
0.111076385 0.13294388 0.21840017 0.3192252 -0.0012615182 -0.12292551 0.043360434 -0.052809816
-0.17607746 0.005856393 0.19459873 -0.04402216 0.20237854 0.061523467 0.016458465 -0.13928626
-0.12989578 0.059936725 0.08685059 0.117752366 -0.0362691 0.077742346 0.4006179 -0.069593966
0.22713268 -0.09347546 0.068798326 0.12756906 0.14687312 0.028408464 -0.031189779 -0.0821434
0.04063452 0.025251314 0.08966015 0.11916572 -0.02906573 0.04315637 0.039614316 0.29567018
-0.015693074 0.24128994 0.040150605 -0.111299254 0.06378982 0.07812551 0.10545097 -0.09967643

main_network.fc.weight f4 [3, 64]
00000000: 1f8d 013d a3c2 b1bd 19dd 71be 57dd 6f3d
00000010: 48d5 703d 04f0 b2bc fae7 e83a e02d 9c3d
00000020: a22a 063d ccc8 363d d088 393c 03fd 1c3c
00000030: 88d8 a83b 3cd2 9e3c fc2e 1e3d b058 d03c
00000040: 91e1 d6bd 778a 7d3b ff9d 4fbd afd8 83bc
00000050: c5cf 6fbd c5a8 e1bd 72e6 4a3c ae44 51bc
00000060: d6ba 613d d8b5 1dbc 68e9 88b9 cf11 c93c
00000070: da15 233d 1d8e e13b 75b0 3d3d 667a 15bd
00000080: 7178 893e 95ea 20be 1945 013e 088f 87bc
00000090: 09e9 a8bc 7ed2 0d3d 4284 723d 69e2 b5bd
000000a0: e024 c8bc 7269 d5ba 9f86 a73d 546b d93d
000000b0: 6815 7ebc 7ad4 bdbd c2fc 923d 7096 abbd
000000c0: 082e dc3c 4519 b63c a224 fc3c 5188 053d
000000d0: 9318 a1bc 3dd5 c5bc eccd 2b3d 8ed6 a6bc
000000e0: ff38 d7bc 17f3 573c c948 beba d24c c43c
000000f0: 1c14 4abd 170a ac3c 4ed6 09bd 74be 0e3d
00000100: d772 ec3c f7e0 4cbd 0372 de3d ce48 12bd
00000110: df86 ca3c a24b 28bd f3c5 d1bc e27b b6bc
00000120: ac0a 9a3c eb35 353d 05e6 fa3c 8c9a 943d
00000130: 78f3 8d3c a7aa 33bd 5fdd 1dbd 37f7 4b3c
00000140: 2d5a d63c 56ea bdbc 8ced 5dbd 38d3 f33c
00000150: dab0 79bd 801f 4abd a4b3 763c 3379 21bd
00000160: 4d64 19bd d564 21bc e444 e9bc 9391 a93a
00000170: cb1f 883c 093d 6d3d 5c9b 073e 145a 93bd
00000180: ab8f 07be 5c82 9b3b 62df d63d eacb 2a3d
00000190: 7a52 9e3d 3570 b3bc b377 7d3d 1635 09be
000001a0: c4c0 9abc d0a8 653d f0cc 9c3d be38 c63c
000001b0: 7101 04bc 504f 7abd b1c2 453d 121b 1a3e
000001c0: ef3e d33d a7ca b5bd 88b7 2c3d 1bf1 d1bd
000001d0: 9b76 973c 5f5e 39bd f939 cbbd 0e23 9bbd
000001e0: f83f 45bd c7e7 b03b db08 823d e4c1 ba3d
000001f0: 7aa2 a0bc 1b53 8f3d e80c 99bc 71c9 95bc
00000200: 7e97 0c3f 5d65 543e 508d 38be 18ce a53e
00000210: dcb0 9d3e 7353 69be 7ef9 1dbd f109 f33e
00000220: 26a3 a8be e411 86be a101 533e 5e62 793e
00000230: d891 803e 2d5d d0be 94ca 983e 94a8 883e
00000240: 1374 693e b80e c6bd 3acc a4be 47a8 dabe
00000250: 214d 19bf c350 55be 7452 8ebe b6ca 2dbd
00000260: 6a8d 91be 7e0b db3e 3be4 673d ce1e 1c3c
00000270: 2de7 853e 7e3d 5fbe 6305 31be fc44 ff3e
00000280: 3a6b 443e 2039 34be 798c 04be adb7 c53e
00000290: e379 493e a8c3 a8be fa4a 913e c93e 7ebe
000002a0: 2b42 d7be 90de 5bbf 58df a7be badc 183f
000002b0: d643 193e 7ca3 6dbe a337 4e3e 7a85 b93e
000002c0: 92f3 58be 0d40 563e 7064 c2be 4adc afbe
000002d0: 199c 6abe ffec f63c 3c47 d7be bc2b d13e
000002e0: b06b 503e 9f80 593e 1575 dfbd dfae 81be
000002f0: 1cf0 f8be 3d33 b83d bc5a af3e 02e8 08bf
0.031628724 -0.08679702 -0.23619498 0.058560695 0.05879715 -0.021842964 0.001776933 0.076259375
0.0327555 0.04462509 0.011324123 0.009581807 0.0051527657 0.019387357 0.038619027 0.025432914
-0.10492242 0.0038687268 -0.050687786 -0.016094534 -0.058547754 -0.11018518 0.012384044 -0.012772722
0.05510982 -0.009625874 -0.00026113843 0.024544625 0.03981576 0.0068833963 0.04631086 -0.03649368
0.26849702 -0.15714486 0.12624015 -0.016547695 -0.020618932 0.03462457 0.059208162 -0.08881075
-0.024431646 -0.0016282036 0.08179974 0.10616174 -0.015508033 -0.09269042 0.07177116 -0.08378303
0.026877418 0.022228846 0.030779187 0.032600705 -0.019665038 -0.024149531 0.04194443 -0.02036598
-0.026272295 0.013180516 -0.0014517541 0.023962412 -0.049335584 0.021000905 -0.033651643 0.0348496
0.028863354 -0.05001923 0.1086159 -0.035713963 0.024722515 -0.041087754 -0.025607085 -0.022275869
0.018803917 0.044240873 0.03062726 0.0725604 0.017328009 -0.04386392 -0.038541194 0.012449077
0.026166046 -0.02318303 -0.05418162 0.029763803 -0.060959674 -0.049346447 0.015057478 -0.039422225
-0.03744917 -0.0098507 -0.028475232 0.0012937061 0.016616723 0.057919536 0.13242859 -0.071949154
-0.13238399 0.0047457647 0.10491826 0.041698374 0.07730575 -0.02190409 0.061881732 -0.13399157
-0.018890746 0.056069195 0.07656276 0.024196979 -0.008056984 -0.061110795 0.048281375 0.15049389
0.10314738 -0.088765435 0.042167217 -0.10251065 0.018489173 -0.045256015 -0.09923167 -0.075750455
-0.04815671 0.0053987238 0.06349345 0.09119013 -0.019608725 0.06998273 -0.018682912 -0.018284531
0.5491866 0.20741792 -0.18022656 0.323838 0.30798995 -0.2278574 -0.038568012 0.47468522
-0.32936972 -0.26185524 0.2060609 0.2435393 0.2511127 -0.40696087 0.29842055 0.26691115
0.22798185 -0.09670776 -0.32187063 -0.4270651 -0.59883314 -0.2083159 -0.27797282 -0.04242965
-0.28428203 0.42782205 0.056614142 0.009528829 0.26152936 -0.21800801 -0.17287211 0.49857318
0.19181529 -0.17599916 -0.12944211 0.38616696 0.19675402 -0.32961774 0.28377515 -0.24828638
-0.4204267 -0.8588648 -0.32787585 0.597118 0.14967284 -0.23206896 0.20138411 0.36234647
-0.21186665 0.20922871 -0.37967253 -0.34347755 -0.22911109 0.030142305 -0.42046535 0.4085368
0.2035358 0.21240471 -0.109110035 -0.2532873 -0.4862069 0.08994148 0.34248912 -0.53479016

main_network.fc.bias f4 [3]
00000000: acac f63c 1667 c13d 2034 5b3e
0.030111633 0.0944349 0.21406603

short_term_context_network.fc1.weight f4 [32, 7]
00000000: b1c3 49be 7a5a 503e 521e 63be 991d 403e
00000010: 4acb 6fbd e0d7 cfbd 400c 52bc ae5c f7be
00000020: 1a22 6b3d 034e b2be e92a 50be da97 2440
00000030: d6cb 2340 3fc5 683f 5b66 a7be 3668 213c
00000040: 620a 493e 8420 323e 1138 ac3e 4bdc 27bc
00000050: 3b82 343e 7fdc ef3e 9a30 083e 33ff 78be
00000060: 53ed a9bd 29e3 79bf aa3c 8abf 3f99 873e
00000070: 3ba9 6dbe 9412 22bd aefc 1abe d934 abbe
00000080: f74c 67bf b3b2 a1bd d956 ea3e b50e 063f
00000090: 74ac 17be 0c43 aebe 864c b5bb cfd1 973e
000000a0: 8670 a03e dc31 9a3e 277a 6e3e c4f5 80be
000000b0: 4666 24be 3020 e7bd 6a0c bebd 7514 ac3e
000000c0: 70eb 97bd 4873 d5be 00ce afbd 9813 1e3e
000000d0: 48f9 e8bb e2bc 583d 359d 43bd 445f 433f
000000e0: 5647 b1be 19bc 5abd 4e47 ccbd 387c 1ebc
000000f0: 1137 6fbe 4580 903e 4f47 6dbe 0103 b9be
00000100: 3c32 6fbe 3eb0 f93d 0997 8fbe 8332 a63e
00000110: 134d a23e 7887 543f afc0 f13c 4c69 b13e
00000120: 9b53 79be 5e3a 8b3e 0d9b d6bd 7abf 03be
00000130: 0506 11be f4ae cb3e f5fd c63d bd67 c93c
00000140: 5c7f 8d3d 1af0 ddbd 2b3c 00bd 49e9 673e
00000150: 9b27 073e c9a6 2c3c b1c2 b93e 7c59 7e3e
00000160: 10a6 373e b358 133f 55ba 4fbf 4b79 d6bd
00000170: 1a5d 783e ea60 7b3e c8c8 a3be 2f7d 043e
00000180: 3122 8fbd 1a26 37be 6538 d4be 2c43 43be
00000190: fe62 d8bd 3683 cd3d 92e9 ae3e f2d8 8d3e
000001a0: 40a9 493f f8f3 9fbe 50d1 933e 0b58 673e
000001b0: ccde a6be 9f1e 08be e8d3 a23d bcb6 563e
000001c0: 3525 bfbe 5cf4 abbe 4316 bc3e bded a03e
000001d0: 1931 b4bd 9b05 80bd 1b48 22bd de66 953e
000001e0: b85d 0c3e 9d70 a9be 3f79 6e3e 4834 973e
000001f0: f9b0 36bf 1be3 f3be a293 253f 42c2 9b3e
00000200: def7 a4be d926 c13d 7a40 45bf fb39 66bf
00000210: 0d24 0e3f 8cf1 fb3c e061 aa3e 3d96 acbe
00000220: 1f45 62be f1ff 123e dcca 113e 4531 de3e
00000230: b9d0 173e 5eb5 b3be f04e 64be 46ef 2fbe
00000240: a8cc 7b3e 0359 553e c079 14bf cdab e0be
00000250: 8d0c 053e 95c0 9fbd 96fc 4c3b 935e b33d
00000260: fa52 373e add7 633f 9314 02bd b60d 44bc
00000270: 1b54 16bd b646 93bd 31f3 713e 6a81 53be
00000280: 7797 d03e 98bb 2b3f 00c8 073e 65de a0bd
00000290: b09e d2bd 281f 18bf acfd fdbe c95e 48be
000002a0: 181f 56be 3734 263e 01a9 82be 0225 823e
000002b0: 43c3 3e3f 5fe7 0a3e ff60 b43c 12b0 31bd
000002c0: 8ed3 bcbe 0333 1dbc 768a 1b3e 3fa6 4a3e
000002d0: ddd0 853e 5513 923d bc91 a9be 5b35 a1be
000002e0: 3cb7 fb3d 3f8d b1be 9bd3 2f3e b6e1 103e
000002f0: b4e8 56be 461a b7be a817 a43e 2417 eb3d
00000300: 5f62 01be 8d85 94bc b1e1 99bd 35ba babe
00000310: 99a8 223f 7fda 05be 6d89 cfbc 522f a03e
00000320: 6544 85be 8c26 57be 6c6d aabd 1930 5cbe
00000330: bb5a 17be b3cd 893e 770b 8a3e 0d66 37bf
00000340: 2b70 4f3e e501 eb3e 42c8 0a3f 4bc3 67be
00000350: 5ed9 9ebe 4da8 483e dfbb 3ebf 3d38 62bf
00000360: 6281 ff3e b8a1 c3be d204 60be 82e3 2bbe
00000370: 10ff 8abd 0d84 b83d 611a 843e d716 d2bd
-0.19703557 0.20347014 -0.22179535 0.1876129 -0.05854348 -0.10148597 -0.012820303 -0.48312896
0.05740557 -0.34825143 -0.20328869 2.5717683 2.5593162 0.90925974 -0.3269528 0.009851506
0.19632867 0.17395216 0.33636525 -0.010245393 0.17627804 0.46847913 0.1329979 -0.24316101
-0.08297219 -0.97612244 -1.0799763 0.26484105 -0.23209088 -0.0395685 -0.15135452 -0.33438757
-0.90351814 -0.07895412 0.45769385 0.5236619 -0.1481188 -0.34035528 -0.005532804 0.2965226
0.3133585 0.30116165 0.23288785 -0.25187504 -0.16054639 -0.11285436 -0.092797115 0.33609357
-0.07417953 -0.41689515 -0.08584213 0.15437162 -0.0071097948 0.052914508 -0.047757346 0.7631724
-0.34624738 -0.05340204 -0.09974538 -0.009673171 -0.2336085 0.28222862 -0.23171733 -0.36135104
-0.23359007 0.12191819 -0.28044918 0.32460412 0.31699428 0.8301921 0.029510824 0.34650648
-0.24348299 0.27192968 -0.10478792 -0.12866011 -0.14162453 0.39781916 0.09716407 0.0245856
0.069090575 -0.10836811 -0.03130738 0.22647585 0.13198702 0.010537812 0.3628135 0.24838823
0.17934442 0.5755722 -0.81143695 -0.104723535 0.24254265 0.24548689 -0.3198912 0.12938379
-0.06988943 -0.17885628 -0.41449276 -0.19068593 -0.10565756 0.10034792 0.34162575 0.2770458
0.7877388 -0.3124082 0.2887063 0.2259218 -0.32591856 -0.13292931 0.07950574 0.20968145
-0.37333074 -0.3358487 0.36735734 0.3143138 -0.08798427 -0.06251069 -0.039619546 0.29180044
0.13707626 -0.3309373 0.23288439 0.29532075 -0.7136379 -0.47634205 0.64678395 0.30421644
-0.32220358 0.09431238 -0.7705151 -0.8993222 0.5552376 0.030754827 0.33277798 -0.33708373
-0.2209668 0.14355446 0.14237541 0.43396965 0.14825715 -0.3509931 -0.22295737 -0.1718112
0.24589789 0.20834737 -0.57998276 -0.43881074 0.12993069 -0.07800404 0.0031278483 0.08758273
0.17902747 0.8900097 -0.031757902 -0.01196616 -0.036701303 -0.071912214 0.23627926 -0.20654836
0.40740559 0.6708312 0.13259888 -0.078549184 -0.102841735 -0.5942254 -0.496076 -0.19567408
-0.20910299 0.16230856 -0.25519565 0.2541886 0.74516696 0.13564824 0.022018908 -0.043380804
-0.36880153 -0.009594682 0.15189537 0.1978998 0.26135913 0.071325935 -0.33119 -0.3148602
0.122908086 -0.34678075 0.17170565 0.14148602 -0.20987207 -0.35762233 0.32049298 0.11479023
-0.12635182 -0.018130088 -0.0751375 -0.3647019 0.6353851 -0.13071631 -0.025334084 0.31286103
-0.26028743 -0.21010798 -0.08321652 -0.21502723 -0.14780705 0.2691475 0.26961872 -0.7164009
0.20257632 0.45899883 0.5421182 -0.22633092 -0.31025213 0.19595452 -0.7450542 -0.8836706
0.499034 -0.3820932 -0.21876839 -0.16786006 -0.067869306 0.09009562 0.25801376 -0.102582626

short_term_context_network.fc1.bias f4 [32]
00000000: a220 89be 124f 0a3f ab8f acbe 3b4c 65bd
00000010: d44b e73e 13a5 2b3e 8a58 1f3f daad f93e
00000020: dba1 693d fc07 823e d1aa 19be c539 0a3f
00000030: ceaf d43e 6091 b4be d753 e93e 2eba 92be
00000040: cb07 41be b3ac 96bd 3ab4 c9be 176f 0e3f
00000050: 825f 0a3e bd67 da3e 9c72 143f 6b4c 66bf
00000060: 11f7 1a3f 64c6 c0be d7c5 0e3e 4fb5 a9bc
00000070: 1d43 75bf 580b 423e b3d0 15bf 4953 8e3e
-0.2678271 0.540269 -0.3370336 -0.055980902 0.4517504 0.1676219 0.62244475 0.4876545
0.057039123 0.25396717 -0.15006568 0.539944 0.41540378 -0.35267162 0.45571777 -0.2865767
-0.18850629 -0.073571585 -0.39395314 0.5563826 0.13512996 0.4265727 0.5798738 -0.89960355
0.60533243 -0.3765136 0.13942657 -0.020716337 -0.9580553 0.1894964 -0.58521575 0.27797917

short_term_context_network.fc2.weight f4 [16, 32]
00000000: 0c55 223e 19f4 373f 806e 383e d560 8bbe
00000010: 2175 9f3e 6c76 e03e 1249 753e 375f 043f
00000020: c68e 9ebd 9487 df3e 2829 2ebd 6d2b a53e
00000030: dae4 c13e 3452 c3bd 182d d03e 6dc4 1bbd
00000040: 868e ba3d 4f92 353e 64fe bbbe e94b c93e
00000050: f4cc 283d d4e9 143f 8ef4 773e 4d3d 47bf
00000060: b538 5a3e 7800 0cbe 3ff1 f23d 1703 ce3d
00000070: b942 b6be 4aad bb3e 59e3 a9be 28d2 fb3d
00000080: e332 b1bc 4a0b 50bd e7e5 103d 103a ca3d
00000090: 21c0 a83d 7868 123d cf42 8fbc 12c6 86bd
000000a0: 2502 a8bd 47dd 9f3d 8e14 233e babd 9fbc
000000b0: 82c5 1f3c f6e7 12bd 6c89 0fbe 4450 9c3d
000000c0: bc9b 1bbe 9977 563d 74c9 b5bd f6f5 0bbe
000000d0: 7069 4ebe f39c b63d 70fe 593d 7c8f eb3d
000000e0: e2a4 583d dd03 1c3e f9f7 08be b489 173e
000000f0: 1974 82bd 4dc1 153d 1d46 21be b601 f4bd
00000100: fb24 e1bd f0b9 80bd aabd 1fbe 8d2d 9dba
00000110: a587 88be 1492 84bd d1f9 513e e26c a83c
00000120: 92be ba3c 1e73 b3be 083f 11be e371 b6bd
00000130: b24b 9e3d ecea 003e 8f06 943d 3bad 763d
00000140: 95e6 c23d dbdb 163d 5c17 553e 4232 16bf
00000150: 002f 853d 8bdb d9bd 52e6 9cbe 3ccf c63e
00000160: 87f6 7ebe b74f b93d ac34 80be 5a48 22be
00000170: b367 553e 2919 f4bd 56fa 6ebe 0f82 42be
00000180: 0690 253e d95b 5d3f c5ec c9bd 1fdc 83be
00000190: 02db 703e df40 e03e ac9d 953e 1e36 0f3f
000001a0: 3edc a9bd f698 243f 0774 90bd 8c14 dc3e
000001b0: 1985 ef3d 22af 50bd aed2 483e 0884 523d
000001c0: 7cbd c13d 03e4 9cbe 3514 acbe b73b ee3e
000001d0: aa53 613e 6905 553f 04bb bb3e fd30 55bf
000001e0: 98c8 a23e 5209 03bd 4a93 a13d 926a 303c
000001f0: c56c 36bf c1dd a13e 5af2 abbe 2cdc 713e
00000200: 56ee 01be a5c0 2dc0 a6c4 3cbd 81c6 6d3f
00000210: 2623 d03c ec54 193f 99bf 443e c51f 2cc0
00000220: 4fd9 09bc 5623 37c0 9976 323e 97a2 223f
00000230: e65a 21be 2513 1abe e787 1dc0 8b1b 8b3d
00000240: 23ed 303e d987 4bbb 3313 7f3f 7637 823e
00000250: 68cf 99be fe97 1ac0 5b2d 13be f0c7 b63f
00000260: e96b bdbf 39fc 123e 3530 d7bd 2d17 2f3e
00000270: ff15 8e3f db49 1cbe 10f5 3c3f c6af 4dbe
00000280: 7939 df3d 8e0b 3f3f 1618 8bbc b6b4 8abe
00000290: fa99 d13e b00b 6c3e e796 cf3d b268 2f3f
000002a0: ddc1 ad3d 0715 c13e ebc1 b83d 36f7 bd3e
000002b0: d819 863e fab1 193e 97ce d13e 6b10 1cbc
000002c0: 4edb fa3d 07c3 44be d749 85bd e0d1 913e
000002d0: 8a97 f73c 27fd 5b3f d2dd ef3e 60c3 57bf
000002e0: 950a 883e 8cd6 2cbe 9068 193e 525f 16be
000002f0: ed53 30bf 061c 763e a4bf 4ebe b778 8a3e
00000300: 5447 6c3b 6cbc 593f ddb5 da3d 08b3 1bbe
00000310: bed3 de3e 4cd9 903e 6a2b d43e 63ab 343f
00000320: 9900 e7bd 1095 d73e a584 3bbd d177 e03e
00000330: 7133 b43e 87b8 c7bd 9b63 233e 8514 e9bd
00000340: 796b f13c 54e1 073e b727 d7be 24c0 9c3e
00000350: 9e3f 163e 2097 3b3f ef76 e43e 3786 4cbf
00000360: 7654 de3e a696 76bd bbbc 563d 21e6 37bd
00000370: 1742 f5be add1 5f3e ded6 f3be 142e e93c
00000380: ae77 d83d c7b7 683c 4619 a93d 86f1 313d
00000390: 6090 0fbe 12b4 3bbe 2b60 a3bd 2b63 c0bd
000003a0: 1ece 4b3d cce6 07be c589 c93d 8378 4cbe
000003b0: 57e9 a13d e8f6 d8bd f1fc 223e 415f 213d
000003c0: 3aa0 243e 80d5 35be 927a b4bd f678 df3c
000003d0: 5d10 e53d e4e5 f3bd a85b adbc 4fbf c23b
000003e0: f31a 69bd 9d61 853d 0249 2fbe b6c6 273e
000003f0: ba9e 0a3e 4408 d8bd 12fc ae3d 75a7 dabc
0.15852755 0.7185684 0.18010902 -0.27222314 0.3114405 0.4384035 0.23953655 0.51707786
-0.077420756 0.43658125 -0.04251972 0.32259694 0.37869912 -0.095371634 0.40659404 -0.038029123
0.091092154 0.17731594 -0.36717522 0.39315727 0.041211084 0.58169293 0.24214384 -0.7782791
0.21310695 -0.13672054 0.1186242 0.10059183 -0.3559778 0.36655647 -0.33181265 0.122959435
-0.02163071 -0.050792016 0.035375502 0.09874356 0.08239771 0.03574416 -0.017487912 -0.06580748
-0.08203534 0.07805877 0.1592581 -0.019499648 0.009751679 -0.035865746 -0.14017266 0.07632497
-0.15196127 0.05236015 -0.08876315 -0.13668045 -0.20157409 0.089166544 0.053221166 0.11501977
0.05289162 0.15235849 -0.13375844 0.14798623 -0.063698 0.0365613 -0.15749402 -0.11914389
-0.109933816 -0.06285465 -0.15599695 -0.0011991725 -0.2666599 -0.06473175 0.20505454 0.020559732
0.02279595 -0.35048765 -0.14184201 -0.08908441 0.077292815 0.12589616 0.072278135 0.0602238
0.09516636 0.036830764 0.20809692 -0.5867044 0.06503105 -0.106375776 -0.3064447 0.38829982
-0.2489873 0.090484075 -0.25040185 -0.15847912 0.2084034 -0.119188614 -0.23337683 -0.18994926
0.16168222 0.86468273 -0.09859613 -0.25753877 0.23521045 0.43799493 0.29221857 0.5594195
-0.08293961 0.642959 -0.070533805 0.42984426 0.11695308 -0.05094827 0.19611618 0.051395446
0.094599694 -0.3064271 -0.33609167 0.46529934 0.22004572 0.8321138 0.3666612 -0.83277875
0.31793666 -0.03199131 0.07889421 0.010767596 -0.7125972 0.31614497 -0.33583337 0.23619145
-0.12688574 -2.714883 -0.046085976 0.9288102 0.025407385 0.59895205 0.19213714 -2.689439
-0.008413627 -2.8615317 0.17428054 0.6352934 -0.15757331 -0.15046366 -2.4614198 0.06792363
0.1727796 -0.0031056313 0.9963867 0.25432938 -0.3004105 -2.4155269 -0.1437277 1.4279766
-1.4798557 0.14354028 -0.10507242 0.17098685 1.1100463 -0.15262549 0.73811436 -0.20086583
0.10899634 0.74627006 -0.016979259 -0.27090997 0.40937787 0.23051333 0.10136204 0.6851913
0.08484242 0.37711355 0.09021362 0.3710267 0.26191592 0.15009299 0.40977928 -0.009525399
0.1224886 -0.19215022 -0.065082245 0.28480434 0.030223627 0.85933155 0.46848923 -0.84282494
0.26570573 -0.16878718 0.14981294 -0.146848 -0.6887806 0.24034128 -0.20190293 0.27045223
0.0036053257 0.85053134 0.10679219 -0.15205014 0.4352092 0.28290784 0.41439372 0.70574015
-0.11279411 0.42105913 -0.045780797 0.43841413 0.35195497 -0.09751993 0.15955965 -0.11380867
0.029470192 0.1326955 -0.42022488 0.30615342 0.14672706 0.73277473 0.4462199 -0.79892296
0.43423814 -0.060202263 0.05242608 -0.044897202 -0.47901985 0.21857329 -0.47624868 0.028464355
0.10569702 0.014203972 0.08256774 0.043443225 -0.14019918 -0.1833041 -0.07977327 -0.09393915
0.049757116 -0.13271636 0.098407306 -0.19967847 0.07905834 -0.10593969 0.15916802 0.03939748
0.16076747 -0.17757225 -0.08812441 0.027279358 0.11184762 -0.119090825 -0.02116187 0.005943216
-0.056910466 0.06512759 -0.17117694 0.16384396 0.13537112 -0.105484515 0.08544172 -0.026691178

short_term_context_network.fc2.bias f4 [16]
00000000: 2158 1b3e 9b58 99bc 7465 89be ad4a 0c3e
00000010: b788 53be 44ad 363e 2094 423e cb83 1ebe
00000020: 3888 363e 51e7 aa3e b1b1 bd3e 8be2 503e
00000030: 74a7 913e bbfc 893c 4d64 943e 0f5b 3abe
0.15170337 -0.018719008 -0.26835215 0.13700362 -0.20657621 0.17839533 0.19001818 -0.15479963
0.17825401 0.33379605 0.3704963 0.2039892 0.2844807 0.016844144 0.28982773 -0.18198799

short_term_context_network.fc3.weight f4 [1, 16]
00000000: ec04 ee3e fbac 57bd 685b e8be 724b 453f
00000010: 31e9 bfbf cb18 423f 3275 f23e e697 4f3e
00000020: 8e67 383f 83f7 e33e 1258 fd3e 0c19 9dbe
00000030: 6db3 053f a970 04be f4a1 373f 61b8 b5bd
0.4648813 -0.0526552 -0.45382237 0.77068245 -1.4993039 0.7581908 0.47355038 0.20272788
0.7203301 0.44524774 0.49481255 -0.30683172 0.52226907 -0.12933601 0.71731496 -0.08873058
