Uni_Research/IRL/Final/Extended/Testing_Suite/model_SC_C0_R1000_S100.0.pth (torch, 91353 bytes, 11 tensors)

main_network.lstm.weight_ih_l0 f4 [256, 15]
000000 b1 2c da 3d fb a7 fa bd be a5 8a 3d aa f7 7f bd
       0.106530555 -0.12239071 0.06769894 -0.06249205
000010 ba f7 96 3d bb d3 c7 3b 91 93 82 3d ac 43 90 3d
       0.07371469 0.0060982383 0.06375802 0.070441574
000020 01 49 9d bc f0 c9 9a bd ec f0 4c bc ac bf 07 bc
       -0.01919985 -0.07558048 -0.012508612 -0.008285444
000030 f6 0e a8 bd f5 92 46 bd 1b ee 35 bd c5 d8 70 3d
       -0.082059786 -0.048479993 -0.04441653 0.058800478
000040 8c 76 a4 bd 09 4c b5 bc 10 fa 73 bd 66 08 12 bd
       -0.080304235 -0.022130983 -0.05956465 -0.03565254
000050 a9 7e 59 3d 2f 62 e2 3d be cb 56 3d 48 3b 1a bd
       0.05309931 0.11053883 0.052440397 -0.03765419
000060 18 f8 1b bd 71 ad 38 bb 83 39 5e bd 99 c7 02 3e
       -0.038078398 -0.002817955 -0.054254066 0.12771453
000070 1a 4e 0c 3c 65 86 9e bc 4c cc c8 bc 8a da 2b 3d
       0.008563543 -0.019351194 -0.024511479 0.041956462
000080 99 fe 12 3d cf c4 87 3c e1 8f 75 bd e2 9d d1 3d
       0.035887334 0.016573338 -0.059951667 0.10235192
000090 b0 27 0a 3d 35 f5 c3 bd 61 d6 6d 3d 23 b9 5d 3d
       0.033729255 -0.09568254 0.058065776 0.05413164
0000a0 f0 98 76 bd 46 65 04 3d a9 e8 ff 3c 1e 2c a4 bd
       -0.060204446 0.032323144 0.03123887 -0.08016227
0000b0 47 6a d0 bc ba ba ac bd 1f ba b1 bd d2 6a 0d bd
       -0.025441302 -0.08434053 -0.08678078 -0.0345257
0000c0 ab 44 ee 3d 83 27 1b bb b8 34 02 bd c9 bd b5 bc
       0.11634191 -0.0023674674 -0.031788558 -0.022185223
0000d0 7f 4f 54 3c 7d a2 76 bd 4e 45 05 3e a5 a2 c0 bc
       0.0129584065 -0.060213555 0.13014719 -0.023515055
0000e0 20 19 cf bd ea 39 e7 3d 0f ff 39 3d 9f 84 6c bc
       -0.10112214 0.11290343 0.04540926 -0.014435916
0000f0 c1 b3 4c bc 35 b9 9b 3d 44 51 a5 bd ee b5 de 3b
       -0.012494029 0.07603685 -0.08072141 0.00679659
000100 82 66 91 bc 21 30 a7 bd 79 ce 81 bd d8 c4 06 be
       -0.017749075 -0.08163477 -0.0633821 -0.13161027
000110 3a 1e d1 bd 4e 0f a1 3d 2d 05 85 3d 6a cb 22 bd
       -0.102108434 0.07864247 0.06495128 -0.039744772
000120 92 ff 9e 3d a1 ad f3 bb 1e df 8c 3d 1d 44 23 b9
       0.0776359 -0.0074364697 0.06878494 -0.00015570266
000130 84 7a 03 3e 43 83 0f 3d eb 24 72 3d cb b1 78 3d
       0.12839705 0.03503729 0.05911724 0.06071643
000140 0f 4e 04 3e 94 69 0f 3e f2 d8 9e bd 06 ed 9a bd
       0.12920402 0.14005119 -0.07756223 -0.0756474
000150 69 45 00 bc 26 04 eb 3d 27 95 69 bd ad 7a a9 bd
       -0.007829049 0.114754006 -0.05702701 -0.08275352
000160 34 92 ce 3d c6 6e c5 bd 68 62 16 be 9b eb 37 bd
       0.1008648 -0.09640269 -0.14685977 -0.044902425
000170 78 15 e0 3a 26 61 3c bd a8 2d 61 3d 1d 83 e6 bd
       0.0017096242 -0.045991085 0.05497518 -0.112554766
000180 f8 3e fb bb 0f 1d 0b 3d 17 97 ee bd 6c 3e e4 bd
       -0.0076674186 0.03396326 -0.11649912 -0.111447185
000190 38 b6 e1 bd 70 f1 9a bd c2 c9 e9 bd 76 cf a7 3d
       -0.110210836 -0.07565582 -0.114154354 0.08193867
0001a0 2f e6 28 3d 4a 27 f3 bd 97 04 c3 bc 8c 0b 9c bd
       0.041235145 -0.11872728 -0.0238059 -0.0761939
0001b0 b3 00 a6 bc 53 19 8d 3d 19 ef 91 bd 78 2b ba 3d
       -0.020264005 0.06889596 -0.071256824 0.09090322
0001c0 37 71 9e bd d3 c5 5c 3d 6f b8 b2 3c d2 74 f5 3c
       -0.07736438 0.053899597 0.02181646 0.02996293
0001d0 1f 78 1a 3b d7 6b 80 3d 72 fb 05 3d e9 7d c6 bd
       0.0023570133 0.06270569 0.0327105 -0.09691984
0001e0 8a fd e7 3d 39 e4 dc 3d 81 5a 4d bd f7 01 ff 3d
       0.113276556 0.107857175 -0.05013514 0.12451547
0001f0 7b a5 e8 3c 3f a5 8e bd 18 ca 87 bd ff 0b 1b 3c
       0.02839922 -0.06965112 -0.06630343 0.009463309
000200 98 b8 2c bd 82 34 8d 3d fc 46 97 3d fe 15 97 bd
       -0.04216823 0.06894781 0.07386586 -0.073772416
000210 37 2e b0 3d 64 d9 10 bd c9 09 d2 bb 3f d4 33 3d
       0.08602565 -0.03536357 -0.006409858 0.043903586
000220 22 30 2e bd 44 5c c3 bd 97 23 00 3e 89 f7 70 3b
       -0.04252637 -0.09539083 0.12513576 0.0036768636
000230 2e 3d c3 3d 75 2a a3 bd b3 6c f3 3c b0 f2 6e 3d
       0.095331535 -0.079670824 0.029714918 0.058336914
000240 ff 94 2b 3c ae 09 ef 3d 73 8a 0d 3e b8 0b b2 bd
       0.010472535 0.11671768 0.13822345 -0.086936414
000250 15 32 1c 3e 28 1f df 3a 68 d5 bd 3b 5c 63 22 bd
       0.1525348 0.0017022835 0.0057932623 -0.039645538
000260 b0 d8 07 3e 8c 98 b9 bd fb c1 23 bd 09 ae b0 3b
       0.13266253 -0.09062299 -0.039979916 0.0053918404
000270 73 80 04 be 40 4b 65 3b 73 e9 4c bc 10 06 34 3d
       -0.12939624 0.003498748 -0.0125068305 0.043951094
000280 92 2c 04 be 98 d4 4b bd 05 a2 c3 bc 16 47 e2 3c
       -0.12907627 -0.049763292 -0.023880968 0.027621787
000290 71 5b a5 bc f2 fe a0 ba 69 b0 17 bd 9e 78 84 bb
       -0.020185204 -0.0012283011 -0.037033472 -0.004042699
0002a0 ba e7 71 bd b8 85 a0 3d 36 99 9a bd 28 0f c7 3c
       -0.059058882 0.07838005 -0.07548754 0.02429922
0002b0 f0 0c 40 3d 53 3d d2 bc b0 1f 7f 3d 1d e1 dd bd
       0.04688734 -0.025664007 0.06228608 -0.108339526
0002c0 19 9d 84 bd 82 5a 98 3d af 6a 89 bd e1 22 b2 bd
       -0.064752765 0.07439138 -0.067098014 -0.08698059
0002d0 d9 89 e8 3d 25 a4 38 3d 86 95 ae 3d ad c8 5d 3d
       0.11354417 0.045078415 0.08524613 0.054146457
0002e0 3d 94 87 3d a5 f0 a2 bc bd ee b7 3d 53 ac e1 bd
       0.06620071 -0.019890139 0.089810826 -0.11019196
0002f0 c5 c7 9e 3d 14 e3 08 3c a2 a4 39 bd 0b f2 93 bd
       0.07752947 0.008354921 -0.04532302 -0.072239004
000300 d7 3f 6e bd 44 80 12 3e de 3b 97 bd 87 89 96 bd
       -0.05816635 0.14306742 -0.07384466 -0.0735045
000310 32 c7 84 3c 04 5e 97 bd b4 83 65 bd 23 e6 80 bd
       0.016208265 -0.07390979 -0.056033805 -0.06293895
000320 13 22 95 bd 6f da 73 3d fe 42 a0 3d 36 e5 30 3b
       -0.0728189 0.059534486 0.07825278 0.002699209
000330 8e ea 9c 3c 40 81 9b bc cb 1e 91 3d 68 d3 76 3d
       0.019154813 -0.01898253 0.070859514 0.060260206
000340 98 24 07 3d 8d dc d6 bd 34 f0 90 bd 5d 88 de bd
       0.032993883 -0.104912855 -0.07077065 -0.10865853
000350 e7 14 ea 3d 02 5f fe bd e6 79 35 3c a2 58 33 3a
       0.11429768 -0.12420465 0.011076426 0.00068415154
000360 61 81 cd 3d 74 51 0d be f7 bc 24 3d a9 75 4e 3d
       0.10034443 -0.13800603 0.040219273 0.05040518
000370 ad 70 96 bc 07 e2 ce bd e6 04 36 bd d1 78 6a 3d
       -0.018364275 -0.10101705 -0.044438265 0.057244126
000380 ab 0e c0 bd 99 ca 96 bd 0f e1 8b 3d fe 43 0d 3d
       -0.09377798 -0.07362861 0.06830036 0.03448867
000390 d6 ca 63 3c da c4 5f 3d 9c d1 8d bd f9 24 09 3e
       0.01390334 0.05463109 -0.069247454 0.1339301
0003a0 7d cf 92 bd 4e 88 30 bd 6f ac 78 bd 4b f0 91 bd
       -0.071684815 -0.04309874 -0.06071132 -0.0712591
0003b0 36 9c 9d ba 72 0d 98 bd a7 2c a6 3d 10 9e d0 bc
       -0.0012024704 -0.074244395 0.081139855 -0.025465995
0003c0 bd 65 ab bb 4d c1 e4 bd 56 f4 98 bd 8a 62 19 3d
       -0.005230634 -0.11169682 -0.074684784 0.03744749
0003d0 00 ad 12 be b1 54 ca bd b6 1c e6 bd b7 c8 b6 3d
       -0.14323807 -0.09879435 -0.11235945 0.08925002
0003e0 9d 2e 24 bc 15 7c b7 bd cb eb e7 bd 2f e1 3f 3d
       -0.010020879 -0.08959214 -0.11324271 0.04684561
0003f0 f7 10 bc 3c f4 fa 94 bc 03 ba b2 3d e4 4e 1f 3d
       0.022957308 -0.01818607 0.08726885 0.038893595

main_network.lstm.weight_hh_l0 f4 [256, 64]
000000 9f b7 0f 3c ff 21 50 bd 15 bd 7c bd 4c 0e ad 3d
       0.008771806 -0.05081367 -0.06170376 0.084499925
000010 94 7a 93 bb f2 03 92 3d 19 a0 c2 bd 71 96 17 3d
       -0.0045006964 0.07129659 -0.095031925 0.037008706
000020 55 07 be 3d cf 56 b3 bd 1d 46 17 bc 3f 49 6b bd
       0.09278742 -0.08756792 -0.009233025 -0.0574429
000030 af 24 da 3a 6a 8a bb 3c f8 60 bf bd 7f dc b3 bd
       0.0016643013 0.02289315 -0.09344667 -0.08782291
000040 4c 15 be bc a4 13 b8 bc bd 4f ba 3d df 6e 84 3d
       -0.023203515 -0.022470303 0.0909724 0.064664595
000050 95 13 ce bd 31 fb 39 3c 22 62 c5 3d ad ee cc 3d
       -0.10062329 0.011351393 0.09637858 0.10006461
000060 1f 59 78 bd 59 8a ef 3d d5 c5 dd 3d 27 19 68 bd
       -0.060631867 0.116963096 0.10828749 -0.056664612
000070 62 9d 12 3c 1f 40 8f 3d 78 d1 08 3d 2c a6 5b 3d
       0.008948656 0.06994652 0.03340289 0.05362527
000080 5e bf 7c bc d9 e9 d5 bc 54 29 a0 bd d9 fc 8f 3d
       -0.015426485 -0.026112484 -0.07820383 0.07030649
000090 b4 de e4 3d aa 83 95 bd d6 9e d0 3c ea 78 ab bd
       0.1117529 -0.073005036 0.025466364 -0.08372672
0000a0 b5 48 76 bd 19 9a 78 3d 39 1e f6 bb 7a aa a1 bd
       -0.060127933 0.060693834 -0.007510927 -0.07893844
0000b0 40 76 6a bd 11 5e f5 bd 33 a7 a2 3d d3 f8 f6 bc
       -0.05724168 -0.11980832 0.07942047 -0.030147946
0000c0 5d e3 09 3e cb 3c 93 bd 04 ae 16 bd 60 62 84 3d
       0.13465638 -0.0718933 -0.036787048 0.06464076
0000d0 61 0a a5 bd 4d 76 0e bd 4c 9b e6 bd 8f 7e d2 3d
       -0.0805862 -0.03478079 -0.11260089 0.102780454
0000e0 ae 0e cd 3d e3 1a c7 3c dd 9e 0a 3e aa 65 e1 bd
       0.100125656 0.024304813 0.13537164 -0.11005719
0000f0 2e df 83 bc 77 11 fc 3d 39 02 5f 3d b5 29 92 3d
       -0.016097631 0.12308019 0.05444548 0.07136861
000100 02 cd ca bc 28 9a e2 bd 26 59 e3 bd 7b 1a 9a bd
       -0.024755958 -0.11064559 -0.11100988 -0.07524582
000110 5b 02 ae bd e4 a7 b6 bc 96 55 05 3e 0a d2 ec 3d
       -0.08496543 -0.022296853 0.1302093 0.11563499
000120 da be d6 3d e3 19 b6 bd 69 89 e3 3d 7a 1c 67 3d
       0.10485621 -0.08891656 0.11110193 0.05642364
000130 a5 f9 c7 bd 8a a8 11 3d 7c fa 62 3d b1 39 34 3d
       -0.09764413 0.035561122 0.05541466 0.04400033
000140 0f e7 86 bd 85 e4 25 3d 67 32 1b bd e8 ae 8f 3d
       -0.0658704 0.040501136 -0.037889864 0.070157826
000150 45 19 0d 3d 62 1d 00 bc 89 21 ae 3c b0 c9 8e bd
       0.034447927 -0.007819505 0.021256225 -0.069720626
000160 ea ca 12 be f7 c4 9f bd 27 ba 86 bc 30 7b d8 bd
       -0.14335218 -0.0780124 -0.016446186 -0.10570371
000170 eb f7 d8 3b 8e 9b 10 be b0 14 12 be 19 17 44 bd
       0.006621351 -0.1412184 -0.14265704 -0.04787359
000180 c4 08 ea 3b 8f 62 8e bc 80 13 b3 bd 8e 30 ac 3d
       0.007142158 -0.01738098 -0.08743954 0.084076986
000190 a4 83 e3 3d b3 46 95 bd dd a7 65 3d 86 b7 7a 3d
       0.11109093 -0.072888754 0.05606829 0.061210178
0001a0 65 7c 41 3c 04 a4 90 3d bf 99 00 be 65 37 bf 3d
       0.011809443 0.070625335 -0.1255865 0.093367375
0001b0 ce 42 94 3b 69 a4 ed bd bf 39 97 3d c7 12 ac bc
       0.0045245653 -0.116036244 0.07384061 -0.021005047
0001c0 6b 04 26 3c 2d 10 c1 bd a4 6e fe bd fc c9 6c 3a
       0.010132889 -0.094269134 -0.12423447 0.00090327836
0001d0 ca 5f e7 3d 4f cd d1 bd 2e 14 9b 3d 84 9b 62 3c
       0.11297567 -0.10244238 0.07572208 0.013831023
0001e0 3d da b6 bc da 1a 9d bd 2f 93 6f bd c6 33 cc bd
       -0.022320861 -0.07671137 -0.058489975 -0.099708125
0001f0 39 5b 9c bd 2f aa 62 bd 43 7a 03 3d b4 90 88 bd
       -0.07634587 -0.05533808 0.03209902 -0.06668225
000200 16 0e 2a 3d 44 01 f0 bd ff 6e c5 bd 00 a9 c7 bb
       0.04151734 -0.117189914 -0.096403114 -0.0060931444
000210 42 1b 55 3d 2e e9 8b 3d b6 f3 0e 3c 5d 97 c6 3d
       0.05202795 0.06831585 0.008725097 0.09696839
000220 39 63 30 bd 1d b2 d1 3c 36 fb 6f bd 8d 6c b1 bd
       -0.043063376 0.025597626 -0.058589183 -0.086632825
000230 3b f2 74 bd 46 3a a3 3d 4c 7c 75 bd 13 20 7e bd
       -0.05980132 0.07970099 -0.05993299 -0.062042307
000240 05 10 b4 bd 0b eb a1 3d 8f 09 81 bc 19 7f d2 3d
       -0.08792118 0.07906159 -0.015751628 0.10278148
000250 14 63 a3 bd 85 ac c0 bc 51 04 f7 bd 26 23 65 3d
       -0.07977882 -0.023519764 -0.1206137 0.055941723
000260 2b a5 04 be f7 00 64 3d b9 f0 e9 bd 3f 71 60 3d
       -0.12953632 0.055664983 -0.11422867 0.0547955
000270 70 af 09 be c7 29 99 3c bc 65 ad bd ae 54 d8 bd
       -0.1344583 0.018696679 -0.0846667 -0.10563026
000280 0f b0 0f be e7 5f f1 bd 6f 8c 87 3d 48 e3 cc 3d
       -0.14032005 -0.1178587 0.066185825 0.10004288
000290 49 f3 ca bd ac dc 78 bd 7d 76 a3 3d 87 c1 ac 3d
       -0.09909684 -0.060757324 0.07981584 0.0843535
0002a0 e4 b3 96 bc 40 b3 a6 3d ff 8e 85 bd 0d 70 2c 3d
       -0.018396325 0.08139658 -0.06521415 0.042099047
0002b0 c5 98 b2 3d f5 5d 9e 3d 6f b9 88 bb 0e e6 d7 bc
       0.08720545 0.07732765 -0.004172496 -0.026354816
0002c0 1b ca 40 bd 9c b7 98 bd 19 b6 b5 3c 6b 29 cf 3d
       -0.047067743 -0.07456896 0.022181557 0.10115322
0002d0 08 22 64 3d 58 f7 9a bd 73 22 ee bd 48 6e ac bd
       0.055696517 -0.07566708 -0.116276644 -0.08419472
0002e0 17 38 16 3a af 38 bb bd b1 42 eb 3d 12 61 03 bd
       0.0005730404 -0.09141671 0.1148733 -0.032074995
0002f0 49 75 1a bd 34 c5 bf 3d 3e ad 12 bd 60 b7 c4 bc
       -0.037709508 0.093637854 -0.035809748 -0.024013221
000300 ff 7a b4 bb a2 a0 7c 3d c0 d0 89 bd 1a 05 18 be
       -0.0055078263 0.06167663 -0.06729269 -0.14845696
000310 9a 9f 88 3d e0 99 a1 3d 9f 95 d6 3d b5 5d 0e 3e
       0.066710666 0.078906775 0.10477757 0.13902934
000320 7c 39 73 3b a7 b1 3f bc 95 0e 17 3d c8 77 ac 3d
       0.003711312 -0.01170007 0.03687914 0.08421284
000330 d7 1f b8 3d 0c aa 6f 3d 37 5d fc bc e4 ce 4d bd
       0.08990448 0.05851178 -0.030806167 -0.050246134
000340 be 32 74 3b 36 dc b6 bd 98 f6 8f 3d 4d ee ea 3b
       0.003726169 -0.08928721 0.07029456 0.007169521
000350 ad ce 3f bd 8a 2d 60 bc d0 31 3d bc f4 9e d5 bb
       -0.04682796 -0.013682732 -0.011547521 -0.006519193
000360 7a 26 37 bd d2 24 c8 3d f1 2f d3 bd b1 11 05 3e
       -0.04471443 0.09772648 -0.103118785 0.1299503
000370 23 f3 ac 3c ad 83 da bc ce f6 14 3d fe 06 0a 3c
       0.02111203 -0.026674116 0.036368184 0.008424519
000380 6f 9c a5 ba 04 61 63 bc aa dd 67 3d 31 25 66 3d
       -0.0012635122 -0.013878111 0.05660788 0.056187812
000390 34 ae de 3d af 69 a4 3d c6 7a 73 bd 97 5f 01 be
       0.1087307 0.0802797 -0.059443258 -0.12634121
0003a0 db d6 4d bd 23 70 1a bd dd e5 c6 bd e0 fd 44 bd
       -0.05025373 -0.0377046 -0.09711812 -0.048093677
0003b0 58 26 8d 3d ce e2 a8 3c cd 7c 8c 3b 57 42 1d 3d
       0.06892079 0.020615961 0.0042873383 0.038393345
0003c0 8d bb 02 bd df ac e0 3d 22 a9 85 3d 3a ce ac 3d
       -0.031917144 0.109704725 0.065264 0.08437772
0003d0 94 b1 ab 3c f3 52 f6 bd fb 9b c5 bd b8 9f 80 bc
       0.0209587 -0.1202754 -0.096488915 -0.01570116
0003e0 c5 d9 5f 3d ec a4 90 3d 8f 58 b0 ba a7 c4 80 3d
       0.05465104 0.07062706 -0.0013454127 0.062875085
0003f0 eb 8d df bc 6a f9 7f bd bb 15 26 bd 65 27 37 bd
       -0.027289351 -0.06249372 -0.040548068 -0.044715304

main_network.lstm.bias_ih_l0 f4 [256]
000000 0e 1b c3 3d 72 0d 68 3d df 7e a1 bd ed e2 b4 bc
       0.09526645 0.056653447 -0.07885527 -0.022080863
000010 20 a8 78 bd cd bc 63 bd f2 60 bf bb 05 03 9e 3d
       -0.06070721 -0.055599976 -0.005840414 0.0771542
000020 1b d6 f9 3d e9 5b 0c 3c e4 f6 b9 bd f5 d2 8e bd
       0.121990405 0.008566835 -0.09080294 -0.069738306
000030 c2 bf c1 3d 50 e4 02 3e 12 48 88 bc 1d 55 31 3b
       0.09460403 0.12782407 -0.016635928 0.0027058788
000040 1a a1 95 3b a2 ec d8 3d fb cf 70 3d 13 14 85 39
       0.004566324 0.10592009 0.058792096 0.00025382693
000050 61 82 be bd c0 59 9f 3d 72 1f 18 3e 98 74 4a bd
       -0.093022116 0.0778079 0.14855745 -0.0494276
000060 cc d5 00 be 6e 43 5c 3c 18 bd b8 3c 75 af ad 3b
       -0.12581557 0.013443811 0.022551104 0.005300457
000070 10 83 e1 bd 7a 7e 4b 3d ee a5 55 3d fe 6c 2c 3d
       -0.11011326 0.049681164 0.052160196 0.04209613
000080 0c 1b c3 bd 43 04 34 bd bf f2 da bd ec d8 72 3c
       -0.09526643 -0.043949377 -0.106908314 0.014822226
000090 b3 77 30 3c 77 7b eb 3d fd bc 4f 3d c6 0e ab bd
       0.010770726 0.114981584 0.050717343 -0.08352427
0000a0 2c 90 6f bd 48 47 8a bd 7b a4 68 bd 9e 70 08 3e
       -0.058487102 -0.06751877 -0.056797486 0.1332421
0000b0 08 53 e7 bc c5 7b 72 bc c4 d0 07 3d d3 f0 7a bd
       -0.028237835 -0.014800017 0.03315808 -0.061264824
0000c0 79 f7 fd bd b6 e3 ce 3c 6a 8e 4e 3d 42 b9 6d 3d
       -0.12400717 0.025255065 0.050428785 0.058038004
0000d0 b9 be af bd cd 34 5e bb 90 97 94 bd 1e b7 07 3c
       -0.08581299 -0.0033905983 -0.07255471 0.008283405
0000e0 3b 5e 53 bd 14 14 d2 3d ea 66 98 3d 3f 1a 67 bd
       -0.051603537 0.10257736 0.07441504 -0.056421515
0000f0 12 30 d4 bd fb 3e e7 3a a2 12 bc 3d 96 9c 28 3d
       -0.10360731 0.0017642671 0.091832414 0.041164957
000100 d9 86 96 3d 8d b1 86 3b f3 0d f2 3d 4f b1 73 3d
       0.07349939 0.004110521 0.11819067 0.059495267
000110 1b f0 bd bd ce be a8 bd 36 03 be bd 7f 93 cf 3d
       -0.09274312 -0.08239518 -0.09277956 0.101355545
000120 80 41 d5 bd 1f fb 1d 3d 23 9b 7d bd 4f 7a 63 bb
       -0.10412884 0.038569566 -0.061915528 -0.0034710353
000130 24 e3 81 bd e0 3b b7 3d 68 f7 32 3c 56 49 46 bc
       -0.06342152 0.08946967 0.010923244 -0.012102446
000140 05 df 24 bd 1e d1 d6 bc 8e 83 b1 bd 1d 70 3b 3d
       -0.04025175 -0.026222762 -0.0866767 0.045761216
000150 72 15 b5 bd 13 de 98 3c be 7f 94 bb 3a 25 a5 3d
       -0.08841981 0.01866058 -0.0045318296 0.08063741
000160 43 12 36 bd 43 bb da 3c 5b e2 08 3d 0f 40 cb 3c
       -0.04445101 0.026700621 0.033418994 0.024810819
000170 7e 95 49 3c 32 fb f5 3d 1c c9 87 3d 0a 47 b8 3d
       0.012303708 0.12010802 0.066301554 0.089979246
000180 6b 4d a7 bc 8c d3 52 3b eb 0f fd bc 82 e8 e5 bd
       -0.020422658 0.0032169549 -0.03089138 -0.11225988
000190 2a 81 88 bd 72 b9 9c 3d b0 42 11 bc 1b 34 09 3d
       -0.06665261 0.076525584 -0.008865997 0.033496957
0001a0 f1 20 fa 3d cd ee 17 3d ad df ae 3d 7d aa 50 3d
       0.12213314 0.037092973 0.085387565 0.05094384
0001b0 c6 e8 67 3d d7 98 5f bd 31 38 a0 bd 54 c4 39 3d
       0.056618474 -0.05458912 -0.07823218 0.04535325
0001c0 85 78 74 bd c2 77 7e 3c 9d 2f 70 3d 2f 82 91 bd
       -0.05968525 0.015531482 0.058639158 -0.07104909
0001d0 b8 98 3b 3d 05 ab fc 3d 56 42 bf bd 4b 88 a1 3d
       0.04579994 0.12337307 -0.093388245 0.07887324
0001e0 14 0a ae 3d f8 01 71 3d b4 70 a1 3d bf 44 57 3d
       0.08498016 0.05883977 0.078828245 0.052555796
0001f0 5c 88 47 3d e9 e9 01 3e b6 15 84 bd 7c a4 0e 3c
       0.048714027 0.12686886 -0.064494535 0.008706208
000200 0e 91 42 bb b6 f2 5e bd 2e a4 1a 3c 14 25 c5 bd
       -0.002968851 -0.054430686 0.009438558 -0.09626213
000210 04 64 84 bd 72 c4 e9 3d 77 27 3a bd 44 09 55 bc
       -0.06464389 0.11414422 -0.045447793 -0.013002697
000220 ca 97 c4 3d e2 bd c0 3d 1c d0 d8 bd 8d 2e 42 3d
       0.09599264 0.09411217 -0.10586569 0.047407676
000230 30 3b 8a 3d 18 04 df bd 46 67 a9 bc f8 77 14 be
       0.0674957 -0.10889453 -0.020679127 -0.1449889
000240 bb 23 05 3e a8 8a e1 bd 37 96 05 be 35 a6 85 bd
       0.13001911 -0.11012775 -0.13045584 -0.06525842
000250 11 86 5c bd c9 10 8c 3c dd 39 e1 3d b0 ef ed 3d
       -0.053838793 0.017097848 0.10997365 0.116179824
000260 a1 6f c7 3d 74 55 c5 3d 22 ff 54 3d 08 66 a9 3d
       0.097380884 0.096354395 0.052001126 0.08271414
000270 f4 aa 2c bb 59 7d e0 bd 01 58 01 3d ee 75 4a bd
       -0.0026347013 -0.10961408 0.031578068 -0.049428873
000280 b2 d5 6c bc a2 5f 94 bd 8b b7 62 3c 41 eb dd bd
       -0.014455246 -0.07244803 0.013837705 -0.10835887
000290 1b 94 ad 3c 8c 80 fa 3d 73 43 92 3d 13 6c 30 3d
       0.021188786 0.122315496 0.07141771 0.043071818
0002a0 d9 31 89 bd 7f 74 30 bd ad cc ae bd 2f d6 82 bd
       -0.06698961 -0.04307985 -0.085351326 -0.063885085
0002b0 9e d7 b9 3d 80 3f 01 be 4d 67 46 3d e4 cf c8 bd
       0.09074329 -0.1262188 0.04843836 -0.09805277
0002c0 46 27 91 bd 39 2c ba 3d 0d ca 91 3d 3c ed 85 3c
       -0.07087569 0.09090466 0.07118616 0.016348474
0002d0 b6 7f a9 3c 82 72 8d bd 56 ea 09 bc 27 a8 dc 3d
       0.02069078 -0.06906606 -0.008417686 0.1077426
0002e0 e9 82 54 bc ec 4a 05 3e 27 99 f3 bc c9 f5 28 bc
       -0.012970665 0.13016862 -0.029736115 -0.010312506
0002f0 ec c1 bb bc 2f 25 f8 3c da ea 00 3e 72 32 f4 bc
       -0.022919618 0.030291168 0.12589589 -0.02980921
000300 6e 0b e4 3d 5c 7f 60 bc 50 d6 3f bc 01 de 96 bd
       0.111349925 -0.01370224 -0.011708811 -0.07366563
000310 35 9e 6b bd ac eb 1c 3a 3b 49 e8 bd 56 85 c3 bd
       -0.057523925 0.00059860456 -0.113420926 -0.09546916
000320 f1 f9 30 bd 9f 33 bb 3b 33 20 24 bc ce 88 03 3e
       -0.043207113 0.005712941 -0.0100174425 0.12845156
000330 f2 2a 50 3d fa 43 9a bd 8e 9d ea bd a7 50 96 3d
       0.050822206 -0.07532497 -0.114558324 0.07339602
000340 5f 22 7d 3d 12 20 0b 3e de 6e a4 3d fd d4 46 bd
       0.061800357 0.13586453 0.08028959 -0.048542965
000350 5e 17 b7 3d 8c 9e d4 3d 7d d9 25 bd 95 96 a1 3d
       0.08940004 0.10381803 -0.040490616 0.07890049
000360 70 e9 ae 3d 3e 8f 6e 3d 12 ac 50 3d 88 b8 a3 3b
       0.085406184 0.058242075 0.05094535 0.004996363
000370 5c 63 8f bd 01 cb b3 bd 0b 8e c2 bd 98 d1 a3 bd
       -0.07001373 -0.08778954 -0.09499749 -0.07998961
000380 c1 3c bd bd 33 a3 33 bc e9 b9 07 3b 36 a3 0e 3d
       -0.092401035 -0.010964203 0.0020710176 0.03482362
000390 66 f6 d6 bc 83 2d 97 bc 16 65 8b 3a fe 07 b3 bd
       -0.026240539 -0.018454319 0.0010634984 -0.08741759
0003a0 6e a0 7f 3d 4a eb 72 3d 1f f7 03 bd 51 e2 86 3d
       0.062408857 0.05930642 -0.032218095 0.06586135
0003b0 5a 56 89 bc 57 8d 0e 3e ad c6 d8 bc 86 8a 44 3d
       -0.016764808 0.13921104 -0.026461923 0.04798367
0003c0 26 0d 55 3b ee ff 56 3d 63 8c 12 3c 59 86 03 3e
       0.0032509058 0.052490167 0.008944604 0.12844218
0003d0 0a 45 0b bd 45 17 ac bd af b1 95 bd 50 c3 de bd
       -0.034001388 -0.08402876 -0.07309281 -0.10877097
0003e0 16 d3 a5 bd f4 7d fd bc 31 67 83 bd 69 22 50 bd
       -0.08096902 -0.030943848 -0.064161666 -0.050814066
0003f0 a4 21 f2 3d e3 2b ba bd c3 9f 01 be 6a 70 ff 3d
       0.11822823 -0.09090402 -0.126586 0.12472613

main_network.lstm.bias_hh_l0 f4 [256]
000000 bc 00 98 bd f9 81 b2 3c 63 45 db 3d 40 bc 42 bd
       -0.07422015 0.021790491 0.10706594 -0.04754281
000010 ea 9b 90 bd 08 26 6a bd cf 03 f3 3d c3 ba 9c 3b
       -0.07060988 -0.057165176 0.11865961 0.004783006
000020 41 4f 46 bc 84 ef 18 bd bc 55 9b bd 67 c2 8c 3d
       -0.012103857 -0.037337795 -0.07584712 0.06873017
000030 46 2c 98 3d c3 b2 86 3d 1d fb b3 bd 55 7c b0 bd
       0.074303195 0.06577065 -0.087881304 -0.086174645
000040 be 8a 57 bd 54 bc 5c bd 57 70 6b 3d 33 1e d2 bc
       -0.05262255 -0.05389054 0.057480182 -0.025649166
000050 e3 ca f3 3d a2 20 9f 3d e3 3b a9 3c 23 d0 04 3d
       0.11903932 0.07769896 0.020658439 0.032425057
000060 ae a9 5c 3d d3 ab a0 3d bf a9 90 bc 9b 35 05 3d
       0.053872757 0.07845273 -0.017659066 0.032521825
000070 ec 67 b9 3d 86 7e 49 bd bd 63 49 bd 2f d4 e0 bc
       0.09053025 -0.049192928 -0.049167383 -0.027444927
000080 42 f2 3d 3c b6 d4 f3 3c 80 be a5 bc 5e 9d df 3d
       0.011593403 0.029764514 -0.020232439 0.10918687
000090 3e 1d 58 bd e3 ff c6 3d c7 26 a6 bc 7b 58 e9 3b
       -0.052762263 0.09716775 -0.020282162 0.0071211434
0000a0 e6 59 fe 3d b2 0d ce bd 79 78 4f bd 9e 2f ab bd
       0.124194905 -0.10061206 -0.050652 -0.08358692
0000b0 48 e0 a9 bc 3c 11 ca bd 80 d7 ad bd 11 b5 9f bd
       -0.020736828 -0.098665684 -0.08488369 -0.077982076
0000c0 52 ce bb bd 3a fa 0f bc c2 05 59 3d f3 18 b0 bd
       -0.09170212 -0.008787686 0.052984007 -0.08598509
0000d0 ae e3 91 3c 09 ec 2a 3d 14 4b 8d bd e1 a2 3a bd
       0.017808761 0.041729007 -0.06899086 -0.04556549
0000e0 3e 8d 95 3d 98 4f 8a 3d 4d ca 30 3c b7 a7 6a 3b
       0.073023304 0.067534626 0.01079042 0.0035805532
0000f0 e3 1f 1b bd 9f e3 25 3d fe 8d cc 3d bf 3f 01 3e
       -0.037872206 0.04050028 0.0998802 0.12621973
000100 d7 20 92 3d 62 75 87 bd b5 71 ed 3d 5c f2 11 3e
       0.0713517 -0.06614186 0.115939535 0.14252609
000110 0f 92 02 bd b5 91 f8 3c 58 b1 42 3d ca dc 40 bd
       -0.031877574 0.030342916 0.04753241 -0.04708556
000120 c4 a3 be bd e1 de f6 3d b0 5f 2c bb a7 0a e8 bd
       -0.093085796 0.120542295 -0.0026302151 -0.11330157
000130 08 dd 0d bd 36 4c bc 3d 95 85 d5 bd 85 f5 ac 3d
       -0.03463462 0.091942236 -0.104258694 0.08445267
000140 e0 79 0e 3d 26 22 9a 3d 3b 9c 04 bd f6 d8 4e b8
       0.034784198 0.075260445 -0.032375555 -4.9316288e-05
000150 e0 73 b2 bd 4a fc a1 3d 83 51 9d 3c 7c e3 cf 3d
       -0.08713508 0.079094484 0.019203907 0.10150811
000160 4b 8e b5 3d b8 dc a4 bb d0 a2 04 3e 93 70 12 3d
       0.08865031 -0.0050311945 0.12952733 0.03575189
000170 d0 70 9c 3d 0e 31 79 bd 36 c6 04 3d 89 66 f0 bc
       0.07638705 -0.060837798 0.03241559 -0.029345768
000180 f4 79 7a 3d 3d 3b 54 bd c2 e2 25 3d ad f5 eb 3c
       0.06115146 -0.051814307 0.040499456 0.02880367
000190 0a 34 a2 bd 12 11 b7 bd f4 fc 34 bc 37 d2 70 3d
       -0.07920082 -0.08938803 -0.011046637 0.058794226
0001a0 79 a2 c2 bd d7 a7 1e bd 28 b8 18 3d 90 e7 00 3e
       -0.095036454 -0.038734283 0.037285 0.12588334
0001b0 f8 2f 1a 3d 49 d5 54 bc fc a6 70 bc 6b d6 84 3d
       0.037643403 -0.012990304 -0.01468825 0.064862095
0001c0 a6 fc f6 3d db 75 e7 bc 12 85 c0 3d 76 4f 63 3d
       0.120599076 -0.02825444 0.09400381 0.0554957
0001d0 f5 04 dd bd a4 b4 03 bd 89 e3 cc 3c 61 17 bf bd
       -0.10791961 -0.032154694 0.025010841 -0.09330631
0001e0 71 b1 af 3c 39 47 16 bb ca e1 f8 3d a6 f9 10 3e
       0.021446915 -0.0022930636 0.12152441 0.14157733
0001f0 96 78 87 bd 32 19 e3 3d 44 d1 72 bc 69 da 9f bd
       -0.06614797 0.1108879 -0.014820401 -0.0780533
000200 aa 00 da bd 7f ee 13 bd 00 65 a3 bd 6b 47 23 3c
       -0.10644658 -0.03611612 -0.079782486 0.009965758
000210 68 87 5c 3c 27 64 5f 3d 70 a9 e8 3d ba 52 ac 3d
       0.013460018 0.054538872 0.11360443 0.08414216
000220 d2 21 cc 3d 0e 42 89 3d 46 c0 2e 3d 52 5c a1 bd
       0.09967388 0.06702052 0.042663835 -0.07878937
000230 b6 2b b0 3d e4 66 02 be 7c 99 e0 bd b6 f0 6a 3d
       0.08602087 -0.12734562 -0.10966775 0.057358466
000240 c5 3f 4a bd 7f 7a 4b 3d 4b c1 e1 bc ee 83 a9 bb
       -0.04937722 0.04967737 -0.02755799 -0.005173198
000250 0b 67 da 3d 14 f2 80 bc cf 1a b1 bd b3 d1 09 3e
       0.10664185 -0.015740432 -0.086476915 0.134589
000260 d8 92 93 bd ca 56 cc bd 3a 6a ea bd 3c f0 33 bd
       -0.072057426 -0.09977491 -0.11446042 -0.043930277
000270 c2 2b 03 3e 93 f1 cf 3d 38 b5 d9 bd ee 4d 77 bd
       0.12809661 0.101534985 -0.10630268 -0.060377054
000280 03 d4 3d 3b 0d 96 d3 bd 1f 1d 6b bd 5b 2f e0 3d
       0.002896548 -0.10331354 -0.05740082 0.10946532
000290 05 2e 0c 3e 20 77 99 3d 4b 69 ed bd 03 03 74 bd
       0.1368943 0.074934244 -0.11592349 -0.059573185
0002a0 d5 4c 88 bc 09 82 15 3e d5 c7 ea bd 7d f5 1d 3d
       -0.016638199 0.14600386 -0.11463896 0.038564194
0002b0 33 32 00 3e 47 ae a3 bd 49 1e d1 bd c2 a4 5b bd
       0.1251915 -0.07992225 -0.102108546 -0.053623922
0002c0 9d 87 c7 3c 9d 71 a5 bd 29 e1 c0 bd 8d af 5a 3d
       0.024356658 -0.08078311 -0.09417946 0.053390075
0002d0 a0 7a 18 3d 7a de 82 bd 08 af ee bd 62 be 53 3b
       0.03722632 -0.0639009 -0.11654478 0.0032309522
0002e0 f1 7f fd 3c 2d e9 84 bc c6 5b db bc 84 cc ad 3c
       0.030944796 -0.016224468 -0.02677716 0.021215685
0002f0 65 eb 88 3d 53 42 e5 3d 34 8c 49 bd d9 85 fd bc
       0.06685523 0.11194291 -0.049205974 -0.030947613
000300 8a 20 dd 3d 2c 67 8c bd 1b 15 e4 3c 5b ca a6 bd
       0.10797222 -0.06855616 0.027842095 -0.08144065
000310 a6 fe d4 bd 39 8c 9b bd 34 55 c2 bd 4f 84 10 bd
       -0.10400133 -0.07595105 -0.094889075 -0.03528243
000320 2f 82 5b 3d 93 d1 67 3d 1e d8 8f 3d 15 b3 95 3d
       0.05359095 0.05659635 0.07023643 0.07309548
000330 6e b2 aa bc 0c 59 d9 bd 7a 87 f4 3d 18 ba 3c 3d
       -0.020837035 -0.106126875 0.119399026 0.04607591
000340 1f 95 de 3d 57 fb 08 3e cf 63 87 3b 43 d5 f6 bd
       0.10868286 0.13377129 0.004131771 -0.12052395
000350 54 97 57 bd 0a e5 ad bd 99 db 24 3d 22 b4 06 bd
       -0.052634552 -0.08490951 0.040248487 -0.03288663
000360 d4 83 49 bd ca ad d5 3c 93 8a b0 3d 9a 96 97 3d
       -0.049197987 0.026083846 0.08620181 0.07401772
000370 8c a3 ba 3b fa d5 6a 3d 92 3a 96 3d ba 9b af bd
       0.005695766 0.05733297 0.0733539 -0.08574624
000380 fb 5b e4 3d 4f fa 2a 3c 5b a3 d4 bd 7a 69 86 3d
       0.111503564 0.010435655 -0.1038272 0.06563087
000390 01 36 e9 bd 98 5d 25 3d 25 46 0d 3d 3d 13 eb 3c
       -0.113872536 0.04037246 0.034490723 0.028695697
0003a0 0d db b7 bd b0 a3 04 3d e7 f0 d7 bd 32 af da 3d
       -0.089773275 0.032382667 -0.10543995 0.10677947
0003b0 cf 3a f7 3d 37 be 03 3e 46 1d ff 3b fb dd 9a 3c
       0.12071764 0.1286553 0.007785472 0.018904677
0003c0 a6 95 e3 3c 26 75 97 bd 1e 4b ce bd f7 ba 03 3e
       0.027781319 -0.07395391 -0.10072921 0.1286429
0003d0 13 cf 27 3d 58 70 6f bd 81 f6 12 bd 9d c8 88 3d
       0.040968966 -0.05845675 -0.035879616 0.06678889
0003e0 29 26 71 bc 6c 6e 57 3c 07 de f4 3d de 37 06 bd
       -0.014718571 0.013148885 0.11956411 -0.032768123
0003f0 d2 e5 bc 3d b8 bc 25 3d dc cd 00 bd d7 6a ec bd
       0.09223522 0.04046318 -0.031446323 -0.115438156

main_network.fc.weight f4 [3, 64]
000000 c0 e6 8a 3d d3 f0 aa 3d ef e8 05 bc 1d f8 c2 ba
       0.06782293 0.08346715 -0.0081732115 -0.0014874969
000010 d0 c7 05 be c9 00 68 bd 36 fc 97 3d cf 06 11 3e
       -0.13064504 -0.056641374 0.07421152 0.14162754
000020 3e 72 db bd ad 60 f0 bd 18 cf 73 bd 87 ed 3e bd
       -0.10715149 -0.117371894 -0.059523672 -0.046613242
000030 fb 72 53 bd b2 73 3b 3d 55 54 91 bd e3 a0 d6 b9
       -0.051623326 0.045764633 -0.07096163 -0.0004093713
000040 20 3e 00 3e d2 90 6b 3d 5e 69 f2 bc dd 35 cc 3c
       0.12523699 0.05751116 -0.029591259 0.024928028
000050 e3 e3 c2 3d e1 09 01 3e 30 c7 aa bc 93 7c a0 3d
       0.09516122 0.12601425 -0.020846933 0.07836261
000060 8b c3 8f bc a8 fe 3a bd 18 51 a1 3d bc df 2f bd
       -0.017549297 -0.045653015 0.078767955 -0.04293798
000070 7a 67 b6 3d 8b b6 3c bb 87 76 b2 3c 90 de d4 bd
       0.08906455 -0.0028795328 0.021785034 -0.10394013
000080 64 81 ed bb d1 35 01 be bb 13 d8 bd 06 5c 10 bd
       -0.0072480906 -0.12618186 -0.10550638 -0.03524401
000090 6b e1 b4 3c a0 a9 f8 3d ac c5 7f 3d b0 34 b5 3d
       0.022080144 0.121417284 0.062444374 0.0884794
0000a0 db 8f cc bd 73 16 c8 3b 10 1b df bd 94 24 e0 bd
       -0.09988376 0.006106192 -0.10893834 -0.10944477
0000b0 ea af e4 3d bc 5f 47 3d aa 94 3d bd cd 3e 0b 35
       0.111663654 0.048675284 -0.046284355 5.187292e-07
0000c0 fe 7c 6b 3d 7c f2 40 3d 8d b7 65 bd bc 48 d5 3d
       0.05749225 0.04710625 -0.05608325 0.104142636
0000d0 91 87 54 3d 4c 26 f9 3d a5 9f 49 3d 1a 29 c6 bd
       0.0518871 0.12165508 0.049224515 -0.09675808
0000e0 c8 2a 53 bc 5b 80 95 bd 6b 03 d6 bb 0f 8b d1 3d
       -0.012888618 -0.072998725 -0.006531169 0.102316014
0000f0 f0 a3 26 bd d4 f6 70 39 04 61 32 bd 7e 00 f0 bc
       -0.040683687 0.00022980134 -0.043549553 -0.02929711
000100 e1 66 41 bc ee 91 10 3d e7 a0 a2 bd 16 30 2c 3d
       -0.011804313 0.03529542 -0.07940846 0.042038046
000110 bc c5 12 3d c5 95 d9 3d 58 70 af bd 3f 94 df bd
       0.035833105 0.106242694 -0.0856635 -0.109169476
000120 a8 44 d0 bd be 3b ca bc 40 ab c4 3d f7 83 02 3e
       -0.10169345 -0.02468669 0.09602976 0.12745653
000130 7d 73 00 3e 6b 3e 91 bd 18 af df 3d 00 a1 e9 3c
       0.12544055 -0.070919834 0.10922068 0.028519154
000140 e4 a8 20 3d ed cb 48 3d 64 08 bd 3a 7f a1 83 3c
       0.039223567 0.049022604 0.0014422056 0.016068218
000150 1e 7e 85 bd e8 7f 4e 3d 78 8e ee bd 6b aa e7 3d
       -0.065181956 0.05041495 -0.116482675 0.113118015
000160 46 88 b0 3d 18 4d 7b bd 2f e8 a1 bd b2 47 03 3e
       0.08619742 -0.06135282 -0.07905614 0.12820318
000170 72 48 8a bc 2c 45 1e bd 29 45 9f 3d 12 82 bc bd
       -0.016880248 -0.038640186 0.07776863 -0.092044964
000180 04 0b da bd 81 38 cd 3d eb 08 ce 3d 6b 30 ba 3d
       -0.10646632 0.10020543 0.10060295 0.09091266
000190 c8 04 6a bb 42 0c 75 bd ba c5 00 3c 17 0a 15 3d
       -0.0035708416 -0.059826143 0.007859642 0.036386576
0001a0 95 d1 b9 3c 66 f4 ab bd 35 8a bf 3d 6e 5d ea 3d
       0.022682944 -0.08396225 0.09352533 0.114436015
0001b0 df f0 9c 3c 37 e1 26 bd fb 1c ac bd b6 4e eb 3d
       0.019157825 -0.040742125 -0.08403965 0.11489622
0001c0 f7 34 58 bd ec 58 e6 bd 91 d8 f9 bd e2 71 ac 3d
       -0.052784886 -0.11247429 -0.1219951 0.08420159
0001d0 da 48 f7 3d 77 75 9b 3c 2b af 05 bd 5b d4 ac bd
       0.12074442 0.01897691 -0.032637756 -0.08438941
0001e0 6d e6 d0 3d 89 40 c7 3c dc 8d b6 3d 03 6e 66 3d
       0.102002 0.024322765 0.08913776 0.05625726
0001f0 8a e0 cb 3d bc 03 e0 3d 70 56 b6 3d ee e3 b2 3d
       0.09954937 0.10938212 0.089032054 0.087348804
000200 48 99 da bd c3 e3 f0 bb 6c 3e aa bd 06 51 1e bd
       -0.10673767 -0.00735137 -0.08312687 -0.03865149
000210 6c 0c 01 bd 07 a8 46 3d 94 ed 39 bd d3 a9 72 3c
       -0.031505987 0.048500087 -0.045392588 0.014810997
000220 90 6b 82 3d 74 3d fd bd a5 36 90 bc e2 68 f7 3c
       0.06368172 -0.12365237 -0.017604182 0.03020138
000230 b4 fd 04 bd c3 c8 56 bc ec 44 e4 bd a7 df e3 bd
       -0.032468513 -0.013109389 -0.11145958 -0.11126643
000240 af 48 b7 3d 06 58 9e 3b df 62 a8 bd 33 29 7e 3d
       0.0894941 0.0048322706 -0.08221983 0.06205101
000250 67 47 e2 3d 4e cc 7b bd df dc ae 3c eb b2 0f 3e
       0.11048775 -0.061474137 0.021345554 0.14033096
000260 cd ef a7 bd 4f 48 8b bd ff ec ba bd db 37 c3 3d
       -0.08200035 -0.06800901 -0.09127235 0.09532138
000270 41 60 80 3d b8 e4 c1 bd ce a6 37 bd 5e 34 37 bd
       0.06268359 -0.09467453 -0.04483681 -0.044727676
000280 78 9b e0 3d 82 b4 b1 bd 22 f0 ac 3d c0 6a e6 bd
       0.10967153 -0.08677007 0.08444239 -0.1125083
000290 f3 e2 e5 3d 28 a5 78 3d b0 1f 0b be ce 70 9f bd
       0.11224928 0.06070438 -0.13586307 -0.07785188
0002a0 c7 31 03 be 2f 45 ef 3d 38 a9 c6 ba 7a 4f 75 3c
       -0.12811957 0.116831176 -0.0015156632 0.014972562
0002b0 19 44 a1 3d dd 44 aa 3c 03 e9 0c be 3e ad ca bd
       0.07874317 0.02078479 -0.13760762 -0.098963246
0002c0 03 ed c3 3d 35 69 d9 3d 0e 16 f5 3d 56 58 80 3d
       0.09566691 0.1061577 0.11967097 0.06266849
0002d0 b2 a6 e8 3d f9 cf ad bc d6 93 9f bd 3e b5 c8 bc
       0.113599196 -0.021217333 -0.07791869 -0.024500486
0002e0 80 ff 46 bc ae c1 0c 3d 2f 4a dc 3d e6 1c 04 be
       -0.012145877 0.034364395 0.10756337 -0.12901649
0002f0 8e bf 9a bd b1 18 6e 3d 27 41 ca 3c ae 7e 46 bd
       -0.075560674 0.058129016 0.02468927 -0.048460655

main_network.fc.bias f4 [3]
000000 29 a6 b5 3d 90 38 8c bc f8 c1 1d 3d
       0.08869583 -0.017116815 0.03851506

short_term_context_network.fc1.weight f4 [32, 7]
000000 66 13 bd 3d 8b aa 23 be 10 e1 8b be 39 63 02 3e
       0.092322156 -0.15983026 -0.27320147 0.12733163
000010 db d4 7e 3d 11 6a 2e 3f ef 54 ca 3e 25 82 51 3f
       0.062214714 0.68130594 0.39517924 0.8183921
000020 54 7a 86 be 29 29 9e 3d 30 74 2d be 00 6f 82 bf
       -0.26265204 0.077226944 -0.16938853 -1.0190125
000030 34 1c 22 bf d2 e9 02 3f 7e e9 a2 be 1b 4b 81 bb
       -0.63324285 0.5113803 -0.31818765 -0.003945721
000040 64 03 c0 3d 06 a4 4f 3d f7 fe 0f 3f 6e 3f 03 3f
       0.09375647 0.050693534 0.5624842 0.5126866
000050 7b 66 a1 3e c3 70 43 3f 34 78 c0 bd 24 f7 1c 3e
       0.315235 0.76343936 -0.09397927 0.15328652
000060 ca 3d 87 be 3a 71 c2 bf ec 70 c2 bf 60 e4 28 3e
       -0.2641433 -1.5190804 -1.5190711 0.16493368
000070 4e ca e5 be a2 a3 b5 be 67 a3 9e 3e 60 9e 8b 3e
       -0.4488091 -0.35476404 0.3098404 0.27269268
000080 b9 c0 9e 3d b1 76 40 3f e2 97 1d 3f 45 7a 63 3b
       0.07751603 0.7518111 0.6155988 0.003471033
000090 54 cc 7b 3c 1b c4 bd bd 1e d9 58 be 0d fc 21 3e
       0.01536854 -0.0926592 -0.21176574 0.15818806
0000a0 2a 72 81 3e d9 13 95 be 35 7b 0f bf 77 a8 58 3e
       0.25282413 -0.29116705 -0.56047374 0.21158014
0000b0 29 07 aa 3e b9 19 23 be 94 78 73 3e 41 41 31 3f
       0.33208588 -0.15927781 0.23776466 0.69240195
0000c0 27 71 8a 3f 1c 3c af 3e 3c fc 70 3e 85 64 a4 3e
       1.0815781 0.34225547 0.2353372 0.3210794
0000d0 ce a4 e1 3d e2 04 ad 3d 3d 9b b1 3d 58 51 c7 3e
       0.11017762 0.08448197 0.086721875 0.38929248
0000e0 14 11 41 3f 06 06 67 be c9 7c 3c 3d 3c aa 1a 3e
       0.75416684 -0.22560892 0.046017442 0.15104002
0000f0 77 f8 be bf 22 f8 be bf 04 d1 57 3e 1f 15 ac bd
       -1.4919575 -1.4919474 0.21075827 -0.08402466
000100 a0 11 91 be ad 4e ea 3d 53 05 a0 bd 35 75 ff 3d
       -0.2833376 0.114407875 -0.078135155 0.12473527
000110 fd 07 21 3f 86 0b 68 3e 6a 07 9f be 44 26 12 be
       0.62902814 0.22660646 -0.31060344 -0.1427241
000120 3d 34 81 bc b5 71 b5 be 5b 6b ec 3c f7 ba fa 3d
       -0.01577198 -0.35438314 0.028859785 0.12242692
000130 79 e2 8c be e9 63 9c 3d 54 25 7c be 56 c0 b4 3e
       -0.27516535 0.07636244 -0.24623615 0.3530299
000140 22 2e 0e be 6e 29 e8 3e 9c 32 90 3e b6 66 2a 3f
       -0.13884786 0.45344108 0.28163612 0.66562974
000150 d0 eb 8e 3c 69 e8 8e be ba 26 8f 3e c9 28 4f be
       0.017446429 -0.2791169 0.27959234 -0.20230402
000160 47 cf d2 3d 53 84 62 3e a2 c8 79 3e 6c f3 f2 bd
       0.10293441 0.2212079 0.24392942 -0.11862835
000170 2f b6 c0 3e 87 2b 82 be a0 ab be 3e f6 20 02 be
       0.37638995 -0.25423834 0.37240314 -0.12707886
000180 10 8b 81 be 9a 59 25 3e 0a 62 52 be 0e 08 a3 be
       -0.2530141 0.16147462 -0.20545211 -0.31842083
000190 04 f0 86 bd 43 b0 69 3e fd 73 2a 3f 0b 87 a2 3e
       -0.06588748 0.22821145 0.66583234 0.31743655
0001a0 9a 53 46 3d b1 c2 a3 be d1 16 aa 3e c5 18 f6 3d
       0.048419572 -0.31984475 0.33220533 0.12016443
0001b0 0e 2f be be d8 27 ac 3e 15 53 6e be bb c0 a6 be
       -0.37145275 0.33624148 -0.23273881 -0.32568917
0001c0 e4 66 a8 3d de e7 0d 3d 05 65 a8 3e 23 41 96 3d
       0.0822275 0.034644954 0.32889572 0.073366426
0001d0 b5 ba 26 3f 2e d7 e0 3e aa cd 0e be c3 5d 0c 3e
       0.6512864 0.4391417 -0.13945642 0.13707642
0001e0 32 3a 3c 3e be 21 92 3d f8 97 7f 3e c5 85 d2 3d
       0.18381575 0.07135342 0.24960315 0.10279421
0001f0 f1 19 cd 3c 5e e0 60 3e 29 d2 e6 bd 93 bb b1 3d
       0.025036784 0.2196059 -0.112705536 0.08678355
000200 11 89 88 be 6b 05 94 3d ed 87 13 3f fa b5 dd 3e
       -0.26667073 0.07227596 0.5762928 0.433029
000210 2e b9 d5 3e 19 85 4c 3f 3f 33 af bd 9f ef ec bd
       0.41742843 0.7989059 -0.08554696 -0.115691416
000220 4c 42 5a be da c0 b5 be d9 47 bc bf 46 a2 47 3d
       -0.21314353 -0.35498697 -1.4709426 0.04873874
000230 1d da 0b be 40 83 51 be 55 76 bb be 76 c1 77 be
       -0.13657422 -0.20460224 -0.36613718 -0.24194893
000240 ce 94 07 3f c5 64 50 3e ab 00 2a 3e b4 a5 c1 bd
       0.5296143 0.2035094 0.16601817 -0.094554335
000250 38 ac 14 3e 66 3c 8d be bb e5 9a be ed f2 7d 3e
       0.14518821 -0.27585143 -0.30253395 0.247997
000260 80 8c ef bd bc a3 9a 3e a3 f0 9c be d8 26 8c 3c
       -0.1169672 0.30203044 -0.3065234 0.017108366
000270 31 77 b3 be 48 94 93 3e 85 eb 4f 3e 81 25 17 3f
       -0.35051873 0.28824067 0.20304687 0.590416
000280 74 50 eb 3e 01 25 bd be 7d ad 6f 3e 25 49 0e 3d
       0.45959818 -0.36942294 0.23406024 0.034737725
000290 4f c2 a1 3d 48 09 5e 3f e5 6d 76 3d 69 41 c4 3e
       0.078983895 0.8673291 0.060163397 0.38331154
0002a0 e0 f5 08 be 35 02 af bd 02 b4 97 be 91 d1 05 bd
       -0.13375044 -0.08545343 -0.29629523 -0.03267056
0002b0 d3 a6 04 3f 0b 90 0e 3f 7f 7d a3 3d 8a 9c da bc
       0.51817054 0.5568854 0.07982921 -0.026685972
0002c0 c5 57 2a be 72 02 51 3d cc 31 ae 3e cb a9 ae be
       -0.16635044 0.051027723 0.34022367 -0.34113917
0002d0 7e 8c 82 3e 29 dc 02 3e bb 15 08 be 04 aa a3 3e
       0.25497812 0.12779297 -0.1328954 0.3196565
0002e0 09 8e 8a be 6d b6 ae be 63 58 d3 bd d8 17 83 3b
       -0.2706149 -0.34123555 -0.10319593 0.004000645
0002f0 bf 9b 56 be 15 f3 c3 3e d7 c3 0f 3e 1b e8 e3 bb
       -0.2095785 0.38271394 0.1403955 -0.0069551594
000300 f5 af 63 3e 31 4d ab 3e e1 9e 84 3e 59 f0 37 3f
       0.22235091 0.3345733 0.25902465 0.71851116
000310 50 45 aa be a8 f3 52 3e 67 3e f0 3d 7b 94 37 be
       -0.33256006 0.2060076 0.11730652 -0.17927735
000320 4c bd 17 bd 4e 59 b1 bd 85 d9 61 be b4 ee f3 be
       -0.037045762 -0.08659612 -0.22055633 -0.47643054
000330 21 54 97 bc 50 df 8f bd 98 fe bb be 94 8b f3 3e
       -0.018472733 -0.07025015 -0.36717677 0.47567427
000340 f9 ff a1 3e 70 e8 8c 3f 06 36 a5 be 67 0e 75 3e
       0.31640604 1.1008434 -0.3226778 0.23931275
000350 70 0e 77 be 7b 4f d9 bd a8 9e b5 be 92 cc 2e 3e
       -0.24126601 -0.10610863 -0.35472608 0.17070225
000360 81 07 f2 3d 9b 26 df be 0f a6 73 bd 24 5b 73 3e
       0.118178375 -0.4358414 -0.059484538 0.23765236
000370 22 1e 95 be e6 7e 02 3f 4e e1 90 3e 31 8b 20 3f
       -0.29124552 0.5097488 0.28296894 0.6271239

short_term_context_network.fc1.bias f4 [32]
000000 a8 09 31 3f 21 42 51 be 9f 71 3d 3f 58 8c 5b bf
       0.6915536 -0.20435382 0.740015 -0.8576102
000010 74 22 54 3f 2d 9d 9b be ab ef 35 3f c5 e9 0c 3f
       0.8286507 -0.30393353 0.7106883 0.55044204
000020 91 82 5b bf d4 d2 e1 3e 6b e3 64 be ec 09 d3 3e
       -0.85746104 0.44106162 -0.22352378 0.41218507
000030 90 92 bc be 61 1d 12 bd 02 d7 2a 3f c2 50 b2 be
       -0.36830568 -0.03567255 0.66734326 -0.34827238
000040 3a 91 46 3f c1 a0 02 3f 1d 99 a0 3e 75 38 63 bf
       0.7756535 0.5102654 0.31366816 -0.8875802
000050 c7 5b 10 3f f1 38 ad be 4f 6c 0f 3f 16 b5 53 3f
       0.5639004 -0.33832505 0.5602464 0.8269819
000060 ca d1 33 3f 69 05 86 be 18 4a 60 be a4 b1 a3 3e
       0.7024199 -0.26176003 -0.21903265 0.31971467
000070 dd 87 9d be 33 7e dd 3e 58 ad 3f be c1 60 47 3f
       -0.30767718 0.43260345 -0.18718469 0.7788201

short_term_context_network.fc2.weight f4 [16, 32]
000000 b9 7a 8b bd f3 b3 68 bd a9 4a 3a be c4 24 09 be
       -0.06810517 -0.056812238 -0.18192543 -0.13392931
000010 8c b9 d0 bd 68 79 88 3d 2c 61 38 be 65 d3 89 3d
       -0.1019164 0.066637814 -0.18005818 0.067297734
000020 de fb 21 be b6 86 27 be d7 36 90 bc 0e ed 13 3e
       -0.15818736 -0.16359982 -0.017604275 0.14445898
000030 2d d2 a2 3c 83 bd fe 3d d2 1f 01 3e 61 3a 5f bd
       0.01987561 0.1243849 0.12609795 -0.054499034
000040 83 63 00 be f9 bb 9c bd af 87 07 3e 1c 47 25 be
       -0.1253796 -0.076530404 0.13235353 -0.16140407
000050 48 98 07 3e 7a fd 0f 3a 81 d6 c3 bc 91 5d 8e bc
       0.13241684 0.0005492788 -0.023905994 -0.0173786
000060 2a 8b 89 3c 38 fb a9 3c 15 9f c9 3c 7e 65 3c be
       0.016789991 0.020749673 0.024611989 -0.18398091
000070 ce 4c cf bd a0 01 84 3c 12 a3 0c 3d 8e 11 81 3d
       -0.10122071 0.016114056 0.034335203 0.063021764
000080 69 94 83 3e 27 54 2b bc 41 74 f4 3e 25 8b cf be
       0.25699165 -0.010457075 0.47744945 -0.40535846
000090 63 b2 2a 3e 53 3a be bd 0f 20 2e 3f a5 96 d3 3d
       0.16669612 -0.09288468 0.6801767 0.103314675
0000a0 fa 75 05 bf 51 e9 76 3e b3 6a ed 3c bb 50 3c 3e
       -0.5213314 0.2411244 0.028981542 0.18390171
0000b0 d3 6c d3 3d ed 4e 64 bd c5 0e a9 3e e3 bd 2b be
       0.10323491 -0.055739332 0.3301908 -0.16771655
0000c0 2a fb 0c 3f 8e af e9 3e 50 0b 8e 3e 2e c6 c4 be
       0.55070746 0.4564175 0.27743006 -0.3843245
0000d0 5b 68 ad 3e f2 93 62 3d b8 24 c3 3e 8c c6 9a 3e
       0.3386868 0.055316873 0.38113952 0.30229604
0000e0 ce f8 78 3e 01 ed aa 3c 3c bc 5d 3d fd b9 53 3e
       0.24313661 0.020864965 0.054134592 0.20676418
0000f0 27 ff 7d bc f8 7e 05 3f c1 28 19 be 1a e4 78 3e
       -0.015502728 0.52146864 -0.14956953 0.24305764
000100 2b 69 ff bd ac e6 24 bd 26 80 e6 3d 13 6e b5 bd
       -0.12471231 -0.04025905 0.11254911 -0.088588856
000110 76 72 19 3e 8c 46 91 bc f1 6a fe bd a0 24 e3 bd
       0.1498507 -0.017733835 -0.12422741 -0.1109097
000120 fa 45 5c 3d c5 94 97 bd cb 63 31 3e 28 fb f6 bd
       0.053777672 -0.074014224 0.17323224 -0.12059623
000130 40 69 2c bb 09 0b 05 bc 46 db 2f be 0e 85 55 bd
       -0.002630785 -0.008120307 -0.1717349 -0.052128844
000140 4c 41 dd 3d 56 e6 60 bd c2 27 31 be 77 a1 e5 bd
       0.1080347 -0.054907165 -0.17300323 -0.112124376
000150 c4 25 2a be 22 a9 93 bc 97 3a 05 be ab 6d e3 3c
       -0.16615969 -0.018024985 -0.13010632 0.027762255
000160 a2 0a 32 be 11 0a 0c 3e c8 57 f6 bd 9b 9c 2c bd
       -0.17386869 0.13675715 -0.12028462 -0.042141538
000170 c6 c0 1b be 4b ba 8c 3d 75 69 1a bd 7b f4 1e 3e
       -0.15210256 0.0687147 -0.037698228 0.1552295
000180 3c ed 38 3e d6 18 10 3e 7e 40 ba 3e cf 9e 34 bf
       0.18059248 0.14071974 0.3637733 -0.7055482
000190 a5 6f 8e 3e ea df 0e bd 38 b7 74 3f 0a 36 a1 3e
       0.27819553 -0.03488151 0.9559207 0.3148654
0001a0 95 8a 4c bf 10 30 e3 3e 43 fc b5 3d 32 e3 06 3f
       -0.7989896 0.44372606 0.08886006 0.5269042
0001b0 99 6e 7c bd 14 c0 0c bd bb 18 cd 3e 6d 39 3a 3d
       -0.06162891 -0.034362867 0.4005793 0.04546492
0001c0 05 2c 31 3f ee 4a d1 3e 30 16 27 3f a0 0e a1 be
       0.69207793 0.4087748 0.6526823 -0.3145647
0001d0 85 b3 f1 3e 02 b4 10 be 99 9e c5 3e 8f a9 18 3f
       0.47207275 -0.14131168 0.38597563 0.59633726
0001e0 61 bb dc 3e 28 33 02 3d a4 22 a1 bd 51 01 0b 3e
       0.4311171 0.031787068 -0.07867935 0.13574721
0001f0 f6 64 db 3c be 0e d4 3e 4c d5 ef 3d d1 42 ff 3e
       0.02678154 0.41417497 0.11710605 0.49855664
000200 69 d3 d1 bd 03 3f 14 be 73 3d 94 bc f7 8a cd 3d
       -0.102454014 -0.14477162 -0.018095708 0.10036271
000210 b0 fa b8 bd 30 a4 8a 3d 77 89 d7 3d b1 3e 24 3b
       -0.0903219 0.067695975 0.10524266 0.002506178
000220 e5 39 5f 3b 2c 6b 80 3d 27 56 f9 3d 77 ec 1b bd
       0.0034061607 0.062704414 0.121746354 -0.038067307
000230 9f 3d 65 3a f3 9c 30 3e c0 8c b2 bc 9e 90 65 bd
       0.0008744839 0.17247371 -0.02179563 -0.05604612
000240 6b b5 74 bc 37 0e d1 bc f3 f9 1a bd 0b 2c dc bd
       -0.014935832 -0.025519473 -0.037836026 -0.10750588
000250 92 78 f0 bd 4f bb ae bc 12 ce 1a be 53 a6 10 be
       -0.11741747 -0.02132955 -0.15117672 -0.14125948
000260 24 87 14 bd 1f 4c 1a be e6 bb 18 be 87 0f a1 bd
       -0.036261693 -0.150681 -0.14915428 -0.0786429
000270 6b 86 17 3e ae 67 46 bd b5 f1 2b be 4a 9f 17 be
       0.1479737 -0.04843872 -0.16791423 -0.14806858
000280 77 0c d1 3e 60 ff 85 3d 53 a1 b4 3e 0b bd 33 bf
       0.40829822 0.065428495 0.3527933 -0.7021033
000290 f2 83 c4 3e ea bc 8d bd ac e9 90 3f 10 b6 e4 3e
       0.38381916 -0.06920798 1.1321311 0.44670153
0002a0 a7 84 42 bf c5 29 fa 3e 48 01 27 3e c3 50 8b 3e
       -0.7598366 0.48859993 0.16309083 0.27210054
0002b0 c4 61 00 be 72 2e 80 3c c8 b7 da 3e 23 0f 09 3e
       -0.12537295 0.015647147 0.4271834 0.1338468
0002c0 58 66 35 3f a6 ec 00 3f 45 40 07 3f 9d f6 ce be
       0.7085929 0.50361097 0.5283244 -0.40422526
0002d0 9b c3 c0 3e 25 69 f7 bb 86 15 8a 3e d6 c1 d4 3e
       0.37649235 -0.007550376 0.26969546 0.41554135
0002e0 35 a5 d7 3e d5 d6 d4 3d a1 a1 26 3c ad 23 f5 3d
       0.4211823 0.103925385 0.010170371 0.11969695
0002f0 c0 8d 7d bc ea fe ca 3e 2d d4 26 be e9 47 a2 3e
       -0.01547569 0.3964761 -0.16291876 0.31695488
000300 a7 3f 0e 3e 48 f6 7b bc e9 dc 28 be fc fe 13 be
       0.13891469 -0.015378542 -0.1649052 -0.14452738
000310 a9 a7 05 be 9f a2 d1 3d a7 bf da 3d e6 88 19 be
       -0.13052239 0.10236096 0.10681086 -0.14993629
000320 9d 57 c8 bd f6 ad 19 bd 8f 1d 99 bd a8 8a e8 3c
       -0.09782336 -0.037519418 -0.07476341 0.028386429
000330 2e de 08 3d 9a 35 b8 3d b1 c9 a6 bd 40 6c d3 3c
       0.033415012 0.08994599 -0.08143938 0.025808454
000340 b4 70 f9 bd 2b 3a 7f 3c 6d d2 83 3d d8 af 2a be
       -0.121796995 0.015577833 0.0643662 -0.16668642
000350 28 6d 25 3c 08 48 28 be 5f 15 2c be 5b da 82 3d
       0.010096826 -0.16433728 -0.16805027 0.06389304
000360 80 c7 ab bd 3e 5a e6 3d 2e 4f 73 3d e5 d8 bf 3d
       -0.08387661 0.11247681 0.059401684 0.09367541
000370 3e bd 86 bd 9e fd 17 be 3d 3e 0e 3e 44 df 90 3d
       -0.06579064 -0.14842841 0.1389093 0.070738345
000380 29 bb 4d be 12 db cb 3c a4 12 f0 bd b0 af f3 bc
       -0.20090927 0.024884734 -0.117223054 -0.02974686
000390 24 53 f8 3d c4 92 53 bd 5a 8c 66 bc 90 ae 25 be
       0.12125233 -0.05165364 -0.014071548 -0.16179872
0003a0 4e 1b 4b 3d 08 6f c1 3c 31 9d 1f 3e 1e 76 2c be
       0.049586587 0.023612514 0.15587308 -0.16841933
0003b0 9f 2d 43 bd b4 1b 0a 3e fe e8 22 bd 2e 08 99 bd
       -0.04765093 0.1348713 -0.03977298 -0.07472263
0003c0 ad 30 a7 3d f7 fc fc bd 0d e1 38 3d cf 8c 22 be
       0.08163581 -0.12352937 0.0451365 -0.15874027
0003d0 61 37 62 bd de 2d fe bd f7 ca 0a 3e 5b 29 99 3c
       -0.055228595 -0.12411092 0.13553987 0.018696478
0003e0 12 1a 31 be dd be c4 3b d8 5f fb 3b e2 18 fc 3d
       -0.17295101 0.006004198 0.0076713376 0.123094335
0003f0 c5 6c fb 3d ea 24 98 bc 93 75 94 3a 94 9f 76 bd
       0.122766055 -0.01857229 0.0011326544 -0.06021078

short_term_context_network.fc2.bias f4 [16]
000000 0f 0c 13 bd 77 1d a8 3e 72 41 08 be 2f b3 bb 3d
       -0.03590017 0.3283498 -0.13306215 0.09165036
000010 9e 66 31 be 1a 0b d0 3d e7 2b 0c bb 29 42 06 3e
       -0.17324302 0.101583675 -0.0021388473 0.13111176
000020 a4 da 37 be 9a 80 bf be ef 05 8e 3e 22 80 ba 3e
       -0.17954499 -0.37402803 0.27738902 0.36425883
000030 5a f0 4b 3d bb c3 b9 3d dd 59 a8 ba cb 1a 8d 3e
       0.049789764 0.09070536 -0.0012844164 0.27559504

short_term_context_network.fc3.weight f4 [1, 16]
000000 13 b8 f7 3b e0 28 15 3f 40 fa 25 be 6c 83 10 3f
       0.007559785 0.58265495 -0.16208744 0.56450534
000010 90 07 f5 3d 8d df 0e 3f 00 c7 2c 3c fa 4d c1 bd
       0.11964333 0.5580986 0.010545492 -0.09438701
000020 3b 6b c8 bd b9 b4 b2 bf cb ba 4f 3f 7a bf f0 3e
       -0.097860776 -1.3961402 0.811444 0.47021085
000030 84 68 e3 bd c3 9b 2a 3f 68 84 c1 bd 52 53 14 3f
       -0.11103919 0.66643924 -0.094490826 0.57939637
