Uni_Research/IRL/Final/Extended/Testing_Suite/model_SC_C1000_R10000_S0.0.pth (torch, 91379 bytes, 11 tensors)

main_network.lstm.weight_ih_l0 f4 [256, 15]
00000000: 2311 bbbd 7bf6 793d e5ac 7ebd b09c 1d3d
00000010: ddb3 033c 78c2 ccbc ef03 b9bd 09fc ee3c
00000020: f186 a33d 4be3 5f3d 7ca2 cabb 2b2e 85bd
00000030: fe4c c3bd 222c a83c af8f 37be 1bde d8bc
00000040: 4be4 52bc ec3a 38be 926f 1b3e 4a61 03bd
00000050: 6e12 89bd 4252 4b3c 7552 5bbd 66c4 31bd
00000060: 2601 003d 41fb 55bd 6f0c 013d 3ae3 ec3c
00000070: 7bd9 78bd 9530 aebd 4ea7 063e dc34 713d
00000080: 7346 003d fe3a db3e 617a e93d da28 843c
00000090: bde7 19be 9a9e 1e3d b4a3 4e3e 09cc 5eba
000000a0: 95e8 29bd 7f66 203e e618 483d 1fe9 6d3e
000000b0: 9ccf a3bc 240a 0dbe 9bf5 14be 73ab c3bb
000000c0: 98b4 403e 9366 45be 20f3 8cbc 0ba2 15be
000000d0: 66cb 36be 6fd8 4dbd ee19 1ebe 5424 60be
000000e0: d4b2 39bd 0a99 7bbe 7e93 9fbd 1a93 c9bd
000000f0: 40d3 64be a633 84be f7fa 50be 2ae0 933c
00000100: d637 1abe e9cd c23b 7257 2cbe 81f7 24be
00000110: 6f04 51be 1577 08be 0d9e 2ebe 3481 0fbe
00000120: 0ec6 11be 9331 1bbe d456 44be 3ddc 47be
00000130: 3e1e 6abe 13da 7c3d fc86 313e 4fb1 8abe
00000140: 66d3 19bd c648 5ebe 2d8d e9bd 561a c9bd
00000150: d9fc 8f3d c55a e9bd cff4 0fbe 0ecc 21bd
00000160: 221d cbbd 24e4 61bd bf4b 9aba 5662 253e
00000170: 44ed b33c 6070 b0bd b495 2c3e 9920 0f3d
00000180: f939 c03c 879f 99bd ee24 623e 43be 81be
00000190: 4c7f e4bd 351c 0c3e 795b 48bd 6e61 073e
000001a0: a9b5 103d f4dd c73d 7f28 9a3d fd5a 0e3e
000001b0: 0148 c3bd 3dd0 243e 4ff6 1dbd d3f9 2fbd
000001c0: 02b0 ca3d 7354 dd3d 0dc5 21bd db15 06be
000001d0: 2878 37be 019c f23d 5394 12bc 3d41 efbd
000001e0: 34bb 093d a657 2abd b7ea 04bd 1d7f d73d
000001f0: bc29 5b3d ea73 67bd 0a95 13be 5289 a3bd
00000200: d4ff fc3c 076f cbbd 4b13 19bd cc27 8fbd
00000210: c070 f1bd 3d4f 48bc 1783 553d 8434 7bbd
00000220: a4a7 2c3d 4c32 cabc 26f7 e73d 3b4f 17be
00000230: 78e7 dabd b979 da3d 8042 36bd 95c8 1dbd
00000240: 5652 e8bb 0963 debd c481 8e3d 2835 5fbc
00000250: 9322 70bd 184e 2ebe a878 aebc 7e02 19bc
00000260: ecdd efbc 7878 273e ccdb a3bc 0d5f 9a3d
00000270: 8673 4c3d 6d5f 263e 9474 8cbd a1b5 853d
00000280: 25cf 40bd 9db8 aebd a157 c53d c96f e53d
00000290: a8d8 bb3d e951 f0bb 2dd6 21bd 000d dd3d
000002a0: dfc1 b33e f2c5 6ebc 1dce adbc 21cc c53d
000002b0: 637a 273d b6ab 30bd ec3d a33d 70fe e33c
000002c0: 7feb 283e c1f5 0abb e6da a83e 530a a3bd
000002d0: 17d1 2bb8 e690 053d c398 bf3d e117 993e
000002e0: eed4 8d3d d888 cf3c f51f a33d 6609 a6bc
000002f0: d2e5 11bd 3c48 b93d 955d 9ebd 8cd7 eebd
00000300: 1873 703d a0ed c83d f59a 523d db55 f8bd
00000310: e7a9 38be 199d ddbc e1fa 983e f58b c6bc
00000320: 0dac 25be 1421 0bbe c3bb 6d3a d316 03be
00000330: cbe5 873c b36c 9e3d b1b0 eebd 9b69 563b
00000340: ea13 133e 3421 8ebc 789f 9ebd f409 00be
00000350: 3f6d 493c d547 e03d 0c4e da3d 9f4d bfbd
00000360: 2aca e2bc 04d2 8bbc c155 11be 6bcf cf3d
00000370: aa4f 2ebe dfd1 26be 2a70 05be 2875 f9bd
00000380: bd54 babc 3bd1 ce3d ed8a 6fbd e67d 053d
00000390: b120 793e 51a8 fe3d 07f8 b3bd 90b7 493e
000003a0: 7fc5 17be dd5b 07be 53a3 283e f18c 9a3d
000003b0: d18b 1ebe 6531 193d 999a db3d 7160 b23c
000003c0: ecaf 01be 314e bbbc 82e2 43be ddc2 97bd
000003d0: 3670 58bb 3fa5 2ebd c7b5 97bd 48a3 173c
000003e0: 4c4f 4abd 7cbe d8bd bc11 5cbd f7ba efbc
000003f0: ce1f 36bd 703e 953d 33e9 82bd bdcd ff3c
-0.09134128 0.061026078 -0.062176604 0.038479507 0.008038488 -0.024995074 -0.090339534 0.029172914
0.079847224 0.054660123 -0.0061839204 -0.065029465 -0.095361695 0.020528857 -0.17925905 -0.026473096
-0.012871812 -0.17991227 0.1517928 -0.032075204 -0.06692968 0.0124097485 -0.053545434 -0.04340019
0.031251095 -0.052241568 0.031506 0.028916944 -0.06075428 -0.0850536 0.13149759 0.0588883
0.031317186 0.42818445 0.11400295 0.01613276 -0.15029807 0.038725473 0.20179635 -0.00084990315
-0.041481573 0.15664099 0.04885187 0.2323346 -0.019996457 -0.137734 -0.14546816 -0.005971366
0.18818891 -0.1927741 -0.017205775 -0.14612596 -0.17851028 -0.050255235 -0.15439579 -0.21888858
-0.04533656 -0.24570099 -0.07791804 -0.098425105 -0.2234621 -0.25820655 -0.20408235 0.018051226
-0.15060362 0.0059449566 -0.16830233 -0.1611004 -0.20411848 -0.13326676 -0.17052479 -0.14014131
-0.14235708 -0.1515563 -0.19173747 -0.19517608 -0.22863099 0.06173141 0.17336649 -0.270884
-0.03755512 -0.21707448 -0.1140388 -0.09819476 0.07030649 -0.11394266 -0.14058231 -0.039501242
-0.09917666 -0.055149212 -0.0011771842 0.16150793 0.021963723 -0.08615184 0.16853982 0.034943197
0.023465144 -0.075011306 0.220844 -0.2534047 -0.111570925 0.13682635 -0.04891536 0.1322076
0.035329495 0.09759131 0.07527255 0.13901897 -0.09535218 0.16095062 -0.038564976 -0.04296286
0.09896852 0.10807123 -0.039494563 -0.13094275 -0.1791693 0.11846162 -0.008946496 -0.11682365
0.033625796 -0.041587494 -0.032450404 0.10522292 0.053506598 -0.05650703 -0.14412323 -0.07985176
0.030883707 -0.09933286 -0.037371915 -0.069900125 -0.117890835 -0.012225923 0.05212697 -0.06132938
0.042152062 -0.024682187 0.11326437 -0.14776318 -0.106886804 0.10667748 -0.044497013 -0.038521368
-0.0070898933 -0.10858733 0.069583446 -0.013623513 -0.058626723 -0.17021978 -0.021297768 -0.009338973
-0.029280625 0.16354549 -0.020002268 0.07537661 0.04991486 0.1624734 -0.06858173 0.065287836
-0.04707255 -0.08531306 0.096358545 0.11202962 0.09172183 -0.007333983 -0.039510895 0.10793495
0.3510885 -0.014573561 -0.021216447 0.09658075 0.0408882 -0.043132506 0.07970795 0.027831286
0.16496085 -0.002120361 0.32979506 -0.079609536 -4.0964307e-05 0.03260889 0.09355309 0.2990103
0.06925379 0.025333807 0.0796508 -0.020268153 -0.035619564 0.09046981 -0.07732693 -0.11662206
0.058703512 0.09810948 0.05141731 -0.12125751 -0.18033563 -0.027052449 0.29878905 -0.024236659
-0.16178913 -0.13586837 0.0009068811 -0.12801675 0.016589066 0.077355765 -0.11654795 0.0032716754
0.14363065 -0.017349817 -0.0774526 -0.12503797 0.012294113 0.10951201 0.106594175 -0.09340977
-0.02768429 -0.017067917 -0.14192869 0.10146984 -0.17022577 -0.16290997 -0.13031068 -0.12180549
-0.022745484 0.10098501 -0.0584821 0.03259077 0.24328877 0.124344476 -0.08787542 0.1969893
-0.14821433 -0.13218637 0.16468553 0.07546414 -0.15483023 0.037400622 0.107228465 0.021774502
-0.12664765 -0.022864433 -0.19129375 -0.07410214 -0.0033025867 -0.04263806 -0.07407718 0.009255238
-0.04939203 -0.10583207 -0.05372785 -0.029263956 -0.044463925 0.072873 -0.063921355 0.031226033

main_network.lstm.weight_hh_l0 f4 [256, 64]
00000000: 6a46 07be 74d6 18bd 9e5b 32be d1be c73d
00000010: c59a e23c 4dbf a9bc 098e 083e 4ed1 43be
00000020: d3f6 8ebd 27bb c3bd 583c 10bd feec 923d
00000030: baa5 4a3b 2542 073e afc6 b23c 0cb3 03bd
00000040: d14a 8cbd 776e 923d fa5b cf3d 8e69 28bd
00000050: c80a 58bd 1699 01bd 0ce6 0c3d 883a fc3b
00000060: 7d4d b1bd 8ad2 29be 3628 193e dab2 48bd
00000070: ddca c23e deb9 6e3b b16c f03c a6ea 1dbe
00000080: edf1 82bd 7aaf 40bc 682f 2abd 7abe 13bd
00000090: e52a e33d 2a4e b73d 01b4 babd 7b07 893e
000000a0: ceb5 96bd 567c be3d 354b 42bd a892 77bd
000000b0: 27f0 67bd 6d9e 243e b0e0 d43c ff3c 4e3e
000000c0: 6f91 243c 0829 d43c 9729 883d a877 08bc
000000d0: 664e 333e d371 ae3d 35d6 81bd 8de3 843d
000000e0: 07e0 95bc 2988 833d 618c 0b3e ffec 1fbe
000000f0: d3f3 38bd 07a7 123d 558e 0c3e 6ae2 723c
00000100: 6d0b 9c3d ea01 8fbc 4a19 66bd 6a60 98bd
00000110: 5d7f 343e 7d66 043d c011 753e 3eb0 a9bd
00000120: 62c3 44bd 4567 553c b0cf c83b bdb7 09bc
00000130: e970 553d 2b49 683d 07c4 1dbe b536 a83b
00000140: 7d01 fdbb 7f32 5abc d2ee 873b b45d 8abe
00000150: 3a3e 2f3d 1761 43bd 52d4 06be 6a0b 48bd
00000160: a986 ebbc 22fb 9a3d b6ac 94bb 9488 21be
00000170: 4ec2 183e bcf5 00be 691b 9ebd 72b4 75bd
00000180: 5090 1bbd 57da 0b3e c485 48bd 24d6 0d3d
00000190: 9105 a83d 7773 b63a 2a53 00be f237 51bc
000001a0: 9aef b33d ad1e 3d3d 0618 f13d 26f6 eb3d
000001b0: ff14 64be eee7 bfbd 5e74 d3bc 9abb 163d
000001c0: 5fb8 503c 77b4 fbbc 71c4 e4bd f1b5 46be
000001d0: aa5e 5d3d 2799 633d f2ec fcbc 2ded 413d
000001e0: d056 1c3e 2f9c c2bc cf39 173c 1714 793d
000001f0: 7c17 1cbd 7982 5e3e 34dc b03d 43a4 b33d
00000200: a64a f93b c5d1 093e 2713 ba3d 8284 433e
00000210: a214 66be 3611 7b3c 8c4b b3be 127b a7bd
00000220: 9583 a53c 6ff4 6d3e 7059 16be 91d2 8b3b
00000230: 4ef0 093e 5067 7b3e 0929 2e3e e3fb 3d3d
00000240: 965b 59bd 7a1a 71be d5e4 563d d717 6d3e
00000250: 8a2f 3cbe 7289 0d3e e38a 59bd 5343 acbd
00000260: 2e79 b43d 79f1 c33d c707 8d3d 1fee 00bd
00000270: 6fda 03be 9575 0e3d 2e93 17be a291 62bd
00000280: e59b 7e3d 6fb3 01bd 7230 63be e416 1f3d
00000290: b490 3a3e e43d 073e 09b5 283e f9be 87be
000002a0: 67ab 17bd 396c 5ebe 8061 18be 0756 fbbd
000002b0: 263d 1f3e e46a 343d 1c66 1e3e 1a0d 3ebe
000002c0: 241d 08be ed42 5f3e 7131 8dbc 9481 0cbc
000002d0: 9db0 d9bc bd18 febd 94dc f53d 2559 2b3e
000002e0: e56f f6bd 469f f8bc e6d3 d3bb c714 343c
000002f0: 917f 1d3e 3a06 8ebe 0169 863e da57 19be
00000300: 1c99 6cbd 6895 94bd b82c 0cbe 02a5 3c3e
00000310: 69a7 afbd acd6 8a3d 2a2d 64bc dcad 3fbe
00000320: 6953 f03d cb1b 023d 2185 00bd 2414 753d
00000330: e4bb 26bd 720c f73d 3fca 0b3e 0d9e aa3d
00000340: 0225 b63d 0bd8 163d dfa1 bcbc 0f35 553e
00000350: 32d5 753d 28c0 e43c b0d4 383d 48a2 10be
00000360: 7806 71bd 55a8 9cbd d22b cc3d 8aa1 0e3d
00000370: af6e 19bc c4d8 bd3d dac7 c8bd aa2d 2bbe
00000380: fb32 f8bc affa e13d e0e1 41bd 16fc acbd
00000390: 0875 ac3c 96a2 a73d ed2e 0c3e f9e4 05bd
000003a0: 1344 37be d083 003d 37ee 8c3d e0bc 3fbc
000003b0: b8dc 093e 6809 1e3e 21dc c33d 84fd 6bbe
000003c0: e44f c5bc 58fd 893c 463f 703e 64a5 143d
000003d0: 4c64 96bc 602d c0bd 0abf 243e 525a 0d3e
000003e0: 35cd a3bd 09fe 4ebd 2903 133e 1df4 37be
000003f0: 6b98 96bd 1a4e 7ebc a0e8 433e 8037 03bd
-0.13210455 -0.037313893 -0.17417762 0.09753192 0.02766169 -0.020721102 0.13335432 -0.19122812
-0.06980672 -0.09557181 -0.0352138 0.07174109 0.0030921535 0.13208826 0.021823255 -0.032153174
-0.068502076 0.07149976 0.10124965 -0.04111629 -0.052744657 -0.031640135 0.034399077 0.007697407
-0.08657358 -0.1658422 0.14956746 -0.04899869 0.38045397 0.0036426703 0.029348703 -0.15421543
-0.063938 -0.011760587 -0.041549116 -0.036070324 0.11092166 0.089504555 -0.09116364 0.2676352
-0.07358895 0.09301059 -0.047435004 -0.060442597 -0.05662551 0.1607606 0.025986046 0.20140456
0.01004444 0.025898471 0.06648558 -0.0083293095 0.17510375 0.08517804 -0.06339685 0.06488714
-0.018295301 0.06422455 0.13627769 -0.1561775 -0.045154404 0.03580382 0.1372617 0.014824489
0.07619367 -0.017456967 -0.05617646 -0.074402645 0.1762671 0.032324303 0.23932552 -0.08285569
-0.048037894 0.01302511 0.006128274 -0.008405623 0.052109633 0.056710403 -0.1540681 0.0051334747
-0.0077211247 -0.013317703 0.0041483426 -0.27024615 0.042783953 -0.047700014 -0.13166931 -0.04883901
-0.028750734 0.07567431 -0.0045371903 -0.15774757 0.14917871 -0.1259374 -0.07720072 -0.05998654
-0.037979424 0.13657509 -0.048955694 0.03462805 0.08204187 0.0013919909 -0.12531725 -0.012769686
0.08785935 0.046171833 0.1177216 0.115215585 -0.22273634 -0.09370409 -0.025812324 0.036800005
0.01273927 -0.0307257 -0.11170281 -0.19405343 0.054045357 0.05556598 -0.030874703 0.04734533
0.15267491 -0.023756115 0.009230091 0.060810175 -0.038108334 0.21729459 0.086357504 0.08771565
0.0076077757 0.13458927 0.09085684 0.19093516 -0.22468808 0.015323928 -0.35018575 -0.08177771
0.020204345 0.23237775 -0.14682555 0.004267045 0.13470575 0.2455113 0.17007841 0.046382796
-0.05306586 -0.23545256 0.052464325 0.23153625 -0.1837751 0.13821962 -0.05311097 -0.084112786
0.08812176 0.09567542 0.06886249 -0.03147709 -0.12876295 0.034780104 -0.14802238 -0.055314668
0.06216039 -0.03166526 -0.22186449 0.03884019 0.18219262 0.13207203 0.1647531 -0.26512888
-0.037028696 -0.21720971 -0.14880943 -0.12272268 0.1555067 0.04404725 0.15468639 -0.18559685
-0.13292366 0.21802874 -0.01723549 -0.008575816 -0.026573474 -0.12407062 0.120049626 0.16733225
-0.12033061 -0.030349385 -0.0064644692 0.010991282 0.15380694 -0.27739125 0.26251987 -0.14974919
-0.057763204 -0.072550595 -0.13688934 0.1842232 -0.08576853 0.06779227 -0.013926784 -0.18718666
0.11734659 0.031764787 -0.03137696 0.05983366 -0.04070653 0.12062921 0.1365137 0.08330927
0.088937774 0.03682713 -0.023026405 0.20821021 0.060017772 0.027923658 0.04512471 -0.14124405
-0.05884406 -0.07649294 0.099692956 0.034822024 -0.009364768 0.092698604 -0.09803744 -0.16716638
-0.030297747 0.11034142 -0.04733455 -0.08446519 0.021051899 0.08185308 0.13689776 -0.03268907
-0.17897062 0.031375706 0.068813734 -0.011702746 0.13463104 0.15433276 0.09563471 -0.23045927
-0.024085946 0.016844437 0.23461637 0.03629054 -0.018358372 -0.093836546 0.160885 0.13803986
-0.079981245 -0.050535236 0.14356674 -0.17964216 -0.0735329 -0.015521551 0.19131708 -0.03203535

main_network.lstm.bias_ih_l0 f4 [256]
00000000: 9443 cdbd 5212 fdbd d78c 0f3e e926 0e3d
00000010: b84d c5bd 9046 f4bd 6532 06bc 98f3 4dbd
00000020: 78e2 e3bb 0ca9 3f3e 819f 71bd 62dd 013d
00000030: ab27 cd3d fb47 c53d cae1 183e bfea b23d
00000040: 15e7 d5bc 0e76 223e 2bdb a23d f70b 48be
00000050: d134 b3bc c494 b13d 445e 1dbe d27a 943d
00000060: b5df bdbd b74b a1bc 5c54 e8bc 7a43 d13d
00000070: ae51 a13e e7e0 68bd 9ae7 6abb aee1 593d
00000080: 9648 043e b517 40bd 0c90 e53c 0b35 e83b
00000090: 0b23 373d 6246 ebbc 2615 003e 68dd 1d3e
000000a0: b3d7 a13d 3736 883d 0a6d fabd 1bda 723e
000000b0: b0f7 7c3d e0dc ee3d 7348 4fbd d843 8a3d
000000c0: 54b8 523e 7c7f 023e bbd3 a6ba 08e4 153d
000000d0: 30f3 763d a1ba 123a d016 d83d c6c9 003e
000000e0: 72bb b4bb b9b2 e53c f571 4fbd 4f13 4c3d
000000f0: 323a 61bc a4be 143e 3a39 bf3d 0d38 963d
00000100: f86b 52bd 8aa5 13bd b6a4 8dbd 16b9 cc3d
00000110: ca3f 813d feb5 bc3c 6dda 2d3d dbb6 e6bd
00000120: 0340 efbc e5ec aebd b686 be3d 8aee dc3c
00000130: da59 3a3d 6171 d63d 4f3c 273e 9bbf 1d3d
00000140: 54e1 9cbd 3b15 8b3d 8d4c 763c 2af5 9ebd
00000150: 12ad 4e3e 5815 b13d efb8 d33d 8ec1 013d
00000160: 7030 3fbe c2f9 25bd 234f bdbc 0ec9 87bd
00000170: bdad c53d 82a9 74bd 1b96 04be a0d4 0f3d
00000180: 2bce abbd 6511 9fbd a9ec d83d c2f9 35bd
00000190: 7f3f deba a5e1 62bd 2408 593d 9001 e4bb
000001a0: 7d58 8fbd 4ac5 a6bd e8dd bb3d 48e0 c1bd
000001b0: e07d 943d cdd1 24be d7e6 093c 5433 03be
000001c0: 8631 533d a00e d8bd b1a1 36bd 7013 17be
000001d0: bd62 143d c019 413e 2f28 ea3b c030 97bd
000001e0: 1201 083d c489 76bd 059d d43c 3ef4 18bd
000001f0: eece bf3d a5ee c8bd ed9c 26bd 6be5 2abc
00000200: 38f3 1cbc 2018 ad3d 1621 07bd 179f 7abd
00000210: 05ab 0e3d fdb0 843a 8887 e03d 1a93 89bd
00000220: 336f 443d d796 fe3c 6753 933d c293 4a3d
00000230: e195 163e f040 a03d d864 2a3d 83ca 653c
00000240: 4b1c 41bd 4e1d 30be ee63 86bd 48e7 35bd
00000250: 7100 cabd a43b ccbc 03ca 10bd a733 133e
00000260: 8a1c 7f3d 11ca efbc 30fe 373d f68d 5f3c
00000270: 03e0 16be f6b0 79bd 3d85 b53d 756c 94bc
00000280: b4d2 2a3e 6cc4 89bc 217f 1cbe 31ef ad3d
00000290: f4e0 ce3d fd2e be3c 7d8c 073e 322e 06bd
000002a0: 69fe f0bd 2968 9e3d f0ca 96bc 6b75 d1bd
000002b0: 2327 093d 0f5e df3c 51a7 1d3e 5260 5dbd
000002c0: 49d7 17be a214 323e 3a02 66bd ee12 02bd
000002d0: 2495 10be 991c fbbd 1c82 7cbb 3014 04be
000002e0: 97af d1bd 73a0 393d 778f c2bd f573 e33d
000002f0: e6c2 d13d 2ace f9bc 96f3 30bd d76b b7bd
00000300: 68a1 a9bb 4100 bf3d 47ec df3d bdaf ce3b
00000310: 5b35 173c 0e36 08bd 4e63 3bba eadb 9cbd
00000320: fadb 833d a820 3c3e b9f2 b0bd 67aa 8d3d
00000330: 684c f1bc e634 903d 7cc5 9fbc 3460 be3d
00000340: dc60 66bc 1214 693c 943f f4bd 6298 bdbc
00000350: f798 0c3e 3724 dcbd 4b66 ccbd 545e 57bd
00000360: 8016 ba3d 1267 7c3c b526 ff3b 10e4 a03d
00000370: a3f2 143e e455 813d 1c62 e73d 566e 9fbd
00000380: 87e3 ba3b 2931 823c a07f cf3d 7c1a 063e
00000390: 6411 9c3c b801 02be 028f 1b3e 9d17 413d
000003a0: 1a37 1d3e 5ee2 d7bc dd0e 1b3d eacc 853e
000003b0: 0da5 1d3d 5a62 cc3d 78f1 d73d aaca 87bc
000003c0: 3182 c13c bd97 e63d c883 283e ff9e 9b3d
000003d0: a702 dd3d 8786 3e3e 42f8 fd3d dd03 a1bc
000003e0: 6538 133e dc69 143e 0484 f63d 4de1 d6bd
000003f0: d689 c6bb 0446 ce3d 7fcd 133e a100 643e
-0.10022655 -0.1235701 0.1401857 0.034705076 -0.09633964 -0.11927521 -0.008190726 -0.050281137
-0.0069544874 0.1871683 -0.058990005 0.031705268 0.10017332 0.0963287 0.14929882 0.087361805
-0.026111165 0.15865347 0.07951959 -0.19535814 -0.02187577 0.08670953 -0.1536799 0.072499886
-0.09271184 -0.019689424 -0.028360538 0.10217948 0.3150763 -0.05685511 -0.0035843612 0.05319374
0.12918314 -0.04689761 0.028022788 0.0070864013 0.044711154 -0.028720085 0.12508067 0.15416491
0.079024695 0.06650966 -0.12227829 0.23716013 0.06175965 0.11663222 -0.050606202 0.067512214
0.20578128 0.12743944 -0.0012727896 0.03659442 0.060290515 0.0005597268 0.10551226 0.1257697
-0.0055155093 0.028039323 -0.050645787 0.0498231 -0.013746785 0.14525849 0.09337087 0.073349096
-0.0513725 -0.036046542 -0.06916182 0.0999624 0.06310995 0.023036 0.042444635 -0.11265346
-0.029205328 -0.08541278 0.09303038 0.026969213 0.045495845 0.10470844 0.163316 0.038512807
-0.076601654 0.06791159 0.0150329 -0.07761605 0.20183209 0.08646649 0.10338008 0.03167873
-0.18670821 -0.04052139 -0.023109024 -0.06630145 0.096522786 -0.059731968 -0.12947886 0.035114884
-0.08388933 -0.077669896 0.10592014 -0.04442764 -0.0016956179 -0.055390973 0.05298628 -0.006958194
-0.069993 -0.08143099 0.09173185 -0.094666064 0.07250571 -0.16095658 0.008416853 -0.12812549
0.0515609 -0.105496645 -0.044587795 -0.14753509 0.036226977 0.18857479 0.0071459035 -0.07382345
0.033204146 -0.060189977 0.025953779 -0.037342303 0.093656406 -0.09811143 -0.040677 -0.010430674
-0.009579472 0.08451867 -0.032990538 -0.061186876 0.034831066 0.0010123547 0.109633505 -0.067175105
0.04795761 0.031077785 0.07193642 0.04945732 0.14705612 0.07824886 0.04160008 0.014025333
-0.047146123 -0.17198679 -0.06562029 -0.04441002 -0.098633654 -0.024930783 -0.035348903 0.14375173
0.062283076 -0.029271157 0.044920146 0.013644686 -0.14733891 -0.06095978 0.08863304 -0.018118123
0.1668194 -0.016817294 -0.15282871 0.08492888 0.101015 0.023215765 0.13237186 -0.0327589
-0.11767275 0.07734711 -0.018407315 -0.10227474 0.03348459 0.02726653 0.15395857 -0.054046936
-0.14828219 0.17390683 -0.056154467 -0.031756334 -0.14119393 -0.12261314 -0.00385297 -0.12898326
-0.10238569 0.045319032 -0.0950002 0.111061014 0.10242252 -0.030493814 -0.04320105 -0.08956116
-0.005176712 0.0932622 0.10933738 0.0063075707 0.0092290295 -0.033254676 -0.00071482814 -0.07659133
0.064384416 0.18371832 -0.08640046 0.06917267 -0.029455379 0.070413396 -0.019503348 0.09295693
-0.014061179 0.014225977 -0.11926189 -0.02314395 0.13730226 -0.10749095 -0.09980448 -0.052580193
0.09086323 0.015405433 0.0077865967 0.078559995 0.14545684 0.063152105 0.1129801 -0.07784717
0.005703393 0.015892582 0.101317644 0.1309604 0.019051261 -0.12695968 0.15191272 0.04714166
0.15353051 -0.026353057 0.03785597 0.261329 0.038487483 0.099796966 0.105441034 -0.01657613
0.02362165 0.112594105 0.1645652 0.075986855 0.107915215 0.18606006 0.12400867 -0.019655162
0.14376982 0.14493507 0.12036899 -0.104921915 -0.006058912 0.10071948 0.1443386 0.22265865

main_network.lstm.bias_hh_l0 f4 [256]
00000000: 4301 a63c d807 32bd dc9e 0d3e 073d 2b3d
00000010: ac03 44bb 718e cebc 5472 293d 300c 3e3d
00000020: a875 87bd 9b62 1f3e 77a9 b1bd 1d12 8a3d
00000030: 4e80 26bd 2ac7 8abd 8709 5e3e f9d7 713d
00000040: 6e43 883d 78f8 873d f558 8a3d 98eb 58be
00000050: 2857 e63d 8133 19be a56a 563c 97f5 32bd
00000060: c0e0 a53d b567 9d3d 8e1f 303d 89a3 4a3e
00000070: 33f7 983e d268 9f3d 3027 28bd 05a0 083d
00000080: 1f27 323d ceeb 6f3d 7788 923d e52e 18bd
00000090: ab4c c53d 4ba7 a0bd d599 ff3b c125 023e
000000a0: 7138 583e 55ff 15be 7bed ac3d 3861 5f3d
000000b0: bb52 14bd f9f1 aa3d 9c2b 00bd 1cc4 fa3d
000000c0: 2e06 693e 1add 3c3d 6d73 eebd 709d b83d
000000d0: 3db7 873d 303b 3e3e 4729 31bd 1139 ef3d
000000e0: 5e02 f73d 7d92 0abd 587d 38bc aa64 debd
000000f0: ce4d 4f3e e2a8 8f3d 3de7 4ebd 534b 133e
00000100: 4af8 493d 321c 3fbd 39bd d1bd eaff bf3c
00000110: b175 e0bd 8769 353b 8321 e1bd 8d86 1dbe
00000120: d4f9 ae3d c519 24be 7ff5 3cbc db70 d0bc
00000130: b1d7 003e a467 703d 3627 853d a330 e0bd
00000140: f14c b63d 3119 ee3d 6b7a eabc 78b1 97bd
00000150: 2a07 603d 22fd 15be 445d ce3d 0c72 cbbd
00000160: 4983 c3bd bba4 1fbd 3dbd d73c c2c1 46be
00000170: af6b 373b abb6 23bd 1625 913d 4b91 b5bd
00000180: c3f1 0f3e 4c2a 63be b8a4 353e c354 d23d
00000190: 695b 62bd 3c51 d2bd 03ec 723d 1336 bf3d
000001a0: 9465 e4bd 8310 a2bd 6190 053e f066 03be
000001b0: f17c b6bd 8f3d 993d f55f 453e 48f4 b6bd
000001c0: 8704 673e 6cdf 97bd 3c65 41bc fbb7 53bc
000001d0: ac49 683d 6b45 4b3e 2835 50bd 2ca3 ea3d
000001e0: 0349 793d 9678 903d 8fa9 3b3c 2146 33bd
000001f0: 2a86 d73d b09e 16be d8a7 c6bd 9c5b 9dbd
00000200: dce7 c63d b500 343d eb1f df3d 6881 d8bc
00000210: a755 cfbd b466 b8bc e574 bdbb 2cea 463c
00000220: d56a fc3d dc71 bc3d 091e e43c 8bc9 0239
00000230: c566 d4bc f1bb 753c 7b66 473e a4d4 f73d
00000240: 9e1e 5d3d 2d92 fabd 9674 adbc 0e1d b43b
00000250: 0761 5dbd 3c25 183c 6127 503d 1b6c 133d
00000260: 71d1 8e3d ba15 cd3c 93c4 efbd 6e1b 093e
00000270: 2394 a4bd 8a06 c03c e934 afbd 1d92 fcbc
00000280: 7343 753d dd5b 1fbd 16e1 12bd 9a25 4dbd
00000290: a3c8 cd3c 3ac4 a1bc c731 a4bd 04f9 67bc
000002a0: 0411 b33d 6963 55bd 3632 21be c284 76ba
000002b0: 3aa7 f53d 6ea8 bdbc 10e5 793d 2f25 733d
000002c0: 17d3 08bd e63f da3c 1aff bdbd c6f8 633d
000002d0: 45ae 8d3d dc4c 25be 9b64 10be 8979 f8bd
000002e0: 6490 2dbe a985 863d 7e06 97bd 996f 043e
000002f0: e5bd e73c 408f b0bc c2d1 fd3b 717f e23c
00000300: a965 a03d e045 f3bc b88b c73b 1a33 ed3d
00000310: c9cd fd3d 8eb4 e7bc c217 1a3e 0abb bebd
00000320: 9b95 0b3d 5b09 303e 7077 08bd f1a4 153d
00000330: 979e 1dbb c871 0cbd e271 333e ab18 293d
00000340: 1ea8 04bd 4adf 923d a044 c63d ac4d 4b3b
00000350: f226 c53d 9fec ac3d 9338 0dbe da48 983c
00000360: 3ca4 db3c f5bd 953c 4f08 bb3d c96a 013c
00000370: ddcd 873e 01b1 f7bd 5bf4 82bd c7bc d03d
00000380: 59a8 bc3c 244d 2e3d 288d 413e 9373 0cbd
00000390: af93 57bd 3783 95bd 22b1 f3bb 0420 f13d
000003a0: 20dd 533e 8f4c 2abd a37e e3bd 3999 3c3e
000003b0: ca06 7d3d 67dc 1a3e e148 4f3e 3669 88bd
000003c0: 1851 2a3d 37d3 983d 0dad 263c 143c 823d
000003d0: 21ac bd3b e40f ee3d 638d 8c3c 27fb a9bc
000003e0: 04b8 a6bc ccf2 153e 022a ee3d 1447 aebd
000003f0: abf9 353e df95 9b3d 5c16 913d f8eb 363e
0.020264274 -0.04346451 0.13830131 0.041806247 -0.0029909415 -0.025214406 0.041368797 0.04639834
-0.06614238 0.15564959 -0.08674901 0.06741736 -0.040649705 -0.06776269 0.21683322 0.05904386
0.06653486 0.066391885 0.067552485 -0.21183622 0.112470925 -0.14961053 0.0130869495 -0.043691244
0.08099508 0.07685796 0.042998843 0.19788946 0.29876098 0.07783665 -0.041052997 0.03335573
0.04349434 0.05857449 0.07154935 -0.037154097 0.09633764 -0.078444086 0.0078003206 0.12709714
0.2111528 -0.14648183 0.08443733 0.054536074 -0.03621171 0.08346934 -0.03129159 0.12244436
0.22756264 0.046109296 -0.116431095 0.09014404 0.06626747 0.18577266 -0.043252256 0.116808064
0.120609984 -0.03383111 -0.011260353 -0.10859044 0.20244524 0.07014634 -0.050513495 0.14384203
0.049309053 -0.04665775 -0.102411695 0.023437459 -0.10959948 0.0027681307 -0.1099272 -0.15383358
0.08543745 -0.16025455 -0.01153314 -0.025444439 0.1258228 0.05869259 0.065016195 -0.10946777
0.08901394 0.11625899 -0.028622827 -0.07406896 0.054694332 -0.14647344 0.10076383 -0.09933862
-0.09546525 -0.03897546 0.026335353 -0.1940985 0.0027987768 -0.039969128 0.07087152 -0.08865603
0.14057069 -0.22184104 0.17738616 0.10270073 -0.055262957 -0.102694005 0.05930711 0.09336486
-0.11152187 -0.079133056 0.13043357 -0.12832236 -0.089105494 0.074824445 0.19274886 -0.08933312
0.22560321 -0.07415661 -0.011803921 -0.012922282 0.056710884 0.198507 -0.050831944 0.11456904
0.060860645 0.0705425 0.011454 -0.043768052 0.10523637 -0.14708972 -0.096999824 -0.07683489
0.097121924 0.043945987 0.1089476 -0.026428893 -0.10123759 -0.02250991 -0.005781757 0.012140792
0.12325064 0.092014045 0.027846353 0.00012472847 -0.02592791 0.014998422 0.19472687 0.12101105
0.053984277 -0.12234912 -0.021173757 0.0054966277 -0.05404761 0.009286221 0.050818805 0.03599177
0.069735415 0.025034774 -0.117074154 0.1338937 -0.08036067 0.023440618 -0.08555014 -0.030831391
0.059878778 -0.038905967 -0.03585919 -0.050084688 0.025120085 -0.019746888 -0.08017307 -0.014158491
0.0874348 -0.052096758 -0.1574181 -0.0009403938 0.119947866 -0.023151603 0.061009467 0.059361633
-0.033404436 0.026641797 -0.092771724 0.05565717 0.06918005 -0.16142601 -0.14100878 -0.12132556
-0.16949612 0.065684624 -0.07374285 0.12933196 0.028288791 -0.021552682 0.0077459523 0.02764866
0.0783189 -0.029696405 0.006089654 0.115820125 0.12392766 -0.028284337 0.15048125 -0.093130186
0.03407822 0.17191069 -0.03331703 0.036534254 -0.0024050826 -0.034288198 0.17523912 0.04128329
-0.03238689 0.07171495 0.09681058 0.0031021638 0.09626569 0.084435694 -0.13791113 0.018589426
0.026811711 0.018279055 0.09132444 0.007898995 0.2652425 -0.12094308 -0.06394263 0.101922564
0.023029493 0.042554036 0.18901503 -0.034289908 -0.052631076 -0.07300418 -0.0074368874 0.117736846
0.20689821 -0.04157692 -0.111081384 0.18417825 0.061774053 0.1512314 0.20242645 -0.066606924
0.041581243 0.07462161 0.010173094 0.06359115 0.0057883416 0.11624125 0.017157262 -0.020749642
-0.020351417 0.14643401 0.11629106 -0.08509651 0.17771022 0.07596945 0.07084343 0.17863452

main_network.fc.weight f4 [3, 64]
00000000: f38e 963b c6a0 04bb bc89 84bc dadc fdbc
00000010: a936 263e 6741 f63d a6f6 8c3d 53a1 87be
00000020: 0a68 e13c 5296 bbbb adad 023d a38e 30bd
00000030: 28e4 1abd 1280 fabd 74fd 00be 57d8 063d
00000040: 1e39 82bc 9a10 f03c d201 9abd 7bab 683d
00000050: e948 15bd 121d 5c3d b28b 67bd 1dfb a23d
00000060: 539f a73d 42bf 843d e923 9b3c cd7d 1e3d
00000070: 2536 cfbd dc52 0a3d 6049 90bc cd5c 23bd
00000080: ec7c 9d3c 02cb a23b 7c4e 65bd 2703 9cbd
00000090: 91d3 bbbd 0b7e 2b3d 457c 643d 7691 903d
000000a0: 27e2 c8bd 341f 1bbd 9fcf c03d 608f 02bd
000000b0: ed98 da3c 89a1 a3bd 0349 ebbd 062f 90bc
000000c0: f61f 01be 1e05 003d f949 51bd 6f93 a2ba
000000d0: 2572 563d fab5 193a 5b47 3e3b 4b0e 70bd
000000e0: 732f d0bd a650 fa3c 2680 67bd faf7 163c
000000f0: c135 bbbc 0434 073e 53b8 163d ab24 83bd
00000100: bdcd 743c 12cf a3bd 2821 7c3c d2d7 13bd
00000110: 6ea4 953d 511a 51bd 061a fc3d 4c13 8dbe
00000120: 770b 01bc c9e2 4ebd 4088 a53d 5b06 81bd
00000130: 7890 afbd 5f17 16be b746 383d 8586 963d
00000140: fc2c 84bc f212 b7bd 64bf d7ba 6033 4f3d
00000150: a00d 67bc 824a 0bbb bf60 c43d 1866 c13d
00000160: 5ee2 2cbe aa3f 00b9 f30b 903c ccea 8bbc
00000170: 42b7 a9bd 37fd 273d c545 053e ab5d 9bbd
00000180: 3232 15bd 7b2d 0dbd ad59 87bd 2c8a 383d
00000190: 2799 d53d 209e 00bd d41e 683d dcd9 773d
000001a0: fa96 653d 6a7e 5abd 8901 9e3d 865d 85bc
000001b0: a009 483d 1bdd 8abd c6f0 d4bd 2f63 babd
000001c0: d017 f13b 3d4c 03be f2ca 89bc aab0 e6bc
000001d0: d924 dbbc 8297 4ebd 7f47 e43c 0791 ed3c
000001e0: 0c72 013d 7f3a 083e fad9 293d ee5c e4bb
000001f0: 05c1 913c 8c40 66be c80c bd3d bd25 813c
00000200: 3ff9 d7bd bd90 823d fac3 703e b298 143e
00000210: bbda 7dbe 703e b83d dd01 55be 915c 373e
00000220: 7331 893d 1b74 253e f1b2 b53c 7110 12bd
00000230: 45f9 763c d51a 143e 7eae 013e d99e b03d
00000240: 26df a7bd 752f 95be bbe4 bd3c c45d 5e3e
00000250: 1d80 2abe f0cd e53d def1 c9bd 7505 893e
00000260: 9f91 bbbd 2113 c43e abe0 86be d236 863e
00000270: a5ba 86be a717 833d ed23 02be 20e0 38bd
00000280: 1b8c b63e 3bf5 8b3d 7684 62be 39e5 0d3d
00000290: 48f4 763c 2c53 a93c 2e06 593e 3250 77be
000002a0: 7c18 3ebe 48d7 83be 5bc6 cfbd 3f1f 6a3e
000002b0: 1e13 9a3e 22ce 38be 0032 203e 7037 7abe
000002c0: e1d8 58be 9181 243e edd3 22be f42e 203e
000002d0: be5e 80bc 46f2 52be 26e6 e1bc 80ea 89bc
000002e0: c666 6fbe e4ac 6c3e 7c5e 93be 5505 d8bd
000002f0: b62a 093e 4044 41be ba32 aebd 3006 363e
0.0045946776 -0.002023743 -0.016178958 -0.0309891 0.16231789 0.12024193 0.06882982 -0.26490268
0.02751543 -0.0057247067 0.03190391 -0.04310478 -0.037815243 -0.12231459 -0.12596685 0.03292116
-0.015896376 0.029304791 -0.075198784 0.05680416 -0.036446486 0.05373866 -0.05652971 0.07958052
0.081846856 0.06481792 0.018938022 0.03869419 -0.10117749 0.033770427 -0.017613113 -0.039883424
0.019224606 0.004968048 -0.05598305 -0.07617789 -0.091712125 0.04186825 0.055782575 0.070589945
-0.0980876 -0.037871554 0.094146006 -0.031875014 0.026684249 -0.07989795 -0.11488535 -0.017600548
-0.12609848 0.03125488 -0.051095936 -0.0012403558 0.05235495 0.00058636034 0.002903423 -0.05860738
-0.101653 0.030556034 -0.056518696 0.009214396 -0.02285278 0.13203436 0.03679688 -0.06403478
0.01494163 -0.0799848 0.015388764 -0.036094494 0.07306753 -0.051050488 0.12309651 -0.27553785
-0.007876269 -0.050509248 0.08082628 -0.0630004 -0.08572477 -0.14657353 0.044989314 0.07349876
-0.016134731 -0.089391604 -0.0016460237 0.050586104 -0.01410237 -0.0021254127 0.09588765 0.09443301
-0.16883227 -0.00012230748 0.017583823 -0.017079733 -0.08286907 0.04101297 0.13014896 -0.07586225
-0.036424823 -0.0344672 -0.06608901 0.045053646 0.10429602 -0.0314008 0.056670025 0.0605105
0.056052186 -0.053343214 0.077151366 -0.016279947 0.048837304 -0.06780454 -0.103974864 -0.09100949
0.007357575 -0.12822051 -0.016820405 -0.028160412 -0.026750969 -0.050437458 0.027866123 0.028999818
0.031602904 0.13303564 0.041467644 -0.006969086 0.017792234 -0.2248556 0.092309535 0.015765065
-0.10545587 0.06375263 0.23512259 0.14511374 -0.2479047 0.08996284 -0.20801492 0.17906405
0.06698885 0.16157572 0.022180052 -0.03566021 0.015074079 0.1446336 0.1266422 0.08624048
-0.08196859 -0.2913777 0.023180356 0.21715456 -0.16650434 0.1122092 -0.09860586 0.26761976
-0.091586344 0.38295844 -0.26343283 0.262137 -0.26314273 0.06400996 -0.12709017 -0.045135617
0.35653767 0.068338834 -0.22120842 0.034642432 0.01507289 0.020669542 0.21193764 -0.24151686
-0.18564028 -0.25750184 -0.10145255 0.22863482 0.3009271 -0.18047383 0.15644073 -0.2443521
-0.21176483 0.1606505 -0.15901156 0.15642911 -0.015670177 -0.20600232 -0.027575564 -0.016835451
-0.23379049 0.23112828 -0.28783023 -0.10547892 0.13395199 -0.18873692 -0.08505769 0.17775798

main_network.fc.bias f4 [3]
00000000: bdd5 a63d e283 aa3d fda4 3b3d
0.08146236 0.08325936 0.045811642

short_term_context_network.fc1.weight f4 [32, 7]
00000000: 07a7 64be 7721 f63d c567 bdbe 9f7c 4dbe
00000010: e8e8 393d bea6 843e 54d6 2ebe 02f9 b93e
00000020: 38d0 22bd 0a3f e1bd 9861 00be 7918 053e
00000030: f557 2d3e 39a6 0f3f cd4b 463e 101c b8be
00000040: b019 983e b75d 863e 9c0d 0a3f 3b3b 613f
00000050: daed 20bf a865 03bd 3ad2 1abe 8f66 4ebe
00000060: 3ae5 fd3d ac43 b5be 6ca4 993d e24f f73d
00000070: e4ba 70be 57d0 99bc fd15 003e 619a a0be
00000080: 6c43 333e 35fe 923d 7a06 173f a9b6 ffbc
00000090: c4ef 813e 5b16 093e 881e 983d f49c 283e
000000a0: 7cc6 903e 4706 9b3d f111 4cbe 1da6 1bbe
000000b0: 7684 05bd 9105 f93d 83a5 b7bd f1b4 a7be
000000c0: 9e6a 03be fce7 c9bd cd99 c03e cfd0 8a3d
000000d0: b309 6d3e e74c cc3e 06d3 133e 2509 59be
000000e0: 3531 63be 92a3 b8be 539f c7bd 549e 0ebe
000000f0: cfa1 133e 88f9 01be d19f 8dbe fce9 43bd
00000100: 1453 1ebe d201 553e c072 d33c e1a3 e1be
00000110: 4e66 923e dddf a73e bd07 233e fe38 a23e
00000120: 8c77 f13d 1c9c a3be c086 1a3f 1f8d 203f
00000130: 323b 17bf a6ba 46be 8dd3 a83d 8d41 36be
00000140: a34e 1e3e e564 fe3f 7c4e e63f 92e9 493f
00000150: 64ab d6be 14ff 44be 12dd a9bd 623f 7dbe
00000160: 3e03 2cbe a713 f2bd cf6b 653f 4816 81be
00000170: eb6e a33e 0bd6 243e 465b 0c3e 7c22 a83e
00000180: 4173 983c e5c3 f63e 2570 01bb 8f51 6b3e
00000190: d9cc fd3d 9e25 38bc fe9b 473d df68 3d3d
000001a0: df7e bebe e05f 113f fdb4 e73b adae 363c
000001b0: ea81 413e e8fb 20bf f343 80bf c406 853d
000001c0: 8751 163e 8b38 f83d bc37 193d 165d 513e
000001d0: 1777 383f 1002 1b3f c775 c2be ecb9 2f3f
000001e0: 8755 7c3c 82a2 863d 2abb 823e 1537 c8bd
000001f0: a309 9d3e ae1d 1c3f d25c 0f3f 8b7d 44be
00000200: 3b31 753e 0f42 8fbd c98f f8be 8921 9bbe
00000210: 41ed a1be 3231 9a3d 0aa8 b33c e9a2 9e3e
00000220: d24d 013e 3b57 5b3e 709f b53e d264 a8bd
00000230: 2bf5 5abd e8bd 943e d25e 9a3e a688 9a3e
00000240: c847 68be 8d7c e8bd f063 9f3e a8ef 8dbe
00000250: 5694 263e 8ce4 1d3e 3dcd 78be e0d3 36be
00000260: 32f9 22be 0aad fc3e 573c b33c be04 bb3e
00000270: 9be7 05be 065c d93c 7311 403e 0264 943e
00000280: ce0d d1be 29ff a03d f4ef 7f3d 1488 b83c
00000290: 624f 463d 947d 35be b654 61be 489b 82be
000002a0: 7f0e 70be 1063 c33b a643 fe3d c3d7 8a3e
000002b0: c30a 913e c996 eabd 8989 4b3e 78f7 3d3e
000002c0: c497 98be abbd 4ebe d432 ba3e 04d8 213c
000002d0: 6496 4b3e 384b 9c3e 1173 7dbe 1578 893c
000002e0: 3246 8bbe 325b 303e dd1f 763c 845c 8e3e
000002f0: abaa 873e 82c1 e8be d118 42bd 2962 993d
00000300: f98e 993d 1c22 3f3e b20d a73c 1fad 593f
00000310: 8357 8bbe 2058 36bc b6ca b0be 03e2 3dbb
00000320: 3f03 c1be 6d94 ab3e 0bfe a5be 50b0 efbd
00000330: f5fa 5dbb bfc9 13be 352c 9dbb 31f2 c93e
00000340: c956 353d d27a 393d 8bb1 c3bd 630e 4abe
00000350: b9b1 aabe 7fd6 6a3e ae8d 5e3e 8253 723e
00000360: b4ab 8fbe e1d3 083f b066 5a3e 579a bfbb
00000370: 53ea 393d 828b 89be 049a 073e 96e0 103f
-0.22329341 0.12018102 -0.36993232 -0.2006707 0.045388132 0.25908464 -0.17073947 0.3632279
-0.039749354 -0.10998352 -0.12537229 0.12997617 0.16928084 0.5611301 0.19364853 -0.3595891
0.29707098 0.26243374 0.53927016 0.87981004 -0.6286293 -0.03207937 -0.15119258 -0.2015631
0.12397237 -0.35403192 0.07502064 0.12075783 -0.23508793 -0.018776102 0.12508388 -0.31367782
0.17506188 0.071773924 0.5899426 -0.031215029 0.2537824 0.13387434 0.074276984 0.16466123
0.28276432 0.07569557 -0.19928719 -0.15200086 -0.032597028 0.12159265 -0.08967116 -0.32755235
-0.1283364 -0.09858701 0.3761734 0.06778108 0.23148231 0.39902422 0.14435968 -0.21194895
-0.2218674 -0.36062294 -0.097471856 -0.13927585 0.14417194 -0.12692845 -0.27660993 -0.047830567
-0.1546138 0.20801476 0.025811553 -0.44070342 0.28593677 0.32787982 0.1592092 0.31684107
0.1179038 -0.3195504 0.6036186 0.62715334 -0.590747 -0.19407138 0.08243475 -0.17798443
0.15459685 1.987454 1.7992702 0.78872025 -0.41927636 -0.1923793 -0.08294119 -0.2473121
-0.16798112 -0.11820155 0.8961763 -0.25212312 0.3192056 0.16097276 0.13706693 0.3283881
0.018609645 0.4819633 -0.0019750681 0.22980331 0.12392587 -0.011239437 0.04873275 0.04624259
-0.3720617 0.5678692 0.007071136 0.011150044 0.18897215 -0.6288438 -1.0020736 0.06495431
0.14679538 0.1212016 0.037406668 0.20445666 0.72056717 0.6055002 -0.37980482 0.6864307
0.015401251 0.06573965 0.2553342 -0.09776131 0.30671415 0.6098279 0.5600101 -0.19188516
0.23944561 -0.069950216 -0.485472 -0.30299023 -0.31626323 0.075289145 0.021930713 0.30983666
0.12627342 0.21419995 0.35473204 -0.08222355 -0.053456467 0.29051137 0.30150467 0.3018238
-0.22683632 -0.11351881 0.31130934 -0.27721906 0.16267523 0.15419215 -0.24297042 -0.17854261
-0.15915373 0.49350768 0.021879358 0.36527056 -0.13076632 0.026533138 0.18756656 0.2898255
-0.40830845 0.07861168 0.062484697 0.022525825 0.04841555 -0.17723686 -0.22004971 -0.25509095
-0.2344303 0.005962737 0.12415247 0.27117738 0.28328523 -0.11454541 0.19876684 0.18551433
-0.29803288 -0.2018954 0.36366904 0.009878162 0.19881588 0.30526137 -0.24750926 0.016780892
-0.27201992 0.17222288 0.015022245 0.2780496 0.26497397 -0.45460135 -0.047386948 0.07489426
0.07497973 0.18665355 0.020392273 0.85029787 -0.27215204 -0.011129409 -0.34529656 -0.0028973825
-0.3769779 0.33511677 -0.32420382 -0.11703551 -0.0033871506 -0.14432429 -0.0047965297 0.3944259
0.044272218 0.045283146 -0.09555348 -0.1973205 -0.33338717 0.22933386 0.21733734 0.23664668
-0.28060687 0.534483 0.21328235 -0.005847256 0.045389485 -0.2686425 0.13242346 0.5659269

short_term_context_network.fc1.bias f4 [32]
00000000: b4dd a7be a3dc 7a3e fd06 433d ff25 2fbe
00000010: b542 c43e 863b a73e 233e b53d 0bff 07bd
00000020: 8a4a c43d 1122 3e3e 1091 e73d f959 b73e
00000030: 9795 113f 652b ef3e 4836 01be 8c09 29bf
00000040: 3861 78bd 5a82 59bc 6168 38bf 168c 0e3f
00000050: 38ce a8be f62f 1d3f 75b1 953e fe14 73be
00000060: 7ec1 2e3f 3431 c13e 4493 293f 2a76 233f
00000070: fe65 f7bd 031a 0e3f 3770 7ebe 244a 3b3d
-0.32786334 0.24498229 0.047614086 -0.17104338 0.38332143 0.326626 0.08849742 -0.033202212
0.0958453 0.18567683 0.11306965 0.3581083 0.5686888 0.46712795 -0.12618363 -0.6603019
-0.06063959 -0.013275707 -0.7203427 0.55682504 -0.32969832 0.6140131 0.2923695 -0.23738477
0.68263996 0.37732852 0.66240335 0.6385218 -0.1208 0.5550844 -0.24847494 0.045725003

short_term_context_network.fc2.weight f4 [16, 32]
00000000: 5a70 f63d 6628 47be facd 9a3b 0705 ccba
00000010: 982f 41be 52b2 2dbe f6b7 973d 2044 09be
00000020: 1013 82bd 0889 90bd 1822 873c 59ef 823d
00000030: a268 e13d 4c2f 813c dbac 7abc 2ca8 99bc
00000040: d47a 11bd fa6e 38bd 6774 f3bd d469 31be
00000050: 502e 603c 8c3f 033e 3622 debd 2ea5 9f3d
00000060: 0539 efbd 1ee7 b73d 895c b73d fb88 1c3d
00000070: f261 a03d fae4 053e 01f9 fa3c 9a10 493c
00000080: 032d 0fbd 476e d0bd 187f bdbd 8b8e b23d
00000090: 818b 6bbc 29cd 23be 9084 acbc d29c 64bd
000000a0: 14e0 11bb c06a 20be a296 ffbd 9cc4 823d
000000b0: f251 343e 9d04 123e 793b d3bd 10a2 063e
000000c0: 4c58 133e a4bc 14bd 6ccd 3c3d 03d4 2b3e
000000d0: 6a92 7dbd 86db d03c e11b 80bc 38ee 993d
000000e0: 1976 11be 1de2 f53c e3f3 f4bd 0f54 78bd
000000f0: fcab d83d a674 a03d 827f 16be c25f eebc
00000100: 64ba 103e 0e9d 3abe bc11 0d3e b418 b3bd
00000110: 9309 e4bd 034e 1dbe a325 1f3c 4f3d a73e
00000120: a7f2 373e b953 933d fe16 e7bc dce3 98bd
00000130: 7c7b 96be 84a1 94bc ede1 cdbc 793b 963d
00000140: 7155 9dbc 9e20 9abe b589 843e f49c 153e
00000150: 0494 053e 7a70 ddbe 8589 063e 44f1 d73d
00000160: 3458 33be fa0d 7bbe 6278 b5bc a412 82bd
00000170: a486 0c3d e4c3 f1bd 0e27 a83d 4194 aabd
00000180: 52e2 bd3c d239 e43c f50f 2abc 008f f43d
00000190: 9250 dcbc 347f c73d d0d7 193c bd1a 25be
000001a0: 5edc 50b9 e4ad ad3c d9f3 4dbd 4db7 01be
000001b0: 58f7 2b3d 74ed 23be f043 dbbd 07e6 f6bd
000001c0: c122 94bd ea13 313d ce0b a53d 96b7 1cbe
000001d0: 57b5 fd3d f44a 063e 83c5 c0bd 175c a6bd
000001e0: 45e0 35be cf1d 7c3d 8133 59be 1281 fcbd
000001f0: e4fa 25be 8907 693d e321 163e cbd3 b1bd
00000200: dc93 89bd 83a5 073f 2af6 423f efb7 ea3d
00000210: ca80 443f 7241 c73e 9638 18bd 41ed fbbd
00000220: 870d cd3d 73fe 2e3f 0bfa 273f 7a9d a23f
00000230: 321f de3e b523 b33e cc5e fabd 398b 13bf
00000240: 3eca 0e3f 8ff4 4f3e d078 b4be 3c1a 973e
00000250: e188 75ba f5b0 4e3f 42ff 213e 9a78 173e
00000260: a59a 173f 3240 b13e 1d2c 003f ae49 f13e
00000270: e175 573e 5e6b f83e b4cf e43c a894 9d3d
00000280: c7dd b73d 200c 11be 62b0 3fbe e1f5 56ba
00000290: 77dc 85bb 0b9d e33d e741 33bc eed5 53be
000002a0: c028 fabd f01c 183e 9680 2bbd ce78 19be
000002b0: 4b4a 51be 34b5 ba3d 654b 8b3b b7e3 e8bd
000002c0: f4e7 88bd dffd 8b3d 5335 1cbd 9c4f 83bd
000002d0: 3a6b 46bb c259 e43d 1ebf e6bd bbd2 2fbe
000002e0: 657b 9e3d 1fd6 b23d bccc b3bd 2a54 af3d
000002f0: f21e 08be 5652 f03d 498c 1bbe d610 15be
00000300: e629 07be f363 efbd 8efc 353e 967a e93d
00000310: d162 4cbe 80ea 61be 4b2f 34be 7c44 573e
00000320: f12d 063e d66f 33be 0fff 283e 5f2e 7abd
00000330: b4d2 55be ba56 1ebe c199 a6bd 181e aa3d
00000340: a602 053d e1e1 9bbe 2816 de3d ef00 e1bd
00000350: 14f7 c4ba d38c aebd 3777 543d 9d77 b7bd
00000360: e2ee 013e a598 25be 31dc ccbd 3176 bbbc
00000370: 881b db3c af80 a13c ac3e 0dbc a3fd edbd
00000380: cb29 18be 88fc 213f 443e 6dbf 1a7f 0f3e
00000390: f665 9ebf 2b0e 10bf de78 24be ffa1 66be
000003a0: 91a1 9dbd 32e9 29be b344 34bf 4e10 aabf
000003b0: 1926 d6bf b1ff cebf 2ea7 213e 8bbc 833f
000003c0: cb19 8dbf 9a33 5e3f 0ad2 7b3f e873 27be
000003d0: fc98 3c3c 93fc d7bf 7cee 06bf 6d8b d6bd
000003e0: c3bb b5bf aec0 863e 731d 44bf 37b1 d0bf
000003f0: 5e1b 46be aa8f 3fbf 2b60 4dbe da9c 443f
0.12033148 -0.19449005 0.0047242614 -0.0015565463 -0.18865812 -0.16962555 0.07408135 -0.13404894
-0.06351292 -0.07057387 0.01649575 0.06393308 0.11006285 0.015769623 -0.015300001 -0.018756948
-0.03551753 -0.04502771 -0.11887436 -0.17325526 0.013682917 0.1281721 -0.10846369 0.077951774
-0.116807975 0.08979629 0.089531966 0.038216572 0.078311816 0.13075629 0.030636312 0.0122720245
-0.034955036 -0.10177284 -0.09252757 0.08718594 -0.014376522 -0.15996231 -0.021059304 -0.055813618
-0.0022258805 -0.15665722 -0.12479903 0.063851565 0.17609385 0.14259572 -0.10314078 0.1314776
0.14389151 -0.036312714 0.046094343 0.16780095 -0.06190721 0.025495302 -0.015638294 0.0751614
-0.14205207 0.030015046 -0.1196058 -0.06062704 0.105796784 0.07834749 -0.14697078 -0.029098395
0.14133602 -0.18223974 0.13776296 -0.08744946 -0.11134639 -0.1536179 0.009713563 0.32663962
0.17963658 0.07193703 -0.028209206 -0.07465336 -0.29391086 -0.018143423 -0.025132144 0.07335562
-0.01920578 -0.3010301 0.25886312 0.14610654 0.13044745 -0.43249875 0.13138397 0.10544065
-0.17514116 -0.2451705 -0.02215213 -0.06351212 0.03430809 -0.11804941 0.08210574 -0.083290584
0.023179207 0.027859602 -0.010379781 0.119413376 -0.026893888 0.09741059 0.009389833 -0.16123481
-0.00019918519 0.021201082 -0.05028138 -0.1266758 0.041983932 -0.1600855 -0.107063174 -0.12055593
-0.07233191 0.043231882 0.08058892 -0.15304407 0.123881035 0.1311453 -0.09412672 -0.081230335
-0.17761333 0.061551865 -0.21211053 -0.12329306 -0.16208988 0.05689195 0.14661364 -0.086829744
-0.06717655 0.52986926 0.76156867 0.11460864 0.76759017 0.38917118 -0.03716334 -0.12301112
0.10012346 0.6835701 0.6561591 1.2704308 0.43383175 0.3498818 -0.12225112 -0.5763431
0.5577735 0.20308135 -0.35248423 0.29512203 -0.0009366405 0.80738765 0.1582003 0.147921
0.59220344 0.3461929 0.5006731 0.47126526 0.21041061 0.48519415 0.027931072 0.076943696
0.089778475 -0.14164782 -0.18719628 -0.0008200091 -0.0040851193 0.11113938 -0.010941005 -0.20687076
-0.12214804 0.14854789 -0.041870676 -0.1498749 -0.20438497 0.09116593 0.004250931 -0.11371558
-0.066848665 0.068355314 -0.03813679 -0.06411669 -0.0030276314 0.111499324 -0.112669215 -0.17170231
0.077383794 0.087322466 -0.08779284 0.08560975 -0.13293055 0.11734454 -0.15190233 -0.14557204
-0.13199577 -0.11688986 0.17772123 0.114003345 -0.1995957 -0.22062111 -0.17596166 0.21022218
0.13103463 -0.17523131 0.16503547 -0.06107938 -0.20881158 -0.15462771 -0.08134795 0.08306521
0.03247323 -0.3044577 0.1084407 -0.10986506 -0.0015027248 -0.08522954 0.051871505 -0.08958361
0.12688783 -0.1617151 -0.10002936 -0.022883506 0.026746526 0.019714681 -0.008620899 -0.11620643
-0.14859693 0.6327596 -0.92673135 0.14013329 -1.2374866 -0.5627162 -0.16061732 -0.22522734
-0.07696832 -0.16592863 -0.70417327 -1.3286226 -1.6730376 -1.6171781 0.1578643 1.0291914
-1.1023496 0.8679749 0.9836737 -0.16352808 0.011511084 -1.6873955 -0.5270765 -0.10475812
-1.4197925 0.26318878 -0.76607436 -1.6304082 -0.19346377 -0.7482859 -0.20056216 0.76801836

short_term_context_network.fc2.bias f4 [16]
00000000: 1a06 bcbd 870d 21be eafe ae3d cb57 c83d
00000010: 7cf2 ce3e 16c2 77bc c205 ac3d 5f20 d5bd
00000020: e903 653e aeef 283e dd81 693e 1332 c83e
00000030: c9dc b43d 91e6 b83e 4826 3b3d 3826 f03d
-0.09180851 -0.15727817 0.08544715 0.0978237 0.40419376 -0.015121957 0.08399536 -0.10406565
0.22364773 0.1649768 0.22803445 0.39100704 0.08831174 0.36113408 0.045690805 0.1172604

short_term_context_network.fc3.weight f4 [1, 16]
00000000: ffeb 64be 1a13 6f3e e943 69be a0b5 0abe
00000010: ecdd 053f d567 ecbd b71f 94be eee1 83bf
00000020: dc6d 49c0 609d 90be a1c4 4d3f 918f 0b3f
00000030: d5cb 75bd 690f 643f 6883 28be b13d 513e
-0.2235565 0.2334713 -0.22779812 -0.13545847 0.5229175 -0.11543242 -0.28930447 -1.0303323
-3.1473303 -0.28245068 0.80378157 0.5451594 -0.060008842 0.89086014 -0.16456378 0.2043369
