Uni_Research/IRL/Final/Extended/Testing_Suite/model_SC_C0_R1000_S10.0.pth (torch, 91340 bytes, 11 tensors)

main_network.lstm.weight_ih_l0 f4 [256, 15]
00000000: 00d9 c43d bfd7 f6bd 35d7 933d fa76 aabd
00000010: 23fe 9c3d f3a4 fcbb 05d3 4a3d 9dbd 813d
00000020: bc78 c4bc 488e 81bd d050 393c fdf0 37bb
00000030: 1572 9abd 92da 58bd be30 5bbd 003f 583d
00000040: 591e b8bd 0ee1 cfbc 14c5 d2bd 128c 21bd
00000050: 268e 373d d807 ba3d 3ee6 613d a0e7 09bd
00000060: 6dae 32bd ae7a 99bb 7cd0 80bd b0c1 f73d
00000070: df1e 72bc b480 d4bc 7e90 20bd c909 1b3d
00000080: bf5c 123d 3a67 e5bc 278d 65bd b48b b83d
00000090: 6831 b83c 76d4 b0bd 6d80 8d3d 1a7e 373d
000000a0: 8be9 76bd ae36 d33c 44ca e43c 425d c2bd
000000b0: 3d3a 1cbd 8813 cfbd 85b1 b1bd 1bc3 5fbd
000000c0: 58fb 7f3d 6278 bfbb b5ca 21bd 90cd 57bd
000000d0: 675e 393b a496 4fbd e6c6 e53d de41 f6bc
000000e0: 5792 e1bd b200 c53d 50eb f43c 0631 23bd
000000f0: 81f3 83bb e9e1 913d aea7 9fbd 852c a9bc
00000100: 9f02 7ebb 455d b8bd d97c 90bd 26fb f1bd
00000110: 8c0d c6bd 9351 ad3d 08cc 943d aa5a 55bd
00000120: b42d 533d 83b1 0d3c 424b 973d ad66 4fbc
00000130: ee4c 013e b8d9 a03c 1992 b43c c09f 713d
00000140: 721c ed3d 5575 e83d d669 90bd ece9 bcbd
00000150: cd58 a1bc edad d93d 2b20 8fbd 3a60 c3bd
00000160: ea86 9e3d 5284 f9bd 462d 02be 4e79 6abd
00000170: eafb a039 dc8d b0bd 1e63 533d e00b c3bd
00000180: 3e76 81bc a56c bc3c 05a0 bfbd c284 c8bd
00000190: 87cf e8bd 269b 9cbd d080 e1bd 405d 8b3d
000001a0: 6428 6a3d 6c77 e8bd 2108 a1bc 34c5 b7bd
000001b0: 402e 34bc 52c3 8c3d e902 aabd 2a3c ab3d
000001c0: c747 6cbd 080e 243d cf14 3f3c b023 2f3d
000001d0: dffd 18bc fe71 2a3d 4ef6 3b3d 9cd7 bdbd
000001e0: 1b21 c53d e0e2 e23d b78a 6abd 4da3 a33d
000001f0: de57 ba3c 5089 a0bd f834 c2bd b062 3c3b
00000200: 83d6 27bd 9b3f 333d 4d65 913d d5b6 a7bd
00000210: d2f2 8f3d 25bd 5dbd 1c97 d5bc 3e62 043d
00000220: c00e 6abd c2c0 e5bd 7b78 b03d 17c6 d83b
00000230: f0b0 b03d d347 a7bd f19f 333c 04b2 3b3d
00000240: ed77 c73c 0d5b db3d 9f17 f23d 3732 acbd
00000250: aee7 f83d fbb6 9dbc 7d39 713a 3773 4dbd
00000260: 19d7 d83d 7e74 f3bd 141a 7bbc 6c92 fb3b
00000270: 5e9e d6bd 12be 68bc 3910 74bc 5c85 183d
00000280: d4bd fbbd 4228 83bd b054 29bd 2e9e df3c
00000290: 6f1f e5bc c01b 74bc 32c8 05bd 120b cfbc
000002a0: 6f34 c5bd 6e62 b23d 3b45 8dbd d75c 233d
000002b0: c293 9b3c 9ce6 debc a211 813d 3f0f e1bd
000002c0: 8a33 8ebd 3584 663d ff9a cebd 26b8 d7bd
000002d0: 0b7f ed3d d795 823d 02d1 b43d b474 573d
000002e0: c8a6 683d d559 07bd f995 a63d 0e99 c8bd
000002f0: af36 953d 0e88 853b 5b21 59bd ab2e 9bbd
00000300: f38c 6cbd 2873 e63d 9ce5 afbd 96da a4bd
00000310: 63df c83c e8c0 9fbd 86f8 b2bd 6abd 80bd
00000320: 7ab4 b9bd 9f11 163d 80b5 b03d a10b 04bc
00000330: ce66 663c 5c8d a9bc 542e 4c3d 4145 6f3d
00000340: add8 f43c 62e6 febd 8d06 6cbd 1716 b6bd
00000350: 4312 f73d 2b5f ebbd 2bb7 f33c 444f 033b
00000360: 4f7c dc3d e255 f8bd bb25 5b3d 03d1 8a3d
00000370: 7ad4 cabc 3add cebd 9861 fdbc 4eea 953d
00000380: ba54 d9bd 1d0b adbd 0e50 b63d 019f bb3c
00000390: b7da f6bb 6807 453d 27ac a0bd 3b48 de3d
000003a0: bb54 8abd 94a9 4bbd ebe8 a4bd 0169 81bd
000003b0: 81bd 9dbc a7bb bcbd 32eb e03d 247e 3fbd
000003c0: b27d b9bc 2599 e2bd 2ca2 bbbd 14e4 c13a
000003d0: c3ab fcbd bb8f c9bd 3dbb bbbd 9a48 853d
000003e0: 3226 ccbc 9055 b4bd 72d3 f1bd ce20 a93c
000003f0: 9086 313c 9ef3 14bd cd4f c83d e082 eb3c
0.09611702 -0.12052869 0.07218782 -0.08323474 0.0766566 -0.007710093 0.04951765 0.06334994
-0.023983352 -0.06325966 0.011310771 -0.0028067224 -0.07541291 -0.05294282 -0.05351328 0.052794456
-0.08990163 -0.02537587 -0.10291496 -0.039440222 0.044813298 0.09083527 0.055151217 -0.03366816
-0.043623377 -0.004683814 -0.06289765 0.1209749 -0.014777868 -0.025940277 -0.0392003 0.03785113
0.03573298 -0.028003324 -0.056042816 0.09011021 0.022484496 -0.08634274 0.06909261 0.044797994
-0.060281318 0.02578291 0.027928479 -0.09490444 -0.038141478 -0.10111147 -0.08676437 -0.054629426
0.06249556 -0.005843208 -0.039499957 -0.052686274 0.0028285028 -0.05068077 0.112195775 -0.030060705
-0.1101424 0.09619273 0.029897362 -0.039841674 -0.0040268307 0.07123167 -0.07795654 -0.020651111
-0.0038758887 -0.09002165 -0.07055063 -0.11815481 -0.096705526 0.08462825 0.072654784 -0.052088417
0.051557258 0.008648279 0.07387401 -0.012658757 0.12627003 0.019635066 0.022042321 0.05899024
0.11577691 0.11350504 -0.070514366 -0.092243046 -0.019695664 0.10628877 -0.069885574 -0.09539838
0.077405766 -0.12183441 -0.12712583 -0.05724459 0.0003070527 -0.086208075 0.051608197 -0.09523749
-0.015803453 0.023001024 -0.09356693 -0.097909465 -0.11367708 -0.0764678 -0.11010897 0.068048954
0.057167426 -0.11350903 -0.019657196 -0.089731604 -0.010997355 0.06873192 -0.08301336 0.08361085
-0.05768564 0.040052444 0.011662676 0.042758644 -0.009337871 0.041612618 0.04588919 -0.0926964
0.09625455 0.11078429 -0.057261195 0.079901315 0.022746976 -0.0783869 -0.09482759 0.0028745346
-0.04097606 0.04376183 0.070994 -0.08189169 0.07028736 -0.05413546 -0.026073031 0.032320254
-0.057142973 -0.11218406 0.0861673 0.006615411 0.08627498 -0.08167996 0.010963426 0.045824066
0.024349177 0.10710726 0.118209116 -0.08408015 0.121535644 -0.019252291 0.0009201987 -0.050158706
0.105879016 -0.118874535 -0.015326042 0.007677367 -0.10479425 -0.014205473 -0.014896446 0.037236556
-0.12292066 -0.06404163 -0.04134053 0.027297106 -0.02796909 -0.014899194 -0.032661624 -0.025273833
-0.096291415 0.0871018 -0.0689797 0.03988346 0.018991355 -0.027209572 0.06302191 -0.10989236
-0.06943424 0.056278426 -0.10088157 -0.105331704 0.11596497 0.06376236 0.088289276 0.05260153
0.05679968 -0.033044655 0.08134074 -0.09794818 0.07285821 0.004075057 -0.053010326 -0.075772606
-0.057751607 0.11252433 -0.085887164 -0.080495045 0.024520582 -0.07800466 -0.08738808 -0.06286128
-0.09067626 0.0366379 0.086283684 -0.008059413 0.0140625965 -0.020697288 0.04984887 0.058415655
0.029888475 -0.12446286 -0.057623435 -0.08890932 0.1206403 -0.11492761 0.029750427 0.002003626
0.107658975 -0.12125756 0.05350278 0.06778147 -0.02475952 -0.10100789 -0.030930325 0.07320081
-0.106118634 -0.08449385 0.08901988 0.022902967 -0.007533397 0.048102766 -0.078453355 0.108536206
-0.06754442 -0.04972227 -0.08052238 -0.06318856 -0.019255402 -0.09215479 0.1098236 -0.046751156
-0.022642944 -0.11064366 -0.09161791 0.0014792704 -0.123374484 -0.098418675 -0.09166572 0.06507988
-0.024920557 -0.08805382 -0.11807908 0.020645525 0.010835305 -0.036365144 0.09780846 0.02874893

main_network.lstm.weight_hh_l0 f4 [256, 64]
00000000: a14c bc3c 32b3 47bd d81f 47bd 5fe9 b83d
00000010: a7aa af39 4300 8c3d 0515 bbbd a86d 463d
00000020: db9d a03d 349f 70bd 3f73 a2b9 384b 0ebd
00000030: 8aa2 0aba 17b0 bd3c b398 c8bd f186 b3bd
00000040: 80bf 29bd 82ac 87bc ddc1 a43d cbd7 4e3d
00000050: 69f9 a2bd 9e9f f03c a4cb 943d ac09 c83d
00000060: a962 27bd 13f6 dd3d 9a54 e23d e169 5fbd
00000070: 5f77 e73c 3723 aa3d 8859 f73c 91a3 873d
00000080: 9e34 8dbc e2b7 b5bc 3aa1 a6bd 7421 863d
00000090: d6ac db3d fa43 87bd d77d cc3c 4a2c 8fbd
000000a0: 7ace 4bbd 206c 8b3d 34b8 1abc 4daa d8bd
000000b0: ed70 79bd 2b14 e7bd 9e9c b83d 6c06 e6bc
000000c0: 321b f83d 0dc6 dbbd 1ef0 1fbd c30b 733d
000000d0: 2885 a6bd de7e dabc 3084 d9bd c5cb c33d
000000e0: 8b60 b23d 4d10 623c 6d00 ee3d debc a8bd
000000f0: 0668 4d3c 333c 053e 4b35 593d 00bc 5a3d
00000100: 468e 79bc 0899 ccbd ac4c cebd 713f 58bd
00000110: da27 88bd 3140 25bd 583e e03d ce82 cd3d
00000120: 9d50 af3d 07d3 b5bd a57e fb3d ea87 9b3d
00000130: d9d4 ecbd c28f 533d 6886 f33c dbe9 643d
00000140: 1c1d 82bd 2c86 573d 1010 a9bc 89cf 893d
00000150: a8ef db3c e1b3 3e3b af20 c13c 42a3 afbd
00000160: 1180 06be cc93 99bd 7471 41ba f3b2 e3bd
00000170: ecfc 1f3d 96a0 02be 9f50 f6bd 6ba7 fcbc
00000180: bc8a f03c 7ebf f4ba 5bfe bbbd 23d7 693d
00000190: 59ec b83d 6662 b8bd db9d 8d3d 7ca9 973d
000001a0: 8b59 033d 0199 623d 5158 dbbd 4084 993d
000001b0: e025 6fbc 3abc c0bd 323d c93d 151c 9c3a
000001c0: 427e 9a3c b7f6 e4bd 9de8 f4bd 601c d1bc
000001d0: 11f6 d23d 0c17 b3bd 69ed b73d 8ebd c8bb
000001e0: d2ed 2dbd f791 a5bd c505 86bd dc22 aabd
000001f0: 18ff 95bd 8e92 86bd d240 cb3c 7be4 c8bd
00000200: d699 7a3d 74aa d5bd 7442 cabd 9541 ed3b
00000210: aa7a 943d c880 603d e102 97bb ef4e c63d
00000220: b5fa 77bd e695 083d b8bb 36bd d08d 84bd
00000230: 4a1e 9dbd d2b7 af3d 5fd7 90bd 08a9 6dbd
00000240: 0fba c1bd e755 c23d 7423 82bb 3e31 dd3d
00000250: 8ba4 b1bd 4418 94bc 63eb fabd 048b 433d
00000260: 4f6b e5bd c386 213d 9c3f e0bd 38c4 293d
00000270: 4949 f0bd 3858 0e3d 118d aabd 21dd b5bd
00000280: 982b f9bd 37b2 e1bd 01ca 833d 92ba a13d
00000290: d1c5 e4bd 8a07 8abd 5432 b63d 0420 ab3d
000002a0: d53c 30bc f84c 9b3d dd63 78bd b292 c23c
000002b0: 5221 8a3d b863 bf3d 7487 6e3c 8523 88bc
000002c0: 6b71 bfbc 61ce c5bd 5d31 f93c 4970 b73d
000002d0: 352b 313d 4cb3 8cbd f863 c2bd 62fd bebd
000002e0: 0dfb 20bc 9315 e5bd 5bf7 e23d c350 d8bc
000002f0: 6d5c 13bd fc45 af3d 6bd4 22bd 676e 37bd
00000300: 2fe7 2a3c 8d65 a93d 80ba 53bd cae3 f8bd
00000310: 55bf b93d 03de 523d 2857 a33d 99d3 ff3d
00000320: 6237 b8bc 61b3 afba c319 513d b744 fe3d
00000330: 6aed 8e3d 943a aa3d aa09 3fbd 6b45 01bd
00000340: 21d4 c3bc 5956 8fbd 48d3 c73d f500 063d
00000350: 1606 3abd 295c 693c 1a4b 1cbd b83d 1abd
00000360: 3b65 38bd fd6a e73d 42bf 9cbd d13f 003e
00000370: e333 6c3d 4f9c a5bc da00 8a3d c0f6 003d
00000380: 0f0c 033d 7d9e f53b 10d9 263d f4bf 0a3d
00000390: e51d 973d 6644 553d 7cbf 1fbd d543 d7bd
000003a0: b2dd d5bc fc27 53bd 8fc9 97bd 2476 96bd
000003b0: dd7c 183d f7d6 4d3d b223 153d 3693 8a3d
000003c0: d95f b9bc 34cf 983d abed 823d 0903 593d
000003d0: 96dd 09b8 433a bebd 0db4 99bd 83b9 3bbd
000003e0: a0b2 a73c 42dd 733d dd39 9bbc a5ab b03d
000003f0: e6cd 86bc 365c afbd 6b14 4fbd c4ad 8fbd
0.022985758 -0.04875488 -0.048614353 0.09028887 0.00033505747 0.068359874 -0.091348685 0.04844442
0.078426085 -0.058745578 -0.00030984913 -0.034739703 -0.00052885024 0.023155255 -0.0979475 -0.087659724
-0.041442394 -0.01656175 0.08044789 0.050498765 -0.079577275 0.029372986 0.07265404 0.0976747
-0.040865574 0.108379506 0.11051293 -0.054544333 0.028255163 0.08307498 0.030194059 0.06622995
-0.017237004 -0.022182409 -0.0813622 0.065493494 0.10726325 -0.066047624 0.024962349 -0.06990869
-0.04975746 0.068077326 -0.0094433315 -0.10579357 -0.06089871 -0.112831436 0.09014247 -0.028079234
0.12114562 -0.107311346 -0.039047353 0.05933739 -0.08130866 -0.026671823 -0.10620916 0.0956035
0.0870982 0.013797832 0.11621175 -0.082391486 0.012537008 0.13011245 0.05302934 0.053401947
-0.015231675 -0.09990126 -0.10073218 -0.052794877 -0.06648226 -0.04034442 0.10949391 0.10034715
0.08560298 -0.08878141 0.12280015 0.07594283 -0.11564035 0.05165077 0.029727176 0.055887084
-0.063532084 0.05261819 -0.020637542 0.06729037 0.026847675 0.0029098915 0.023575155 -0.08576061
-0.13134791 -0.07498893 -0.00073792716 -0.11118116 0.039059564 -0.12756571 -0.12027096 -0.03084155
0.029363029 -0.0018672792 -0.09179374 0.057089936 0.09029455 -0.09003143 0.06914874 0.074053735
0.032067817 0.055321697 -0.107102044 0.07495928 -0.014596432 -0.09410901 0.09826125 0.0011910225
0.018859033 -0.111798696 -0.1195843 -0.025526226 0.1030084 -0.0874463 0.08980829 -0.0061261123
-0.04246313 -0.08084481 -0.06544069 -0.0830743 -0.07324046 -0.06570922 0.024811182 -0.09809204
0.061181866 -0.10432902 -0.09875956 0.007240484 0.07249959 0.054810315 -0.0046084975 0.09683024
-0.060541827 0.03334608 -0.044612616 -0.06472361 -0.07671793 0.08579983 -0.07072329 -0.05802253
-0.09459316 0.09489041 -0.0039715115 0.10800408 -0.08673962 -0.018077977 -0.12251928 0.047739998
-0.11202108 0.03943516 -0.109496325 0.041446894 -0.11732728 0.0347521 -0.083276875 -0.088800676
-0.12166518 -0.1102032 0.064350136 0.078969136 -0.11170543 -0.06739719 0.08896318 0.08355716
-0.010756691 0.0758304 -0.060642112 0.02375159 0.067446366 0.09345192 0.014558662 -0.0166185
-0.023369512 -0.09658504 0.030419046 0.089569636 0.043254096 -0.06870136 -0.09491724 -0.09325673
-0.00982548 -0.111857556 0.110823356 -0.026405698 -0.035976816 0.0855827 -0.03975336 -0.044783022
0.010431095 0.082713224 -0.051691532 -0.12152822 0.09069697 0.051481258 0.07975608 0.12491531
-0.022487346 -0.00134049 0.05104996 0.1241545 0.06978877 0.08311954 -0.046640076 -0.031560343
-0.023904862 -0.069988914 0.097570956 0.032715756 -0.04541596 0.014243164 -0.03815756 -0.037656516
-0.045018416 0.11299703 -0.07653667 0.12524344 0.05766667 -0.020216135 0.06738444 0.03148532
0.03199392 0.0074957 0.04073435 0.033874467 0.07378749 0.052067183 -0.039000973 -0.10510985
-0.02610669 -0.051551804 -0.07411491 -0.07346752 0.037228454 0.050253835 0.036410995 0.067663595
-0.022628712 0.07461396 0.06392988 0.05298141 -3.2869713e-05 -0.09288456 -0.07505045 -0.045831215
0.020470917 0.05953718 -0.01894849 0.086264886 -0.016455602 -0.0856251 -0.05055658 -0.07015565

main_network.lstm.bias_ih_l0 f4 [256]
00000000: ec18 c03d cbdb 213d 3c04 bbbd c818 37bd
00000010: 488e 89bd 1ece a1bd 37ed 2cbc c60a 763d
00000020: 548f d53d d22d 90bb 13f1 d6bd d61e bdbd
00000030: 9623 c93d 3af5 e53d 9836 86bc c5c1 8fbc
00000040: fd2e aebc 1d70 c03d 274a 423d c1b3 643c
00000050: 7e39 eebd 28bd 5c3d 3843 e33d d153 75bd
00000060: d31f f4bd f4eb 3c3c a137 46bb 20b2 71ba
00000070: 1493 d7bd c1cd 323d aa23 e23c a9e4 c33c
00000080: 3938 cbbd 8afb 76bd 419a f0bd 7e92 f53b
00000090: 8e95 52bb 1e95 d83d 3533 ef3c 3f9b ccbd
000000a0: d258 8dbd 703a adbd ef76 8bbd 1ad7 f23d
000000b0: d3fb 3fbd a476 f4bc f084 763c db13 a9bd
000000c0: bfe6 01be cc1d ab3c 470e 7a3d f0db 2b3d
000000d0: ca07 cabd 42d1 a5bc b8f3 bcbd 340a 833b
000000e0: 5678 83bd 3737 b73d 1d81 8b3d edc6 9bbd
000000f0: 042f f2bd ddcc 07bc fff7 b23d 3452 123d
00000100: b106 713d 8c59 c7bb 196e d43d 1d95 0f3d
00000110: c5b0 cfbd 4bcb dabd 64c4 c0bd a78b ca3d
00000120: 8405 f7bd 4529 9d3c aea5 9fbd 039c 3dbc
00000130: 6a8b 69bd b383 933d 93c7 623c 5798 fabc
00000140: fd01 98bd fa79 24bd a4e3 c6bd 4583 9d3d
00000150: e3d9 a5bd 43ed b6ba 4812 8ebc bfe3 8e3d
00000160: 4bb1 41bd 955a f33c 1254 0e3c 26bd 523c
00000170: 9e5c ed3c 9978 f03d 2479 253d ace7 953d
00000180: fcb2 4dbc e6c6 22bc 3649 53bd 164e b0bd
00000190: bb44 bdbd 533e 8a3d 57dc dfbc ee87 8e3c
000001a0: dc31 d43d 9a48 913c c97d 943d 0cb6 0e3d
000001b0: 1a50 163d ed61 69bd e84f c9bd 5b78 a83c
000001c0: 56ac 92bd 72b6 45bc a7c4 843d 4cb7 bbbd
000001d0: cba6 153d df66 e33d 033e e8bd 64fd a93d
000001e0: 81d7 9b3d 3fe9 303d a868 883d d261 d93c
000001f0: f900 b93c 86d3 eb3d 890d 92bd 3aeb 55bb
00000200: f1dc 283c 6200 33bd 247e e43c 6c80 a1bd
00000210: a900 47bd 689f ba3d 9161 4abd 20fa dabc
00000220: 007f a33d bb96 db3d 787e b8bd 37b3 273d
00000230: 9b2f bc3d 2100 b9bd c2f5 f6bb 26cb fcbd
00000240: cca7 ec3d 52d1 bdbd 5bc7 eebd ce66 89bd
00000250: ba43 6dbd 380d 053d f3ff c03d 44cb d53d
00000260: 8ca4 eb3d 751c c83d 987b 9a3d 4380 903d
00000270: e8bb 8bbc d73a c6bd f876 5a3d 4b3d 12bd
00000280: fc9e f0bc 2338 72bd 41c1 1bbc e006 bebd
00000290: c143 0aba 0289 e13d 7979 bd3d facf 873d
000002a0: 5b2f 51bd 04e8 8abd 1682 91bd 6606 99bd
000002b0: b768 9f3d b30d febd 2f2b 703d 30a6 95bd
000002c0: c21f acbd c2b6 963d e2ae 403d 4a0b 973b
000002d0: 4abd 293c 29fd 6fbd eb0a 863c e967 f23d
000002e0: a62f adbc 4fcf d83d 0cab 46bd c007 643c
000002f0: 2e17 e8bb 1d77 273c 0fb5 d73d 3ec3 88bc
00000300: a22d e33d ea3b fabc 3fc7 96bc 5f21 d3bd
00000310: c12d 81bd 9b84 bfbc 8b36 f5bd 76d7 e6bd
00000320: 82c2 72bd bb33 14bc bc6d c6bc 2094 da3d
00000330: 37c7 563d 1d75 b8bd 78ea e9bd d69c 5b3d
00000340: 7da8 0f3d 8e9e fd3d 3d2a 913d 3996 06bd
00000350: 43b5 6f3d 3c88 a33d 8fc2 a2bd 22a9 8b3d
00000360: 2f5d c03d 3110 6c3d ea69 d73c 3f60 01ba
00000370: 6fa0 85bd 84bf bfbd 9993 f6bd 29fe c8bd
00000380: 33cc c4bd d7a3 ddbc 3ec8 12bc bba2 123d
00000390: 336a 26bd ee82 e6bc 76b1 a8bc 3139 d9bd
000003a0: 4bd4 513d a95b 2d3d fffd 3abd b07b 433d
000003b0: 6a0f 14bd 43c3 f73d 8bf1 3ebd 7510 d93c
000003c0: cf1d e7ba 8c0b 423d 5427 a13c 486f e53d
000003d0: 088f 36bd b81d cbbd 8b0c bebd 54b1 e1bd
000003e0: 6c37 c2bd e22f 35bd c819 91bd 1699 91bd
000003f0: 83c3 d23d cb95 cebd ffde 06be 8fa4 f33d
0.093797535 0.03951625 -0.09131667 -0.044701368 -0.06716591 -0.07900642 -0.010554603 0.060068868
0.10427728 -0.0043999935 -0.104952 -0.09234397 0.098212406 0.11228414 -0.016383454 -0.017548451
-0.02126264 0.09396384 0.047434 0.013958872 -0.116320595 0.05389133 0.11096805 -0.059894387
-0.119201325 0.011530865 -0.003024556 -0.0009219963 -0.105261 0.043653253 0.027604897 0.023912745
-0.09922833 -0.06029848 -0.117481716 0.00749427 -0.0032132599 0.10575317 0.029199222 -0.09990548
-0.06901707 -0.08458412 -0.06809794 0.118574336 -0.046871018 -0.029841729 0.015046343 -0.0825574
-0.12685679 0.020888232 0.061048772 0.041957796 -0.09864767 -0.020241383 -0.09226173 0.003999019
-0.06419437 0.08946078 0.06811736 -0.076063015 -0.11825374 -0.008288589 0.08738708 0.035722926
0.058844272 -0.006083673 0.10372562 0.035054315 -0.10141138 -0.10683306 -0.094124585 0.09889918
-0.12061599 0.019184718 -0.07795273 -0.011572841 -0.05701772 0.07202854 0.0138415275 -0.03059022
-0.07422254 -0.04015539 -0.09711388 0.07691053 -0.08098199 -0.0013956208 -0.017342702 0.06977033
-0.04728822 0.029706279 0.008687036 0.012862479 0.028974827 0.11741752 0.04039873 0.073195785
-0.01255488 -0.009935116 -0.05158349 -0.08608644 -0.09241625 0.06750169 -0.027326746 0.0173988
0.103610724 0.017734814 0.07250554 0.034841582 0.036697485 -0.056978155 -0.09829694 0.020565202
-0.07161777 -0.012067424 0.06482821 -0.091658205 0.03653602 0.111036055 -0.11339953 0.083002836
0.076094635 0.04319119 0.066605866 0.026535902 0.022583472 0.11514954 -0.07131488 -0.0032641427
0.010306583 -0.043701537 0.02789218 -0.07885823 -0.048584614 0.091124356 -0.049409453 -0.026730597
0.07983208 0.10722109 -0.09008497 0.040942397 0.091887675 -0.09033228 -0.007536621 -0.12343435
0.11555442 -0.0926844 -0.11659118 -0.067090616 -0.057925917 0.03248331 0.094238184 0.104391605
0.11505994 0.09771053 0.07543105 0.07055714 -0.017057374 -0.096791916 0.053336114 -0.035702985
-0.029372685 -0.059135567 -0.009506525 -0.09278655 -0.00052743783 0.1101246 0.09251685 0.06631465
-0.051070552 -0.06782535 -0.0710489 -0.074719235 0.07783645 -0.12404957 0.058634933 -0.073070884
-0.08404495 0.07359077 0.04704178 0.0046095 0.010360071 -0.05859104 0.016362628 0.118362255
-0.021140885 0.10586416 -0.048502967 0.013917863 -0.0070828414 0.01022127 0.10532581 -0.016694661
0.11092688 -0.030546147 -0.018405555 -0.103090994 -0.06307555 -0.02337866 -0.11973294 -0.11271565
-0.05926753 -0.009045537 -0.024222247 0.10672784 0.05243608 -0.090067126 -0.114216745 0.053616367
0.035072792 0.123837575 0.070881344 -0.032858107 0.058522474 0.07984969 -0.07947265 0.06819369
0.09392773 0.05763263 0.026295621 -0.0004935301 -0.06524741 -0.093627006 -0.12039871 -0.09814102
-0.096092604 -0.027055664 -0.008958874 0.035799723 -0.040628623 -0.028138604 -0.020592432 -0.106066115
0.05122785 0.042323742 -0.045652386 0.04772538 -0.036147512 0.1209779 -0.046617072 0.026497105
-0.0017632785 0.047374293 0.019672073 0.11202866 -0.04457 -0.09917778 -0.09279736 -0.11020151
-0.09483227 -0.044235118 -0.070849955 -0.07109277 0.10291197 -0.100871645 -0.13171004 0.118966214

main_network.lstm.bias_hh_l0 f4 [256]
00000000: de02 9bbd 9c7a 983b 06c0 c13d c9b1 8fbd
00000010: 24d6 9dbd bc02 a5bd 375c e93d 978f 49bc
00000020: e442 f4bc 350c 4ebd eb4f b8bd 09ed 3c3d
00000030: 1a90 9f3d cabe 4d3d c076 b3bd 73f7 d9bd
00000040: 30ab a0bd b7da 86bd 83ea 3c3d 42b1 43bc
00000050: c613 c43d ec4a 5c3d c7b2 8abc d5e1 b33c
00000060: 26c1 773d e2c0 9c3d e516 31bd c471 d73c
00000070: e857 c33d 3e2f 62bd eefb 96bd bfe4 3abd
00000080: 8211 fa3b 4dcc 5b3c 725c fcbc 6a9b d03d
00000090: 41b2 88bd 8a19 b43d cb36 2bbd a3b7 17bc
000000a0: 28c9 e83d da00 f1bd dec1 7dbd b639 c9bd
000000b0: 7742 21bd 6cdf e8bd 47ef d2bd 8350 cbbd
000000c0: 4da4 c1bd 0886 57bc cf42 823d 9807 d1bd
000000d0: a4fd a23b 5ecd cb3c 3ca7 b5bd 5d2f 4cbd
000000e0: 0088 773d 6fe5 5e3d c537 933b 3e92 83bc
000000f0: c91d 57bd e76c f93c 5b73 c33d 4d5a f73d
00000100: aa3a 683d 1456 9cbd dbd1 cf3d 98d6 f13d
00000110: 6413 26bd 357f c13b 032f 3d3d 7dec 4abd
00000120: c867 e0bd 9f2b cf3d 6aec 98bc 53a2 f8bd
00000130: 6344 e7bc 0994 983d 8f8b cfbd 9818 873d
00000140: e43b 553a e232 7b3d 635c 2fbd 74c5 fe3c
00000150: 5138 a3bd 1ed2 713d 9c7c d13b 01a2 b93d
00000160: cbbe af3d d9be 04bb ef9e d63d adff c23c
00000170: 4695 be3d 1d1b 82bd 0069 d53b 05f2 3cbd
00000180: f259 8d3d 190d 85bd 0d43 a23c b62f 613d
00000190: 9bf7 d6bd 318c c9bd 77b9 f1bc 0ee2 2e3d
000001a0: 8e91 e8bd 54f2 6dbd cae8 c73c e9d4 e03d
000001b0: 952e 913c 95f9 7bbc 2c59 0ebd ac24 243d
000001c0: 948c de3d 7cc6 64bd eb31 cd3d 44e5 0e3d
000001d0: f0fd efbd f43c 36bd 6fd3 a33b 48a2 b6bd
000001e0: 3ece 4d3c 5afa 92bc bed9 df3d 5da9 ec3d
000001f0: 86fc bcbd e018 cb3d e647 b1bc 4a5e b8bd
00000200: 7ed0 bebd 4df8 cfbc f633 7bbd 4d36 e03c
00000210: 7dd2 f13c 171a 013d 658c e03d 5735 903d
00000220: 0809 ab3d e71a a43d 8c63 6f3d f999 aebd
00000230: 2120 e23d cfc9 debd feae c5bd 239d a13d
00000240: 86bf 82bd 9076 893d d159 60bc c58d e5bb
00000250: 3508 d23d 701b bab9 b954 d1bd fe7e fb3d
00000260: d3bb 5ebd c98f c9bd 326e babd b5bb 65bd
00000270: dccd e83d 1534 ea3d bc25 adbd 4b15 3fbd
00000280: 49f3 44bc 7752 b8bd a95d a5bd e009 003e
00000290: 7de2 eb3d 997f 803d 4533 c2bd 1dcf 14bd
000002a0: 8a82 3cba 4e56 f83d 3e7d cdbd 082a e33c
000002b0: 81f5 e53d fa3c 9fbd 5e3c bcbd bba2 eabc
000002c0: 4a4b 373c 14e7 c8bd c753 f2bd 5a9a 2a3d
000002d0: 2c54 dc3c 21d5 5abd 04ef bbbd d1ed 623c
000002e0: c291 ba3c b101 26bd 5c8c 3abd a425 3a3d
000002f0: 6d5a a93d eb27 bc3d bfe6 8ebd a616 92bc
00000300: be42 dc3d 3be6 aebd 0139 ad3c b90d e3bd
00000310: 4d5d e0bd 38a7 ccbd 8742 cfbd 9228 57bd
00000320: 9eb9 193d 365e 2b3d 6681 653d 2f6b 523d
00000330: e179 9dbc 2f8a f7bd 903a f53d 6c6b d73c
00000340: 30d8 a73d 1855 f93d e5e5 acbb dbb5 d6bd
00000350: 6808 abbd 5afb debd 14ff a53a 028f 32bd
00000360: 4f9c 26bd 97af d03c 001e 7c3d 5358 8c3d
00000370: 4469 2b3c f5ec 523d 036a 443d 4bc8 d4bd
00000380: 89cc dc3d 5b54 b9bb 353a ebbd 3f69 883d
00000390: c256 03be bb65 fb3c 0349 523c 169d 243c
000003a0: 1cc1 cebd 4250 7c3c 5a74 f3bd ba8a b53d
000003b0: ac88 cf3d fd24 e23d 25aa 4abc 1f35 29bb
000003c0: 2c82 ba3c 58ef a1bd d652 b8bd 84d8 e53d
000003d0: 300a f93c a0be 96bd 25ac 63bd 9ada 853d
000003e0: 9724 eabc 814b 15b9 702b e73d 9f47 59bd
000003f0: b187 9d3d d9d1 f93c bbca 15bd ad36 f8bd
-0.07568906 0.004653288 0.09460454 -0.07016332 -0.0770686 -0.08057162 0.11394542 -0.012302301
-0.029817052 -0.05030461 -0.08999618 0.04612449 0.07791157 0.05023078 -0.08762884 -0.106429
-0.078451514 -0.06584685 0.046122085 -0.011944117 0.09574084 0.05378239 -0.01693095 0.021958271
0.060486935 0.07653977 -0.043234725 0.026299365 0.09538251 -0.055220835 -0.073722705 -0.045628306
0.0076314816 0.013415408 -0.0308058 0.10185893 -0.06674624 0.08793934 -0.0418003 -0.009260091
0.113664925 -0.117677405 -0.061952464 -0.098254606 -0.039370026 -0.11370739 -0.10299545 -0.09927466
-0.09455166 -0.013154514 0.06360399 -0.102065265 0.004974084 0.0248782 -0.08869788 -0.049849857
0.060432434 0.054418024 0.004492732 -0.016060945 -0.05251864 0.030447436 0.09543487 0.120777704
0.05669657 -0.076336056 0.10147449 0.11808509 -0.040545836 0.005905057 0.046187412 -0.04954194
-0.10957295 0.10115742 -0.018667419 -0.12140336 -0.028230852 0.074501105 -0.101340406 0.06596488
0.00081342296 0.061327823 -0.042812716 0.031100012 -0.07969726 0.059038274 0.0063930284 0.09064103
0.08581313 -0.0020255356 0.10479533 0.023803556 0.093058154 -0.06352828 0.006512761 -0.046129245
0.06901921 -0.06496639 0.019807363 0.05497714 -0.10496446 -0.098411925 -0.029507382 0.04269605
-0.11355887 -0.05809243 0.024402995 0.109781094 0.017722407 -0.015379329 -0.03475301 0.040074036
0.10866657 -0.055853352 0.10019287 0.034886613 -0.117183566 -0.044491723 0.00499957 -0.089176714
0.012561379 -0.017941643 0.10930203 0.11555741 -0.092278525 0.09916854 -0.02164073 -0.09002359
-0.093171105 -0.025386954 -0.06132885 0.027369643 0.029519314 0.03151902 0.10964278 0.07041424
0.08351332 0.08012944 0.058444545 -0.08525462 0.11041284 -0.10878336 -0.09652518 0.078912996
-0.063841864 0.06712067 -0.013693289 -0.0070054256 0.102554716 -0.00035497127 -0.10221238 0.12280081
-0.054378342 -0.09841878 -0.09103049 -0.056087214 0.113673896 0.11435715 -0.08454463 -0.046651166
-0.012020894 -0.09000104 -0.08074505 0.12503767 0.115178086 0.06274337 -0.09482435 -0.03633033
-0.00071910827 0.12125836 -0.10033654 0.027730003 0.11228467 -0.07775302 -0.091912016 -0.028642049
0.011187384 -0.098097 -0.118323855 0.041651107 0.026895605 -0.05342591 -0.09176448 0.013850645
0.02277458 -0.040528957 -0.045544013 0.045446053 0.082692005 0.09187301 -0.06977605 -0.017833065
0.107549176 -0.08540007 0.021145346 -0.11086602 -0.10955296 -0.09992832 -0.10120111 -0.052528925
0.037530534 0.041837893 0.056031607 0.05137175 -0.019223155 -0.12086903 0.119740605 0.02629634
0.08195531 0.121744335 -0.005276429 -0.10483905 -0.08351213 -0.10887785 0.001266452 -0.043593414
-0.04067641 0.025474353 0.061552048 0.06852784 0.010462109 0.05149551 0.047952663 -0.10389765
0.107811995 -0.005655808 -0.114857115 0.06660699 -0.12826064 0.030688157 0.01283479 0.010047218
-0.100954264 0.015399994 -0.11887427 0.088643506 0.1013349 0.11042211 -0.012369667 -0.0025819016
0.022767149 -0.07906979 -0.09000175 0.11222938 0.030400366 -0.073605776 -0.05558409 0.065358356
-0.0285819 -0.00014237875 0.11287582 -0.05304682 0.07691897 0.030495571 -0.036570292 -0.121198036

main_network.fc.weight f4 [3, 64]
00000000: b608 573d 44c7 a73d f919 18bd 621e 603b
00000010: da9a ffbd 71b7 8cbd 49a9 db3d c558 003e
00000020: 5622 d3bd ad13 eebd 0935 7ebd 73d1 45bd
00000030: b0e7 54bd 6973 493d 53e5 cfbd 942d b33a
00000040: 4b7b e23d 4245 933d 6ae6 17bd d559 033d
00000050: da98 ad3d 4bfe 063e 03ff fbbc 9a3b 8c3d
00000060: 440f c4bc e6df 53bd b10d b23d 7eb7 26bd
00000070: d679 ce3d 4f7b 113c 446d c43c 7cc6 bebd
00000080: e5eb 77bc e95a e8bd 1d26 f5bd 0814 72bd
00000090: 20d5 be3b a68c ec3d 0e2b 853d 9a88 ac3d
000000a0: 676b c7bd 9ed4 50bb 3b07 dcbd f136 e1bd
000000b0: 1fd6 cd3d 0695 403d bb56 20bd 07bd ba3a
000000c0: 8b94 2a3d f273 333d 8b3b 2cbd 8cf8 c43d
000000d0: 0905 1d3d 68a7 f33d c548 643d 5e09 ddbd
000000e0: 198c 8cbc 6ef9 72bd 4468 77bc e1dd be3d
000000f0: 79a1 e6bc 167f 5bbc e4ee 42bd ef77 3dbd
00000100: 7b79 53bc ef41 2b3d 2254 a2bd 0e20 453d
00000110: 8f61 403d 0c47 d93d 3338 cabd 1a51 e8bd
00000120: 03e5 d4bd 5665 b6bc 6701 d03d 6799 f03d
00000130: 9a2b ec3d 88be 84bd 44a4 fb3d bfa6 0f3d
00000140: 14e6 123d 345a 5a3d d7a4 2f3b 99a3 183c
00000150: 488e 69bd 6c9e 6e3d 64fe d2bd 662d e23d
00000160: 32a0 a23d 818a 7dbd 0992 91bd ad93 e83d
00000170: 5a2a 11bc 0bc5 08bd 360a 963d 0c5c bcbd
00000180: 599f c9bd 6c00 d13d e428 ca3d 86a4 c03d
00000190: a6a9 9e38 9315 88bd 0fd6 5e3c fc75 323d
000001a0: d551 ed3c cb41 b9bd 3a95 ca3d 3dc1 e23d
000001b0: 3b13 443c 0dd9 1fbd 5db8 acbd 8d3e fd3d
000001c0: 9223 35bd 4947 d0bd f648 ffbd 6d8e aa3d
000001d0: 3c05 f03d cae6 cf3c a6e8 c9bc 99c2 b4bd
000001e0: 545e c53d 7591 2f3c 7201 ce3d a023 7b3d
000001f0: e41b c93d e94c df3d cd7a cc3d e4aa b13d
00000200: 540a d5bd 80a5 0b3c 1c0d 95bd 805d 56bc
00000210: 3050 bebc 6803 f83c cc8b 4abd 400e c93b
00000220: b0d6 283d 9267 f2bd 00e4 1db9 7c39 5c3d
00000230: 14cf 14bd 009f 813b 88d0 e3bd 1e27 c2bd
00000240: 346a 943d e890 ca3c fc61 8bbd 8040 ab3d
00000250: 566b de3d b828 38bd 4084 72bb 78bd fb3d
00000260: 9668 babd aa9f 84bd a047 97bd 5ae6 c53d
00000270: ea7c a13d f0a7 b2bd 0810 b5bc 48a3 adbc
00000280: d868 d83d d8b8 85bd a295 993d 6aaa ecbd
00000290: 989b cc3d 4083 2c3d 0226 f2bd 7469 77bd
000002a0: 766a e3bd 8605 cc3d b049 6a3c 4016 37bb
000002b0: f09e 6b3d 5489 233d e010 edbd e6ce a2bd
000002c0: f009 c43d 8a93 e23d c8d9 ef3d 8084 3a3d
000002d0: 229f c53d 00c4 beba c0b4 75bd c80b 34bd
000002e0: 98d9 ebbc 60c3 993c 2a92 c53d fe90 e0bd
000002f0: a4d0 88bd 04ff 243d 50dc 603c 747e 64bd
0.05249854 0.08192304 -0.037134144 0.0034197797 -0.124807075 -0.06870926 0.10725648 0.12533863
-0.103092834 -0.116248466 -0.062062297 -0.04829545 -0.051978767 0.04918233 -0.10151162 0.00136702
0.110586725 0.07190944 -0.037084974 0.032068092 0.0847642 0.13182943 -0.030761248 0.068473056
-0.02393306 -0.051727198 0.08694018 -0.040702336 0.10081832 0.008879497 0.023977883 -0.09315202
-0.015131925 -0.11345465 -0.1197016 -0.059101135 0.0058237463 0.11550264 0.06502353 0.08424492
-0.09737282 -0.003186501 -0.107435666 -0.10996807 0.10050606 0.04701712 -0.039145213 0.0014247008
0.041645568 0.043811746 -0.042048972 0.09617719 0.03833488 0.118971646 0.05573346 -0.10792802
-0.017156648 -0.059319906 -0.015100542 0.09319664 -0.028153168 -0.013396999 -0.047591105 -0.046256956
-0.012907381 0.041810926 -0.07926203 0.048126273 0.04696804 0.10609254 -0.098740004 -0.11343594
-0.10395243 -0.022265118 0.101565175 0.11748009 0.11531754 -0.064816535 0.122871906 0.03507113
0.03586395 0.05330868 0.0026801133 0.0093163485 -0.057020456 0.05825655 -0.103024274 0.11043815
0.07940711 -0.061899666 -0.07107932 0.11356292 -0.008860195 -0.03339104 0.07326166 -0.09197244
-0.09844846 0.102051586 0.098710805 0.0940638 7.5656266e-05 -0.0664474 0.01360084 0.04356955
0.028969685 -0.09045752 0.09891744 0.110720135 0.0119674755 -0.039025355 -0.08433602 0.12365446
-0.044223376 -0.101698466 -0.12465088 0.08327947 0.117197484 0.025378603 -0.024647068 -0.08826179
0.09637132 0.010715832 0.100588694 0.06131327 0.09819773 0.10903341 0.0998436 0.08675173
-0.104023606 0.008523345 -0.07277891 -0.013083816 -0.023231596 0.030275062 -0.049449727 0.006135732
0.041220367 -0.11836161 -0.00015057623 0.05376576 -0.036330298 0.003955722 -0.111237586 -0.09480117
0.07246819 0.0247273 -0.068057984 0.08361912 0.108603165 -0.044960707 -0.0037005097 0.12291998
-0.091019794 -0.06475766 -0.07386708 0.09663077 0.078851536 -0.08723438 -0.02210237 -0.021196023
0.10566872 -0.06529397 0.07499243 -0.115559414 0.09990615 0.042117357 -0.11823656 -0.060403302
-0.1110429 0.09961991 0.014299795 -0.0027936846 0.05752462 0.03992589 -0.11575484 -0.07949619
0.09572208 0.11063297 0.1171146 0.045536518 0.09649493 -0.0014554262 -0.05998683 -0.043956548
-0.02879028 0.01876992 0.09647019 -0.10965155 -0.0668042 0.040282264 0.013724402 -0.055784658

main_network.fc.bias f4 [3]
00000000: c9c2 ab3d bc31 aabc 98fd 9e3c
0.08386762 -0.020775668 0.019408032

short_term_context_network.fc1.weight f4 [32, 7]
00000000: 41cc 883d 8baa 23be 10e1 8bbe 3963 023e
00000010: 3a51 873d 57fa 303f 8bcc c43e 0c2e 553f
00000020: 547a 86be 2929 9e3d 3074 2dbe 45d6 adbf
00000030: 8868 b3bf ed62 d33e d060 b3be 1b4b 81bb
00000040: 6403 c03d 06a4 4f3d 9995 153f 44b9 043f
00000050: e804 9d3e 8874 403f 3478 c0bd 24f7 1c3e
00000060: ca3d 87be 3c48 adbf 9454 b6bf 317e 393e
00000070: e232 f6be a2a3 b5be 67a3 9e3e 609e 8b3e
00000080: 6ba0 953d d9ed 423f 9c71 1c3f e756 4e3b
00000090: 54cc 7b3c 1bc4 bdbd 1ed9 58be 0dfc 213e
000000a0: 783a 813e d913 95be 236c 17bf 77a8 583e
000000b0: 2907 aa3e b919 23be b499 693e c96c 073f
000000c0: d252 893f 8e6f ae3e 3cfc 703e 8564 a43e
000000d0: cea4 e13d 7426 953d 4d0d af3d de3c c93e
000000e0: aee6 403f 0606 67be c97c 3c3d 3caa 1a3e
000000f0: 90d7 b4bf 12d7 b4bf 07a1 673e ec49 cdbd
00000100: a011 91be ad4e ea3d 5305 a0bd 7dc2 053e
00000110: 96a6 223f c630 5a3e 6a07 9fbe 4426 12be
00000120: 3d34 81bc b571 b5be 5b6b ec3c f7ba fa3d
00000130: 79e2 8cbe df71 4c3d 5425 7cbe 56c0 b43e
00000140: 222e 0ebe 2042 e83e 3fa9 963e fa64 2b3f
00000150: d0eb 8e3c 69e8 8ebe ba26 8f3e c928 4fbe
00000160: 47cf d23d 5384 623e a2c8 793e 6cf3 f2bd
00000170: 2fb6 c03e 872b 82be a0ab be3e f620 02be
00000180: 108b 81be c47d 273e 0504 71be 0e08 a3be
00000190: 04f0 86bd 43b0 693e b647 2e3f 765f a63e
000001a0: 82b0 043d b1c2 a3be d116 aa3e c518 f63d
000001b0: 0e2f bebe d827 ac3e 1553 6ebe bbc0 a6be
000001c0: 8c0d ae3d dee7 0d3d 0565 a83e 2341 963d
000001d0: 1778 253f cfb7 d83e 4333 e1bd d08d f93d
000001e0: 323a 3c3e be21 923d f897 7f3e cf9e c33d
000001f0: b042 c83c 9ce7 543e 05cf 15be 93bb b13d
00000200: 1189 88be 6b05 943d c6c6 153f ce1d e43e
00000210: 86f1 cd3e f34e 5a3f 3f33 afbd 9fef ecbd
00000220: 4c42 5abe 05a8 e4be 545c a2bf ef74 8f3d
00000230: d4c6 1cbe 4083 51be 5576 bbbe 76c1 77be
00000240: 2033 083f 538d 553e 3bb0 1f3e b4a5 c1bd
00000250: 38ac 143e 663c 8dbe bbe5 9abe edf2 7d3e
00000260: 808c efbd bca3 9a3e 4997 afbe d826 8c3c
00000270: 3177 b3be 4894 933e 0fe4 4d3e 7bd6 1a3f
00000280: f846 ef3e 1cc7 c3be 7dad 6f3e 2549 0e3d
00000290: 4fc2 a13d 1d83 5e3f 4c2d 033d 3acd af3e
000002a0: c992 23be 3502 afbd 02b4 97be 91d1 05bd
000002b0: a22c 063f ca82 103f 4678 783d 8a9c dabc
000002c0: c557 2abe 7202 513d cc31 ae3e cba9 aebe
000002d0: 7e8c 823e 29dc 023e bb15 08be 04aa a33e
000002e0: 098e 8abe 6db6 aebe 6358 d3bd d817 833b
000002f0: bf9b 56be c896 d93e d7c3 0f3e 1be8 e3bb
00000300: f5af 633e 4667 993e 15c9 623e b408 353f
00000310: 5045 aabe a8f3 523e 673e f03d 7b94 37be
00000320: 4cbd 17bd 4e59 b1bd 85d9 61be 551e 00bf
00000330: 2154 97bc 50df 8fbd 98fe bbbe bca3 f13e
00000340: 5b0d 9f3e 28f5 883f 0636 a5be 670e 753e
00000350: 700e 77be 7b4f d9bd a89e b5be 92cc 2e3e
00000360: 8107 f23d f8c5 e8be 0fa6 73bd 245b 733e
00000370: 221e 95be 7e4f 0d3f c73a 903e eee2 163f
0.06679583 -0.15983026 -0.27320147 0.12733163 0.066072896 0.6913199 0.38437304 0.83273387
-0.26265204 0.077226944 -0.16938853 -1.3581015 -1.4016275 0.41286412 -0.350348 -0.003945721
0.09375647 0.050693534 0.5843139 0.5184519 0.30667806 0.7517781 -0.09397927 0.15328652
-0.2641433 -1.3537669 -1.4244561 0.18114544 -0.48085696 -0.35476404 0.3098404 0.27269268
0.07305988 0.76144177 0.61110854 0.0031484903 0.01536854 -0.0926592 -0.21176574 0.15818806
0.2523992 -0.29116705 -0.5914938 0.21158014 0.33208588 -0.15927781 0.2281254 0.5290037
1.07284 0.34069484 0.2353372 0.3210794 0.11017762 0.07282725 0.08547459 0.3930425
0.7535199 -0.22560892 0.046017442 0.15104002 -1.4128284 -1.4128134 0.22620021 -0.10023865
-0.2833376 0.114407875 -0.078135155 0.13062473 0.6353544 0.21307668 -0.31060344 -0.1427241
-0.01577198 -0.35438314 0.028859785 0.12242692 -0.27516535 0.049913283 -0.24623615 0.3530299
-0.13884786 0.4536295 0.29426 0.66950953 0.017446429 -0.2791169 0.27959234 -0.20230402
0.10293441 0.2212079 0.24392942 -0.11862835 0.37638995 -0.25423834 0.37240314 -0.12707886
-0.2530141 0.1635657 -0.2353669 -0.31842083 -0.06588748 0.22821145 0.6807817 0.32494706
0.032394893 -0.31984475 0.33220533 0.12016443 -0.37145275 0.33624148 -0.23273881 -0.32568917
0.084986776 0.034644954 0.32889572 0.073366426 0.6463637 0.42327735 -0.109961055 0.12185252
0.18381575 0.07135342 0.24960315 0.09551775 0.024445862 0.20791477 -0.14629753 0.08678355
-0.26667073 0.07227596 0.5850643 0.4455399 0.4022333 0.85276717 -0.08554696 -0.115691416
-0.21314353 -0.4465944 -1.2684426 0.07004725 -0.15310222 -0.20460224 -0.36613718 -0.24194893
0.5320301 0.20854692 0.1559457 -0.094554335 0.14518821 -0.27585143 -0.30253395 0.247997
-0.1169672 0.30203044 -0.3429511 0.017108366 -0.35051873 0.28824067 0.20106529 0.6048352
0.46733832 -0.38237846 0.23406024 0.034737725 0.078983895 0.86918813 0.03202562 0.34336263
-0.15973963 -0.08545343 -0.29629523 -0.03267056 0.52411854 0.5644957 0.060661577 -0.026685972
-0.16635044 0.051027723 0.34022367 -0.34113917 0.25497812 0.12779297 -0.1328954 0.3196565
-0.2706149 -0.34123555 -0.10319593 0.004000645 -0.2095785 0.4249785 0.1403955 -0.0069551594
0.22235091 0.29961604 0.22147019 0.70716405 -0.33256006 0.2060076 0.11730652 -0.17927735
-0.037045762 -0.08659612 -0.22055633 -0.50046283 -0.018472733 -0.07025015 -0.36717677 0.47195232
0.31064877 1.0699816 -0.3226778 0.23931275 -0.24126601 -0.10610863 -0.35472608 0.17070225
0.118178375 -0.45463538 -0.059484538 0.23765236 -0.29124552 0.5519942 0.28169844 0.5894002

short_term_context_network.fc1.bias f4 [32]
00000000: 21ca 303f cb9c 17bf 8b8e 3e3f f2b1 54bf
00000010: 5fe6 543f dfd4 9bbe 959c 333f 7778 093f
00000020: 8301 59bf 65b0 df3e 6be3 64be a970 d63e
00000030: 9092 bcbe 4e8c 09bd 7f8a 2c3f c250 b2be
00000040: 1ad9 3e3f 0686 fd3e 494f a33e d244 67bf
00000050: 2ccf 0e3f f138 adbe 6ec8 0f3f 9fd4 4d3f
00000060: bd2e 333f 6905 86be 184a 60be 0fca 8a3e
00000070: dd87 9dbe f5f3 dc3e 58ad 3fbe d54b 463f
0.69058424 -0.5922362 0.74436253 -0.83084023 0.8316402 -0.30435845 0.701608 0.5369944
-0.8476793 0.43689266 -0.22352378 0.41882828 -0.36830568 -0.03358107 0.6739883 -0.34827238
0.7455002 0.49516314 0.31896427 -0.90339386 0.5578487 -0.33832505 0.56165206 0.8040256
0.6999319 -0.26176003 -0.21903265 0.27107283 -0.30767718 0.43154874 -0.18718469 0.7745946

short_term_context_network.fc2.weight f4 [16, 32]
00000000: 750d 87bd f106 6cbd 0040 34be ab47 0bbe
00000010: e78e cabd 6879 883d 6047 34be a5a0 8e3d
00000020: defb 21be 1d1a 24be d736 90bc a267 163e
00000030: 2dd2 a23c 43ac fe3d 320e 053e 613a 5fbd
00000040: fe8b f8bd c5b4 93bd 75b3 0f3e 4598 27be
00000050: eb73 0b3e 7afd 0f3a fcd9 90bc 08ea 59bc
00000060: 97a1 a63c 38fb a93c 159f c93c af53 3bbe
00000070: ce4c cfbd d907 ac3c 12a3 0c3d df09 883d
00000080: 99d1 7c3e 7c75 45be bd34 f93e d760 cdbe
00000090: 767d 303e 2389 bebd d72e 3b3f 922c ac3d
000000a0: a3ad febe 0439 733e b36a ed3c 611d 363e
000000b0: d36c d33d 968d 59bd 24eb a73e e3bd 2bbe
000000c0: b12e 013f 8853 df3e f10b 933e 5dfe cebe
000000d0: 0e90 ab3e f293 623d c95c c63e e3a9 9b3e
000000e0: 2c76 723e 01ed aa3c 3cbc 5d3d 0629 2a3e
000000f0: 27ff 7dbc e3b9 093f c128 19be ae96 793e
00000100: 2b69 ffbd ace6 24bd 2680 e63d 136e b5bd
00000110: 7672 193e 8c46 91bc f16a febd a024 e3bd
00000120: fa45 5c3d c594 97bd cb63 313e 28fb f6bd
00000130: 4069 2cbb 090b 05bc 46db 2fbe 0e85 55bd
00000140: 4c41 dd3d 56e6 60bd c227 31be 77a1 e5bd
00000150: c425 2abe 22a9 93bc 973a 05be ab6d e33c
00000160: a20a 32be 110a 0c3e c857 f6bd 9b9c 2cbd
00000170: c6c0 1bbe 4bba 8c3d 7569 1abd 7bf4 1e3e
00000180: fb30 313e 5c2e b9bd 1e8e c13e e009 32bf
00000190: 720c 943e 346d 0fbd 4373 7b3f 683e 953e
000001a0: 39cb 47bf 0628 e43e 43fc b53d 36ea 063f
000001b0: 996e 7cbd 5fa2 04bd 05fb cd3e 6d39 3a3d
000001c0: 4e6d 223f 16ae c43e eeac 2c3f 9ae3 b4be
000001d0: 38c0 f13e 02b4 10be 7ba5 cb3e 45eb 193f
000001e0: 13ea da3e 2833 023d a422 a1bd e131 9c3d
000001f0: f664 db3c a8c4 de3e 4cd5 ef3d e4a9 003f
00000200: 69d3 d1bd 033f 14be 733d 94bc f78a cd3d
00000210: b0fa b8bd 30a4 8a3d 7789 d73d b13e 243b
00000220: e539 5f3b 2c6b 803d 2756 f93d 77ec 1bbd
00000230: 9f3d 653a f39c 303e c08c b2bc 9e90 65bd
00000240: 6bb5 74bc 370e d1bc f3f9 1abd 0b2c dcbd
00000250: 9278 f0bd 4fbb aebc 12ce 1abe 53a6 10be
00000260: 2487 14bd 1f4c 1abe e6bb 18be 870f a1bd
00000270: 6b86 173e ae67 46bd b5f1 2bbe 4a9f 17be
00000280: c06f cd3e 06c3 30be f7fc bc3e bad6 31bf
00000290: 7f65 cb3e dc01 8ebd d747 963f 0af4 d73e
000002a0: 16ff 3cbf 8a94 fb3e 4801 273e 476b 8b3e
000002b0: c461 00be 9a87 983c 5d41 dc3e 230f 093e
000002c0: 3f5c 273f 1f29 f43e e8be 0d3f b7d1 dfbe
000002d0: 6b8a c13e 2569 f7bb 3ffd 903e 0f6d d83e
000002e0: 6156 d63e d5d6 d43d a1a1 263c 9fb2 623d
000002f0: c08d 7dbc 2de8 d73e 2dd4 26be 1d37 a53e
00000300: a73f 0e3e 48f6 7bbc e9dc 28be fcfe 13be
00000310: a9a7 05be 9fa2 d13d a7bf da3d e688 19be
00000320: 9d57 c8bd f6ad 19bd 8f1d 99bd a88a e83c
00000330: 2ede 083d 9a35 b83d b1c9 a6bd 406c d33c
00000340: b470 f9bd 2b3a 7f3c 6dd2 833d d8af 2abe
00000350: 286d 253c 0848 28be 5f15 2cbe 5bda 823d
00000360: 80c7 abbd 3e5a e63d 2e4f 733d e5d8 bf3d
00000370: 3ebd 86bd 9efd 17be 3d3e 0e3e 44df 903d
00000380: 1390 4dbe 8048 cd3c 43cd efbd df42 e6bc
00000390: a4a9 f83d c492 53bd c486 63bc ec81 25be
000003a0: 4e1b 4b3d c8b4 c23c 319d 1f3e 3c47 2cbe
000003b0: 9f2d 43bd 924a 0a3e 9095 22bd 2e08 99bd
000003c0: 0e71 a73d f1a7 fcbd 38b5 393d cf8c 22be
000003d0: 49ad 61bd de2d febd 33f6 0a3e b8a3 993c
000003e0: 31f5 30be ddbe c43b d85f fb3b 1272 fc3d
000003f0: c56c fb3d 79ce 96bc 9375 943a 18fe 75bd
-0.065943636 -0.057623807 -0.17602539 -0.13601558 -0.09890538 0.066637814 -0.17605352 0.06964234
-0.15818736 -0.16025586 -0.017604275 0.1468797 0.01987561 0.124352 0.12993696 -0.054499034
-0.121360764 -0.072122134 0.14033301 -0.1636668 0.13618438 0.0005492788 -0.017682068 -0.013300426
0.020340724 0.020749673 0.024611989 -0.18293642 -0.10122071 0.020999836 0.034335203 0.06642508
0.2468933 -0.19283098 0.4867305 -0.40112945 0.1723536 -0.093035005 0.73118347 0.084069386
-0.4974185 0.23752218 0.028981542 0.17784645 0.10323491 -0.053113542 0.32796586 -0.16771655
0.5046187 0.43618417 0.28720048 -0.4042844 0.33508343 0.055316873 0.38742664 0.3040305
0.23677891 0.020864965 0.054134592 0.16617212 -0.015502728 0.53799266 -0.14956953 0.24373886
-0.12471231 -0.04025905 0.11254911 -0.088588856 0.1498507 -0.017733835 -0.12422741 -0.1109097
0.053777672 -0.074014224 0.17323224 -0.12059623 -0.002630785 -0.008120307 -0.1717349 -0.052128844
0.1080347 -0.054907165 -0.17300323 -0.112124376 -0.16615969 -0.018024985 -0.13010632 0.027762255
-0.17386869 0.13675715 -0.12028462 -0.042141538 -0.15210256 0.0687147 -0.037698228 0.1552295
0.17303841 -0.090420455 0.3780374 -0.6954632 0.28915745 -0.035016254 0.9822275 0.29149175
-0.7804447 0.44561785 0.08886006 0.5270113 -0.06162891 -0.03238141 0.40230575 0.04546492
0.63448036 0.38414067 0.6745137 -0.35329896 0.47216964 -0.14131168 0.3977469 0.6012462
0.4275671 0.031787068 -0.07867935 0.07626701 0.02678154 0.43509412 0.11710605 0.5025923
-0.102454014 -0.14477162 -0.018095708 0.10036271 -0.0903219 0.067695975 0.10524266 0.002506178
0.0034061607 0.062704414 0.121746354 -0.038067307 0.0008744839 0.17247371 -0.02179563 -0.05604612
-0.014935832 -0.025519473 -0.037836026 -0.10750588 -0.11741747 -0.02132955 -0.15117672 -0.14125948
-0.036261693 -0.150681 -0.14915428 -0.0786429 0.1479737 -0.04843872 -0.16791423 -0.14806858
0.4012432 -0.17261896 0.36911747 -0.6946827 0.39725873 -0.069339484 1.1740674 0.42178375
-0.7382673 0.49136764 0.16309083 0.27230284 -0.12537295 0.018619347 0.43018618 0.1338468
0.6537513 0.47687623 0.55369425 -0.43714687 0.37800917 -0.007550376 0.2831821 0.42270705
0.41862777 0.103925385 0.010170371 0.055346128 -0.01547569 0.42169324 -0.16291876 0.3226861
0.13891469 -0.015378542 -0.1649052 -0.14452738 -0.13052239 0.10236096 0.10681086 -0.14993629
-0.09782336 -0.037519418 -0.07476341 0.028386429 0.033415012 0.08994599 -0.08143938 0.025808454
-0.121796995 0.015577833 0.0643662 -0.16668642 0.010096826 -0.16433728 -0.16805027 0.06389304
-0.08387661 0.11247681 0.059401684 0.09367541 -0.06579064 -0.14842841 0.1389093 0.070738345
-0.20074491 0.025058985 -0.117090724 -0.028108058 0.121417314 -0.05165364 -0.013887111 -0.16162843
0.049586587 0.023767844 0.15587308 -0.16824049 -0.04765093 0.13505009 -0.039693415 -0.07472263
0.0817586 -0.1233672 0.04533884 -0.15874027 -0.0550969 -0.12411092 0.1357048 0.018754825
-0.17281033 0.006004198 0.0076713376 0.12326445 0.122766055 -0.018409 0.0011326544 -0.060056776

short_term_context_network.fc2.bias f4 [16]
00000000: cfe9 0bbd a99e a23e 7241 08be 5521 a73d
00000010: 9e66 31be c714 bd3d e72b 0cbb 616b 063e
00000020: 7c2d 39be 854f bcbe cab3 863e 251b b63e
00000030: 96ae 4b3d b7e6 9f3d 2d38 dcba 23ee 863e
-0.034158524 0.31761673 -0.13306215 0.081606545 -0.17324302 0.092324786 -0.0021388473 0.131269
-0.18083757 -0.3677942 0.26309043 0.35567585 0.049727045 0.07807677 -0.001680141 0.2635356

short_term_context_network.fc3.weight f4 [1, 16]
00000000: 1d69 1c3c 3a05 163f 40fa 25be 9c06 113f
00000010: 9007 f53d ac58 103f 00c7 2c3c 6c71 c1bd
00000020: 446a c5bd ffc2 abbf 9aa6 4d3f 7296 f43e
00000030: 7352 e3bd 0c3e 2e3f 8cd0 c1bd 60e8 153f
0.009546545 0.58601725 -0.16208744 0.5665071 0.11964333 0.563853 0.010545492 -0.09445462
-0.09639409 -1.3418883 0.8033234 0.4777103 -0.1109971 0.68063426 -0.09463605 0.585577
