Uni_Research/IRL/Final/Extended/Testing_Suite/model_SC_C1000_R1000_S100.0.pth (torch, 91392 bytes, 11 tensors)

main_network.lstm.weight_ih_l0 f4 [256, 15]
0	0xbd9e2f86	-0.07723908
1	0x3d8d4696	0.06898229
2	0xbd3ffee3	-0.04687394
3	0x3d34ac3f	0.04410958
4	0x3c9cfe8a	0.019164342
5	0xbb31e1fb	-0.0027142751
6	0xbdb8ea3f	-0.09029054
7	0x3d3fb961	0.04680765
8	0x3dcdaacd	0.10042343
9	0x3d117dc5	0.035520334
10	0x3c2cef17	0.01055505
11	0xbd29bafc	-0.041438088
12	0xbdb2a4c0	-0.0872283
13	0x3cec4fd4	0.028846659
14	0xbe32fec7	-0.17480002
15	0xbd2e7d79	-0.04260013
16	0x3b5f79b4	0.003409964
17	0xbe322ec7	-0.17400657
18	0x3e10863c	0.14113706
19	0xbbdd2461	-0.0067487215
20	0xbd7e6b86	-0.06211426
21	0x3cb6e610	0.0223265
22	0xbce64ca2	-0.028112713
23	0xbd29223e	-0.04129242
24	0x3d6d2cbd	0.057903994
25	0xbd4ece71	-0.050489847
26	0x3d013080	0.031540394
27	0x3c2de7df	0.010614364
28	0xbd7e1841	-0.06203485
29	0xbd9ccdf4	-0.0765647
30	0x3df1c164	0.118044645
31	0x3d8d43af	0.06897675
32	0x3d3a024d	0.04541235
33	0x3ed5f618	0.41789317
34	0x3e1871be	0.14887139
35	0x3c8889d2	0.01666728
36	0xbe0de779	-0.13857831
37	0x3d9ab91b	0.07554837
38	0x3e465dea	0.19371763
39	0xbc7319a9	-0.014837661
40	0xbc85ec26	-0.016347956
41	0x3e1aa96e	0.15103695
42	0x3d0ea726	0.034827374
43	0x3e8afb74	0.27144969
44	0xbcb7f3b7	-0.02245508
45	0xbe04467d	-0.12917514
46	0xbe0e365a	-0.13887921
47	0x3b02ec81	0.0019977393
48	0x3e39f0b6	0.1815823
49	0xbe399677	-0.18123804
50	0xbba03286	-0.0048888354
51	0xbe19c928	-0.15018141
52	0xbe215c98	-0.15757978
53	0xbd1b90b3	-0.037979793
54	0xbe1930a2	-0.14959958
55	0xbe54bdc2	-0.20775512
56	0xbd2600b2	-0.040528007
57	0xbe816ae9	-0.25276878
58	0xbd91df2a	-0.07122643
59	0xbdcd5ddd	-0.100276686
60	0xbe6b8a0a	-0.23001876
61	0xbe7d86f1	-0.24758507
62	0xbe4deee1	-0.20110656
63	0xbbde1ec7	-0.0067785713
64	0xbe049ff7	-0.12951647
65	0x3c9698af	0.018383352
66	0xbe2fdb0c	-0.17173404
67	0xbe158bfb	-0.1460418
68	0xbe42632e	-0.18983147
69	0xbe1d8637	-0.1538323
70	0xbe1f3b85	-0.15550049
71	0xbe0b290b	-0.13589875
72	0xbe233ae4	-0.15940434
73	0xbe05db73	-0.13071994
74	0xbe4453be	-0.1917257
75	0xbe46c6e4	-0.19411808
76	0xbe5ee3d4	-0.21766597
77	0x3d8a9703	0.067670844
78	0x3e15caec	0.1462819
79	0xbe86ae7a	-0.2630499
80	0xbcdf3db9	-0.027251111
81	0xbe714cb9	-0.23564424
82	0xbddb7c4c	-0.10717067
83	0xbdb720d8	-0.08941811
84	0x3d382180	0.044953823
85	0xbdca850d	-0.09888659
86	0xbe0a883b	-0.1352853
87	0xbd261f36	-0.04055711
88	0xbdbe206e	-0.09283529
89	0xbd6c26bf	-0.05765414
90	0x3c180688	0.009278901
91	0x3e275a6b	0.16343085
92	0x3d0db63a	0.034597613
93	0xbdc83dff	-0.0977745
94	0x3e560bbe	0.20902917
95	0x3d38d4d5	0.045124847
96	0x3cb5a5bb	0.022173753
97	0xbd09324c	-0.033495232
98	0x3e7705f3	0.24123363
99	0xbe654ac3	-0.223918
100	0xbd9fc687	-0.07801538
101	0x3e0fdc54	0.14048892
102	0xbd138adf	-0.03602111
103	0x3e3a6b39	0.18204965
104	0x3ccf341c	0.025293402
105	0x3de7bcfa	0.11315341
106	0x3d947cd1	0.07250369
107	0x3e09cd93	0.13457327
108	0xbde0510c	-0.109529585
109	0x3e04d0da	0.12970296
110	0xbd2bd2d4	-0.04194911
111	0xbd518a65	-0.051157374
112	0x3d92565b	0.07145377
113	0x3dd23c29	0.10265381
114	0xbd74e142	-0.059785135
115	0xbe1d9636	-0.15389332
116	0xbe41d46f	-0.18928693
117	0x3df62b77	0.12020009
118	0xbd43e29c	-0.047823533
119	0xbdddac6c	-0.108239025
120	0x3d4f5576	0.05061861
121	0xbcb6ee2a	-0.022330362
122	0xbd042b2b	-0.03226773
123	0x3dba1684	0.09086326
124	0x3d9eb004	0.07748416
125	0xbd6bf664	-0.057608023
126	0xbe0fec1f	-0.14054917
127	0xbd6ad4d1	-0.057331864
128	0x3d2eef99	0.042708967
129	0xbd8f5b54	-0.06999841
130	0xbccfdabe	-0.02537286
131	0xbd86ad12	-0.06575979
132	0xbdf02d5e	-0.11727403
133	0xbc412f93	-0.011791128
134	0x3d4270ac	0.047470734
135	0xbd8c16b4	-0.06840268
136	0x3d4ff0c9	0.05076674
137	0xbc5556a4	-0.013021145
138	0x3dd83206	0.10556416
139	0xbe0e334b	-0.13886754
140	0xbdcd2a50	-0.10017836
141	0x3ddac35a	0.106817916
142	0xbd029180	-0.03187704
143	0xbcdab6ee	-0.026698556
144	0xbc8331cf	-0.016014962
145	0xbdb3ba5e	-0.08775781
146	0x3d993083	0.07479956
147	0xbc65f9bb	-0.014036591
148	0xbd556540	-0.052098513
149	0xbe27285b	-0.16323988
150	0xbd038a60	-0.032114387
151	0xbb831ee6	-0.004001486
152	0xbcfcf0d4	-0.030876555
153	0x3e20284c	0.15640372
154	0xbbdb0741	-0.0066842143
155	0x3dca01b2	0.098636046
156	0x3d268ddc	0.04066263
157	0x3e1d8c5a	0.15385571
158	0xbd43e8bb	-0.04782937
159	0x3d5936f8	0.053030938
160	0xbd5dbe09	-0.05413631
161	0xbdaa438b	-0.08313664
162	0x3d91484b	0.07093867
163	0x3dce1b98	0.10063857
164	0x3ddfdcb3	0.10930767
165	0xbd0eedd1	-0.03489477
166	0xbd320f69	-0.043471728
167	0x3da09d5d	0.07842515
168	0x3eaddcc6	0.339575
169	0xbc0c6632	-0.008569287
170	0xbd0668ed	-0.03281491
171	0x3ddb8888	0.10719401
172	0x3da612d1	0.08109058
173	0xbd6a8c2b	-0.05726258
174	0x3de3f4a3	0.11130645
175	0x3d0c2e01	0.03422356
176	0x3e1d8e01	0.15386201
177	0xbc19c1b9	-0.009384566
178	0x3ea85c78	0.32883048
179	0xbdcf7e84	-0.10131553
180	0xbad26efc	-0.0016054804
181	0x3cff2133	0.03114376
182	0x3d831c29	0.064018555
183	0x3e92eac0	0.28694725
184	0x3dafa87b	0.08577057
185	0x3ca5f521	0.020258488
186	0x3dd1b909	0.10240371
187	0xb8ad239e	-8.255917e-05
188	0xbd4401fb	-0.04785345
189	0x3e044d1c	0.1292004
190	0xbdd1e6a2	-0.10249068
191	0xbe0803be	-0.13282678
192	0x3cf32b57	0.029683752
193	0x3d9a51a5	0.07535104
194	0x3d203381	0.039111618
195	0xbe0877a1	-0.13326885
196	0xbe25461e	-0.16140029
197	0xbcd50d47	-0.026007308
198	0x3e967635	0.2938706
199	0xbaf53dfe	-0.0018710492
200	0xbe1b4e83	-0.15166669
201	0xbe164e7b	-0.14678375
202	0x3cf8c34d	0.030366564
203	0xbdfa98b9	-0.12236161
204	0x3c1e9fa2	0.009681614
205	0x3da72402	0.08161165
206	0xbdffb848	-0.12486321
207	0xbc853c62	-0.016264144
208	0x3e2e041e	0.16993758
209	0xbca07a32	-0.019589517
210	0xbdd67bf2	-0.104728594
211	0xbe12411d	-0.14282651
212	0xbc8999e2	-0.01679701
213	0x3dd5aed6	0.10433738
214	0x3dc25877	0.094895296
215	0xbe10b78d	-0.14132519
216	0xbceacf2c	-0.02866324
217	0xbcd70eb6	-0.026252132
218	0xbe3b2afb	-0.18278114
219	0x3deb2373	0.11481371
220	0xbe4715ca	-0.19441906
221	0xbe3d57e6	-0.18490562
222	0xbe16d9a1	-0.14731456
223	0xbe090b32	-0.13383177
224	0xbd274737	-0.0408394
225	0x3dcf522a	0.101230934
226	0xbd43c711	-0.047797266
227	0x3d02c82c	0.03192918
228	0x3e70ef51	0.23528792
229	0x3e081678	0.13289821
230	0xbdaa27b0	-0.08308351
231	0x3e488270	0.19581008
232	0xbded6bbf	-0.115928166
233	0xbde4cdcd	-0.11172066
234	0x3e380357	0.17970024
235	0x3dc44bc3	0.09584763
236	0xbe189ad1	-0.14902808
237	0x3d259c08	0.040432006
238	0x3dd9883c	0.10621688
239	0x3cd51181	0.026009323
240	0xbdf796ee	-0.120893344
241	0xbc2518f2	-0.010076748
242	0xbe360e42	-0.17778876
243	0xbd9bfa18	-0.07616061
244	0x3cd5764d	0.026057387
245	0xbcb774f7	-0.02239464
246	0xbd93d4e5	-0.07218341
247	0x3d05a2c5	0.032625932
248	0xbd1c2e05	-0.038129825
249	0xbdd9af23	-0.10629108
250	0xbd19d683	-0.03755809
251	0xbcbabc65	-0.022794912
252	0xbd372527	-0.044713166
253	0x3db6ac12	0.089195386
254	0xbd875471	-0.06607903
255	0x3d4c1d11	0.049832407

main_network.lstm.weight_hh_l0 f4 [256, 64]
0	0xbdfd52c8	-0.12369305
1	0xbd216191	-0.039399687
2	0xbe469730	-0.19393611
3	0x3dbeb213	0.09311309
4	0x3d08df5a	0.03341613
5	0xbce7b8fb	-0.028286448
6	0x3e0c05e4	0.13674122
7	0xbe3be22a	-0.18347993
8	0xbd2db800	-0.042411804
9	0xbdd4ea6c	-0.10396275
10	0xbcf84384	-0.030305631
11	0x3d986a86	0.07442193
12	0x3c41bbcf	0.011824562
13	0x3df54b9a	0.119773105
14	0x3cfa26e9	0.030536132
15	0xbcd97230	-0.026543707
16	0xbd81a3a1	-0.06330038
17	0x3d8b6e61	0.068081625
18	0x3dc4d213	0.09610381
19	0xbd2fbb2a	-0.042903103
20	0xbd3a0549	-0.045415197
21	0xbd1385c2	-0.036016233
22	0x3d3e46a4	0.046454087
23	0x3c08679f	0.008325486
24	0xbda64d76	-0.08120243
25	0xbe1f8566	-0.15578231
26	0x3e14f87b	0.14547913
27	0xbd2d3283	-0.0422845
28	0x3ec20cbb	0.37900338
29	0xbb51376f	-0.003192391
30	0x3cc5d46a	0.024149138
31	0xbe15d74f	-0.14632915
32	0xbd7ac2fb	-0.061221104
33	0xbcbeaf0a	-0.023276825
34	0xbd47f412	-0.048816748
35	0xbceab390	-0.028650075
36	0x3deb29bb	0.11482569
37	0x3daae45a	0.08344336
38	0xbdbd9a96	-0.092580006
39	0x3e81120b	0.25209078
40	0xbd8cc1f2	-0.0687293
41	0x3dc54cc1	0.0963378
42	0xbd5aa9b7	-0.05338451
43	0xbd80a871	-0.06282128
44	0xbd7d489d	-0.061836828
45	0x3e165d0b	0.1468393
46	0x3ce8eb64	0.028432555
47	0x3e56efee	0.20989963
48	0x3c0cbef3	0.008590448
49	0x3d3b3e41	0.045713667
50	0x3d85560a	0.06510551
51	0xbc55bcd7	-0.013045511
52	0x3e2d4494	0.16920692
53	0x3da6a08c	0.08136091
54	0xbd8669cb	-0.06563147
55	0x3d701f5b	0.058623653
56	0xbd07faae	-0.03319805
57	0x3d924866	0.07142715
58	0x3e07c35e	0.1325812
59	0xbe1c9149	-0.15289797
60	0xbd2da67b	-0.042395096
61	0x3d32f693	0.043692183
62	0x3e0be1bd	0.13660331
63	0x3cad5dc4	0.021162875
64	0x3d89373e	0.0669999
65	0xbd155937	-0.036462035
66	0xbd268683	-0.040655624
67	0xbd99d160	-0.07510638
68	0x3e2d2037	0.1690682
69	0x3d12efe7	0.03587332
70	0x3e6b2e99	0.22966994
71	0xbd8c63be	-0.06854962
72	0xbd3b6578	-0.045751065
73	0x3cd41366	0.025888156
74	0x3cc40273	0.02392695
75	0xbc99af80	-0.018760443
76	0x3d02bf0f	0.03192049
77	0x3d1d6106	0.038422607
78	0xbe0cd95d	-0.13754793
79	0x3cd48537	0.025942428
80	0xbc8a5fc9	-0.016891377
81	0xbccfeeb5	-0.02538238
82	0xbc7322af	-0.014839812
83	0xbe84c286	-0.2592966
84	0x3d64293b	0.055703383
85	0xbd3a16f0	-0.04543203
86	0xbe035c40	-0.1282816
87	0xbd0460b4	-0.032318786
88	0xbc176bcf	-0.009242012
89	0x3dcd01d4	0.10010114
90	0xbc99f3a8	-0.018792942
91	0xbe158043	-0.14599709
92	0x3dfca8d7	0.12336891
93	0xbdecd3e4	-0.115638524
94	0xbd81b7a0	-0.06333852
95	0xbd958c55	-0.07302157
96	0xbcb9cb20	-0.022679865
97	0x3e1e233c	0.15443128
98	0xbd6bcf7e	-0.057570927
99	0x3d343029	0.04399124
100	0x3d9d980d	0.07695017
101	0x3c390c00	0.011294365
102	0xbe0b0579	-0.13576306
103	0xbd1935c8	-0.037404805
104	0x3d9d90d2	0.07693638
105	0x3d17241f	0.036899682
106	0x3def5f58	0.11688107
107	0x3dfcf630	0.12351644
108	0xbe638e0d	-0.22222157
109	0xbdea2df8	-0.11434549
110	0xbc0d0938	-0.008608155
111	0x3cb7d309	0.022439497
112	0x3c489b5e	0.012244074
113	0xbcc06c41	-0.02348912
114	0xbddc1fea	-0.107482746
115	0xbe3a96df	-0.18221615
116	0x3d09fadc	0.033686504
117	0x3d0ca959	0.03434119
118	0xbd10156e	-0.035176687
119	0x3ce6d43d	0.028177375
120	0x3e0e1681	0.13875772
121	0xbcbc6184	-0.022995718
122	0xbae92df3	-0.0017790183
123	0x3d3cd731	0.04610366
124	0xbc7fa465	-0.01560316
125	0x3e57c99e	0.21073005
126	0x3d5f6c18	0.054546446
127	0x3dba1348	0.09085709
128	0xbaf7da7d	-0.0018909719
129	0x3e05a425	0.13050897
130	0x3dd10701	0.10206414
131	0x3e3e9a8d	0.18613644
132	0xbe66b4be	-0.22529885
133	0x3cd76e2c	0.026297651
134	0xbeb10d62	-0.34580523
135	0xbd8fac4f	-0.07015287
136	0x3b56b6dd	0.0032762804
137	0x3e578632	0.21047285
138	0xbe0bba49	-0.13645281
139	0x3c98c8cb	0.018650433
140	0x3e09117a	0.13385573
141	0x3e84fa83	0.25972375
142	0x3e359597	0.17732845
143	0x3d4bda5d	0.049768794
144	0xbd47b4ce	-0.048756413
145	0xbe779bb3	-0.24180488
146	0x3d4b433b	0.049624663
147	0x3e68b065	0.22723539
148	0xbe53e486	-0.20692644
149	0x3e120ef2	0.14263514
150	0xbd5148f3	-0.05109496
151	0xbd96f411	-0.07370771
152	0x3da6fa42	0.08153202
153	0x3ddff777	0.10935872
154	0x3d5ff576	0.05467745
155	0xbcd8c8c2	-0.026462916
156	0xbe06599e	-0.13120124
157	0x3cdc2522	0.026873175
158	0xbe1f0830	-0.15530467
159	0xbd42c75d	-0.04755341
160	0x3d8f9fad	0.070128776
161	0xbd1010f3	-0.035172414
162	0xbe71a687	-0.23598681
163	0x3d107ab2	0.03527326
164	0x3e317bda	0.17332402
165	0x3df739bf	0.12071561
166	0x3e37321b	0.17890207
167	0xbe917254	-0.28407538
168	0xbd175750	-0.036948502
169	0xbe58240e	-0.21107504
170	0xbe21c8d6	-0.15799269
171	0xbdeb1724	-0.11479023
172	0x3e16fbce	0.14744493
173	0x3cfbd763	0.030742353
174	0x3e2e5281	0.1702366
175	0xbe40f84e	-0.1884472
176	0xbe1cf982	-0.15329555
177	0x3e4a98a1	0.19784786
178	0xbce54224	-0.02798564
179	0xbce0f9eb	-0.02746292
180	0xbcc0234c	-0.02345433
181	0xbe1068e5	-0.14102514
182	0x3ddfc3fa	0.109260514
183	0x3e2b8c2a	0.16752687
184	0xbdf14d57	-0.117823295
185	0xbcb31e3e	-0.021865007
186	0xbc88941b	-0.016672185
187	0x3c26632a	0.0101554785
188	0x3e2e8f89	0.17046942
189	0xbe911272	-0.28334385
190	0x3e86ee68	0.26353765
191	0xbe0e8754	-0.13918811
192	0xbd6726fa	-0.056433655
193	0xbd88ef06	-0.06686215
194	0xbdea2bb4	-0.11434117
195	0x3e3c9aad	0.18418379
196	0xbdad4632	-0.08460654
197	0x3d8891a5	0.066684045
198	0xbc7a928a	-0.015293727
199	0xbe415eb1	-0.18883778
200	0x3e24423e	0.16040894
201	0x3d1e0485	0.03857853
202	0xbcf4cfe5	-0.029884288
203	0x3d709132	0.05873222
204	0xbd1194a5	-0.03554215
205	0x3e012434	0.12611467
206	0x3e118e3b	0.14214413
207	0x3de1d1cd	0.110263444
208	0x3db3b8e6	0.08775501
209	0x3d13101e	0.035904042
210	0xbccbb8c4	-0.024868377
211	0x3e54c713	0.20779066
212	0x3d5cd09d	0.053909887
213	0x3ce62026	0.028091501
214	0x3d4454ce	0.04793244
215	0xbe10062b	-0.14064853
216	0xbd6bf563	-0.057607066
217	0xbd989027	-0.0744937
218	0x3dc6c966	0.097063825
219	0x3d143c38	0.03619024
220	0xbc0c192d	-0.008550924
221	0x3dbf6e29	0.09347183
222	0xbdcf1b72	-0.10112657
223	0xbe2ae85a	-0.16690198
224	0xbcebd469	-0.028787808
225	0x3ddb1382	0.1069708
226	0xbd4bb8fa	-0.049736954
227	0xbdab6081	-0.08368016
228	0x3cc2d6da	0.02378409
229	0x3da3c75c	0.07997009
230	0x3e171bf1	0.14756753
231	0xbd26cb93	-0.040721487
232	0xbe36fcc5	-0.17869861
233	0x3ce9275b	0.028461149
234	0x3d8d3f75	0.06896869
235	0xbc7a7dac	-0.015288752
236	0x3e0b9f3e	0.13634965
237	0x3e1be72b	0.15224902
238	0x3dc9e32a	0.09857781
239	0xbe6cb9df	-0.23117779
240	0xbcd631ef	-0.026146857
241	0x3d01106b	0.031509798
242	0x3e7265bd	0.23671623
243	0x3d164e0b	0.03669552
244	0xbca24278	-0.019807085
245	0xbdc5e793	-0.0966331
246	0x3e23effe	0.16009519
247	0x3e0cef0f	0.13763069
248	0xbdbb54e0	-0.09147048
249	0xbd457777	-0.048209634
250	0x3e110e43	0.14165597
251	0xbe387d26	-0.1801649
252	0xbd921d07	-0.07134443
253	0xbcaca78d	-0.021075988
254	0x3e4489db	0.19193213
255	0xbd0c8ed0	-0.034315884

main_network.lstm.bias_ih_l0 f4 [256]
0	0xbdc68cb9	-0.096948095
1	0xbe0b499b	-0.13602297
2	0x3e12b988	0.14328587
3	0x3d09c8d8	0.033638805
4	0xbdc2ad5e	-0.095057234
5	0xbdf75b21	-0.12077928
6	0x3a9b9eb2	0.0011872856
7	0xbd88ef93	-0.0668632
8	0xbc016ca3	-0.007899436
9	0x3e46e742	0.19424155
10	0xbd4e5882	-0.050377376
11	0x3d0db85b	0.034599643
12	0x3dadf365	0.084936894
13	0x3d9c1871	0.07621849
14	0x3e147f11	0.14501597
15	0x3d94d093	0.07266345
16	0xbcc9988e	-0.024608877
17	0x3e1f5e76	0.15563378
18	0x3da46f13	0.08028998
19	0xbe3d8279	-0.18506803
20	0xbd5de5ba	-0.054174162
21	0x3db44bd2	0.08803524
22	0xbe1b2e91	-0.15154482
23	0x3d8793e1	0.066200025
24	0xbd93770b	-0.0720044
25	0xbcbb7ccb	-0.022886654
26	0xbd091f16	-0.03347691
27	0x3dc63712	0.096784726
28	0x3e964ec9	0.29356983
29	0xbd577529	-0.052601967
30	0xbc26ffaa	-0.010192791
31	0x3d68439c	0.056705102
32	0x3e022959	0.12711085
33	0xbd35b6c5	-0.044363756
34	0x3ca36345	0.019944796
35	0xbb29f99b	-0.002593613
36	0x3d084787	0.03327134
37	0xbcca6a62	-0.02470893
38	0x3dddb165	0.10824851
39	0x3e11f7da	0.14254704
40	0x3da500b3	0.08056774
41	0x3d8a1d48	0.06743866
42	0xbe0677b8	-0.13131607
43	0x3e6694fc	0.2251777
44	0x3d7b3213	0.06132705
45	0x3dd580a8	0.1042493
46	0xbd779cc9	-0.060452256
47	0x3d8ecfcc	0.06973228
48	0x3e4fbef2	0.20287684
49	0x3df5c77f	0.120009415
50	0x3aed6269	0.0018110994
51	0x3ce205ce	0.027590659
52	0x3d53b280	0.051683903
53	0xbc7fcac9	-0.015612313
54	0x3de6e250	0.112736344
55	0x3e03cd9c	0.12871403
56	0xbd053327	-0.032519486
57	0x3cfe9bbd	0.031080121
58	0xbd825996	-0.063647434
59	0x3d83926f	0.06424414
60	0xbcd7c440	-0.026338696
61	0x3e168663	0.14699702
62	0x3dddfe82	0.10839559
63	0x3dc4c6ee	0.09608255
64	0xbd3a5882	-0.045494564
65	0xbd2f27f5	-0.042762715
66	0xbdc2610c	-0.094911665
67	0x3dd898e3	0.10576036
68	0x3d87f8c2	0.06639244
69	0x3cc74bd1	0.024328144
70	0x3d3facc1	0.04679561
71	0xbdd770cd	-0.10519562
72	0xbd8f9b0f	-0.07011997
73	0xbded7b8b	-0.115958296
74	0x3dbb50ec	0.09146294
75	0x3ca5baa3	0.020230597
76	0x3cf9fb98	0.030515477
77	0x3da488e7	0.080339245
78	0x3e22b673	0.15889911
79	0x3cad8539	0.02118169
80	0xbd9d5218	-0.07681674
81	0x3d87878c	0.066176504
82	0x3cc1224e	0.023575928
83	0xbd908373	-0.07056322
84	0x3e4f2546	0.20229062
85	0x3db66bc8	0.089072764
86	0x3de869d6	0.113483116
87	0x3d123e28	0.035703808
88	0xbe33b436	-0.17549214
89	0xbd659f7b	-0.056060296
90	0xbd0338db	-0.032036643
91	0xbdaf318c	-0.08554372
92	0x3dd3b78e	0.10337745
93	0xbd5abd1e	-0.053403012
94	0xbe0b1910	-0.1358378
95	0x3d1b0331	0.03784484
96	0xbdab1164	-0.083529264
97	0xbddbfea9	-0.10741932
98	0x3dcffb1d	0.10155318
99	0xbd3b8713	-0.045783114
100	0xbc8509eb	-0.01624008
101	0xbd4719e8	-0.04860869
102	0x3d4e8806	0.05042269
103	0xbc864791	-0.016391547
104	0xbd8d5f47	-0.06902938
105	0xbd9bbe87	-0.076046996
106	0x3db1a434	0.086738974
107	0xbddafbbb	-0.10692545
108	0x3d86d2ef	0.06583201
109	0xbe35c1b6	-0.17749676
110	0x3bad1ba1	0.0052828346
111	0xbe008658	-0.12551248
112	0x3d4fe1d8	0.05075249
113	0xbdf8902f	-0.12136876
114	0xbce8d378	-0.028421149
115	0xbe2146f6	-0.15749726
116	0x3d2707b1	0.04077882
117	0x3e3daf95	0.1852401
118	0x3c64df19	0.013969206
119	0xbd851c01	-0.06499482
120	0x3bc820ee	0.006107441
121	0xbd9c2774	-0.076247126
122	0x3c818daf	0.01581463
123	0xbcd6044b	-0.026125094
124	0x3db913ed	0.09037004
125	0xbdcd1852	-0.10014404
126	0xbd58efb6	-0.05296298
127	0xbc941895	-0.018078128
128	0xbb3854ee	-0.0028126794
129	0x3da9deb3	0.0829443
130	0xbbb3bbd0	-0.0054850355
131	0xbd95372e	-0.07285915
132	0x3d365c2d	0.0445215
133	0xbbd6937e	-0.006548344
134	0x3dec9fd0	0.11553919
135	0xbd5cbbb4	-0.053889945
136	0x3d377c96	0.04479655
137	0x3cd5f613	0.026118314
138	0x3d944c4e	0.072411165
139	0x3d185d0c	0.03719811
140	0x3e12cba8	0.14335501
141	0x3d9c0d62	0.0761974
142	0x3d1db8e6	0.03850641
143	0xbb3047ad	-0.002689819
144	0xbd4585ee	-0.04822343
145	0xbe49569a	-0.19661942
146	0xbd8fe32b	-0.07025751
147	0xbd696c73	-0.05698819
148	0xbdbcaa3c	-0.09212157
149	0xbd0ba5ec	-0.034093782
150	0xbcec9353	-0.028878843
151	0x3e234a6b	0.15946357
152	0x3d922afa	0.071371034
153	0xbd061cb4	-0.032742217
154	0x3d38a6b8	0.04508087
155	0x3cab472d	0.020907963
156	0xbe340bc8	-0.17582619
157	0xbd91ebb9	-0.07125039
158	0x3db59bdd	0.08867619
159	0xbbe70d7e	-0.007051169
160	0x3e54aba4	0.207686
161	0x39313b56	0.0001690214
162	0xbe1a749e	-0.15083548
163	0x3db46165	0.08807639
164	0x3dd1bfac	0.10241637
165	0x3c722c5a	0.014781082
166	0x3e015afa	0.12632361
167	0xbd004b84	-0.031322017
168	0xbdd478ed	-0.10374627
169	0x3dada957	0.08479565
170	0xbc94adff	-0.018149374
171	0xbdab8e6f	-0.083767764
172	0x3cb57244	0.022149213
173	0x3c8954a2	0.016763989
174	0x3e1deef2	0.15423182
175	0xbd484a2e	-0.04889887
176	0xbe162683	-0.14663129
177	0x3e2bc47d	0.16774173
178	0xbd81a818	-0.063308895
179	0xbcd58f91	-0.026069434
180	0xbe18345a	-0.1486372
181	0xbdf88bab	-0.121360146
182	0xbc6094d8	-0.013707362
183	0xbe121cf6	-0.1426886
184	0xbdc3a8e9	-0.095537014
185	0x3d4fbad3	0.05071528
186	0xbdcdc371	-0.10047043
187	0x3de8a5de	0.11359762
188	0x3ddbbbbd	0.107291676
189	0xbcc0d219	-0.023537682
190	0xbd6a25f8	-0.057165116
191	0xbda8ae53	-0.08236375
192	0xbaf3f68a	-0.0018612903
193	0x3db6ccbe	0.0892577
194	0x3dd6ba9a	0.1048481
195	0x3ba6aab0	0.0050862655
196	0x3c2bc348	0.01048357
197	0xbd144b9f	-0.03620493
198	0x3c111776	0.008855691
199	0xbdc31059	-0.095246024
200	0x3d874c96	0.066064045
201	0x3e41ba5f	0.18918751
202	0xbda11458	-0.078652084
203	0x3d848cc6	0.06472163
204	0xbd363a93	-0.044489454
205	0x3d62783c	0.055290446
206	0xbcbc19c7	-0.02296151
207	0x3da660aa	0.08123906
208	0xbc4a8f23	-0.012363228
209	0x3c023e57	0.007949433
210	0xbdf3ad5c	-0.118983
211	0xbc770bfb	-0.01507854
212	0x3dceba08	0.100940764
213	0xbdd91753	-0.10600152
214	0xbdc4968a	-0.095990255
215	0xbd81c7dd	-0.06336949
216	0x3dda8bcb	0.10671195
217	0x3c405956	0.011740049
218	0xba0f3f8c	-0.00054644863
219	0x3d999bc9	0.07500417
220	0x3e09bb96	0.13450465
221	0x3d8b2b88	0.06795412
222	0x3dd97082	0.10617162
223	0xbd97e27f	-0.074162476
224	0xba2145da	-0.00061520713
225	0x3c855de4	0.016280122
226	0x3db6c129	0.08923561
227	0x3de5fc3a	0.11229749
228	0x3c02b505	0.007977729
229	0xbdfa4517	-0.12220209
230	0x3e0b9fa0	0.13635111
231	0x3d103a35	0.03521176
232	0x3e1c682e	0.15274116
233	0xbcd27464	-0.025690265
234	0x3cf0b68c	0.02938392
235	0x3e7ad8e9	0.24496807
236	0x3d28db6a	0.041224875
237	0x3db3c02f	0.087768905
238	0x3dc44de4	0.09585169
239	0xbc735160	-0.014850944
240	0x3ca83e80	0.020537615
241	0x3dcc1b8f	0.09966194
242	0x3e24e5d2	0.16103294
243	0x3d8ef674	0.06980601
244	0x3dcb1b32	0.099172965
245	0x3e306d49	0.17229189
246	0x3e048606	0.12941751
247	0xbc5e411b	-0.013565327
248	0x3df048c9	0.11732633
249	0x3e1504cc	0.14552611
250	0x3ddc6258	0.10760945
251	0xbdae3eaf	-0.0850805
252	0xbcaa3389	-0.020776527
253	0x3dd384e5	0.10328082
254	0x3e142616	0.14467654
255	0x3e6a211c	0.22864193

main_network.lstm.bias_hh_l0 f4 [256]
0	0x3cc0dcb5	0.023542741
1	0xbd6509ac	-0.055917427
2	0x3e10cb8d	0.14140148
3	0x3d26def7	0.04073998
4	0xbadff029	-0.0017085123
5	0xbcdae094	-0.026718415
6	0x3d4fdbe5	0.050746817
7	0x3cf4413a	0.029816259
8	0xbd896516	-0.06708734
9	0x3e26a0d1	0.16272284
10	0xbda005fa	-0.0781364
11	0x3d8fff9b	0.07031175
12	0xbd64e8e1	-0.055886153
13	0xbdb3f6b4	-0.08787289
14	0x3e59a6ce	0.21255037
15	0x3d35a3a3	0.04434551
16	0x3d8b570d	0.06803713
17	0x3d81c952	0.06337227
18	0x3d8becdd	0.068322875
19	0xbe4e621a	-0.2015461
20	0x3da43178	0.08017248
21	0xbe17d7f8	-0.1482848
22	0x3c7965e2	0.015222045
23	0xbd4cc37f	-0.049991127
24	0x3dd0496a	0.101702526
25	0x3d96db71	0.07366074
26	0x3d1b2aa5	0.037882466
27	0x3e451d57	0.19249474
28	0x3e8df44e	0.27725452
29	0x3da81eab	0.082089745
30	0xbd4338a6	-0.047661446
31	0x3d1701f2	0.03686709
32	0x3d29aa3d	0.041422118
33	0x3d7a4cbe	0.061108343
34	0x3d81fd40	0.06347132
35	0xbd3fd522	-0.04683412
36	0x3daddeeb	0.08489784
37	0xbd98704d	-0.07443295
38	0xbc13fa42	-0.009031834
39	0x3dec8063	0.11547925
40	0x3e59ccf8	0.21269596
41	0xbe150bcd	-0.14555283
42	0x3d9a6b21	0.075399645
43	0x3d2e4cbe	0.042553656
44	0xbd16184a	-0.036644258
45	0x3d9195c1	0.071086414
46	0xbd287ff8	-0.041137666
47	0x3dff5013	0.12466445
48	0x3e660ccc	0.22465819
49	0x3d1e6e2b	0.038679283
50	0xbde82291	-0.11334718
51	0x3da62cde	0.081140265
52	0x3d6c2dc5	0.057660837
53	0x3e2dabc4	0.16960055
54	0xbd139241	-0.03602815
55	0x3df540b3	0.11975231
56	0x3dbfb47f	0.09360599
57	0xbcfc3beb	-0.03079029
58	0xbcc6c117	-0.024261994
59	0xbdc0dbe1	-0.094169386
60	0x3e4268e7	0.1898533
61	0x3d93385a	0.071884826
62	0xbd115c9f	-0.03548872
63	0x3e2a92c2	0.16657546
64	0x3d620bc0	0.055186987
65	0xbd5a9e9d	-0.05337392
66	0xbe033cc7	-0.12816153
67	0x3cef7f26	0.029235434
68	0xbdd9bcb9	-0.10631699
69	0x3b850c01	0.004060269
70	0xbdd8385c	-0.10557625
71	0xbe15e383	-0.1463757
72	0x3d365d8a	0.0445228
73	0xbe43611e	-0.19080016
74	0xbc56a3b3	-0.013100552
75	0xbd03d25e	-0.032183044
76	0x3de3015b	0.11084243
77	0x3d0c96a7	0.03432336
78	0x3d78370b	0.060599368
79	0xbe01d78f	-0.12679885
80	0x3db5dc2d	0.08879886
81	0x3dea8b82	0.1145239
82	0xbca47e63	-0.020079797
83	0xbd893fc1	-0.06701613
84	0x3d61e80a	0.05515293
85	0xbe1351ea	-0.14386716
86	0x3de30e2b	0.11086687
87	0xbdc333bb	-0.09531351
88	0xbdac8ad9	-0.084249206
89	0xbd5f4a74	-0.054514363
90	0x3c8e9aae	0.017407741
91	0xbe5a7606	-0.21334085
92	0x3c1e2959	0.009653413
93	0xbd09ca47	-0.033640172
94	0x3d841f32	0.064512625
95	0xbdaffa09	-0.08592612
96	0x3e105022	0.14093068
97	0xbe80d07a	-0.25159055
98	0x3e312bf2	0.1730192
99	0x3dcf8e16	0.101345226
100	0xbd8ef728	-0.06980735
101	0xbdc46d5b	-0.095911704
102	0x3d686be5	0.05674352
103	0x3dabe447	0.0839315
104	0xbde26c5d	-0.11055825
105	0xbd9709c0	-0.073749065
106	0x3e007385	0.12544067
107	0xbe0ff4ab	-0.14058177
108	0xbdc427e3	-0.0957792
109	0x3d6ebb79	0.058284257
110	0x3e422a62	0.1896148
111	0xbdb19a55	-0.086720146
112	0x3e66309c	0.2247948
113	0xbdb860fb	-0.090028726
114	0x3b8ef536	0.0043627275
115	0xbcbb7820	-0.022884429
116	0x3d7aee9c	0.061262712
117	0x3e47db40	0.19517231
118	0xbd34426b	-0.044008654
119	0x3dfcb7ea	0.12339766
120	0x3d0a4c11	0.03376395
121	0x3d5f2c05	0.05448534
122	0x3aac571b	0.0013148518
123	0xbd055407	-0.032550838
124	0x3dd0cb29	0.10195
125	0xbe18b387	-0.14912234
126	0xbddfd13b	-0.109285794
127	0xbdad0512	-0.08448233
128	0x3dd4c3a0	0.10388875
129	0x3d2d8de9	0.042371664
130	0x3e0bba5d	0.1364531
131	0xbd1c0fea	-0.038101114
132	0xbdbb7d11	-0.09154714
133	0xbcf656aa	-0.030070622
134	0x3901eea5	0.000123913
135	0x3cd04a19	0.025425958
136	0x3df5f187	0.12008958
137	0x3db249a4	0.08705452
138	0x3ce801a5	0.028321097
139	0xbc46cfb2	-0.012134479
140	0xbcf2b84f	-0.0296289
141	0x3c541f80	0.012946963
142	0x3e443b7f	0.19163321
143	0x3dd59913	0.10429587
144	0x3d58b4fc	0.052906975
145	0xbe168263	-0.14698176
146	0xbcd37184	-0.025810964
147	0xbbe80c75	-0.007081563
148	0xbd42b4a3	-0.04753555
149	0x39013320	0.00012321444
150	0x3d6aa7b8	0.057288855
151	0x3d53c730	0.051703632
152	0x3da16e26	0.07882337
153	0x3cb0a65b	0.0215637
154	0xbdef7050	-0.11691344
155	0x3e108b79	0.14115705
156	0xbddeebae	-0.10884796
157	0x3c57734e	0.013150049
158	0xbdaf1e49	-0.08550698
159	0xbca1e906	-0.019764435
160	0x3dce5398	0.10074538
161	0xbcb390df	-0.021919666
162	0xbd0ab710	-0.03386599
163	0xbd40413b	-0.04693721
164	0x3cd94383	0.02652145
165	0xbce6dd08	-0.028181568
166	0xbdb094d5	-0.086221375
167	0xbc506e4e	-0.012721611
168	0x3dcf9680	0.101361275
169	0xbd36e11b	-0.04464827
170	0xbe20ee97	-0.15716015
171	0x3c8fe7bd	0.017566556
172	0x3dde7034	0.10861245
173	0xbd09d8ef	-0.03365415
174	0x3d7b0394	0.06128271
175	0x3d841da5	0.06450967
176	0xbd02100e	-0.031753592
177	0x3ca7bed9	0.020476745
178	0xbdcca615	-0.09992615
179	0x3d7b43e9	0.06134406
180	0x3d7cdfad	0.06173675
181	0xbe240462	-0.16017297
182	0xbe1a7be2	-0.1508632
183	0xbe0a458a	-0.1350309
184	0xbe268d0a	-0.1626474
185	0x3d9192d6	0.07108085
186	0xbda23a78	-0.07921308
187	0x3e07088d	0.13186856
188	0x3d07d0a0	0.033157945
189	0xbc6f2660	-0.014596552
190	0xbbcbc17c	-0.0062181335
191	0x3d0ebabd	0.034846056
192	0x3da72fe4	0.08163431
193	0xbd0a09ea	-0.03370086
194	0x3ad1c3db	0.0016003804
195	0x3deab2c7	0.1145988
196	0x3e002fc7	0.12518226
197	0xbcffdfb7	-0.031234605
198	0x3e23e49f	0.16005181
199	0xbde4ef79	-0.11178488
200	0x3d1276cd	0.03575783
201	0x3e35a312	0.17737988
202	0xbcd17563	-0.02556867
203	0x3d0369a8	0.032083184
204	0xbc8edc89	-0.017439144
205	0xbd4a6353	-0.04941113
206	0x3e2fe758	0.17178094
207	0x3cf23317	0.029565377
208	0xbcfb6763	-0.030688947
209	0x3d860497	0.06543844
210	0x3dc6d6d8	0.09708947
211	0x3c36f838	0.011167578
212	0x3d755e08	0.05990413
213	0x3daff983	0.085925125
214	0xbe0950af	-0.13409685
215	0x3bff9841	0.0078001325
216	0x3d2ebcc6	0.042660497
217	0x3c6f6e2e	0.014613671
218	0x3da9f769	0.08299143
219	0x3b8e516e	0.0043432033
220	0x3e82325b	0.25429043
221	0xbdeddb5d	-0.11614106
222	0xbd90e5f5	-0.07075111
223	0x3dd8489e	0.10560726
224	0x3c88e54c	0.0167109
225	0x3d2fe388	0.0429416
226	0x3e352dea	0.17693296
227	0xbd58e50d	-0.052952815
228	0xbd82778c	-0.06370458
229	0xbd8bc4e0	-0.0682466
230	0xbcbc6743	-0.022998458
231	0x3dd8b14c	0.10580692
232	0x3e530e34	0.20610887
233	0xbd27958f	-0.040914115
234	0xbdf4d868	-0.11955339
235	0x3e2bd846	0.1678172
236	0x3d841e89	0.064511366
237	0x3e0e8b4c	0.13920325
238	0x3e457713	0.19283704
239	0xbd84e0b9	-0.06488175
240	0x3d1daf40	0.03849721
241	0x3d7cae08	0.061689407
242	0x3bd99b66	0.0066408394
243	0x3d6b2711	0.057410304
244	0xbb419664	-0.0029539103
245	0x3dd1dd6a	0.102473095
246	0x3cb8dc57	0.022566004
247	0xbc702fac	-0.014659803
248	0xbd3fabf6	-0.046794854
249	0x3e168dbc	0.14702505
250	0x3dd40856	0.103531525
251	0xbd85a476	-0.06525509
252	0x3e26e783	0.16299252
253	0x3da0d4c0	0.07853079
254	0x3d91c783	0.07118132
255	0x3e3d0c73	0.1846178

main_network.fc.weight f4 [3, 64]
0	0x3bac8419	0.0052647707
1	0xbb308a5b	-0.0026937935
2	0xbc7babc4	-0.015360776
3	0xbcf7291d	-0.030170972
4	0x3e25603c	0.16149992
5	0x3df7ee4f	0.12106001
6	0x3d8b49b2	0.06801166
7	0xbe880c8f	-0.2657208
8	0x3ce81b68	0.02833338
9	0xbba0c7bd	-0.004906623
10	0x3cfea79c	0.031085782
11	0xbd33e895	-0.04392298
12	0xbd1fbb42	-0.038996942
13	0xbdf8d326	-0.12149648
14	0xbdfd8f3c	-0.123808354
15	0x3d0a322f	0.033739265
16	0xbc88ecf2	-0.016714547
17	0x3cf6c45c	0.030122928
18	0xbd9854dc	-0.07438061
19	0x3d6c0565	0.057622332
20	0xbd18a2bb	-0.037264567
21	0x3d5f76f7	0.054556813
22	0xbd6ae570	-0.057347715
23	0x3da14e3d	0.07876251
24	0x3da5f265	0.08102874
25	0x3d83124d	0.06399975
26	0x3ca1d7b7	0.019756181
27	0x3d1b23e8	0.03787604
28	0xbdcd8936	-0.100359365
29	0x3d0dacb3	0.034588527
30	0xbc95c70a	-0.018283386
31	0xbd26b6b6	-0.04070159
32	0x3c96c91f	0.018406449
33	0x3bbd9a4e	0.005786217
34	0xbd6e2592	-0.0581413
35	0xbd9db00f	-0.07699596
36	0xbdbe3f2d	-0.092893936
37	0x3d2ed7c5	0.042686243
38	0x3d67d624	0.056600705
39	0x3d8f3206	0.06991963
40	0xbdca8f1c	-0.09890577
41	0xbd1e7908	-0.038689643
42	0x3dc27c8c	0.09496412
43	0xbcffa17d	-0.031204933
44	0x3cd51c86	0.026014578
45	0xbda1f494	-0.07907978
46	0xbdecf5ec	-0.115703434
47	0xbc96e28e	-0.018418577
48	0xbe01cf80	-0.12676811
49	0x3d035ef5	0.03207298
50	0xbd4df00b	-0.05027775
51	0xbafa6752	-0.0019104278
52	0x3d59cc09	0.0531731
53	0xbace0ba7	-0.0015720025
54	0x3b73e550	0.0037215538
55	0xbd6cb465	-0.057789225
56	0xbdd1dc57	-0.102471046
57	0x3cf39d41	0.02973807
58	0xbd6a40d0	-0.057190716
59	0x3c099058	0.008396231
60	0xbca987c2	-0.020694617
61	0x3e065d8a	0.1312162
62	0x3d1a1235	0.03761502
63	0xbd81c56a	-0.06336482
64	0x3d44cc82	0.048046596
65	0xbd69fef2	-0.0571279
66	0x3b820f67	0.0039691213
67	0xbd4780a6	-0.048706673
68	0x3d9380db	0.072023116
69	0xbd63550c	-0.05550103
70	0x3e06e3a9	0.13172783
71	0xbe878d59	-0.26475027
72	0xbce8dbb7	-0.02842508
73	0xbd5ae587	-0.05344155
74	0x3da2f344	0.079565555
75	0xbd6fcb78	-0.058543652
76	0xbd597290	-0.05308777
77	0xbe26cff2	-0.16290262
78	0x3ce1f09b	0.02758055
79	0x3d846449	0.064644404
80	0xbc93fe5d	-0.018065626
81	0xbdc5e426	-0.096626565
82	0xbba6d1bb	-0.00509092
83	0x3d2c6f25	0.042098183
84	0x3bcea744	0.0063065607
85	0xbc256597	-0.010095022
86	0x3de53a1c	0.11192724
87	0x3ddcafa9	0.10775692
88	0xbe2fa7af	-0.1715381
89	0x3c910a72	0.017705176
90	0x3c7449af	0.014910146
91	0xba1827d7	-0.00058042764
92	0xbdbf16b6	-0.09330504
93	0x3ceb87d5	0.028751293
94	0x3e09609c	0.1341576
95	0xbd957e0c	-0.07299432
96	0xbceb0376	-0.028688174
97	0xbd40fd2d	-0.047116447
98	0xbd9e2426	-0.077217385
99	0x3d62df41	0.055388693
100	0x3dc90679	0.09815688
101	0xbd1279ac	-0.035760567
102	0x3d4c5f1a	0.049895383
103	0x3da88e17	0.082302265
104	0x3d848c60	0.06472087
105	0xbd0cc161	-0.034364108
106	0x3da7e1e0	0.08197379
107	0xbbbf81a7	-0.005844313
108	0x3d44f770	0.048087537
109	0xbd8e3534	-0.069437414
110	0xbdb3b40a	-0.08774574
111	0xbdaf4cca	-0.08559568
112	0x3d064edb	0.032790046
113	0xbe2cdfc0	-0.16882229
114	0xbc9d16e7	-0.01917596
115	0xbcffa790	-0.03120783
116	0xbd0db811	-0.034599368
117	0xbd420f1f	-0.0473777
118	0x3c9b42d2	0.01895276
119	0x3cce78ba	0.025204051
120	0x3d2d2e20	0.042280316
121	0x3e1bfb7d	0.15232654
122	0x3d0570dc	0.032578334
123	0x3aed3d3c	0.0018099914
124	0x3cd0b682	0.025477652
125	0xbe5ad832	-0.21371534
126	0x3da378bc	0.07982013
127	0x3c7e1d34	0.015509892
128	0xbdf0a551	-0.117502816
129	0x3d942c08	0.07234961
130	0x3e79a0ee	0.24377796
131	0x3e144770	0.14480376
132	0xbe801d1d	-0.25022212
133	0x3dbcdba3	0.0922158
134	0xbe572e43	-0.21013741
135	0x3e2d7c06	0.16941842
136	0x3d9e836e	0.07739912
137	0x3e2a3183	0.1662045
138	0x3c92a55a	0.017901111
139	0xbd218957	-0.039437618
140	0x3bb331ee	0.0054685986
141	0x3e1d72d8	0.1537584
142	0x3ddbd17d	0.10733316
143	0x3dc4588a	0.095872
144	0xbdb19bb6	-0.08672278
145	0xbe916add	-0.28401843
146	0x3ccb7129	0.024834232
147	0x3e624cc4	0.22099596
148	0xbe2b6330	-0.16737056
149	0x3dec9541	0.115519054
150	0xbdd55867	-0.10417252
151	0x3e85f025	0.26159778
152	0xbdbfbd5d	-0.0936229
153	0x3ec32c06	0.38119525
154	0xbe83ef4a	-0.257685
155	0x3e867751	0.26262906
156	0xbe80fce4	-0.2519294
157	0x3d899c36	0.06719248
158	0xbdec4c05	-0.11537937
159	0xbd49ed77	-0.04929873
160	0x3eb40276	0.35158128
161	0x3d9625fc	0.07331464
162	0xbe5a91fb	-0.2134475
163	0x3cd13ade	0.025540765
164	0x3c929f30	0.017898172
165	0x3cc81cb9	0.024427759
166	0x3e59ad59	0.21257533
167	0xbe681c60	-0.22667074
168	0xbe43a606	-0.19106302
169	0xbe824811	-0.25445607
170	0xbdc0c613	-0.0941278
171	0x3e5ffb97	0.21873318
172	0x3e9b0f5b	0.30285153
173	0xbe30bf0e	-0.17260382
174	0x3e184b49	0.14872469
175	0xbe7cb532	-0.24678496
176	0xbe52433d	-0.20533462
177	0x3e25a954	0.16177875
178	0xbe1e0bdb	-0.1543421
179	0x3e2aa203	0.16663365
180	0xbc29b05c	-0.010356989
181	0xbe447f4b	-0.19189183
182	0xbcb63899	-0.022243785
183	0xbc6bd3bd	-0.014393744
184	0xbe6d21ac	-0.23157376
185	0x3e6c9e82	0.23107341
186	0xbe8f7c29	-0.28024414
187	0xbddf3e2f	-0.109005325
188	0x3e05538e	0.13020155
189	0xbe4404ca	-0.19142452
190	0xbda1b8fd	-0.07896612
191	0x3e31631e	0.17322966

main_network.fc.bias f4 [3]
0	0x3da528c4	0.08064416
1	0x3db43f66	0.08801155
2	0x3d30e54d	0.04318743

short_term_context_network.fc1.weight f4 [32, 7]
0	0xbe64a707	-0.22329341
1	0x3df62177	0.12018102
2	0xbebd67c5	-0.36993232
3	0xbe4d7c9f	-0.2006707
4	0x3d39e8e8	0.045388132
5	0x3e84a6be	0.25908464
6	0xbe2ed654	-0.17073947
7	0x3ed8ba94	0.42329848
8	0xbd22d038	-0.039749354
9	0xbde13f0a	-0.10998352
10	0xbe006198	-0.12537229
11	0x3e02e905	0.12784202
12	0x3e2af423	0.16694693
13	0x3f126e18	0.5719924
14	0x3e5079be	0.20358941
15	0xbeb81c10	-0.3595891
16	0x3e9819b0	0.29707098
17	0x3e865db7	0.26243374
18	0x3f03d4e6	0.5149673
19	0x3f59cb10	0.85075474
20	0xbf22cd9c	-0.63594985
21	0xbd0365a8	-0.03207937
22	0xbe1ad23a	-0.15119258
23	0xbe4e668f	-0.2015631
24	0x3dfde53a	0.12397237
25	0xbeb543ac	-0.35403192
26	0x3d99a46c	0.07502064
27	0x3df74fe2	0.12075783
28	0xbea9f5cc	-0.3319534
29	0xbc99d057	-0.018776102
30	0x3e0015fd	0.12508388
31	0xbea09a61	-0.31367782
32	0x3e315c56	0.1732038
33	0x3d8d0861	0.06886364
34	0x3f1e60e9	0.61866623
35	0xbe029fe6	-0.12756309
36	0x3e81efc4	0.2537824
37	0x3e09165b	0.13387434
38	0x3d981e88	0.074276984
39	0x3e375248	0.17902482
40	0x3e9c059c	0.3047303
41	0x3d9b9db8	0.07598442
42	0xbe4c11f1	-0.19928719
43	0xbe1ba61d	-0.15200086
44	0xbd058476	-0.032597028
45	0x3df90591	0.12159265
46	0xbdb7a583	-0.08967116
47	0xbea7b4f1	-0.32755235
48	0xbe036a9e	-0.1283364
49	0xbdf21efa	-0.118223146
50	0x3ec099cd	0.3761734
51	0x3d8ad0cf	0.06778108
52	0x3e6d09b3	0.23148231
53	0x3ec8b6b7	0.392019
54	0x3e1291fe	0.14313504
55	0xbe58ebca	-0.21183696
56	0xbe633135	-0.2218674
57	0xbeb8a392	-0.36062294
58	0xbdc79f53	-0.097471856
59	0xbe0e9e54	-0.13927585
60	0x3e0bd439	0.13655175
61	0xbe01f988	-0.12692845
62	0xbe8d9fd1	-0.27660993
63	0xbdcdb244	-0.10043767
64	0xbe1e5314	-0.1546138
65	0x3e5501d2	0.20801476
66	0x3cd372c0	0.025811553
67	0xbee2a616	-0.4426734
68	0x3e856e2a	0.2606061
69	0x3ed466cb	0.41484675
70	0x3e29cad9	0.16581286
71	0x3ea238fe	0.31684107
72	0x3df1778c	0.1179038
73	0xbea39c1c	-0.3195504
74	0x3f190898	0.5977874
75	0x3f228ec8	0.63499117
76	0xbf171024	-0.59009004
77	0xbea3deba	-0.32005864
78	0x3da8d38d	0.08243475
79	0xbe36418d	-0.17798443
80	0x3e1e4ea3	0.15459685
81	0x401a6dcf	2.4129522
82	0x40167a0c	2.3511992
83	0x3f5e5cb2	0.8686019
84	0xbf062ab4	-0.5240891
85	0xbe44ff14	-0.1923793
86	0xbda9dd12	-0.08294119
87	0xbe7d3f62	-0.2473121
88	0xbe2f9ca4	-0.17149597
89	0xbdf5bdbc	-0.119990796
90	0x3f7dcddb	0.99142236
91	0xbeb82ae7	-0.35970232
92	0x3ea36eeb	0.3192056
93	0x3e24d60b	0.16097276
94	0x3e0c5b46	0.13706693
95	0x3ea90f0d	0.33019295
96	0x3c4671e5	0.0121121155
97	0x3f189eed	0.596175
98	0xbb017025	-0.0019750681
99	0x3e6b518f	0.22980331
100	0x3dfdccd9	0.12392587
101	0xbc38259e	-0.011239437
102	0x3d479bfe	0.04873275
103	0x3d3d68df	0.04624259
104	0xbebe7edf	-0.3720617
105	0x3f4a9902	0.7913972
106	0x3be7b4fd	0.007071136
107	0x3c36aead	0.011150044
108	0x3e4181ea	0.18897215
109	0xbf1e6766	-0.61876523
110	0xbf7ec7dd	-0.9952372
111	0x3de5fe4f	0.11230146
112	0x3e177a22	0.14792684
113	0x3df8388b	0.1212016
114	0x3d1937bc	0.037406668
115	0x3e515d16	0.20445666
116	0x3f36529a	0.7121979
117	0x3f284976	0.6573709
118	0xbecb0fe1	-0.39660552
119	0x3f416707	0.7554783
120	0x3c7c5587	0.015401251
121	0x3d86a282	0.06573965
122	0x3e82bb2a	0.2553342
123	0xbcb3ad30	-0.021933168
124	0x3ea3bb24	0.31978714
125	0x3f04b1b7	0.5183367
126	0x3f3c1190	0.734643
127	0xbe447d8b	-0.19188516
128	0x3e75313b	0.23944561
129	0xbd8f420f	-0.069950216
130	0xbef7e76b	-0.48418745
131	0xbe9a3053	-0.30114993
132	0xbeae736b	-0.34072432
133	0xbbea4ba4	-0.0071501303
134	0x3cb3a80a	0.021930713
135	0x3e9ea2e9	0.30983666
136	0x3e014dd2	0.12627342
137	0x3e61af6c	0.22039574
138	0x3eba7c2a	0.36422855
139	0xbd68a0d7	-0.056794014
140	0xbd5af52b	-0.053456467
141	0x3e94bde8	0.29051137
142	0x3e9a5ed2	0.30150467
143	0x3e9a88a6	0.3018238
144	0xbe6847c8	-0.22683632
145	0xbde87c8d	-0.11351881
146	0x3e9f63f0	0.31130934
147	0xbec8a9fc	-0.39192188
148	0x3e269456	0.16267523
149	0x3e1de48c	0.15419215
150	0xbe78cd3d	-0.24297042
151	0xbe3bb499	-0.18330611
152	0xbe261a7e	-0.16221043
153	0x3f0f2b7c	0.55925727
154	0xbce33be2	-0.027738515
155	0x3ebb04be	0.36527056
156	0xbe05e79b	-0.13076632
157	0x3cd95c06	0.026533138
158	0x3e3b491b	0.18289606
159	0x3e914a72	0.2837711
160	0xbed10dce	-0.40830845
161	0x3da0ff29	0.07861168
162	0x3d7feff4	0.062484697
163	0x3cb88814	0.022525825
164	0x3d464f62	0.04841555
165	0xbe357d94	-0.17723686
166	0xbe6154b6	-0.22004971
167	0xbe829b48	-0.25509095
168	0xbe9c036b	-0.30471358
169	0x3bc36310	0.005962737
170	0x3dfe43a6	0.12415247
171	0x3e8ad7c3	0.27117738
172	0x3e980998	0.2969482
173	0xbdea79d1	-0.11449016
174	0x3e5e65c5	0.2171851
175	0x3de97822	0.11399867
176	0xbe9897c4	-0.29803288
177	0xbe4ebdab	-0.2018954
178	0x3eba32d4	0.36366904
179	0x3ca0fa49	0.019650595
180	0x3e58ad51	0.21159865
181	0x3e93a9b3	0.28840408
182	0xbe93ba5b	-0.28853115
183	0x3c897815	0.016780892
184	0xbe8b4632	-0.27201992
185	0x3e305b32	0.17222288
186	0x3d796ae3	0.06089295
187	0x3e9396de	0.2882604
188	0x3e55d25a	0.20881024
189	0xbf09c54b	-0.5381667
190	0xbd4218d1	-0.047386948
191	0x3d996229	0.07489426
192	0x3d998ef9	0.07497973
193	0x3e3f7229	0.18695892
194	0x3c86bf25	0.016448567
195	0x3f6eaaaf	0.9322919
196	0xbe8b5783	-0.27215204
197	0xbc365820	-0.011129409
198	0xbeb0cab6	-0.34529656
199	0xbb3de203	-0.0028973825
200	0xbec1033f	-0.3769779
201	0x3eaa8dd6	0.33311337
202	0xbea5fe0b	-0.32420382
203	0xbe43897c	-0.19095415
204	0xbb5dfaf5	-0.0033871506
205	0xbe13c9bf	-0.14432429
206	0xbb9d2c35	-0.0047965297
207	0x3ed0f714	0.40813506
208	0x3d9ce75c	0.07661316
209	0x3c8bbaa5	0.017056772
210	0xbdc3b18b	-0.09555348
211	0xbe4a0e63	-0.1973205
212	0xbeaab1b9	-0.33338717
213	0x3e6ad67f	0.22933386
214	0x3e5e87f2	0.21731547
215	0x3e722bde	0.23649547
216	0xbe8fabb4	-0.28060687
217	0x3f2b38e3	0.6688368
218	0x3e5a66b0	0.21328235
219	0xbbbf9a57	-0.005847256
220	0x3d39ea53	0.045389485
221	0xbe92805f	-0.28613564
222	0x3dcefa5f	0.10106348
223	0x3f143b39	0.57902867

short_term_context_network.fc1.bias f4 [32]
0	0xbea7ddb4	-0.32786334
1	0x3e7eeae9	0.24894299
2	0x3cad4dae	0.021155205
3	0xbe2f25ff	-0.17104338
4	0x3ed866ff	0.4226608
5	0x3eb679f3	0.35639915
6	0x3db53e23	0.08849742
7	0xbd1a6cec	-0.037701532
8	0x3db4ad1a	0.08822079
9	0x3e396e82	0.18108562
10	0x3db585c9	0.08863408
11	0x3ee22dfe	0.44175714
12	0x3f1a270c	0.6021583
13	0x3f01ba81	0.5067521
14	0xbe013648	-0.12618363
15	0xbf3adcb6	-0.7299303
16	0xbd51bcbb	-0.051205378
17	0x3c5055e5	0.012715791
18	0xbf47145c	-0.7776544
19	0x3f153f8f	0.5830011
20	0xbea8ce38	-0.32969832
21	0x3f2678c5	0.6502803
22	0x3e92b30e	0.28652233
23	0xbe7314fe	-0.23738477
24	0x3f37378b	0.71569127
25	0x3ecaa2fa	0.39577466
26	0x3f30af8f	0.6901788
27	0x3f2f6039	0.685062
28	0xbdfb7dbe	-0.12279843
29	0x3f1816eb	0.5940997
30	0xbe7e9fbc	-0.24865621
31	0x3cce4836	0.025180917

short_term_context_network.fc2.weight f4 [16, 32]
0	0x3df6705a	0.12033148
1	0xbe472866	-0.19449005
2	0x3b9acdfa	0.0047242614
3	0xbacc0507	-0.0015565463
4	0xbe412f98	-0.18865812
5	0xbe2db252	-0.16962555
6	0x3d97b7f6	0.07408135
7	0xbe094420	-0.13404894
8	0xbd821310	-0.06351292
9	0xbd908908	-0.07057387
10	0x3c872218	0.01649575
11	0x3d82ef59	0.06393308
12	0x3de168a2	0.11006285
13	0x3c812f4c	0.015769623
14	0xbc7aacdb	-0.015300001
15	0xbc99a82c	-0.018756948
16	0xbd117ad4	-0.03551753
17	0xbd386efa	-0.04502771
18	0xbdf37467	-0.11887436
19	0xbe3169d4	-0.17325526
20	0x3c602e50	0.013682917
21	0x3e033f8c	0.1281721
22	0xbdde2236	-0.10846369
23	0x3d9fa52e	0.077951774
24	0xbdef3905	-0.116807975
25	0x3db7e71e	0.08979629
26	0x3db75c89	0.089531966
27	0x3d1c88fb	0.038216572
28	0x3da061f2	0.078311816
29	0x3e05e4fa	0.13075629
30	0x3cfaf901	0.030636312
31	0x3c49109a	0.0122720245
32	0xbd0f2d03	-0.034955036
33	0xbdd06e47	-0.10177284
34	0xbdbd7f18	-0.09252757
35	0x3db28e8b	0.08718594
36	0xbc6b8b81	-0.014376522
37	0xbe23cd29	-0.15996231
38	0xbcac8490	-0.021059304
39	0xbd649cd2	-0.055813618
40	0xbb11e014	-0.0022258805
41	0xbe206ac0	-0.15665722
42	0xbdff96a2	-0.12479903
43	0x3d82c49c	0.063851565
44	0x3e3451f2	0.17609385
45	0x3e12049d	0.14259572
46	0xbdd33b79	-0.10314078
47	0x3e06a210	0.1314776
48	0x3e13584c	0.14389151
49	0xbd14bca4	-0.036312714
50	0x3d3ccd6c	0.046094343
51	0x3e2bd403	0.16780095
52	0xbd7d926a	-0.06190721
53	0x3cd0db86	0.025495302
54	0xbc801be1	-0.015638294
55	0x3d99ee38	0.0751614
56	0xbe117619	-0.14205207
57	0x3cf5e21d	0.030015046
58	0xbdf4f3e3	-0.1196058
59	0xbd78540f	-0.06062704
60	0x3dd8abfc	0.105796784
61	0x3da074a6	0.07834749
62	0xbe167f82	-0.14697078
63	0xbcee5fc2	-0.029098395
64	0x3e10ba64	0.14133602
65	0x3d952122	0.0728171
66	0xbecc785c	-0.39935577
67	0xbdb318b4	-0.08744946
68	0xbf05a35c	-0.5220239
69	0xbe81e9ad	-0.25373593
70	0x3c1f25a3	0.009713563
71	0x3ea3af6b	0.3196977
72	0x3e36a575	0.17836554
73	0x3e460d3e	0.19340989
74	0xbea32e18	-0.31871104
75	0xbebd4b9a	-0.36971742
76	0xbf272790	-0.6529474
77	0xbe490378	-0.1963023
78	0xbccde1ed	-0.025132144
79	0x3f335894	0.70057034
80	0xbe602da9	-0.21892418
81	0xbcd2cf66	-0.02573366
82	0x3f3787ce	0.71691597
83	0x3de76381	0.11298276
84	0x3e059404	0.13044745
85	0xbf85db60	-1.0457573
86	0x3de74386	0.11292176
87	0x3dd7f144	0.10544065
88	0xbea1ba03	-0.31587228
89	0xbe403fae	-0.18774292
90	0xbd8e6ab9	-0.069539495
91	0xbe3c2c53	-0.18376283
92	0x3cfe6081	0.031051876
93	0xbe47f7b4	-0.19528085
94	0x3da7f592	0.08201136
95	0x3e750a69	0.23929752
96	0x3cbde252	0.023179207
97	0x3ce439d2	0.027859602
98	0xbc2a0ff5	-0.010379781
99	0x3df48f00	0.119413376
100	0xbcdc5092	-0.026893888
101	0x3dc77f34	0.09741059
102	0x3c19d7d0	0.009389833
103	0xbe251abd	-0.16123481
104	0xb950dc5e	-0.00019918519
105	0x3cadade4	0.021201082
106	0xbd4df3d9	-0.05028138
107	0xbe01b74d	-0.1266758
108	0x3d2bf758	0.041983932
109	0xbe23ed74	-0.1600855
110	0xbddb43f0	-0.107063174
111	0xbdf6e607	-0.12055593
112	0xbd9422c1	-0.07233191
113	0x3d3113ea	0.043231882
114	0x3da50bce	0.08058892
115	0xbe1cb796	-0.15304407
116	0x3dfdb557	0.123881035
117	0x3e064af4	0.1311453
118	0xbdc0c583	-0.09412672
119	0xbda65c17	-0.081230335
120	0xbe35e045	-0.17761333
121	0x3d7c1dcf	0.061551865
122	0xbe593381	-0.21211053
123	0xbdfc8112	-0.12329306
124	0xbe25fae4	-0.16208988
125	0x3d690789	0.05689195
126	0x3e1621e3	0.14661364
127	0xbdb1d3cb	-0.086829744
128	0xbd8993dc	-0.06717655
129	0x3f065277	0.5246958
130	0x3f3abf26	0.7294792
131	0x3deab7ef	0.11460864
132	0x3f5fcf8c	0.87426066
133	0x3ed98858	0.42486835
134	0xbd183896	-0.03716334
135	0xbe024f31	-0.12725522
136	0x3dbbbb3f	0.09166574
137	0x3f2b1746	0.6683239
138	0x3f238021	0.63867384
139	0x3fd496de	1.6608541
140	0x3f056461	0.5210629
141	0x3ed4a43a	0.41531545
142	0xbdfa5ecc	-0.12225112
143	0xbf1f25e9	-0.6216722
144	0x3f19d957	0.6009726
145	0x3e5d08b8	0.21585357
146	0xbeeda20f	-0.46412703
147	0x3e9fdad1	0.3122163
148	0xba7588e1	-0.0009366405
149	0x3f67ee5c	0.9059808
150	0x3e1c96d4	0.15291911
151	0x3e17789a	0.147921
152	0x3f2166ff	0.63047785
153	0x3ec2a35e	0.38015264
154	0x3f058b56	0.52165735
155	0x3f045a42	0.5170022
156	0x3e5486eb	0.20754592
157	0x3f039f2d	0.5141476
158	0x3ce57a83	0.02801252
159	0x3d332d65	0.043744463
160	0x3db7ddc7	0.089778475
161	0xbe110c20	-0.14164782
162	0xbe3fb062	-0.18719628
163	0xba56f5e1	-0.0008200091
164	0xbb85dc77	-0.0040851193
165	0x3de39d0b	0.11113938
166	0xbc3341e7	-0.010941005
167	0xbe53d5ee	-0.20687076
168	0xbdfa28c0	-0.12214804
169	0x3e181cf0	0.14854789
170	0xbd2b8096	-0.041870676
171	0xbe1978ce	-0.1498749
172	0xbe514a4b	-0.20438497
173	0x3dbab534	0.09116593
174	0x3b8b4b65	0.004250931
175	0xbde8e3b7	-0.11371558
176	0xbd88e7f4	-0.066848665
177	0x3d8bfddf	0.068355314
178	0xbd1c3553	-0.03813679
179	0xbd834f9c	-0.06411669
180	0xbb466b3a	-0.0030276314
181	0x3de459c2	0.111499324
182	0xbde6bf1e	-0.112669215
183	0xbe2fd2bb	-0.17170231
184	0x3d9e7b65	0.077383794
185	0x3db2d61f	0.087322466
186	0xbdb3ccbc	-0.08779284
187	0x3daf542a	0.08560975
188	0xbe081ef2	-0.13293055
189	0x3df05256	0.11734454
190	0xbe1b8c49	-0.15190233
191	0xbe1510d6	-0.14557204
192	0xbe0729e6	-0.13199577
193	0xbdf0bf39	-0.11755223
194	0x3e32bef7	0.1745566
195	0x3de97a96	0.114003345
196	0xbe4bbb9c	-0.19895786
197	0xbe620cf8	-0.2207526
198	0xbe342f4b	-0.17596166
199	0x3e57ce90	0.21074891
200	0x3e06415a	0.13110867
201	0xbe3194d5	-0.17341931
202	0x3e2649a3	0.16239028
203	0xbd7a2e5f	-0.06107938
204	0xbe55b794	-0.20870811
205	0xbe1e2588	-0.15444005
206	0xbda699c1	-0.08134795
207	0x3da194f2	0.07889737
208	0x3cff3f8d	0.031158233
209	0xbe9bf660	-0.30461407
210	0x3dd7e20e	0.105411634
211	0xbde18093	-0.11010852
212	0xbac4f714	-0.0015027248
213	0xbdafc4b3	-0.08582439
214	0x3d562b66	0.05228748
215	0xbdb7779d	-0.08958361
216	0x3e0108f0	0.12601066
217	0xbe25f558	-0.16206872
218	0xbdcc8cb0	-0.099877715
219	0xbcba7ee6	-0.022765588
220	0x3cdbed1b	0.02684646
221	0x3c9fbf0e	0.019500282
222	0xbc0ec6cc	-0.008714389
223	0xbdf6b0eb	-0.12045463
224	0xbe1829cb	-0.14859693
225	0x3f520e5b	0.82053155
226	0xbf65f54c	-0.8982742
227	0x3e0f7f1a	0.14013329
228	0xbfe610fb	-1.7973932
229	0xbf4b83f4	-0.7949822
230	0xbe2478de	-0.16061732
231	0xbe357f8f	-0.17724441
232	0xbd9da191	-0.07696832
233	0xbe5d4661	-0.21608879
234	0xbf2c6c3a	-0.6735264
235	0xbffec8fd	-1.9905087
236	0xc0169d73	-2.35336
237	0xc012ab82	-2.291718
238	0x3e21a72e	0.1578643
239	0x3f9f17e3	1.2429165
240	0xbf8f8547	-1.1212548
241	0x3f9fddb4	1.2489533
242	0x3fb7a2ca	1.4346554
243	0xbe4fa919	-0.2027935
244	0x3c3c98fc	0.011511084
245	0xc01f7e94	-2.4921007
246	0xbeef9043	-0.4678975
247	0xbdd68b6d	-0.10475812
248	0xbfe92b03	-1.8216251
249	0x3e9e9d6b	0.30979475
250	0xbf847a0b	-1.0349745
251	0xc0186515	-2.3811696
252	0xbe205dc0	-0.15660763
253	0xbf73256f	-0.94978994
254	0xbe4d602b	-0.20056216
255	0x3f7c1b9d	0.98479635

short_term_context_network.fc2.bias f4 [16]
0	0xbdbc061a	-0.09180851
1	0xbe210d87	-0.15727817
2	0x3da42c0a	0.08016212
3	0x3dc857cb	0.0978237
4	0x3ed34d46	0.41269892
5	0xbc77c216	-0.015121957
6	0x3dabbdb1	0.0838579
7	0xbdb9848c	-0.090584844
8	0xbe0bac15	-0.13639863
9	0x3e28346a	0.16426244
10	0x3e6eaa2f	0.23307107
11	0x3eccc36e	0.3999285
12	0x3db4ef6b	0.08834728
13	0x3ebc7444	0.36807454
14	0x3d3b2648	0.045690805
15	0x3dfa61de	0.12225698

short_term_context_network.fc3.weight f4 [1, 16]
0	0xbe64ebff	-0.2235565
1	0x3e6f131a	0.2334713
2	0xbed40ecd	-0.41417542
3	0xbe0ab5a0	-0.13545847
4	0x3f16193a	0.5863224
5	0xbdec67d5	-0.11543242
6	0xbe9450c7	-0.28967878
7	0xbfb0977c	-1.3796229
8	0xc000e53b	-2.013991
9	0xbe90f400	-0.28311157
10	0x3f631e0c	0.8871772
11	0x3f1b58eb	0.60682553
12	0xbd75887b	-0.05994461
13	0x3f7d7cad	0.99018365
14	0xbe288368	-0.16456378
15	0x3e5304de	0.20607325
