Uni_Research/IRL/Final/Extended/Testing_Suite/model_SC_C0_R0_S10.0.pth (torch, 91237 bytes, 11 tensors)

main_network.lstm.weight_ih_l0 f4 [256, 15]
0.09616427 -0.11284622 0.072644144 -0.084369056 0.06869863 -0.00721354 0.0457321 0.06918008
-0.024653722 -0.06530278 0.009592182 -0.00780164 -0.07750939 -0.0507629 -0.04886082 0.05474306
-0.094043896 -0.033948686 -0.102696516 -0.04402125 0.042296197 0.09113113 0.0565004 -0.035210826
-0.04365121 -0.004615127 -0.062175766 0.12114802 -0.017923705 -0.023021054 -0.03478272 0.035975266
0.042269357 -0.023590999 -0.056745518 0.088557616 0.026361292 -0.08831373 0.07506727 0.046759076
-0.066332474 0.022774607 0.028224394 -0.09065724 -0.02877878 -0.09585981 -0.08958606 -0.05125946
0.06816926 -0.005622897 -0.039739624 -0.050471548 0.012368816 -0.051650066 0.11398382 -0.025563978
-0.112073734 0.10141397 0.02978284 -0.0327595 -0.0058057485 0.07362322 -0.07426403 -0.020027297
0.0026762192 -0.08228323 -0.07066584 -0.11487075 -0.10019526 0.087310895 0.07916423 -0.047352437
0.052436266 0.014393778 0.07514969 -0.0107230935 0.13082421 0.024207331 0.024332963 0.06172732
0.118515186 0.11542589 -0.071783505 -0.087153435 -0.017644709 0.10864327 -0.064468 -0.09111068
0.08354751 -0.11119044 -0.12779388 -0.052619275 -0.002635147 -0.091853015 0.049489357 -0.09744625
-0.018484278 0.020716581 -0.09519139 -0.09979883 -0.109794684 -0.08091158 -0.109522045 0.07080504
0.047350444 -0.11392677 -0.023940312 -0.08173873 -0.011055853 0.06301838 -0.088321015 0.085424215
-0.065985486 0.032969113 0.01182884 0.03993589 -0.006084982 0.041681595 0.036106396 -0.103004985
0.099748105 0.11012648 -0.05441773 0.083523996 0.027394656 -0.075679734 -0.09459293 0.012685906
-0.041318655 0.04590251 0.07612477 -0.07864884 0.07262298 -0.04900684 -0.015908737 0.03333271
-0.058956232 -0.108275086 0.0924727 0.0050273184 0.085988 -0.08209374 0.014288289 0.053235352
0.024166865 0.10136708 0.11298814 -0.07980339 0.12527761 -0.015190059 -0.00067241606 -0.047151286
0.108034454 -0.119269036 -0.019464193 0.018113064 -0.106671534 -0.019258555 -0.022050034 0.033704724
-0.12010794 -0.058853924 -0.041235846 0.029740237 -0.02996128 -0.018969268 -0.030411646 -0.021475693
-0.09825642 0.09510916 -0.068587914 0.03955415 0.017308574 -0.021980464 0.061217435 -0.11097401
-0.06638621 0.05382563 -0.09371874 -0.10038436 0.11463809 0.0656732 0.089660175 0.05305465
0.056880873 -0.033783782 0.08077019 -0.10037583 0.08125248 0.0022745188 -0.052468054 -0.074539
-0.05983603 0.107805006 -0.07649092 -0.07899426 0.02604605 -0.07227864 -0.083865836 -0.06149782
-0.08564447 0.03831298 0.089019634 -0.0015111621 0.0168644 -0.019856429 0.057471994 0.060787734
0.031424735 -0.11359555 -0.061940532 -0.088677116 0.11572401 -0.11688888 0.032102656 -0.0050609997
0.10338217 -0.12391895 0.059147768 0.063538924 -0.03208404 -0.103838824 -0.0351479 0.06408818
-0.100855075 -0.081885785 0.08558056 0.026213218 -0.009631754 0.05264793 -0.07844845 0.114227585
-0.06282108 -0.05459816 -0.07376481 -0.05684547 -0.015681356 -0.08391019 0.10369276 -0.041186508
-0.022841929 -0.10638945 -0.08722447 -0.0006884345 -0.12092093 -0.106026754 -0.09178395 0.06840573
-0.020474419 -0.088371895 -0.11754484 0.024025073 0.010667437 -0.03775089 0.08541516 0.03035125
00000000: c6f1 c43d eb1b e7bd 74c6 943d afc9 acbd
00000010: deb1 8c3d 8f5f ecbb 9551 3b3d 49ae 8d3d
00000020: 9af6 c9bc 77bd 85bd 8728 1d3c e6a4 ffbb
00000030: 3ebd 9ebd c2ec 4fbd 4822 48bd 423a 603d
00000040: 169a c0bd c70d 0bbd 8d52 d2bd a04f 34bd
00000050: c73e 2d3d f5a2 ba3d f76c 673d 3a39 10bd
00000060: 9ccb 32bd 7e3a 97bb 04ac 7ebd 741c f83d
00000070: bcd4 92bc a696 bcbc 5378 0ebd cd5a 133d
00000080: a222 2d3d e941 c1bc fd6d 68bd b25d b53d
00000090: a3f3 d73c d4dd b4bd debc 993d 7286 3f3d
000000a0: 52d9 87bd d091 ba3c d836 e73c 81aa b9bd
000000b0: 7ac1 ebbc 2652 c4bd e578 b7bd 71f5 51bd
000000c0: 539c 8b3d 4740 b8bb 04c6 22bd 41bb 4ebd
000000d0: 93a6 4a3c 058f 53bd 5970 e93d 8c6b d1bc
000000e0: ea86 e5bd 21b2 cf3d 24fb f33c d32e 06bd
000000f0: 263e bebb c5c7 963d bd17 98bd 4910 a4bc
00000100: 8263 2f3b 1c84 a8bd 40b9 90bd 5b41 ebbd
00000110: 2c33 cdbd 0ed0 b23d db20 a23d a1f4 41bd
00000120: 69c7 563d e1d3 6b3c 15e8 993d eaaf 2fbc
00000130: c8f6 053e 744e c63c ec55 c73c c9d5 7c3d
00000140: 17b8 f23d 6964 ec3d 3b03 93bd 807d b2bd
00000150: a38b 90bc 5d80 de3d cc07 84bd 3c98 babd
00000160: f51a ab3d d0b7 e3bd 66dc 02be 4f87 57bd
00000170: 6eb2 2cbb 6f1d bcbd 5ab5 4a3d e691 c7bd
00000180: 576c 97bc d2b5 a93c b4f3 c2bd 5463 ccbd
00000190: 09dc e0bd f8b4 a5bd 184d e0bd 3c02 913d
000001a0: 8af2 413d 7052 e9bd 791e c4bc a366 a7bd
000001b0: 9c23 35bc c80f 813d a6e1 b4bd e4f2 ae3d
000001c0: 6623 87bd 9f0a 073d c0cd 413c d193 233d
000001d0: 8764 c7bb 52ba 2a3d 4de4 133d 47f4 d2bd
000001e0: bc48 cc3d fe89 e13d 20e5 5ebd a10e ab3d
000001f0: c26a e03c fafd 9abd f0b9 c1bd 8cd8 4f3c
00000200: c03d 29bd 4504 3c3d 4ee7 9b3d a512 a1bd
00000210: 5bbb 943d 65bb 48bd 0a53 82bc e187 083d
00000220: 177c 71bd 54bf ddbd 5462 bd3d 34bc a43b
00000230: 7a1a b03d c320 a8bd 6d19 6a3c 500d 5a3d
00000240: 97f9 c53c 8b99 cf3d 5366 e73d f66f a3bd
00000250: c648 003e badf 78bc 1445 30ba b521 41bd
00000260: 2b41 dd3d 5343 f4bd 5f73 9fbc d961 943c
00000270: 9b76 dabd 1ec4 9dbc 46a2 b4bc f70d 0a3d
00000280: 27fb f5bd d010 71bd ebe6 28bd cca1 f33c
00000290: 5c71 f5bc 7065 9bbc d821 f9bc cbed afbc
000002a0: a93a c9bd 97c8 c23d d277 8cbd 8803 223d
000002b0: b6ca 8d3c 6010 b4bc 22bf 7a3d 5746 e3bd
000002c0: 7ef5 87bd 4478 5c3d 9cef bfbd 5196 cdbd
000002d0: 60c7 ea3d ac7f 863d c19f b73d d54f 593d
000002e0: ebfb 683d dd60 0abd d76a a53d d891 cdbd
000002f0: b367 a63d 1810 153b bee8 56bd e7a7 98bd
00000300: a016 75bd dfc8 dc3d 45a7 9cbd bec7 a1bd
00000310: 875e d53c d306 94bd dac1 abbd 23e5 7bbd
00000320: 5e66 afbd 12ee 1c3d ed4f b63d 3012 c6ba
00000330: 3627 8a3c f3a9 a2bc c167 6b3d 8ffc 783d
00000340: 39b7 003d c9a4 e8bd 5bb5 7dbd 599c b5bd
00000350: b600 ed3d 7063 efbd 137e 033d bed6 a5bb
00000360: 08ba d33d 38c9 fdbd ee44 723d b220 823d
00000370: 8e6a 03bd 73a9 d4bd 3ff7 0fbd aa40 833d
00000380: 1b8d cebd bcb3 a7bd dc44 af3d 1abd d63c
00000390: 81ce 1dbc 5ba5 573d 95a9 a0bd 27f0 e93d
000003a0: 57a8 80bd 52a2 5fbd 0112 97bd ccd6 68bd
000003b0: 3076 80bc 1bd9 abbd df5c d43d 2fb3 28bd
000003c0: ff1e bbbc b6e2 d9bd bea2 b2bd 0f78 34ba
000003d0: 64a5 f7bd 8e24 d9bd 39f9 bbbd 4e18 8c3d
000003e0: f8b9 a7bc 53fc b4bd 59bb f0bd 3bd0 c43c
000003f0: 79c6 2e3c ada0 1abd 25ee ae3d 2fa3 f83c

main_network.lstm.weight_hh_l0 f4 [256, 64]
0.022852302 -0.044481568 -0.045897406 0.093963146 0.0106688775 0.062510364 -0.10182108 0.036836978
0.07436354 -0.06665899 -0.0003479608 -0.030567119 -0.006040922 0.028508697 -0.100201786 -0.08485408
-0.03830973 -0.013541544 0.091539755 0.06059323 -0.079006486 0.033328712 0.06757928 0.09335745
-0.05218834 0.102915294 0.11698578 -0.048697945 0.028142247 0.08295874 0.03802999 0.06974145
-0.011179926 -0.016407227 -0.08250974 0.061448354 0.101973556 -0.07178731 0.030115364 -0.077927716
-0.048163816 0.061638795 -0.0038294601 -0.10660957 -0.064973205 -0.1047641 0.094314866 -0.022468496
0.12696038 -0.1050906 -0.035357527 0.052428227 -0.08441734 -0.021270962 -0.102667004 0.08973616
0.08098775 0.009410768 0.12055189 -0.08088679 0.010416188 0.116104536 0.05379748 0.050350126
-0.014414226 -0.10090222 -0.10232275 -0.055095665 -0.07325701 -0.03756196 0.112338595 0.10579624
0.0883695 -0.08777738 0.12049852 0.07344974 -0.11348003 0.049318407 0.031912114 0.05613598
-0.06310936 0.054793272 -0.022671267 0.06447151 0.026524082 0.007918945 0.022626836 -0.08304761
-0.12524855 -0.071442135 0.00014451676 -0.12264693 0.036961123 -0.12772425 -0.12124486 -0.0351442
0.026518641 -0.0047084894 -0.09639826 0.061476003 0.09095556 -0.0874956 0.06709256 0.077504426
0.027892072 0.0579703 -0.109398276 0.07683438 -0.01213308 -0.09703799 0.09550681 -0.0009897292
0.018064568 -0.11089508 -0.12199461 -0.02238037 0.10335444 -0.09022132 0.09101227 -0.0034391526
-0.039618395 -0.08166273 -0.0713034 -0.083513364 -0.07264279 -0.06243295 0.022578033 -0.099331364
0.061199054 -0.10756833 -0.093350895 0.008804355 0.07115872 0.054737948 -0.0046971277 0.0958597
-0.05783144 0.03633058 -0.046318702 -0.06623714 -0.07272931 0.08561755 -0.07128246 -0.05717642
-0.091896534 0.09806079 -0.010175319 0.1067897 -0.086674474 -0.014235716 -0.12095611 0.04846134
-0.102059804 0.044339534 -0.106748566 0.035606027 -0.1184234 0.03829619 -0.08507598 -0.089141935
-0.12659572 -0.11047188 0.07612342 0.08396427 -0.107895546 -0.06707249 0.08480489 0.08988215
-0.010131118 0.07521079 -0.06014005 0.019888852 0.06923717 0.08871813 0.0123954825 -0.01835839
-0.02634562 -0.09577591 0.026988506 0.084955856 0.041813124 -0.06684049 -0.09847172 -0.09351775
-0.007873858 -0.10520402 0.10555323 -0.020718303 -0.03491318 0.093497634 -0.033177316 -0.050239276
0.013583207 0.081455514 -0.04998412 -0.12456374 0.08505285 0.055111304 0.08191594 0.12348055
-0.019380838 0.003655659 0.04871309 0.12027679 0.072430894 0.080546305 -0.042785928 -0.032097902
-0.027621359 -0.06825574 0.09316668 0.0300493 -0.0387014 0.014333098 -0.035406765 -0.03411516
-0.03984523 0.11583214 -0.076179184 0.12351649 0.05499375 -0.02353304 0.061261542 0.026415605
0.028326472 0.0016032823 0.04427706 0.039185897 0.07718594 0.055219725 -0.04189656 -0.104138486
-0.027397275 -0.05117993 -0.07699624 -0.06973472 0.040561303 0.046651915 0.03233916 0.06535006
-0.025101533 0.07599018 0.060854446 0.055630796 0.0024472072 -0.096117705 -0.07389956 -0.04262219
0.024520887 0.056911252 -0.027434755 0.09397217 -0.0142386025 -0.080498956 -0.052863054 -0.06920633
00000000: c034 bb3c 4e32 36bd ebfe 3bbd c06f c03d
00000010: 84cc 2e3c 6f05 803d 9287 d0bd 5fe2 163d
00000020: e94b 983d 8284 88bd 826e b6b9 e567 fabc
00000030: edf2 c5bb 128b e93c 9836 cdbd fac7 adbd
00000040: aaea 1cbd 5add 5dbc 3279 bb3d 9b30 783d
00000050: 27ce a1bd b083 083d 0167 8a3d 3132 bf3d
00000060: 71c3 55bd 41c5 d23d 3e96 ef3d 7f77 47bd
00000070: 928a e63c 46e6 a93d 56c5 1b3d 9bd4 8e3d
00000080: 022c 37bc 7368 86bc defa a8bd 45b1 7b3d
00000090: 83d7 d03d 3a05 93bd 7fb4 f63c 9198 9fbd
000000a0: 6c47 45bd f678 7c3d aef7 7abb 1e56 dabd
000000b0: ac10 85bd 8f8e d6bd 2728 c13d da0f b8bc
000000c0: e701 023e be39 d7bd 0ed3 10bd fbbe 563d
000000d0: 00e3 acbd 7140 aebc 1443 d2bd 98c7 b73d
000000e0: e8dc a53d 9f2f 1a3c e9e3 f63d f9a7 a5bd
000000f0: a9a8 2a3c 37c8 ed3d bf5a 5c3d ef3b 4e3d
00000100: a529 6cbc d3a5 cebd 978e d1bd feab 61bd
00000110: c507 96bd 92da 19bd c711 e63d b3ab d83d
00000120: 12fb b43d a1c4 b3bd eec7 f63d d16c 963d
00000130: 3868 e8bd 1902 4a3d 47b6 023d d7ee 653d
00000140: 7b3f 81bd e96e 603d 18b9 b9bc a409 843d
00000150: 0849 d93c 76be 013c ea5b b93c de14 aabd
00000160: 2841 00be 4150 92bd 6c89 1739 502e fbbd
00000170: 8c64 173d 25ca 02be 3a4f f8bd 5df3 0fbd
00000180: 9f3d d93c ac49 9abb 736c c5bd 43ce 7b3d
00000190: e946 ba3d e530 b3bd d367 893d a4ba 9e3d
000001a0: ea7d e43c 4472 6d3d 340c e0bd 585b 9d3d
000001b0: d3c9 46bc dbbb c6bd 1399 c33d cdb9 81ba
000001c0: 25fc 933c f61c e3bd 4fd8 f9bd 0a57 b7bc
000001d0: 7eab d33d f5c5 b8bd a464 ba3d 6863 61bb
000001e0: e646 22bd ca3e a7bd 8407 92bd 0e09 abbd
000001f0: bec5 94bd b1b9 7fbd 91f5 b83c 3e6e cbbd
00000200: dcab 7a3d c94c dcbd c12e bfbd 2440 103c
00000210: aabb 913d e634 603d 5dea 99bb 1752 c43d
00000220: a9e0 6cbd 60cf 143d aeb8 3dbd 56a7 87bd
00000230: 1bf3 94bd 4158 af3d 8afc 91bd d231 6abd
00000240: 4034 bcbd 18d4 c83d 62b6 26bc 8fb4 da3d
00000250: 6382 b1bd ec3c 69bc d6b7 f7bd 667f 463d
00000260: bb04 d1bd 5f9d 353d fe9e dabd a0d7 113d
00000270: f887 f2bd 77dc 1c3d 513c aebd 0c90 b6bd
00000280: 4fa2 01be 153f e2bd 98e6 9b3d 76f5 ab3d
00000290: 57f8 dcbd 4d5d 89bd 30ae ad3d 2214 b83d
000002a0: fdfc 25bc 1d08 9a3d 6a55 76bd f2ed a23c
000002b0: 38cc 8d3d dab1 b53d 6c16 4b3c 5664 96bc
000002c0: c5d2 d7bc 2926 c4bd 0017 dd3c 56fd ad3d
000002d0: 3d44 2b3d abe3 88bd 8bab c9bd 3c86 bfbd
000002e0: 5b01 01bc 3575 d7bd 4b2c d83d 6eb9 a9bc
000002f0: 1f01 0fbd b07b bf3d f0e4 07bd b3c7 4dbd
00000300: 198c 5e3c 26d2 a63d 26bc 4cbd 461b ffbd
00000310: 3030 ae3d 64bc 613d 8bc3 a73d 5fe3 fc3d
00000320: 90c4 9ebc c893 6f3b 6187 473d ad53 f63d
00000330: a656 943d 76f5 a43d 4c40 2fbd 1779 03bd
00000340: 3046 e2bc aac9 8bbd 2cce be3d f329 f63c
00000350: 5c85 1ebd 5fd5 6a3c af06 11bd 57bc 0bbd
00000360: c034 23bd 6739 ed3d d503 9cbd 37f6 fc3d
00000370: 2041 613d 5dc8 c0bc 62ed 7a3d 8a65 d83c
00000380: eb0c e83c 3a25 d23a dd5b 353d 6481 203d
00000390: aa13 9e3d 142e 623d ba9b 2bbd 8f46 d5bd
000003a0: 4070 e0bc 0ca2 51bd 34b0 9dbd 14d1 8ebd
000003b0: 9c23 263d 1416 3f3d 1176 043d 41d6 853d
000003c0: bba1 cdbc bda0 9b3d 8342 793d 1edd 633d
000003d0: 5361 203b 5cd9 c4bd a758 97bd 9b94 2ebd
000003e0: 07e0 c83c c61b 693d dabe e0bc 7b74 c03d
000003f0: 0749 69bc a3dc a4bd ee86 58bd 0cbc 8dbd

main_network.lstm.bias_ih_l0 f4 [256]
0.0879372 0.04216286 -0.09092713 -0.041538134 -0.06832813 -0.07239907 -0.018582972 0.059632465
0.10741949 -6.7032684e-05 -0.103635244 -0.0927384 0.0982811 0.1225393 -0.02092466 -0.009995351
-0.021583823 0.09571057 0.03832497 0.014632935 -0.12268046 0.053641815 0.11341873 -0.06189512
-0.1180226 0.013391971 0.0030223664 0.0019794654 -0.10761849 0.04366694 0.031322572 0.021597156
-0.103957064 -0.06512111 -0.11376282 0.011985252 9.737474e-05 0.10362108 0.03746158 -0.10930405
-0.07458073 -0.08021847 -0.07033611 0.11987858 -0.04679508 -0.027629605 0.014674357 -0.07654805
-0.12328336 0.02248217 0.054892022 0.036076423 -0.10036097 -0.017509181 -0.0881165 0.006252207
-0.065650016 0.09977181 0.0648281 -0.082090795 -0.1142062 -0.0055775996 0.087743245 0.0362999
0.05645908 -0.003587552 0.10127931 0.0379893 -0.11015076 -0.10033119 -0.10219276 0.08943879
-0.11772867 0.023579773 -0.07848683 -0.013211143 -0.05747637 0.080133006 0.009188303 -0.022853328
-0.077337615 -0.043159593 -0.10317202 0.07925391 -0.07994277 -0.0055794497 -0.020899866 0.06775075
-0.040735517 0.034975193 0.014861778 0.00929538 0.026294753 0.11996679 0.045115322 0.0691124
-0.013107234 -0.014649767 -0.048165735 -0.08854744 -0.087684244 0.06041771 -0.019081099 0.008812254
0.09781305 0.023593735 0.064944826 0.035189647 0.036752366 -0.05459842 -0.100107685 0.024585249
-0.0718766 -0.009097105 0.061008982 -0.09451713 0.034918517 0.113350414 -0.109336115 0.08543717
0.07688769 0.047101025 0.05967728 0.021235203 0.025692696 0.11923545 -0.07049848 -0.0040275604
0.011951186 -0.04600715 0.025995744 -0.08181667 -0.040478956 0.0973351 -0.057713814 -0.034857437
0.082550794 0.10918823 -0.0846444 0.042588748 0.092236 -0.09644506 -0.007599683 -0.13224423
0.11323726 -0.095136344 -0.114592284 -0.06884826 -0.060073216 0.029616823 0.096722975 0.10254246
0.112841874 0.09994149 0.06714071 0.069473244 -0.019203816 -0.09897298 0.04938115 -0.033280317
-0.029086653 -0.05707543 -0.0011649521 -0.09296068 0.008209219 0.10302641 0.08359863 0.059779562
-0.048998807 -0.061170638 -0.06439936 -0.06893727 0.07564974 -0.12619653 0.06049555 -0.07980606
-0.08595652 0.07593394 0.055485666 0.0021886302 0.007990707 -0.061122093 0.008028073 0.12087107
-0.018292647 0.11416487 -0.045400362 0.007424158 -0.007448775 0.013966113 0.10948334 -0.014644566
0.105300836 -0.027911289 -0.020263415 -0.09983541 -0.06433711 -0.016791949 -0.12784253 -0.113165766
-0.05626212 -0.004706174 -0.022939159 0.10684944 0.052456453 -0.07974778 -0.11870672 0.06114935
0.034753997 0.12552014 0.062183127 -0.03219298 0.051635094 0.079687044 -0.07696123 0.066154964
0.095148005 0.059434026 0.03240908 0.0023230957 -0.06763334 -0.09358046 -0.11665647 -0.10043378
-0.10087245 -0.03190418 -0.005204309 0.038735867 -0.037409183 -0.03027524 -0.01224762 -0.115673
0.045891937 0.046348874 -0.045809947 0.04899446 -0.0360341 0.12311972 -0.04711456 0.03249323
0.0017887907 0.048830993 0.01156056 0.10614588 -0.046281733 -0.09650269 -0.08868879 -0.1080017
-0.09626661 -0.033931445 -0.07429155 -0.07910923 0.10696905 -0.0981263 -0.13138251 0.119579755
00000000: 6b18 b43d f7b2 2c3d 0138 babd e423 2abd
00000010: 9eef 8bbd f745 94bd 513b 98bc 2c41 743d
00000020: c0fe db3d e693 8cb8 b73e d4bd a1ed bdbd
00000030: 9a47 c93d e2f5 fa3d 316a abbc 8ac3 23bc
00000040: 8fd0 b0bc e703 c43d a5fa 1c3d fabe 6f3c
00000050: e53f fbbd 85b7 5b3d 1448 e83d bd85 7dbd
00000060: d5b5 f1bd ff69 5b3c e512 463b ebb9 013b
00000070: 1567 dcbd 1bdc 323d 194c 003d 85ec b03c
00000080: 71e7 d4bd 375e 85bd 7bfc e8bd ca5d 443c
00000090: aa35 cc38 4a37 d43d 5071 193d cdda dfbd
000000a0: c8bd 98bd 9549 a4bd 610c 90bd e782 f53d
000000b0: 33ac 3fbd 7b57 e2bc b76c 703c 39c5 9cbd
000000c0: fc7b fcbd 872c b83c 75d6 603d dfc4 133d
000000d0: 0d8a cdbd 6a6f 8fbc 6c76 b4bd 50df cc3b
000000e0: 8473 86bd 2a55 cc3d 98c4 843d 381f a8bd
000000f0: f1e4 e9bd 4cc4 b6bb bbb2 b33d 34af 143d
00000100: a341 673d 231d 6bbb 876b cf3d ab9a 1b3d
00000110: b996 e1bd 707a cdbd 704a d1bd af2b b73d
00000120: bb1b f1bd 5e2a c13c b4bd a0bd 8d73 58bc
00000130: 586c 6bbd c61c a43d 898a 163c e736 bbbc
00000140: 2f63 9ebd 1dc8 30bd da4b d3bd e04f a23d
00000150: 09b9 a3bd d1d3 b6bb 3236 abbc e8c0 8a3d
00000160: 49da 26bd 2642 0f3d d17e 733c a64b 183c
00000170: 1868 d73c 26b1 f53d d8ca 383d cd8a 8d3d
00000180: b9bf 56bc 9405 70bc 6f49 45bd 5c58 b5bd
00000190: cc93 b3bd 9078 773d f74f 9cbc 4661 103c
000001a0: 3552 c83d a647 c13c cb01 853d 0523 103d
000001b0: a689 163d 98a2 5fbd 4205 cdbd 0167 c93c
000001c0: 0a34 93bd 060c 15bc 8ee4 793d 3292 c1bd
000001d0: b806 0f3d 4324 e83d 9deb dfbd aff9 ae3d
000001e0: 4b77 9d3d 01ed 403d 2a70 743d 73f5 ad3c
000001f0: 7d79 d23c b731 f43d 8261 90bd a0f9 83bb
00000200: e8ce 433c fe71 3cbd 07f5 d43c 808f a7bd
00000210: 43cd 25bd a057 c73d 5265 6cbd acc6 0ebd
00000220: 6410 a93d 149e df3d 0b5a adbd 8a71 2e3d
00000230: 3ae6 bc3d fd84 c5bd c306 f9bb 086b 07be
00000240: f0e8 e73d d8d6 c2bd 5caf eabd 5100 8dbd
00000250: 550f 76bd fb9e f23c b216 c63d c801 d23d
00000260: a419 e73d 20ae cc3d 1281 893d fd47 8e3d
00000270: 5251 9dbc 59b2 cabd e443 4a3d f150 08bd
00000280: 2247 eebc edc7 69bd 4eb1 98ba 2b62 bebd
00000290: f67f 063c 83ff d23d c235 ab3d 6adb 743d
000002a0: f9b2 48bd 108e 7abd d0e3 83bd fc2e 8dbd
000002b0: 40ee 9a3d aa39 01be 2fca 773d 5c71 a3bd
000002c0: f909 b0bd 4183 9b3d f044 633d 1f6f 0f3b
000002d0: 74eb 023c 295b 7abd 2e88 033c 408b f73d
000002e0: 76da 95bc 45cf e93d bbf5 39bd 5a46 f33b
000002f0: db14 f4bb 20d2 643c cd38 e03d c3ef 6fbc
00000300: f7a7 d73d 37a6 e4bc 76ff a5bc 8276 ccbd
00000310: 2dc3 83bd 458f 89bc 27e9 02be 74c3 e7bd
00000320: 1c73 66bd 4036 9abb e7ea bbbc e1d3 da3d
00000330: 94dc 563d ce52 a3bd 821c f3bd be77 7a3d
00000340: 355a 0e3d 5a88 003e bcb3 7e3d c9dc 03bd
00000350: 527f 533d f632 a33d d99d 9dbd 417c 873d
00000360: f5dc c23d 1871 733d 62bf 043d 143f 183b
00000370: 5983 8abd 1da7 bfbd 96e9 eebd 3ab0 cdbd
00000380: 3796 cebd f5ad 02bd e888 aabb 80a9 1e3d
00000390: 5f3a 19bd c803 f8bc 3eaa 48bc f7e5 ecbd
000003a0: 2ff9 3b3d 51d8 3d3d 36a3 3bbd 6aae 483d
000003b0: 7e98 13bd 3126 fc3d 32fb 40bd 9f17 053d
000003c0: db75 ea3a 0203 483d 8168 3d3c 0363 d93d
000003d0: ea91 3dbd 34a3 c5bd 78a2 b5bd ff2f ddbd
000003e0: 6e27 c5bd b3fb 0abd 2b26 98bd 0504 a2bd
000003f0: 9712 db3d 71f6 c8bd 2389 06be 3be6 f43d

main_network.lstm.bias_hh_l0 f4 [256]
-0.0815494 0.007299899 0.094994076 -0.0670001 -0.07823081 -0.073964275 0.10591704 -0.012738711
-0.026674816 -0.04597165 -0.088679425 0.04573005 0.077980265 0.060485948 -0.09217005 -0.09887591
-0.07877269 -0.064100124 0.037013058 -0.011270052 0.08938097 0.053532872 -0.01448028 0.019957539
0.06166566 0.078400865 -0.037187804 0.029200831 0.09302502 -0.055207156 -0.07000503 -0.047943894
0.0029027548 0.008592777 -0.027086906 0.1063499 -0.06343561 0.08580725 -0.033537935 -0.01865864
0.10810126 -0.11331176 -0.064190626 -0.09695036 -0.03929409 -0.11149526 -0.10336743 -0.0932653
-0.090978235 -0.011560578 0.05744724 -0.107946634 0.0032607785 0.027610403 -0.084552646 -0.047596674
0.058976777 0.064729065 0.0012034618 -0.022088729 -0.04847112 0.033158433 0.095791034 0.12135469
0.054311372 -0.07383994 0.09902818 0.12102007 -0.049285237 0.012406929 0.03811924 -0.05900232
-0.10668563 0.10555248 -0.019201513 -0.12304166 -0.02868951 0.08260557 -0.10599363 0.07370177
-0.0023016464 0.058323618 -0.048870858 0.03344341 -0.07865804 0.054854445 0.002835867 0.08862145
0.09236582 0.0032433805 0.11097006 0.020236457 0.09037808 -0.060979016 0.011229348 -0.050212618
0.068466865 -0.069681026 0.023225114 0.05251615 -0.10023245 -0.10549591 -0.021261735 0.034109507
-0.11935655 -0.05223351 0.016842283 0.11012918 0.017777286 -0.012999591 -0.036563754 0.044094093
0.108407736 -0.052883033 0.09637363 0.03202767 -0.11880106 -0.042177383 0.009062986 -0.08674238
0.01335443 -0.014031809 0.10237344 0.11025672 -0.08916931 0.103254445 -0.020824328 -0.090787016
-0.091526486 -0.02769256 -0.06322529 0.024411209 0.037624974 0.03772978 0.10133842 0.062287416
0.08623204 0.08209658 0.063885115 -0.08360825 0.110761166 -0.11489614 -0.09658825 0.070103146
-0.066159025 0.06466873 -0.011694406 -0.008763067 0.100407414 -0.0032214602 -0.099727586 0.12095167
-0.056596402 -0.096187815 -0.09932083 -0.057171103 0.11152745 0.11217608 -0.0884996 -0.044228498
-0.011734863 -0.08794091 -0.07240347 0.12486349 0.12391475 0.05564515 -0.10374257 -0.04286544
0.0013526374 0.12791307 -0.093687 0.03351195 0.11009796 -0.07989999 -0.090051375 -0.035377212
0.009275813 -0.095753826 -0.109879985 0.039230227 0.024526242 -0.05595697 -0.10009903 0.01635947
0.025622819 -0.032228228 -0.04244141 0.03895235 0.08232607 0.09561785 -0.06561852 -0.01578297
0.10192313 -0.082765184 0.019287486 -0.107610434 -0.11081452 -0.0933416 -0.10931071 -0.05297904
0.04053594 0.046177253 0.057314694 0.051493354 -0.019202776 -0.11054969 0.11525063 0.03382932
0.08163651 0.123426914 -0.013974641 -0.10417391 -0.09039948 -0.1090405 0.0037778676 -0.045632135
-0.039456144 0.02727576 0.06766551 0.07134447 0.008076184 0.051542055 0.051694915 -0.10619041
0.10303215 -0.010504326 -0.11110254 0.069543116 -0.1250412 0.02855152 0.021179603 0.00044034395
-0.10629018 0.01942512 -0.119031824 0.0899126 0.101448305 0.112563916 -0.012867164 0.0034142265
0.026319215 -0.0776131 -0.09811327 0.1063466 0.02868863 -0.07093069 -0.05147553 0.06755816
-0.030016227 0.010161299 0.109434225 -0.061063286 0.08097605 0.03324091 -0.036242805 -0.120584495
00000000: 5f03 a7bd fe33 ef3b 418c c23d 5937 89bd
00000010: 7a37 a0bd 957a 97bd 08eb d83d 07b6 50bc
00000020: 2585 dabc c54c 3cbd 8f9d b5bd 6f4f 3b3d
00000030: 1eb4 9f3d 1dc0 773d a7c3 bcbd 747f cabd
00000040: 9353 a1bd ed46 83bd 019b 173d 06a6 38bc
00000050: 5f0d b73d 4945 5b3d b23e 6dbc fe7d a33c
00000060: 2295 7c3d a290 a03d 3d52 18bd 9536 ef3c
00000070: e783 be3d e620 62bd cc5e 8fbd d160 44bd
00000080: 253c 3e3b b8c8 0c3c 5ce5 ddbc facd d93d
00000090: 87ea 81bd b6bb af3d 135f 09bd 01da 98bc
000000a0: 3264 dd3d ff0f e8bd 6076 83bd e98d c6bd
000000b0: d7f2 20bd a057 e4bd 4eb2 d3bd e101 bfbd
000000c0: cc52 babd 9468 3dbc cc4d 6b3d 2013 ddbd
000000d0: c9b2 553b 362f e23c f029 adbd bbf4 42bd
000000e0: a291 713d ac90 843d 7abd 9d3a 6cf3 b4bc
000000f0: a789 46bd 23d1 073d 172e c43d cf88 f83d
00000100: 9a75 5e3d 6539 97bd 49cf ca3d 5fd9 f73d
00000110: 51df 49bd 6f46 4b3c ec22 1c3d 6bac 71bd
00000120: ff7d dabd e62b d83d 7e4c 9dbc 44fd fbbd
00000130: 4306 ebbc 1c2d a93d 3013 d9bd f4f0 963d
00000140: 38d7 16bb bfe4 6e3d cf2c 48bd f5fb 083d
00000150: 7717 a1bd 0eaf 603d f4d9 393b 2a7f b53d
00000160: 4b2a bd3d e58e 543b 4544 e33d edc6 a53c
00000170: 2518 b93d 22c5 79bd 4dfb 373c bfab 4dbd
00000180: 5b38 8c3d edb4 8ebd 9842 be3c 2d1b 573d
00000190: ac46 cdbd 3d0e d8bd 172d aebc 69b6 0b3d
000001a0: 3571 f4bd cef2 55bd d4f8 893c 688b e13d
000001b0: aca1 913c 3dfc 54bc e0c3 15bd 029c 343d
000001c0: e004 de3d e19b 58bd 8a5f c53d 722f 033d
000001d0: f84d f3bd 31c2 2cbd eb7c 143c fda5 b1bd
000001e0: 8acc 5a3c ace5 65bc 2ba9 d13d 46ce e13d
000001f0: 669e b6bd 1177 d33d c897 aabc 8bee b9bd
00000200: 3d72 bbbd 82db e2bc 437c 81bd 04fa c73c
00000210: a51c 1a3d 8b8a 1a3d 848a cf3d 1721 7f3d
00000220: 6c9a b03d 4022 a83d 33d6 823d cd3a abbd
00000230: c0d6 e23d ab4e ebbd 0fd0 c5bd 3d92 8f3d
00000240: 627e 87bd 0a71 843d e599 3fbc f892 0fbc
00000250: 67a2 cd3d 221f 53bb fa3d ccbd 82b5 f73d
00000260: a1d1 67bd 1efe c4bd b868 cbbd 3f2c 6abd
00000270: 8168 e43d 93bc e53d 473f b5bd f128 35bd
00000280: 9543 40bc 5d1a b4bd 4548 94bd 6eb8 ff3d
00000290: 04c7 fd3d 2bec 633d fc76 d4bd ac93 2fbd
000002a0: fb4a b13a a5fb 023e f8de bfbd d443 093d
000002b0: 0a7b e13d 9ba2 a3bd db6c b8bd b2e7 10bd
000002c0: 94f9 173c 951a c4bd c208 e1bd e0af 203d
000002d0: 42eb c83c 2333 65bd b800 cdbd 4c04 863c
000002e0: f2e6 d13c bf01 04bd 0bd7 2dbd 808c 1f3d
000002f0: 929a a83d 4bd3 c33d 0163 86bd 494b 81bc
00000300: 13bd d03d cb80 a9bd ca00 9e3c dc62 dcbd
00000310: b9f2 e2bd e129 bfbd 4bde dfbd 8d00 59bd
00000320: 0409 263d 5c24 3d3d d0c2 6a3d b2ea 523d
00000330: 244f 9dbc e067 e2bd 8608 ec3d 9d90 0a3d
00000340: 0b31 a73d 40c7 fc3d e5f5 64bc 2259 d5bd
00000350: 5d23 b9bd a050 dfbd 1a96 773b c3e8 3abd
00000360: c49c 21bd 6a71 df3c 3794 8a3d 0d1d 923d
00000370: f951 043c c31d 533d 0cbe 533d 5c7a d9bd
00000380: 8502 d33d 561a 2cbc ba89 e3bd 9f6c 8e3d
00000390: cd0a 00be e1e4 e93c d980 ad3c f7dd e639
000003a0: aaae d9bd 6e21 9f3c f5c6 f3bd 1924 b83d
000003b0: 21c4 cf3d e987 e63d ccd0 52bc 37c1 5f3b
000003c0: 659b d73c 9ef3 9ebd 9cef c8bd 3fcc d93d
000003d0: 6b04 eb3c 1c44 91bd 01d8 52bd ef5b 8a3d
000003e0: 97e4 f5bc 947b 263c 0d1f e03d 7f1d 7abd
000003f0: c5d6 a53d 9f27 083d 5673 14bd 01f5 f6bd

main_network.fc.weight f4 [3, 64]
0.051944695 0.0824421 -0.03731402 0.005506577 -0.12446453 -0.071264885 0.10091112 0.12539056
-0.10541465 -0.12094977 -0.05826087 -0.045936786 -0.0539865 0.05384312 -0.09951167 0.0034570387
0.11046328 0.07004957 -0.034769874 0.039487403 0.082760476 0.13168292 -0.02932134 0.06607298
-0.024204696 -0.050573565 0.08456472 -0.034710675 0.10124563 0.006824681 0.024272699 -0.09094771
-0.012799799 -0.10855981 -0.113819115 -0.061165337 0.0093792 0.1133787 0.0670159 0.080824465
-0.09479115 -0.0065686745 -0.10532514 -0.10789028 0.100407384 0.049686387 -0.036854096 0.003321871
0.04397866 0.042023078 -0.039990097 0.09574589 0.03624973 0.12142461 0.055578157 -0.11021956
-0.017289946 -0.06362834 -0.009993288 0.08666301 -0.028217938 -0.013561934 -0.047661513 -0.044281807
-0.01156101 0.04280865 -0.07596684 0.04913523 0.05232962 0.106467284 -0.097928084 -0.10627298
-0.10380471 -0.022110356 0.1030506 0.11877273 0.11583827 -0.06717394 0.12504952 0.032280307
0.035487577 0.050490253 0.0047976286 0.009682345 -0.06041843 0.057132598 -0.107619174 0.11081014
0.083190516 -0.06409137 -0.07423596 0.11727256 -0.011094828 -0.031444903 0.07525724 -0.090973526
-0.097501315 0.10036513 0.10428494 0.09628702 0.005857309 -0.066176414 0.013254126 0.040380184
0.032285977 -0.086281575 0.09853761 0.10971319 0.012996275 -0.037956733 -0.08567992 0.12129433
-0.045178674 -0.101344116 -0.1248449 0.08380913 0.119628645 0.026453234 -0.02565973 -0.089198455
0.096592546 0.011811603 0.101910934 0.06265181 0.09552755 0.10873062 0.099138856 0.091167316
-0.10052837 0.0050624167 -0.0761885 -0.016529521 -0.022788284 0.033754766 -0.046000104 0.002756382
0.044635944 -0.11489937 0.0018875307 0.050360095 -0.032932814 0.00049797085 -0.10776008 -0.09821759
0.06916398 0.025163632 -0.06466294 0.08011878 0.10508027 -0.048446763 -0.00022888609 0.12636998
-0.08870437 -0.061650004 -0.077363275 0.09425995 0.07536571 -0.09075779 -0.02436921 -0.024650756
0.10222996 -0.068764746 0.07315306 -0.11323599 0.1023614 0.045565896 -0.121657565 -0.056913912
-0.11111837 0.10314306 0.010879936 0.00060528115 0.06098786 0.036500007 -0.11591373 -0.082954526
0.09221253 0.10711289 0.113681816 0.042068277 0.100007735 -0.004909951 -0.06351002 -0.040487494
-0.025352692 0.022173546 0.09306196 -0.113122284 -0.06727567 0.04373878 0.010225475 -0.053362075
00000000: f6c3 543d 67d7 a83d 96d6 18bd 8470 b43b
00000010: 42e7 febd 53f3 91bd 7daa ce3d 6266 003e
00000020: a3e3 d7bd 83b4 f7bd f3a2 6ebd 3628 3cbd
00000030: f320 5dbd 9a8a 5c3d c6cc cbbd 7c8f 623b
00000040: 923a e23d 2676 8f3d db6a 0ebd 8bbd 213d
00000050: 537e a93d e3d7 063e 4f33 f0bc 4551 873d
00000060: ed48 c6bc 3a26 4fbd 4530 ad3d c82c 0ebd
00000070: de59 cf3d 93a1 df3b 8ad7 c63c cb42 babd
00000080: 40b6 51bc 9b54 debd ff19 e9bd 8188 7abd
00000090: 37ab 193c 1833 e83d a23f 893d 4c87 a53d
000000a0: dd21 c2bd 093e d7bb b5b4 d7bd 94f5 dcbd
000000b0: 63a2 cd3d f483 4b3d 52f4 16bd bfb3 593b
000000c0: f822 343d 6420 2c3d a8cc 23bd 6c16 c43d
000000d0: 997a 143d 77ad f83d eca5 633d cbba e1bd
000000e0: a5a3 8dbc 934f 82bd e3ba 23bc 607c b13d
000000f0: 4e29 e7bc e032 5ebc b838 43bd d760 35bd
00000100: 646a 3dbc 1f58 2f3d 8194 9bbd 0642 493d
00000110: 9557 563d 850b da3d 858e c8bd a6a5 d9bd
00000120: 9097 d4bd c720 b5bc 310c d33d 1e3f f33d
00000130: 9d3c ed3d 7e92 89bd fb0c 003e 5b38 043d
00000140: 6c5b 113d dece 4e3d 6d35 9d3b b3a2 1e3c
00000150: 5179 77bd df03 6a3d 7167 dcbd 6df0 e23d
00000160: ca5f aa3d 5642 83bd 0609 98bd 992c f03d
00000170: 15c7 35bc 5fcc 00bd 7820 9a3d 5450 babd
00000180: c5ae c7bd 3c8c cd3d 5893 d53d 2132 c53d
00000190: abee bf3b 8087 87bd d527 593c b165 253d
000001a0: 4d3e 043d 65b4 b0bd 16ce c93d 4fb1 e03d
000001b0: 54ee 543c 8578 1bbd f478 afbd 2969 f83d
000001c0: 460d 39bd 818d cfbd afae ffbd 1fa4 ab3d
000001d0: ddff f43d 74b4 d83c 5b34 d2bc aead b6bd
000001e0: 50d2 c53d 7485 413c aeb6 d03d 984f 803d
000001f0: f3a3 c33d 29ae de3d 5009 cb3d eeb5 ba3d
00000200: d1e1 cdbd a1e2 a53b b708 9cbd eb68 87bc
00000210: 7fae babc 7042 0a3d 9b6a 3cbd 6ba4 343b
00000220: 2ed4 363d 5c50 ebbd 0567 f73a 6346 4e3d
00000230: 8fe4 06bd 428a 023a 51b1 dcbd 4e26 c9bd
00000240: d8a5 8d3d f623 ce3c 016e 84bd 5115 a43d
00000250: 5334 d73d 1d70 46bd 2401 70b9 2267 013e
00000260: a3aa b5bd b784 7cbd a370 9ebd 5c0b c13d
00000270: 5659 9a3d 38df b9bd f0a1 c7bc 62f0 c9bc
00000280: f15d d13d 88d4 8cbd 46d1 953d 45e8 e7bd
00000290: dba2 d13d 4ea3 3a3d 9a27 f9bd 901e 69bd
000002a0: 0792 e3bd ab3c d33d c241 323c bbab 1e3a
000002b0: 68ce 793d 0881 153d 2d64 edbd 10e4 a9bd
000002c0: ecd9 bc3d 015e db3d 03d2 e83d c94f 2c3d
000002d0: dbd0 cc3d a7e3 a0bb 8b11 82bd 37d6 25bd
000002e0: 73b0 cfbc 4ca5 b53c 4597 be3d a8ac e7bd
000002f0: d4c7 89bd 6f27 333d c088 273c 3192 5abd

main_network.fc.bias f4 [3]
0.08149401 -0.020519232 0.022851808
00000000: 55e6 a63d f317 a8bc b733 bb3c

short_term_context_network.fc1.weight f4 [32, 7]
0.07340193 -0.15983026 -0.27320147 0.12733163 0.065804645 0.6907595 0.38495713 0.8029077
-0.26265204 0.077226944 -0.16938853 -1.3603699 -1.3606961 0.42387584 -0.35054302 -0.003945721
0.09375647 0.050693534 0.60073686 0.52728736 0.30647287 0.7461624 -0.09397927 0.15328652
-0.2641433 -1.3618561 -1.4118358 0.19122924 -0.4826974 -0.35476404 0.3098404 0.27269268
0.0735522 0.77057433 0.61602664 0.0027953233 0.01536854 -0.0926592 -0.21176574 0.15818806
0.25211027 -0.29116705 -0.582024 0.21158014 0.33208588 -0.15927781 0.22557746 0.5784734
1.0609901 0.33867308 0.2353372 0.3210794 0.11017762 0.0645554 0.079883285 0.39331415
0.7482746 -0.22560892 0.046017442 0.15104002 -1.430038 -1.43003 0.22529161 -0.09333685
-0.2833376 0.114407875 -0.078135155 0.13364401 0.6352005 0.21302004 -0.31060344 -0.1427241
-0.01577198 -0.35438314 0.028859785 0.12242692 -0.27516535 0.05472285 -0.24623615 0.3530299
-0.13884786 0.45031774 0.29177085 0.67630345 0.017446429 -0.2791169 0.27959234 -0.20230402
0.10293441 0.2212079 0.24392942 -0.11862835 0.37638995 -0.25423834 0.37240314 -0.12707886
-0.2530141 0.16692786 -0.23091657 -0.31842083 -0.06588748 0.22821145 0.68572605 0.32628018
0.02511575 -0.31984475 0.33220533 0.12016443 -0.37145275 0.33624148 -0.23273881 -0.32568917
0.08752159 0.034644954 0.32889572 0.073366426 0.60752547 0.41684973 -0.13055147 0.1269365
0.18381575 0.07135342 0.24960315 0.09216961 0.020917496 0.20990278 -0.14105777 0.08678355
-0.26667073 0.07227596 0.5846792 0.446942 0.40582186 0.86040914 -0.08554696 -0.115691416
-0.21314353 -0.36021188 -1.2960669 0.05480224 -0.14468767 -0.20460224 -0.36613718 -0.24194893
0.5351075 0.2095927 0.15895195 -0.094554335 0.14518821 -0.27585143 -0.30253395 0.247997
-0.1169672 0.30203044 -0.34359035 0.017108366 -0.35051873 0.28824067 0.20086947 0.6117379
0.47031194 -0.3825684 0.23406024 0.034737725 0.078983895 0.8912402 0.034770854 0.34516943
-0.1496468 -0.08545343 -0.29629523 -0.03267056 0.5279015 0.5649896 0.060652427 -0.026685972
-0.16635044 0.051027723 0.34022367 -0.34113917 0.25497812 0.12779297 -0.1328954 0.3196565
-0.2706149 -0.34123555 -0.10319593 0.004000645 -0.2095785 0.42179874 0.1403955 -0.0069551594
0.22235091 0.2924521 0.20275785 0.7128647 -0.33256006 0.2060076 0.11730652 -0.17927735
-0.037045762 -0.08659612 -0.22055633 -0.50477546 -0.018472733 -0.07025015 -0.36717677 0.4729822
0.3097843 1.0800033 -0.3226778 0.23931275 -0.24126601 -0.10610863 -0.35472608 0.17070225
0.118178375 -0.4552575 -0.059484538 0.23765236 -0.29124552 0.5789009 0.28249887 0.5876426
00000000: c053 963d 8baa 23be 10e1 8bbe 3963 023e
00000010: 96c4 863d 9dd5 303f 1a19 c53e 5c8b 4d3f
00000020: 547a 86be 2929 9e3d 3074 2dbe 9a20 aebf
00000030: 4a2b aebf 4106 d93e 607a b3be 1b4b 81bb
00000040: 6403 c03d 06a4 4f3d e4c9 193f 4efc 063f
00000050: 03ea 9c3e 8004 3f3f 3478 c0bd 24f7 1c3e
00000060: ca3d 87be 4d51 aebf 09b7 b4bf 99d1 433e
00000070: 1d24 f7be a2a3 b5be 67a3 9e3e 609e 8b3e
00000080: 89a2 963d 5c44 453f ecb3 1d3f be31 373b
00000090: 54cc 7b3c 1bc4 bdbd 1ed9 58be 0dfc 213e
000000a0: 9914 813e d913 95be 86ff 14bf 77a8 583e
000000b0: 2907 aa3e b919 23be c7fd 663e d516 143f
000000c0: 86ce 873f 8f66 ad3e 3cfc 703e 8564 a43e
000000d0: cea4 e13d 9f35 843d d999 a33d 7960 c93e
000000e0: ed8e 3f3f 0606 67be c97c 3c3d 3caa 1a3e
000000f0: 7c0b b7bf 390b b7bf d8b2 663e 6427 bfbd
00000100: a011 91be ad4e ea3d 5305 a0bd fad9 083e
00000110: 809c 223f ed21 5a3e 6a07 9fbe 4426 12be
00000120: 3d34 81bc b571 b5be 5b6b ec3c f7ba fa3d
00000130: 79e2 8cbe 1125 603d 5425 7cbe 56c0 b43e
00000140: 222e 0ebe 0c90 e63e fd62 953e 3922 2d3f
00000150: d0eb 8e3c 69e8 8ebe ba26 8f3e c928 4fbe
00000160: 47cf d23d 5384 623e a2c8 793e 6cf3 f2bd
00000170: 2fb6 c03e 872b 82be a0ab be3e f620 02be
00000180: 108b 81be 23ef 2a3e 6575 6cbe 0e08 a3be
00000190: 04f0 86bd 43b0 693e be8b 2f3f 320e a73e
000001a0: 8cbf cd3c b1c2 a3be d116 aa3e c518 f63d
000001b0: 0e2f bebe d827 ac3e 1553 6ebe bbc0 a6be
000001c0: 853e b33d dee7 0d3d 0565 a83e 2341 963d
000001d0: ca86 1b3f 546d d53e 49af 05be a4fb 013e
000001e0: 323a 3c3e be21 923d f897 7f3e 6cc3 bc3d
000001f0: 2b5b ab3c c1f0 563e 7371 10be 93bb b13d
00000200: 1189 88be 6b05 943d 89ad 153f 95d5 e43e
00000210: e2c7 cf3e c643 5c3f 3f33 afbd 9fef ecbd
00000220: 4c42 5abe b16d b8be 85e5 a5bf 5078 603d
00000230: 0129 14be 4083 51be 5576 bbbe 76c1 77be
00000240: cefc 083f 789f 563e 4dc4 223e b4a5 c1bd
00000250: 38ac 143e 663c 8dbe bbe5 9abe edf2 7d3e
00000260: 808c efbd bca3 9a3e 13eb afbe d826 8c3c
00000270: 3177 b3be 4894 933e bab0 4d3e db9a 1c3f
00000280: bacc f03e 01e0 c3be 7dad 6f3e 2549 0e3d
00000290: 4fc2 a13d 5128 643f e26b 0e3d 0cba b03e
000002a0: 033d 19be 3502 afbd 02b4 97be 91d1 05bd
000002b0: 8d24 073f 29a3 103f ae6e 783d 8a9c dabc
000002c0: c557 2abe 7202 513d cc31 ae3e cba9 aebe
000002d0: 7e8c 823e 29dc 023e bb15 08be 04aa a33e
000002e0: 098e 8abe 6db6 aebe 6358 d3bd d817 833b
000002f0: bf9b 56be 01f6 d73e d7c3 0f3e 1be8 e3bb
00000300: f5af 633e 48bc 953e c19f 4f3e 4d7e 363f
00000310: 5045 aabe a8f3 523e 673e f03d 7b94 37be
00000320: 4cbd 17bd 4e59 b1bd 85d9 61be f738 01bf
00000330: 2154 97bc 50df 8fbd 98fe bbbe b92a f23e
00000340: 0c9c 9e3e 8c3d 8a3f 0636 a5be 670e 753e
00000350: 700e 77be 7b4f d9bd a89e b5be 92cc 2e3e
00000360: 8107 f23d 8317 e9be 0fa6 73bd 245b 733e
00000370: 221e 95be d932 143f b1a3 903e bf6f 163f

short_term_context_network.fc1.bias f4 [32]
0.6919685 -0.5758787 0.7533577 -0.8331752 0.84025955 -0.3046474 0.6933552 0.5326191
-0.8213139 0.43797347 -0.22352378 0.41840747 -0.36830568 -0.03021874 0.67607194 -0.34827238
0.7288518 0.49298057 0.32167488 -0.87134534 0.56189996 -0.33832505 0.56856996 0.81066567
0.7031433 -0.26176003 -0.21903265 0.26705807 -0.30767718 0.4425592 -0.18718469 0.7862761
00000000: d924 313f c96c 13bf 0ddc 403f f84a 55bf
00000010: 401b 573f befa 9bbe ba7f 313f ba59 083f
00000020: a141 52bf 0f3e e03e 6be3 64be 8139 d63e
00000030: 9092 bcbe 4b8d f7bc 0d13 2d3f c250 b2be
00000040: 0896 3a3f f367 fc3e 92b2 a43e 7d10 5fbf
00000050: add8 0f3f f138 adbe cd8d 113f c987 4f3f
00000060: 3301 343f 6905 86be 184a 60be d6bb 883e
00000070: dd87 9dbe 1f97 e23e 58ad 3fbe 6449 493f

short_term_context_network.fc2.weight f4 [16, 32]
-0.07022996 -0.057713553 -0.18409836 -0.13564043 -0.10266889 0.066637814 -0.1805832 0.0642004
-0.15818736 -0.16892368 -0.017604275 0.14248265 0.01987561 0.12431549 0.12478128 -0.054499034
-0.12852885 -0.07998875 0.12965678 -0.16703264 0.13113464 0.0005492788 -0.025966616 -0.018683804
0.015614467 0.020749673 0.024611989 -0.18768442 -0.10122071 0.014786032 0.034335203 0.061819404
0.24871728 -0.19051617 0.49233672 -0.41378394 0.17499672 -0.09366877 0.7303802 0.084412135
-0.500553 0.23941925 0.028981542 0.18023992 0.10323491 -0.052328445 0.32938036 -0.16771655
0.4996452 0.435963 0.29013124 -0.38226277 0.33732444 0.055316873 0.3915406 0.3078066
0.23852734 0.020864965 0.054134592 0.16588318 -0.015502728 0.5456852 -0.14956953 0.24746582
-0.12471231 -0.04025905 0.11254911 -0.088588856 0.1498507 -0.017733835 -0.12422741 -0.1109097
0.053777672 -0.074014224 0.17323224 -0.12059623 -0.002630785 -0.008120307 -0.1717349 -0.052128844
0.1080347 -0.054907165 -0.17300323 -0.112124376 -0.16615969 -0.018024985 -0.13010632 0.027762255
-0.17386869 0.13675715 -0.12028462 -0.042141538 -0.15210256 0.0687147 -0.037698228 0.1552295
0.17401356 -0.08500836 0.38532037 -0.69432193 0.29445973 -0.03565634 0.9894085 0.2871813
-0.7788691 0.44619226 0.08886006 0.5244439 -0.06162891 -0.028919393 0.40396333 0.04546492
0.611663 0.37692785 0.6739936 -0.32934815 0.47421408 -0.14131168 0.4032739 0.6065598
0.4290571 0.031787068 -0.07867935 0.07064416 0.02678154 0.44699132 0.11710605 0.5081069
-0.102454014 -0.14477162 -0.018095708 0.10036271 -0.0903219 0.067695975 0.10524266 0.002506178
0.0034061607 0.062704414 0.121746354 -0.038067307 0.0008744839 0.17247371 -0.02179563 -0.05604612
-0.014935832 -0.025519473 -0.037836026 -0.10750588 -0.11741747 -0.02132955 -0.15117672 -0.14125948
-0.036261693 -0.150681 -0.14915428 -0.0786429 0.1479737 -0.04843872 -0.16791423 -0.14806858
0.40204293 -0.16608104 0.37662825 -0.6931595 0.40281358 -0.06998134 1.1809161 0.4169895
-0.7357931 0.49162903 0.16309083 0.26883438 -0.12537295 0.02207138 0.4315135 0.1338468
0.62730485 0.46839732 0.55151975 -0.40915707 0.37982446 -0.007550376 0.2888492 0.42775348
0.420011 0.103925385 0.010170371 0.04906232 -0.01547569 0.43414152 -0.16291876 0.32855037
0.13891469 -0.015378542 -0.1649052 -0.14452738 -0.13052239 0.10236096 0.10681086 -0.14993629
-0.09782336 -0.037519418 -0.07476341 0.028386429 0.033415012 0.08994599 -0.08143938 0.025808454
-0.121796995 0.015577833 0.0643662 -0.16668642 0.010096826 -0.16433728 -0.16805027 0.06389304
-0.08387661 0.11247681 0.059401684 0.09367541 -0.06579064 -0.14842841 0.1389093 0.070738345
-0.201084 0.024328252 -0.11726364 -0.02546358 0.121132 -0.05165364 -0.0145652 -0.16232976
0.049586587 0.023550676 0.15587308 -0.16881238 -0.04765093 0.13433942 -0.03966535 -0.07472263
0.08181623 -0.12414613 0.044646624 -0.15874027 -0.055289138 -0.12411092 0.13553207 0.01877476
-0.17290983 0.006004198 0.0076713376 0.12246129 0.122766055 -0.018844327 0.0011326544 -0.060344998
00000000: bad4 8fbd 0c65 6cbd 4884 3cbe 53e5 0abe
00000010: 1144 d2bd 6879 883d cdea 38be 807b 833d
00000020: defb 21be 54fa 2cbe d736 90bc f9e6 113e
00000030: 2dd2 a23c 1f99 fe3d 548d ff3d 613a 5fbd
00000040: 119d 03be 24d1 a3bd bfc4 043e 9b0a 2bbe
00000050: 2948 063e 7afd 0f3a f1b7 d4bc c70e 99bc
00000060: d2d3 7f3c 38fb a93c 159f c93c 5830 40be
00000070: ce4c cfbd 1d41 723c 12a3 0c3d 5836 7d3d
00000080: beaf 7e3e ac16 43be 8f13 fc3e 7ddb d3be
00000090: 5732 333e 69d5 bfbd 32fa 3a3f 45e0 ac3d
000000a0: 3e24 00bf 522a 753e b36a ed3c d090 383e
000000b0: d36c d33d 5a56 56bd 8ba4 a83e e3bd 2bbe
000000c0: 7fd1 ff3e 8b36 df3e 158c 943e f2b7 c3be
000000d0: cab5 ac3e f293 623d 0278 c83e d498 9d3e
000000e0: 8340 743e 01ed aa3c 3cbc 5d3d 48dd 293e
000000f0: 27ff 7dbc 06b2 0b3f c128 19be ae67 7d3e
00000100: 2b69 ffbd ace6 24bd 2680 e63d 136e b5bd
00000110: 7672 193e 8c46 91bc f16a febd a024 e3bd
00000120: fa45 5c3d c594 97bd cb63 313e 28fb f6bd
00000130: 4069 2cbb 090b 05bc 46db 2fbe 0e85 55bd
00000140: 4c41 dd3d 56e6 60bd c227 31be 77a1 e5bd
00000150: c425 2abe 22a9 93bc 973a 05be ab6d e33c
00000160: a20a 32be 110a 0c3e c857 f6bd 9b9c 2cbd
00000170: c6c0 1bbe 4bba 8c3d 7569 1abd 7bf4 1e3e
00000180: 9c30 323e dd18 aebd b648 c53e 15bf 31bf
00000190: 6dc3 963e 620c 12bd e049 7d3f 6d09 933e
000001a0: f763 47bf 5073 e43e 43fc b53d f541 063f
000001b0: 996e 7cbd 5de8 ecbc 48d4 ce3e 6d39 3a3d
000001c0: f295 1c3f b0fc c03e d88a 2c3f 52a0 a8be
000001d0: 30cc f23e 02b4 10be eb79 ce3e 8147 1b3f
000001e0: 5fad db3e 2833 023d a422 a1bd e3ad 903d
000001f0: f664 db3c 0cdc e43e 4cd5 ef3d 4b13 023f
00000200: 69d3 d1bd 033f 14be 733d 94bc f78a cd3d
00000210: b0fa b8bd 30a4 8a3d 7789 d73d b13e 243b
00000220: e539 5f3b 2c6b 803d 2756 f93d 77ec 1bbd
00000230: 9f3d 653a f39c 303e c08c b2bc 9e90 65bd
00000240: 6bb5 74bc 370e d1bc f3f9 1abd 0b2c dcbd
00000250: 9278 f0bd 4fbb aebc 12ce 1abe 53a6 10be
00000260: 2487 14bd 1f4c 1abe e6bb 18be 870f a1bd
00000270: 6b86 173e ae67 46bd b5f1 2bbe 4a9f 17be
00000280: 92d8 cd3e 2611 2abe 6bd5 c03e e772 31bf
00000290: 953d ce3e 6052 8fbd 4228 973f a67f d53e
000002a0: f05c 3cbf cdb6 fb3e 4801 273e a9a4 893e
000002b0: c461 00be 0acf b43c 56ef dc3e 230f 093e
000002c0: 0d97 203f c6d1 ef3e 6630 0d3f 097d d1be
000002d0: 5a78 c23e 2569 f7bb 0be4 933e 8102 db3e
000002e0: af0b d73e d5d6 d43d a1a1 263c 92f5 483d
000002f0: c08d 7dbc cc47 de3e 2dd4 26be c137 a83e
00000300: a73f 0e3e 48f6 7bbc e9dc 28be fcfe 13be
00000310: a9a7 05be 9fa2 d13d a7bf da3d e688 19be
00000320: 9d57 c8bd f6ad 19bd 8f1d 99bd a88a e83c
00000330: 2ede 083d 9a35 b83d b1c9 a6bd 406c d33c
00000340: b470 f9bd 2b3a 7f3c 6dd2 833d d8af 2abe
00000350: 286d 253c 0848 28be 5f15 2cbe 5bda 823d
00000360: 80c7 abbd 3e5a e63d 2e4f 733d e5d8 bf3d
00000370: 3ebd 86bd 9efd 17be 3d3e 0e3e 44df 903d
00000380: f7e8 4dbe 0b4c c73c eb27 f0bd ff98 d0bc
00000390: 0e14 f83d c492 53bd e0a2 6ebc c639 26be
000003a0: 4e1b 4b3d 59ed c03c 319d 1f3e 27dd 2cbe
000003b0: 9f2d 43bd 4690 093e 2278 22bd 2e08 99bd
000003c0: 458f a73d 5440 febd 61df 363d cf8c 22be
000003d0: dd76 62bd de2d febd ebc8 0a3e 87cd 993c
000003e0: 460f 31be ddbe c43b d85f fb3b fccc fa3d
000003f0: c56c fb3d 6b5f 9abc 9375 943a 512c 77bd

short_term_context_network.fc2.bias f4 [16]
-0.03653756 0.3192216 -0.13306215 0.08364019 -0.17324302 0.09457289 -0.0021388473 0.1310005
-0.18054718 -0.36117443 0.2719114 0.35701773 0.049686026 0.07992739 -0.0011675883 0.26468787
00000000: 69a8 15bd 0371 a33e 7241 08be 8c4b ab3d
00000010: 9e66 31be 6eaf c13d e72b 0cbb ff24 063e
00000020: 5ce1 38be dbeb b8be f937 8b3e 07cb b63e
00000030: 9383 4b3d f9b0 a33d c309 99ba 2b85 873e

short_term_context_network.fc3.weight f4 [1, 16]
0.0063392576 0.58989835 -0.16208744 0.5698627 0.11964333 0.5662047 0.010545492 -0.09449807
-0.096214786 -1.3319786 0.8189844 0.480006 -0.11097388 0.68196195 -0.09457998 0.588414
00000000: 8cb9 cf3b 9403 173f 40fa 25be 86e2 113f
00000010: 9007 f53d cbf2 103f 00c7 2c3c 3488 c1bd
00000020: 420c c5bd 467e aabf f6a8 513f 59c3 f53e
00000030: 4646 e3bd 0f95 2e3f 26b3 c1bd 4da2 163f
