Uni_Research/IRL/Final/Extended/Testing_Suite/model_C1000_R1000_S10.0.pth (torch, 91340 bytes, 11 tensors)

main_network.lstm.weight_ih_l0 f4 [256, 15]
000000 4e 2b aa bd 2e a2 8b 3d 0b 03 71 bd 32 d5 3f 3d
       -0.08309041 0.06818043 -0.058840793 0.04683418
000010 29 1f 28 3c bd f7 b9 bc 03 3e ac bd 0f 83 09 3d
       0.010261335 -0.022701139 -0.08410265 0.033572253
000020 6c 9b af 3d 4e ab 7e 3d ed 1d c0 ba 86 25 6c bd
       0.08574566 0.062175088 -0.0014657356 -0.057652973
000030 a3 b9 ba bd 95 47 e4 3c 3a a1 33 be 6e 6d b6 bc
       -0.09117439 0.027866164 -0.17541972 -0.022268977
000040 31 ca 8a bc 7e bb 39 be fb ab 12 3e b4 78 ce bc
       -0.016942116 -0.18137929 0.14323418 -0.02520404
000050 43 6c 84 bd b1 8c 57 3c 2c a0 4e bd 74 c6 25 bd
       -0.06465962 0.013156102 -0.05044572 -0.040472463
000060 fa ff 0f 3d 05 5d 5f bd 92 0e 0e 3d 81 98 06 3d
       0.035156228 -0.05453207 0.034681864 0.032860283
000070 7e 0f 89 bd f7 9d ac bd c4 4b 04 3e b2 04 78 3d
       -0.06692408 -0.08428567 0.12919527 0.060551353
000080 fa ed 04 3d ce 06 d7 3e 05 8e df 3d 1f db 43 3c
       0.032453515 0.4199738 0.1091576 0.011954098
000090 1d 65 16 be 36 ab 25 3d 3c 9a 4a 3e ed f1 d8 bb
       -0.14687009 0.040446483 0.19785398 -0.0066206367
0000a0 34 5e 2c bd a6 4b 1d 3e a9 44 37 3d 0a 29 6b 3e
       -0.042082027 0.15360889 0.044743214 0.22964874
0000b0 f5 6f 9c bc a8 9d 11 be f7 e2 0d be 49 bd 9c bb
       -0.019096354 -0.14220297 -0.13856111 -0.0047833067
0000c0 00 c9 41 3e f3 1b 3e be 21 7c 63 bc 26 5e 11 be
       0.18924332 -0.1856535 -0.013884575 -0.14196071
0000d0 30 e6 3b be ac 3a 3f bd 68 57 1a be 17 38 5e be
       -0.18349528 -0.046686813 -0.15072405 -0.21701084
0000e0 71 40 2a bd 6c 8b 7f be 9d c8 93 bd 68 9e c3 bd
       -0.041565362 -0.24955529 -0.07215998 -0.09551698
0000f0 2d 3e 69 be 01 d5 81 be 19 db 4d be 7e d6 7d 3c
       -0.22777624 -0.25357822 -0.2010311 0.015493033
000100 25 15 1f be aa 30 a5 3b 1c 4c 2a be 45 4d 29 be
       -0.1553541 0.0050412016 -0.16630596 -0.16533382
000110 0c 71 4d be df 96 0e be ec 18 30 be b3 8b 0b be
       -0.20062655 -0.1392474 -0.17197007 -0.1362751
000120 7b af 15 be 40 87 18 be d9 29 40 be ea 88 4c be
       -0.14617722 -0.14895344 -0.18765964 -0.19974104
000130 8a 3e 65 be 6d d1 7b 3d 63 2d 2d 3e cf 28 8d be
       -0.22387138 0.06147902 0.16911845 -0.27570197
000140 fc 43 27 bd 68 33 5f be 1f fe f3 bd 19 55 d2 bd
       -0.04083632 -0.21796954 -0.11913704 -0.10270137
000150 77 aa 83 3d eb c7 e0 bd 25 13 11 be ec 4d 32 bd
       0.06428998 -0.10975631 -0.1416746 -0.043531343
000160 0f e3 c9 bd 4e 5d 55 bd e8 a1 61 3b 6e 32 2a 3e
       -0.09857761 -0.052090935 0.003442878 0.166208
000170 e9 65 cf 3c 7a ef 9e bd f8 87 33 3e ba 73 1f 3d
       0.02531715 -0.0776052 0.17532337 0.038928725
000180 39 ce f1 3c 62 a1 8f bd a4 7d 66 3e ee 5d 7b be
       0.02951728 -0.07013203 0.22508866 -0.2454755
000190 f5 d4 de bd 4c 48 10 3e e9 9d 3f bd 7d f4 0e 3e
       -0.10880462 0.14090079 -0.046781454 0.13960452
0001a0 f0 69 29 3d 58 ce be 3d 2e b5 a0 3d 6f 6e 0a 3e
       0.041360795 0.09316701 0.07847057 0.1351869
0001b0 c3 31 ba bd 2f fe 1f 3e 75 60 2f bd 34 e6 48 bd
       -0.090915225 0.15624307 -0.042816598 -0.049047664
0001c0 f0 bf bf 3d 45 a1 d0 3d 24 23 32 bd f9 88 03 be
       0.09362781 0.1018701 -0.043490544 -0.1284522
0001d0 d7 c2 3d be 55 5b ea 3d b4 02 a4 bb 44 c9 fb bd
       -0.18531357 0.114432015 -0.005005205 -0.12294248
0001e0 7d 93 ea 3c c4 98 16 bd 02 25 05 bd 5c 45 cf 3d
       0.028634781 -0.036766782 -0.032505997 0.10120651
0001f0 81 1a 6e 3d e0 1e 59 bd c2 8d 0d be 88 cd a9 bd
       0.058130745 -0.05300796 -0.13823608 -0.08291155
000200 09 13 ef 3c af 6c bf bd 55 30 2c bd 6c b1 94 bd
       0.029183881 -0.093469016 -0.04203828 -0.07260403
000210 c7 3d fd bd 58 9f 09 bc 20 bd 5f 3d dd b3 84 bd
       -0.12365299 -0.008399807 0.054623723 -0.06479619
000220 4f 56 12 3d b5 79 e6 bc 5b 00 d7 3d 58 23 1a be
       0.03572684 -0.028134206 0.10498115 -0.15052545
000230 aa ee e3 bd bb 9c ce 3d 8d 3e 46 bd 36 e8 11 bd
       -0.11129506 0.10088488 -0.048399497 -0.035621844
000240 f7 0d 58 bc f8 f9 e7 bd df 28 96 3d 4b e3 23 bc
       -0.013186923 -0.11326975 0.07332014 -0.010002921
000250 47 7c 86 bd ce ad 2e be 8e ef d1 bc 74 5b 14 bc
       -0.06566673 -0.17058489 -0.025626924 -0.009055007
000260 a2 a9 ec bc 93 0b 1f 3e 1a a1 c9 bc 72 a8 90 3d
       -0.028889481 0.15531759 -0.024612952 0.070633784
000270 85 b3 52 3d 33 ff 20 3e e2 0f 95 bd 60 71 6a 3d
       0.051440734 0.15722351 -0.0727842 0.05723703
000280 e7 e4 49 bd 4b 97 b5 bd 03 4c bd 3d 67 92 dd 3d
       -0.049290564 -0.088667475 0.09243014 0.1081894
000290 95 08 bb 3d a3 eb 99 bb 2c de 3e bd 79 32 d5 3d
       0.09132496 -0.0046972795 -0.0465986 0.104100175
0002a0 7b 6c af 3e b5 35 4b bc e8 3a a1 bc b3 9e bd 3d
       0.34262452 -0.0124029415 -0.019681409 0.09258785
0002b0 31 c6 44 3d 36 ba 34 bd 4c 6f ab 3d 90 60 bd 3c
       0.048040573 -0.044122897 0.083708376 0.023117334
0002c0 ad 2b 26 3e 97 04 cf b8 dd 7e a5 3e 57 1b a6 bd
       0.16227598 -9.871384e-05 0.32323352 -0.081106834
0002d0 63 70 b0 bb b9 95 dc 3c 4d 84 b9 3d 20 c5 94 3e
       -0.0053844913 0.026926862 0.090584375 0.29056644
0002e0 23 a6 99 3d c8 50 f1 3c 8e f8 a7 3d 0d e5 bd bc
       0.07502391 0.029457465 0.08201705 -0.023180509
0002f0 11 0a 26 bd d8 ea c0 3d f8 fc a7 bd dd e6 f8 bd
       -0.040536944 0.09419793 -0.08202547 -0.12153409
000300 e4 78 58 3d 40 70 bc 3d c6 8b 52 3d 46 19 fd bd
       0.052849665 0.092010975 0.05140283 -0.12358336
000310 e0 69 38 be 24 28 ea bc fb b0 94 3e 8b 93 db bc
       -0.18009138 -0.028583594 0.29041275 -0.026803752
000320 ac ed 26 be 45 6c 07 be 10 e2 0b bb 40 35 06 be
       -0.16301602 -0.13224895 -0.002134446 -0.13106251
000330 13 dc 0c 3c 65 15 99 3d 5e 66 f4 bd ac e6 2e ba
       0.008597392 0.07474784 -0.119335875 -0.0006671946
000340 a2 de 0e 3e c4 90 8d bc 42 c6 95 bd c4 89 04 be
       0.13952115 -0.017280944 -0.07313205 -0.12943178
000350 f4 45 39 3c 8b f1 ce 3d ca 85 e4 3d d4 d7 be bd
       0.011308182 0.101046644 0.11158331 -0.0931851
000360 1d d2 bf bc 25 da 49 bc 02 a9 16 be 98 bc d2 3d
       -0.02341562 -0.012320076 -0.14712909 0.10289878
000370 78 0d 31 be 22 ee 29 be 28 65 01 be 97 0d 03 be
       -0.17290294 -0.16594747 -0.12636244 -0.12798153
000380 20 3e da bc 10 87 c5 3d 2b 01 7b bd b9 59 ea 3c
       -0.026640952 0.09644902 -0.06128041 0.028607236
000390 76 c5 72 3e 28 b6 f5 3d db f5 bb bd df 6a 43 3e
       0.23708138 0.11997634 -0.091777526 0.19083737
0003a0 37 12 1b be 8c 5f 0b be b5 b9 2c 3e b9 ef 90 3d
       -0.15143667 -0.13610667 0.16867717 0.070769735
0003b0 26 01 21 be 02 e7 27 3d 5d 8f d0 3d f1 20 94 3c
       -0.15723094 0.04099179 0.101835944 0.018082114
0003c0 1a 66 fa bd c0 03 82 bc ce f3 3f be b3 33 86 bd
       -0.122265056 -0.015870929 -0.18745348 -0.065528296
0003d0 05 cc ca 3a 56 fa 20 bd 69 49 8b bd 8d 89 57 3c
       0.001547218 -0.03930124 -0.06801111 0.013155353
0003e0 2d fe 3c bd 37 58 c8 bd 24 90 48 bd 57 c5 d3 bc
       -0.04614084 -0.09782451 -0.04896559 -0.025850935
0003f0 79 4e 24 bd 77 fc a3 3d 4b 7f 75 bd b9 09 1c 3d
       -0.0401139 0.08007138 -0.05993585 0.03809521

main_network.lstm.weight_hh_l0 f4 [256, 64]
000000 1d a3 fc bd e4 d6 eb bc 22 b6 30 be 6f d6 b5 3d
       -0.12335799 -0.028788991 -0.17256978 0.088787906
000010 94 07 13 3d cc 2c f1 bc 6b 60 11 3e 8f 1b 3b be
       0.0358959 -0.029440306 0.14196937 -0.18272232
000020 2c f9 81 bd c6 9d b6 bd a5 2d d9 bc be 9e a4 3d
       -0.06346354 -0.08916812 -0.026511023 0.0803809
000030 33 4c 40 3c 71 a6 09 3e 7d 34 f9 3c 62 72 d0 bc
       0.011736917 0.13442399 0.030420536 -0.025445167
000040 3e f7 74 bd 4c 8b 80 3d 54 96 bd 3d 63 ce 4b bd
       -0.0598061 0.06276569 0.092571884 -0.049757373
000050 b4 7d 36 bd 82 4f 25 bd af 3e 2f 3d 4b 75 86 3c
       -0.044553474 -0.040359028 0.04278439 0.016413352
000060 26 92 9f bd 81 04 23 be d2 3d 10 3e d3 e9 24 bd
       -0.077915475 -0.15919687 0.14086083 -0.040262055
000070 9d 51 be 3e a9 7c a5 bb 07 c5 a9 3c ce 0f 15 be
       0.3717164 -0.005050261 0.020723833 -0.1455681
000080 c3 32 62 bd 39 c1 a6 bc 9b a7 4d bd ef 5d e1 bc
       -0.05522419 -0.020355808 -0.05020867 -0.027510611
000090 68 fc f4 3d 60 2e aa 3d fc fb b9 bd 54 b6 88 3e
       0.11962205 0.083096266 -0.09081265 0.26701605
0000a0 fa f4 84 bd ce cf cf 3d 13 21 65 bd 71 6e 8d bd
       -0.06492038 0.101470575 -0.055939745 -0.06905831
0000b0 4e 47 63 bd d0 b5 25 3e 92 a8 0d 3d 43 35 57 3e
       -0.055487923 0.16182637 0.03458459 0.21016411
0000c0 ef 99 c6 3a 3a 21 0d 3d b4 d7 6c 3d 8a 06 3f bc
       0.0015152077 0.034455515 0.057822898 -0.011659274
0000d0 d1 83 2a 3e d3 aa 9c 3d fb ae 93 bd 59 1a 66 3d
       0.16651846 0.0764977 -0.07211109 0.05617747
0000e0 20 62 dd bc 38 6e 95 3d ed a0 02 3e d1 00 17 be
       -0.027024329 0.07296413 0.12756701 -0.14746405
0000f0 c0 e5 15 bd db 41 05 3d b5 b0 03 3e f6 f9 bf 3c
       -0.03659606 0.032533508 0.12860377 0.02343462
000100 f0 12 96 3d b3 99 d4 bc cd 70 43 bd cf 4e 8b bd
       0.07327831 -0.025952196 -0.047714997 -0.06802141
000110 ec 17 31 3e b5 6b 07 3d db 3d 6e 3e 2e 56 a6 bd
       0.17294282 0.0330617 0.23265783 -0.08121906
000120 db 5b 51 bd 5e c7 a0 3c 25 37 20 3c 35 b6 8b bc
       -0.05111299 0.019626316 0.0097787725 -0.017054657
000130 06 48 32 3d ff b4 46 3d e8 01 1b be 9e 33 db 3a
       0.04352572 0.048512455 -0.15137446 0.0016723757
000140 e1 2c 86 bc 09 c3 6f bc 22 c6 06 39 32 e2 86 be
       -0.016378822 -0.014633902 0.00012853046 -0.26344448
000150 2a 28 48 3d 42 b0 47 bd 51 c2 03 be 5d 91 2e bd
       0.04886643 -0.048752077 -0.12867095 -0.042619098
000160 aa 1a cc bc ec 23 ac 3d c1 73 30 bc fc e8 18 be
       -0.024915058 0.08405289 -0.010769785 -0.14932626
000170 82 aa 12 3e ff a4 00 be ba fe 8c bd 55 13 80 bd
       0.14322856 -0.12562941 -0.06884523 -0.06253687
000180 34 a3 02 bd 40 98 14 3e ce 2a 60 bd 78 63 1d 3d
       -0.031893924 0.14511204 -0.05472832 0.03842494
000190 f0 71 96 3d e5 07 24 3c 10 52 06 be dd b5 ac bc
       0.073459506 0.010011648 -0.13117242 -0.021082813
0001a0 9e 7f ab 3d ac 79 1a 3d d3 0f 01 3e e3 5f f9 3d
       0.083739504 0.03771369 0.12603693 0.12176492
0001b0 a1 ae 5d be a5 cc cc bd e2 7d c7 bc b2 be f6 3c
       -0.21648647 -0.0999997 -0.024352018 0.030120227
0001c0 5b df 9b 3c 76 ea c9 bc 6a 14 d7 bd 6b 04 3e be
       0.019027403 -0.024647932 -0.105019405 -0.18556373
0001d0 b3 d9 43 3d 8a f8 5d 3d 4b 98 f4 bc 06 ad 3b 3d
       0.047815036 0.054192103 -0.029857775 0.045819305
0001e0 67 7f 16 3e 98 28 7d bc 9a 6b a9 3b ff e2 5d 3d
       0.14697038 -0.015451573 0.005170298 0.05417156
0001f0 77 79 28 bd d4 90 57 3e db c0 a3 3d 2e e8 c4 3d
       -0.041131463 0.21051341 0.07995769 0.09614597
000200 39 d2 9d 3a 6e a3 05 3e b7 3e b2 3d 91 1b 4a 3e
       0.0012040801 0.13050625 0.08703368 0.19737078
000210 88 44 65 be 54 a2 b0 3c f7 5c b5 be ab 1f ac bd
       -0.22389424 0.02156178 -0.3542249 -0.08404478
000220 ef 44 86 3c a2 b7 69 3e 66 e3 1c be f8 17 f4 35
       0.016390292 0.22823957 -0.1532112 1.8186392e-06
000230 88 89 03 3e 55 ac 7b 3e e7 bb 27 3e 3d 1d 42 3d
       0.12845433 0.24577458 0.16380273 0.047391165
000240 e5 11 69 bd fc a2 6a be 30 c8 72 3d 46 b0 73 3e
       -0.05690183 -0.22913736 0.059272945 0.23797712
000250 84 d4 3a be 33 f4 13 3e e2 eb 72 bd 23 80 b9 bd
       -0.18245131 0.14448623 -0.059306987 -0.09057643
000260 a8 d1 a7 3d 2a 8a b6 3d e7 ca 9a 3d 33 a6 1a bd
       0.08194286 0.089130715 0.07558232 -0.037756156
000270 83 f4 fa bd f7 ef 27 3d be f0 13 be c7 63 73 bd
       -0.12253668 0.041000333 -0.14447305 -0.059421327
000280 40 08 64 3d 73 61 e8 bc 49 b4 5c be 71 84 05 3d
       0.05567193 -0.02836678 -0.21553148 0.03259701
000290 3a ae 34 3e e0 df 02 3e e8 73 2c 3e 4b ae 86 be
       0.17644587 0.12780714 0.1684109 -0.2630485
0002a0 cb 64 29 bd 91 83 62 be 9b ad 11 be 78 7d eb bd
       -0.04135589 -0.22120501 -0.14226381 -0.11498541
0002b0 ac 3b 19 3e 5a fa 4d 3d ff d0 17 3e af 9e 41 be
       0.1496417 0.050287582 0.1482582 -0.18908189
0002c0 51 ad 01 be 5c 13 5b 3e 99 46 31 bc e5 3d 4e bc
       -0.12663771 0.21394104 -0.010820054 -0.012587999
0002d0 50 92 a3 bc fc 18 f1 bd 4f 78 01 3e 9f 04 32 3e
       -0.019967228 -0.117723435 0.1264355 0.17384575
0002e0 ee 82 e5 bd 97 b8 16 bd 48 ff 1d 39 9a c4 90 3b
       -0.112066135 -0.036797132 0.00015067786 0.004417968
0002f0 23 15 17 3e 6b 39 8c be 1c b2 89 3e 1c c7 1f be
       0.14754157 -0.27387556 0.268937 -0.15603298
000300 a4 4e 4a bd e0 32 83 bd 32 59 07 be f3 f0 34 3e
       -0.049391404 -0.06406188 -0.13217619 0.1767004
000310 96 48 ab bd c2 f0 75 3d 50 ad 02 bc cb 42 39 be
       -0.08363454 0.060044058 -0.007975891 -0.18091886
000320 61 03 f9 3d 67 93 14 3d 89 48 df bc 36 99 86 3d
       0.121588476 0.036273386 -0.027256267 0.065721914
000330 a0 bc 04 bd b4 6d 00 3e b9 6f 14 3e 8c bf b7 3d
       -0.03240645 0.12541848 0.14495744 0.089720815
000340 61 e5 c1 3d 01 bd e8 3c 27 14 ef bc f1 e4 4c 3e
       0.09467579 0.028410437 -0.029184414 0.20009209
000350 6d ca 6e 3d 1b 84 b7 3c 7d 0b 54 3d 9e 11 08 be
       0.058298517 0.02240186 0.05176877 -0.1328797
000360 c6 ea 4e bd d5 ae 8f bd f9 06 bb 3d 15 6d 31 3d
       -0.050516866 -0.070157684 0.09132189 0.04331692
000370 dd f4 91 bc 73 66 ac 3d 45 89 d9 bd 37 08 27 be
       -0.017816955 0.08417978 -0.10621885 -0.16311727
000380 2f 94 b3 bc 37 b6 dd 3d b4 8f 64 bd 42 35 a4 bd
       -0.021921245 0.1082577 -0.05580111 -0.080179706
000390 e6 03 f2 3c 3f fa 9e 3d b4 b5 10 3e 67 08 29 bd
       0.029542875 0.077625744 0.14131814 -0.04126778
0003a0 55 12 31 be da 0e 1e 3d e9 5a 78 3d b9 fc 93 bc
       -0.1729215 0.038588382 0.060633574 -0.018064843
0003b0 34 9e 10 3e 89 a6 19 3e 24 0b d5 3d 5f 98 6d be
       0.1412285 0.15004934 0.104025155 -0.23202656
0003c0 c9 d0 04 bd e2 5f bf 3c ec f4 67 3e ef 00 11 3d
       -0.032425676 0.02336115 0.22652024 0.03540128
0003d0 ac 09 b7 bc 23 82 d1 bd 90 4c 1c 3e b8 cf 04 3e
       -0.02234348 -0.102299 0.15263581 0.12969863
0003e0 a2 44 b5 bd ae 56 2c bd c8 69 0a 3e 3c 84 2f be
       -0.08850981 -0.04207485 0.13516915 -0.17140287
0003f0 ce 6c 85 bd 57 5c a4 bc ac 5a 3b 3e c0 af e2 bc
       -0.065148935 -0.020063562 0.18296307 -0.027671695

main_network.lstm.bias_ih_l0 f4 [256]
000000 07 6d bb bd ac 6e 05 be 86 f8 08 3e 35 a3 2f 3d
       -0.09151655 -0.13030499 0.13376054 0.042880256
000010 e5 39 bc bd dc 6f fd bd b8 7a 5a 39 f8 72 67 bd
       -0.0919073 -0.12374851 0.00020835816 -0.056506127
000020 e3 39 38 bc 88 31 39 3e 58 bc 85 bd 69 3c e5 3c
       -0.01124427 0.18085301 -0.06530064 0.027982907
000030 00 94 c0 3d bd 67 bc 3d d6 2a 10 3e 67 00 a6 3d
       0.09403229 0.09199474 0.1407884 0.081055455
000040 6e 1d 91 bc 96 c0 23 3e a6 bd ae 3d 8b 6b 3f be
       -0.017714228 0.15991434 0.08532266 -0.18693368
000050 f6 53 e7 bc 45 a8 b3 3d 83 f6 19 be 8d 2a 83 3d
       -0.028238278 0.08772329 -0.15035443 0.064046
000060 ce 52 ad bd 0c d2 e7 bc 40 5e 17 bd d2 96 c3 3d
       -0.08463059 -0.0282984 -0.03695512 0.09550251
000070 dc 86 a4 3e b2 84 45 bd 18 d0 47 bc 0b 64 7c 3d
       0.3213414 -0.04822225 -0.0121956095 0.061618846
000080 b2 2e f7 3d 78 03 59 bd 86 3e a0 3c 50 ad 5b 3b
       0.12069453 -0.052981824 0.019561063 0.003352005
000090 44 0d 1d 3d bd 79 a4 bc a9 98 f2 3d f0 15 15 3e
       0.03834273 -0.02007758 0.11845524 0.1455915
0000a0 99 0c a5 3d 2f 7d 94 3d f0 a2 05 be 0f 35 6c 3e
       0.080590434 0.072504394 -0.13050437 0.23067115
0000b0 58 ef 64 3d 2f 4b dd 3d a8 4c 72 bd 70 6e 92 3d
       0.05589232 0.10805356 -0.059155136 0.071499705
0000c0 04 09 4a 3e 2b 8a f7 3d 8d 98 52 3b 98 f4 e6 3c
       0.19730002 0.120869 0.0032134384 0.028192803
0000d0 8a f9 63 3d 32 0a 02 bc b4 8b e9 3d db b2 09 3e
       0.0556579 -0.007937001 0.114035994 0.13447134
0000e0 98 27 45 bc 68 f0 b0 3c 09 ef 69 bd 69 30 6f 3d
       -0.012033366 0.02159901 -0.057112727 0.058395777
0000f0 f2 6c b6 bc 98 14 10 3e e9 1b cb 3d d3 05 89 3d
       -0.022268746 0.14070356 0.09917433 0.06690564
000100 f1 e9 2e bd bc a1 36 bd 78 b7 9a bd 91 bc dd 3d
       -0.042703573 -0.044587836 -0.07554525 0.10826982
000110 6d 58 8e 3d 8a dc be 3c dd 8d 50 3d 41 61 e1 bd
       0.0695046 0.02329852 0.05091654 -0.11004878
000120 57 b3 08 bd b8 61 b7 bd 1f fb cb 3d a6 1d 02 3d
       -0.033374157 -0.08954185 0.09960007 0.031766556
000130 dd 0e 18 3d 2f 3c c9 3d 4d 7e 1e 3e e3 19 03 3d
       0.03712355 0.09825932 0.15477867 0.03200711
000140 d4 8c 8b bd 05 97 94 3d b7 6d ae 3c e3 b9 8d bd
       -0.0681397 0.07255367 0.02129255 -0.06920221
000150 93 02 4a 3e 8c 68 be 3d fa b9 db 3d 0c f4 1b 3d
       0.19727544 0.092972845 0.107288316 0.038074538
000160 26 be 36 be 09 4f 38 bd 24 02 e1 bc 89 01 95 bd
       -0.17845973 -0.04499725 -0.027466841 -0.072756834
000170 ff f9 d2 3d 32 27 51 bd 3f 34 0b be 5b 1b 32 3d
       0.10301589 -0.05106277 -0.13594149 0.04348312
000180 59 bb a2 bd 6e f5 a7 bd ae 6a c7 3d e7 68 2a bd
       -0.0794589 -0.08201109 0.097371444 -0.04160395
000190 78 08 26 bc ca 30 40 bd dc 26 47 3d 66 eb 7f bc
       -0.010133855 -0.04692153 0.048621044 -0.015620088
0001a0 66 24 7c bd 27 e4 95 bd 2b e2 aa 3d e8 12 cf bd
       -0.06155815 -0.07318907 0.08343919 -0.10111028
0001b0 be 31 88 3d 49 82 24 be 6d 2b c9 b8 bb 95 f9 bd
       0.066501126 -0.16065325 -9.5925156e-05 -0.12186762
0001c0 94 b9 30 3d 8d 5b e5 bd 4f 60 1c bd 61 f6 1a be
       0.04314573 -0.111991026 -0.038177785 -0.15133049
0001d0 18 61 2d 3d 42 66 38 3e 77 2b 80 3c 06 a5 85 bd
       0.042328924 0.18007758 0.015645726 -0.06525616
0001e0 53 7d c9 3c 59 24 8c bd 0c 2a 90 3c d5 0f ec bc
       0.024595892 -0.0684287 0.017598175 -0.028816143
0001f0 1f 7f ae 3d c0 6f d2 bd 32 1d 0e bd 6e b1 8b bc
       0.0852034 -0.10275221 -0.03469581 -0.017052379
000200 ab 13 8b ba 0d c9 a4 3d f6 df d8 bc ca d3 8e bd
       -0.001061072 0.0804616 -0.02647398 -0.06973989
000210 6b 95 31 3d c8 a9 f2 bb d0 14 f2 3d e0 2a 70 bd
       0.043355387 -0.0074054934 0.11820376 -0.05863464
000220 af c0 21 3d e0 29 b9 3c 84 db a4 3d d8 55 65 3d
       0.039490398 0.022602975 0.08049682 0.05599007
000230 9b 86 1d 3e 45 ce 8e 3d f0 a2 07 3d 08 e0 b4 3b
       0.15383379 0.069729365 0.033114374 0.0055198707
000240 f2 f1 1d bd ff c0 36 be 69 b9 97 bd f5 a6 58 bd
       -0.038560815 -0.1784706 -0.07408411 -0.052893598
000250 bb 94 b8 bd fa 1e 09 bd 5c 30 dc bc d3 d8 19 3e
       -0.09012743 -0.033476807 -0.026878528 0.15024118
000260 16 05 91 3d 5c 38 06 bd 59 0d 27 3d b7 b9 b4 3c
       0.07081048 -0.032768592 0.040784214 0.022061212
000270 41 7d 1d be ed 3c 8e bd 96 00 be 3d b9 07 1d bc
       -0.15379812 -0.069452144 0.092774555 -0.009584361
000280 f7 5b 2f 3e e0 71 08 bc 7d a6 18 be 97 6c bf 3d
       0.17124926 -0.008327931 -0.1490726 0.09346884
000290 f6 8f dc 3d 73 b1 6f 3c cc a8 fd 3d 3b d4 c6 bc
       0.10769646 0.01462971 0.12385711 -0.024271121
0002a0 1f 8d df bd 8e f2 af 3d 54 0f 63 bc 59 c9 d6 bd
       -0.109155886 0.085911855 -0.013858635 -0.10487623
0002b0 b4 a7 cc 3c bd 55 aa 3c 0e 4e 19 3e 96 80 3a bd
       0.02498231 0.020792836 0.14971182 -0.045532785
0002c0 ad 34 13 be 15 b9 2b 3e 6e 20 80 bd 1e 12 be bc
       -0.14375563 0.16769822 -0.062561855 -0.023201998
0002d0 94 4c 19 be 9a b2 ee bd c0 80 4a bc 27 d0 0c be
       -0.14970618 -0.11655159 -0.012359798 -0.13751279
0002e0 cf 6d c0 bd 64 d8 5c 3d 47 5d cb bd d4 00 f5 3d
       -0.09395944 0.053917304 -0.099299006 0.119630486
0002f0 d0 a2 df 3d f7 ff b3 bc ee dc 53 bd 24 06 a6 bd
       0.10919726 -0.02197264 -0.051724367 -0.0810664
000300 ab 4e 67 3b e3 5e b1 3d 77 20 d3 3d 9f b7 6b 3c
       0.0035294692 0.08660676 0.103089266 0.01438704
000310 35 86 5e 3c 5c 3e 1a bd 15 9c fb 3b 7f a9 a9 bd
       0.013581802 -0.037657127 0.0076785185 -0.08284282
000320 90 39 76 3d db 9d 35 3e 58 05 be bd 6d be 79 3d
       0.06011349 0.17735998 -0.09278363 0.06097262
000330 f7 ee 1a bd e9 25 83 3d 22 66 e5 bc ec 81 b1 3d
       -0.03782555 0.06403715 -0.028002802 0.08667359
000340 71 ee b8 bb 66 a4 47 3c 49 5d ea bd b3 ff 70 bc
       -0.005643659 0.012185192 -0.11443574 -0.014709401
000350 d0 0f 06 3e 10 2d e0 bd 0a 5c c7 bd 03 13 7a bd
       0.1309197 -0.10946095 -0.09734352 -0.061053287
000360 5b 9b ca 3d 95 a0 df 3b b4 60 5d ba c3 36 93 3d
       0.09892913 0.006824563 -0.0008444891 0.07188179
000370 70 02 18 3e 85 01 93 3d 3f cb d5 3d aa 29 8e bd
       0.1484468 0.07178024 0.10439157 -0.069415405
000380 41 bf 39 bb e0 54 21 3c 24 29 be 3d 3b 3c 02 3e
       -0.0028342756 0.009846896 0.09285191 0.12718289
000390 09 cc 4e 3c 41 60 f2 bd 9c ce 14 3e 11 e4 1d 3d
       0.012621888 -0.11834765 0.1453194 0.03854758
0003a0 64 6b 1d 3e 1b 71 a6 bc 93 94 01 3d 80 7c 82 3e
       0.15372998 -0.020317605 0.031635832 0.2548561
0003b0 fa 1e 04 3d a2 d2 ba 3d 30 62 c6 3d 2b f1 5a bc
       0.032256104 0.09122206 0.096866965 -0.013363163
0003c0 e2 16 79 3c 1a 3f d9 3d 0f 1c 2d 3e 24 7b 8a 3d
       0.01520321 0.10607739 0.16905235 0.067617685
0003d0 9c 62 d3 3d 9a d0 35 3e 38 ba 07 3e 16 b0 33 bc
       0.103215426 0.17755356 0.1325463 -0.010967275
0003e0 95 8f 0c 3e 06 bc 0d 3e c4 3b e9 3d 5f 5a c5 bd
       0.13726647 0.13841256 0.113883525 -0.096363775
0003f0 1c dc 6c bc a5 01 c5 3d af 23 11 3e f1 57 5d 3e
       -0.014456775 0.09619454 0.14173768 0.21615578

main_network.lstm.bias_hh_l0 f4 [256]
000000 78 5b ed 3c e6 9d 4d bd 8b 0a 07 3e 53 b9 4c 3d
       0.02897428 -0.05019941 0.13187616 0.049981426
000010 c0 ed bc 3a a4 33 f3 bc 68 d9 4b 3d d0 8c 24 3d
       0.0014414117 -0.02968771 0.04976788 0.04017335
000020 bd 3e 90 bd 17 eb 18 3e 0f 96 be bd 87 72 82 3d
       -0.070432164 0.1493343 -0.09305965 0.063695006
000030 a5 a7 3f bd 68 a7 93 bd 93 52 55 3e 48 03 58 3d
       -0.046790738 -0.072096646 0.20832281 0.052737504
000040 d9 75 99 3d 89 8d 8a 3d 70 3b 96 3d 2c 4b 50 be
       0.07493181 0.06765277 0.073355556 -0.20341176
000050 5f 4f d9 3d bf 29 18 be 4d 73 86 3c 23 96 55 bd
       0.10610842 -0.14859675 0.016412402 -0.052145135
000060 a7 6d b6 3d 21 c6 8b 3d 7c eb 0c 3d 36 cd 43 3e
       0.08907633 0.068248995 0.034404263 0.1912125
000070 61 2c 9c 3e ed 16 b1 3d bb 6c 4b bd 62 22 2b 3d
       0.30502608 0.08646951 -0.04966424 0.041780837
000080 2b 62 0f 3d 0b 00 57 3d 15 34 81 3d b1 7a 27 bd
       0.03500573 0.052490275 0.06308762 -0.040888492
000090 c7 41 b8 3d 21 f4 8e bd 6a fe 99 3a 90 bc f2 3d
       0.08996921 -0.06980158 0.0011748795 0.11852372
0000a0 e6 d2 59 3e d9 db 0f be a3 14 9c 3d 06 cd 44 3d
       0.21271858 -0.14048709 0.07621124 0.048047088
0000b0 12 5b 2c bd 48 60 99 3d d1 2f 23 bd 5a 77 01 3e
       -0.04207904 0.07489067 -0.039840523 0.12643185
0000c0 de 56 60 3e 7f f3 21 3d 5b 43 e5 bd 91 68 a7 3d
       0.21908137 0.039538857 -0.11194488 0.08174241
0000d0 d6 74 7c 3d d1 87 35 3e 7f 3f 0e bd 9d 85 00 3e
       0.06163486 0.17727591 -0.034728523 0.1255097
0000e0 23 a9 e9 3d a5 f3 24 bd d9 38 91 bc 1e d6 cc bd
       0.114092134 -0.04027142 -0.017727302 -0.10001777
0000f0 d0 93 46 3e cc 54 86 3d e0 21 37 bd 36 b2 0c 3e
       0.19392323 0.065591425 -0.04471004 0.13739857
000100 51 7a 6d 3d 64 18 62 bd fb cf de bd e7 06 02 3d
       0.05797798 -0.055199042 -0.10879513 0.031744864
000110 0e 5d d3 bd e4 9d 46 3b cb c7 cf bd bf db 1a be
       -0.10320483 0.0030306512 -0.10145529 -0.15122889
000120 2a 70 a6 3d 2f 54 28 be 62 a4 a2 bb 1a 24 a9 bc
       0.08126862 -0.16438363 -0.0049634436 -0.020647097
000130 e4 89 f0 3d 3d fd 55 3d 69 56 67 3d 7e 83 ed bd
       0.117450505 0.05224346 0.05647889 -0.11597346
000140 71 a1 c7 3d fb 9a f7 3d fa 32 b7 bc 31 76 86 bd
       0.097475894 0.12090107 -0.022363175 -0.06565512
000150 2c 5d 4d 3d 87 53 0f be 4f 5e d6 3d cc 58 be bd
       0.050137684 -0.13996707 0.10467207 -0.092942804
000160 ba 9e b2 bd 02 fa 31 bd 3c 0a b4 3c fe 5d 4d be
       -0.08721681 -0.043451317 0.021977536 -0.20055386
000170 fd 3c 18 3c 5b 34 00 bd cf e8 83 3d ee 6d a4 bd
       0.0092918845 -0.03129993 0.06440889 -0.0802878
000180 2c 7b 14 3e 51 9c 67 be b9 e3 2c 3e 2f 1d d8 3d
       0.14500111 -0.22618224 0.16883744 0.10552441
000190 c6 75 82 bd d0 f8 c0 bd bb 0a 61 3d be 78 ad 3d
       -0.0637012 -0.09422457 0.054941874 0.08470295
0001a0 4a 1f d3 bd 60 2f 91 bd 03 25 fa 3d 42 00 0a be
       -0.10308702 -0.07089114 0.12214091 -0.13476661
0001b0 13 c9 c2 bd 98 dc 99 3d 61 a8 3c 3e 5c 23 aa bd
       -0.09511008 0.07512778 0.18423606 -0.083075255
0001c0 89 66 5e 3e 59 2c a5 bd 71 bf b0 bb 78 f3 88 bc
       0.21718802 -0.08065099 -0.0053939153 -0.016717657
0001d0 03 a4 80 3d ed 91 42 3e 72 64 2d bd e6 2e fc 3d
       0.06281283 0.19000979 -0.04233212 0.12313633
0001e0 99 06 56 3d 3e 32 7f 3d 75 0e 4b 3b cd 59 10 bd
       0.052252386 0.062303774 0.003098396 -0.03524189
0001f0 5b 36 c6 3d 3d 5f 1b be fb 67 ba bd 4a eb aa bd
       0.09678336 -0.1517305 -0.09101864 -0.08345659
000200 f5 59 d8 3d 94 62 23 3d 78 78 ec 3d 2c 49 0f bd
       0.10564033 0.039888933 0.11546415 -0.03498189
000210 72 e0 bd bd 36 5c fd bc 11 bf 36 3b bd 6b a9 3c
       -0.09271325 -0.030927759 0.002788488 0.020681256
000220 91 13 eb 3d 9f 16 ab 3d 39 1f 15 3d f7 26 da 3b
       0.11478341 0.08353924 0.03640673 0.006657477
000230 f7 e0 9c bc 48 4d d4 3b 01 b6 3e 3e 53 69 e6 3d
       -0.01915024 0.006478939 0.18624116 0.11250558
000240 7c 24 80 3d c7 ec 03 be 7d ca f2 bc c6 c0 43 bb
       0.06256959 -0.12883292 -0.02963757 -0.002986954
000250 a0 89 3a bd df 09 42 3a 35 d9 72 3d c8 00 2e 3d
       -0.045541406 0.00074019836 0.059289176 0.042481214
000260 42 48 a0 3d 11 6f b0 3c ff 3c f8 bd c7 b9 11 3e
       0.07826282 0.021537336 -0.12121009 0.14231025
000270 9f ce b1 bd 83 e9 74 3c 90 b9 a6 bd 86 a9 b6 bc
       -0.08681988 0.014948252 -0.08140862 -0.022297632
000280 3f b4 83 3d 41 2c f9 bc 8a 7e 03 bd d2 2a 2a bd
       0.064308636 -0.03041661 -0.0321031 -0.041544743
000290 56 42 02 3d 7d 1a e8 bc f4 a1 b5 bd 5e d1 b9 bb
       0.031801544 -0.028332943 -0.08868781 -0.0056707105
0002a0 4e 82 c4 3d a3 4e 32 bd ce 89 1c be f6 1e 68 bb
       0.09595166 -0.043532025 -0.15286943 -0.0035418845
0002b0 93 3d e4 3d c0 b0 f2 bc 09 80 68 3d 77 02 8b 3d
       0.11144557 -0.029625297 0.05676273 0.067875795
0002c0 47 91 ec bc 79 63 a7 3c 6d 1e cb bd 53 81 83 3d
       -0.028877867 0.020433174 -0.09917913 0.06421151
0002d0 cc 7e 78 3d dd 17 1f be 9f 1a 19 be bb f8 04 be
       0.060667798 -0.15536447 -0.14951561 -0.12985508
0002e0 7f ef 24 be a3 21 98 3d 4e d4 9f bd 09 36 0d 3e
       -0.16106986 0.07428291 -0.07804166 0.13790144
0002f0 c1 9e 0f 3d 1d 82 55 bc 57 c8 4b ba 1a 0b 14 3d
       0.03506351 -0.01303151 -0.00077736884 0.0361434
000300 35 3a b2 3d aa e5 14 bd 50 28 26 b9 12 bf fd 3d
       0.08702508 -0.036351837 -0.00015846011 0.123899594
000310 f1 5b 03 3e 95 e2 05 bd 07 b0 22 3e 9f 88 cb bd
       0.12828042 -0.03268679 0.15887462 -0.09938168
000320 6d 2e f4 3c 8e 86 29 3e b0 9c 22 bd 28 1d e8 3c
       0.029807294 0.16555235 -0.03970021 0.028334215
000330 b1 8a 30 bc c1 8f 26 bd cc bd 2a 3e 1b 5c 0f 3d
       -0.010775254 -0.04066444 0.16673964 0.034999948
000340 6c 5b c4 bc 55 b1 8e 3d eb 26 d0 3d 7a 04 3d 3c
       -0.023969375 0.06967417 0.10163673 0.011536712
000350 a6 14 b8 3d c6 e3 a8 3d 73 b3 0a be f8 be 25 3c
       0.089883134 0.08246569 -0.13545017 0.010116331
000360 d5 db 0e 3d 22 e5 1e 3c 23 5b a9 3d f0 02 a0 3a
       0.034877617 0.009698184 0.08269336 0.0012207907
000370 c2 55 89 3e 60 05 e6 bd 38 8b 94 bd 73 01 e2 3d
       0.2682324 -0.11231494 -0.07253116 0.11035433
000380 1c 6f 6d 3c c6 89 15 3d e9 e1 38 3e 9a ec 1b bd
       0.014491823 0.036508344 0.18054928 -0.038067438
000390 60 e9 71 bd 08 e0 83 bd cb de 65 bc 3c 86 df 3d
       -0.059060454 -0.06439215 -0.014030169 0.10914275
0003a0 6a 11 54 3e ee 93 11 bd c9 3b f0 bd 61 f8 35 3e
       0.20709768 -0.035541467 -0.11730153 0.1777053
0003b0 b6 80 63 3d 8d 14 12 3e 3b 81 46 3e b0 d4 81 bd
       0.05554267 0.14265652 0.19385235 -0.06339395
0003c0 ba d5 07 3d 94 7a 8b 3d 7b 31 70 3c 74 30 62 3d
       0.03316281 0.06810489 0.014660235 0.05522199
0003d0 f6 ad 8e 3a 0f a4 dc 3d 16 7e d2 3c a9 9e 45 bc
       0.0010885585 0.10773479 0.025694888 -0.012061753
0003e0 7e fe db bc f6 44 0f 3e c2 e1 e0 3d 26 c0 9c bd
       -0.02685475 0.1399115 0.1098056 -0.07653837
0003f0 37 60 2d 3e 80 51 92 3d bd c2 8b 3d 48 43 30 3e
       0.16931234 0.07144451 0.06824253 0.17213166

main_network.fc.weight f4 [3, 64]
000000 f3 8e 96 3b c6 a0 04 bb bc 89 84 bc da dc fd bc
       0.0045946776 -0.002023743 -0.016178958 -0.0309891
000010 a9 36 26 3e 67 41 f6 3d a6 f6 8c 3d 53 a1 87 be
       0.16231789 0.12024193 0.06882982 -0.26490268
000020 0a 68 e1 3c 52 96 bb bb ad ad 02 3d a3 8e 30 bd
       0.02751543 -0.0057247067 0.03190391 -0.04310478
000030 28 e4 1a bd 12 80 fa bd 74 fd 00 be 57 d8 06 3d
       -0.037815243 -0.12231459 -0.12596685 0.03292116
000040 1e 39 82 bc 9a 10 f0 3c d2 01 9a bd 7b ab 68 3d
       -0.015896376 0.029304791 -0.075198784 0.05680416
000050 e9 48 15 bd 12 1d 5c 3d b2 8b 67 bd 1d fb a2 3d
       -0.036446486 0.05373866 -0.05652971 0.07958052
000060 53 9f a7 3d 42 bf 84 3d e9 23 9b 3c cd 7d 1e 3d
       0.081846856 0.06481792 0.018938022 0.03869419
000070 25 36 cf bd dc 52 0a 3d 60 49 90 bc cd 5c 23 bd
       -0.10117749 0.033770427 -0.017613113 -0.039883424
000080 ec 7c 9d 3c 02 cb a2 3b 7c 4e 65 bd 27 03 9c bd
       0.019224606 0.004968048 -0.05598305 -0.07617789
000090 91 d3 bb bd 0b 7e 2b 3d 45 7c 64 3d 76 91 90 3d
       -0.091712125 0.04186825 0.055782575 0.070589945
0000a0 27 e2 c8 bd 34 1f 1b bd 9f cf c0 3d 60 8f 02 bd
       -0.0980876 -0.037871554 0.094146006 -0.031875014
0000b0 ed 98 da 3c 89 a1 a3 bd 03 49 eb bd 06 2f 90 bc
       0.026684249 -0.07989795 -0.11488535 -0.017600548
0000c0 f6 1f 01 be 1e 05 00 3d f9 49 51 bd 6f 93 a2 ba
       -0.12609848 0.03125488 -0.051095936 -0.0012403558
0000d0 25 72 56 3d fa b5 19 3a 5b 47 3e 3b 4b 0e 70 bd
       0.05235495 0.00058636034 0.002903423 -0.05860738
0000e0 73 2f d0 bd a6 50 fa 3c 26 80 67 bd fa f7 16 3c
       -0.101653 0.030556034 -0.056518696 0.009214396
0000f0 c1 35 bb bc 04 34 07 3e 53 b8 16 3d ab 24 83 bd
       -0.02285278 0.13203436 0.03679688 -0.06403478
000100 bd cd 74 3c 12 cf a3 bd 28 21 7c 3c d2 d7 13 bd
       0.01494163 -0.0799848 0.015388764 -0.036094494
000110 6e a4 95 3d 51 1a 51 bd 06 1a fc 3d 4c 13 8d be
       0.07306753 -0.051050488 0.12309651 -0.27553785
000120 77 0b 01 bc c9 e2 4e bd 40 88 a5 3d 5b 06 81 bd
       -0.007876269 -0.050509248 0.08082628 -0.0630004
000130 78 90 af bd 5f 17 16 be b7 46 38 3d 85 86 96 3d
       -0.08572477 -0.14657353 0.044989314 0.07349876
000140 fc 2c 84 bc f2 12 b7 bd 64 bf d7 ba 60 33 4f 3d
       -0.016134731 -0.089391604 -0.0016460237 0.050586104
000150 a0 0d 67 bc 82 4a 0b bb bf 60 c4 3d 18 66 c1 3d
       -0.01410237 -0.0021254127 0.09588765 0.09443301
000160 5e e2 2c be aa 3f 00 b9 f3 0b 90 3c cc ea 8b bc
       -0.16883227 -0.00012230748 0.017583823 -0.017079733
000170 42 b7 a9 bd 37 fd 27 3d c5 45 05 3e ab 5d 9b bd
       -0.08286907 0.04101297 0.13014896 -0.07586225
000180 32 32 15 bd 7b 2d 0d bd ad 59 87 bd 2c 8a 38 3d
       -0.036424823 -0.0344672 -0.06608901 0.045053646
000190 27 99 d5 3d 20 9e 00 bd d4 1e 68 3d dc d9 77 3d
       0.10429602 -0.0314008 0.056670025 0.0605105
0001a0 fa 96 65 3d 6a 7e 5a bd 89 01 9e 3d 86 5d 85 bc
       0.056052186 -0.053343214 0.077151366 -0.016279947
0001b0 a0 09 48 3d 1b dd 8a bd c6 f0 d4 bd 2f 63 ba bd
       0.048837304 -0.06780454 -0.103974864 -0.09100949
0001c0 d0 17 f1 3b 3d 4c 03 be f2 ca 89 bc aa b0 e6 bc
       0.007357575 -0.12822051 -0.016820405 -0.028160412
0001d0 d9 24 db bc 82 97 4e bd 7f 47 e4 3c 07 91 ed 3c
       -0.026750969 -0.050437458 0.027866123 0.028999818
0001e0 0c 72 01 3d 7f 3a 08 3e fa d9 29 3d ee 5c e4 bb
       0.031602904 0.13303564 0.041467644 -0.006969086
0001f0 05 c1 91 3c 8c 40 66 be c8 0c bd 3d bd 25 81 3c
       0.017792234 -0.2248556 0.092309535 0.015765065
000200 b3 b8 e9 bd 4f c6 93 3d a8 60 6e 3e ed 44 1d 3e
       -0.11412182 0.07215559 0.23279059 0.15358324
000210 e8 4c 83 be 2c ca c9 3d f1 79 5b be 5d ad 2e 3e
       -0.25644612 0.09853014 -0.21433236 0.1705832
000220 18 ee 9a 3d ae 0b 2c 3e 69 77 60 3c d7 22 2c bd
       0.07564944 0.1680133 0.013700345 -0.042025413
000230 ef 9b 92 3c 52 de 1c 3e c1 00 f2 3d 15 d2 bd 3d
       0.01789662 0.15319183 0.1181655 0.092685856
000240 a6 fd b4 bd 52 d8 90 be 9b 73 01 3d ab 0a 67 3e
       -0.08837442 -0.2829004 0.03160439 0.22562663
000250 88 4c 33 be 41 3f f7 3d 69 76 db bd ba b0 84 3e
       -0.17509663 0.120726116 -0.10715944 0.25916082
000260 5d c5 cc bd ea be bf 3e 9b 90 82 be b5 df 81 3e
       -0.099985816 0.37450343 -0.2550095 0.25365987
000270 2d 62 82 be 2e 99 94 3d cf aa f2 bd 61 89 5b bd
       -0.25465527 0.07255779 -0.118489854 -0.05359781
000280 cf 36 b2 3e 6f 2d 9d 3d 47 de 59 be 7e b0 d5 3c
       0.3480744 0.076746814 -0.21276198 0.026085135
000290 b7 a6 8c 3c 23 17 ef 3c 31 ce 61 3e 3f ba 72 be
       0.01716934 0.029185837 0.22051312 -0.2370386
0002a0 d9 c7 46 be 0d 72 84 be 8e e6 be bd 9a 7c 61 3e
       -0.19412173 -0.25868264 -0.093213186 0.22020188
0002b0 de 50 9d 3e 1b 2a 30 be 5c 90 17 3e 27 52 80 be
       0.3072576 -0.17203562 0.14801162 -0.25062677
0002c0 50 48 50 be e8 f8 2a 3e d4 2a 1a be 4a 9b 26 3e
       -0.20340085 0.16696513 -0.150554 0.16270176
0002d0 1c 7b ec bb b3 4c 4c be 9d ef 9b bc fd 8d 08 bc
       -0.007216824 -0.19951133 -0.019035155 -0.008334634
0002e0 07 c1 6a be 5d 0f 64 3e 95 06 8f be 21 75 e9 bd
       -0.22925197 0.22271486 -0.2793471 -0.11399294
0002f0 be 8a 00 3e 28 8f 44 be c7 d8 9c bd c0 61 2d 3e
       0.12552926 -0.19195235 -0.076585345 0.1693182

main_network.fc.bias f4 [3]
000000 bd d5 a6 3d e2 83 aa 3d 70 e7 18 3d
       0.08146236 0.08325936 0.03733009

short_term_context_network.fc1.weight f4 [32, 7]
000000 07 a7 64 be 77 21 f6 3d c5 67 bd be 9f 7c 4d be
       -0.22329341 0.12018102 -0.36993232 -0.2006707
000010 e8 e8 39 3d be a6 84 3e 54 d6 2e be 51 a2 6c 3e
       0.045388132 0.25908464 -0.17073947 0.23108794
000020 38 d0 22 bd 0a 3f e1 bd 98 61 00 be 99 14 2c bd
       -0.039749354 -0.10998352 -0.12537229 -0.04201183
000030 9a 2c 5e bc c5 f8 0b 3f 9f 3e 1a 3e 10 1c b8 be
       -0.0135604385 0.5467647 0.1506295 -0.3595891
000040 b0 19 98 3e b7 5d 86 3e a2 c8 47 bd 03 1f 5b 3e
       0.29707098 0.26243374 -0.048775323 0.21398549
000050 4d 01 8e bd a8 65 03 bd 3a d2 1a be 8f 66 4e be
       -0.06933842 -0.03207937 -0.15119258 -0.2015631
000060 3a e5 fd 3d ac 43 b5 be 6c a4 99 3d e2 4f f7 3d
       0.12397237 -0.35403192 0.07502064 0.12075783
000070 82 08 cd bc 57 d0 99 bc fd 15 00 3e 61 9a a0 be
       -0.02502847 -0.018776102 0.12508388 -0.31367782
000080 bc c3 c4 3b 18 83 63 be d6 12 8a 3e cc bb 45 3d
       0.0060047787 -0.22217977 0.26967496 0.0482748
000090 c4 ef 81 3e 5b 16 09 3e 88 1e 98 3d d4 5e 81 bd
       0.2537824 0.13387434 0.074276984 -0.06316915
0000a0 56 71 b6 3c 61 99 49 3e f1 11 4c be 1d a6 1b be
       0.02227084 0.19687416 -0.19928719 -0.15200086
0000b0 76 84 05 bd 91 05 f9 3d 83 a5 b7 bd f1 b4 a7 be
       -0.032597028 0.12159265 -0.08967116 -0.32755235
0000c0 9e 6a 03 be 36 73 63 3d cd 99 c0 3e cf d0 8a 3d
       -0.1283364 0.055529796 0.3761734 0.06778108
0000d0 b3 09 6d 3e 39 4a 02 3f df 67 7f 3e 97 ad 67 be
       0.23148231 0.50894505 0.24941967 -0.22624813
0000e0 35 31 63 be 92 a3 b8 be 53 9f c7 bd 54 9e 0e be
       -0.2218674 -0.36062294 -0.097471856 -0.13927585
0000f0 17 61 eb 3d 88 f9 01 be d1 9f 8d be cd b4 22 3e
       0.11493128 -0.12692845 -0.27660993 0.15889283
000100 14 53 1e be d2 01 55 3e c0 72 d3 3c e1 4c 04 bf
       -0.1546138 0.20801476 0.025811553 -0.5167981
000110 f4 77 86 3d ed b9 9d 3e 75 a2 62 3e fe 38 a2 3e
       0.06565848 0.30805913 0.22132285 0.31684107
000120 8c 77 f1 3d 1c 9c a3 be cf 75 e7 3d 7c 4f 6d 3e
       0.1179038 -0.3195504 0.11301767 0.23174852
000130 3e bf 45 bd a6 f6 c2 3c 8d d3 a8 3d 8d 41 36 be
       -0.048278086 0.023799252 0.08243475 -0.17798443
000140 a3 4e 1e 3e b2 49 b7 bd eb c4 3a be d3 29 cf 3e
       0.15459685 -0.08949603 -0.1823918 0.40461597
000150 87 fd bf be 14 ff 44 be 12 dd a9 bd 62 3f 7d be
       -0.37498114 -0.1923793 -0.08294119 -0.2473121
000160 5d 54 a3 be 42 78 95 be 45 67 ae 3e 4c 8d 72 be
       -0.31900302 -0.29193312 0.34063163 -0.23686713
000170 eb 6e a3 3e 0b d6 24 3e 46 5b 0c 3e 1d c6 a7 3d
       0.3192056 0.16097276 0.13706693 0.08192084
000180 7c bb 55 be ac a9 f7 3d 25 70 01 bb 8f 51 6b 3e
       -0.20872301 0.12092909 -0.0019750681 0.22980331
000190 d9 cc fd 3d 9e 25 38 bc fe 9b 47 3d df 68 3d 3d
       0.12392587 -0.011239437 0.04873275 0.04624259
0001a0 df 7e be be 96 a2 ca 3e fd b4 e7 3b ad ae 36 3c
       -0.3720617 0.39577168 0.007071136 0.011150044
0001b0 ea 81 41 3e 21 93 9b bd dc 33 90 be ed 50 f2 bd
       0.18897215 -0.07596422 -0.28164566 -0.118318416
0001c0 bd fb 0b bb 8b 38 f8 3d bc 37 19 3d 16 5d 51 3e
       -0.0021359765 0.1212016 0.037406668 0.20445666
0001d0 d7 8c f4 3d c5 f4 bb 3e 08 16 fc 3d 60 2c 60 3e
       0.119409256 0.36710182 0.123088896 0.21891928
0001e0 87 55 7c 3c 82 a2 86 3d 2a bb 82 3e 10 55 3e be
       0.015401251 0.06573965 0.2553342 -0.18587136
0001f0 51 f8 6b 3e 36 95 a3 3e 17 e9 d1 3e 8b 7d 44 be
       0.23043944 0.31949776 0.40998146 -0.19188516
000200 3b 31 75 3e 0f 42 8f bd a6 3d 1b be dd 61 2d 3e
       0.23944561 -0.069950216 -0.15160236 0.16931863
000210 ea dd 06 bf 50 0c 78 3e 0a a8 b3 3c e9 a2 9e 3e
       -0.52682364 0.24223447 0.021930713 0.30983666
000220 d2 4d 01 3e ac 5f c4 bd de 83 30 3d cc 4e 1b bc
       0.12627342 -0.095885605 0.04309451 -0.009479236
000230 2b f5 5a bd e8 bd 94 3e d2 5e 9a 3e a6 88 9a 3e
       -0.053456467 0.29051137 0.30150467 0.3018238
000240 c8 47 68 be 8d 7c e8 bd f0 63 9f 3e 93 d8 3c be
       -0.22683632 -0.11351881 0.31130934 -0.18441992
000250 56 94 26 3e 8c e4 1d 3e 3d cd 78 be 2d a8 b4 be
       0.16267523 0.15419215 -0.24297042 -0.35284558
000260 59 18 af be 86 a1 1f bd 8b 35 2f bc be 04 bb 3e
       -0.34198263 -0.0389724 -0.010693918 0.36527056
000270 9b e7 05 be 06 5c d9 3c 0a 0c 84 3e 80 19 b3 3e
       -0.13076632 0.026533138 0.25790435 0.34980392
000280 ce 0d d1 be 29 ff a0 3d f4 ef 7f 3d 14 88 b8 3c
       -0.40830845 0.07861168 0.062484697 0.022525825
000290 62 4f 46 3d 94 7d 35 be b6 54 61 be 48 9b 82 be
       0.04841555 -0.17723686 -0.22004971 -0.25509095
0002a0 8e 2a ca bd 10 63 c3 3b a6 43 fe 3d c3 d7 8a 3e
       -0.09871398 0.005962737 0.12415247 0.27117738
0002b0 71 cc 50 bd 44 ac b5 be 53 72 f6 ba ed f9 ac 3d
       -0.05097622 -0.3548299 -0.0018802382 0.08446107
0002c0 c4 97 98 be ab bd 4e be d4 32 ba 3e ee 4d 3f be
       -0.29803288 -0.2018954 0.36366904 -0.18682072
0002d0 ed aa 0e bb 36 87 b7 3e 4d 62 8b bd 15 78 89 3c
       -0.002176936 0.35845345 -0.06805859 0.016780892
0002e0 32 46 8b be 32 5b 30 3e b7 e9 3a be 90 ae 10 3c
       -0.27201992 0.17222288 -0.18253218 0.008830681
0002f0 8c 11 99 3e 00 87 65 be d1 18 42 bd 29 62 99 3d
       0.298962 -0.2241478 -0.047386948 0.07489426
000300 f9 8e 99 3d af 85 6f bc 0e dc 36 be 41 72 be 3e
       0.07497973 -0.014619275 -0.17857382 0.37196544
000310 83 57 8b be 20 58 36 bc b6 ca b0 be 03 e2 3d bb
       -0.27215204 -0.011129409 -0.34529656 -0.0028973825
000320 3f 03 c1 be 9c 62 cd 3e 0b fe a5 be 99 82 17 3d
       -0.3769779 0.40114295 -0.32420382 0.036989782
000330 f5 fa 5d bb bf c9 13 be 35 2c 9d bb e0 5b e3 3d
       -0.0033871506 -0.14432429 -0.0047965297 0.11101508
000340 d5 85 89 be 1f fb 05 3e 8b b1 c3 bd 63 0e 4a be
       -0.26859918 0.13084076 -0.09555348 -0.1973205
000350 b9 b1 aa be 7f d6 6a 3e f3 c9 6e 3e 62 13 8b 3e
       -0.33338717 0.22933386 0.23319225 0.27163225
000360 b4 ab 8f be e8 78 a9 3e b0 66 5a 3e 57 9a bf bb
       -0.28060687 0.33100057 0.21328235 -0.005847256
000370 53 ea 39 3d f6 ac bd be e5 bd 49 bc d9 5d f7 3e
       0.045389485 -0.3704602 -0.012313341 0.48313788

short_term_context_network.fc1.bias f4 [32]
000000 b4 dd a7 be 4b 0a 66 3d 7a 12 6f be ff 25 2f be
       -0.32786334 0.05616216 -0.23346892 -0.17104338
000010 ea 6d ba 3d 6f 69 91 3d 23 3e b5 3d 44 57 9a 3d
       0.09102996 0.07100188 0.08849742 0.07536176
000020 6a 67 88 3d ac 01 4a bd 48 82 37 be 27 96 3b bd
       0.0666035 -0.049318 -0.17920792 -0.045797493
000030 08 50 aa 3e fa fa f4 3d 48 36 01 be d7 94 c0 bd
       0.33264184 0.119619325 -0.12618363 -0.09403389
000040 50 69 34 be d6 ae 0c be 70 b1 99 be 45 9b 54 3e
       -0.17618299 -0.1373857 -0.30018187 0.20762356
000050 38 ce a8 be a3 b7 9c 3e 76 49 b7 3e fe 14 73 be
       -0.32969832 0.30608854 0.35798234 -0.23738477
000060 30 42 9e 3e 13 8b 25 3e f7 6e d1 3e 18 1a b3 3e
       0.30909872 0.16166334 0.40904972 0.34980845
000070 9d 59 60 bd d5 b9 6a 3e 9a d1 61 be 56 55 dc bd
       -0.054772962 0.22922452 -0.22052613 -0.10758464

short_term_context_network.fc2.weight f4 [16, 32]
000000 5a 70 f6 3d 66 28 47 be fa cd 9a 3b 07 05 cc ba
       0.12033148 -0.19449005 0.0047242614 -0.0015565463
000010 98 2f 41 be 52 b2 2d be f6 b7 97 3d 20 44 09 be
       -0.18865812 -0.16962555 0.07408135 -0.13404894
000020 10 13 82 bd 08 89 90 bd 18 22 87 3c 59 ef 82 3d
       -0.06351292 -0.07057387 0.01649575 0.06393308
000030 a2 68 e1 3d 4c 2f 81 3c db ac 7a bc 2c a8 99 bc
       0.11006285 0.015769623 -0.015300001 -0.018756948
000040 d4 7a 11 bd fa 6e 38 bd 67 74 f3 bd d4 69 31 be
       -0.03551753 -0.04502771 -0.11887436 -0.17325526
000050 50 2e 60 3c 8c 3f 03 3e 36 22 de bd 2e a5 9f 3d
       0.013682917 0.1281721 -0.10846369 0.077951774
000060 05 39 ef bd 1e e7 b7 3d 89 5c b7 3d fb 88 1c 3d
       -0.116807975 0.08979629 0.089531966 0.038216572
000070 f2 61 a0 3d fa e4 05 3e 01 f9 fa 3c 9a 10 49 3c
       0.078311816 0.13075629 0.030636312 0.0122720245
000080 03 2d 0f bd 47 6e d0 bd 18 7f bd bd 8b 8e b2 3d
       -0.034955036 -0.10177284 -0.09252757 0.08718594
000090 81 8b 6b bc 29 cd 23 be 90 84 ac bc d2 9c 64 bd
       -0.014376522 -0.15996231 -0.021059304 -0.055813618
0000a0 14 e0 11 bb c0 6a 20 be a2 96 ff bd 9c c4 82 3d
       -0.0022258805 -0.15665722 -0.12479903 0.063851565
0000b0 f2 51 34 3e 9d 04 12 3e 79 3b d3 bd 10 a2 06 3e
       0.17609385 0.14259572 -0.10314078 0.1314776
0000c0 4c 58 13 3e a4 bc 14 bd 6c cd 3c 3d 03 d4 2b 3e
       0.14389151 -0.036312714 0.046094343 0.16780095
0000d0 6a 92 7d bd 86 db d0 3c e1 1b 80 bc 38 ee 99 3d
       -0.06190721 0.025495302 -0.015638294 0.0751614
0000e0 19 76 11 be 1d e2 f5 3c e3 f3 f4 bd 0f 54 78 bd
       -0.14205207 0.030015046 -0.1196058 -0.06062704
0000f0 fc ab d8 3d a6 74 a0 3d 82 7f 16 be c2 5f ee bc
       0.105796784 0.07834749 -0.14697078 -0.029098395
000100 64 ba 10 3e 2d 74 3c bd 11 2a 64 3e b4 18 b3 bd
       0.14133602 -0.04600923 0.22281672 -0.08744946
000110 47 f7 16 bc ee 0a 0d bd a3 25 1f 3c 25 60 cb 3e
       -0.009214229 -0.03443425 0.009713563 0.3972179
000120 7b b6 76 3e 79 72 e3 3d 5e d2 ac 3d d7 67 00 be
       0.24093048 0.11105818 0.08438562 -0.12539612
000130 fc 74 48 be 16 a9 86 3d ed e1 cd bc 66 55 4a 3e
       -0.19575876 0.06575219 -0.025132144 0.1975914
000140 b8 84 1a 3d e0 98 29 be d7 01 c1 3e e4 68 81 3e
       0.037724227 -0.16562223 0.37696716 0.25275338
000150 04 94 05 3e fc ab ab be 28 5f 4f 3e 44 f1 d7 3d
       0.13044745 -0.3352965 0.20251143 0.10544065
000160 83 2a a2 bd 93 69 fc bd e0 e3 8c 3d cb 2f cb 3c
       -0.07918265 -0.12324824 0.06879401 0.024803063
000170 83 dc ca 3d 2e 9d 53 bc 72 85 df 3d db 7c 3c bd
       0.099053405 -0.0129158925 0.109141245 -0.04601751
000180 52 e2 bd 3c d2 39 e4 3c f5 0f 2a bc 00 8f f4 3d
       0.023179207 0.027859602 -0.010379781 0.119413376
000190 92 50 dc bc 34 7f c7 3d d0 d7 19 3c bd 1a 25 be
       -0.026893888 0.09741059 0.009389833 -0.16123481
0001a0 5e dc 50 b9 e4 ad ad 3c d9 f3 4d bd 4d b7 01 be
       -0.00019918519 0.021201082 -0.05028138 -0.1266758
0001b0 58 f7 2b 3d 74 ed 23 be f0 43 db bd 07 e6 f6 bd
       0.041983932 -0.1600855 -0.107063174 -0.12055593
0001c0 c1 22 94 bd ea 13 31 3d ce 0b a5 3d 96 b7 1c be
       -0.07233191 0.043231882 0.08058892 -0.15304407
0001d0 57 b5 fd 3d f4 4a 06 3e 83 c5 c0 bd 17 5c a6 bd
       0.123881035 0.1311453 -0.09412672 -0.081230335
0001e0 45 e0 35 be cf 1d 7c 3d 81 33 59 be 12 81 fc bd
       -0.17761333 0.061551865 -0.21211053 -0.12329306
0001f0 e4 fa 25 be 89 07 69 3d e3 21 16 3e cb d3 b1 bd
       -0.16208988 0.05689195 0.14661364 -0.086829744
000200 dc 93 89 bd 12 b3 8a 3e a9 ca 3a bd ef b7 ea 3d
       -0.06717655 0.27089745 -0.045603428 0.11460864
000210 4c 78 a0 3e fc 52 06 3d 96 38 18 bd 30 b7 86 be
       0.3134178 0.032793984 -0.03716334 -0.26311636
000220 9c 51 61 bd 73 fc b2 3e 61 2e aa 3d f6 ee ab 3e
       -0.05500947 0.34958228 0.08309627 0.3358075
000230 f3 2d 22 3c b8 91 11 bd cc 5e fa bd 73 bd 40 be
       0.00989865 -0.03553936 -0.12225112 -0.18822269
000240 e2 90 a4 3d b1 f2 84 bc 11 5b 0e be 43 45 e2 bc
       0.08035447 -0.016229006 -0.13901927 -0.027620917
000250 e1 88 75 ba 71 0c 87 3e 92 a4 93 bc 9a 78 17 3e
       -0.0009366405 0.2637668 -0.01802281 0.147921
000260 b9 bd 70 3e 96 6c ca 3c f3 ca 71 3e 15 80 25 3e
       0.23509873 0.024709981 0.23612575 0.1616214
000270 88 1d 92 3d cb 73 2f 3e 75 7d 8a b9 58 d4 17 3e
       0.07134539 0.17134015 -0.00026414884 0.14827096
000280 c7 dd b7 3d 20 0c 11 be 62 b0 3f be e1 f5 56 ba
       0.089778475 -0.14164782 -0.18719628 -0.0008200091
000290 77 dc 85 bb 0b 9d e3 3d e7 41 33 bc ee d5 53 be
       -0.0040851193 0.11113938 -0.010941005 -0.20687076
0002a0 c0 28 fa bd f0 1c 18 3e 96 80 2b bd ce 78 19 be
       -0.12214804 0.14854789 -0.041870676 -0.1498749
0002b0 4b 4a 51 be 34 b5 ba 3d 65 4b 8b 3b b7 e3 e8 bd
       -0.20438497 0.09116593 0.004250931 -0.11371558
0002c0 f4 e7 88 bd df fd 8b 3d 53 35 1c bd 9c 4f 83 bd
       -0.066848665 0.068355314 -0.03813679 -0.06411669
0002d0 3a 6b 46 bb c2 59 e4 3d 1e bf e6 bd bb d2 2f be
       -0.0030276314 0.111499324 -0.112669215 -0.17170231
0002e0 65 7b 9e 3d 1f d6 b2 3d bc cc b3 bd 2a 54 af 3d
       0.077383794 0.087322466 -0.08779284 0.08560975
0002f0 f2 1e 08 be 56 52 f0 3d 49 8c 1b be d6 10 15 be
       -0.13293055 0.11734454 -0.15190233 -0.14557204
000300 e6 29 07 be bc 5d 4f bd 4f f3 6b 3e 96 7a e9 3d
       -0.13199577 -0.0506265 0.23042034 0.114003345
000310 3b ff eb bd a4 3f 1d be 4b 2f 34 be 56 ce 89 3e
       -0.11523291 -0.15356308 -0.17596166 0.26915234
000320 cd 57 44 3e 9b 92 05 be 7a 5c 5b 3e 5f 2e 7a bd
       0.19174118 -0.13044207 0.21421996 -0.06107938
000330 2d b3 04 be f1 c7 94 bd c1 99 a6 bd 9e a3 09 3e
       -0.12958975 -0.07264698 -0.08134795 0.13441321
000340 03 39 a1 3d 66 18 80 be 0a 0c 22 3e b9 ea 49 bd
       0.07872202 -0.25018615 0.15824905 -0.049296115
000350 14 f7 c4 ba 2f e5 02 3c dd e2 dc 3d 9d 77 b7 bd
       -0.0015027248 0.007989212 0.10785458 -0.08958361
000360 f9 37 56 3e 66 40 cd bd e6 de 20 bd bb c3 40 3d
       0.2091979 -0.10022049 -0.039275073 0.047061663
000370 82 0c 91 3d c2 08 c5 3d a7 6c 97 3c ea 29 82 bd
       0.07082464 0.09620811 0.018484427 -0.06355651
000380 cb 29 18 be 16 71 15 3e 32 8d 23 bc 1a 7f 0f 3e
       -0.14859693 0.1459392 -0.009982394 0.14013329
000390 a7 a2 4c bd 52 6a 26 be de 78 24 be f4 14 61 3d
       -0.049959805 -0.16251495 -0.16061732 0.054951623
0003a0 91 a1 9d bd a3 ba 1b be 44 ce a0 3c 5f 62 52 be
       -0.07696832 -0.15207915 0.019629605 -0.20545338
0003b0 ff ad fc 3c 1a a1 86 bd 2e a7 21 3e 15 ea cd 3d
       0.030844687 -0.065736964 0.1578643 0.10054413
0003c0 03 76 72 be bd 99 1f 3e 43 79 ff bc 3b fb 1a 3e
       -0.2367783 0.1558599 -0.031185752 0.151349
0003d0 fc 98 3c 3c 56 e7 24 bc 87 2c 69 3d 6d 8b d6 bd
       0.011511084 -0.01006492 0.05692723 -0.10475812
0003e0 95 58 31 bd ee 5d c2 bc 96 e2 33 be 2f 9f 37 be
       -0.04329737 -0.02372643 -0.17566904 -0.17931817
0003f0 c0 5d 20 be cf 4f f1 bd 2b 60 4d be 19 c2 f7 3d
       -0.15660763 -0.117828004 -0.20056216 0.12097568

short_term_context_network.fc2.bias f4 [16]
000000 1a 06 bc bd 87 0d 21 be c5 6c 30 3e cb 57 c8 3d
       -0.09180851 -0.15727817 0.17228992 0.0978237
000010 7f 21 4e 3e 16 c2 77 bc 4a 7d 13 3e aa 7c 27 be
       0.20129965 -0.015121957 0.14403263 -0.1635615
000020 72 d6 8a bd e5 50 80 3e ca e6 5f 3d 2a 0f 45 3e
       -0.067791834 0.25061718 0.054663457 0.19244066
000030 0f 76 0b 3e c2 bc 2c 3e 48 26 3b 3d f2 7b 12 3e
       0.13619255 0.1686888 0.045690805 0.14305094

short_term_context_network.fc3.weight f4 [1, 16]
000000 ff eb 64 be 1a 13 6f 3e f5 62 95 be a0 b5 0a be
       -0.2235565 0.2334713 -0.2917706 -0.13545847
000010 7a 99 14 3e d5 67 ec bd bf a1 aa be 40 78 62 bd
       0.14511672 -0.11543242 -0.33326527 -0.05529046
000020 7b 13 09 3c 00 a9 ad be 57 27 b2 3e 35 75 1d 3e
       0.008366461 -0.33918 0.3479564 0.15376742
000030 47 6d cd bd 32 12 c3 3e 68 83 28 be 16 18 63 3e
       -0.100306086 0.3809982 -0.16456378 0.22177157
