Uni_Research/IRL/Final/Extended/Testing_Suite/model_C1000_R0_S0.0.pth (torch, 91224 bytes, 11 tensors)

main_network.lstm.weight_ih_l0 f4 [256, 15]
00000000: 803a dcbc 8339 23bd d437 12be 6395 69be
00000010: d710 303d fef2 043e 603c b3bd bc16 a7bd
00000020: 50ff 8ebb 12d1 8ebc 9775 f9bd 403e 5bbd
00000030: a6cc d4bd 1499 20be 64c0 1a3d e62a 9ebd
00000040: 5a39 66be a056 a13c d7b7 61be b2e7 1abe
00000050: 7865 b33d b6cf 7cbe dfd5 12bd 72f1 a7bd
00000060: 8336 06be bce9 9ebd daf0 2dbd fb6f 533d
00000070: e0cf 8fbd dd6e 61bd b234 e03b 4674 c03d
00000080: 42a5 62bc d165 923d 9e2c a0bd d1e3 0bbd
00000090: 5635 49bd 27de 10be d931 07be 933a 9d3c
000000a0: 896d b6bd 4e53 1abe f90a b13c c8e9 983c
000000b0: 84b8 f3bd fa97 f63d 1db1 a8bd df1f 733d
000000c0: d11c 08bd 5631 e7bd 1279 f5bc cf0f 45bd
000000d0: 2761 6fbe 9806 003e 98d3 e03c 6f06 663c
000000e0: e8c5 e13d add9 2a3e c666 563e 2a17 b6bd
000000f0: e935 a93d 0d2b 2c3e 29d2 2d3e ee14 473e
00000100: c0f0 b73d 7270 91bd 54a1 b73d d410 47bd
00000110: 0f8a 403b c40a 493e ff1a b53d 2f06 a8bc
00000120: d813 1e3e e4a3 023e 2812 913d fae6 29bd
00000130: 1976 08bd d3d9 4d3d e5af fe3c a942 bd3d
00000140: aefc 4ebd 1244 ba3d b79d 82bd f9dc 57be
00000150: 2835 01be d113 15be a9c2 18be 823f 893d
00000160: 4ada 90bd 31fc 95bc 57a1 cf3e bc13 1438
00000170: f31c 14bc 2a8d fc3e 2c29 9cbd 2d25 34bc
00000180: 170f 13be 45a3 08bc 7608 f93d 61cf 5c3d
00000190: 87d1 b33d 841d 6e3e 967f 383d 2bc7 783e
000001a0: 4e87 d63c 397a 4d3e e410 443e ffbf dd3d
000001b0: b7ed e13e 437f 883c ba4d 3d3e d937 82ba
000001c0: c581 4d3c 3d1b 88bd 6314 843d 577a a23d
000001d0: 3808 8ebd fd42 5bbd bb55 813e 109f 143e
000001e0: fca3 b9bd 0aeb 963d 5691 8fbd 5b52 4b3e
000001f0: 5608 58bd 403a cf3d 1869 21be c1be 133e
00000200: 80c2 debd 4f11 603d a542 1dbd f1a1 1d3d
00000210: 3349 843d bb96 043e bf38 623d 8de4 4a3e
00000220: 4a3f 4d3e 4efa e63d 0850 503e e500 f23d
00000230: 5957 fdbc 9e89 933d ef20 413d 1c38 433d
00000240: c370 c93b 5524 7b3d 13f6 843c c76a 303e
00000250: 1544 8d3e 2f20 943d 7f55 113c f8a9 20bc
00000260: 1594 0cbd f9b2 bf3d c056 063d 5612 2dbe
00000270: c8ca 463d f0f6 d3ba 2499 fa3c 0335 ca3d
00000280: cedc 4cbc 14d1 fdbc 7bc0 303c cdce 1fbd
00000290: 8608 2cbd 2d62 c0bc d3fb 823d b32e 943d
000002a0: 4874 973e c8da 81bd 9a46 153e e5df 93be
000002b0: 20a2 7c3d 955f c03c 47d0 92bd 58af 4bbe
000002c0: 237a 1c3e 7eed d33c a013 c33d 9121 ee3c
000002d0: b328 d0bd 9b30 50be c8a0 453d 8abe 6a3e
000002e0: 5ceb fabd a956 b2bd 5c8c a0be 7df5 4e3d
000002f0: 3e8c d1bd 7428 3abe df53 dfbd bfec 4b3c
00000300: 915c b5bc c1c2 f2bd a165 0abe 1bbe cabc
00000310: 0475 0b3e aed8 423d 0533 a7bd 26de 45bd
00000320: fb9f 0fbe 6093 41be 3eba 8e3d 16c7 a13d
00000330: d2c9 2b3b d69c 07be b6e0 033e 8290 95bd
00000340: fedc 2fbe e36e 94bd 162a b7bc d662 143e
00000350: 05f6 1b3d e5c5 633e 4c9f c3bc f860 343b
00000360: 1f04 03bd 61b2 493e 97fe d83c 143b 6fbd
00000370: 1505 89bd 0dde 1ebe 0d33 333d 831a 843e
00000380: f82d 00bd bd0f 0739 a64d 24bc cb9d 81bc
00000390: 1f96 203d 1656 12bd 4f7b 1abe 8ca7 883c
000003a0: 3023 bfbd 1dc2 70be 85a7 473a b4d1 15be
000003b0: 3eee 823c ed08 b4bc f01f abbd 2765 853b
000003c0: 938f de3d 52a3 063d 26f4 6d3c eb6b 223e
000003d0: 3b9d a83c d50f 07be c8fb 43be 7fa6 bbbc
000003e0: b42a 0c3e b045 f03c 4491 f0bd 59d0 383d
000003f0: a4b5 243e 1e8e 613e eef1 23bd 1e8a fabd
-0.026883364 -0.03984977 -0.14279109 -0.22810893 0.04298481 0.12983319 -0.0875175 -0.08158633
-0.0043639317 -0.017433677 -0.121806316 -0.053526163 -0.10390596 -0.15683395 0.037781134 -0.07723026
-0.22482815 0.019694626 -0.22042786 -0.15127447 0.08759588 -0.2468861 -0.035848495 -0.08200349
-0.13106732 -0.07759425 -0.042466022 0.051620465 -0.07022071 -0.055037368 0.0068422193 0.093971774
-0.013833346 0.07148326 -0.0782101 -0.03415281 -0.04912313 -0.14147244 -0.13202609 0.01919297
-0.08907611 -0.1507084 0.021611677 0.018666163 -0.11900428 0.12040706 -0.08236907 0.059356567
-0.033230606 -0.11288707 -0.029964957 -0.04811078 -0.23376904 0.12502515 0.027444646 0.01403962
0.11024076 0.16684599 0.20937642 -0.08891137 0.08262236 0.16813298 0.16974701 0.19441578
0.08981466 -0.07101525 0.08966318 -0.048600033 0.0029379164 0.19633013 0.0884304 -0.020510761
0.15437257 0.12757832 0.07083541 -0.041480042 -0.03331575 0.05025656 0.031089732 0.0924123
-0.050533943 0.09095015 -0.06377738 -0.21080388 -0.12617934 -0.1455834 -0.14918007 0.06701566
-0.07072885 -0.01830873 0.4055278 3.530433e-05 -0.009040105 0.4932645 -0.076250404 -0.0109951915
-0.14361225 -0.008339708 0.12159817 0.05390871 0.087801985 0.23253447 0.04504355 0.24294727
0.026187565 0.20066155 0.19147068 0.10827636 0.44126675 0.016662246 0.18486682 -0.0009934857
0.0125431465 -0.0664582 0.06449201 0.07933491 -0.06935161 -0.053530682 0.2526072 0.14513803
-0.09064481 0.07369049 -0.070101425 0.19855635 -0.052742325 0.10118532 -0.15762746 0.14428236
-0.10876942 0.054704007 -0.038393635 0.038484517 0.06459274 0.12948124 0.0552299 0.19813748
0.20043674 0.112782106 0.2034303 0.11816577 -0.03092544 0.07203983 0.04715055 0.047660932
0.0061474754 0.061313946 0.016230619 0.17228232 0.27591005 0.07232701 0.0088704815 -0.009806149
-0.03432091 0.09360308 0.032797575 -0.16901526 0.04853323 -0.0016171616 0.030590601 0.098733924
-0.012503816 -0.030983485 0.010788078 -0.03901558 -0.042000316 -0.023484314 0.06395688 0.0723547
0.29580903 -0.06340557 0.14577714 -0.28881755 0.061678052 0.023483077 -0.07168632 -0.19891107
0.15280966 0.025870081 0.095252275 0.02906874 -0.10164013 -0.20331042 0.048249036 0.22924247
-0.122519225 -0.08707935 -0.31357086 0.050527085 -0.10231827 -0.18179494 -0.10904669 0.012446581
-0.022138866 -0.118535526 -0.13515331 -0.024748852 0.13618857 0.047569923 -0.08164028 -0.04830756
-0.14025871 -0.18903875 0.06969117 0.07899301 0.0026212824 -0.13243422 0.12878689 -0.07302953
-0.17174146 -0.072477125 -0.022358935 0.14490828 0.03807642 0.2224346 -0.02387967 0.0027523618
-0.031986352 0.19696952 0.026488585 -0.05840595 -0.066904224 -0.15514393 0.043749858 0.25801477
-0.03129384 0.00012880466 -0.010028278 -0.015822312 0.039205667 -0.03572663 -0.15086101 0.016681455
-0.09332883 -0.23511548 0.000761621 -0.14630777 0.015982743 -0.021976912 -0.08355701 0.004070896
0.10867228 0.0328706 0.014523542 0.1586148 0.020582786 -0.13189633 -0.19139016 -0.02290654
0.13688165 0.029330105 -0.11746457 0.04512057 0.16084915 0.2202687 -0.040025644 -0.12233375

main_network.lstm.weight_hh_l0 f4 [256, 64]
00000000: 63b2 5d3e 7b4d 1c3e 1b35 4bbc 970a 0e3e
00000010: 7a5c 843d 06d9 443d a1cd 9d3d 3dc7 45be
00000020: 47a9 7bbc 6b23 243e ebbc f7bc 8f86 533e
00000030: 5722 81bd 0659 42bd 67a2 25be c55b 84bc
00000040: de8d c6bd 758f 143c 4c12 923d 195c c03d
00000050: a713 823d 5ab5 29bb 744e f83d 43cf 72bd
00000060: 7f5d 0e3e 137b bfbd 8bcc 3c3e c30a 463e
00000070: d507 d5bd fe52 0b3e cfeb 1d3e 57b8 5ebd
00000080: 003a 84bc 9599 37be e902 06be 7bac 873e
00000090: b408 8e3d 1558 87be ac4d 35be f728 04be
000000a0: d4dd 463d b786 18be e6a0 023d ac15 193d
000000b0: b8b3 12bc 0ae8 9f3d 175f dc3d 3675 343d
000000c0: d7ff 79bc 9bea 22be 7758 81be 92bc 17be
000000d0: 3540 6f3e b8ba 3dbe 8943 1a3e d0eb 98bd
000000e0: 61b2 343e 9849 a73c 2544 b0bd f144 143e
000000f0: 1aac 72bb 6dd4 553e 2f92 bb3d 0f8f f7bd
00000100: fb38 fe3c 4807 9ebc 52ca 323d ffb7 45be
00000110: 499c 5f3d e703 1bbe 9b5c 9d3d 580a 5fbe
00000120: ffff cc3d 5721 e53b 6ca3 673e 0cd6 323e
00000130: 1ebc 19bd f5ae 02bd 9ac8 86be c8a3 173d
00000140: 6b2e d33d 6791 f03d 9965 2fbd 88da 25bc
00000150: 7310 043b a658 5bbc 1bad 8a3d fa2e 76be
00000160: 18a8 7b3d f14f e2bd c983 d7bd 662e dd3d
00000170: 6324 8fbd 3a9a 8c3d 1c6f 1c3e 7db3 dcbb
00000180: 1815 62be 12c0 88bd 7188 bf3d a0fa 8f3e
00000190: 31a0 f9bd ec5b ecbd 555f 25be a5ca bbbd
000001a0: ca6c 833c 870b 3abe 198d 223e 96f5 0c3e
000001b0: 1954 6e3d b431 133e 0b1a 003d a0c2 473e
000001c0: 4aa1 50be ae18 f5bd 8ddf 66be 9435 5abe
000001d0: 1231 343e ce81 b7bd 03a7 233b b5bf 8bbd
000001e0: bd24 bf3d b3d7 db3d e6d5 a53d d390 353e
000001f0: 9bd9 9b3d 1d7e 9b3d 70c9 6a3e 074c a7bd
00000200: 712a d5bd 0fbe babd 869b b2bc 08e0 60bd
00000210: 1c97 0a3e 1085 bbbd 5c0e 58be 3880 483e
00000220: add0 0d3e 8ae9 243e dde9 68bd 8558 ac3c
00000230: 7937 203e e3f7 483d 4fa8 d63d c7c7 cebd
00000240: ddfc 00be 6377 00be 4dba 5c3d f40b ccbc
00000250: 6233 a1bd 625a 573e 1b1f 563d 9b49 13be
00000260: 2e1b 043d 29d9 1a3e f698 3abd a9eb b93c
00000270: 9307 7bbb 4e82 b4bd 9d1e 0bbe 947e e83d
00000280: dc29 3d3c 5c8b 18be 7617 76bd 2cb9 ac3c
00000290: 0d5f 01bd 6e9b 73bd 93bb 163d 09b0 f8bd
000002a0: c7dd ac3d 9101 b4bd f91b 9cbd af46 edbd
000002b0: 5a18 3d3e a5bd 093b 672d 82bd d035 5fbe
000002c0: 505d e43d c86c cb3c 21e7 9e3d fbf3 b13c
000002d0: a9ae 7cbd 9589 373d b5d6 85bd 2f25 503c
000002e0: a917 84be e3b2 02bd ecef 0ebd ca76 083d
000002f0: 2290 803d 2131 58be 6980 02bd 4979 943c
00000300: 0812 773e 4b2f a83e 96d1 fcbd 67e0 9bbe
00000310: 286e 333d 9aba 20bd 7f98 85bd 8803 873b
00000320: 7d37 903d 8db8 263e 41e9 073e d951 893d
00000330: 7ad6 43be d991 9fbe 541c 32be 42bf 47bd
00000340: 2291 a03a 41c0 083e a411 c2bd adee 2e3e
00000350: 5811 0b3d e8c1 153e 5b7f 463e 8629 22be
00000360: 6f65 393e 355c 77be 0e75 a73d 4a83 783e
00000370: 753e cabd 7dec 133e b338 cb3d 9bb4 813d
00000380: a6a5 a3be 4445 56be 5547 4a3d f921 363e
00000390: 3ee8 8bbd a81f cdbe ac3a 82be 733e e13c
000003a0: c88d ebbd be9a 86be 76f1 b2bc 66a5 df3a
000003b0: 91ec 923d 77e1 f8bb e245 ce3b 6bf8 263e
000003c0: 04b0 eebe 234e a53d 0e27 8dbe e3a0 19be
000003d0: 11b7 183e 2a1c 3dbe 6cfd 9e3e 0274 79be
000003e0: cb1a 713e 437b ca3d 4b6a edbc cb03 8c3e
000003f0: f104 aebc febf 913e 28af 6e3e a56b 0fbe
0.2165008 0.15263931 -0.012402798 0.13871227 0.06462951 0.048058532 0.07705236 -0.19314285
-0.015360183 0.16029136 -0.03024145 0.20656799 -0.06305378 -0.04744818 -0.16175233 -0.01615704
-0.09695028 0.009067406 0.07132396 0.09392566 0.06351405 -0.0025895447 0.12124339 -0.05927969
0.13902853 -0.093496464 0.18437402 0.19340043 -0.104018845 0.13605878 0.15421985 -0.05437502
-0.016140938 -0.1792968 -0.13087048 0.2649878 0.06935254 -0.2643439 -0.1770541 -0.12906252
0.048551396 -0.1489514 0.031891726 0.037374184 -0.008953981 0.0780793 0.107603244 0.044057094
-0.015258751 -0.15909807 -0.25262806 -0.14818028 0.23364337 -0.18528259 0.15064825 -0.07466853
0.17646171 0.020420834 -0.086067475 0.14479424 -0.003702885 0.20881815 0.09158742 -0.12087833
0.03103303 -0.019290581 0.04364998 -0.1930847 0.054592405 -0.15138207 0.07683679 -0.2178129
0.10009765 0.0069925 0.22620934 0.17464465 -0.03753292 -0.031905133 -0.26324922 0.03702143
0.10311588 0.11746483 -0.0428215 -0.010122903 0.0020151406 -0.013387835 0.067712985 -0.24041358
0.061439604 -0.11050404 -0.10523183 0.107998654 -0.06989362 0.06865354 0.1527676 -0.006735264
-0.22078359 -0.066772595 0.09352196 0.281209 -0.12188757 -0.1154097 -0.16149648 -0.09169511
0.016043086 -0.1816846 0.15874137 0.13765559 0.05818567 0.14374429 0.031274837 0.19507837
-0.20374027 -0.11967598 -0.22546215 -0.21309501 0.17596844 -0.08960305 0.0024971373 -0.068236746
0.09333179 0.10734501 0.080974385 0.17731027 0.07609864 0.075924136 0.22928405 -0.08168798
-0.10408486 -0.09118282 -0.021802675 -0.054901153 0.13534206 -0.09156239 -0.21099228 0.19580162
0.13849135 0.16104713 -0.056863654 0.021038303 0.15646161 0.04906453 0.10481321 -0.10096698
-0.1259646 -0.12545542 0.053888608 -0.024908043 -0.078711286 0.21030572 0.05227576 -0.14383547
0.032252483 0.15121903 -0.04555603 0.02269538 -0.0038304075 -0.08813916 -0.13585897 0.11352268
0.011545625 -0.14896911 -0.060080968 0.02108439 -0.031584788 -0.0594744 0.03679998 -0.12142951
0.08440738 -0.08789361 -0.07622523 -0.115857475 0.1846632 0.0021017578 -0.06356316 -0.21797872
0.111506104 0.024832144 0.07758928 0.021722784 -0.061690006 0.044808943 -0.06535093 0.012704178
-0.257993 -0.03190888 -0.034896776 0.03331641 0.06277491 -0.21112491 -0.031860743 0.01812424
0.24127972 0.32848582 -0.12344663 -0.30444643 0.043806225 -0.039240457 -0.06523227 0.004120294
0.070418335 0.16281338 0.13272573 0.06705064 -0.19124785 -0.3116596 -0.17393619 -0.048766382
0.0012250284 0.13354589 -0.09476021 0.17083235 0.033952087 0.1462475 0.1938452 -0.15836152
0.181051 -0.24156268 0.08176623 0.24268833 -0.09875194 0.14445682 0.09922924 0.06333276
-0.31962317 -0.2092486 0.049384434 0.17786397 -0.06831406 -0.40063214 -0.25435388 0.027495598
-0.11501652 -0.26289934 -0.021843653 0.0017062842 0.07174028 -0.007595237 0.006294952 0.16305701
-0.46618664 0.08071544 -0.2756886 -0.1500278 0.14913584 -0.18467775 0.3105272 -0.2436066
0.23545377 0.098867916 -0.028981348 0.27346644 -0.02124259 0.2846679 0.23309004 -0.14005907

main_network.lstm.bias_ih_l0 f4 [256]
00000000: a588 193c 6c5a ed3d ac03 303d 9061 1e3e
00000010: f78b b73d 05e8 b63c 8b1c 433b c8ff 3f3e
00000020: 7047 09bd b283 453d 1256 473e d968 023b
00000030: d020 3a3d d3bb 993d 2127 2bbd 9245 0a3e
00000040: ed8b 113e 0804 0a3d 019b aa3d e558 dc3d
00000050: 0d1c 34bd e7dd 943d a881 553d 75e7 99bc
00000060: 4dab 2fbd dfe1 213e 964f 213c 9e91 bc3d
00000070: d4e7 1a3e 0ccd 62bd 9eda 523c 90cb 1bbe
00000080: 5376 48bc 7bf4 1cbd 8816 213d efbf 113e
00000090: d03b bdbd d113 dc3d 9caa 113e f698 40bc
000000a0: 300b 713c f961 05bd fccf bfbd aad4 08bd
000000b0: cc7b 193a 7753 31be bd95 973a 7b41 df3d
000000c0: dd27 763d 1258 1a3e 8ea2 f03d 26ce 52bc
000000d0: 9498 123e 7478 c13d 132a 59bb f332 073e
000000e0: b935 b53c e50e 413d 55c5 c03d 7665 693c
000000f0: 95c1 2d3d 6e5e 273e fae6 3d3e e64d 293c
00000100: 4158 393e 1b24 7cb9 d17c fabd e7ff 04bc
00000110: 9899 bbbd 1de4 01be 60d6 1b3d 8484 5dbd
00000120: 2405 e8bd fe71 4f3d 27f0 2c3e 63a7 72bd
00000130: adbe 033e c43b 69bc 25e2 4c3d 9aab 913d
00000140: 04bd 833d 4158 2e3d 68b6 7dbc 93a9 81be
00000150: db53 d8bd f7b0 c0bd 371a 47bd a63f 21bd
00000160: 4e97 ca3d b35b 3d3e ca2a d4bd ee33 df3d
00000170: 3393 583c fd7a e93d 19c3 ddbd ddc8 c03d
00000180: 7c72 36be 0c1d f23c 6461 093e 7ec7 babc
00000190: d24e 15be 9d5b c03d 0753 013e 65ea e83d
000001a0: e02a bbbd 6903 40bd 73a4 68bd 9eee 01be
000001b0: 399f eebc b489 2cbe 4253 6f3e 0060 da3d
000001c0: 2dc7 3cbe b0ea 07be af3d 293d 4e62 15bd
000001d0: 47da 393e dab2 3ebd 7672 dbbd 558e 033d
000001e0: 7b3d c9bd 231a e7bd 23ef 023d a841 043e
000001f0: 2cb4 ce3d a2db 95be 43bd dd3d 5d1d 93bd
00000200: 9145 ca3d 8c8b 603d 48c3 d83d 34e5 6a3d
00000210: f586 45bd 4831 283d 5abd 023d 52c8 d2bc
00000220: 2e78 913d ec8a f93c 8a74 f83d 85bf 443c
00000230: 5fd9 49be 2754 71bd 4f1a 94bd 7270 8f3c
00000240: 0bea 38bc da38 153e fbf6 153e 6afa 883d
00000250: de80 3cbd 0d6e 45bb d4a7 223e 1810 623d
00000260: 4f50 d43c cdd1 83bd 9c8f 82bd 0fd9 003e
00000270: 59ca 2dbc 75b0 b3bd 0b92 19bd a21a 8e3c
00000280: 8f74 7d3c fbfe a03d 3c3d 023e 02da fdbc
00000290: ebb3 f5b8 eac8 11be cef1 abbd ec5f 6f3b
000002a0: 0ca5 cb3d dd19 21bd b918 b13c c92b cb3d
000002b0: 5e70 a23d 0b8d 123d 4e57 133e fdcc f13d
000002c0: e331 7dbd 9a0d 1bbd c2bc 3d3d 8c07 22bd
000002d0: fd14 34bd f0f0 bcbd 2a8c 8fbd 7901 77bd
000002e0: bca2 803d 0539 dabd 28d8 2ebe 35ad 953d
000002f0: 830e a4bd 0032 853c 7fff 20bd 7ce1 aabb
00000300: f963 4c3e acf7 25bd d10b acbd d312 ba3d
00000310: f54f 34bb 73c8 53bc cd10 c23d 455d fe3d
00000320: f9cb 85bd 7b18 b83d 6def 1b3e 0da1 f83d
00000330: a99c 3ebc f1f1 f33d eeba 473e f8a6 293e
00000340: 28b8 943b 6fb3 41bd fb73 f3bd e361 463d
00000350: 4a3f ce3d 0910 433e a840 153d 48e0 bd3d
00000360: 97ed d0bd 38bd c43d 9c05 71bc 2728 a53d
00000370: 2fca adbd 868b 313c c07f 3b3e d947 7e3d
00000380: 4dd9 0e3e 10a6 a4bd 15b5 043e 08d4 65bd
00000390: d2ae 4d3d aa47 573d 056f 883d fa39 b7bd
000003a0: 61d0 093e 06a0 c7bc 55c5 b83c 23fb 8f3d
000003b0: 081d f0ba c11d e63c ae82 973d d9b5 053e
000003c0: 9f53 cd3d 2552 9e3c 0b98 7abc 0b05 083d
000003d0: 669e 9a3d 0120 c33d 37dc 68bd fb43 9f3c
000003e0: e766 c23d 483d 8f3d 4e67 0ebd a1fd 623d
000003f0: e019 8ebd 9509 ae3d 8fc7 2b3e c5ca a03d
0.0093709575 0.11589512 0.04297225 0.15466905 0.08962243 0.022327432 0.0029771652 0.18749917
-0.033515394 0.048221298 0.19466427 0.001989892 0.04544145 0.07506528 -0.041785363 0.13503101
0.14213534 0.03369525 0.08330346 0.10759143 -0.043972064 0.07268887 0.052125603 -0.018787125
-0.042887975 0.15808819 0.009845635 0.09207462 0.15127498 -0.05537133 0.012869505 -0.15214372
-0.012235242 -0.038319092 0.039328128 0.14233373 -0.09239924 0.10745967 0.14225239 -0.011755219
0.01471214 -0.032564137 -0.09365842 -0.033405937 0.0005854934 -0.17316996 0.0011565011 0.10901161
0.06009661 0.15072659 0.11749755 -0.012866532 0.14316016 0.09446803 -0.003313665 0.1320303
0.022120344 0.047133345 0.09412638 0.014245382 0.042420942 0.16344616 0.18545142 0.010333514
0.18100072 -0.00024046043 -0.12230838 -0.0081176525 -0.09160155 -0.12684675 0.03804624 -0.054081455
-0.113291055 0.05064582 0.16888486 -0.059241664 0.12865706 -0.014235441 0.050020356 0.071128085
0.06432536 0.042564634 -0.015485384 -0.25324687 -0.10562869 -0.09408753 -0.048608985 -0.03936734
0.0989214 0.18492012 -0.10359724 0.10898577 0.013218689 0.11400411 -0.108282275 0.09413312
-0.1781711 0.029554866 0.13416058 -0.022800203 -0.14580849 0.09392474 0.12629329 0.11372832
-0.09139037 -0.046878252 -0.056797456 -0.12688681 -0.029128658 -0.16849405 0.23371604 0.10662842
-0.18435355 -0.1327312 0.04131859 -0.036470704 0.18149672 -0.046557285 -0.10715191 0.03211816
-0.098261796 -0.11284282 0.03196634 0.12915671 0.10092959 -0.2926913 0.108271144 -0.07183335
0.0987655 0.054820582 0.10584122 0.05734749 -0.04822441 0.041062623 0.03191886 -0.025730286
0.071030006 0.03046175 0.12131603 0.012008552 -0.19711827 -0.058918145 -0.072315805 0.017509673
-0.011286269 0.14572468 0.14644997 0.06688388 -0.046021335 -0.003012541 0.15884334 0.05519113
0.0259172 -0.06436501 -0.063750476 0.12582801 -0.0106073255 -0.08773891 -0.037492793 0.017346684
0.015469684 0.07861134 0.12718672 -0.030987743 -0.00011716023 -0.14236799 -0.0839573 0.003652568
0.099435896 -0.039331306 0.021618234 0.09920461 0.079315886 0.03577904 0.14388773 0.118066765
-0.061815154 -0.03785477 0.04632259 -0.03955798 -0.04396533 -0.09225643 -0.07009156 -0.06030414
0.06281039 -0.10655407 -0.17074645 0.07308427 -0.080105804 0.016259193 -0.03930616 -0.005214868
0.19960012 -0.0405194 -0.08400691 0.09085622 -0.0027513478 -0.012926209 0.09475861 0.124201335
-0.06533045 0.08989044 0.15228052 0.12140093 -0.01163403 0.11911381 0.19504902 0.165676
0.0045385547 -0.04729026 -0.11887356 0.048433196 0.10070665 0.19049086 0.036438614 0.09271294
-0.10201567 0.09606403 -0.01471081 0.08064299 -0.08485829 0.010836488 0.18310452 0.062080238
0.13950081 -0.080394864 0.12959702 -0.056110412 0.05021555 0.05255858 0.066618 -0.08946605
0.13458396 -0.024368297 0.022555033 0.070303224 -0.0018319199 0.02809036 0.07397972 0.1305765
0.10025715 0.019326279 -0.015295039 0.033207934 0.07549743 0.09527589 -0.05685064 0.019441595
0.09492283 0.0699411 -0.034766488 0.05541766 -0.06938529 0.084979214 0.16775344 0.07851175

main_network.lstm.bias_hh_l0 f4 [256]
00000000: d3af 0a3e 8966 0abd c54a 8bbd 26f6 ab3d
00000010: ccbf 163d 94ff be3b e29d 2c3e 92c8 f9bc
00000020: 2da9 b43d 46e2 523e 2912 853e 19d8 c539
00000030: 9097 6cba ca7c 633e c443 9e3d be77 a63d
00000040: 87ca 3e3e 4e50 c83d 7797 66bd cc2e 753d
00000050: c9aa 25bd 1fd7 283e d581 65bd 4ca0 8dbd
00000060: acc8 fd3c ab77 e73c 7022 a33d f005 8b3e
00000070: b093 a63d edb1 6a3d aa7b 153e e83c c33c
00000080: 3661 873d 3c5a 433d abdf d53b 3993 47bd
00000090: 8e8b d2bd 2111 783e 84e7 eb3d 2916 39bc
000000a0: 0fb4 96bd 13dc a5bd 5544 fdbd bd51 c03d
000000b0: bee6 763d e1a1 27be 2256 2d3e 9f0e d7bc
000000c0: 6414 d53d 78de be3d c142 c33d 963e 01bc
000000d0: 27dd 003d f574 b93d c655 3f3e 760a 103e
000000e0: 98b5 82bd 7ed3 b1bc a870 49bc 01c2 da3d
000000f0: 1142 1b3e 4d51 31bd f79f bb3b fcb8 efbb
00000100: 5b15 323e 519e 9fbd ce28 1abe a917 923d
00000110: 0e72 dabd d49c c3bd c456 b73d 09a6 593d
00000120: ec31 20be 95c0 a3bc 01e0 463e 6983 583c
00000130: 506c 803d 9be5 a2bd 1c9a d13c 81eb da3d
00000140: c4db c1bc f993 58bd 50c8 cebc 834b 86be
00000150: 1bc9 8dbd e864 9a3d 6bcc 82bc b462 54bd
00000160: c582 353d 85b7 0b3e 522a c6bd 476f 7f3c
00000170: 4d07 bfbc 745a c23d 4f3e 363d bb59 c7bd
00000180: 358f 15be 0512 cebd dfa9 46bc 78c5 fa3d
00000190: 2a9d 75bd 4bd8 313d 366f 863c 96a2 86bd
000001a0: c98c 95bd dea3 e93d 4440 c7bd 0d9e ae3d
000001b0: 4805 00be a97f dbbd c285 693d d43c 913c
000001c0: dba1 243c 08f3 f0bd f105 c13c a560 093e
000001d0: 393f 4c3c a81f abbc 2ab4 45bd f815 f43d
000001e0: 4aac 313d 55f5 96bd 27e8 893b a394 f13d
000001f0: bb9a 73bd 3efb 68be 1500 6abd fb22 d03c
00000200: 67e7 193e 1717 8f3d 33c6 8a3c 80a1 143d
00000210: 6da6 d5bc 5471 243c 526a b63d ce5c 04be
00000220: 4012 aabd 6f50 b33d 9d99 503c 7a68 e93d
00000230: d5b4 2cbe 33ae f8bd a1e8 b0bd b603 d7bd
00000240: b4bd a13d 0bef 103e 9c76 72bd 8933 5dbd
00000250: 893d 013e c3f1 85bd 541d 2f3d 4e9a b73c
00000260: caa9 a33c 7cda 14be 96f8 e5bc 9f63 be3d
00000270: 5ab3 06be 31a4 b43d 7ad6 8c3d e988 7bbd
00000280: 52a3 8cbc d8b6 edbb c2fc 973c 7903 983d
00000290: 77eb 0fbe c831 b7bc 88d0 ce3d 48c2 a13d
000002a0: ba07 0bbd dac6 8d3c ccf6 b93d 39d8 f93d
000002b0: 064d e9bd 9ee7 543d 4425 dd3d 3d3e 4a3d
000002c0: f026 dd3d 0082 673d df14 be3d 8d40 a8bd
000002d0: 28c7 223e ea64 163d 2ae5 e73c ec08 dfbd
000002e0: 0d62 b0bc 27df 06bc ef36 c6bd 81a4 083e
000002f0: 4489 e8bd 9312 093d 0ecb 893d 1791 c4bc
00000300: d0ec 023d 63d2 01be b1c3 b83c e176 203d
00000310: 973e 0bbc 8ae2 933c 5dce 233e d186 613e
00000320: 6c40 c33b 8556 a43d bb67 883e 2104 073b
00000330: 8d8e 6f3c 952e 703e fca0 1c3e 1262 31bd
00000340: 2bd0 82bd 7a2b 163e 2ded 96bd 09fa a6bc
00000350: 7af8 673d 8fb7 4d3e 3402 5e3d 8efd 643d
00000360: d722 683d 5086 2e3e 9efd bb3c c95a 8a3e
00000370: 7b34 18bd e185 a4bd 2761 5e3e 589f cfbd
00000380: 6b96 d23d 3c31 01be c730 013d 7158 313e
00000390: f43b 83bb fded 843c dd9d f83d 114f bf3d
000003a0: 6c33 66bd 1082 d43b f622 013d 2589 493e
000003b0: 0a03 b3bd c3c6 183d 65e9 5e3e 4272 10bc
000003c0: de06 a43d efc7 bf3d 6757 303e 2ea9 db3d
000003d0: ae39 ef3d 9d96 323c 9ce5 a23d 8614 b33d
000003e0: 373d 243e b793 c03d fb98 153e 273a 3e3d
000003f0: 93ca 3dbc 0fdc 913d f0ee d33d dd28 ccbd
0.13543634 -0.03378919 -0.068013705 0.083965585 0.036804006 0.005828807 0.16857103 -0.030491147
0.0882133 0.20594129 0.25990418 0.00037735773 -0.000902527 0.22215572 0.07727769 0.08128308
0.18631946 0.09780942 -0.056296792 0.059859082 -0.040446077 0.16488312 -0.05603202 -0.0691534
0.030979477 0.028255304 0.07965553 0.27152967 0.08133638 0.05729859 0.14597955 0.023832753
0.066103384 0.047693476 0.0065269074 -0.048724387 -0.10280524 0.24225284 0.115187675 -0.011296787
-0.07358562 -0.080986165 -0.12366549 0.0939059 0.060278647 -0.16370346 0.16927388 -0.026252089
0.1040428 0.09319776 0.09534217 -0.007888457 0.031460907 0.09055511 0.18685064 0.1406649
-0.063822925 -0.021707293 -0.012294926 0.106815346 0.15161921 -0.043290425 0.0057258564 -0.007315753
0.17390959 -0.07793868 -0.15054628 0.07133419 -0.106662855 -0.09551397 0.08952096 0.05313686
-0.15644044 -0.019989291 0.19421388 0.013214924 0.06270659 -0.0795395 0.02558618 0.1068945
-0.023664363 -0.052875493 -0.025242 -0.26229486 -0.069231234 0.075387776 -0.015966615 -0.051851943
0.044314165 0.13644226 -0.09676041 0.015590495 -0.023318911 0.09489909 0.044493016 -0.097339116
-0.1460541 -0.10062031 -0.012125461 0.122446954 -0.059964336 0.043419164 0.016410451 -0.065739796
-0.07302243 0.11408208 -0.097290546 0.085262395 -0.12502015 -0.107177086 0.057012327 0.0177292
0.010048355 -0.117651045 0.023562403 0.13415773 0.012466245 -0.020889118 -0.04826752 0.11918253
0.0433772 -0.07371012 0.004208583 0.11795928 -0.059473734 -0.22752091 -0.057128984 0.025407305
0.15029679 0.06986826 0.016940212 0.03628683 -0.026080335 0.010036785 0.08906998 -0.12926027
-0.08304262 0.08755576 0.012731937 0.113968804 -0.16865857 -0.12142601 -0.086381204 -0.10498755
0.07897511 0.14153688 -0.059195146 -0.054004226 0.1262113 -0.06540253 0.04275258 0.022412445
0.019978423 -0.1453647 -0.028072637 0.09296345 -0.13154355 0.088203795 0.06876846 -0.061409865
-0.017167721 -0.0072544627 0.018553142 0.07422537 -0.14054666 -0.022362605 0.10098368 0.07898384
-0.033942915 0.017306734 0.09080276 0.12199444 -0.11391644 0.0519787 0.107981235 0.04937576
0.10798442 0.056520462 0.092813246 -0.08215437 0.15896285 0.036717333 0.028307516 -0.108903736
-0.02153113 -0.008231915 -0.096784465 0.13344003 -0.11354306 0.03346498 0.06728183 -0.023994965
0.031964123 -0.12677912 0.02255425 0.03917587 -0.008498809 0.018052358 0.1599669 0.22024085
0.0059586074 0.08024315 0.2664164 0.0020601826 0.014621389 0.2345527 0.15295786 -0.043306418
-0.06387361 0.14665022 -0.073694564 -0.020382898 0.05663345 0.20089553 0.05420132 0.05590587
0.05667385 0.17043424 0.022948083 0.2702239 -0.037159424 -0.08033348 0.21716748 -0.10137814
0.10282596 -0.12616438 0.03154066 0.17318894 -0.0040049497 0.016226763 0.12139485 0.093412526
-0.056201383 0.006485231 0.031527482 0.19681223 -0.08740814 0.03729893 0.2176872 -0.008816304
0.08009122 0.09364306 0.17220841 0.10725628 0.116809234 0.010900167 0.07953951 0.08744149
0.16038977 0.09403174 0.14609139 0.046442177 -0.011583942 0.07122051 0.10348308 -0.099687316

main_network.fc.weight f4 [3, 64]
00000000: d7c5 133e 9828 bd3d 38f1 1e3d 684b 833c
00000010: ed8f 0d3d ff50 9abd 3c54 38bd 6fcf 043d
00000020: 2a75 1f3d fea1 4a3c deac 59bc aeaf bebb
00000030: 3e75 bc3d b7cf 183c e9d5 dbbd d11c 2bbd
00000040: 20dd 7d3d 1b52 88b8 241f 78bc 1cd8 26be
00000050: d703 86bc f37d 0cbc 1012 323c 3a8f a5bd
00000060: 4c0e 7c3d 3701 f83c c962 06bd fec4 b7bd
00000070: fced f8bd 7c5d a13c 0853 e0bc 0aaa 28bd
00000080: 97c0 2ebd c063 c0bd b36d dabb caec 44bd
00000090: bc96 173e ad32 7b3d 1c69 d3bd 7b34 983d
000000a0: 38b8 d93d 6316 afbc eafd 5d3b 57d8 9bbd
000000b0: ac0d 15be 01a2 b63d a87f 29bd 701b 12bd
000000c0: 6fb3 493c aeac e83d 7c75 b1bc efd4 3abd
000000d0: 6221 13bd 469e 49bd f6fb 393c a635 e13c
000000e0: 6287 763d 6b3f 02be 8ef3 a03d 0112 80bd
000000f0: 4c25 a9bd 6735 c4bd 3600 793d 3fb3 73bd
00000100: deca 3e3d 92cd 7a3d 62c9 383e f67f 263d
00000110: 9011 a43d 2e2e c3bc af17 24bd cde3 c63c
00000120: 8af1 39bd 1689 333c 8442 de3c 0c15 b53d
00000130: f276 403c 5b37 b1bd 4e7b d5bd 3c87 24bd
00000140: c971 9bbc ab44 923c 58f4 4d3d 6527 5ebd
00000150: c0d2 ca3d 91f2 833d 95f0 843c 9518 6bbb
00000160: 4006 753c b1f4 d03c 4915 b23d 878a 7d3d
00000170: a9b4 6d3d 723a e2bd 816a e23d d677 333d
00000180: af88 14be c05b f43d 5250 173d b9bb 82bd
00000190: aa88 ea3d 4481 52bd ac16 8f3d d05e 1f3e
000001a0: 4360 a43d b3da d03c 08d0 fe3d 6f8d 673c
000001b0: 02dc 55bd bf1f 213c 519a c3bb 641e 49bd
000001c0: ae15 8ebb cd5f bd3d 2b1d dc3c e9b2 c53c
000001d0: 3775 28bd a346 d63d c729 05be b5e9 e13b
000001e0: 2356 193d 2c13 0dbe 8b7c 9bbd 7ab8 7dbd
000001f0: 5d15 fdbd d602 493d be6f f33c 5935 58bd
00000200: a498 363e a942 4a3e 5bd8 d3bd b878 8ebe
00000210: bc05 2abd 1411 b9bc fc9d 6dbe 01d8 14bd
00000220: 3d3b 81be 8d68 b2be 26a7 083e d900 b0be
00000230: 32e1 4abe 8b41 73be 59df bbbd 2040 aebd
00000240: a64e ac3e 9747 333e b8d8 ab3c 14a5 6f3d
00000250: 37db 0e3e b17a c53c f15f ffbc 5695 33be
00000260: 574c ae3e 7ccf 5dbe 7a75 e1b9 1390 183e
00000270: 4a95 21be 3399 983d 67f3 7fbd 59dc 95bd
00000280: 313b 64be 30fe c1bd 6b29 8c3e cb0b 363e
00000290: c443 7fbe 6f2c 46be 5453 45be 4767 80bd
000002a0: 1621 6fbe bf1a 8abe 2844 293e d8ef d63d
000002b0: 3605 a53c 98dc 543e 72b3 353e fd09 a03e
000002c0: 11ef 8bbe eb7b b23e 4748 1cbd cdb6 1cbe
000002d0: bd32 f4bc bf2f 9fbd 7a4d 7d3d 06e6 16be
000002e0: ce6c e43d c39f 1c3d c90b 08be 8c9a 513e
000002f0: b1fb 3e3e b2f3 383c e015 933e 206d 253d
0.14430939 0.09236258 0.038804263 0.016027167 0.034561086 -0.0753498 -0.045002207 0.032424387
0.038930096 0.0123677235 -0.013285844 -0.0058192825 0.0920205 0.009326867 -0.107341595 -0.04177553
0.06197846 -6.500279e-05 -0.015144143 -0.16293377 -0.016359253 -0.0085749505 0.010868564 -0.08083959
0.061537072 0.030274017 -0.032809053 -0.0897312 -0.12154767 0.019697897 -0.027383342 -0.041177787
-0.042664137 -0.09394026 -0.006665909 -0.048077382 0.14803594 0.061327625 -0.103227824 0.07431885
0.1063084 -0.02137298 0.0033873268 -0.07609623 -0.14555997 0.089176185 -0.041381508 -0.035670698
0.012310847 0.11361061 -0.021662466 -0.045613226 -0.03592051 -0.049223207 0.011351576 0.027491402
0.060187705 -0.12719505 0.07858954 -0.06253434 -0.08259067 -0.09580498 0.060791217 -0.059497114
0.046580188 0.061231203 0.18045571 0.040649377 0.08011162 -0.023825731 -0.04006165 0.024278546
-0.045396365 0.010957977 0.027131326 0.08841905 0.011747109 -0.08653136 -0.10423909 -0.040168032
-0.018975155 0.017855009 0.050281852 -0.05423679 0.099034786 0.0644275 0.016228 -0.0035872806
0.014955103 0.025507303 0.08695466 0.061899688 0.05803362 -0.11046304 0.1105547 0.043815456
-0.14505266 0.119315624 0.036941834 -0.063834615 0.11451848 -0.05139281 0.06986746 0.15563512
0.08026173 0.025494909 0.124420226 0.0141328415 -0.05221177 0.009834229 -0.0059693237 -0.04910125
-0.0043360805 0.09246788 0.026869377 0.024133163 -0.04112741 0.10462692 -0.13004218 0.006894315
0.037435662 -0.13776845 -0.07592114 -0.06194351 -0.1235759 0.04907497 0.029716369 -0.05278525
0.17831665 0.19751991 -0.10344001 -0.27826476 -0.041509375 -0.022591151 -0.23204798 -0.03633881
-0.25240508 -0.3484539 0.13345012 -0.34375647 -0.19812468 -0.23755471 -0.091734596 -0.085083246
0.33653754 0.17507778 0.020977363 0.05850704 0.13950811 0.024106355 -0.031173678 -0.17537436
0.34042618 -0.2166118 -0.0004300287 0.1489871 -0.15779606 0.074510954 -0.062487986 -0.073174186
-0.22288205 -0.094723105 0.2737535 0.17777936 -0.24928194 -0.19352888 -0.19270068 -0.062696986
-0.23352465 -0.2697353 0.16529906 0.10494965 0.020144086 0.20787275 0.17744234 0.3125762
-0.2733083 0.34860167 -0.038154867 -0.15304108 -0.02980935 -0.07772779 0.061841466 -0.14736184
0.11153565 0.0382383 -0.13285746 0.20469111 0.186507 0.01128857 0.28727627 0.040387273

main_network.fc.bias f4 [3]
00000000: c539 cb3d 4703 1d3c b243 963d
0.09923128 0.009583301 0.073371306

short_term_context_network.fc1.weight f4 [32, 7]
00000000: 0a0b bc3e 95c6 96bd cc93 823e b2a5 b53e
00000010: 393a cebe 7f6a acbe ef69 183e 9559 abbc
00000020: 039c 8a3e 7116 2abe e454 f13d cf90 3d3d
00000030: 8001 8d3e 7a36 7fbe 4642 4ebe c27d 60be
00000040: ee0f 0abe e0da bb3e 35f1 8cbe b1a6 05be
00000050: 7346 81be 4eeb e63d 98f5 a93e 5758 a9be
00000060: 33cd 4cbe 6167 c2be e44a d73d ee30 af3e
00000070: bb92 473e e157 66be 6e96 843e d74c 02be
00000080: 16d2 d93e 3570 f93e de07 48be 0044 72be
00000090: 7354 203e 155d 82be f92f 02be c4a0 7dbd
000000a0: 00be 9bbe 1689 9ebe 7e2c abbe 8de6 75be
000000b0: a61d 6bbe 96e4 323e 4729 1abe d2b4 303d
000000c0: aa30 51be 5705 8d3d 0544 9dbc 1ca9 02be
000000d0: d8ff 2e3d 94c5 64be 2066 c0be 6e65 053f
000000e0: 0fb8 54be 0225 fbbd 01e0 c7bd b3de 813c
000000f0: b267 1b3e 1d19 6d3e ff7a 543e 4e3a 493e
00000100: 4cad 85be ff8a 80be aedc 22be 6641 0c3e
00000110: ad5a 8a3d a794 3cbe 7fd4 90bd daad bf3d
00000120: cb51 d2ba dd6a 823e 7e10 99be 2d84 8d3c
00000130: 49d3 8dbe bb65 9bbe 72de 44be 88d6 6ebe
00000140: 4460 84be fb15 c1be 1d5f 843d 1585 853e
00000150: 0db1 b2be ceb8 bc3e 5c58 92be 8a74 a43e
00000160: 3d83 f3bd b997 b4be f7c8 8b3e 72d0 89be
00000170: a3c9 af3e 4587 bcbe cbfa 98be 3827 013e
00000180: c10c 63be 698a 8d3e dc17 f33c 37b4 1f3e
00000190: c64a 1f3c 2b7b 313e 265a ea3c ed0d 59be
000001a0: ab33 7a3d 381d e3bb 332d a93e 88e8 6d3e
000001b0: f222 9abd 526f ea3d 0f66 b73e 799a c4be
000001c0: 231a b7bd 6b0d 5dbe 63db 513e 2b83 6a3e
000001d0: eec2 323d e12f 103f b1dd b0be e65c 8b3e
000001e0: 1d47 16bc f699 493d fc1b ad3e 5b96 1bbf
000001f0: 16bc 1e3e 3f09 0f3f 3e1a e6bd 8fd2 19be
00000200: 83d8 2e3e 2981 e43d 0674 31be 8103 d3bd
00000210: 0200 003f 873c 4c3e 5a53 1cbe 98af 813e
00000220: 4998 c53d 0891 35be adba 38be b5b6 70be
00000230: 0842 85bd a31e 39be 82e5 4dbd c207 903d
00000240: 41d4 5c3e 6f3d 74bd 37ce 9c3e d383 81be
00000250: 02b0 be3e ad21 633d 6823 a0be 7ce8 63be
00000260: a9bc 2fbe d90b bebd 31dc 9e3d 03df e1bd
00000270: b1cf 63be a7ba 04be d119 38be 42cd 673e
00000280: c074 02be ffbb 8bbd e3f7 ec3d 0e26 23be
00000290: c3e6 723d 4dee b33c 367a 33bd ccd0 bf3e
000002a0: ac11 053d 39b0 9c3e e51d 4dbe c0fc 09bc
000002b0: 918f 99be 27ad f8bd 3e66 ee3e 8a89 103e
000002c0: 8432 b63c 06bf ad3d d038 36be 8b93 0a3f
000002d0: b483 e1bd 3696 ecbe 14f1 6d3e 8770 5fbe
000002e0: 1948 4f3e 76e2 70bd 1210 283c eb1d 143e
000002f0: 2bf4 223e fcff 293d 8ca1 ad3e 84f2 bdbe
00000300: ff89 733c ca0a d3bd f7f7 67bd 8621 8b3e
00000310: b48f a03d a3ae b3be 1380 673e b1ee 8ebd
00000320: 34ff 67be c211 b23d 0bb9 4d3e 46e8 ce3d
00000330: ed5b 8b3e 3af2 1bbe 4cfa c9bb 1d5a 373e
00000340: 6b00 94be 33e6 9c3e afe7 8abe 8f8e 90be
00000350: 5577 d93c 7d18 af3e 4917 b63e 4c9e d63d
00000360: 3521 4ebe 053e 99be c9b8 93be 73b5 683e
00000370: 1711 19bb a40f 2dbe d8f9 a9be 2527 3c3c
0.36727172 -0.07362095 0.25503385 0.35477978 -0.40278795 -0.33675 0.1488416 -0.02091674
0.27072152 -0.16610123 0.1178377 0.04628068 0.27540207 -0.24923125 -0.20142469 -0.21922973
-0.13482639 0.36690426 -0.27527776 -0.13051869 -0.2524906 0.112753496 0.33195186 -0.3307521
-0.20000152 -0.37969497 0.10512331 0.34217018 0.19489567 -0.2249446 0.2589602 -0.12724625
0.42543095 0.4871842 -0.19534251 -0.23658752 0.15657215 -0.2546164 -0.12713613 -0.061920896
-0.30418396 -0.30963963 -0.33432382 -0.2401373 -0.22960529 0.17470011 -0.15054809 0.043141194
-0.2042872 0.06885784 -0.019197473 -0.12759823 0.04272446 -0.22340995 -0.37577915 0.52107894
-0.20773338 -0.12262918 -0.09759522 0.015853262 0.15176275 0.23154111 0.20750044 0.19651148
-0.26108778 -0.25106046 -0.15904495 0.13696823 0.06755576 -0.18416081 -0.070717804 0.093593314
-0.0016046105 0.25472155 -0.29895395 0.01727494 -0.2770026 -0.30351052 -0.19225481 -0.23324025
-0.25854695 -0.37712082 0.06463454 0.26078096 -0.34900704 0.36859745 -0.28583038 0.32120162
-0.11890266 -0.35272005 0.27301762 -0.26916844 0.34333524 -0.36821952 -0.2987884 0.12612617
-0.22172834 0.2764466 0.029674463 0.1559609 0.009722417 0.17332141 0.02860744 -0.21196719
0.06108443 -0.0069309734 0.33042297 0.23233235 -0.075261965 0.11447014 0.35820052 -0.38399103
-0.08940532 -0.2158715 0.20493846 0.22901599 0.04364293 0.5632306 -0.34544137 0.27219313
-0.009172228 0.049219094 0.33810413 -0.607763 0.15501437 0.55873483 -0.11235474 -0.15021728
0.1707478 0.11157448 -0.17329416 -0.10303403 0.5000001 0.19944964 -0.15266171 0.2532928
0.09648187 -0.17731106 -0.18039961 -0.23507197 -0.06506735 -0.18078093 -0.050267704 0.0703273
0.21565343 -0.0596289 0.3062608 -0.25295886 0.37243658 0.055452038 -0.31277013 -0.22256655
-0.17161812 -0.092796035 0.07756842 -0.11028864 -0.22247197 -0.12961827 -0.17978598 0.22636893
-0.12739849 -0.06822967 0.11570718 -0.15932485 0.059302103 0.021964217 -0.04381772 0.37463987
0.032487556 0.30603197 -0.20030935 -0.008422077 -0.29992345 -0.12142401 0.4656238 0.14114967
0.022240885 0.084837005 -0.1779511 0.5413138 -0.110114485 -0.46208352 0.23236495 -0.2182027
0.20242347 -0.05880972 0.010257738 0.14464538 0.15913455 0.04150389 0.33912313 -0.37099087
0.014864444 -0.10304792 -0.056632962 0.27174014 0.07839909 -0.35094175 0.2260745 -0.069791205
-0.22655946 0.08694793 0.2009012 0.101028964 0.2721857 -0.15229121 -0.006163871 0.17905469
-0.2890657 0.30644378 -0.27129886 -0.28233764 0.02654616 0.3419837 0.3556464 0.104794115
-0.20129855 -0.2993013 -0.28851917 0.22725467 -0.0023356134 -0.16900498 -0.33198428 0.011483942

short_term_context_network.fc1.bias f4 [32]
00000000: f1aa ae3e 9a56 373e 3f8e 6f3c cd44 d13c
00000010: 6e1c 233e 5838 703d a42b 97bd 8b6e 88bd
00000020: 1599 6f3e 27e5 42be 164b 8ebe 36f2 8fbe
00000030: 1044 94be fb6e 2e3e 4194 2d3e d29e a13e
00000040: 0706 b23e 45db 20be eb5b 763e 8401 2a3e
00000050: 2dff 8f3e dafe 26be d5fd ce3e 1e11 e73d
00000060: fee9 bf3e c492 a23d 4304 0d3e 0b23 373e
00000070: 26bb a83e 8deb 3ebe 38b8 033e 16ca 8c3e
0.34114793 0.1790413 0.014621316 0.025545502 0.15928814 0.058647484 -0.07381371 -0.066617094
0.2339824 -0.19032727 -0.2779166 -0.2811448 -0.28958178 0.17034523 0.16951086 0.31566483
0.34770223 -0.15708645 0.24058501 0.1660214 0.2812437 -0.16308156 0.40428033 0.11282562
0.3748321 0.079381496 0.13771157 0.17884462 0.32955283 -0.18644543 0.12863243 0.2749793

short_term_context_network.fc2.weight f4 [16, 32]
00000000: be7a 8abd e328 19be bfac d4bd 1584 bfbd
00000010: 4069 88bd be51 50be 30f0 d23d cd5c 013d
00000020: f514 c43d f66e b9bd d815 21be d0db dabd
00000030: ac20 0f3e d0f9 1ebe 126e 4c3d 4722 49be
00000040: 6484 e4bd 0aa4 18be 4bd8 553d f724 49bc
00000050: b7dc bd3a 7c98 d8b8 c557 a5bd 8062 dd3d
00000060: 9cae f1bd 5150 34be 2ba3 79bc 1559 c03d
00000070: eea2 48be 8163 5a3d 7772 15bd 47dd ca3d
00000080: cd2c 28be 2016 303d 82f8 17be d8fc 073e
00000090: 4d34 aa3d e397 1d3c a97e 1bbe 2a5c 04be
000000a0: 7a21 f8bd 7af3 cdbd 634c adbd 82bb 2d3e
000000b0: 23fd a13d acf6 17be a369 c93d 1e0e b8bc
000000c0: c34a 9bbd d8d6 d5bc 1109 5e3d 49ec e6bd
000000d0: cde6 4fbe 16a4 973d 887f 043e 972f fabd
000000e0: 54cd ab3c 340c 57bd b751 1bbb e5a2 d1bd
000000f0: cb4c a53d 30ff 983d e1b5 7dbc 2056 b73d
00000100: 0ca8 793d 5059 2cbe 3df2 2d3e a6f7 103e
00000110: 1bea 573d 0301 1bbd e524 fabd 38f0 b03e
00000120: c141 473c 1dae b4bd a111 003e f48d b93d
00000130: b7ff fc3d c73a 563e 038b 62bd 0356 fbbd
00000140: e17d 80be ed93 403e 7fa2 d63c dd14 82ba
00000150: 15fe c33d 7a24 1c3e d7b3 1d3e 4651 9a3e
00000160: cd89 623e 4f3a 20be 52e2 0f3e 9fc0 a23e
00000170: af6b 193e 557a f33d 1a92 8bbe ec0e 2e3e
00000180: 0b9f 193d 5ff5 0c3d 80fe a7bd 5b80 7d3d
00000190: e0c8 413d bcd8 e03d f2f1 1c3e de02 b23d
000001a0: 7a67 94bd ddc0 9e3d d84a bdbd 7187 1abd
000001b0: ea31 e43d a39a 563d 3e83 ba3d da2d 203e
000001c0: 2597 813d 5130 fcbd 277b b0bd 5403 13be
000001d0: 8c82 38be df00 c0bd f90d 36bc 4401 10be
000001e0: c0bb 4cbd ac93 33be 0633 43be e8a0 f9bd
000001f0: 1ba6 36be eea6 303e 5ca1 27be 26e2 963d
00000200: 9f4f df3d e453 07be ef97 2fbe 2c10 183e
00000210: d7da 07be f3a0 ab3d 18fb 093e e253 093e
00000220: 3ba3 fa3d 7925 2ebe cdae 0ebe e520 a8bd
00000230: 8c15 23be 5002 383e abf9 82bc 0cdb 70be
00000240: d36f d439 0224 7d3e eb2a 8a3d 49e4 d7bd
00000250: 80e2 1e3e e6e1 333e 69a4 b5bd cee7 ab3d
00000260: 3516 703e 9a7a 39be 2356 1d3e b3e6 ce3d
00000270: 14c1 afbb d758 a0bd 8f57 50be 328e 833e
00000280: b107 2fbe f963 cd3d 4bc4 0cbe 7fd0 dfbd
00000290: cc9d 1bbe 8b1e 4dbd 3030 073e de20 1d3e
000002a0: a356 36bd e341 18be f35a 273e 0d46 d03d
000002b0: 976f 313e 8ee2 d63d 6ec2 f9bd 55ee a13d
000002c0: 7def 89bd 9b81 b43d ead4 85bc 491a 1f3e
000002d0: 7f30 e9bd 7fad 953c e535 4abd 4bf4 1abe
000002e0: af8b bc3c 8aa1 f23d f9c4 1bbe a33d 143e
000002f0: cb04 153e a03c c1bd b072 da3d ced1 edbc
00000300: 7d4a 38be cdcb 81bd 33d0 2b3e e4a5 f63d
00000310: f1ee adbd 65d5 013e af2f 2b3e 6da6 223d
00000320: e7a0 133e 1d4c f43d 1610 233e f8ed 5a3d
00000330: b67e 233c 207d bfbd d96f 32be c888 6dbd
00000340: 685c 6bbd fcac e1bd 8fcb 31be 225b 43be
00000350: a28c 40be 4a10 9f3d 2453 fbba e82a 3ebc
00000360: 94b8 67bd ab3b bebd 5f18 a13d 119e de3d
00000370: 668c c9bd bfe1 d1bd 9bdc a73c b15d 7ebb
00000380: 55a3 37be 395f bebc 3fa3 303e 8348 a83d
00000390: b09d 513d 65bd 20be 5579 42bd d5d5 853d
000003a0: b755 1abd 7fd9 a83c a342 8cbd e984 923d
000003b0: 2946 d83d 01fa 42be b95b 383c 07dd c73d
000003c0: 0717 f0bd fce8 67bd 99be a6bd 32b1 cfbd
000003d0: 7201 da3d 22a9 25be 823f b63d b098 ec3d
000003e0: 78b8 e1bd 06b7 333c 66e6 c53d 7b79 273e
000003f0: bdaf 22be fdc5 883d 296b f9bd bc15 bdbb
-0.067616925 -0.14957003 -0.10384511 -0.093513645 -0.066607 -0.20343682 0.102997184 0.031582642
0.0957431 -0.09054367 -0.15730989 -0.10686457 0.13977307 -0.15524983 0.04990966 -0.19641982
-0.11158064 -0.14906326 0.052208226 -0.0122768795 0.0014485334 -0.00010328085 -0.08073381 0.10809803
-0.11800882 -0.17608763 -0.015236656 0.09391991 -0.19593403 0.05331755 -0.036486115 0.099054866
-0.1642334 0.04298985 -0.14840892 0.13280046 0.08310757 0.009618732 -0.15185036 -0.12925783
-0.1211576 -0.10056205 -0.08461835 0.1696606 0.0790961 -0.14840192 0.09834602 -0.02246767
-0.07582619 -0.026103422 0.054207865 -0.112755366 -0.20302887 0.07404344 0.12939274 -0.12216108
0.020971932 -0.052501872 -0.002369983 -0.10236148 0.08071288 0.07470548 -0.015485258 0.08951974
0.060951278 -0.16830945 0.16986938 0.1415697 0.052713495 -0.03784276 -0.12214068 0.34558272
0.012161673 -0.08822272 0.12506725 0.090602785 0.12353461 0.2092086 -0.055308353 -0.12272265
-0.25096038 0.18806429 0.026200531 -0.0009924431 0.09569947 0.1524829 0.15400635 0.30140132
0.2212288 -0.15647243 0.14051178 0.31787583 0.14982484 0.11888567 -0.27259904 0.1699788
0.03750519 0.03441369 -0.08202839 0.061889987 0.04731071 0.10978839 0.1532667 0.08691953
-0.07246299 0.077516295 -0.09242791 -0.037726823 0.11142333 0.052393567 0.09107064 0.15642491
0.06327657 -0.12313903 -0.086172394 -0.14356738 -0.1801855 -0.09375166 -0.01111173 -0.14062983
-0.04998374 -0.17536801 -0.19062433 -0.121888936 -0.17836802 0.17251179 -0.16370147 0.07367353
0.109038584 -0.13215595 -0.17147802 0.14849919 -0.13267075 0.08380308 0.13474691 0.13410905
0.12238165 -0.17006482 -0.13933869 -0.08209399 -0.15926188 0.17969632 -0.015988192 -0.2352106
0.00040519107 0.24720767 0.06746467 -0.10541589 0.1551609 0.17566642 -0.088692494 0.083938226
0.23445971 -0.18113175 0.1536489 0.10102596 -0.005363593 -0.07829445 -0.20345901 0.25694424
-0.17092778 0.10028834 -0.13746755 -0.10928439 -0.15196913 -0.050077956 0.13201976 0.15344569
-0.044516217 -0.14868884 0.16343288 0.10169611 0.17327724 0.104924306 -0.12195288 0.07906786
-0.06735132 0.08813783 -0.016336877 0.1553737 -0.11386203 0.018271206 -0.049367804 -0.15132253
0.023015825 0.118472174 -0.15211858 0.14476638 0.1455261 -0.094353914 0.10666406 -0.029030707
-0.17997165 -0.063377 0.1677864 0.1204336 -0.0849284 0.1267906 0.16717409 0.039709497
0.14416848 0.1192858 0.15924105 0.0534496 0.009978941 -0.093500376 -0.17425479 -0.057991773
-0.057461172 -0.11019322 -0.17362808 -0.19077733 -0.18803647 0.07766779 -0.0019174558 -0.011606909
-0.05657251 -0.092887245 0.078659765 0.108699925 -0.09841232 -0.10248136 0.020490935 -0.0038813169
-0.179334 -0.023238765 0.17249773 0.082169555 0.051175773 -0.15697248 -0.047478992 0.06534926
-0.0376794 0.020611523 -0.068486474 0.07154257 0.10560257 -0.19040681 0.011252337 0.097589545
-0.11723142 -0.056618676 -0.08141822 -0.10141219 0.10644807 -0.161778 0.08898832 0.1155256
-0.11021513 0.010968929 0.09663086 0.16354935 -0.15887351 0.06678388 -0.12178642 -0.005770413

short_term_context_network.fc2.bias f4 [16]
00000000: bf9a 9f3d fac3 9fbd 107e 3d3d 15bc 89bd
00000010: 68aa 083e 309c 8ebc 8f8a ec3d 9f4c 6bbd
00000020: e07c 7bbd e20d 0d3e f3a9 be3c 4693 8b3d
00000030: b76a d83d b164 4a3e e526 493e 2dd3 d83b
0.07793187 -0.078010514 0.0462628 -0.06725327 0.13346255 -0.01740846 0.115498655 -0.05744612
-0.061398387 0.13774827 0.023274397 0.068151996 0.10567229 0.19764973 0.19643743 0.006616971

short_term_context_network.fc3.weight f4 [1, 16]
00000000: 3a8d 2ebd 286f a8bd 5a28 053e e1d8 ba3d
00000010: 6fe1 aa3e 7892 463e 6c3d 88bc d1fe 03be
00000020: 044a 15be 0401 2ebe dc24 6c3e 26e6 8a3e
00000030: ec8a 273c 0e83 aebe 10e1 893e d464 5fbe
-0.042615153 -0.08224326 0.13003674 0.091233976 0.33375117 0.19391811 -0.01663085 -0.12890173
-0.14579016 -0.16992575 0.23060936 0.27128714 0.010225993 -0.34084362 0.26929522 -0.21815807
