Uni_Research/IRL/Final/Extended/Testing_Suite/model_SC_C0_R0_S100.0.pth (torch, 91250 bytes, 11 tensors)

main_network.lstm.weight_ih_l0 f4 [256, 15]
000000 54 49 a9 3d 36 9c 01 be b1 08 94 3d 7b 91 a2 bd
       0.08265939 -0.12657246 0.0722822 -0.079379044
000010 25 19 b2 3d c5 76 0e bc 6d 9b 0d 3d b9 91 80 3d
       0.08696202 -0.008695309 0.034572054 0.062777944
000020 60 46 17 bd fa 50 7c bd cf 32 b0 bc 40 b8 83 bc
       -0.03693235 -0.061600663 -0.021508602 -0.016079068
000030 4c 76 83 bd 8a 69 59 bd 91 e1 9a bd 20 4f 12 3d
       -0.06419048 -0.053079166 -0.07562555 0.03571999
000040 f4 8c b5 bd 11 c3 27 bd c3 3b 83 bd 1b 7f 13 bd
       -0.08864775 -0.040957514 -0.06407883 -0.03600989
000050 c8 45 74 3d 87 f7 c9 3d f9 36 5f 3d 18 e8 f2 bc
       0.05963686 0.09861665 0.054495785 -0.029651687
000060 d3 20 04 bd 91 9b 43 bc 75 b4 88 bd 18 20 e6 3d
       -0.032257866 -0.011938945 -0.066750444 0.1123659
000070 c5 eb e5 bb 06 c5 02 bd c4 39 fb bc 68 c9 05 3d
       -0.0070166313 -0.031926177 -0.030667193 0.03266278
000080 e1 6b e0 3b e7 4e a6 3c 9a e4 8f bd c4 a8 a1 3d
       0.0068487977 0.020301295 -0.07026024 0.078935176
000090 5d a1 16 3d 7d 94 b6 bd 45 3a 70 3d 65 9e 67 3d
       0.03677498 -0.08915041 0.05864932 0.05654754
0000a0 b6 2a 8c bd c2 00 09 3c 3e ff 3e 3c 80 51 ab bd
       -0.06844084 0.008361997 0.011657534 -0.08365154
0000b0 b1 30 3c bd 6b 25 d2 bd fa 7e b0 bd 8c 1c 0b bd
       -0.045944873 -0.10261043 -0.08617969 -0.03396277
0000c0 86 b8 fd 3d 10 36 b4 b9 63 5d 02 bd ce 0c 15 bd
       0.12388711 -0.00034372555 -0.03182734 -0.036389165
0000d0 b0 2e aa 3c d5 a2 46 bd b5 54 01 3e e2 f6 0b bd
       0.020774215 -0.048495132 0.1262997 -0.034170993
0000e0 d6 91 db bd 25 05 df 3d 0c bc 54 3d 4c d3 f8 bc
       -0.107211754 0.10889653 0.051937148 -0.030374192
0000f0 13 89 98 bc 45 9c 7a 3d c1 3f 6a bd 74 95 79 bc
       -0.01862005 0.061184186 -0.057189707 -0.015233386
000100 7a 5a d5 bb 1c e4 92 bd 84 ec 79 bd a9 19 00 be
       -0.00651103 -0.07172415 -0.061016575 -0.12509789
000110 14 09 c6 bd f9 11 ae 3d 67 91 7b 3d e0 bb 20 bd
       -0.096697 0.08499522 0.061417963 -0.03924167
000120 c2 65 88 3d 97 1f fb 3b 4b cf f8 3c 2c 7f d0 bc
       0.06660034 0.007663678 0.030372282 -0.025451265
000130 1d db 0c 3e 5b 0f 03 3d d5 bd 76 3d 98 e7 7e 3d
       0.1375546 0.031997066 0.06023963 0.062232584
000140 42 34 00 3e 13 7d 05 3e 5f 90 7f bd 06 18 bb bd
       0.12519935 0.13035993 -0.062393542 -0.091354415
000150 47 1c 2c bc 67 8c c7 3d a5 09 78 bd 05 bf ad bd
       -0.010504789 0.097435765 -0.060556073 -0.084837
000160 fa f1 b8 3d 6f f3 ee bd 69 08 f9 bd 31 d1 60 bd
       0.09030528 -0.11667525 -0.12159807 -0.054887
000170 07 8f 40 3c 06 11 59 bd 15 c3 0a 3d f0 52 bb bd
       0.01175285 -0.05299475 0.03387745 -0.091466784
000180 15 f7 90 bb 61 48 b9 3c 53 5b a3 bd 98 fd aa bd
       -0.0044239857 0.02261752 -0.07976403 -0.083491504
000190 cb 0d eb bd 12 0f 91 bd 9a dc d4 bd 8a 58 b2 3d
       -0.1147724 -0.070829526 -0.10393639 0.08708294
0001a0 d9 c8 50 3d b4 51 03 be ac 7c 1e bd e0 e6 88 bd
       0.050972793 -0.12824136 -0.038693115 -0.06684661
0001b0 eb 43 cc bc 39 85 42 3d 2b 2d b1 bd 4e 1f cc 3d
       -0.02493473 0.047490332 -0.08651193 0.099669084
0001c0 c3 29 9a bd 7b 4e 2f 3d f5 5a 00 3d b9 49 00 3d
       -0.07527497 0.042799454 0.031336743 0.031320307
0001d0 a1 98 55 3b 0c 76 96 3d 08 34 4b 3d e1 d6 ca bd
       0.0032592195 0.073467344 0.049610168 -0.09904266
0001e0 aa bb c2 3d 9d 37 e4 3d fd 0f 69 bd b1 a9 09 3e
       0.0950845 0.1114342 -0.056900013 0.13443638
0001f0 be a9 1c 3d 41 89 a5 bd e7 be 97 bd 15 91 44 3c
       0.038247816 -0.0808282 -0.074094586 0.011997481
000200 6f ec 32 bd 39 5a 59 3d fc b0 93 3d 80 31 99 bd
       -0.043682512 0.05306456 0.072114915 -0.074801445
000210 11 4d 9c 3d 69 b4 1c bd 18 e1 a0 bc 51 64 a5 3c
       0.07631887 -0.03825799 -0.019638583 0.020189436
000220 9f 21 e1 bc 54 c3 d9 bd b3 32 f5 3d 52 7c 39 3c
       -0.027481852 -0.10632959 0.11972561 0.011321144
000230 0c ab b5 3d dc 17 ba bd d5 e8 08 3d 73 97 3e 3d
       0.08870515 -0.09086582 0.03342517 0.046531152
000240 92 b5 d8 3c 4f 5b e5 3d 17 f5 f6 3d ab 77 a1 bd
       0.026453767 0.11199056 0.12058466 -0.07884153
000250 57 e8 1d 3e 86 58 b9 bc ee 9a 03 bc 90 6d 03 bd
       0.15420662 -0.02262522 -0.008032544 -0.03208691
000260 a3 81 f8 3d a3 0b 9c bd dd ad ba bc ef d6 ed 3b
       0.12134101 -0.07619407 -0.022787983 0.007258288
000270 e8 4e 01 be c7 b6 3f bc 83 82 20 bc 8a 41 2e 3d
       -0.12627757 -0.011701292 -0.009796741 0.04254297
000280 bd df ff bd 72 14 87 bd 58 80 dd bc 8f b2 56 3d
       -0.124938466 -0.065956965 -0.027038738 0.05241638
000290 38 7e 20 bd ac c1 a5 bc ad 72 72 bb 7e a2 d0 bb
       -0.03918287 -0.020233952 -0.0036994622 -0.006367027
0002a0 c3 45 5a bd b8 77 b0 3d 51 53 8a bd 7c a5 e2 3c
       -0.053289186 0.086165845 -0.067541726 0.0276668
0002b0 60 8e ea 3c ea 9b cc bc 19 c3 78 3d c4 d1 c0 bd
       0.028632343 -0.02497669 0.060732935 -0.094150096
0002c0 02 de 4c bd 87 6c 81 3d 23 c3 98 bd 46 3c c4 bd
       -0.05001641 0.06319528 -0.074590944 -0.09581809
0002d0 3c 43 f8 3d 2a 3e 59 3d c4 73 d2 3d 30 14 8c 3d
       0.12122199 0.0530378 0.10275987 0.06839788
0002e0 c1 a1 89 3d fe 2d 87 3b 2a a7 b0 3d 8c bd c7 bd
       0.06720305 0.0041253557 0.08625634 -0.0975295
0002f0 1b a8 be 3d c2 d5 c3 bb 8d 70 a3 bd ac 27 61 bd
       0.09309407 -0.0059764097 -0.07980452 -0.054969475
000300 c7 8f 75 bd e1 c9 f5 3d 58 e7 a1 bd 57 4f bd bd
       -0.05995157 0.12001396 -0.079054534 -0.092436485
000310 5a 1b 87 3c f6 6d a5 bd 13 a1 7b bd 22 f0 7a bd
       0.016492534 -0.08077614 -0.06143291 -0.061264165
000320 aa 6b c3 bd 8d 4d 59 3d e1 a2 9d 3d b0 d0 a4 bc
       -0.0954202 0.053052474 0.07697082 -0.020119041
000330 f5 e7 92 3c ea 98 06 bd f0 f8 4a 3d 75 51 55 3d
       0.017932871 -0.032860674 0.04955381 0.052079637
000340 b7 e1 e6 3c 21 57 f9 bd 1f bc d0 bd 30 aa dc bd
       0.028183801 -0.12174822 -0.10192131 -0.10774648
000350 01 30 0a 3e 22 b9 d3 bd 31 20 0f 3d 53 42 97 bc
       0.13494875 -0.10338046 0.03494281 -0.018464243
000360 8b b6 e6 3d 76 23 0c be 88 35 1c 3d be 4c 75 3d
       0.11265286 -0.13685402 0.03813699 0.05988764
000370 b3 79 f4 bc c9 41 f3 bd 88 88 19 bd c2 6f 92 3d
       -0.029843187 -0.11877782 -0.037483722 0.07150222
000380 37 e7 0a be e6 a8 c3 bd 78 55 a3 3d 8d 59 e6 3c
       -0.13564764 -0.09553699 0.07975286 0.028118873
000390 52 a2 f5 ba c7 71 6d 3d 16 fb 91 bd 6a 31 fa 3d
       -0.0018740392 0.057969835 -0.07127969 0.12216456
0003a0 70 c7 90 bd 2f 26 5f bd 31 bd 96 bd 0e 28 9d bd
       -0.0706929 -0.054479774 -0.07360304 -0.076736555
0003b0 2e 45 71 bc 7e 4d 8d bd 09 f0 bb 3d 4d db 55 bd
       -0.014725966 -0.06899546 0.091766424 -0.052211095
0003c0 25 4e 84 bc 9e cf d0 bd 5f 32 a5 bd 69 ea ba 3c
       -0.016150543 -0.1019585 -0.08066248 0.022816854
0003d0 0d 72 12 be 4f be bd bd c7 72 c3 bd 47 35 d7 3d
       -0.1430132 -0.09264814 -0.095433764 0.10508209
0003e0 3d 74 82 bc dd 81 90 bd 86 44 03 be 8c fc ed 3c
       -0.015924567 -0.070560195 -0.12819108 0.029051088
0003f0 d5 ab c4 3c 18 f8 df bc 76 a3 83 3d a3 fc 5a 3c
       0.024007717 -0.02733998 0.06427662 0.013365897

main_network.lstm.weight_hh_l0 f4 [256, 64]
000000 4d e7 a0 3b 34 2c 81 bd b2 5d 80 bd b4 83 b5 3d
       0.0049103857 -0.06307259 -0.06267871 0.08863011
000010 38 e7 be bb 54 01 96 3d 65 3a b2 bd ea 43 1f 3d
       -0.0058259033 0.07324472 -0.08702544 0.038883127
000020 f5 f7 b3 3d 8b 72 af bd d6 ae 70 bc c0 f4 64 bd
       0.087875284 -0.08566769 -0.014690122 -0.055897474
000030 93 a4 eb bb a2 10 c8 3c e1 72 f0 bd 65 a2 ad bd
       -0.0071912496 0.024421994 -0.117406614 -0.0847824
000040 b4 18 97 bb 89 68 1c bc 60 e8 a7 3d ea 48 4f 3d
       -0.004611099 -0.0095464075 0.08198619 0.050606646
000050 d0 f1 eb bd 3c cf c0 3c de a0 d6 3d 3d 1b cd 3d
       -0.115207314 0.023536317 0.10479902 0.10014961
000060 75 99 3f bd f2 69 ba 3d 7d 4c ea 3d 0e 3a 68 bd
       -0.046777207 0.09102239 0.1144037 -0.05669599
000070 c5 b4 08 3d 25 66 be 3d b4 31 be 3c fe 9d 8b 3d
       0.03337552 0.09296826 0.02321706 0.06817244
000080 29 7b df bc af 2e cb bc 0a 99 93 bd f6 54 78 3d
       -0.027280407 -0.024802534 -0.07206924 0.0606279
000090 ca 4f f2 3d 2c 41 98 bd 3a 75 ce 3c 09 76 a4 bd
       0.11831625 -0.074343055 0.025202382 -0.08030326
0000a0 3f a3 73 bd df 53 66 3d 92 c5 65 bb 4c 7f c8 bd
       -0.059481855 0.05623233 -0.0035060388 -0.09789905
0000b0 fa d0 61 bd d6 5f f8 bd bc 40 ac 3d ee 94 e5 bc
       -0.055130936 -0.12127654 0.084107846 -0.028025117
0000c0 8a ca 04 3e e9 96 bb bd ea 49 eb bc cf bf 88 3d
       0.12967888 -0.09159643 -0.028721768 0.066772096
0000d0 49 1d c4 bd 50 02 f4 bc 6b 56 d9 bd 90 e4 d5 3d
       -0.09575898 -0.029786259 -0.10612186 0.104439855
0000e0 64 6b d9 3d c2 33 ad 3c 7f 17 08 3e 28 23 ef bd
       0.10616186 0.021142844 0.13290213 -0.116766274
0000f0 f1 b5 5c bc 0d dd fd 3d ad dc 73 3d 4d 02 77 3d
       -0.013471113 0.12395678 0.059536625 0.06030493
000100 96 6b c1 bc aa 18 d7 bd eb 4b dd bd 07 60 83 bd
       -0.023610871 -0.10502751 -0.10805496 -0.064148
000110 37 c0 a5 bd 0a 60 01 bd 22 15 f8 3d 4e 47 d2 3d
       -0.08093303 -0.03158573 0.12113406 0.102675065
000120 22 82 c3 3d b7 33 d3 bd c8 8b ed 3d 68 cc 7a 3d
       0.09546305 -0.10312598 0.11598927 0.061230093
000130 ca c7 e2 bd 99 de 34 3d 77 7a db 3c 47 4e 53 3d
       -0.11073263 0.0441576 0.026791794 0.051588323
000140 c4 a7 41 bd de e6 2e 3d 57 f6 06 bd 71 e0 75 3d
       -0.047279134 0.04270064 -0.03294977 0.060028497
000150 f1 5a a1 3c 70 87 5e 3b d9 83 3e 3d ca 70 99 bd
       0.019696685 0.0033955239 0.04651246 -0.07492216
000160 b9 ac 0b be 83 2f 9e bd 67 8f 8e 3a d0 db ea bd
       -0.13640107 -0.07723906 0.0010876477 -0.11467707
000170 ef c5 c0 3c 01 94 01 be 13 0e 0b be e1 78 38 bd
       0.023531882 -0.12654115 -0.13579588 -0.045037154
000180 90 73 c4 3c 3b 0e a2 bb f7 80 b4 bd 3b ef a7 3d
       0.023980886 -0.004945544 -0.088136606 0.081999265
000190 cd ee d0 3d 39 32 9d bd 92 d9 6f 3d 77 27 9f 3d
       0.10201798 -0.07675595 0.0585571 0.07771199
0001a0 26 88 9f 3c ba b6 81 3d 22 53 f3 bd ac 37 ac 3d
       0.0194741 0.063336805 -0.11881091 0.08409056
0001b0 d9 c4 b2 3a d6 7a e5 bd 3a be 9a 3d b3 dd e3 bb
       0.0013638987 -0.1120507 0.07555814 -0.006953919
0001c0 47 04 a5 3b 24 01 b4 bd 85 9a fb bd 3b 88 63 bb
       0.0050359103 -0.0878928 -0.12285332 -0.003471865
0001d0 26 03 e0 3d 2d d5 bb bd 06 57 aa 3d c3 45 d1 3b
       0.109381005 -0.091715194 0.0831738 0.00638649
0001e0 7c df ad bc f7 09 9a bd 59 e2 5e bd 16 1d ca bd
       -0.02122473 -0.07521432 -0.05441508 -0.09868829
0001f0 c5 79 9e bd 17 68 71 bd a9 2b e9 3c 6e c3 b7 bd
       -0.077380694 -0.05893716 0.028463202 -0.08972822
000200 29 87 35 3d 73 51 c7 bd c5 76 ca bd 06 fb 7a 3c
       0.044318352 -0.09732332 -0.09885935 0.015318638
000210 a7 e7 87 3d 5f 06 42 3d bd d8 c6 bb 5e 94 cb 3d
       0.06635981 0.047369357 -0.0060683177 0.09940408
000220 9e 6f 76 bd 76 11 0c 3d 2c 29 15 bd 06 3a 64 bd
       -0.06016504 0.03419634 -0.036416218 -0.055719398
000230 b8 fe 99 bd 90 79 ca 3d d9 6c 93 bd da e2 40 bd
       -0.07519287 0.098864675 -0.071984954 -0.047091343
000240 8b 07 aa bd ad 31 c6 3d 8e 5e 8e bb d3 0e db 3d
       -0.0830222 0.09677444 -0.004344768 0.10696187
000250 fc f9 cf bd 09 3f a9 3a 87 19 dd bd c1 f2 31 3d
       -0.101551026 0.0012912463 -0.107958846 0.0434444
000260 8e 96 0b be e1 53 15 3d 02 24 c8 bd 2b a2 34 3d
       -0.13631651 0.036456946 -0.09772493 0.044099968
000270 3c d9 e0 bd 2f 0c 0e 3d cd bd b4 bd 0d 72 a4 bd
       -0.10978934 0.034679588 -0.08825264 -0.08029566
000280 76 f6 f7 bd 7a dc d6 bd 16 d5 74 3d 2f ec 9e 3d
       -0.121075556 -0.10491271 0.059773527 0.07759892
000290 ae 53 e7 bd 91 83 95 bd 12 d8 ce 3d 73 07 cb 3d
       -0.112952575 -0.07300485 0.10099806 0.0991353
0002a0 f1 b2 c0 bb 20 df 9a 3d e9 dc 6d bd 15 ea d5 3c
       -0.0058807065 0.07562089 -0.058072004 0.026112596
0002b0 1f 95 77 3d c8 69 c6 3d 8a b8 ac 3c d1 29 16 bc
       0.060444947 0.09688145 0.021084089 -0.009165243
0002c0 44 79 3e bd f3 6d b2 bd 52 46 12 3d 84 b3 af 3d
       -0.046502367 -0.087123774 0.035711594 0.08579162
0002d0 48 83 1c 3d b8 b0 86 bd 92 f1 bd bd 8f 64 ca bd
       0.038211137 -0.06576675 -0.092745915 -0.09882461
0002e0 bd 85 b3 bc 16 83 df bd ef 7d d7 3d 55 75 d7 bc
       -0.021914357 -0.109136745 0.10522067 -0.026301065
0002f0 a9 59 c2 bc ac 81 95 3d 31 3d dd bc 7c 48 de bc
       -0.023724394 0.073001236 -0.027006717 -0.027134173
000300 23 a6 84 bb 7b 37 70 3d 29 91 76 bd eb 8e 18 be
       -0.0040481254 0.05864666 -0.06019703 -0.14898269
000310 0d f0 9a 3d 74 f6 9c 3d 83 72 d3 3d 14 36 05 3e
       0.07565317 0.07664195 0.10324576 0.1300891
000320 72 0f 8d 3b 51 69 49 ba 87 4c af 3c a9 69 b2 3d
       0.0043048197 -0.0007683235 0.021398796 0.08711559
000330 ef 95 ba 3d 47 36 82 3d 0d b9 3b bd ad 87 44 bd
       0.09110629 0.06358009 -0.045830775 -0.047980953
000340 25 51 ae 3a c1 0f b7 bd 1c 47 9e 3d 93 6d bf b9
       0.001329933 -0.08938552 0.07728407 -0.00036511998
000350 a8 27 34 bd 7b 74 b6 39 15 4a 03 bb f8 3a 4f bc
       -0.04398313 0.0003480053 -0.002003317 -0.012648337
000360 cb 2e 2e bd 69 58 e1 3d 13 ec b9 bd 96 59 00 3e
       -0.042525094 0.11003191 -0.09078231 0.12534174
000370 ea 15 e9 3c ca 08 d1 bc f3 fe 19 3d 05 01 32 3a
       0.028452832 -0.025516886 0.037596654 0.0006790313
000380 cf 3c ab bb ba 20 27 bc 9f 08 6a 3d 52 8d 7d 3d
       -0.005225755 -0.010200674 0.057137128 0.06190235
000390 15 a2 db 3d 12 05 9d 3d 8e 2b 7c bd ff 08 ef bd
       0.10724274 0.07666983 -0.061564974 -0.11671638
0003a0 2f 88 40 bd 53 3f 1c bd 8f 24 c7 bd 00 ca 48 bd
       -0.047004875 -0.03814633 -0.0972377 -0.049020767
0003b0 c7 ff 8a 3d a0 84 68 3c f0 f1 9f 3b 78 78 25 3d
       0.06787067 0.0141917765 0.004881136 0.04039809
0003c0 c3 20 57 bd 83 94 ca 3d 7e b9 55 3d 14 7a ae 3d
       -0.05252148 0.098916076 0.052178852 0.08519378
0003d0 ec c0 a0 3c cf cb e8 bd ee 73 cb bd 8e d2 98 bc
       0.019623242 -0.113669984 -0.09934221 -0.018655088
0003e0 13 7c 6e 3d 27 9d 9d 3d 80 cb 10 3b 88 c4 87 3d
       0.058223795 0.0769599 0.0022093952 0.06629282
0003f0 90 f8 c2 bc 23 eb 86 bd 16 2e 19 bd f4 40 54 bd
       -0.023800164 -0.065878175 -0.037397467 -0.051819757

main_network.lstm.bias_ih_l0 f4 [256]
000000 a6 13 c3 3d 08 ea 57 3d e9 12 d1 bd af ef 8d bc
       0.09525232 0.052713424 -0.10208685 -0.017326204
000010 cc d3 61 bd 79 7e 83 bd 86 a1 a3 bb 00 76 99 3d
       -0.055133626 -0.06420607 -0.0049936203 0.0749321
000020 02 43 03 3e 40 c9 2f bc a0 8b bc bd bb aa 8e bd
       0.1281853 -0.010729134 -0.09206319 -0.06966158
000030 0c dc c3 3d 4b 00 f8 3d 15 6c 26 bc 08 11 d7 bb
       0.09563455 0.12109431 -0.010157605 -0.0065633096
000040 29 9b 2c bc 89 cb da 3d 7e cb 67 3d 0f 8e 38 3c
       -0.01053504 0.106833525 0.05659055 0.011264338
000050 f8 5e cb bd 2e 46 94 3d 16 79 2a 3e aa 38 59 bd
       -0.09930223 0.07239948 0.16647753 -0.053032555
000060 7e 07 ff bd cb 83 5b 3c 23 ec 08 3c fd 84 28 bc
       -0.12452601 0.013398121 0.008357081 -0.010285613
000070 ea dd c4 bd 08 e0 4b 3d 20 e0 3f 3d 2a 91 2c 3d
       -0.09612639 0.0497742 0.0468446 0.042130627
000080 66 0b c0 bd dd c1 36 bd e7 ef ea bd de 1d c8 39
       -0.09377174 -0.044618476 -0.11471539 0.00038169225
000090 a5 22 fa 3a 48 65 dd 3d d3 58 37 3d ee f5 ab bd
       0.0019083811 0.108103335 0.044762444 -0.08396517
0000a0 b1 36 64 bd 39 7c 96 bd cb 48 80 bd 34 00 fe 3d
       -0.05571622 -0.07347912 -0.06263884 0.124023825
0000b0 6f 8a 0f bd 33 69 99 bc 37 2f 13 3d db ca 88 bd
       -0.03504413 -0.01872692 0.0359337 -0.066793166
0000c0 8d 85 09 be e4 b9 e9 3c 84 69 3c 3d 1a 30 63 3d
       -0.13429852 0.028531022 0.045999065 0.055465795
0000d0 ce 2f bf bd 1e 2c 5c bc ab 5b a4 bd b4 be bf 3c
       -0.0933529 -0.013438253 -0.08025297 0.023406364
0000e0 ca 33 3d bd c4 18 cf 3d 0e 36 9f 3d 53 b2 56 bd
       -0.046191968 0.101121455 0.07773982 -0.052416157
0000f0 eb 1d ed bd f6 8d b9 bb 44 4b ca 3d 16 00 2b 3d
       -0.11577972 -0.005662675 0.09877637 0.04174813
000100 a9 a8 90 3d 03 02 10 ba dd 43 dd 3d 93 0e 72 3d
       0.07063419 -0.0005493464 0.108039595 0.05909593
000110 fb ec c6 bd 49 b7 b6 bd e8 80 a8 bd 5b af ce 3d
       -0.09713169 -0.089216776 -0.08227712 0.1009204
000120 a9 62 cd bd a1 7b 1d 3d cd 89 89 bd b2 31 93 bc
       -0.100285836 0.03844798 -0.067157365 -0.017968033
000130 7b 30 93 bd 10 57 a7 3d 59 78 66 3c fd ed a3 bc
       -0.07186981 0.08170903 0.014066779 -0.020010943
000140 b0 71 41 bd ef d6 00 bd 94 40 aa bd c3 7c 88 3d
       -0.04722756 -0.031454977 -0.083130985 0.066644214
000150 e9 15 8a bd 16 4d e2 3b e5 4a 4f 3c af c3 9c 3d
       -0.0674246 0.006906162 0.012652134 0.07654511
000160 9d a5 32 bd 59 a6 f0 3c 5e d7 9f 3c 97 fa 12 ba
       -0.043614972 0.029376196 0.019511875 -0.0005606799
000170 fc 5a 1d 3b 67 30 e7 3d da a5 7f 3d a4 4f a2 3d
       0.002401053 0.11288529 0.062414028 0.079253465
000180 19 c0 d3 bc 95 8f 4a bb 45 be 35 bd 1c b5 04 be
       -0.025848435 -0.0030908335 -0.04437091 -0.12959713
000190 1f f4 98 bd 4e 8c 8e 3d 8f 31 63 bc ed 75 ee 3c
       -0.074684374 0.06960355 -0.013866796 0.029108966
0001a0 09 d4 f3 3d 21 58 d6 3c a3 df a0 3d a9 e4 2f 3d
       0.11905677 0.02616507 0.07855155 0.042942677
0001b0 a6 ea 5d 3d 01 59 66 bd 16 11 a0 bd 1d e7 20 3d
       0.054178856 -0.056237224 -0.07815759 0.039282907
0001c0 fb 51 9a bd 0e be 87 3c 74 63 55 3d 9b d4 88 bd
       -0.07535168 0.016570117 0.0520968 -0.06681176
0001d0 b4 15 17 3d 75 ae e6 3d 87 21 d4 bd a2 0e a2 3d
       0.036885932 0.11263744 -0.10357957 0.07912947
0001e0 fe 61 a8 3d fa 07 59 3d 6f 7f ab 3d f1 0a 4c 3d
       0.082218155 0.052986123 0.083739154 0.049815122
0001f0 8b 0d 12 3d 09 28 f3 3d 5b 41 87 bd 25 9b bf 3b
       0.035657447 0.118728705 -0.066042624 0.005847352
000200 91 58 2b bb d7 a6 4c bd 20 9c aa 3c aa 58 c0 bd
       -0.002614532 -0.0499638 0.0208264 -0.09391911
000210 cd 19 51 bd 63 50 db 3d ba bf 3f bd 4a 77 ba bc
       -0.051049996 0.10708692 -0.046813704 -0.02276196
000220 5c 36 c6 3d c0 67 c8 3d 58 bd d0 bd c3 dd 35 3d
       0.09678337 0.09785414 -0.101923645 0.04440094
000230 93 6a 99 3d ff 98 d3 bd ed 7e ca bc 3f 79 13 be
       0.074910305 -0.10331916 -0.024718726 -0.1440172
000240 72 a8 fc 3d f3 2f d4 bd d2 c9 01 be 96 c3 66 bd
       0.12336816 -0.10360708 -0.12674645 -0.05633887
000250 72 26 63 bd 9d 7e d4 3c 31 6e e1 3d c8 22 ea 3d
       -0.055456586 0.02593928 0.110073455 0.11432415
000260 c1 51 c9 3d 9f 79 b7 3d 24 35 5e 3d 0a ea a3 3d
       0.098300464 0.08958744 0.054249898 0.08003624
000270 db ec c7 39 5b 55 e1 bd 02 71 10 3d 20 a5 2e bd
       0.0003813271 -0.110026084 0.035264023 -0.042637944
000280 6a 09 93 bc 33 91 87 bd 88 ba 85 3b 23 3a cb bd
       -0.017948825 -0.066194914 0.004081074 -0.09923198
000290 8d 5d 6f 3c 4b cd ec 3d 0e ff 93 3d 23 9d 4f 3d
       0.014609707 0.11562594 0.07226382 0.050686967
0002a0 45 b8 79 bd 6f 2f 51 bd 80 4f a2 bd d1 af 8f bd
       -0.06096675 -0.051070627 -0.0792532 -0.07015956
0002b0 9e 3f b1 3d e3 99 f8 bd 9a ea 46 3d ea e1 c1 bd
       0.08654712 -0.121387266 0.048563577 -0.09466918
0002c0 25 e8 a0 bd bd 76 bd 3d 4b 5f 87 3d 25 06 7c 3c
       -0.07856778 0.09251163 0.066099726 0.015382324
0002d0 c7 c3 ad 3c 47 50 85 bd 8a 1b 3f ba 16 9c e9 3d
       0.021211518 -0.06509452 -0.00072901754 0.11406724
0002e0 61 84 94 bc e9 c8 fd 3d 0e f1 0c bd ba c4 f6 ba
       -0.01812953 0.12391836 -0.034409575 -0.001882694
0002f0 2d 0e bc bc 7a 8f c2 3c 70 a2 ee 3d cc da dd bc
       -0.022955978 0.023750056 0.11652076 -0.02708187
000300 18 51 e7 3d ec 0c b2 bc ab aa f5 bc e8 8a 9a bd
       0.11294764 -0.021734677 -0.029988607 -0.075460255
000310 cc d9 4b bd 9b 83 09 bc e6 aa e9 bd 4a e6 c7 bd
       -0.049768254 -0.008393194 -0.114095494 -0.09760721
000320 9b 7e 11 bd 55 20 2b bc 9a 53 57 bc 23 40 04 3e
       -0.03552113 -0.01044472 -0.013142491 0.12915091
000330 38 a5 40 3d 52 77 ab bd 42 62 d9 bd e3 42 83 3d
       0.047032565 -0.08372368 -0.10614444 0.06409242
000340 2a 32 3a 3d 5b 77 0b 3e 43 e7 a3 3d ae 7d 12 bd
       0.045457996 0.13619749 0.08003094 -0.03576439
000350 d7 a8 97 3d f7 98 c8 3d b1 06 aa bc cf 99 99 3d
       0.074052505 0.09794801 -0.020755144 0.0750004
000360 e8 f0 b0 3d 32 3d 72 3d ff 87 1c 3d 5c c3 6c bc
       0.08639699 0.05914039 0.038215633 -0.014450874
000370 49 19 6e bd b7 da b2 bd 82 ac ca bd d7 5e a3 bd
       -0.058129583 -0.08733123 -0.098961845 -0.07977074
000380 00 19 b9 bd 15 ae 5e bc 70 37 f8 bb 2f 22 d2 3c
       -0.090379715 -0.013591309 -0.007574968 0.025651066
000390 29 e9 07 bd 50 88 e0 bc 26 ed a5 bb 8e 1b b3 bd
       -0.033181343 -0.027408749 -0.0050636707 -0.0874549
0003a0 fb 2e 88 3d 37 aa 58 3d ac 95 18 bd ae 3d 54 3d
       0.06649586 0.052896705 -0.037252113 0.051816635
0003b0 8f 1e a4 bc f7 61 08 3e 3e e6 e0 bc 2e 9e 2a 3d
       -0.020034103 0.1331862 -0.027453538 0.04165476
0003c0 89 08 10 bc 8b 49 5a 3d fa 4f 9c 3b b3 c5 00 3e
       -0.008791097 0.053292792 0.004770276 0.12575416
0003d0 15 20 22 bd 94 37 bf bd 82 46 aa bd 75 a3 c0 bd
       -0.039581377 -0.093367726 -0.083142295 -0.09406177
0003e0 33 6d 91 bd a3 95 02 bd e0 20 6a bd 1a 53 4a bd
       -0.07100906 -0.031880986 -0.05716026 -0.049395658
0003f0 45 ab d8 3d b7 c9 ca bd cd ab f9 bd 9c 5c ff 3d
       0.10579542 -0.09901755 -0.121909715 0.12468836

main_network.lstm.bias_hh_l0 f4 [256]
000000 24 08 98 bd 22 3b 92 3c 59 b1 ab 3d 9f 42 2f bd
       -0.07423428 0.017850462 0.08383436 -0.042788144
000010 c4 31 85 bd 17 b3 86 bd c2 bf f4 3d 77 d5 27 3b
       -0.06503633 -0.065771274 0.119506374 0.0025609413
000020 c8 a0 c1 bb ce f8 67 bd 78 ea 9d bd a0 ea 8c 3d
       -0.005909059 -0.056633763 -0.07710737 0.06880689
000030 90 48 9a 3d e4 d4 71 3d 9f b6 a6 bd 13 78 c3 bd
       0.075333714 0.05904092 -0.08140301 -0.09544387
000040 d4 b2 8a bd 92 fe 58 bd da 6b 62 3d f5 d6 6f bc
       -0.0677239 -0.052977152 0.055278637 -0.014638652
000050 4c ee e6 3d 10 0d 94 3d 7d 04 1e 3d 2d 18 ec 3c
       0.1127592 0.07229054 0.0385785 0.028820122
000060 cc f1 61 3d d8 93 a0 3d 64 78 02 bd d3 bc 8a 3c
       0.055162236 0.07840699 -0.031853095 0.016935742
000070 12 0d d6 3d f8 1c 49 bd 91 29 5f bd d6 8b e0 bc
       0.10451712 -0.049099892 -0.054483 -0.027410429
000080 3d 6f 56 3c 77 59 ee 3c 07 b3 e5 bc 62 0a c2 3d
       0.013088045 0.029095395 -0.028039468 0.094746366
000090 10 6a 7c bd b4 e9 b8 3d 1d ef d6 bc ec e5 da 3b
       -0.061624587 0.0902895 -0.026237065 0.006680241
0000a0 51 03 02 3e a3 42 da bd 94 65 67 bd 9c 10 be bd
       0.12696578 -0.10657241 -0.056493357 -0.09280512
0000b0 29 a2 e1 bc 0f 1c d2 bd 3f 28 a8 bd 83 07 ab bd
       -0.027543144 -0.10259258 -0.08210801 -0.08351042
0000c0 ed e1 d0 bd 9e 9b b4 bb dc e0 46 3d 83 5d b5 bd
       -0.10199342 -0.005511715 0.048554286 -0.088557266
0000d0 a8 3e 28 3c 4a c4 01 3d 2f 0f 9d bd 90 62 f9 bc
       0.010268845 0.031681336 -0.07668912 -0.030442506
0000e0 6e a2 a0 3d 47 54 87 3d 95 43 67 3c 37 93 f8 3b
       0.07843481 0.066078715 0.014115234 0.0075859088
0000f0 9d fb 4c bd f0 77 07 3d a0 c6 da 3d 9f d8 01 3e
       -0.050044645 0.033073366 0.10682416 0.1268029
000100 a5 42 8c 3d 81 00 91 bd 9f a7 d8 3d ab 89 11 3e
       0.06848649 -0.07080174 0.10578846 0.14212672
000110 ce 8b 14 bd cb af c0 3c fc b5 6d 3d 0d a5 42 bd
       -0.03626614 0.023521325 0.058034882 -0.047520686
000120 ed c4 b6 bd 1c 9f f6 3d d8 f9 00 bc 9f dd 02 be
       -0.08924279 0.120420665 -0.007872067 -0.12779854
000130 b4 77 30 bd 66 67 ac 3d 73 15 cf bd 34 c3 9c 3d
       -0.043082908 0.08418159 -0.10111513 0.076544195
000140 6f ce e3 3c f7 6a 8f 3d a6 2c ec bc 73 ab aa 3c
       0.027808396 0.07002824 -0.028829884 0.020833706
000150 57 74 87 bd 95 e9 89 3d 74 0b 15 3d f1 81 c7 3d
       -0.06613987 0.06734005 0.036387876 0.09741581
000160 a3 44 b7 3d 8e 60 1a bb 48 ca ec 3d 83 12 2a 3c
       0.08948638 -0.0023556086 0.115620196 0.01038039
000170 f5 28 88 3d 4f 63 8b bd ab b3 e9 3c 05 22 24 bd
       0.06648437 -0.06806051 0.028528055 -0.040071506
000180 96 40 64 3d 76 11 6e bd e7 58 dd 3c cb dd 3b 3c
       0.055725656 -0.05812212 0.027019931 0.011466454
000190 ff a6 b2 bd 36 3e c5 bd e7 75 83 bc 14 d9 5e 3d
       -0.08723258 -0.096310064 -0.016047431 0.05440624
0001a0 61 ef c8 bd 91 6a 4b bd 3f 70 f9 3c 3c 6c f1 3d
       -0.09811283 -0.049662177 0.03044903 0.11788222
0001b0 d8 31 10 3d ef d5 6f bc 2c 6e 6f bc 9f cf 70 3d
       0.035203785 -0.014638408 -0.014613669 0.058791753
0001c0 ef e6 d6 3d b8 f3 de bc fc 1e b3 3d 96 aa 74 3d
       0.10493266 -0.027215824 0.08746144 0.059732996
0001d0 7b 46 ef bd cc ad 2f bd 76 cd 72 3c 0a 91 be bd
       -0.11683365 -0.042890355 0.0148194935 -0.09305008
0001e0 0e 11 99 3c c4 79 05 bc 44 78 01 3e 31 2b 0e 3e
       0.01868489 -0.008146707 0.12643534 0.13883664
0001f0 00 36 a2 bd 64 6d d2 3d 24 17 86 bc 42 b5 a5 bd
       -0.07920456 0.10274771 -0.016368456 -0.08091213
000200 de 46 d9 bd 99 a2 01 bd 77 12 8c bd bb aa 49 3c
       -0.1060922 -0.031649206 -0.068394594 0.012308772
000210 2c a0 dd 3c 12 7c 42 3d 53 dd e5 3d 14 56 98 3d
       0.027053915 0.047481604 0.11223855 0.07438293
000220 64 c0 cd 3d ec eb 90 3d d9 e5 3e 3d b1 84 a7 bd
       0.10046461 0.070762485 0.04660592 -0.08179606
000230 19 5b bf 3d ad 62 f9 bd 65 df e8 bd 90 eb 6e 3d
       0.093435474 -0.12177024 -0.11370734 0.05833012
000240 b6 7d 65 bd e1 2f 66 3d 23 5e c3 bc 2c 85 75 3b
       -0.05602809 0.056198005 -0.023848599 0.003746341
000250 dd 16 d7 3d 03 11 e2 bb 7b e6 b0 bd 42 eb 07 3e
       0.10502408 -0.0068990006 -0.08637711 0.13273337
000260 b3 b0 91 bd 9f 32 da bd 3a cf e5 bd 32 e8 3e bd
       -0.07113781 -0.106541865 -0.11221166 -0.046608157
000270 63 42 06 3e 91 19 cf 3d bc 28 d2 bd 20 7d 5b bd
       0.13111262 0.10112298 -0.10261676 -0.053586125
000280 04 82 1c ba 9b c7 c6 bd cf 89 89 bd 7b e0 f2 3d
       -0.00059703016 -0.097060405 -0.06715738 0.118592225
000290 5b 71 05 3e e0 c3 8b 3d b0 ad eb bd fa d1 54 bd
       0.13031523 0.068244696 -0.11507738 -0.05195806
0002a0 ed eb 2d bc 4b 53 0d 3e a8 4a de bd 2d 42 04 3d
       -0.010615331 0.13801305 -0.10854083 0.032289673
0002b0 68 cc f7 3d 29 c9 99 bd a6 dc d0 bd db c8 4d bd
       0.12099534 -0.075090714 -0.10198335 -0.05024038
0002c0 05 84 88 3c 19 27 a2 bd ea 4b cb bd 79 ba 56 3d
       0.016664514 -0.079176135 -0.09926589 0.052423928
0002d0 a3 9c 1a 3d 82 78 75 bd f6 ef de bd 2f 8f 1c 3c
       0.037747037 -0.05992938 -0.10885613 0.009555622
0002e0 07 3d d3 3c ef 1c b8 bc 63 d2 00 bd 1c db f2 3c
       0.025785936 -0.022474734 -0.03145064 0.029645495
0002f0 52 d8 88 3d e8 dc d7 3d c6 f2 6f bd 35 2e e7 bc
       0.06681885 0.105401814 -0.058581136 -0.028220275
000300 34 66 e0 3d 77 da 9c bd 2e ab 1c 3c 42 77 aa bd
       0.10956994 -0.07658856 0.009562297 -0.08323528
000310 72 1c c5 bd 82 f6 ad bd e4 b6 c3 bd 3a 46 19 bd
       -0.09624566 -0.08494283 -0.09556368 -0.03742049
000320 84 fd 7a 3d 0f a3 25 3d ae 71 89 3d ba 21 97 3d
       0.061276928 0.040438708 0.06711136 0.0737948
000330 db bd c9 bc 64 8c ea bd 62 e1 02 3e a1 9e 16 3d
       -0.024626663 -0.11452559 0.12781289 0.036772374
000340 08 1d bd 3d a0 52 09 3e d7 d4 7d 3b 97 a9 dc bd
       0.09234053 0.13410425 0.0038731599 -0.10774534
000350 32 3a 8b bd 9f ea b9 bd bf b1 75 3d b9 ad 16 bd
       -0.06798209 -0.090779535 0.059983965 -0.03678677
000360 e4 74 45 bd 98 09 dd 3c 8c 78 96 3d 51 85 5f 3d
       -0.04820718 0.026982114 0.07347211 0.0545705
000370 a6 03 90 3c 8c b6 6c 3d 1e 1c 8e 3d f9 28 af bd
       0.017579865 0.057791278 0.06938957 -0.08552737
000380 bc 7f e8 3d dc de ff 3b a1 64 e8 bd d2 40 67 3d
       0.113524884 0.0078085493 -0.113473184 0.0564583
000390 08 6d f7 bd 29 b0 00 3d b3 5a e8 3c 13 c5 ea 3c
       -0.12081343 0.031418 0.028363561 0.028658425
0003a0 48 7c af bd 53 c5 d4 3c 30 40 e2 bd ba eb bd 3d
       -0.08568627 0.025972998 -0.11047399 0.09273477
0003b0 bf 88 f0 3d a6 25 fb 3d f4 9e de 3b 87 0a 4e 3c
       0.11744832 0.1226304 0.006793851 0.012575752
0003c0 c4 ef 80 3c 59 d0 95 bd aa d7 d6 bd 51 fa 00 3e
       0.01573933 -0.0731513 -0.104903534 0.12595488
0003d0 0b f4 10 3d 7c d8 8a bd 20 20 3c bd 7b e8 a6 3d
       0.035388988 -0.06779572 -0.045929074 0.08149811
0003e0 b7 ee 9b bb cb 13 48 3c 66 9a 01 3e 8c 68 00 bd
       -0.0047586816 0.01221175 0.12656555 -0.031349704
0003f0 73 6f a3 3d 14 81 04 3d c1 4c db bc a2 7e ec bd
       0.079802416 0.03234966 -0.026769998 -0.11547591

main_network.fc.weight f4 [3, 64]
000000 27 db 88 3d f9 71 a9 3d 5c 5e fb bc e8 7f 5e bc
       0.06682425 0.08273692 -0.030684642 -0.0135803
000010 02 90 01 be 7a 09 62 bd 78 bd db 3d 89 fc 0b 3e
       -0.12652591 -0.05518482 0.10729498 0.13670553
000020 95 8a cf bd 86 c5 fb bd ee 8b 93 bd 66 f2 3c bd
       -0.10133854 -0.12293534 -0.07204424 -0.046129607
000030 30 91 0e bd 4e 12 21 3d 0b 89 b4 bd 02 c5 0d bc
       -0.03480643 0.039324097 -0.08815201 -0.008652927
000040 c6 d0 d7 3d 21 53 6e 3d 5f dc 1b bd 23 ed c8 3c
       0.10537867 0.058184747 -0.03805196 0.024527138
000050 c2 bc cd 3d f2 fb ed 3d 2d af e0 bc b2 df 9e 3d
       0.10045768 0.116203204 -0.02742728 0.0775751
000060 7d 88 8e bc 3e 9e 53 bd 64 e4 9a 3d b6 36 2b bd
       -0.017399067 -0.051664583 0.07563093 -0.041800223
000070 d0 13 c6 3d a7 88 a9 bb 40 37 9c 3c d2 4a d9 bd
       0.09671748 -0.005173761 0.019069314 -0.10609974
000080 9e f3 d8 bc b8 63 fe bd df 93 db bd c9 b9 4c bd
       -0.026483353 -0.124213636 -0.107215635 -0.049981866
000090 14 cf 30 3c 2e 7f 00 3e 32 68 57 3d 74 c0 a0 3d
       0.010791559 0.12548515 0.052589603 0.078492075
0000a0 4d 16 d2 bd 42 4f 00 3c 53 f3 ef bd 59 25 cc bd
       -0.1025816 0.007831397 -0.11716332 -0.09968061
0000b0 79 e0 dc 3d 43 c2 5c 3d e5 b1 3c bd 46 58 63 bc
       0.10785002 0.0538962 -0.04606809 -0.0138760265
0000c0 2e 63 4a 3d 56 df 31 3d 6d 2e 27 bd d0 8b cf 3d
       0.04941099 0.04342588 -0.04081576 0.10134089
0000d0 90 5f 50 3d 24 14 e5 3d 5f 03 23 3d 51 ff c8 bd
       0.050872386 0.11185482 0.039798137 -0.09814323
0000e0 87 94 c1 b9 39 ab 5c bd 94 da b8 bb 23 26 ae 3d
       -0.0003692249 -0.05387423 -0.005641291 0.08503368
0000f0 bf d9 06 bd 93 e1 06 bb 66 06 18 bd 17 c8 e0 bc
       -0.032922503 -0.002058123 -0.037115477 -0.02743916
000100 ca 19 6c bc e5 18 2f 3d 04 26 92 bd 2a be 49 3d
       -0.0144104455 0.04274835 -0.07136157 0.04925362
000110 d0 04 65 3d 26 3c d6 3d 05 07 c6 bd 0b 9d e9 bd
       0.055912793 0.10460691 -0.096693076 -0.11406907
000120 d1 de d6 bd f6 2a ab bc ea c8 c4 3d c9 a5 f5 3d
       -0.104917176 -0.020894509 0.09608634 0.11994512
000130 14 9b e9 3d c4 e6 85 bd 1c ae fc 3d 49 04 0f 3d
       0.11406532 -0.06538156 0.12337896 0.034916196
000140 25 75 f5 3c 10 63 58 3d b4 82 06 3b 5c b7 26 3c
       0.029963085 0.05282885 0.0020524682 0.010175552
000150 91 7b 6a bd bf cd 6a 3d ff 04 d6 bd ce 4e df 3d
       -0.05724675 0.05732512 -0.10450172 0.10903703
000160 49 e7 9e 3d e0 f4 7e bd 20 65 96 bd ba 6f e0 3d
       0.07758958 -0.06224525 -0.07343507 0.1095881
000170 cc 0d 1d bc 85 f8 02 bd 5d 6d 99 3d d6 d6 b9 bd
       -0.009585809 -0.031975288 0.074915625 -0.0907418
000180 4f 43 c7 bd 71 0f d6 3d 88 4b cb 3d d7 40 c1 3d
       -0.09729635 0.10452164 0.09926516 0.09436195
000190 29 ed e3 3a 2d 67 8a bd 12 8e 74 3c a2 be 0e 3d
       0.0017389405 -0.067579605 0.01492645 0.03484977
0001a0 ae c9 09 3d 36 bc b6 bd e0 1d cd 3d 70 c2 e0 3d
       0.033639602 -0.08922617 0.10015464 0.10974586
0001b0 6e 99 52 3c 0b 9c 1a bd 02 00 ad bd b8 ee fb 3d
       0.012853963 -0.03774647 -0.08447267 0.12301391
0001c0 38 fa 43 bd 54 c2 ce bd d0 b3 fc bd 19 09 b2 3d
       -0.04784605 -0.10095659 -0.12338984 0.086931415
0001d0 25 00 f1 3d 2f c3 d7 3c 3c 24 d0 bc 59 33 b7 bd
       0.11767606 0.026338188 -0.025407903 -0.08945341
0001e0 7c 9b c2 3d 64 06 44 3c d1 27 bd 3d 35 a6 6e 3d
       0.095023125 0.011964414 0.0923611 0.058263976
0001f0 d8 f6 da 3d 16 12 d1 3d db 2e ca 3d 86 c5 bb 3d
       0.10691613 0.10208528 0.09872218 0.09168534
000200 ac 8e e1 bd 5c cd 37 38 31 3f 8f bd 8b 41 26 bd
       -0.110135406 4.3821856e-05 -0.06994475 -0.04058985
000210 55 5f 0f bd 42 93 32 3d 0b d6 4b bd 8d bf f7 3b
       -0.035003025 0.043597467 -0.049764674 0.0075606764
000220 01 ee 85 3d 29 4c e3 bd 7f 29 10 bc 11 65 db 3c
       0.06539536 -0.11098511 -0.008798956 0.02678159
000230 a4 3b 0d bd 3c 86 d8 bb 8a 23 fd bd b3 01 d7 bd
       -0.034480706 -0.006607799 -0.12360294 -0.10498371
000240 df bc a1 3d 9c c3 34 3b 21 d7 9d bd 82 14 91 3d
       0.078973524 0.0027582413 -0.07707048 0.0708399
000250 c4 8a f4 3d 0b 8e 68 bd 40 09 04 3d ed df 08 3e
       0.1194053 -0.056776088 0.032235384 0.13366671
000260 ed 4d be bd ea ab 8d bd 07 96 a7 bd 74 74 a2 3d
       -0.09292207 -0.06917556 -0.08182912 0.07932368
000270 2c c8 a5 3d be 6c c3 bd 47 13 4b bd 69 e3 49 bd
       0.080948204 -0.09542225 -0.04957893 -0.04928914
000280 88 29 d3 3d 97 a1 ac bd cd c6 a2 3d c5 bc ca bd
       0.10310656 -0.08429258 0.079480745 -0.09899286
000290 90 8f d4 3d 6f 8c 55 3d 0b 70 07 be f8 73 9a bd
       0.10378945 0.05213588 -0.13226335 -0.075416505
0002a0 7e b4 01 be 18 fb e3 3d 6a 02 b7 3b d6 f3 71 3c
       -0.12666509 0.11131877 0.0055850046 0.014767608
0002b0 2c 58 94 3d 05 87 f3 3b 68 7a 0d be 1b 4e bb bd
       0.0724338 0.007431867 -0.13816226 -0.09145757
0002c0 39 f1 a8 3d 62 96 02 3e 1b 7d d9 3d d2 4c 5f 3d
       0.082491346 0.12752679 0.10619565 0.05451662
0002d0 92 cb dc 3d 68 1e d1 ba 25 52 96 bd 16 00 07 bd
       0.107810155 -0.0015954496 -0.073398866 -0.032959066
0002e0 94 e7 90 bc 38 ae 20 3d ee 92 d8 3d 79 74 05 be
       -0.01768855 0.039228648 0.105748996 -0.13032712
0002f0 8b 08 7f bd 07 00 55 3d 31 48 00 3d ec 3c 4d bd
       -0.062264007 0.05200198 0.031318847 -0.050106928

main_network.fc.bias f4 [3]
000000 88 0b bb 3d 1a 09 b4 bc 0f d9 0e 3d
       0.09133059 -0.021976996 0.034874972

short_term_context_network.fc1.weight f4 [32, 7]
000000 e6 02 b1 3d 8b aa 23 be 10 e1 8b be 39 63 02 3e
       0.08643131 -0.15983026 -0.27320147 0.12733163
000010 8d 5a 7d 3d 33 c2 2e 3f a4 ff c4 3e cf eb 4d 3f
       0.061853934 0.68265074 0.38476288 0.8043794
000020 54 7a 86 be 29 29 9e 3d 30 74 2d be e1 c9 28 bf
       -0.26265204 0.077226944 -0.16938853 -0.6593304
000030 ab a3 ae be 2d 8c 0b 3f 46 e1 a4 be 1b 4b 81 bb
       -0.34109244 0.54510766 -0.3220312 -0.003945721
000040 64 03 c0 3d 06 a4 4f 3d f6 ef 0c 3f cf e4 04 3f
       0.09375647 0.050693534 0.5505365 0.51911634
000050 dd ea 9f 3e 33 07 46 3f 34 78 c0 bd 24 f7 1c 3e
       0.31233874 0.77354735 -0.09397927 0.15328652
000060 ca 3d 87 be 4a 9e ca bf aa 9d ca bf d3 2a 68 3e
       -0.2641433 -1.5829556 -1.5829365 0.22672586
000070 b0 be e4 be a2 a3 b5 be 67 a3 9e 3e 60 9e 8b 3e
       -0.44676733 -0.35476404 0.3098404 0.27269268
000080 b1 d2 a8 3d 80 46 42 3f 0b 58 18 3f 7d 4d 66 3b
       0.08243311 0.75888824 0.5950934 0.0035141401
000090 54 cc 7b 3c 1b c4 bd bd 1e d9 58 be 0d fc 21 3e
       0.01536854 -0.0926592 -0.21176574 0.15818806
0000a0 23 7f 81 3e d9 13 95 be ec 98 10 bf 77 a8 58 3e
       0.2529231 -0.29116705 -0.5648334 0.21158014
0000b0 29 07 aa 3e b9 19 23 be c4 d5 76 3e 69 77 2f 3f
       0.33208588 -0.15927781 0.24104983 0.6854158
0000c0 b8 30 8a 3f b6 f0 a5 3e 3c fc 70 3e 85 64 a4 3e
       1.0796118 0.3241021 0.2353372 0.3210794
0000d0 ce a4 e1 3d 56 96 b3 3d 61 49 b7 3d 53 bd c0 3e
       0.11017762 0.08768909 0.08949543 0.37644443
0000e0 99 40 3f 3f 06 06 67 be c9 7c 3c 3d 3c aa 1a 3e
       0.74707943 -0.22560892 0.046017442 0.15104002
0000f0 0d 82 be bf b9 81 be bf 5a 74 5a 3e 94 0d cf bd
       -1.4883438 -1.4883338 0.21333447 -0.10110012
000100 a0 11 91 be ad 4e ea 3d 53 05 a0 bd 07 c5 fe 3d
       -0.2833376 0.114407875 -0.078135155 0.12439924
000110 fa 13 22 3f 2b 12 5d 3e 6a 07 9f be 44 26 12 be
       0.6331173 0.21588962 -0.31060344 -0.1427241
000120 3d 34 81 bc b5 71 b5 be 5b 6b ec 3c f7 ba fa 3d
       -0.01577198 -0.35438314 0.028859785 0.12242692
000130 79 e2 8c be 0d 84 88 3d 54 25 7c be 56 c0 b4 3e
       -0.27516535 0.06665812 -0.24623615 0.3530299
000140 22 2e 0e be 63 fa e7 3e b0 57 91 3e a0 43 27 3f
       -0.13884786 0.45308217 0.28387213 0.6533756
000150 d0 eb 8e 3c 69 e8 8e be ba 26 8f 3e c9 28 4f be
       0.017446429 -0.2791169 0.27959234 -0.20230402
000160 47 cf d2 3d 53 84 62 3e a2 c8 79 3e 6c f3 f2 bd
       0.10293441 0.2212079 0.24392942 -0.11862835
000170 2f b6 c0 3e 87 2b 82 be a0 ab be 3e f6 20 02 be
       0.37638995 -0.25423834 0.37240314 -0.12707886
000180 10 8b 81 be 55 ca 27 3e ec 0f 53 be 0e 08 a3 be
       -0.2530141 0.16385777 -0.20611542 -0.31842083
000190 04 f0 86 bd 43 b0 69 3e c5 30 29 3f 70 f9 a2 3e
       -0.06588748 0.22821145 0.6609004 0.3183093
0001a0 b8 3d 1d 3d b1 c2 a3 be d1 16 aa 3e c5 18 f6 3d
       0.038388938 -0.31984475 0.33220533 0.12016443
0001b0 0e 2f be be d8 27 ac 3e 15 53 6e be bb c0 a6 be
       -0.37145275 0.33624148 -0.23273881 -0.32568917
0001c0 44 73 9e 3d de e7 0d 3d 05 65 a8 3e 23 41 96 3d
       0.07736829 0.034644954 0.32889572 0.073366426
0001d0 3e ce 25 3f c0 fe e2 3e 5b 58 20 be e2 fe fa 3d
       0.64767826 0.44334984 -0.15658705 0.12255646
0001e0 32 3a 3c 3e be 21 92 3d f8 97 7f 3e f2 73 d4 3d
       0.18381575 0.07135342 0.24960315 0.10373677
0001f0 df 80 fc 3c 34 8c 55 3e 58 ff fc bd 93 bb b1 3d
       0.03082317 0.20854264 -0.123533905 0.08678355
000200 11 89 88 be 6b 05 94 3d e5 a2 12 3f 51 41 e2 3e
       -0.26667073 0.07227596 0.5727981 0.44190457
000210 a5 81 d1 3e f1 c8 46 3f 3f 33 af bd 9f ef ec bd
       0.40919223 0.7765036 -0.08554696 -0.115691416
000220 4c 42 5a be d5 72 ee be 4b 1d ad bf 77 0e b4 3d
       -0.21314353 -0.46571985 -1.3524565 0.087918214
000230 d5 b0 14 be 40 83 51 be 55 76 bb be 76 c1 77 be
       -0.14520581 -0.20460224 -0.36613718 -0.24194893
000240 77 1d 07 3f 9d f9 52 3e d8 d8 1e 3e b4 a5 c1 bd
       0.52779335 0.20603032 0.15512407 -0.094554335
000250 38 ac 14 3e 66 3c 8d be bb e5 9a be ed f2 7d 3e
       0.14518821 -0.27585143 -0.30253395 0.247997
000260 80 8c ef bd bc a3 9a 3e a4 b1 9d be d8 26 8c 3c
       -0.1169672 0.30203044 -0.30799592 0.017108366
000270 31 77 b3 be 48 94 93 3e 63 40 50 3e 2a 85 17 3f
       -0.35051873 0.28824067 0.20337062 0.5918757
000280 fc 3f e6 3e 7a fb bc be 7d ad 6f 3e 25 49 0e 3d
       0.4497069 -0.3691061 0.23406024 0.034737725
000290 4f c2 a1 3d 5e 8e 59 3f 32 98 6b 3d 4f 29 c0 3e
       0.078983895 0.8498286 0.05751819 0.37531516
0002a0 07 32 0a be 35 02 af bd 02 b4 97 be 91 d1 05 bd
       -0.13495646 -0.08545343 -0.29629523 -0.03267056
0002b0 24 a9 03 3f 78 d6 0e 3f 89 a5 92 3d 8a 9c da bc
       0.51429963 0.55796003 0.071604796 -0.026685972
0002c0 c5 57 2a be 72 02 51 3d cc 31 ae 3e cb a9 ae be
       -0.16635044 0.051027723 0.34022367 -0.34113917
0002d0 7e 8c 82 3e 29 dc 02 3e bb 15 08 be 04 aa a3 3e
       0.25497812 0.12779297 -0.1328954 0.3196565
0002e0 09 8e 8a be 6d b6 ae be 63 58 d3 bd d8 17 83 3b
       -0.2706149 -0.34123555 -0.10319593 0.004000645
0002f0 bf 9b 56 be d4 ef bf 3e d7 c3 0f 3e 1b e8 e3 bb
       -0.2095785 0.37487662 0.1403955 -0.0069551594
000300 f5 af 63 3e 51 12 ab 3e ff 74 82 3e cc 2f 34 3f
       0.22235091 0.33412412 0.25479886 0.7038543
000310 50 45 aa be a8 f3 52 3e 67 3e f0 3d 7b 94 37 be
       -0.33256006 0.2060076 0.11730652 -0.17927735
000320 4c bd 17 bd 4e 59 b1 bd 85 d9 61 be 91 b0 f2 be
       -0.037045762 -0.08659612 -0.22055633 -0.47400334
000330 21 54 97 bc 50 df 8f bd 98 fe bb be 25 8c f6 3e
       -0.018472733 -0.07025015 -0.36717677 0.48153797
000340 5b 55 a4 3e 32 69 8a 3f 06 36 a5 be 67 0e 75 3e
       0.3209637 1.0813353 -0.3226778 0.23931275
000350 70 0e 77 be 7b 4f d9 bd a8 9e b5 be 92 cc 2e 3e
       -0.24126601 -0.10610863 -0.35472608 0.17070225
000360 81 07 f2 3d d1 f2 e1 be 0f a6 73 bd 24 5b 73 3e
       0.118178375 -0.44130567 -0.059484538 0.23765236
000370 22 1e 95 be b0 b5 00 3f db 6f 92 3e 63 a6 20 3f
       -0.29124552 0.50277233 0.28600964 0.62753886

short_term_context_network.fc1.bias f4 [32]
000000 ba 34 2f 3f 9c 8a 8f bd a5 9d 3b 3f 99 e7 4e bf
       0.6843983 -0.070088595 0.7328742 -0.8082214
000010 e3 04 52 3f 34 90 9b be 9c 1e 35 3f 6c 7b 0b 3f
       0.82038707 -0.30383456 0.7074983 0.544852
000020 be 25 53 bf cf ad df 3e 6b e3 64 be 23 e3 d0 3e
       -0.82479465 0.43687293 -0.22352378 0.40798292
000030 90 92 bc be b3 58 08 bd 30 45 28 3f c2 50 b2 be
       -0.36830568 -0.033287715 0.6573057 -0.34827238
000040 ad 2d 44 3f b1 66 01 3f 5c 01 9e 3e ee db 59 bf
       0.76632196 0.5054732 0.30860412 -0.8510121
000050 70 a0 0e 3f f1 38 ad be 76 84 0d 3f 97 04 50 3f
       0.5571356 -0.33832505 0.55280244 0.81257004
000060 e9 c9 31 3f 69 05 86 be 18 4a 60 be db 52 9e 3e
       0.69448715 -0.26176003 -0.21903265 0.3092259
000070 dd 87 9d be d3 65 d9 3e 58 ad 3f be ba db 45 3f
       -0.30767718 0.42460498 -0.18718469 0.772884

short_term_context_network.fc2.weight f4 [16, 32]
000000 fa 03 82 bd 8d ef 67 bd 71 9a 31 be 3c 26 08 be
       -0.06348415 -0.056624938 -0.17344071 -0.13295835
000010 46 1d c8 bd 68 79 88 3d dd de 32 be 8b 9b 96 3d
       -0.097712085 0.066637814 -0.17467828 0.07353886
000020 de fb 21 be 79 d7 1b be d7 36 90 bc eb ce 18 3e
       -0.15818736 -0.15218915 -0.017604275 0.14922683
000030 2d d2 a2 3c 6b a5 fe 3d 87 57 06 3e 61 3a 5f bd
       0.01987561 0.12433895 0.13119327 -0.054499034
000040 27 64 dc bd 66 b4 8a bd 02 72 13 3e a7 88 21 be
       -0.1076129 -0.067726895 0.1439896 -0.15774785
000050 59 bc 0c 3e 7a fd 0f 3a 84 1e 76 bc 8b 2a 41 bc
       0.13743724 0.0005492788 -0.015021924 -0.011789928
000060 c7 90 af 3c 38 fb a9 3c 15 9f c9 3c 38 20 36 be
       0.02143134 0.020749673 0.024611989 -0.17785728
000070 ce 4c cf bd c8 fa bb 3c 12 a3 0c 3d c8 58 8b 3d
       -0.10122071 0.02294673 0.034335203 0.06804043
000080 1f 2b 80 3e 7f 14 d5 3c 90 d1 ef 3e 06 fa af be
       0.250329 0.02601075 0.4683957 -0.3437044
000090 ff 6d 21 3e 98 0c bf bd a5 6a 2a 3f 88 2e c5 3d
       0.15764616 -0.09328574 0.66568977 0.09628016
0000a0 5b 42 06 bf ee 97 6f 3e b3 6a ed 3c 45 ef 32 3e
       -0.52445 0.233978 0.028981542 0.17474087
0000b0 d3 6c d3 3d 5b fe 5e bd da 29 a5 3e e3 bd 2b be
       0.10323491 -0.05444179 0.32258493 -0.16771655
0000c0 a6 92 0c 3f a2 78 e5 3e 9b fc 87 3e 30 48 d8 be
       0.5491127 0.44818598 0.2655991 -0.42242575
0000d0 84 7c a9 3e f2 93 62 3d 2d ad be 3e 89 4f 96 3e
       0.3310281 0.055316873 0.37241498 0.29357556
0000e0 c6 d6 71 3e 01 ed aa 3c 3c bc 5d 3d e7 38 49 3e
       0.23617086 0.020864965 0.054134592 0.19650613
0000f0 27 ff 7d bc 99 8c 02 3f c1 28 19 be 5c 43 70 3e
       -0.015502728 0.50995785 -0.14956953 0.23463196
000100 2b 69 ff bd ac e6 24 bd 26 80 e6 3d 13 6e b5 bd
       -0.12471231 -0.04025905 0.11254911 -0.088588856
000110 76 72 19 3e 8c 46 91 bc f1 6a fe bd a0 24 e3 bd
       0.1498507 -0.017733835 -0.12422741 -0.1109097
000120 fa 45 5c 3d c5 94 97 bd cb 63 31 3e 28 fb f6 bd
       0.053777672 -0.074014224 0.17323224 -0.12059623
000130 40 69 2c bb 09 0b 05 bc 46 db 2f be 0e 85 55 bd
       -0.002630785 -0.008120307 -0.1717349 -0.052128844
000140 4c 41 dd 3d 56 e6 60 bd c2 27 31 be 77 a1 e5 bd
       0.1080347 -0.054907165 -0.17300323 -0.112124376
000150 c4 25 2a be 22 a9 93 bc 97 3a 05 be ab 6d e3 3c
       -0.16615969 -0.018024985 -0.13010632 0.027762255
000160 a2 0a 32 be 11 0a 0c 3e c8 57 f6 bd 9b 9c 2c bd
       -0.17386869 0.13675715 -0.12028462 -0.042141538
000170 c6 c0 1b be 4b ba 8c 3d 75 69 1a bd 7b f4 1e 3e
       -0.15210256 0.0687147 -0.037698228 0.1552295
000180 9f 82 31 3e 65 0b 5b 3e 5a b4 b4 3e 84 01 28 bf
       0.17334984 0.21391065 0.35293847 -0.6562731
000190 04 1f 88 3e 02 77 10 bd e4 c8 6e 3f e7 d8 9e 3e
       0.26586163 -0.035269745 0.93275285 0.31024858
0001a0 0b 0d 4c bf 92 6a df 3e 43 fc b5 3d 8f 42 04 3f
       -0.797074 0.43635994 0.08886006 0.5166406
0001b0 99 6e 7c bd 48 1c 08 bd c0 ab c8 3e 6d 39 3a 3d
       -0.06162891 -0.033230096 0.39193535 0.04546492
0001c0 4c 83 30 3f 28 8b ce 3e 6a e1 23 3f 66 e6 ac be
       0.68950343 0.40340543 0.6401583 -0.3376953
0001d0 46 58 ed 3e 02 b4 10 be f6 4f c0 3e 2e f1 15 3f
       0.4635641 -0.14131168 0.37561005 0.58571136
0001e0 1c c3 d8 3e 28 33 02 3d a4 22 a1 bd ba 58 04 3e
       0.42336357 0.031787068 -0.07867935 0.12924471
0001f0 f6 64 db 3c 4b 09 cc 3e 4c d5 ef 3d 5d ee f9 3e
       0.02678154 0.3985084 0.11710605 0.4881467
000200 69 d3 d1 bd 03 3f 14 be 73 3d 94 bc f7 8a cd 3d
       -0.102454014 -0.14477162 -0.018095708 0.10036271
000210 b0 fa b8 bd 30 a4 8a 3d 77 89 d7 3d b1 3e 24 3b
       -0.0903219 0.067695975 0.10524266 0.002506178
000220 e5 39 5f 3b 2c 6b 80 3d 27 56 f9 3d 77 ec 1b bd
       0.0034061607 0.062704414 0.121746354 -0.038067307
000230 9f 3d 65 3a f3 9c 30 3e c0 8c b2 bc 9e 90 65 bd
       0.0008744839 0.17247371 -0.02179563 -0.05604612
000240 6b b5 74 bc 37 0e d1 bc f3 f9 1a bd 0b 2c dc bd
       -0.014935832 -0.025519473 -0.037836026 -0.10750588
000250 92 78 f0 bd 4f bb ae bc 12 ce 1a be 53 a6 10 be
       -0.11741747 -0.02132955 -0.15117672 -0.14125948
000260 24 87 14 bd 1f 4c 1a be e6 bb 18 be 87 0f a1 bd
       -0.036261693 -0.150681 -0.14915428 -0.0786429
000270 6b 86 17 3e ae 67 46 bd b5 f1 2b be 4a 9f 17 be
       0.1479737 -0.04843872 -0.16791423 -0.14806858
000280 b1 6b cd 3e 91 ec 08 3e 45 2c af 3e 9a 21 26 bf
       0.40121225 0.13371493 0.34213462 -0.6489502
000290 ae c6 be 3e 2f 87 8e bd bd 65 8e 3f ff dc e1 3e
       0.37260956 -0.06959378 1.1124798 0.4411392
0002a0 1e 70 41 bf 8f 6b f6 3e 48 01 27 3e eb a8 85 3e
       -0.755617 0.48128936 0.16309083 0.26105437
0002b0 c4 61 00 be c2 08 8f 3c 71 4b d6 3e 23 0f 09 3e
       -0.12537295 0.01746023 0.41854432 0.1338468
0002c0 21 f7 33 3f e8 1e fe 3e 9c af 03 3f 25 e3 d6 be
       0.70298964 0.49632955 0.51439834 -0.41970173
0002d0 90 88 bc 3e 25 69 f7 bb 36 fc 84 3e 3c 19 cf 3e
       0.3682294 -0.007550376 0.25973672 0.4044894
0002e0 0d ca d3 3e d5 d6 d4 3d a1 a1 26 3c 4f 85 e0 3d
       0.4136509 0.103925385 0.010170371 0.109629266
0002f0 c0 8d 7d bc eb 62 c3 3e 2d d4 26 be bf 46 9d 3e
       -0.01547569 0.38161406 -0.16291876 0.30718037
000300 a7 3f 0e 3e 48 f6 7b bc e9 dc 28 be fc fe 13 be
       0.13891469 -0.015378542 -0.1649052 -0.14452738
000310 a9 a7 05 be 9f a2 d1 3d a7 bf da 3d e6 88 19 be
       -0.13052239 0.10236096 0.10681086 -0.14993629
000320 9d 57 c8 bd f6 ad 19 bd 8f 1d 99 bd a8 8a e8 3c
       -0.09782336 -0.037519418 -0.07476341 0.028386429
000330 2e de 08 3d 9a 35 b8 3d b1 c9 a6 bd 40 6c d3 3c
       0.033415012 0.08994599 -0.08143938 0.025808454
000340 b4 70 f9 bd 2b 3a 7f 3c 6d d2 83 3d d8 af 2a be
       -0.121796995 0.015577833 0.0643662 -0.16668642
000350 28 6d 25 3c 08 48 28 be 5f 15 2c be 5b da 82 3d
       0.010096826 -0.16433728 -0.16805027 0.06389304
000360 80 c7 ab bd 3e 5a e6 3d 2e 4f 73 3d e5 d8 bf 3d
       -0.08387661 0.11247681 0.059401684 0.09367541
000370 3e bd 86 bd 9e fd 17 be 3d 3e 0e 3e 44 df 90 3d
       -0.06579064 -0.14842841 0.1389093 0.070738345
000380 f4 b6 4d be c4 ec cb 3c 6f 05 f0 bd 8d bf f3 bc
       -0.20089322 0.024893172 -0.117197864 -0.029754424
000390 a1 5d f8 3d c4 92 53 bd e2 62 66 bc 1d ab 25 be
       0.12127233 -0.05165364 -0.014061661 -0.16178556
0003a0 4e 1b 4b 3d 67 90 c1 3c 31 9d 1f 3e 70 71 2c be
       0.049586587 0.023628427 0.15587308 -0.16840148
0003b0 9f 2d 43 bd 64 1e 0a 3e b8 e6 22 bd 2e 08 99 bd
       -0.04765093 0.13488156 -0.03977081 -0.07472263
0003c0 a5 3c a7 3d 78 f2 fc bd 11 00 37 3d cf 8c 22 be
       0.08165864 -0.12350935 0.044677798 -0.15874027
0003d0 d3 22 62 bd de 2d fe bd 73 d3 0a 3e d1 05 99 3c
       -0.055208992 -0.12411092 0.13557224 0.018679531
0003e0 fb 12 31 be dd be c4 3b d8 5f fb 3b ac 1b fc 3d
       -0.17292397 0.006004198 0.0076713376 0.123099655
0003f0 c5 6c fb 3d 4a 0a 98 bc 93 75 94 3a b4 88 76 bd
       0.122766055 -0.018559594 0.0011326544 -0.060188964

short_term_context_network.fc2.bias f4 [16]
000000 28 e2 08 bd 73 cf a4 3e 72 41 08 be 82 73 ac 3d
       -0.033418804 0.3218952 -0.13306215 0.08420469
000010 9e 66 31 be 85 be c1 3d e7 2b 0c bb 26 48 06 3e
       -0.17324302 0.09460167 -0.0021388473 0.1311346
000020 59 08 39 be b4 5a b5 be 79 28 8a 3e 57 ff b6 3e
       -0.1806959 -0.35420763 0.26984003 0.35741684
000030 7a 93 4b 3d 3f ad ab 3d 09 ca b1 ba eb 9f 89 3e
       0.04970119 0.083826534 -0.001356424 0.2687982

short_term_context_network.fc3.weight f4 [1, 16]
000000 37 b2 2e 3c 42 3d 12 3f 40 fa 25 be 47 b2 0d 3f
       0.010662607 0.5712472 -0.16208744 0.55350155
000010 90 07 f5 3d 6c fc 0b 3f 00 c7 2c 3c d3 41 c1 bd
       0.11964333 0.5468204 0.010545492 -0.09436383
000020 78 d1 c4 bd fb 16 b7 bf b2 ef 4c 3f c8 9c ea 3e
       -0.096102655 -1.4303888 0.80053246 0.4582274
000030 e2 49 e3 bd be c8 26 3f 12 8a c1 bd 8c 80 10 3f
       -0.110980764 0.6515006 -0.09450163 0.56446147
