Uni_Research/IRL/Final/Extended/Testing_Suite/model_C0_R10000_S10.0.pth (torch, 91250 bytes, 11 tensors)

main_network.lstm.weight_ih_l0 f4 [256, 15]
000000 d0 9f c3 3d d7 e5 eb bd a5 a4 8a 3d 26 9a ae bd
       0.09551966 -0.11518448 0.06769685 -0.08525495
000010 b3 a1 8c 3d 31 00 6f bb cc e7 38 3d 8c 8b 82 3d
       0.06866779 -0.003646862 0.045142934 0.06374273
000020 42 a9 96 bc 9f 01 82 bd b8 bf e0 3b 5f c7 1f bc
       -0.018391255 -0.063479654 0.006858792 -0.009752124
000030 a4 77 9f bd ff d9 59 bd b7 f0 38 bd 6d 77 5d 3d
       -0.077864915 -0.053186413 -0.04515144 0.05406897
000040 88 af cd bd 6a 29 14 bd 67 4c d4 bd 77 1f 2c bd
       -0.100432456 -0.036172308 -0.10366135 -0.042022195
000050 a0 40 29 3d 5c 2d b9 3d aa bd 54 3d 22 63 1e bd
       0.041321397 0.09041855 0.05193869 -0.03866876
000060 93 5b 34 bd 6a fc 80 bb a0 88 82 bd 28 af f7 3d
       -0.044032644 -0.00393634 -0.063737154 0.12093955
000070 94 6a 93 bc 2b 94 00 bd 47 69 2d bd e0 da 01 3d
       -0.017995156 -0.031391304 -0.04233673 0.031702876
000080 c4 62 28 3d 2a 98 da bc c7 b3 6e bd ba fa bb 3d
       0.041109815 -0.026683886 -0.058276918 0.09178682
000090 92 3b bc 3c 00 7e b7 bd ed 90 89 3d 03 79 37 3d
       0.022977624 -0.089595795 0.067170955 0.04479314
0000a0 5f 4e 83 bd 66 6c a7 3c 51 ba bb 3c 2b 67 c2 bd
       -0.064114325 0.02043743 0.022915991 -0.09492334
0000b0 f5 40 14 bd 4d 26 c4 bd 25 d1 ba bd 71 ad 5a bd
       -0.03619476 -0.09577618 -0.091219224 -0.053388063
0000c0 5f 7e 8b 3d 11 c0 f5 bb 2b 5d 28 bd 6a 79 4a bd
       0.06811213 -0.0074997027 -0.041104477 -0.049432196
0000d0 f6 20 82 3b a2 bf 44 bd 3f 65 ed 3d 31 1b d6 bc
       0.0039712144 -0.048034318 0.11591577 -0.026136013
0000e0 02 3a e1 bd 24 3d d3 3d f0 69 db 3c d3 f0 1c bd
       -0.10997392 0.10314396 0.026783913 -0.038315605
0000f0 8d f9 0d bc c2 bc 95 3d b3 8e 91 bd 8a 93 cf bc
       -0.008665455 0.07311393 -0.07107296 -0.025338907
000100 44 d6 85 ba d8 d4 a7 bd 74 23 91 bd ee b2 ec bd
       -0.0010210951 -0.081948936 -0.0708684 -0.11557566
000110 06 64 cd bd 8e 20 ad 3d 42 a3 a2 3d 6e 9e 36 bd
       -0.100288436 0.08453475 0.07941295 -0.044584684
000120 e8 7d 59 3d 87 70 3f 3c ab 82 84 3d 1a 99 49 bc
       0.05309859 0.011684543 0.064702354 -0.012304569
000130 73 95 02 3e 92 76 b5 3c 0f 0d ba 3c 6d 24 7c 3d
       0.12752323 0.022151265 0.022711305 0.061558176
000140 de 41 ec 3d 84 81 e9 3d e9 be 9c bd e0 80 b5 bd
       0.11536001 0.11401656 -0.07653601 -0.088624716
000150 e1 e3 9e bc 6c d7 d5 3d 87 a6 87 bd cc 7e c0 bd
       -0.01939577 0.10441479 -0.066235594 -0.093991846
000160 24 a9 9e 3d 8b 7e ef bd da 70 f8 bd 08 1f 67 bd
       0.07747105 -0.11694058 -0.121309 -0.056426078
000170 e3 05 3a bb a6 e9 ae bd 31 ae 51 3d 73 59 c2 bd
       -0.0028384856 -0.08540659 0.051191512 -0.09489717
000180 95 a1 63 bc a8 86 f8 3c 5a 0b bf bd 3c 19 c6 bd
       -0.013893505 0.030337647 -0.09328337 -0.09672782
000190 44 c4 de bd a4 04 9e bd cb e6 dd bd 35 b1 9a 3d
       -0.108772784 -0.07715729 -0.10835036 0.07553331
0001a0 28 ba 63 3d 74 cd ee bd d4 e6 8b bc bb 99 a4 bd
       0.055597454 -0.11660281 -0.01707784 -0.08037134
0001b0 e5 a0 82 bc 1d e8 8b 3d 2d 80 a6 bd a0 c1 af 3d
       -0.015945861 0.068313815 -0.08129916 0.08581853
0001c0 4e bf 70 bd 88 98 09 3d 7c a6 05 3c d4 40 3a 3d
       -0.058776192 0.03359273 0.008157369 0.04547198
0001d0 fb 3f 49 bb f0 45 2b 3d dc 11 28 3d 39 5c ca bd
       -0.0030708301 0.041814744 0.041032657 -0.09880871
0001e0 89 2d d0 3d e4 1c d9 3d 5c 3b 6f bd 09 99 ae 3d
       0.10164935 0.106012136 -0.05840622 0.08525283
0001f0 ff ec b2 3c 36 a5 a8 bd 23 38 bf bd 5a cb 8c 3b
       0.021841524 -0.082346365 -0.09336879 0.0042967023
000200 64 74 2a bd 25 ac 41 3d e8 78 9a 3d e8 6c a0 bd
       -0.041614905 0.04728331 0.07542592 -0.07833272
000210 ac 5e 97 3d af 86 63 bd 61 9a d5 bc 21 2b fe 3c
       0.07391104 -0.055548366 -0.02607459 0.031026425
000220 59 b2 6a bd 4a dd e6 bd 5f 5c b8 3d f4 01 bc 3b
       -0.05729899 -0.11272676 0.090019934 0.0057375375
000230 74 bb ac 3d f9 ee a8 bd d0 f8 2c 3c ae 39 5c 3d
       0.08434191 -0.082487054 0.010557368 0.053765945
000240 8c 44 af 3c c3 0d de 3d 5a 14 f6 3d 85 51 a9 bd
       0.02139499 0.108424686 0.120156005 -0.08267502
000250 b9 df ff 3d e5 47 9d bc 23 34 58 3b 77 37 40 bd
       0.124938436 -0.019199321 0.003299006 -0.046927895
000260 95 cc d8 3d 24 8e ed bd 5a 4c 87 bc bf d7 3f 3c
       0.10585896 -0.11599377 -0.0165159 0.011709153
000270 da 00 d1 bd 24 ee 66 bc 27 e3 a2 bc 91 26 17 3d
       -0.102052405 -0.014094863 -0.019883705 0.036902014
000280 63 60 ee bd 40 33 74 bd e7 eb 22 bd 24 50 fe 3c
       -0.11639478 -0.05961919 -0.039775755 0.031044073
000290 b8 21 c6 bc 99 da 82 bc ca c9 02 bd 46 bb bc bc
       -0.024186 -0.015973376 -0.031930722 -0.023038518
0002a0 ab fe c2 bd d6 1d c4 3d 5d 63 90 bd da 8a 27 3d
       -0.0952123 0.09576003 -0.07050202 0.040903904
0002b0 3c d5 8c 3c 86 ef cb bc 96 36 83 3d 71 3c e7 bd
       0.017191522 -0.024894487 0.06406896 -0.11290825
0002c0 4d e4 92 bd 32 7c 67 3d 1c b2 c0 bd a5 6f ce bd
       -0.07172451 0.056514926 -0.09408972 -0.10079888
0002d0 ee ce df 3d 37 ed 72 3d 42 be 9d 3d 70 8c 44 3d
       0.109281406 0.059308257 0.077023044 0.047985494
0002e0 9b e5 6f 3d af 17 08 bd 4d 48 9e 3d 33 26 d9 bd
       0.05856858 -0.03322571 0.07728634 -0.10602989
0002f0 f2 8b a5 3d 1e 92 3a 39 93 3d 55 bd 1a 62 9a bd
       0.08083333 0.00017792775 -0.052060675 -0.07538243
000300 8c c0 77 bd 77 1e db 3d 17 97 ac bd 48 01 ab bd
       -0.06048636 0.1069917 -0.084272556 -0.08349854
000310 68 ea af 3c b3 d8 9f bd 83 2f b9 bd f8 2c 7c bd
       0.021474078 -0.07805004 -0.09042265 -0.061566323
000320 db 20 b6 bd ad e4 17 3d e1 58 a2 3d 3a ac f4 bb
       -0.088929854 0.037083317 0.079271086 -0.00746682
000330 47 71 5e 3c 5c 2d 9b bc 56 db 5d 3d 08 82 6c 3d
       0.013576812 -0.018942527 0.054164253 0.057741195
000340 3a d1 da 3c 37 c9 f8 bd e7 04 80 bd 0b 46 bc bd
       0.026711095 -0.12147754 -0.06250935 -0.09193047
000350 24 fa f0 3d ad 94 f4 bd b0 0c f0 3c c2 48 df 3b
       0.117664605 -0.1194242 0.029302925 0.0068140933
000360 8f 8f d3 3d 04 58 01 be e2 78 7b 3d db b5 81 3d
       0.10330116 -0.12631232 0.06139458 0.06333514
000370 7b 79 fe bc ae 6f d1 bd b6 8a 11 bd 5e 03 93 3d
       -0.031063786 -0.10226379 -0.035532676 0.071783766
000380 7d b3 dc bd ef 8b a5 bd a8 16 bb 3d 5a 4d d9 3c
       -0.10776422 -0.08083331 0.09135181 0.026526142
000390 d9 2c f5 bb 53 c0 3f 3d ef 11 a5 bd 5c ed e8 3d
       -0.007482153 0.046814274 -0.08060061 0.11373398
0003a0 30 ec 92 bd 95 31 4e bd 78 ba 96 bd 2b 08 82 bd
       -0.071739554 -0.050340254 -0.07359785 -0.06349214
0003b0 06 51 71 bc 81 41 b1 bd 16 cd d9 3d 1c d8 39 bd
       -0.01472879 -0.08655072 0.1063482 -0.045372114
0003c0 2b 78 bd bc 1a cf d4 bd 4f 9c b0 bd 31 d8 78 ba
       -0.02312859 -0.10391064 -0.086235635 -0.0009492664
0003d0 a6 d5 01 be cd f8 d9 bd 90 db bc bd 6f 56 6d 3d
       -0.12679157 -0.10643158 -0.09221566 0.057943758
0003e0 d3 36 c0 bc 0d bf b5 bd ed 22 ee bd 8d 23 01 3d
       -0.023463642 -0.08874331 -0.11627755 0.031528044
0003f0 5e 7d 28 3c 31 45 13 bd d5 bf b7 3d 9a 72 ef 3c
       0.010283796 -0.035954658 0.08972136 0.029229451

main_network.lstm.weight_hh_l0 f4 [256, 64]
000000 94 56 bb 3c be af 3b bd ed bb 38 bd 0f a4 bc 3d
       0.022868432 -0.045821898 -0.045101095 0.09210979
000010 17 42 e7 3b 73 a6 7f 3d 65 35 d0 bd ef 00 24 3d
       0.007057439 0.062414598 -0.10166434 0.040039953
000020 b5 42 9c 3d 7d 13 85 bd 8d ec ee 3a bf f2 03 bd
       0.07629911 -0.06497858 0.0018228457 -0.032213923
000030 23 c2 9b bb e5 cd ef 3c 10 c2 cc bd 8d 66 af bd
       -0.0047533675 0.029272983 -0.09997952 -0.08564482
000040 1a ae 22 bd e1 36 77 bc 9a 9a b2 3d 32 70 70 3d
       -0.039716817 -0.015088768 0.08720894 0.058700748
000050 12 49 a7 bd 26 d6 f7 3c da 40 8c 3d 10 8c be 3d
       -0.08168234 0.030253481 0.06848307 0.093040586
000060 ce 47 4e bd 20 27 d2 3d 44 49 e6 3d 45 6b 50 bd
       -0.050361447 0.10261369 0.11244443 -0.05088355
000070 75 2b da 3c 8d 79 ac 3d a5 8b 14 3d 15 91 8f 3d
       0.02663205 0.084216215 0.036265988 0.07010094
000080 b5 49 55 bc 95 47 88 bc 81 35 ac bd 0a 6f 7c 3d
       -0.013018061 -0.016635695 -0.084086426 0.061629333
000090 f7 fa cb 3d a4 ee 8f bd e3 ab ed 3c 1e 77 9c bd
       0.09959977 -0.07027939 0.029012626 -0.07639907
0000a0 e1 f8 3e bd 17 4b 80 3d f2 dc af bb 97 0c db bd
       -0.04662407 0.06264322 -0.005366915 -0.10695761
0000b0 8f 13 86 bd 22 91 da bd 6a be b8 3d 19 09 b2 bc
       -0.06546699 -0.10672213 0.090206936 -0.021732854
0000c0 25 30 02 3e db a0 d2 bd a3 65 18 bd 29 73 5e 3d
       0.12713678 -0.10284587 -0.037206303 0.054309044
0000d0 80 21 ab bd 73 94 cd bc c2 0e d1 bd 45 f0 b6 3d
       -0.08355999 -0.0250952 -0.10207893 0.089325465
0000e0 07 7f ae 3d 0a 4e 08 3c a4 83 fd 3d 13 fb a7 bd
       0.08520322 0.008319387 0.12378624 -0.082021855
0000f0 50 41 08 3c 7c cb ec 3d 46 e9 3c 3d c5 da 54 3d
       0.008316353 0.11562249 0.046120904 0.051966447
000100 14 c2 84 bc 4b 45 c8 bd 02 c0 d0 bd dc ed 5d bd
       -0.016205825 -0.097788416 -0.101928726 -0.05418192
000110 5c f0 8a bd 95 c7 1d bd 4b 11 e0 3d 8d f1 d2 3d
       -0.06784126 -0.038520414 0.10940798 0.102999784
000120 d4 cc ae 3d 54 66 b9 bd 52 d8 f2 3d 08 03 98 3d
       0.085351616 -0.09052721 0.11857666 0.07422453
000130 bd f0 e9 bd 3d 63 4c 3d 45 34 fa 3c 3e a5 67 3d
       -0.1142287 0.04989933 0.030542502 0.05655407
000140 f0 81 7e bd b5 b3 63 3d 6b dc b4 bc 22 85 8a 3d
       -0.062135637 0.055591304 -0.02207776 0.06763674
000150 95 1e d3 3c 1c 3c d4 3b 35 3b c7 3c 21 fb ab bd
       0.025771419 0.006476892 0.024320224 -0.083975084
000160 fb a8 03 be 31 53 92 bd 6f c9 0f 3a ec 11 ee bd
       -0.1285743 -0.07144774 0.0005485033 -0.11624512
000170 ec 9c 1b 3d ac 5f 01 be 6f f9 f6 bd d6 01 0c bd
       0.03799145 -0.12634152 -0.120592944 -0.03418144
000180 1f 00 f3 3c a2 37 e1 ba 95 39 b4 bd 93 3e 78 3d
       0.029663144 -0.0017182718 -0.088000454 0.06060655
000190 af e5 b8 3d 78 2b b5 bd ce 18 8b 3d 2b 60 9c 3d
       0.09028184 -0.08846182 0.067918405 0.0763553
0001a0 2b da d6 3c 3d 7f 6a 3d 33 3d de bd 15 38 9b 3d
       0.026227077 0.05725025 -0.108515166 0.07579056
0001b0 a2 5a 55 bc 61 08 c1 bd cc 84 c5 3d 27 19 e5 b9
       -0.013022097 -0.09425426 0.096444696 -0.00043697024
0001c0 93 d9 9a 3c 92 cb e2 bd f8 9c f7 bd e4 36 be bc
       0.018902576 -0.11073984 -0.12090486 -0.023219533
0001d0 cd 97 d1 3d 39 26 b2 bd ee ac bb 3d e4 8d 8f bb
       0.10234032 -0.08698697 0.09163843 -0.0043809284
0001e0 3f 6e 31 bd f4 31 a8 bd 93 33 8f bd 78 14 a8 bd
       -0.04331803 -0.08212653 -0.06992259 -0.08207029
0001f0 a7 03 96 bd ff ef 85 bd f0 6e 07 3d 5b 4f cd bd
       -0.073249154 -0.06539916 0.033064783 -0.100249015
000200 7a c4 66 3d 99 a5 d4 bd 4e c3 c4 bd 78 c0 64 3c
       0.05633972 -0.10383148 -0.09607564 0.013961904
000210 6f 6e 87 3d d5 dd 50 3d 36 02 15 bc ae 72 c3 3d
       0.066128604 0.050992806 -0.009094765 0.09543358
000220 bd d0 79 bd cc fb 00 3d 53 70 53 bd 48 cf 71 bd
       -0.060990084 0.031490132 -0.051620793 -0.05903557
000230 b0 15 9e bd 45 b8 ab 3d 58 8f 9b bd 55 fc 72 bd
       -0.0771898 0.08384756 -0.075957 -0.059322674
000240 d4 1d b7 bd 35 a4 cb 3d b2 0c 6d ba 9c 29 e6 3d
       -0.08941236 0.099434294 -0.0009042724 0.11238405
000250 c9 82 ae bd 14 a0 a6 bc 5e 35 fa bd 7d d7 2a 3d
       -0.08521039 -0.020340003 -0.1221721 0.041709412
000260 88 98 dc bd 2a 47 34 3d 8f 78 db bd 89 3b 2a 3d
       -0.107712805 0.04401318 -0.10716354 0.041560683
000270 c1 c1 e3 bd 3b c2 18 3d 80 d4 a4 bd 7a 3a b0 bd
       -0.1112094 0.037294608 -0.08048344 -0.086049035
000280 d8 63 ec bd 32 8b e5 bd 83 a4 8e 3d ef b5 9d 3d
       -0.11542481 -0.1120819 0.06964972 0.07700717
000290 2e 7e d8 bd a0 f1 96 bd b2 c2 b4 3d 45 1a a8 3d
       -0.10570942 -0.07370305 0.08826198 0.082081355
0002a0 63 32 8b bc c8 28 94 3d a3 a9 6c bd c3 db 9c 3c
       -0.0169918 0.07234341 -0.057778966 0.01914776
0002b0 17 42 81 3d 0d a5 c5 3d 4e fa 99 3c 3b c1 49 bc
       0.06311434 0.096506216 0.018796112 -0.012314136
0002c0 4d c3 b4 bc 44 53 bd bd 5e 5b 0b 3d b9 36 ac 3d
       -0.022065783 -0.09244397 0.03402268 0.08408875
0002d0 cb 14 1d 3d 7c f9 8a bd ad 77 c5 bd 7f 9d cb bd
       0.038349908 -0.067858666 -0.09641967 -0.09942149
0002e0 6d f6 8f bc 5b 03 d1 bd 1a 45 e1 3d 8a 2d f8 bc
       -0.01757356 -0.10205718 0.10999508 -0.030295152
0002f0 f4 20 10 bd d5 f5 af 3d 1d 12 17 bd b1 01 44 bd
       -0.035187677 0.085918106 -0.03688251 -0.047853176
000300 26 e3 44 3c 96 2d a3 3d 65 bb 51 bd 40 9b 01 be
       0.012017047 0.07967679 -0.051204104 -0.1265688
000310 ee 00 b1 3d 32 86 69 3d 4f 37 a5 3d b4 f6 fb 3d
       0.086427554 0.057012744 0.0806719 0.12302914
000320 6a 36 9e bc 2a a8 9d b8 84 aa 32 3d 09 eb f6 3d
       -0.019313056 -7.5176664e-05 0.043619648 0.12056548
000330 be 4f 99 3d 7b 99 a3 3d ce a0 32 bd d7 17 fc bc
       0.07485913 0.079882585 -0.043610387 -0.030773086
000340 72 76 cf bc 7d 58 8c bd cb b6 c4 3d 17 cb fc 3c
       -0.025325034 -0.06852815 0.096051775 0.03085856
000350 d8 34 1b bd 2a 00 f3 3b 74 1d 12 bd 8e 39 04 bd
       -0.037892193 0.007415791 -0.03567262 -0.03228145
000360 d9 4a 29 bd 3e 2f ef 3d 96 73 9b bd ba e9 fa 3d
       -0.041331146 0.116789326 -0.07590406 0.12251611
000370 59 67 60 3d fc 9c d7 bc d1 46 71 3d 85 e1 c7 3c
       0.05478606 -0.026319973 0.058905426 0.024399528
000380 51 39 ea 3c b4 d4 fd 3a 0b cc 2a 3d c6 29 27 3d
       0.028591784 0.0019365759 0.041698497 0.040811323
000390 08 3e 97 3d 06 d5 6a 3d c4 81 34 bd 47 55 d8 bd
       0.073848784 0.05733206 -0.044069067 -0.1056314
0003a0 d1 7e df bc 25 99 57 bd a3 5e a2 bd 17 46 88 bd
       -0.02728215 -0.052636284 -0.07928207 -0.066539936
0003b0 aa 78 2d 3d d4 2d 3f 3d 14 b1 fa 3c a7 e4 88 3d
       0.042351402 0.046674564 0.030602016 0.06684237
0003c0 b3 0a e2 bc d8 4f a2 3d ed da 70 3d 06 69 62 3d
       -0.027592992 0.07925385 0.058802534 0.05527594
0003d0 d9 4f 4c 3b e1 e3 c0 bd 41 18 9c bd 16 4f 26 bd
       0.0031175523 -0.094184645 -0.076218136 -0.040602766
0003e0 c5 08 c0 3c 43 1e 76 3d f7 a4 c2 bc 4f e7 bd 3d
       0.023441682 0.060087454 -0.023760302 0.09272634
0003f0 04 41 56 bc f1 04 a9 bd 1e 7d 56 bd ca ea 89 bd
       -0.013077024 -0.082528956 -0.052365415 -0.067342356

main_network.lstm.bias_ih_l0 f4 [256]
000000 70 63 b3 3d bc 4c 29 3d cf d0 c3 bd b1 24 21 bd
       0.087592006 0.041332945 -0.095613115 -0.039341632
000010 3d 75 96 bd ff 13 9e bd ae cb 45 bc 61 37 79 3d
       -0.0734658 -0.07718658 -0.012072487 0.06084383
000020 e0 d4 d8 3d db 52 28 bb 81 70 cc bd 75 40 b7 bd
       0.10587478 -0.0025684151 -0.09982396 -0.08947841
000030 80 8f c3 3d c8 18 ea 3d 4b fa ab bc ee 7c 26 bc
       0.09548855 0.11430508 -0.020993372 -0.0101616215
000040 af 43 b4 bc 60 9a c4 3d 41 7d 2e 3d 35 fb 67 3c
       -0.02200493 0.09599757 0.04259992 0.0141590135
000050 78 44 f9 bd 69 50 59 3d e0 31 e5 3d ed 38 7b bd
       -0.121712625 0.0530552 0.111911535 -0.061333586
000060 5c 8c eb bd e3 d6 43 3c 2d 7a be ba 98 a7 15 3b
       -0.11501381 0.011953088 -0.0014532261 0.002283549
000070 40 21 dd bd d7 2e 2d 3d 8d 7c 00 3d b5 ae b7 3c
       -0.107973576 0.042280998 0.03136878 0.022422174
000080 ec af dd bd e8 50 7e bd 2c 30 f1 bd 36 e1 13 3c
       -0.1082457 -0.062088877 -0.11776766 0.009025862
000090 be 2f a4 39 dc c8 d5 3d d5 c4 0e 3d 3f 5c d9 bd
       0.00031316088 0.104387015 0.034855682 -0.10613298
0000a0 f8 dc 95 bd c5 14 a8 bd a9 74 92 bd 3f 77 ed 3d
       -0.07317537 -0.082070865 -0.071511574 0.1159501
0000b0 68 55 3d bd 0e 13 f4 bc ec 8e 7e 3c 9c 77 9d bd
       -0.046224028 -0.029794242 0.015537005 -0.07688829
0000c0 b7 56 fc bd 39 67 d7 3c 8b 14 5a 3d 56 39 22 3d
       -0.12321227 0.026294338 0.053242248 0.03960546
0000d0 93 de cc bd ed 2f a8 bc 12 e8 bc bd 0d 85 b5 3b
       -0.1000339 -0.020530665 -0.092239514 0.0055395425
0000e0 da 46 93 bd c0 29 c3 3d e0 9f 8b 3d c4 a7 a4 bd
       -0.07191248 0.095294476 0.06817603 -0.08039811
0000f0 73 41 f4 bd 1a 83 de bb 32 ae b2 3d df 1e 0f 3d
       -0.11926546 -0.006790531 0.08724631 0.03494155
000100 17 ef 72 3d 8e fe d4 bb 17 c5 ca 3d a6 f0 1d 3d
       0.059310045 -0.006500072 0.09900873 0.03855958
000110 75 91 db bd 20 4b d7 bd d3 f2 bf bd 23 25 c0 3d
       -0.10721103 -0.10512376 -0.09372487 0.09382083
000120 2a 25 f8 bd 49 c2 ab 3c cd ad 99 bd 87 f6 3d bc
       -0.121164635 0.020966666 -0.07503853 -0.011594421
000130 d8 ac 7d bd 4f 46 9b 3d 74 1f ff 3b eb 45 be bc
       -0.061932415 0.0758177 0.007785732 -0.023226699
000140 8a 7d 9f bd e0 e3 32 bd 9a 35 cd bd 5d 47 9c 3d
       -0.077876166 -0.04367435 -0.10019989 0.07630799
000150 f8 e0 9d bd ce 15 ac 3a 5e bb 7c bc 6b f5 8f 3d
       -0.07708925 0.0013129057 -0.015425531 0.07029232
000160 85 ff 3e bd e3 07 12 3d fd bb 2b 3c d9 86 10 3c
       -0.0466304 0.035652053 0.010481832 0.008821213
000170 75 4a d7 3c 46 56 ee 3d 6e 2a 41 3d c2 4b 8f 3d
       0.026280621 0.11637549 0.047159605 0.069968715
000180 e9 0f a0 bc 55 d4 3d bc 63 ce 39 bd fe 05 ba bd
       -0.019538837 -0.011586268 -0.04536284 -0.09083174
000190 69 a9 b9 bd 58 4a 87 3d 65 91 c2 bc ce 4c 5c 3c
       -0.090655155 0.06605977 -0.02375097 0.013446046
0001a0 5a b0 cc 3d 6d b3 c0 3c b4 b9 8d 3d 6f b4 f9 3c
       0.09994574 0.023523057 0.06920186 0.030481545
0001b0 ee d2 18 3d 9b d3 69 bd d9 7a cc bd e8 a1 c4 3c
       0.037310533 -0.05708657 -0.09984369 0.024002984
0001c0 54 55 93 bd 65 28 8b bb 41 e0 73 3d 92 f1 bb bd
       -0.071940094 -0.0042467588 0.059540037 -0.09176935
0001d0 c2 02 11 3d 0a e9 e1 3d 3d bf e4 bd b0 4e ad 3d
       0.03540302 0.11030777 -0.11169288 0.08462274
0001e0 fa d3 8a 3d b6 0b 3b 3d 8b 22 78 3d 17 84 ab 3c
       0.067787126 0.045665465 0.060579818 0.020937009
0001f0 80 f0 a9 3c b9 67 ec 3d 29 46 89 bd 44 e3 0d bc
       0.020744562 0.11543221 -0.06702835 -0.008660141
000200 90 9f 44 3c 1a cd 39 bd 3a 04 01 3d f0 52 a5 bd
       0.012000933 -0.045361616 0.03149817 -0.0807246
000210 6f 15 38 bd a2 04 c2 3d 36 4c 59 bd de e0 f8 bc
       -0.044942316 0.0947354 -0.053051196 -0.030380663
000220 7d ba a6 3d 2f d8 de 3d 7d b6 bb bd 44 34 29 3d
       0.081410386 0.108810775 -0.09165666 0.04130961
000230 2b 34 b7 3d 43 67 bc bd fa 5b 01 bc ed 6e 04 be
       0.08945497 -0.09199383 -0.007895464 -0.1293294
000240 bc fb e8 3d 0b 0f c1 bd 76 4d eb bd b5 99 8c bd
       0.113761395 -0.09426697 -0.11489384 -0.06865255
000250 fc 73 73 bd 98 32 fb 3c d2 ef c3 3d 12 e9 d2 3d
       -0.059436783 0.030663773 0.095672265 0.10298361
000260 5b 86 e2 3d 2d 2a cb 3d f8 f5 8e 3d e8 23 8e 3d
       0.110607825 0.09920154 0.069805086 0.06940442
000270 00 7d 99 bc fd a0 ce bd 9f 6a 42 3d b9 a0 0b bd
       -0.018736362 -0.100893 0.047464963 -0.034088824
000280 ed 38 ca bc 29 0d 6c bd 19 82 7f bb 27 e6 be bd
       -0.024685347 -0.057629738 -0.0038987456 -0.09321242
000290 76 12 52 3b eb ed d9 3d c0 8c b5 3d c5 61 78 3d
       0.003205446 0.106410824 0.088647366 0.060640115
0002a0 f7 a4 4a bd 93 17 83 bd 46 27 8e bd 91 db 99 bd
       -0.04947373 -0.06400981 -0.069410846 -0.07512582
0002b0 8b 37 9c 3d 4e bf 00 be 7c 44 76 3d 95 8b 9d bd
       0.076277815 -0.12572977 0.060123906 -0.07692639
0002c0 32 62 af bd f3 ca 9b 3d 37 84 60 3d be f5 40 3b
       -0.08563651 0.07607069 0.05481359 0.0029443349
0002d0 56 bc 0c 3c 78 fd 76 bd b3 2c 2f 3c 87 12 f2 3d
       0.008589825 -0.06030032 0.0106918095 0.1181994
0002e0 f9 e9 d9 bc a4 71 e4 3d 82 4f 3d bd ea be 06 3c
       -0.026600825 0.11154488 -0.046218403 0.008224228
0002f0 8c 0d 40 bc 07 b7 53 3c 4d ba d6 3d 97 03 74 bc
       -0.01172198 0.012922055 0.10484753 -0.014893434
000300 69 ab d6 3d 0d 72 eb bc 1f f0 b9 bc 94 1c c8 bd
       0.10481913 -0.028740907 -0.022697506 -0.09771076
000310 c5 2b 8e bd 78 96 b0 bc 42 63 fc bd d6 2a e5 bd
       -0.06941942 -0.021556124 -0.123236194 -0.11189811
000320 ae 1c 6c bd 33 4c ec bb 77 65 9c bc fd bd dc 3d
       -0.05764454 -0.007211232 -0.019091351 0.10778425
000330 65 79 4b 3d ad 2e b4 bd c8 42 f3 bd 1b df 79 3d
       0.049676318 -0.08797965 -0.11877972 0.061003786
000340 f5 c0 0c 3d 8b d9 00 3e 66 fa 87 3d 18 d0 05 bd
       0.034363706 0.12582986 0.066395566 -0.032669157
000350 dd 80 59 3d 7e d8 a1 3d 58 ec a0 bd b4 96 88 3d
       0.05310141 0.07902621 -0.07857579 0.06669369
000360 ff f8 c8 3d 41 92 6d 3d 32 f4 e5 3c f2 db 2c 3b
       0.09813117 0.058000807 0.028070543 0.0026376215
000370 04 50 8b bd f1 22 bf bd e0 e4 ee bd 4d 0c cc bd
       -0.06802371 -0.093328364 -0.11664748 -0.09963284
000380 c2 fc d6 bd 3c 61 ec bc f3 26 17 bc d3 db 10 3d
       -0.104974285 -0.028854959 -0.009225595 0.03536589
000390 e9 01 18 bd 90 0c f2 bc 9d f2 74 bc 1e 5c e6 bd
       -0.037111197 -0.029547006 -0.014950422 -0.11248039
0003a0 03 2c 41 3d 54 76 37 3d 2d a9 40 bd 00 05 39 3d
       0.047161113 0.04479058 -0.04703634 0.045170784
0003b0 e7 6a 11 bd 39 a8 f7 3d 39 03 3d bd b0 b3 03 3d
       -0.03550234 0.12092633 -0.04614565 0.032153785
0003c0 c8 90 f5 3a 31 dd 57 3d a7 64 43 3c 3c 71 e0 3d
       0.0018735165 0.05270118 0.011925853 0.10959098
0003d0 c5 20 3c bd 73 d1 cb bd 97 e9 bd bd 67 96 de bd
       -0.04592969 -0.09952059 -0.09273069 -0.10868531
0003e0 1e de cd bd 59 74 1d bd 78 31 91 bd a0 94 9e bd
       -0.10052131 -0.038441036 -0.070895135 -0.07743192
0003f0 04 e1 d0 3d 34 6c cb bd a0 05 07 be d0 07 f2 3d
       0.10199168 -0.099327475 -0.1318574 0.11817896

main_network.lstm.bias_hh_l0 f4 [256]
000000 5a b8 a7 bd 21 02 d4 3b 73 f3 b8 3d bf b7 84 bd
       -0.08189459 0.0064699803 0.09030809 -0.06480359
000010 19 bd aa bd 9d 48 a1 bd 66 40 e6 3d 30 dd 3c bc
       -0.08336849 -0.07875178 0.11242752 -0.011527345
000020 af 2c e7 bc aa 8b 46 bd 59 cf ad bd cd a9 48 3d
       -0.028219549 -0.048473038 -0.08486814 0.04899006
000030 04 fc 99 3d e9 05 56 3d ad e7 bc bd 9f d6 ca bd
       0.07518771 0.05225173 -0.09223876 -0.09904217
000040 5c 30 a2 bd 74 b0 82 bd 9d 1d 29 3d cb 69 40 bc
       -0.0791938 -0.06381312 0.041288007 -0.011743973
000050 cc 08 b9 3d 2d de 58 3d 2a f8 82 bc 9e 17 a8 3c
       0.09034881 0.05294626 -0.015987474 0.020519074
000060 0a 74 84 3d 3e 9e 9d 3d 3e a7 2a bd 4a b4 f1 3c
       0.06467445 0.07696198 -0.0416634 0.029504914
000070 bc c9 bd 3d 2a ce 67 bd 90 46 8f bd b9 ff 40 bd
       0.092669934 -0.056593098 -0.069958806 -0.047118876
000080 58 a6 b5 ba c9 76 3e 3c 1e b4 fe bc 6a be d3 3d
       -0.0013858778 0.011625 -0.031091746 0.10339053
000090 65 79 81 bd 48 4d b1 3d 8f 0b 14 bd 97 bf 7d bc
       -0.06321982 0.08657318 -0.036143836 -0.015487573
0000a0 02 45 e0 3d 2f db eb bd aa de 85 bd 91 99 ce bd
       0.10950662 -0.11516415 -0.065366104 -0.10087884
0000b0 0c 9c 1e bd 86 c6 e8 bd 06 ee d1 bd 44 b4 bf bd
       -0.038723037 -0.1136599 -0.102504775 -0.09360555
0000c0 87 2d ba bd 5f e6 fd bb e3 8b 64 3d e4 d8 d5 bd
       -0.09090715 -0.0077484096 0.05579747 -0.10441759
0000d0 e6 21 6b 3b b3 6e c9 3c 96 9b b5 bd 02 e0 45 bd
       0.003587836 0.024588918 -0.08867566 -0.048309334
0000e0 f9 ea 57 3d 82 ca 76 3d d1 23 95 3b 96 15 a7 bc
       0.05271432 0.06025172 0.004551389 -0.020396035
0000f0 a9 42 5b bd 4a d9 02 3d 8e 29 c3 3d a4 c0 f5 3d
       -0.05353037 0.031945504 0.0952941 0.11999634
000100 10 23 6a 3d 65 30 9d bd d9 28 c6 3d 5c 04 f9 3d
       0.057162344 -0.07675246 0.0967576 0.121590346
000110 c9 d4 3d bd f3 81 f9 3b 26 d2 3e 3d 86 b9 5f bd
       -0.046345506 0.007614368 0.046587132 -0.05462029
000120 6e 87 e1 bd df d1 d2 3d e7 0c 81 bc a3 ad f8 bd
       -0.11012159 0.10293936 -0.015753223 -0.121424936
000130 a2 c3 07 bd a5 56 a0 3d 88 f2 db bd 32 2d 96 3d
       -0.033145554 0.07829026 -0.107396185 0.07332839
000140 64 22 3a bb fc c8 6c 3d 50 00 3c bd db d5 f9 3c
       -0.0028401846 0.05780886 -0.045898736 0.030497482
000150 66 3f 9b bd 37 ea 7c 3d 80 27 08 3c ad b3 ba 3d
       -0.07580452 0.061746802 0.008310199 0.09116302
000160 ad 17 b1 3d 62 75 80 3b eb 4b da 3d 84 e4 a1 3c
       0.08647094 0.003920243 0.106590115 0.019762285
000170 bb 10 b9 3d 70 3d 84 bd ad 79 59 3c d7 29 4a bd
       0.09036394 -0.06457031 0.013273639 -0.049356308
000180 b2 18 7e 3d c6 6e 88 bd b4 38 d5 3c e6 bf 4d 3d
       0.06203527 -0.06661753 0.026028015 0.050231837
000190 49 5c d3 bd 2c 80 cc bd 85 6e d4 bc 4c b1 1e 3d
       -0.10320336 -0.09985384 -0.025931606 0.038743302
0001a0 10 13 f0 bd ea 3c 56 bd 76 d8 ac 3c fe e6 d7 3d
       -0.11722386 -0.052304186 0.02109931 0.10542105
0001b0 39 34 96 3c 4d c0 7d bc 12 af 14 bd 74 39 32 3d
       0.018335449 -0.015487743 -0.036299773 0.043511823
0001c0 96 e3 dd 3d ed bd 44 bd 65 5d c2 3d b7 70 0e 3d
       0.10834424 -0.04803269 0.0949047 0.034775462
0001d0 f5 4f f2 bd 9e 38 39 bd f4 bf db 3b fc 50 b3 bd
       -0.11831657 -0.04522001 0.006706232 -0.08755681
0001e0 1a 64 8b 3b dd 6a 7d bc 5c 82 d3 3d ed 31 e1 3d
       0.0042538764 -0.015467373 0.103275985 0.10995851
0001f0 a4 c0 c0 bd 13 ad cb 3d 6a 2a 8e bc 58 6b c3 bd
       -0.09411743 0.09945121 -0.017354209 -0.095419586
000200 2a 58 bb bd bb 91 dd bc ce 6e 6c bd 44 ec d0 3c
       -0.09147675 -0.027047029 -0.05772286 0.025503285
000210 79 d4 07 3d 8f e4 0f 3d 11 17 d9 3d a9 bb 88 3d
       0.033161614 0.03513008 0.10600103 0.06676418
000220 85 44 ae 3d 5b 5c a7 3d 81 f3 68 3d 71 d9 ad bd
       0.08509163 0.08171912 0.05687285 -0.08488739
000230 b1 24 dd 3d f1 30 e2 bd 23 6b c6 bd 6e 8a 95 3d
       0.10798014 -0.11044491 -0.096884035 0.07301794
000240 96 6b 86 bd d7 38 86 3d b2 8a 44 bc 19 5e 0c bc
       -0.06563489 0.0655381 -0.011995958 -0.0085673565
000250 12 f0 ce 3d 3f 82 0e bb da 64 ce bd cc 9c f8 3d
       0.101043835 -0.0021745113 -0.1007783 0.12139282
000260 39 f8 70 bd 11 82 c6 bd d2 f3 c5 bd 6f 74 6a bd
       -0.058830474 -0.09692777 -0.09665646 -0.057239946
000270 96 5d e5 3d ef cd e1 3d ea 2b b9 bd b9 78 38 bd
       0.11199491 0.11025607 -0.09041579 -0.045037005
000280 52 4e f0 bb fb 3c b5 bd 8f e1 99 bd 72 34 ff 3d
       -0.0073335553 -0.08849522 -0.07513725 0.12461175
000290 99 87 f3 3d 02 c9 71 3d fe 1f ca bd 50 0d 2c bd
       0.118910976 0.059029587 -0.09869383 -0.042004883
0002a0 6b 16 66 3a 5f 13 00 3e 6e 22 ca bd 53 d5 df 3c
       0.0008777144 0.1250739 -0.09869848 0.0273234
0002b0 55 c4 e2 3d e9 ad a2 bd b6 2f b9 bd 28 1c 05 bd
       0.110726036 -0.07943327 -0.09042303 -0.032497555
0002c0 dc 37 1d 3c e3 d2 c3 bd 1d 69 e2 bd 4c c8 23 3d
       0.009595837 -0.09561708 -0.11055205 0.03998594
0002d0 b4 d3 cd 3c 71 d5 61 bd 27 8c c7 bd c2 42 60 3c
       0.025125362 -0.055135194 -0.09743529 0.013687791
0002e0 6f d7 8d 3c 09 bd 0e bd d2 30 31 bd 6e d3 22 3d
       0.01731464 -0.034848247 -0.04325945 0.039752416
0002f0 30 da 9f 3d e7 af c1 3d 81 e1 8f bd 34 55 83 bc
       0.07805288 0.09457379 -0.07025433 -0.016031839
000300 85 c0 cf 3d c3 33 ab bd 21 10 8a 3c ee 08 d8 bd
       0.10144142 -0.08359482 0.016853394 -0.10548578
000310 51 5b ed bd ae eb c8 bd 3e 6f d6 bd 56 cf 53 bd
       -0.11589683 -0.09810577 -0.104704365 -0.051711403
000320 72 5f 20 3d 9e e1 32 3d 89 85 7a 3d ea be 56 3d
       0.039153524 0.043672197 0.061162505 0.052428164
000330 86 15 b4 bc bf 43 f3 bd 40 e2 eb 3d fa f7 09 3d
       -0.02198292 -0.11878156 0.11517763 0.033683755
000340 6a 64 a6 3d a1 69 fd 3d c0 f1 1f bc ca 52 d6 bd
       0.08124621 0.12373663 -0.009762228 -0.104650095
000350 9c 22 b6 bd 18 ab e0 bd 33 c6 0d 3b e2 b3 38 bd
       -0.0889332 -0.109701335 0.0021633029 -0.045093425
000360 ab 64 15 bd bd b3 d3 3c 92 b1 81 3d f3 c1 92 3d
       -0.036472958 0.025842542 0.06332697 0.07165899
000370 11 d9 fb 3b 19 26 54 3d 7b c7 53 3d 6f d6 d7 bd
       0.0076857884 0.051794145 0.05170391 -0.10538947
000380 fa 9b ca 3d f0 49 f4 bb 0b c6 eb bd ca 85 87 3d
       0.098930314 -0.007455103 -0.11512383 0.06617315
000390 5d 79 ff bd 16 dc ef 3c a8 5c 97 3c 02 17 6e 3b
       -0.1247432 0.02927975 0.0184768 0.0036329632
0003a0 43 15 d7 bd 76 5d 92 3c f1 49 f6 bd 64 4f b0 3d
       -0.10502102 0.017866831 -0.12025822 0.086088926
0003b0 ea da d0 3d f3 09 e2 3d e6 f0 42 bc 39 82 49 3b
       0.101980045 0.11037054 -0.011898255 0.0030747785
0003c0 15 4d d8 3c 84 06 97 bd 17 30 c8 bd 78 da e0 3d
       0.026403943 -0.0737429 -0.097747974 0.109791696
0003d0 b4 e6 ed 3c 5b 72 97 bd 3f 66 63 bd 87 f5 88 3d
       0.029040672 -0.073948584 -0.05551743 0.066874556
0003e0 ae 5f 0c bd f3 31 b9 3b c0 13 e7 3d b7 3e 73 bd
       -0.034270935 0.0056517064 0.11283064 -0.05938598
0003f0 32 a5 9b 3d 16 3c 03 3d 44 65 16 bd 6c d3 f9 bd
       0.07599868 0.032039724 -0.03671767 -0.12198529

main_network.fc.weight f4 [3, 64]
000000 03 b3 57 3d 2d 28 a7 3d 5b ef 1c bd 97 31 9e 3b
       0.052660953 0.0816196 -0.038314205 0.004827689
000010 b3 86 ff bd 46 59 8c bd f8 f1 d7 3d aa b6 ff 3d
       -0.12476864 -0.06852965 0.10544199 0.12486012
000020 39 4e d6 bd c6 d3 f1 bd 53 51 80 bd 51 65 3f bd
       -0.104641385 -0.11807971 -0.06265511 -0.046727482
000030 d0 c3 5a bd a5 af 51 3d 15 7a ca bd a0 65 3e 3b
       -0.053409398 0.0511929 -0.098865665 0.0029052272
000040 dc 1a e1 3d a7 3f 8f 3d 80 5f 19 bd 58 0e 11 3d
       0.10991451 0.069945626 -0.03744459 0.03541407
000050 ef f3 a9 3d bc 54 04 3e 3e b9 ea bc 1d f5 88 3d
       0.0829848 0.12922949 -0.028652783 0.06687377
000060 9b 02 c4 bc da b3 50 bd 81 76 b6 3d c4 78 22 bd
       -0.023927024 -0.05095277 0.089093216 -0.039665952
000070 d6 25 cd 3d c6 2a d9 3b 02 75 c2 3c ca cb bb bd
       0.10016982 0.0066274134 0.023737434 -0.09169729
000080 c9 8e 5f bc 25 90 e4 bd 47 77 f5 bd 0c c4 78 bd
       -0.0136448825 -0.11160306 -0.11985641 -0.06073384
000090 9e 9c c4 3b c0 b1 e9 3d 86 26 88 3d 08 50 a7 3d
       0.0060001155 0.11410856 0.06647973 0.081695616
0000a0 05 65 bb bd af 9f 45 bb 89 13 d9 bd c8 bb db bd
       -0.09150127 -0.0030154993 -0.10599429 -0.10729176
0000b0 6b 1d cf 3d ff 8e 40 3d 10 99 18 bd f2 2b 33 3b
       0.10113033 0.04701137 -0.037255347 0.0027339426
0000c0 52 79 31 3d 06 45 29 3d 5b 24 26 bd 01 19 c4 3d
       0.04332859 0.04132559 -0.040562015 0.095750816
0000d0 d6 96 16 3d 6e 1a f3 3d 5f 84 62 3d 6c 3c e0 bd
       0.036764942 0.118702754 0.05530202 -0.109490246
0000e0 4d bb 87 bc 3c 56 7a bd 88 2c 58 bc c6 1c b6 3d
       -0.016568804 -0.061117396 -0.013194211 0.08892207
0000f0 59 95 e4 bc 88 6f 5e bc ea 2a 4b bd 20 0b 34 bd
       -0.027903246 -0.013576396 -0.049601473 -0.043955922
000100 a4 84 81 bc 2e 03 2d 3d 8e 26 a0 bd c4 46 47 3d
       -0.015810318 0.04223936 -0.07819854 0.04865147
000110 7d 86 3e 3d fc 2c d4 3d bc 1e cb bd 8d 55 e4 bd
       0.046514977 0.103601426 -0.099179715 -0.1114913
000120 cd 23 d6 bd 44 22 ba bc ef f2 db 3d 27 bb f8 3d
       -0.10456047 -0.022721417 0.10739695 0.121450715
000130 02 c7 ea 3d 0f e8 87 bd 4c a7 fe 3d 55 6e 0e 3d
       0.11463739 -0.066360585 0.12434253 0.03477319
000140 c7 e3 11 3d 39 74 5d 3d 6f 44 88 3b 3d c1 f8 3b
       0.035617616 0.054065917 0.0041585485 0.007591395
000150 b7 a6 80 bd a1 27 68 3d e0 42 d6 bd 36 17 dd 3d
       -0.06281798 0.056678418 -0.10461974 0.10795443
000160 45 80 a3 3d bf da 7e bd 0d 24 99 bd ed 59 f3 3d
       0.0798345 -0.06222033 -0.07477579 0.11882386
000170 d4 a0 2a bc db 1a 06 bd 9e 86 93 3d 42 48 bb bd
       -0.010414321 -0.032740455 0.072034106 -0.091446415
000180 2d 82 c8 bd 05 d0 cd 3d 2c 54 cf 3d df 8f bf 3d
       -0.09790454 0.10049442 0.101234764 0.09353613
000190 cc 79 8a 3a 96 70 89 bd eb 84 69 3c 3e e8 28 3d
       0.0010564863 -0.06710927 0.0142528815 0.04123711
0001a0 f5 80 f1 3c 93 f5 ae bd 70 47 cc 3d e1 56 e1 3d
       0.029480437 -0.08542933 0.09974563 0.11002899
0001b0 a9 26 5e 3c 8d dc 15 bd 90 85 ab bd c8 6d fa 3d
       0.013559022 -0.036587287 -0.083750844 0.1222797
0001c0 a5 52 33 bd 32 ca d3 bd 8f 09 fe bd a2 b3 a9 3d
       -0.043779988 -0.103413 -0.12404167 0.08286215
0001d0 44 d6 f2 3d 9a ce d3 3c a2 04 d7 bc 96 b0 b5 bd
       0.11857274 0.025855351 -0.026247326 -0.08871572
0001e0 08 13 c0 3d 5d 45 27 3c 7e e3 ce 3d eb 82 74 3d
       0.0937863 0.010209409 0.101019844 0.059695166
0001f0 f5 9f cb 3d b3 13 e7 3d 56 63 c9 3d 6a 92 ad 3d
       0.09942619 0.11283054 0.098334 0.08475192
000200 57 5f cd bd 0a 9b 9c 3b 83 9f 98 bd c1 da 89 bc
       -0.1002795 0.0047792243 -0.074522994 -0.016827943
000210 75 d5 ab bc b0 57 0b 3d ff 35 3b bd 1d bd 1c 3b
       -0.020975808 0.034019172 -0.04570579 0.0023916431
000220 b1 2c 38 3d 94 bc ea bd 86 3c 7f bb 9a e3 4c 3d
       0.044964496 -0.1146175 -0.0038945987 0.050021745
000230 14 79 05 bd 4f e2 5d 39 89 25 dc bd 17 d2 c9 bd
       -0.032586172 0.00021160509 -0.10749347 -0.098545246
000240 37 bf 8c 3d f0 e4 ab 3c 10 b7 83 bd 86 95 a3 3d
       0.06872409 0.02098319 -0.06431401 0.07987504
000250 7f f1 de 3d b4 7e 47 bd 10 68 b2 bb 3c b4 01 3e
       0.108859055 -0.048704818 -0.005444534 0.1266641
000260 e0 fa bd bd ef 31 88 bd 9c f2 9e bd 66 3b be 3d
       -0.09276366 -0.06650149 -0.07761118 0.09288673
000270 ea d1 99 3d f0 52 ba bd 01 bc d3 bc 40 4f cc bc
       0.07510741 -0.0909785 -0.025846483 -0.024940133
000280 d8 bd d0 3d d1 63 8d bd b3 ea 91 3d 6d ff e4 bd
       0.1019246 -0.06903804 0.071248434 -0.11181531
000290 a1 f0 c4 3d 40 d9 3b 3d fe d0 f9 bd 92 13 68 bd
       0.09616209 0.045861483 -0.12198065 -0.05665929
0002a0 df fc e6 bd 2a 73 c8 3d b2 f1 2c 3c 21 27 79 3a
       -0.112787 0.09787591 0.0105556715 0.0009504427
0002b0 ef f4 7a 3d 57 33 14 3d dc bb f4 bd e5 79 aa bd
       0.061268743 0.036181774 -0.11949894 -0.08324031
0002c0 f0 5e bc 3d b2 19 e3 3d c8 2e e8 3d 3a a9 41 3d
       0.091977954 0.11088885 0.11337048 0.047280528
0002d0 1e 4a cd 3d f1 60 aa bb 5d 85 82 bd c9 b5 24 bd
       0.10023902 -0.0051995446 -0.06373093 -0.040212426
0002e0 a4 2d cd bc 58 6f b8 3c 33 e7 bd 3d eb 3b e8 bd
       -0.025046177 0.02251403 0.092726134 -0.113395534
0002f0 37 3e 85 bd 5f 23 2c 3d 6e 84 23 3c 7b 28 55 bd
       -0.06506007 0.04202592 0.009980304 -0.05204056

main_network.fc.bias f4 [3]
000000 d4 6b a8 3d 84 59 ae bc 9e a9 bd 3c
       0.082236916 -0.021282919 0.023152169

short_term_context_network.fc1.weight f4 [32, 7]
000000 64 5c 81 3e 8b aa 23 be 10 e1 8b be 39 63 02 3e
       0.252658 -0.15983026 -0.27320147 0.12733163
000010 3b 96 8c be 93 ec b1 3e f0 a8 06 3e 4f 0a 56 3e
       -0.27458367 0.34750804 0.13150382 0.2090237
000020 54 7a 86 be 29 29 9e 3d 30 74 2d be 5b 71 86 be
       -0.26265204 0.077226944 -0.16938853 -0.26258358
000030 ef 17 f9 bd b5 7b b9 3e 2b 36 5b be 1b 4b 81 bb
       -0.12162768 0.36227193 -0.21407382 -0.003945721
000040 64 03 c0 3d 06 a4 4f 3d 76 df 3c 3d 21 64 b9 bd
       0.09375647 0.050693534 0.046111546 -0.09052301
000050 3d bf e3 bd 01 5b 1e 3e 34 78 c0 bd 24 f7 1c 3e
       -0.1112046 0.15464403 -0.09397927 0.15328652
000060 ca 3d 87 be ce 86 55 be 52 3f ae be c7 19 4d 3e
       -0.2641433 -0.20852205 -0.34032685 0.20029365
000070 b4 78 a5 be a2 a3 b5 be 67 a3 9e 3e 60 9e 8b 3e
       -0.32318652 -0.35476404 0.3098404 0.27269268
000080 76 78 ec bd 90 c1 5d 3e 0b ab ef 3d 76 a3 9f 3c
       -0.115464136 0.2165587 0.11702546 0.019487124
000090 54 cc 7b 3c 1b c4 bd bd 1e d9 58 be 0d fc 21 3e
       0.01536854 -0.0926592 -0.21176574 0.15818806
0000a0 7e 82 89 3e d9 13 95 be 18 50 de bd 77 a8 58 3e
       0.2685737 -0.29116705 -0.108551204 0.21158014
0000b0 29 07 aa 3e b9 19 23 be ff 51 b3 3d 46 42 d9 bd
       0.33208588 -0.15927781 0.08755874 -0.10608344
0000c0 b3 aa 88 3e ae 71 8c 3e 3c fc 70 3e 85 64 a4 3e
       0.26692733 0.2743048 0.2353372 0.3210794
0000d0 ce a4 e1 3d 12 9f 5c be a0 51 3e be 9b 58 68 3d
       0.11017762 -0.21545056 -0.18585825 0.056725126
0000e0 bd bc fc 3d 06 06 67 be c9 7c 3c 3d 3c aa 1a 3e
       0.123406865 -0.22560892 0.046017442 0.15104002
0000f0 c9 15 aa be 11 1e b7 be 4b 65 3c 3e ff be 26 3e
       -0.33219746 -0.35765126 0.18398015 0.16283797
000100 a0 11 91 be ad 4e ea 3d 53 05 a0 bd 45 32 5e be
       -0.2833376 0.114407875 -0.078135155 -0.21698864
000110 96 fa a3 3e 98 dc 15 3c 6a 07 9f be 44 26 12 be
       0.3202712 0.009146832 -0.31060344 -0.1427241
000120 3d 34 81 bc b5 71 b5 be 5b 6b ec 3c f7 ba fa 3d
       -0.01577198 -0.35438314 0.028859785 0.12242692
000130 79 e2 8c be 36 0a 56 3e 54 25 7c be 56 c0 b4 3e
       -0.27516535 0.20902333 -0.24623615 0.3530299
000140 22 2e 0e be f8 ae 0d 3e 43 da ec bd 7a 45 af 3e
       -0.13884786 0.13836277 -0.115650676 0.34232694
000150 d0 eb 8e 3c 69 e8 8e be ba 26 8f 3e c9 28 4f be
       0.017446429 -0.2791169 0.27959234 -0.20230402
000160 47 cf d2 3d 53 84 62 3e a2 c8 79 3e 6c f3 f2 bd
       0.10293441 0.2212079 0.24392942 -0.11862835
000170 2f b6 c0 3e 87 2b 82 be a0 ab be 3e f6 20 02 be
       0.37638995 -0.25423834 0.37240314 -0.12707886
000180 10 8b 81 be 8d 3b 59 3e e9 f5 83 3d 0e 08 a3 be
       -0.2530141 0.21214123 0.06443388 -0.31842083
000190 04 f0 86 bd 43 b0 69 3e 43 9c 9c 3e 35 00 c3 bd
       -0.06588748 0.22821145 0.30587968 -0.09521524
0001a0 13 b1 81 be b1 c2 a3 be d1 16 aa 3e c5 18 f6 3d
       -0.2533041 -0.31984475 0.33220533 0.12016443
0001b0 0e 2f be be d8 27 ac 3e 15 53 6e be bb c0 a6 be
       -0.37145275 0.33624148 -0.23273881 -0.32568917
0001c0 27 b9 7b 3e de e7 0d 3d 05 65 a8 3e 23 41 96 3d
       0.24582349 0.034644954 0.32889572 0.073366426
0001d0 e4 8d 95 be 8a 14 a9 3c 0b aa 98 bd 98 76 52 3e
       -0.29209816 0.020639677 -0.07454308 0.20553052
0001e0 32 3a 3c 3e be 21 92 3d f8 97 7f 3e cf aa 26 be
       0.18381575 0.07135342 0.24960315 -0.16276096
0001f0 c4 f4 b5 be 9e 6c 09 bd 5b 2f 09 3e 93 bb b1 3d
       -0.35538304 -0.03355085 0.13396971 0.08678355
000200 11 89 88 be 6b 05 94 3d aa 43 59 3e bb 64 90 bd
       -0.26667073 0.07227596 0.21217218 -0.07050463
000210 df 44 0e 3e 74 39 b1 3e 3f 33 af bd 9f ef ec bd
       0.1389346 0.34614146 -0.08554696 -0.115691416
000220 4c 42 5a be b3 4c 48 3e 1d a9 4e 3d 06 0e 9c 3d
       -0.21314353 0.19560508 0.050454248 0.07619862
000230 09 43 d3 3d 40 83 51 be 55 76 bb be 76 c1 77 be
       0.1031552 -0.20460224 -0.36613718 -0.24194893
000240 6d 7c 55 3e a0 08 0b be a7 b3 bc bd b4 a5 c1 bd
       0.20848246 -0.13577509 -0.092139535 -0.094554335
000250 38 ac 14 3e 66 3c 8d be bb e5 9a be ed f2 7d 3e
       0.14518821 -0.27585143 -0.30253395 0.247997
000260 80 8c ef bd bc a3 9a 3e 59 5a 9d be d8 26 8c 3c
       -0.1169672 0.30203044 -0.30732992 0.017108366
000270 31 77 b3 be 48 94 93 3e 0d 6a 10 bb 05 66 40 3e
       -0.35051873 0.28824067 -0.0022035867 0.18788917
000280 9e 2a c7 bc 32 3f 23 bd 7d ad 6f 3e 25 49 0e 3d
       -0.024312314 -0.03985519 0.23406024 0.034737725
000290 4f c2 a1 3d f6 f9 a2 3e 52 fb a9 be 9d 97 0d be
       0.078983895 0.3183133 -0.33199555 -0.13827367
0002a0 75 e9 27 3e 35 02 af bd 02 b4 97 be 91 d1 05 bd
       0.1639765 -0.08545343 -0.29629523 -0.03267056
0002b0 de 12 30 3e a9 5e 42 3e 97 45 23 be 8a 9c da bc
       0.17194697 0.18981422 -0.15944515 -0.026685972
0002c0 c5 57 2a be 72 02 51 3d cc 31 ae 3e cb a9 ae be
       -0.16635044 0.051027723 0.34022367 -0.34113917
0002d0 7e 8c 82 3e 29 dc 02 3e bb 15 08 be 04 aa a3 3e
       0.25497812 0.12779297 -0.1328954 0.3196565
0002e0 09 8e 8a be 6d b6 ae be 63 58 d3 bd d8 17 83 3b
       -0.2706149 -0.34123555 -0.10319593 0.004000645
0002f0 bf 9b 56 be 13 05 94 3e d7 c3 0f 3e 1b e8 e3 bb
       -0.2095785 0.2891012 0.1403955 -0.0069551594
000300 f5 af 63 3e 3f 28 86 3d 79 c8 57 be ce e4 be 3e
       0.22235091 0.06550645 -0.21072568 0.3728394
000310 50 45 aa be a8 f3 52 3e 67 3e f0 3d 7b 94 37 be
       -0.33256006 0.2060076 0.11730652 -0.17927735
000320 4c bd 17 bd 4e 59 b1 bd 85 d9 61 be 79 d7 00 be
       -0.037045762 -0.08659612 -0.22055633 -0.12582196
000330 21 54 97 bc 50 df 8f bd 98 fe bb be f1 dd 8d 3e
       -0.018472733 -0.07025015 -0.36717677 0.2770839
000340 7c 4e f8 3d 08 1e 9c 3e 06 36 a5 be 67 0e 75 3e
       0.12124345 0.30491662 -0.3226778 0.23931275
000350 70 0e 77 be 7b 4f d9 bd a8 9e b5 be 92 cc 2e 3e
       -0.24126601 -0.10610863 -0.35472608 0.17070225
000360 81 07 f2 3d ba 02 9d be 0f a6 73 bd 24 5b 73 3e
       0.118178375 -0.30666143 -0.059484538 0.23765236
000370 22 1e 95 be 0a 12 f5 3d cf e1 13 3c de 5f dd 3d
       -0.29124552 0.11966331 0.009026005 0.10809301

short_term_context_network.fc1.bias f4 [32]
000000 6d 28 b3 3e f7 1e b3 bd ec 4b 2e 3e a0 a5 4b be
       0.3499178 -0.087461405 0.1702115 -0.198874
000010 1a 62 ae 3e d9 8c 93 be 99 ef 8b bd fa d0 67 3e
       0.3405922 -0.28818396 -0.06832809 0.22638312
000020 63 ae af be 52 e7 e8 3d 6b e3 64 be 28 dc 8a 3c
       -0.34312734 0.11372246 -0.22352378 0.016950682
000030 90 92 bc be 08 af 75 3c 60 44 86 3e c2 50 b2 be
       -0.36830568 0.014995344 0.2622404 -0.34827238
000040 e7 46 0c 3d d6 5d 38 3e 24 b2 08 be e4 62 56 be
       0.034247305 0.18004546 -0.13349205 -0.20936161
000050 a6 54 69 3e f1 38 ad be da ad 24 3e ac 5e 35 3e
       0.22786197 -0.33832505 0.16081944 0.17711896
000060 1c 44 b2 3e 69 05 86 be 18 4a 60 be 06 59 67 bd
       0.34817588 -0.26176003 -0.21903265 -0.056481384
000070 dd 87 9d be dc e8 c0 bd 58 ad 3f be e2 c2 9f 3e
       -0.30767718 -0.094194144 -0.18718469 0.3120337

short_term_context_network.fc2.weight f4 [16, 32]
000000 32 70 35 bd ff 3f 3b bd a8 f6 0e be 76 bb e7 bd
       -0.04429645 -0.04571533 -0.1396128 -0.11315052
000010 2d 46 9a bd 68 79 88 3d 7b f3 2b be 2e de b4 3d
       -0.07532916 0.066637814 -0.16792099 0.0883144
000020 de fb 21 be 3e 18 20 be d7 36 90 bc 61 d9 2c 3e
       -0.15818736 -0.15634248 -0.017604275 0.16879798
000030 2d d2 a2 3c 04 43 0b 3e d6 78 2d 3e 61 3a 5f bd
       0.01987561 0.13599783 0.16940627 -0.054499034
000040 33 cc d1 bd 02 07 4d bd b8 03 31 3e 7e 8e 14 be
       -0.10244026 -0.05005551 0.17286575 -0.14507481
000050 f7 ee 31 3e 7a fd 0f 3a f4 18 42 3c 91 9a c1 3c
       0.17376314 0.0005492788 0.01184677 0.023633273
000060 77 2a 6b 3d 38 fb a9 3c 15 9f c9 3c 22 f8 2d be
       0.057413545 0.020749673 0.024611989 -0.16989186
000070 ce 4c cf bd a8 8e 39 3d 12 a3 0c 3d bd d3 cd 3d
       -0.10122071 0.045302063 0.034335203 0.100501515
000080 0f e1 1c 3d f3 cd a1 bd ee 71 0d 3e c0 1d 98 3d
       0.03830057 -0.0790061 0.13812992 0.07427549
000090 52 da c8 bd ec dd d9 bd 87 81 12 bd b3 e2 16 be
       -0.09807266 -0.10638031 -0.03576806 -0.14734916
0000a0 ee 1a 8c 3c eb c4 f6 bb b3 6a ed 3c 92 78 ca bd
       0.017102685 -0.0075307987 0.028981542 -0.09886278
0000b0 d3 6c d3 3d 64 ce 23 be 65 c2 a3 3d e3 bd 2b be
       0.10323491 -0.159967 0.07996062 -0.16771655
0000c0 aa f0 c5 3d ed 70 25 3e 2b 74 ed bd 70 43 2a be
       0.09665044 0.16156359 -0.11594423 -0.16627288
0000d0 56 f7 c1 3d f2 93 62 3d 00 39 c0 3d 07 4c 05 bd
       0.09471004 0.055316873 0.09385872 -0.03254321
0000e0 86 15 b1 3c 01 ed aa 3c 3c bc 5d 3d 08 6f 23 bd
       0.021616708 0.020864965 0.054134592 -0.03990081
0000f0 27 ff 7d bc 8f d4 ca 3d c1 28 19 be ff 66 36 bc
       -0.015502728 0.099038236 -0.14956953 -0.011132955
000100 2b 69 ff bd ac e6 24 bd 26 80 e6 3d 13 6e b5 bd
       -0.12471231 -0.04025905 0.11254911 -0.088588856
000110 76 72 19 3e 8c 46 91 bc f1 6a fe bd a0 24 e3 bd
       0.1498507 -0.017733835 -0.12422741 -0.1109097
000120 fa 45 5c 3d c5 94 97 bd cb 63 31 3e 28 fb f6 bd
       0.053777672 -0.074014224 0.17323224 -0.12059623
000130 40 69 2c bb 09 0b 05 bc 46 db 2f be 0e 85 55 bd
       -0.002630785 -0.008120307 -0.1717349 -0.052128844
000140 4c 41 dd 3d 56 e6 60 bd c2 27 31 be 77 a1 e5 bd
       0.1080347 -0.054907165 -0.17300323 -0.112124376
000150 c4 25 2a be 22 a9 93 bc 97 3a 05 be ab 6d e3 3c
       -0.16615969 -0.018024985 -0.13010632 0.027762255
000160 a2 0a 32 be 11 0a 0c 3e c8 57 f6 bd 9b 9c 2c bd
       -0.17386869 0.13675715 -0.12028462 -0.042141538
000170 c6 c0 1b be 4b ba 8c 3d 75 69 1a bd 7b f4 1e 3e
       -0.15210256 0.0687147 -0.037698228 0.1552295
000180 76 e4 c7 bd cd 0c 15 3e 9b 23 69 bd 5e f8 b9 bd
       -0.09760372 0.14555664 -0.05691872 -0.090805754
000190 6a 50 ab bd 2b 6a 46 bd 2e 05 02 be a5 a6 c0 3b
       -0.08364947 -0.048441093 -0.12697288 0.0058792406
0001a0 c3 76 14 be 99 67 05 3e 43 fc b5 3d a8 d7 0b 3e
       -0.14498429 0.130278 0.08886006 0.13656485
0001b0 99 6e 7c bd c3 1e 2a be 7f cd b8 3d 6d 39 3a 3d
       -0.06162891 -0.16613297 0.0902357 0.04546492
0001c0 45 4e ae 3d f8 12 26 3d 0a 56 2a 3e b6 bc c6 3c
       0.085110225 0.040545434 0.16634384 0.024259906
0001d0 5c 6e 2a 3e 02 b4 10 be 6a 41 e4 3c 11 b2 20 3e
       0.16643661 -0.14131168 0.027863223 0.15692927
0001e0 39 09 1d 3e 28 33 02 3d a4 22 a1 bd a3 43 20 be
       0.1533555 0.031787068 -0.07867935 -0.15650801
0001f0 f6 64 db 3c c5 47 19 be 4c d5 ef 3d ff 79 30 3e
       0.02678154 -0.14968784 0.11710605 0.17234038
000200 69 d3 d1 bd 03 3f 14 be 73 3d 94 bc f7 8a cd 3d
       -0.102454014 -0.14477162 -0.018095708 0.10036271
000210 b0 fa b8 bd 30 a4 8a 3d 77 89 d7 3d b1 3e 24 3b
       -0.0903219 0.067695975 0.10524266 0.002506178
000220 e5 39 5f 3b 2c 6b 80 3d 27 56 f9 3d 77 ec 1b bd
       0.0034061607 0.062704414 0.121746354 -0.038067307
000230 9f 3d 65 3a f3 9c 30 3e c0 8c b2 bc 9e 90 65 bd
       0.0008744839 0.17247371 -0.02179563 -0.05604612
000240 6b b5 74 bc 37 0e d1 bc f3 f9 1a bd 0b 2c dc bd
       -0.014935832 -0.025519473 -0.037836026 -0.10750588
000250 92 78 f0 bd 4f bb ae bc 12 ce 1a be 53 a6 10 be
       -0.11741747 -0.02132955 -0.15117672 -0.14125948
000260 24 87 14 bd 1f 4c 1a be e6 bb 18 be 87 0f a1 bd
       -0.036261693 -0.150681 -0.14915428 -0.0786429
000270 6b 86 17 3e ae 67 46 bd b5 f1 2b be 4a 9f 17 be
       0.1479737 -0.04843872 -0.16791423 -0.14806858
000280 cc 22 0a 3e 42 b0 98 3d 80 a9 93 bd 7f 04 9f bd
       0.13489836 0.074554935 -0.07210064 -0.077645294
000290 0a 55 d6 3c b9 88 a9 bd d9 bd 9e 3d d6 0a 15 3e
       0.026163597 -0.08278031 0.07751054 0.14554915
0002a0 c7 a8 b7 bd 1f da 31 3e 48 01 27 3e c2 6a d8 bd
       -0.089677386 0.17368363 0.16309083 -0.105672374
0002b0 c4 61 00 be 07 15 e7 bd f7 5c e0 3d 23 0f 09 3e
       -0.12537295 -0.112833075 0.10955232 0.1338468
0002c0 fe d5 aa 3d c1 0a 10 3e 88 fb 13 3d e3 ae f6 bc
       0.08341597 0.14066602 0.03612855 -0.03011269
0002d0 5b 4f 90 3d 25 69 f7 bb 0d 76 b9 bd 59 7b 17 bd
       0.07046386 -0.007550376 -0.090557195 -0.036982868
0002e0 5a 9b 10 3e d5 d6 d4 3d a1 a1 26 3c 97 2b 2a be
       0.14121762 0.103925385 0.010170371 -0.1661819
0002f0 c0 8d 7d bc c8 b0 28 be 2d d4 26 be 82 25 0b bc
       -0.01547569 -0.16473687 -0.16291876 -0.008492829
000300 a7 3f 0e 3e 48 f6 7b bc e9 dc 28 be fc fe 13 be
       0.13891469 -0.015378542 -0.1649052 -0.14452738
000310 a9 a7 05 be 9f a2 d1 3d a7 bf da 3d e6 88 19 be
       -0.13052239 0.10236096 0.10681086 -0.14993629
000320 9d 57 c8 bd f6 ad 19 bd 8f 1d 99 bd a8 8a e8 3c
       -0.09782336 -0.037519418 -0.07476341 0.028386429
000330 2e de 08 3d 9a 35 b8 3d b1 c9 a6 bd 40 6c d3 3c
       0.033415012 0.08994599 -0.08143938 0.025808454
000340 b4 70 f9 bd 2b 3a 7f 3c 6d d2 83 3d d8 af 2a be
       -0.121796995 0.015577833 0.0643662 -0.16668642
000350 28 6d 25 3c 08 48 28 be 5f 15 2c be 5b da 82 3d
       0.010096826 -0.16433728 -0.16805027 0.06389304
000360 80 c7 ab bd 3e 5a e6 3d 2e 4f 73 3d e5 d8 bf 3d
       -0.08387661 0.11247681 0.059401684 0.09367541
000370 3e bd 86 bd 9e fd 17 be 3d 3e 0e 3e 44 df 90 3d
       -0.06579064 -0.14842841 0.1389093 0.070738345
000380 ee c5 2f be 94 f9 4e 3d ed 32 bd bd c2 1f eb ba
       -0.17165348 0.050530985 -0.09238229 -0.0017938542
000390 30 3b 17 3e c4 92 53 bd b9 6a 4c 3c a0 09 09 be
       0.14768672 -0.05165364 0.012476617 -0.13382578
0003a0 4e 1b 4b 3d 0a 3e 51 3d 31 9d 1f 3e 89 9f 11 be
       0.049586587 0.051084556 0.15587308 -0.14221014
0003b0 9f 2d 43 bd 01 45 24 3e f7 11 8a bc 2e 08 99 bd
       -0.04765093 0.16041948 -0.01685427 -0.07472263
0003c0 5c a4 de 3d 44 8b c4 bd fd ac 8c 3d cf 8c 22 be
       0.10871193 -0.09596875 0.068689324 -0.15874027
0003d0 9e f7 fc bc de 2d fe bd 79 57 25 3e e1 13 23 3d
       -0.030879792 -0.12411092 0.1614665 0.03981388
0003e0 bd 53 17 be dd be c4 3b d8 5f fb 3b a2 ed 19 3e
       -0.14778037 0.006004198 0.0076713376 0.15032056
0003f0 c5 6c fb 3d b2 cd d9 3b 93 75 94 3a f9 f8 0c bd
       0.122766055 0.0066468352 0.0011326544 -0.034417126

short_term_context_network.fc2.bias f4 [16]
000000 01 b8 12 3a 27 48 17 3e 72 41 08 be 60 80 0c be
       0.0005596877 0.14773618 -0.13306215 -0.13720846
000010 9e 66 31 be 72 8e ff bd e7 2b 0c bb 1f ba 20 3e
       -0.17324302 -0.12478341 -0.0021388473 0.15696
000020 80 48 30 be f4 2c 1e be 65 c7 bf bc 87 99 1a 3e
       -0.17215157 -0.15446836 -0.023410508 0.15097629
000030 ab d4 81 3d d4 0b d0 bd da f3 85 3d 75 83 bd 3d
       0.06339391 -0.10158506 0.065406516 0.09253589

short_term_context_network.fc3.weight f4 [1, 16]
000000 8f b5 62 bd 7b 2f 4c 3e 40 fa 25 be 85 fc b3 3d
       -0.05534893 0.19939987 -0.16208744 0.08788399
000010 90 07 f5 3d f0 89 a3 3d 00 c7 2c 3c dc 5e ec bd
       0.11964333 0.07985294 0.010545492 -0.115415305
000020 28 ff d2 bd 7d 0e 77 bc e8 0d b2 3d e4 2e 8c 3d
       -0.103025734 -0.015079138 0.08694059 0.06844881
000030 10 39 fd bd 78 89 36 3e 3a fe 15 be 0c 62 2c 3e
       -0.123643994 0.17825878 -0.14647761 0.16834277
