Uni_Research/IRL/Final/Extended/old/V3/V3_demo1/0.9_policy.pth (torch, 91418 bytes, 11 tensors)

main_network.lstm.weight_ih_l0 f4 [256, 15]
00000000: 7215 2b3e efa1 053e b5a6 b13d db0a 133e
00000010: b3f5 3b3d 5125 f8bc eb15 043e 64ee 23be
00000020: 2b3f f6bc 603b cabd 43b7 b3bc 4b83 38bd
00000030: 783c 6c3d f461 1e3e 7443 05bb 6794 c1bd
00000040: 858b 01bc e7d3 e4bd 8248 bb3d c4fd 81bd
00000050: 2469 233d 6cc9 0ebe 6466 1c3b d3a5 903d
00000060: 04ed c03d 3ef3 6f3c 4fdc 5dbe 8226 c5bd
00000070: 6f0d 513d 75be 0bbe 7c65 debd 0de2 4abc
00000080: 28fb 893d 8fc3 debc 480a f73c 154e 83bd
00000090: fef5 f53d 3da1 3f3e 2c0d 91bd fc93 ae3d
000000a0: 9c10 9a3d 406e c7bd c8e4 9cbd 808d 193d
000000b0: b1e6 2fbd 6816 60bd e0b9 68be d24e 7d3d
000000c0: b229 5a3c 839e 50be c2a6 5b3d 46f4 c53d
000000d0: 926f 37be 3049 35bd 5b6b 11be 22d4 943c
000000e0: 782e cabd 7587 4a3e 0bd4 123e 78a0 e2bd
000000f0: 66e9 3e3e dca9 bb3d 914f c9bd a799 753e
00000100: 55b1 5cbd 4906 5dbc 23a1 ccbd 5430 fb3c
00000110: 5419 7c3d 0297 063b cb29 e5bd ca56 f7bd
00000120: 17ef 5d3e 7f88 513e e2d1 76bd bde7 e63d
00000130: a058 1f3e e0ab bb39 3eae aa3e 7f85 bbbd
00000140: 670e 573d d1d9 c5bd 347c 333e 9181 c53c
00000150: bf28 1c3c 7560 a3bd 3c3e 043d da4e 11be
00000160: 05fe bb3d 2c7d c33c 4a65 7a3c 8847 afbd
00000170: cf08 8abc 8826 94be 21c4 55bd 275a 23bd
00000180: e5c7 323a b58c 23be 7a4c 52bd e93f 113e
00000190: 427f 0f3d 84c1 03be 7061 b23d d5fd a43d
000001a0: c918 64be e927 813d 54ff d73d d55d 0cbb
000001b0: 01b8 77bc 94f7 d93d 570a 613c f1ff c3bc
000001c0: 5fbc 183e 3d4c 563d e226 d23d 18c0 0dbe
000001d0: 3951 bebd 3199 7abd 7e8f 433e 6386 a4bd
000001e0: 99fc bb3d 5a72 70bd 4f9a 753c 92da 4a3d
000001f0: 92db 07bd 4717 0abe 4df6 e23c c926 0c3e
00000200: b2e9 2fbe b193 36bc f99c c8bd 988b a23b
00000210: 925c 03be e393 163e 4a36 b83d fc2c 12be
00000220: fa4e da3d 502c 693d 9f0c 513d 1e94 13be
00000230: dae5 c63c 3dad 0abe 5dd7 ba3d 4434 e23d
00000240: 9aca 10bd c460 38be 2f7c 713d 328f 99bc
00000250: d804 983e 903f 623d 7763 373a 1ff5 a3bd
00000260: 9d3d af3d 8a1f a9bc 536d 28be 2e0e 15be
00000270: 4ef2 28bd 28ce 913d e9f6 50bc 7c9c 32bc
00000280: 23e2 e1bd 74c3 0f3e 7fed 5ebc b644 eb3d
00000290: 1e5b 4e3d fee8 6abc 8283 763d ed91 b0bd
000002a0: f8c2 db3e 2dde cf3b c0e5 3c3d 444e aa3c
000002b0: 6f6d 0abb 433b 4e3e d149 13be bb1d 9a3d
000002c0: 4393 963e 7526 483e 6685 8b3e 1867 a03c
000002d0: 8ed2 743e 42ea 0b3e 6890 373d 3aee 1f3e
000002e0: 016f d3bd 6204 1cbe 20f0 8ebe 7d6c c93d
000002f0: 0a3e 5abb a539 b8bd fe23 0a3d 7a57 1e3e
00000300: 6e36 ad3d f1cc 453e a575 e2bd e1c7 c0bc
00000310: f848 6ebe 505d 993d e9dd a93d b794 3ebe
00000320: 6e2a 3cbe 6b34 973d 3ce6 59be 8015 5cbc
00000330: c057 8cbe d125 47be b431 023e 9a8a 49be
00000340: 69a6 aebd 5e15 cfbc fa06 fabd 2efc 56be
00000350: 1687 37bd 371e 21bd a706 30be bc6f 843c
00000360: 21d3 64be 6362 1abe 6350 c33d a59a df3d
00000370: 3c0a 8bbe 23d2 f1bd 37b0 bcbd 1d7f 0fbd
00000380: 2bea 87bd 0b65 8f3d 8973 453c 64e1 2b3d
00000390: ac04 ff3b 6ffe 6ebc 3582 3c3d 232c bdbd
000003a0: 6ad3 983c e069 ef3d 4e63 b4bb c42f b23d
000003b0: 0997 03be fc65 ec3c 2354 3cbd 546d bcbd
000003c0: 7dfe 1b3d b239 063d 38d3 d6bd c70c 8e3e
000003d0: fb66 b0bd fa44 ba3d 0588 6abc acff a83b
000003e0: c536 dabd a997 2f3e 8303 85bc a4e8 03be
000003f0: 95b1 103c e591 073d 83e8 a4bd b541 27bd
0.167074 0.13050054 0.08674375 0.1435961 0.045888614 -0.030291231 0.12898986 -0.16008908
-0.030059418 -0.09874606 -0.021937972 -0.045047086 0.057674855 0.15467054 -0.0020334395 -0.094521336
-0.007906799 -0.1117323 0.09144689 -0.0634723 0.03989519 -0.13944024 0.002386474 0.070628785
0.09420207 0.014645396 -0.21666072 -0.096264854 0.051038202 -0.13646872 -0.108592 -0.012382996
0.067373574 -0.027192859 0.03015627 -0.06411377 0.1200981 0.18713851 -0.070825905 0.085243195
0.07522699 -0.097378254 -0.07660824 0.03748846 -0.042944614 -0.05470887 -0.22727156 0.061842747
0.013315605 -0.20372967 0.05362583 0.09665732 -0.17913654 -0.04425925 -0.14201109 0.018167559
-0.098721445 0.19778235 0.143387 -0.11065763 0.18643722 0.091632575 -0.09829629 0.23984395
-0.053880055 -0.013490268 -0.09991672 0.030662693 0.061547592 0.0020536785 -0.11189612 -0.120771006
0.21673237 0.20462225 -0.060258754 0.11274669 0.15561152 0.00035795476 0.3333606 -0.09156322
0.05250397 -0.09660686 0.17527848 0.024109634 0.009531199 -0.07977382 0.032285914 -0.14190236
0.0917931 0.023863398 0.015282938 -0.085585654 -0.016849903 -0.28935647 -0.052188996 -0.039880898
0.0006819948 -0.15971644 -0.051342465 0.14184536 0.035033472 -0.12866789 0.08709991 0.08056227
-0.2227508 0.063064404 0.10546747 -0.0021418233 -0.015119554 0.10642925 0.013735375 -0.023925753
0.14915608 0.0523188 0.102613226 -0.13842809 -0.09292836 -0.06118125 0.19097707 -0.08033445
0.091790386 -0.058702804 0.014990403 0.04952485 -0.033168383 -0.13485442 0.027705336 0.1368667
-0.17178991 -0.011143611 -0.09795565 0.0049604885 -0.12828282 0.14704852 0.0899473 -0.14274973
0.10659595 0.056927025 0.051037427 -0.14411971 0.024279524 -0.13542648 0.091231085 0.11045125
-0.035349466 -0.18005663 0.05895632 -0.018745039 0.29691195 0.0552364 0.00069957174 -0.080057375
0.08556674 -0.020644922 -0.16447954 -0.1455619 -0.041246705 0.07119399 -0.0127541805 -0.010901567
-0.1102946 0.14039403 -0.013606428 0.11487715 0.050379865 -0.014337776 0.06018401 -0.08621583
0.42922187 0.006343624 0.046117544 0.020789273 -0.0021122356 0.20139794 -0.14383627 0.07525202
0.29409227 0.1954592 0.27250212 0.019580409 0.23908445 0.13663581 0.04481545 0.1561822
-0.10323907 -0.15236047 -0.27917576 0.098351456 -0.0033301138 -0.0899537 0.03372573 0.15463057
0.08457647 0.1931646 -0.11057595 -0.02353281 -0.23270023 0.07488501 0.08294279 -0.18611418
-0.1837556 0.07383045 -0.21279234 -0.01343286 -0.27410698 -0.1944802 0.12714273 -0.19681779
-0.08527834 -0.025278743 -0.12208362 -0.20994636 -0.044806562 -0.039335456 -0.17190038 0.01616656
-0.22346164 -0.15076594 0.09536817 0.10918168 -0.27156246 -0.118076585 -0.09213298 -0.035033334
-0.06636461 0.07001694 0.0120514715 0.041962996 0.0077825394 -0.014587029 0.046022613 -0.09236934
0.018655498 0.11690116 -0.005505002 0.08700517 -0.12850584 0.028857224 -0.045978677 -0.0920054
0.038084496 0.032769866 -0.104895055 0.27744123 -0.08613392 0.090951875 -0.014314656 0.0051574316
-0.10654978 0.17147698 -0.016237026 -0.12881714 0.008831401 0.03309812 -0.080521606 -0.040834147

main_network.lstm.weight_hh_l0 f4 [256, 64]
00000000: 30eb 3e3e 24f3 0a3e b753 81bd cec2 333e
00000010: 717f 19be fd47 6abd d90b 933e e9d6 57bd
00000020: 7a13 63bb 515c 26bd 835d b83d 9eeb 3ebe
00000030: fcfa be39 de08 9abd 6c36 cfbd cc53 1d3e
00000040: 0cc3 52bc 77d1 8abd 8051 1bbe 8272 0bbe
00000050: 9097 f6bd 1e3f 55bd 00dc 4abe 0df1 433d
00000060: 727a a93d 1d59 b9bd ea9a 62be 8dd8 41bb
00000070: 4ad2 44bd df4f 0bbd 520a 74bd b180 00bd
00000080: b9c7 20be bd38 88bd dffb a23c ee11 a2bd
00000090: 31eb a0bd d5e4 243d 283e b6bc 69b4 6cbc
000000a0: f028 ee3c 384e 263d 46c8 98bd 4a21 943d
000000b0: c7a1 9a3d 89f9 00be e0d1 003e 8172 94bd
000000c0: f86e 27bd 59c7 2dbd 3f22 e83d 773d 2ebc
000000d0: 9870 a7bc f2cd c83c df4c 233e 2885 a6bd
000000e0: 3e3f ffbd ae50 1e3e 6381 283d 95a6 123d
000000f0: 2de8 02bd 7b5f bebd 0f04 efbd 058b 85bc
00000100: c3c7 a53d a006 fa3c 6b97 5ebd 8a3a 56bd
00000110: 6ffa cabd c15a 833d c06b 763e dc1c 95bc
00000120: 2600 113e edfc e7bd 7ab0 f73d fec8 12bc
00000130: 379d b1bd 2cf7 d13d 95d7 7ebd e5ba 223c
00000140: f3f8 a6bd 4598 c8bd 067d 91bd fbb8 813d
00000150: aae7 e5bd b869 203e 7c41 3cbe 5272 cd3d
00000160: 5636 07bd 7a48 bfbd 4252 89bc 6052 26be
00000170: fd28 ca3d 7d12 f7bd c25a 083d 321f 22be
00000180: cc4c a23d 2832 a2bd 3105 7f3c d0fd b93d
00000190: 89de 0ebd 5e62 6cbd d6cf 33bb 95f9 173e
000001a0: 731c d13d 6b39 403e a6ed f1bd e6b9 573c
000001b0: b6e5 fc3c aa0b 753d e902 d63d 7ddf cf3d
000001c0: 79b8 86bd 00b6 743d 1499 fbbd 50c1 cdbd
000001d0: 94b5 aabd 5693 e7bd 7dbe 9dbc 373e 33be
000001e0: abfe 4e3e 9738 df3d b59e bfbd 58d2 843d
000001f0: be2b c2bd c9b0 413d c87d ab3d a59f 22be
00000200: 6cd7 39bd 4689 94bd a6f0 20bd b4d9 ddbd
00000210: 25ec 723d 743a 3d3d 99ab 953d 3e1e b63c
00000220: c95e 50bd 2451 33be f277 953d 74da fcbd
00000230: f1ec c33d c7e7 0abe 1677 d5bd afe6 753c
00000240: a13c 82bd 24ca a63c 1972 233b d831 65bd
00000250: 9456 6bbd 7acc f0bd 835e f5bd 1034 c2bd
00000260: f210 34bc 3d80 b33d f647 7ebd b4f6 abbc
00000270: ea2b 153d 6541 b43d f0d8 b9bd 65e7 34bd
00000280: 7540 843d 9a0e 2c3d 8e69 76bd ed44 eabc
00000290: 1bba 2c3d 1e21 2dbd e5f6 193e 8898 513c
000002a0: ab5f e7bc 3c94 bebd c43a 633d 29fd 133e
000002b0: cbd4 70bd 1e78 9bbd b502 e43d e34c a23a
000002c0: 13cd 82bd 7abb 5d3d f6c7 38bd 30c1 013d
000002d0: 2bc9 a6bd c4b7 41bd 7cad de3d 4de7 f03c
000002e0: 305a e4bd 3e1c dfbc 1121 4e3d 57cb e2bc
000002f0: 621f 783d c41d d23d 411c ba3d b262 f7bd
00000300: 7d71 bebd 4311 f23d 7340 0aba ee46 9abd
00000310: d578 4cbe 971d 8fbd 37a5 36be 8771 6f3d
00000320: ffdd 3c3e 9c0e 74be 938b 88be b1b7 00be
00000330: d898 603e 1448 3dbe 58db db3d 686d debc
00000340: f3d8 2dbd 2b9b a5bc bfac 163e 4499 81bd
00000350: 40b0 29bd f970 11be 7586 b83d 23b1 d7bd
00000360: 5402 643d deab 0cbc e976 cebd 2c90 d63d
00000370: 49e9 c6bb 8953 8d3e 3fa3 cc3e 0dfd d0bd
00000380: 60fc 1fbe b546 993c 471c cbbc abea 6f3d
00000390: 0812 aa3c 5868 a73d 8298 95bc cffd a5bc
000003a0: a285 5c3e 5940 e03d 589d e0bc 5079 5a3c
000003b0: a8ae 083c f615 c2bd e62a 083e db0c 37be
000003c0: 0088 a7bd 1a88 9abc ee0c 87be 87af bdbd
000003d0: 755f 1f3e 5483 653d ed6b c3bc 2853 b43d
000003e0: 05eb 0ebb 00fc 7abe a22e 6dbd da41 213e
000003f0: ab3b 39be 467e 2f3e 089c b4bd 7a9a 7d3e
0.18644404 0.13569313 -0.063147955 0.17554781 -0.14990021 -0.05719756 0.28719977 -0.05269519
-0.003464906 -0.040615384 0.09002211 -0.18644568 0.00036426622 -0.075212225 -0.10117802 0.15363997
-0.012863886 -0.067782335 -0.15167809 -0.136179 -0.12040627 -0.052062146 -0.19810486 0.047837306
0.08275308 -0.090502 -0.22129408 -0.0029578537 -0.04805211 -0.034011718 -0.059580155 -0.03137273
-0.15701188 -0.06651447 0.019895492 -0.07913576 -0.07857359 0.040257294 -0.022246435 -0.01444731
0.029072255 0.04060194 -0.07460074 0.07232912 0.07550388 -0.1259519 0.12580061 -0.072484024
-0.040877312 -0.04242644 0.11334657 -0.010634772 -0.020439431 0.024512265 0.15947293 -0.08130866
-0.12463234 0.15460464 0.041139018 0.035803396 -0.0319597 -0.09295555 -0.11670696 -0.016301641
0.08094742 0.030520737 -0.054343622 -0.05230192 -0.09911048 0.06413794 0.24064541 -0.018202238
0.14160213 -0.11327539 0.12094207 -0.008959053 -0.086725645 0.102522224 -0.062217314 0.009932254
-0.08152952 -0.09794668 -0.071039245 0.0633411 -0.11225827 0.15665329 -0.18384355 0.100315705
-0.033010803 -0.09339996 -0.016762856 -0.16242361 0.09871099 -0.12064073 0.03328968 -0.15832213
0.07924804 -0.07919723 0.015565203 0.09081614 -0.034880195 -0.057710998 -0.0027437112 0.14841302
0.102105044 0.18771903 -0.11812906 0.01316688 0.030871253 0.059825577 0.10449774 0.10150049
-0.06578154 0.05974388 -0.12285057 -0.10046637 -0.083354145 -0.11307399 -0.019255871 -0.17504202
0.20214336 0.108994655 -0.09356443 0.064854324 -0.094809994 0.047287736 0.083736 -0.15881212
-0.045371458 -0.07252745 -0.039292 -0.10832539 0.059307236 0.046198323 0.0730812 0.022231217
-0.050871644 -0.17511421 0.072982684 -0.12346354 0.09566677 -0.13564979 -0.104231045 0.015008613
-0.0635922 0.02036006 0.0024939834 -0.055955738 -0.057455614 -0.11757751 -0.11980917 -0.094825864
-0.010990368 0.08764694 -0.062080346 -0.02099166 0.036418833 0.088015355 -0.09074581 -0.044165988
0.06457607 0.042006113 -0.06015926 -0.02859732 0.04216967 -0.04226791 0.15035589 0.012792714
-0.02824386 -0.09305617 0.055475965 0.14452042 -0.058796685 -0.0759127 0.11133329 0.0012382533
-0.06386771 0.05413387 -0.045112573 0.03167838 -0.081438385 -0.047294393 0.10872933 0.029407168
-0.111500144 -0.027235147 0.050324503 -0.02768485 0.060576804 0.102595836 0.0908742 -0.120793715
-0.0929899 0.11819699 -0.0005273886 -0.0753306 -0.19967969 -0.06988066 -0.17836462 0.058457877
0.1844406 -0.23833698 -0.26668987 -0.12570073 0.21933305 -0.18484527 0.10735196 -0.027151778
-0.042443227 -0.020215591 0.14714335 -0.06328061 -0.04142785 -0.14203252 0.09010021 -0.10531833
0.055666283 -0.008585898 -0.10081274 0.10476717 -0.00607029 0.27602795 0.39968297 -0.102045156
-0.15623617 0.018710474 -0.024793757 0.058573406 0.020760551 0.08174199 -0.018261198 -0.020262627
0.21535352 0.10949773 -0.027418777 0.013334587 0.008342423 -0.09476845 0.13297614 -0.17875998
-0.08180237 -0.018863726 -0.26377052 -0.09261995 0.15563758 0.056033447 -0.023855174 0.08804923
-0.0021807563 -0.24510193 -0.0579058 0.15747777 -0.18089168 0.17138013 -0.08818823 0.2476596

main_network.lstm.bias_ih_l0 f4 [256]
00000000: a8cb 403d 7a52 10bd b55f a8bd 2f43 a73d
00000010: c37b 253d c958 fa3d c33f aabd 543b 73bc
00000020: 4174 3dbb 23cd 433e 5a0f e6bd 9997 ab3d
00000030: a5f6 f83c df0d e33b 6385 ce3d 9461 fd3d
00000040: 642f eebc b32e ea3c 4b07 8b3c 43ab b8bd
00000050: 4d17 5dbc bc94 363c 5c9f a4bc 7166 403e
00000060: 9d3f 92bd 81b6 803d 9a27 1fbd 4908 733d
00000070: b900 2c3e 5cbe 4ebc 4c62 80bd 7f8c aa3d
00000080: b857 52bb 7010 1b3e c99e 723d 2fae 5c3c
00000090: 44cf 3f3d 2edd 88ba 7cef 653e 34be 3b3d
000000a0: b9cb bf3d 3e98 2a3e 287b 163d 2120 babd
000000b0: 340c 453e ecc0 27bc 9e45 81bd 3d4d 81bd
000000c0: 3db7 3b3c b0eb 673d 2e08 3ebc 5a58 2f3e
000000d0: ff9b 2c3d bbd3 dcbd 7b2b 1a3e c78f f4bd
000000e0: b0f7 603e 55eb b93d 396b 68bd 29b0 513d
000000f0: 38b4 3d3e a28c 723c 0bcd 313e 90cb 563e
00000100: 7602 7d3d d6e8 99bd 0989 59bd 62f0 1abe
00000110: 1d3b dc3d 5609 783d e1bc 39bd 43b4 13bd
00000120: 720d f53c 2d2e 4d3e 45b0 7abc 3bc4 5dbd
00000130: e724 c0bd a3ce 913d 5e17 51be c8d7 b93d
00000140: 8c36 fabc f782 073e 9709 dcbd 7b58 28bc
00000150: 93e3 1abd 5403 61bd ecfb 87bc a22f 2e3d
00000160: f3af 6b3d e5ff 1b3c 6006 5dbd b731 53bb
00000170: 1316 06bc 9411 65bd 621c 3cbd b4e2 c53c
00000180: a89b eb3c b268 f3bd 102c a5bd 233c 023e
00000190: 811d d63d 30ee 5d3b 3415 c43b 50a3 7c3d
000001a0: ba38 7abd a679 973c 276a c7bc 3d90 673d
000001b0: 0550 b53b de31 e3bd 598a e43c f956 1d3c
000001c0: e647 e8bc cc50 993d 610a 31be 0576 bf3d
000001d0: 8ead f3bd e81b 1cbe 227c b43d 0915 1cbc
000001e0: 2969 2f3d aa97 c9bb d2f9 ba3d 23ce bd3c
000001f0: 94d4 813d d277 f2bd 2d4c f3bd e6fd 183e
00000200: 07ad c6bd 27d3 04be 997e d0bc 4f2c 8b3c
00000210: d719 aabd 48af 34bd b04f 0a3d bf7b 163e
00000220: 01e2 bd3a 5878 79bd 0bed 6f3c febb 13bd
00000230: aecd 91bc d0a6 9e39 6af9 7e3c f7ce 3ebd
00000240: d308 e7bc a409 76bc a7e2 b33d b572 b8bc
00000250: a1ea 4bbe 096a 15bd 4f19 113d 848d d8bd
00000260: 1774 8fbb fa2d 4f3d 1a5c d03d 1f79 56bc
00000270: 2d1a f9bd f21c 6cbd fed9 d73b 1062 883d
00000280: 1ce7 82bb 6006 8e3d 933c e6bd 96cc a63d
00000290: 8f5a 7bbd cb60 92bd 924e 10be 8114 97bd
000002a0: edcf d13b 1937 d2bc fa7a ec3d 5f6c 81bd
000002b0: 28be 40bd 63a4 cc3d f8f3 f23d f6eb 7ebc
000002c0: 629e 0c3c 4071 893d 43de f73d 0584 f8bc
000002d0: e72a 6cbd 54ea f3bd de38 ddbd c995 7c3d
000002e0: 5d8a 4c3d 8224 12be 69d3 f0bd 2206 d83d
000002f0: 5fc2 2bbe 83a0 69bd 5784 d9bd 004b a9bd
00000300: a0ec f83c 841a f13a 227a 1e3c 73ea 9dbb
00000310: 2511 2c3e dbac 7b3d 758d d43d 76b6 61bd
00000320: 9387 7ebc 54f9 37bd 0aab eabd 45ee 113e
00000330: 5bfe 3b3e 4227 3ebd 2603 d33d 128a 613c
00000340: d720 fabd 6b7e da3d 6db7 a3bd f72c 2b3d
00000350: 1016 213d c844 bebc 7801 5d3d d3f5 e33d
00000360: ba49 c3bb 9d21 0e3c 8fa8 793d 7704 9fbc
00000370: 73ac 043e 5b05 be3d 4dac 8a3d 473f f03d
00000380: 9f53 ca3c 7b32 bebd 44ba ff3d bd27 133d
00000390: c29b 053e 148b 363e 78ab 743d cd5b 9d3b
000003a0: c819 f13b 89e1 b0bc 1346 96bd f9a7 2fba
000003b0: 2091 e33c cf70 2d3d f071 85bd aa6c b1bd
000003c0: 19cc 893d 0835 1dbd 13f3 1c3d 7cc1 f53d
000003d0: 1612 343c f3b0 82bd 9c42 3e3e c68f 02be
000003e0: 08cc 213e 562c 123d 446c e6bc ea42 1fbd
000003f0: 8b8d 123e 0bf9 503d 02ac 47bd fe65 123e
0.04706922 -0.035234906 -0.0822138 0.08167111 0.04040123 0.12223966 -0.08312943 -0.014845688
-0.0028908404 0.19121222 -0.11233397 0.08378524 0.030391047 0.006929144 0.10084035 0.12372127
-0.029075332 0.028586721 0.016971251 -0.090170406 -0.013494325 0.0111438595 -0.02009552 0.18789078
-0.071410395 0.0628481 -0.038856126 0.059334073 0.1679715 -0.012618627 -0.06268749 0.08327579
-0.0032095741 0.15142989 0.05923346 0.013469263 0.046828523 -0.0010441893 0.22454637 0.04583569
0.09365029 0.16659638 0.036738545 -0.09088159 0.19242936 -0.010238867 -0.063121065 -0.0631356
0.011457262 0.056621253 -0.01159863 0.17123547 0.042140957 -0.10782572 0.15055649 -0.11941486
0.21969485 0.09078089 -0.05674288 0.05119339 0.18525779 0.014804037 0.17363374 0.2097609
0.061769925 -0.07515113 -0.053109203 -0.15130761 0.107534625 0.06055578 -0.045346145 -0.036060583
0.029913638 0.20037146 -0.015300815 -0.054142218 -0.093820386 0.07119491 -0.2041907 0.0907436
-0.030543588 0.13233553 -0.107440166 -0.010275002 -0.037814688 -0.054934815 -0.016599618 0.042525895
0.057540845 0.009521459 -0.053961158 -0.0032225677 -0.008183974 -0.055924967 -0.045925505 0.024155952
0.028760746 -0.118852034 -0.08065045 0.12718253 0.10454846 0.0033863895 0.005983973 0.061679184
-0.061089255 0.018490624 -0.02434261 0.05653404 0.0055332207 -0.11093496 0.027898 0.009603255
-0.028354596 0.07486114 -0.17289115 0.09348682 -0.11898337 -0.1524502 0.08812739 -0.0095265
0.042824898 -0.006152113 0.09129681 0.023169583 0.06339374 -0.1183926 -0.11879764 0.14940605
-0.09700971 -0.12971173 -0.025450991 0.016988901 -0.0830571 -0.044112474 0.033767402 0.14695643
0.001448691 -0.060905784 0.014643918 -0.036067955 -0.017798271 0.00030260393 0.015562395 -0.046584096
-0.02820245 -0.015016947 0.08783465 -0.022515634 -0.19913723 -0.036478076 0.035424527 -0.10573867
-0.0043778527 0.050580956 0.10173817 -0.013090401 -0.12163196 -0.057644792 0.006587266 0.06659329
-0.0039948355 0.0693481 -0.11242022 0.081444904 -0.06136566 -0.07147368 -0.14092472 -0.07376958
0.0064029605 -0.025661038 0.115468934 -0.06319498 -0.047056347 0.09992292 0.118629396 -0.015559187
0.008582683 0.06711054 0.1210294 -0.03033639 -0.057658102 -0.11909929 -0.10801862 0.061666284
0.04993664 -0.14271739 -0.11759073 0.10548045 -0.16773365 -0.05703784 -0.10620945 -0.08266258
0.03038627 0.0018394743 0.009672673 -0.0048192083 0.16803415 0.061444145 0.10378543 -0.05510565
-0.015535253 -0.044915512 -0.11458404 0.14251049 0.18358748 -0.046424158 0.10303335 0.013765829
-0.12213295 0.106686436 -0.0799397 0.04179093 0.03932768 -0.023226157 0.05395648 0.111308716
-0.0059597166 0.008675006 0.060951766 -0.019411309 0.12956409 0.09278365 0.06771145 0.11730819
0.024698077 -0.09286972 0.12486699 0.03592657 0.13047698 0.17826492 0.059733838 0.0048022033
0.0073578097 -0.021591919 -0.07337584 -0.000670075 0.027779162 0.04234391 -0.065158725 -0.08663304
0.06728382 -0.038380653 0.03831775 0.11999795 0.01099064 -0.06381407 0.18580097 -0.12750158
0.15800488 0.035686813 -0.028127797 -0.038882174 0.14311807 0.051018756 -0.048748024 0.1429672

main_network.lstm.bias_hh_l0 f4 [256]
00000000: 727c e3bd fc38 a63c ec9a b33b c4dc 61bb
00000010: 8eee 0a3e 0a4d b2bd 0d98 e4bd e4c8 42bc
00000020: a242 8cbd 54c5 e83d 7077 b93d 2188 52bd
00000030: cd90 1e3e f9df de3c 9366 8e3d 315f 85bd
00000040: c1bf dabd 4e0e 98bd 9991 1c3e bb9b 813c
00000050: c549 b53c 8eb2 853d e0f1 033d e60b 0a3e
00000060: d79e 09be f407 6ebd c32c e53d eff0 d33c
00000070: 02f7 403e 7602 19bd b5cf cb3d 8cc4 2e3e
00000080: 67ec a1bd 58c9 ad3d a34e c93d 8100 b13d
00000090: bd6b 6f3e ea0f ce3d 719e c43d d76e 9cbc
000000a0: a5e9 513e 85a6 51bb 1595 05bd 366c 093c
000000b0: e7b3 2c3e 99a1 8b3d c7b6 d43d bdc0 8ebd
000000c0: 3fc2 803d e0cf 0d3e 6a96 483e bcea 123c
000000d0: 9155 afbd 85ac afbd 38f6 173e 93c2 223c
000000e0: 0f0a e53d 031c 753b 4e74 ff3c 6b11 fe3d
000000f0: 48ee 343e 450d 5ebc a728 4cbd 1097 583e
00000100: b3f6 1c3d dd79 0c3e 38ac a5bd 436a 623d
00000110: 2833 f0bc c2c7 7e3d b10f 33be fc57 b9bd
00000120: 4f79 dbbb 763c 033e cf20 0fbe e9a6 26be
00000130: d5cf 083d 5cb4 cfbd c048 13be 5213 bb3d
00000140: 883d 2fbd 8385 783c 10b1 dcbc 8d67 e7bd
00000150: 2af5 d1bc 4811 b7bd 8290 0dbe 46c5 123e
00000160: a5d5 edb9 7a07 eabc b5b2 a0bb 0c4e c8bd
00000170: 93c1 0e3d 0b71 43bb 2a89 efbd 7a3b cf3d
00000180: 7c4b 75bd 91c9 043c d132 213c 43fa 80bd
00000190: 512a cabd 7229 12bd a979 0ebe 8397 1b39
000001a0: 346c e63d 2128 33bd 37fa 97bc 833f f5bd
000001b0: cd69 243e 55fe 3ebd 62f0 5b3d 2875 64bd
000001c0: ecdf acbd e61e 96bb ba22 67be 1eb7 b43d
000001d0: ad3c e7bd 00e6 683d 9a1d b3bd f12a 72bd
000001e0: e7c0 1a3e 60a4 383c 8262 20bd 5856 1a3e
000001f0: f02a 193e 812f 03be d808 2fbe 6343 e53c
00000200: 5f58 b5bd 5478 213d 060f 9a3d ee80 993c
00000210: 0536 57bd 4b45 aabd ae4b afbd 5ab9 29bb
00000220: f9f8 44bb cb87 d43c 1e7e 9d3c b0fe 7db9
00000230: 4563 1a3e dbcf 45bd 6494 263b ddfc dd3d
00000240: 0d64 f1bc 51ff 5e3d 2757 5e3d 3ad3 853d
00000250: 7c2f e7bd 69a1 8abc 5ec7 083c e56a f6bd
00000260: cc72 4cbd 39ac 003d 34fa 7d3d eb4f 3c3d
00000270: 4a20 1cbe 1dcc bfbc 13db c93d b784 26be
00000280: d413 cf3d 3e4f 3abd c3af c8bd 1f32 963d
00000290: 4457 8ebd 5dfc 1b3d cab4 cd3d ad32 493d
000002a0: 660f 223e 06eb 193e 22b9 14bd 17e0 32bd
000002b0: 3420 f4bd 0b9c a33d 1738 e93d 4744 94bd
000002c0: 3309 b5bd ce88 103e 863a a93d c3ce b5bd
000002d0: 2e4b 19bc dd97 cb3d 208d 453c f189 363d
000002e0: 904e 9b3d 3e86 5d3d 7371 14be daea b43d
000002f0: e999 f0bc d824 dc3d 4cb9 4a3d 982d 013d
00000300: 8da8 0c3d 0e48 6fbd 197f 5fbd 96f5 f839
00000310: 9116 b83d 7f5c 17bd 82cb 4ebd 0d0e a8bd
00000320: 2e16 ad3d ad59 e43d 633b 933b 61ad d63c
00000330: 4570 133e 7cc6 803c c0ca 143d c8f9 e63c
00000340: a9a6 c7bd 3798 263d 369d d73d ce2a ab3d
00000350: 1738 0b3e 0ce5 073e dadd ffbd 6631 b93d
00000360: 23a9 41bd e6bf 71bd 7b47 7dbd 4e3b d23d
00000370: 2592 793d 9e72 e13d 72f1 053e a303 f6bb
00000380: 3729 cb3c 4f2c 9cbc 3b6c 3b3d 1243 133e
00000390: 7485 bf3d de57 243e 55fa 113e 5a09 cc3d
000003a0: ff6f eebc 61e5 39bd b5ed cabd f8c8 aebd
000003b0: 86eb 883d 5516 abbd 8730 4f3c b520 c9bb
000003c0: 3d02 98bb a0af a23d b2c1 de3c 35c2 a83a
000003d0: 6325 4e3d 2a5b 853d a8d8 ccbc 9533 96bd
000003e0: e3ab 933e a5bd bf3c 9d1c 343e ce00 183c
000003f0: 926d 283e dbda c93a 6258 4abd 3648 373d
-0.111077204 0.020290844 0.0054811146 -0.0034463862 0.13567564 -0.087061 -0.11161814 -0.011888716
-0.06848647 0.11365762 0.09055984 -0.051399354 0.15484925 0.027206408 0.06953158 -0.06512297
-0.106811054 -0.074246034 0.15289916 0.015821328 0.022129903 0.06528197 0.03221309 0.13481101
-0.13439499 -0.058113053 0.11190178 0.025871722 0.18844226 -0.037355863 0.09951726 0.17067164
-0.07906418 0.08485669 0.09829452 0.08642674 0.23380943 0.10061629 0.09600533 -0.019095821
0.20499285 -0.0031990123 -0.03261288 0.008387616 0.16865502 0.06817932 0.103864245 -0.06970356
0.062870495 0.1384883 0.19588628 0.008967098 -0.08561242 -0.08577827 0.14840019 0.009934085
0.11183559 0.003740073 0.031183388 0.12405666 0.17669022 -0.013552968 -0.049843457 0.21151376
0.03832121 0.13718362 -0.08089489 0.05527712 -0.029321268 0.062202223 -0.17486455 -0.09049985
-0.0066978107 0.12816033 -0.13977359 -0.16274609 0.03340133 -0.10141823 -0.1438322 0.091345444
-0.04278329 0.01516855 -0.026939899 -0.112990476 -0.025629599 -0.08938843 -0.13824657 0.14333066
-0.0004536334 -0.028568018 -0.004904116 -0.09780511 0.034852576 -0.0029822018 -0.11696084 0.10118766
-0.05988644 0.008104698 0.009838776 -0.06297734 -0.098713525 -0.035684057 -0.13913597 0.00014838394
0.11251107 -0.04373944 -0.018551929 -0.119750045 0.16055985 -0.04662927 0.053696044 -0.05577579
-0.08441147 -0.00458132 -0.22571841 0.08823989 -0.1129087 0.05685997 -0.087458804 -0.059122983
0.15112649 0.011269659 -0.039156444 0.15072 0.14957786 -0.1281109 -0.17093217 0.027986234
-0.08854746 0.039421394 0.07522397 0.018738236 -0.05254175 -0.08313998 -0.08559357 -0.0025897832
-0.0030055626 0.025943657 0.019225176 -0.00024222839 0.15076931 -0.04829393 0.0025418038 0.108392455
-0.029466653 0.054442707 0.054282334 0.06534429 -0.11288354 -0.01692267 0.008348314 -0.12032107
-0.049914166 0.031414244 0.06200619 0.045974653 -0.15246692 -0.023412758 0.09856238 -0.16261564
0.10111204 -0.045485727 -0.09799149 0.073337786 -0.06950238 0.03808247 0.100442484 0.049120594
0.15826187 0.1503106 -0.03630937 -0.04367074 -0.11920205 0.07988747 0.113876514 -0.07239585
-0.08839645 0.14114687 0.082631156 -0.08877327 -0.009356303 0.09941075 0.012057573 0.044565145
0.07583344 0.0540831 -0.14496402 0.08833857 -0.029370265 0.10749215 0.04949312 0.031537622
0.03434043 -0.058418326 -0.05456457 0.00047485222 0.08988679 -0.036953446 -0.05048705 -0.08205805
0.08451496 0.11149917 0.0044931634 0.02620572 0.14398296 0.015719645 0.03632617 0.028195277
-0.09748585 0.040672507 0.105280325 0.08357774 0.13595615 0.13270968 -0.12493487 0.09042625
-0.047280442 -0.0590209 -0.061835747 0.10265218 0.06093039 0.110081896 0.13080385 -0.0075077577
0.024799926 -0.019064097 0.045757513 0.14381054 0.09351626 0.16049144 0.1425565 0.09962721
-0.029106138 -0.04538477 -0.0990862 -0.085344255 0.066855475 -0.08353869 0.012645847 -0.006137932
-0.0046389387 0.07943654 0.02719197 0.0012875261 0.050328624 0.06511529 -0.025005654 -0.07334057
0.28842077 0.02340586 0.1758904 0.009277536 0.16448048 0.0015400307 -0.049400695 0.0447466

main_network.fc.weight f4 [3, 64]
00000000: 5032 283d c622 37bd 9fd8 15bd a815 603d
00000010: 3ca1 4ebd e305 b5bc 110c d33d 5e68 a7bd
00000020: 3055 e3bc f09b 9b3c 230a 01bd 67b7 c03d
00000030: f324 b33d 991a 8c3d 6f26 813d cca7 eb3d
00000040: 9439 22bb d911 0f3e cc78 7d3c 0102 503d
00000050: 0da9 5ebd fccb afbd cacc 1d3e 065f 23bc
00000060: cbd2 0dbd d144 b63d 8147 253d 97ae 0e3d
00000070: 6c66 073e bf3c 19bd 51e1 6d3d b0da 93bd
00000080: c4c2 a33d 74d9 de3b ed50 ac3d 8f03 fd3d
00000090: 2cc8 1d3d 3730 db3c e614 023d 40ce 963c
000000a0: 6256 4fbd a09e 46bd fc7d 193d 7202 8fbd
000000b0: 64db e83d b3df 9e3d 99d4 0bbd 72c6 6a3c
000000c0: 5f98 3cbe 9cb8 683d 964d 9d3d c8cf 09bc
000000d0: b4c4 9f3b 06cb 233d 6177 7b3c db75 f03d
000000e0: 1de2 413b eec4 f03d db49 8fbd aa0f 0f3d
000000f0: e34a 0fbe facf a33d 3e21 603c fff3 57bd
00000100: 6cfa b93a 58c3 243e a50a 1c3d b1c7 43bd
00000110: ded1 45bc a70d 54bd 34d0 0d3e 0504 493a
00000120: e960 72bc 6f9e 3dbb 39f9 fe3d 038f 10bc
00000130: 8f64 bf3d 018e 433a 50fc 183d 2d4b e83b
00000140: 4c43 883b e024 f83d fae4 8d3c 6c40 f43d
00000150: 144b 71bc 4230 3dbc a523 6f3e ea23 8a3d
00000160: 5cf9 79bd 671b 973d 1b8f a13d 11a8 b93d
00000170: 9eff 2b3d a720 003d 3ec2 1e3e 9817 563c
00000180: 51c1 dabd 3fac 803d d206 f539 3485 453d
00000190: 7adf 00bc b38f 653d 2ab9 673b 89f1 0bbd
000001a0: 49a6 14be e79e e6bc 0128 23bd 26b9 8ebd
000001b0: 6a45 143d 24cf 2a3d 2151 3dbc 40f4 373d
000001c0: f93a 88bd c653 d5bd 83a1 4a3e 8f2c 0c3d
000001d0: 88e4 0fbe 435e 26be b4de 0a3d 8625 bf3d
000001e0: 7756 953d d341 b1bd e706 acbd 7aee f83c
000001f0: edb4 cebd e58a b4bc f56a 00be 9193 f5bc
00000200: f3c0 463c a935 133d 8237 06bd 46fa 41be
00000210: f03e 82bd 87c1 4f3e 9411 b2be b6cc f9bc
00000220: 61e1 f33c 38a7 5bbe 6e46 54be 1c67 493c
00000230: cb9b 5f3e 53bc 5fbe ac0b 5f3e 1244 403d
00000240: a53e 633d 8fad 3dbd 440e 8c3e 9d30 d8bd
00000250: 1a12 33be cc34 8abe 800c 11be 65fe 59be
00000260: 1da9 0b3e f90e 3fbe 1862 8abd 986b 503e
00000270: a327 27be 1c4b 8e3e ac45 9b3e 15a9 0cbd
00000280: fd8b c0bd 2229 203e 8087 bbbd 4518 d13c
00000290: e571 103d fcdf 833e 59b0 b03e 9ccd b33d
000002a0: 8e51 ea3d 9c51 103e 5aaa 61bd 07e1 123e
000002b0: 549e 74be 37d3 a83d 844f 233e b4eb 34be
000002c0: 8b98 5bbe 6738 253e d64b 84be 872f 41be
000002d0: faca 02be d022 4fbe 720f ef3c e395 d7bd
000002e0: 9855 983d f6ae 69be e107 7abd aaf4 403e
000002f0: 9871 2dbe 720f 4f3e 2c34 8bbc c5e7 3ebe
0.041063607 -0.044710897 -0.03658354 0.054708153 -0.050446734 -0.022097534 0.10305036 -0.08174203
-0.027750582 0.018995255 -0.031503808 0.09409981 0.08747282 0.068410106 0.06306159 0.11506614
-0.0024753558 0.13971652 0.015470695 0.05078316 -0.05436044 -0.08583829 0.15410152 -0.009971386
-0.034624856 0.088998444 0.040351395 0.03483447 0.13222665 -0.037411448 0.058076207 -0.07219446
0.07996133 0.006800825 0.08413873 0.123541944 0.038520977 0.026756389 0.03175821 0.018408895
-0.05061949 -0.04849112 0.037473664 -0.06982888 0.113699704 0.07757511 -0.034138296 0.01432954
-0.184175 0.056816682 0.07680814 -0.008411355 0.0048757438 0.03998854 0.015348286 0.11741229
0.0029584237 0.11756311 -0.06996509 0.034927048 -0.13993411 0.07998653 0.013679801 -0.052722927
0.0014189011 0.16090143 0.03809609 -0.047797862 -0.012073962 -0.051770832 0.13848954 0.00076681405
-0.014793613 -0.0028933545 0.12449879 -0.008823159 0.09345352 0.000745982 0.03735 0.00708904
0.004158413 0.12116408 0.017321099 0.1192635 -0.014727373 -0.01154715 0.23353441 0.06745131
-0.061028823 0.073782735 0.07888623 0.09065259 0.041991822 0.03128114 0.15503785 0.013067149
-0.106814034 0.06282853 0.00046735123 0.048222736 -0.007865781 0.056045245 0.003535817 -0.034165893
-0.14516558 -0.028151942 -0.039833073 -0.06968908 0.03619901 0.04170145 -0.011554987 0.04491067
-0.06651873 -0.10416369 0.19788174 0.034222182 -0.14052022 -0.16246895 0.033903793 0.09333329
0.072918825 -0.08655133 -0.08399754 0.030387152 -0.100931026 -0.022038886 -0.12540801 -0.029977592
0.012130964 0.035939846 -0.03276778 -0.18943128 -0.063596606 0.20288669 -0.34779036 -0.030493122
0.029770555 -0.21450508 -0.20729992 0.01229265 0.21836774 -0.21849184 0.21781796 0.046939917
0.055479664 -0.046308096 0.27354634 -0.10556147 -0.17487374 -0.26993406 -0.14164925 -0.2128845
0.1363873 -0.18658055 -0.06756991 0.20353544 -0.16323714 0.2779168 0.30326593 -0.034340937
-0.09401701 0.15640691 -0.09156704 0.025524268 0.03526487 0.25756824 0.34509543 0.08779451
0.114413366 0.14093632 -0.0550941 0.14343654 -0.23888522 0.08243411 0.15948302 -0.17668039
-0.2144491 0.16134797 -0.25839108 -0.18865786 -0.12772742 -0.20228124 0.02918217 -0.105266355
0.07438201 -0.22820649 -0.06104267 0.18843332 -0.16937864 0.20220736 -0.01699265 -0.186431

main_network.fc.bias f4 [3]
00000000: a0a7 8538 f85e f6bc 9794 e73d
6.373157e-05 -0.030074582 0.11307638

short_term_context_network.fc1.weight f4 [32, 7]
00000000: c931 bebe 425c 52be ccc9 c2bc 448b ba3d
00000010: e556 1bbe 6d4a 3a3e 1928 a6be c8c4 203f
00000020: 34cf 99bc cfd2 ab3e da83 f23d c9ed f83d
00000030: c770 ac3c 4c6f f8bd 7928 833c 504c acbe
00000040: eda7 e73d 7e08 b6be f970 263d 5f6f ffbd
00000050: 792f 753d c8fb f7bd dd8a 1cbd e797 81bd
00000060: 9447 5dbe c83b fd3e 7b26 1f3f e722 27be
00000070: 4326 f93e 8b51 1f3e f5bd 843e 93a9 17be
00000080: 88a8 993e ba51 6abd 0ae2 5fbe 9be1 aa3a
00000090: bef1 10be 9ddb 8e3e 9c2f a73e a949 903e
000000a0: 590e b13d e704 e3bd aa6d 35be 5699 343e
000000b0: e161 47be d458 82bd 59b1 8d3e 1da9 af3e
000000c0: 1132 a8bd 25fb a9be 84f8 91be b5dd 8e3e
000000d0: db6a a5bd c773 b93d 2db1 b8be 8fc7 203f
000000e0: 3330 2cbd f060 d93d e590 a73e 57f4 983d
000000f0: 9931 f3bd c04d 90bd 3489 7dbe 33b3 92bd
00000100: 14e2 0cbe 5230 ab3c d382 653e 357b 313e
00000110: c84d 8ebe b947 e6be cf9d 66be a593 953e
00000120: fd7b 8ebe d226 a2be b296 083f 4da4 f03f
00000130: 9029 603e ecd2 b0be 338e 81be e04a 7f3e
00000140: da96 a4be 137a b1bd 58fe 69bd f063 0b3f
00000150: d648 213f 3844 883e 2ddc 4c3e a443 82be
00000160: 117a 38bf af63 70bf 4f0f 083f 10ad b1be
00000170: 3e2b ddbd 581b 80be cf1b bcbe 27b3 ebbe
00000180: a289 e7be 406d 113f 525a bfbd e3e5 87be
00000190: 3671 4abd 6846 38bd 7576 4239 9397 afbe
000001a0: 6bb4 b9be b42e 6bbe 32ca 293e 13c8 77bc
000001b0: ae9e c0be 2733 a8be 515b 92be 8d94 53be
000001c0: 4511 3dbd 35b0 ba3e 6851 8b3e 7ca2 973e
000001d0: e3b4 c23e 660f b43e 1e0c 3bbc fc0a 57be
000001e0: a8de d7bc 176e a33e c004 4b3e fa5e f6bd
000001f0: ca2d 283d f4c5 b4be 7bc4 a4bd 4b49 863e
00000200: 60f6 99be cc02 0abc 6ae5 e4bd 8a62 2b3d
00000210: e151 59be dba1 3a3f 5d76 54be 5939 99be
00000220: 9f4c 473d adf7 49bf 033b 19be d46b fa3e
00000230: de3b 55be 90a7 01bd 837e b0bd ab0e a8be
00000240: 12d5 0d3e 83be 60be f095 043d b7fd a2be
00000250: 2c91 c83d a862 973d 6af4 3d3e 126d 1c40
00000260: 670a 93bd bef7 e53e 5d15 80bd 16b0 553e
00000270: 4a3a d2bd bb42 143e f462 0cbe c135 4d3d
00000280: b18d 683e 14d0 473e fbf0 b1be 2445 97be
00000290: c495 9fbe 30fb 0c3d 9a32 b73e 3e12 9a3e
000002a0: 41fa 42be e88d bd3e 3af4 62bd c8f4 9abe
000002b0: 75ee 853e 5bec b2be 528d c73e cdf7 4a3e
000002c0: 6910 b93e e380 663e f9c2 953e 7416 223f
000002d0: 083a 3d3f 9d8f 41bf 366b 90be a21a cbbd
000002e0: 6222 b9bc 2240 96be 8782 6c3e c3a9 973d
000002f0: bec4 2d3f 5758 cebe 7062 93be e426 10be
00000300: 17ec ad3e cbcd 283e b42e 0bbe 68f7 083f
00000310: cba8 fe3d 9780 abbd b529 e7bc 324e a53e
00000320: 7f51 043e 6d09 1b3e ce15 4d3e ff48 5fbe
00000330: 5594 98be f364 353d 52ef 0bbe f500 5c3e
00000340: e0c7 2a3f 2a61 443e 8c3c 82be 7ea1 01be
00000350: 762a ab3c 4f8d 84be daf2 21be 6dae 023e
00000360: b1ca a4bc 0c21 38be 4d4a 9cbe c3c9 a9be
00000370: 865e a2be f398 88bd 2fce ffbd 276f 0dbe
-0.37147358 -0.20543006 -0.023777865 0.09108594 -0.15169866 0.18192454 -0.32452467 0.62800264
-0.01877556 0.33559272 0.11841555 0.12154729 0.02104987 -0.12130603 0.01601051 -0.33651972
0.11311326 -0.35553354 0.040635083 -0.12472414 0.059859727 -0.1210857 -0.038218368 -0.06327801
-0.21609336 0.49459672 0.6216809 -0.16321908 0.48662004 0.1555845 0.25926176 -0.14810781
0.30011392 -0.057206847 -0.21863571 0.0013037206 -0.14154717 0.27901927 0.3265351 0.28181198
0.08645315 -0.110849194 -0.17717615 0.17636618 -0.19470932 -0.06364599 0.27674368 0.3430871
-0.082126744 -0.3319942 -0.28509915 0.27903524 -0.08077022 0.09055286 -0.36072674 0.628045
-0.042038154 0.106141925 0.32727733 0.07468479 -0.118746944 -0.0704608 -0.2475937 -0.07163086
-0.13758117 0.020897064 0.22413187 0.17332156 -0.27793717 -0.44976595 -0.22521137 0.29214206
-0.2782897 -0.31670243 0.5335494 1.8800141 0.21890855 -0.3453592 -0.25303802 0.24930906
-0.3214634 -0.08665862 -0.057127327 0.5444937 0.63001764 0.26614547 0.20005865 -0.2544223
-0.7206126 -0.93902105 0.5314836 -0.3470235 -0.107992634 -0.25020862 -0.36739966 -0.4603512
-0.45222193 0.5680733 -0.09343399 -0.26542577 -0.049424373 -0.04498902 0.0001854541 -0.3429533
-0.3627046 -0.22967035 0.16581038 -0.015123385 -0.37621063 -0.32851526 -0.28585294 -0.20662136
-0.046159048 0.3646256 0.27210546 0.29616153 0.3802863 0.35167998 -0.011416463 -0.21000284
-0.026351288 0.3191993 0.1982603 -0.12029834 0.041059293 -0.35307276 -0.08045288 0.26227793
-0.30070782 -0.008423518 -0.1117657 0.04184202 -0.2122264 0.7290322 -0.20748277 -0.29926565
0.048657056 -0.7889355 -0.14963917 0.4891039 -0.20823619 -0.03165394 -0.0861788 -0.3282369
0.13850811 -0.21947674 0.032369554 -0.31834194 0.09793314 0.07391864 0.18550268 2.4441571
-0.071797185 0.44915575 -0.06254075 0.20867953 -0.10265024 0.1447858 -0.13709623 0.05010009
0.22710301 0.1951297 -0.34754166 -0.29544938 -0.3116895 0.03441924 0.35780793 0.30092043
-0.19040777 0.37022328 -0.055408694 -0.30264878 0.2615849 -0.3494595 0.38975006 0.19821091
0.36145332 0.22510104 0.29250315 0.6331551 0.73916674 -0.7560976 -0.28206795 -0.09917189
-0.022599403 -0.29345804 0.23096667 0.07405426 0.6787833 -0.40301773 -0.2878604 -0.14077336
0.33969185 0.16484754 -0.13592035 0.5350251 0.124345385 -0.08374136 -0.02821813 0.3228622
0.12921713 0.15140314 0.20027849 -0.2180519 -0.29800668 0.044285726 -0.13665512 0.2148474
0.66711235 0.1917769 -0.2543682 -0.1265926 0.02089427 -0.2588906 -0.15815297 0.1276185
-0.020116182 -0.17981356 -0.30525437 -0.33161744 -0.3171274 -0.06669798 -0.12490498 -0.13811933

short_term_context_network.fc1.bias f4 [32]
00000000: 1827 a13d be3b 193d abbf b9be 0ac6 063f
00000010: e1bd d63d 1c65 bbbe ca18 1d3f 5262 bc3e
00000020: acc9 bbbe 043b 823e c9d7 e93e 85b0 fb3e
00000030: 98ae 8fbd 762c f23e 0146 23be f8e6 a2bd
00000040: a425 f63e cb77 a4be f6aa 60be 9d90 acbe
00000050: b5a3 173f b280 013f d522 69be c0fe 893e
00000060: a6d4 393e de48 253e 7a72 2b3e 638d 2c3f
00000070: c161 053f 02bd ec3e 7edf a0be 183a a83c
0.07868785 0.03741049 -0.36279044 0.52645934 0.10485435 -0.36600578 0.6136595 0.36793762
-0.366773 0.2543565 0.45672444 0.4915811 -0.07015723 0.47299546 -0.15944673 -0.0795421
0.48075593 -0.32122645 -0.21940216 -0.3370408 0.5923417 0.50587 -0.22767194 0.2695217
0.18147525 0.16141078 0.16742888 0.6740324 0.52102286 0.46237952 -0.3142051 0.020535514

short_term_context_network.fc2.weight f4 [16, 32]
00000000: cf4a 01bd b03b b5bd 90eb 26be 8ed6 c63e
00000010: 753b c83d 5606 5c3d d5e0 123e 9f5d ec3e
00000020: a767 47bd b394 193e c5c5 093f 2310 0c3f
00000030: 52a1 8ebe 26df e93e f7be 293e b1ae 123e
00000040: 10c8 253e ae8c 0d3d 214f f83d d96e 42be
00000050: 7b3b 353e efc6 eb3e 482b 2cbe 8ba6 6f3e
00000060: 57b6 a63e b47d c63e f6e7 103f 4f5b 033f
00000070: 6911 d23e db95 5e3e 0d21 0b3e 31a3 043e
00000080: fb36 063d 8d9d 6abd 3b5d 13bd 79da 3abe
00000090: 13fe 003e e833 893d 21ed a7bc 2448 22bd
000000a0: 349e 203e 5ece 7a3d f60b 383d 55df d23c
000000b0: 18c4 1cbe 5224 32be 16ee dd3c b94a 293e
000000c0: 6763 ef3d 824b 07be 6cc5 40bc b7ce 143e
000000d0: fdc3 dabd b34a 0f3e 9813 433d 3658 79bc
000000e0: 6ef0 133e 9063 d3bd 6c4a 213e 6c92 d4bd
000000f0: 0df1 22bd 0147 35bd dbb2 d43d 8dd0 04be
00000100: f784 353c 565a 30be 4734 cf3d e9ba bb3f
00000110: fea3 9dbd 1980 ce3d 5468 8d3f 286c af3f
00000120: 27f4 d8bd 31ff debc a645 da3f 1502 bf3f
00000130: 13a4 b3bd 30ce d23f e7f5 f9bd a1f5 afbd
00000140: d925 233f 4566 09be 2cbd dbbc c267 8fbe
00000150: 9ddb a43f 30bd b93f a838 ddbd 068f 823e
00000160: b303 c03f b69f 053f f41f b23f 1a4e da3f
00000170: 4832 6f3e 624b b63f 691c 8cbd 47d6 453d
00000180: 45d4 bdbd 7953 8f3f 036a 8dbd b1fa 5cbf
00000190: ca1a 7d3f 513f ff3d 6ceb 15bf 1787 f1bf
000001a0: 56be 2b3e 80dc 0bbf 8958 adbf 8ea0 d5bf
000001b0: 2b27 643f 1843 d4bf f415 a2bd 37f9 67bc
000001c0: 660a 55be 6b83 e4bd d8e2 de3d 744a 953f
000001d0: 24fb 68bf 50a5 a6bf 8218 5abd 644b 043f
000001e0: 51fd b6bf 4040 57bf 452a fdbf 4b5a c8bf
000001f0: 086a 853e 8605 c3bf 3b4a 0dbe e25f ec3d
00000200: 7721 813d c2f8 ce3b d089 8c3d 483b fcbd
00000210: 41a0 763e abcd 373d 3249 30bd f956 763d
00000220: ddea 203e 95a7 143e 8f2e 2abe 0904 24be
00000230: c4ec 16be 6ae1 1abe bc0a e0bd 5c71 f43c
00000240: 4b4e 79be 41d2 673d 7e3d 233e 92b9 dcbd
00000250: 206e b2bc 3167 813c 37ce 333e 8176 acbd
00000260: d49e 2d3d e779 893d b25b 8fbe 3119 1bbe
00000270: 119d 15bd 2b1c 9abc b4b0 843c 3910 e6bd
00000280: 9443 b53e 9158 a63e 170b 18be b531 1e3f
00000290: 24b6 a93e dbe1 b7bd 17a5 763e a8c8 4f3f
000002a0: 82a2 8e3c f369 6a3e 1512 713f 7211 473f
000002b0: 603c c9be 2a26 6c3f df25 57bc ec81 6dbd
000002c0: 6bbb e33e 9e50 e0bd 3806 b13d cd5a 07bf
000002d0: bcd4 1c3f 704c 653f 9de6 db3d f9d5 8f3e
000002e0: 5f51 493f a433 f03e 621f 7f3f 3c18 ca3e
000002f0: 8079 1f3e 84f2 233f 444d 29be fce1 eebc
00000300: c7cc 943e ec1a b13e b2ed b13d 913b a43d
00000310: 9526 71bd 7bca e03d ff6b a7bd 678c f8be
00000320: fa40 a83d 89e0 e53c 3a88 c5be 355e 31bf
00000330: 4c0a f83e 2d7d 95be 02c2 223e 7910 123e
00000340: 9096 0dbd 6720 2c3e 1cc2 c43d 9c7a d23e
00000350: 3274 86be 1e2e c6be ca47 233e 2c07 8c3d
00000360: ac4f 3cbd c2c8 53be 72c3 97be 77b8 8bbd
00000370: 0535 373e 01ff 9e3d 4252 273e d951 8d3d
00000380: 671e b23d ced1 c6bd 04f7 8abd 0385 923e
00000390: 1a1a 02be a6b9 ee3d 24a6 d13e 1317 1c3f
000003a0: 3ec9 733c 410b 1f3e dc1b 203f ccdb e93e
000003b0: e2a2 3dbe dc5f 863e 7e5b b53d e1bf 333e
000003c0: 9d94 7c3e 1559 1b3e 3ab1 903d 7786 85bd
000003d0: a6cb c13e 7238 d83e dbd0 b23d 61ad 5a3e
000003e0: 1c7e 1d3f 5f87 d23e f616 213f 60cc 833e
000003f0: 7726 b43e 76ba f63d ae89 2a3e 4ae2 cf3d
-0.031565484 -0.08849275 -0.16300797 0.38835567 0.097769655 0.05371698 0.14343579 0.46165177
-0.048682835 0.1499813 0.538174 0.5471212 -0.27857453 0.4567806 0.16576754 0.14324452
0.16189599 0.03455799 0.12124468 -0.18987598 0.17698471 0.46050212 -0.16813385 0.23403375
0.3256099 0.3876778 0.56603944 0.513112 0.41028908 0.21736853 0.13586827 0.12952878
0.032767277 -0.05727916 -0.035977583 -0.18247403 0.12596922 0.066993535 -0.020498814 -0.03961958
0.1568535 0.061231963 0.04493328 0.025741259 -0.15309179 -0.17396668 0.027091067 0.1653241
0.11688881 -0.13212398 -0.011765819 0.1453198 -0.10681913 0.13993339 0.047626108 -0.015218785
0.14447185 -0.103217244 0.15751046 -0.1037949 -0.039780665 -0.044257168 0.103856765 -0.12970181
0.011079065 -0.1722196 0.10117393 1.4666415 -0.07697295 0.100830264 1.1047463 1.3704882
-0.10593443 -0.027221294 1.7052505 1.492251 -0.08771529 1.6469173 -0.12205105 -0.08591772
0.63729626 -0.13417919 -0.026823603 -0.28008848 1.2879521 1.451086 -0.10801822 0.25499743
1.5001129 0.52196825 1.3916001 1.7055085 0.23359025 1.4241755 -0.06841356 0.048300054
-0.09269003 1.1197349 -0.06904986 -0.86320025 0.98869 0.124632485 -0.5856235 -1.8869351
0.16771826 -0.5463333 -1.3542644 -1.6689622 0.89122266 -1.6582975 -0.079143435 -0.014158539
-0.20804748 -0.111578785 0.10883111 1.1663346 -0.9100821 -1.3019199 -0.05324603 0.51677537
-1.4296056 -0.8408241 -1.9778525 -1.5652555 0.26057458 -1.5236061 -0.13797848 0.11541726
0.06305211 0.0063162753 0.06862223 -0.123159945 0.2408457 0.044873875 -0.043038554 0.060141537
0.15714593 0.14517052 -0.16619323 -0.16017164 -0.14738756 -0.15125051 -0.109395474 0.02983921
-0.24346273 0.056596998 0.15941426 -0.10777582 -0.021781027 0.015796276 0.17559133 -0.0842104
0.0423878 0.06712704 -0.27999645 -0.15146329 -0.036526743 -0.01881226 0.01619754 -0.11233563
0.3540312 0.32489446 -0.1484798 0.61794597 0.33146775 -0.089786254 0.24086414 0.8116555
0.017411474 0.22891979 0.94168216 0.77760994 -0.39303875 0.92245734 -0.013131588 -0.05798523
0.44478926 -0.109528765 0.08643764 -0.52872926 0.61262107 0.8956976 0.10737345 0.28092936
0.7863979 0.469144 0.9965726 0.39471614 0.15573692 0.64041924 -0.16533381 -0.029160492
0.29062483 0.34590852 0.08687915 0.08019174 -0.058874685 0.1097612 -0.081748955 -0.48544618
0.08215518 0.028061168 -0.38580495 -0.69284374 0.48445356 -0.29197064 0.1589432 0.14264096
-0.034567416 0.16809236 0.09607336 0.4110917 -0.26260525 -0.3870706 0.15945354 0.068373054
-0.04597442 -0.20682052 -0.296413 -0.06822293 0.17891319 0.07763482 0.16339973 0.06900377
0.08697205 -0.09707986 -0.06785396 0.28617105 -0.1270527 0.116565034 0.40947068 0.6097271
0.014879523 0.15531637 0.6254251 0.45675504 -0.18519166 0.2624501 0.088553414 0.17553665
0.24666066 0.15170701 0.07065053 -0.06519788 0.37850684 0.42230564 0.08731242 0.21355201
0.6152055 0.41118905 0.6292566 0.25741863 0.35185596 0.12047283 0.16654083 0.10150583

short_term_context_network.fc2.bias f4 [16]
00000000: b455 8d3e 6b79 0abe 963f 033f ef35 f93e
00000010: 4dbf 873d e606 e93e f9f6 ab3d e760 6f3d
00000020: 640b 263e d0b7 7b3e 81ed fa3c 7f07 963d
00000030: 0b0c af3e 83a5 213d 63aa 6cbd 8a2d 5c39
0.2760445 -0.1352288 0.512689 0.4867396 0.066282846 0.45513076 0.08396716 0.058442023
0.16215283 0.24581838 0.030630829 0.073256485 0.34188876 0.039464485 -0.05777968 0.000209978

short_term_context_network.fc3.weight f4 [1, 16]
00000000: 447f 003f 067c 9cbd e4e6 1c40 439f c3bf
00000010: da4f 9cbc 6a9c 023f fdc4 adbe 930f 3e3f
00000020: 9cf3 543f a4ee 313f c959 6abe d555 2d3f
00000030: a5fa d53e a920 f9bc a0b6 e2bd adc6 0dbe
0.5019419 -0.07640843 2.4515924 -1.5282978 -0.019081045 0.5101992 -0.33939353 0.74242514
0.8318422 0.6950476 -0.22885813 0.67709094 0.4179279 -0.030411081 -0.11069989 -0.1384532
