Uni_Research/IRL/Final/Extended/old/V3/V3_demo1/Testing_Suite/model_C1000_R1000_S100.0.pth (torch, 91353 bytes, 11 tensors)

main_network.lstm.weight_ih_l0 f4 [256, 15]
000000 be 3f 9f bd 2a 97 94 3d 6e aa 5d bd 74 49 35 3d
       -0.0777583 0.07255395 -0.054117613 0.044259503
000010 1c 65 92 3b e2 94 96 bb 6e b3 96 bd 69 6e 8d 3c
       0.0044676196 -0.004595385 -0.07358442 0.017264562
000020 8b d0 d4 3d b0 ea 90 3d 07 e0 e1 3b dc 81 82 bd
       0.10391339 0.07076013 0.006893161 -0.06372425
000030 c7 a1 b9 bd bb de 0a 3d e9 f7 2a be 45 ce a6 bc
       -0.0906406 0.03390382 -0.16696133 -0.020362029
000040 69 a9 cd 3b 84 ba 42 be 57 54 13 3e 0e 98 c9 bc
       0.006276299 -0.19016463 0.14387642 -0.024608638
000050 17 56 8d bd 81 65 da 3c 29 30 75 bd ab c0 5e bd
       -0.06901186 0.026659729 -0.059860382 -0.05438296
000060 7e 36 3a 3d 9e ab 8e bd dd 1e 0a 3d be 3d 2a 3d
       0.045462124 -0.06966327 0.03372084 0.04156279
000070 93 62 2a bd c8 5c ad bd 6e 71 0f 3e 85 02 3a 3d
       -0.041597914 -0.08464962 0.14008114 0.04541256
000080 ce 67 c4 3c 5f 01 da 3e 87 f6 01 3e b8 26 bf 3b
       0.02397528 0.4257917 0.12691699 0.005833473
000090 b3 97 0f be 37 c3 1c 3d 59 68 44 3e 78 b4 09 bc
       -0.14022712 0.03827211 0.1918043 -0.0084048435
0000a0 3e ff 38 bd 30 70 1d 3e 73 c3 3b 3d 42 07 73 3e
       -0.045165293 0.15374827 0.04584069 0.23733237
0000b0 c5 8f bc bc b3 7e 1c be 12 25 17 be 24 bd d8 bb
       -0.023017773 -0.15282707 -0.14760235 -0.006614344
0000c0 08 69 47 3e 80 15 5b be 97 9d 34 bc 81 ba 03 be
       0.1947366 -0.2139492 -0.0110239005 -0.12864114
0000d0 78 7e 2a be 8d a3 62 bd 32 74 22 be f6 9c 56 be
       -0.16649806 -0.055331755 -0.15864637 -0.20958313
0000e0 05 e5 25 bd c0 62 7c be 02 7b 99 bd 64 ba b1 bd
       -0.040501613 -0.24647045 -0.07494165 -0.08678129
0000f0 b9 c9 77 be 0e 4d 8f be 31 8b 50 be d7 9d bf 3c
       -0.24198045 -0.27988476 -0.20365597 0.023390694
000100 4c eb 29 be d3 46 02 3c d7 20 05 be 21 74 14 be
       -0.16593665 0.007951456 -0.13000809 -0.14497425
000110 7d a3 51 be 47 4f 21 be 68 85 39 be f7 f1 05 be
       -0.20472522 -0.15752898 -0.18117297 -0.13080584
000120 4c f1 17 be 4e 11 22 be 9d 0e 33 be 42 e5 53 be
       -0.14838141 -0.15826914 -0.17486043 -0.20692924
000130 de 81 7f be b8 82 82 3d e6 ee 36 3e fa 9f 92 be
       -0.24951884 0.06372589 0.1786457 -0.28637677
000140 1e 2c 21 bd 77 26 4b be 28 b8 d2 bd 98 07 e1 bd
       -0.039348714 -0.19838892 -0.10289031 -0.109877765
000150 bc 67 45 3d 77 34 c9 bd fb 24 15 be 15 bf 3f bd
       0.048194632 -0.0982446 -0.14564888 -0.04681309
000160 ee 75 d9 bd dc dd 3e bd ad 76 23 3c c8 8e 37 3e
       -0.106181964 -0.0465983 0.009977025 0.1792556
000170 60 68 09 3d 41 a5 98 bd c4 78 32 3e c1 e1 26 3d
       0.033546805 -0.07453395 0.17428881 0.04074264
000180 c2 6b 1b 3d 60 3e c5 bd 0f 2e 65 3e 55 ee 6a be
       0.037944563 -0.09631038 0.22380851 -0.22942479
000190 15 64 ba bd 63 a3 1d 3e dc 55 0d bd 84 cc 22 3e
       -0.091011204 0.15394358 -0.03450571 0.15898329
0001a0 b5 e2 76 3d e3 45 b0 3d 63 20 82 3d 23 e2 01 3e
       0.0602748 0.0860708 0.063538335 0.1268392
0001b0 28 62 c6 bd 65 93 1c 3e 66 39 50 bd 8a a3 8d bd
       -0.096866906 0.15290602 -0.05083599 -0.06915958
0001c0 9a 7c d0 3d 52 ab c4 3d 30 b7 70 bd cd 33 02 be
       0.10180016 0.09602989 -0.05876845 -0.12715073
0001d0 b2 65 4f be 5b 01 d7 3d 8e 7a 01 bd a2 51 16 be
       -0.20253637 0.104983054 -0.031611018 -0.14679578
0001e0 46 ad 28 3d a4 3a 6f bd 94 c8 b2 bc 5d c6 db 3d
       0.04118087 -0.058405533 -0.021824159 0.10731194
0001f0 cc bc 7e 3d 08 f7 5b bd 13 70 f9 bd a2 ca 99 bd
       0.06219177 -0.053702384 -0.121795796 -0.07509352
000200 78 07 03 3c c2 f0 c3 bd a1 9f 11 bd 00 f9 9a bd
       0.007997386 -0.09567405 -0.035552625 -0.07567024
000210 35 93 02 be d2 3e d1 bc fb 6f 78 3d 03 be 99 bd
       -0.12751468 -0.02554265 0.060653668 -0.07506945
000220 8f 0b 06 3d 86 55 07 bd 39 31 e2 3d 0c ef 22 be
       0.032725867 -0.033040546 0.11044545 -0.15911502
000230 c6 f8 e1 bd 8b 06 c1 3d 65 a7 27 bd cf 2d 2f bd
       -0.11033778 0.09425076 -0.040931124 -0.042768296
000240 4c 21 87 bc e2 b0 08 be 0f fd a5 3d 80 dc 17 bc
       -0.01649537 -0.13348725 0.08104908 -0.00926888
000250 d5 01 92 bd d6 8e 2a be c7 7c 1a bd 31 02 0f bd
       -0.07129256 -0.1665605 -0.037716653 -0.0349142
000260 aa f1 e3 bc a6 1d 23 3e 9e 3e 21 bd fb b4 93 3d
       -0.027825195 0.15929279 -0.039366357 0.07212254
000270 46 1d 8f 3d 68 6e 2a 3e 79 6c a7 bd 95 9a 30 3d
       0.06988005 0.16643679 -0.081749864 0.04311617
000280 b0 bd 3d bd a0 aa ce bd b6 7d b3 3d 31 5d d8 3d
       -0.04632348 -0.10091138 0.08764212 0.1056465
000290 69 a9 bc 3d 35 5b fb 3b 27 0d f2 bc 3e 98 c1 3d
       0.09212 0.007670785 -0.029547287 0.09452866
0002a0 c8 8b b0 3e 20 51 18 bb 23 8a f2 bc ab db b4 3d
       0.34481645 -0.0023241714 -0.029606884 0.08830961
0002b0 3a 88 d4 3c 88 12 19 bd b3 f7 c8 3d 7f 1b 83 3c
       0.025943864 -0.03737119 0.0981287 0.016004322
0002c0 0b ba 43 3e e8 e9 09 3c df 9c ad 3e 85 a7 87 bd
       0.19113939 0.008417584 0.33908746 -0.06623749
0002d0 09 e0 9a 3b 6e b6 3e 3d 09 64 b9 3d c0 dc 96 3e
       0.004726414 0.046560697 0.09052283 0.29465294
0002e0 66 a3 a8 3d db 6f f3 3c 13 31 a6 3d db 5f dd bc
       0.08234291 0.029716423 0.08114829 -0.027023247
0002f0 d9 7a 46 bd 2e 86 d5 3d dc bc 98 bd 14 a7 fe bd
       -0.048457 0.10425983 -0.07457897 -0.124342114
000300 b7 c4 46 3d cc 58 e7 3d b9 33 58 3d 03 1e 0e be
       0.048527446 0.112962335 0.0527837 -0.13878636
000310 c2 95 51 be 33 fa 0a bd ce ed 97 3e f4 e3 39 bd
       -0.20467284 -0.033930015 0.29673618 -0.04538341
000320 de 72 22 be e8 ba 04 be 75 7a 07 bc ba 2a 0b be
       -0.15864131 -0.12961924 -0.008268942 -0.13590518
000330 8b b8 b7 bb 16 c0 8d 3d cd b0 e5 bd 01 81 b2 bb
       -0.005606716 0.06921403 -0.11215363 -0.0054475074
000340 30 02 0c 3e cb 9b 5a bc 07 47 95 bd ac 4f fc bd
       0.1367271 -0.013342808 -0.07288938 -0.12319884
000350 64 ec 93 3a 47 03 cf 3d bf 5d eb 3d 91 c3 df bd
       0.001128566 0.10108047 0.1149249 -0.10925973
000360 ec 15 9e bc da b3 bf bc c5 38 29 be b8 5c d4 3d
       -0.019297563 -0.02340119 -0.16525562 0.10369247
000370 77 0b 31 be e2 49 25 be 3a 80 f6 bd 35 bf e2 bd
       -0.1728953 -0.16141465 -0.12036176 -0.11071626
000380 e9 7e 32 bd b4 8d a9 3d 4c f0 76 bd b0 d7 a3 3c
       -0.043578062 0.08278981 -0.06028776 0.020000309
000390 d1 58 74 3e cd da f8 3d 6c f7 c3 bd fb 5a 3c 3e
       0.23862006 0.12151108 -0.09568676 0.18394081
0003a0 10 c8 20 be a3 f6 12 be 35 78 1a 3e f4 65 85 3d
       -0.15701318 -0.14351897 0.15084918 0.06513587
0003b0 98 b5 14 be 4d 75 06 3d 7e 61 bd 3d 3c aa 69 3c
       -0.14522398 0.03282671 0.09247111 0.014261778
0003c0 7f ef ed bd 01 96 34 bc fb d1 3a be f3 d0 93 bd
       -0.11617946 -0.011022092 -0.18244164 -0.07217588
0003d0 0f bb 13 bc 6c 40 19 bd 89 5c 79 bd 0f f8 75 3c
       -0.009016766 -0.037414953 -0.060879264 0.015012755
0003e0 f3 6a 2f bd b8 bc bf bd 5a 1a 23 bd ec b7 a4 bc
       -0.042826604 -0.09362167 -0.039820053 -0.020107232
0003f0 ce dd 0d bd ff 07 ae 3d d2 3f 44 bd 7d 7b 65 3d
       -0.034635358 0.08497619 -0.047912426 0.05602597

main_network.lstm.weight_hh_l0 f4 [256, 64]
000000 b8 d2 fb bd 69 02 ea bc 1a 94 47 be fe e6 b4 3d
       -0.12296051 -0.028565602 -0.1949009 0.08833121
000010 de 65 25 3d 5e 90 0c bd e4 64 15 3e bc 2e 38 be
       0.04038035 -0.034317367 0.14589268 -0.17986578
000020 de 05 7e bd 1e 6a c8 bd 4c fa c5 bc 9b 78 ad 3d
       -0.062017314 -0.09785865 -0.024167202 0.08470269
000030 7b 04 22 3c e0 53 03 3e 0a 6f f0 3c b7 dc c5 bc
       0.009888764 0.12824965 0.029349823 -0.024153097
000040 ce 0b 68 bd 6a 30 7c 3d 97 e3 af 3d cf 58 42 bd
       -0.056651883 0.06156961 0.08588331 -0.047447976
000050 e1 53 29 bd 0e 0a 3d bd e4 bc 1a 3d cf f8 76 3c
       -0.04133976 -0.046152167 0.037777796 0.015073969
000060 12 1c 99 bd 6f da 34 be bf 79 11 3e 52 7b 27 bd
       -0.07476057 -0.17661451 0.14206599 -0.04088909
000070 77 3d be 3e 19 3f f8 bb f0 53 87 3c 67 0d 11 be
       0.3715627 -0.007575881 0.016519517 -0.14165269
000080 6c a1 62 bd bc ca 9d bc ed a8 46 bd f9 c8 ff bc
       -0.055329725 -0.01926171 -0.048500944 -0.03122376
000090 28 fa eb 3d 52 4a a8 3d 9e 7d c9 bd b7 20 8b 3e
       0.11522323 0.082173005 -0.09838413 0.27173397
0000a0 b3 a4 7d bd 5f 19 d8 3d f4 0b 57 bd 38 4b 9b bd
       -0.061924648 0.10551714 -0.052501634 -0.07582706
0000b0 3d 10 8b bd b1 55 25 3e 3b 79 1f 3d b9 77 5f 3e
       -0.067902066 0.1614597 0.038933974 0.21823014
0000c0 55 47 da 3b b2 a5 32 3d 29 cc 61 3d 77 18 a3 bc
       0.0066613355 0.04361505 0.055126343 -0.019909127
0000d0 06 75 28 3e 0f 42 a8 3d 77 9b 94 bd 5e 82 63 3d
       0.16450891 0.08215725 -0.07256215 0.05554425
0000e0 d5 9b f2 bc 33 36 9b 3d 06 85 05 3e 9d 40 16 be
       -0.029615322 0.07578697 0.13039026 -0.14673086
0000f0 3d 83 2f bd d9 83 23 3d bb f2 ff 3d 12 ee b8 3c
       -0.042849768 0.03992066 0.12497469 0.022574458
000100 aa 97 80 3d cc 95 87 bc d6 91 29 bd 03 0a 4e bd
       0.062789276 -0.01655092 -0.041398846 -0.050302517
000110 2d e6 16 3e 35 5b 46 3d b6 2f 55 3e 71 7b b7 bd
       0.14736243 0.048426826 0.20818982 -0.089590915
000120 d8 04 14 bd 70 51 10 3d 94 2c 8b 3b 4b 00 de bc
       -0.03613743 0.035233915 0.0042472575 -0.02709975
000130 4b ef 24 3d b6 5e 4f 3d e0 e7 17 be f9 26 a7 3c
       0.04026727 0.050627433 -0.14834547 0.020404326
000140 be 24 08 bd 2d f3 5b bc c0 bb bb ba 10 db 7a be
       -0.033238165 -0.013424677 -0.0014322922 -0.24497628
000150 27 e0 4d 3d 6f fc 17 bd c0 c7 07 be 81 40 2c bd
       0.050262596 -0.037105974 -0.13259792 -0.042053703
000160 b0 40 ef bc ad f8 99 3d 78 64 98 bb 82 d2 22 be
       -0.02920565 0.07518134 -0.0046506487 -0.15900615
000170 c3 48 16 3e f3 b0 ea bd e5 cc 99 bd a8 fa 98 bd
       0.14676194 -0.11459532 -0.07509784 -0.07469684
000180 8d b4 0e bd 62 62 1e 3e 07 aa 72 bd c6 31 2b 3d
       -0.034840155 0.15467218 -0.059244182 0.041795515
000190 51 4d 9b 3d 63 26 c8 3c 7b 95 f8 bd fe 79 f1 bc
       0.07583106 0.024432367 -0.12137886 -0.029477116
0001a0 46 8c 80 3d fb 30 a9 3c 98 a7 0c 3e 7b 0c f6 3d
       0.06276755 0.020653239 0.13735807 0.12014099
0001b0 4c e9 50 be a2 26 ca bd bc 22 fb bc 4f a0 31 3c
       -0.20401496 -0.0987065 -0.030656211 0.010841443
0001c0 a4 bb 0e 3d e0 26 b4 bc 85 02 ae bd 31 18 3c be
       0.034846917 -0.021991193 -0.08496574 -0.18368603
0001d0 f5 b1 4c 3d 85 38 3f 3d d1 ce b3 bc 0c b2 36 3d
       0.0499744 0.04668476 -0.021949204 0.044603392
0001e0 2e 48 11 3e 92 e2 b5 bc 14 d7 11 3b 3d 1a 20 3d
       0.1418769 -0.022202764 0.002225344 0.039087523
0001f0 0c 0e 39 bd ad 3f 49 3e 15 df ac 3d 33 ec ad 3d
       -0.04517941 0.19653197 0.08440987 0.08492317
000200 d4 7f 50 bc fe 9d 07 3e c8 6f a5 3d db f9 55 3e
       -0.012725789 0.13243863 0.08077961 0.20896094
000210 fb 81 6e be 8a a6 03 3d b3 43 be be 3a 5b bb bd
       -0.23291771 0.032141246 -0.37161025 -0.091482595
000220 9f b4 dc 3c e3 61 6e 3e 4b ab 28 be 4d 48 2a bc
       0.026941596 0.23279528 -0.16471593 -0.010393214
000230 57 cb f2 3d 2a 23 82 3e a9 fd 1a 3e 7f 5e a2 3d
       0.1185519 0.25417453 0.15135826 0.0792818
000240 99 23 90 bd ca 90 5e be 2f fe 83 3d c0 a4 80 3e
       -0.0703804 -0.2173492 0.06444966 0.25125694
000250 9f fb 48 be 7c 91 29 3e a5 67 92 bd c1 32 c4 bd
       -0.19627236 0.16559404 -0.07148675 -0.09579993
000260 0d ec 8e 3d 25 27 99 3d 79 c0 ae 3d bc 0b 49 bd
       0.06978617 0.07478169 0.08532805 -0.049083456
000270 7d 8c e6 bd 56 b1 5c 3d 67 0e 24 be 88 e3 9b bd
       -0.11257265 0.05388006 -0.16021119 -0.076117575
000280 70 ec 52 3d 0b 3d f7 bc 7c 8a 5a be e5 5f ef 3c
       0.051495016 -0.030180475 -0.2134189 0.02922053
000290 ff 72 39 3e be 45 10 3e 6e 33 39 3e cf 4e 8b be
       0.18110274 0.14089105 0.18086025 -0.27208564
0002a0 ce c6 64 bd 24 70 77 be 65 27 09 be 87 11 f6 bd
       -0.055853657 -0.24163872 -0.13393934 -0.12015062
0002b0 af d6 30 3e e0 a1 6a 3d 66 69 10 3e 9b cf 50 be
       0.17269395 0.057283282 0.14102706 -0.20391695
0002c0 9f 43 f2 bd 01 aa 4f 3e 88 0b eb 3b b8 1a f0 ba
       -0.11829304 0.20279695 0.0071730055 -0.001831851
0002d0 97 19 3f bb 27 b2 f0 bd 12 cc 0d 3e 17 79 38 3e
       -0.002915954 -0.1175273 0.13847378 0.18014942
0002e0 6d d3 f0 bd 3e 14 3e bd 37 c5 9c 3b 38 e2 a9 ba
       -0.11759076 -0.046406023 0.004784252 -0.0012961095
0002f0 5c 4a 0a 3e 1e 4e 94 be 2f 9f 91 3e 4b 31 2a be
       0.13504928 -0.2896585 0.2844176 -0.16620366
000300 cb ac 3f bd 7e 03 73 bd 32 a5 f7 bd d7 79 2f 3e
       -0.046795648 -0.059329502 -0.120920554 0.17136322
000310 57 1e 98 bd 8a c8 57 3d a5 18 51 ba a3 3d 35 be
       -0.07427662 0.052681483 -0.00079763896 -0.17699294
000320 21 97 09 3e 5b 55 46 3d 01 35 98 bc f9 23 99 3d
       0.13436557 0.048421245 -0.018579962 0.07477564
000330 23 17 13 bd 51 a2 07 3e 56 b5 12 3e d4 d4 d0 3d
       -0.035910737 0.13245513 0.14326987 0.10196844
000340 f3 a1 cf 3d b8 f4 c5 3c cc b9 04 bd 4e c0 48 3e
       0.10138311 0.024164543 -0.032403752 0.19604608
000350 cd d7 81 3d b8 bb 93 3c 58 3a 5d 3d fd bb 0c be
       0.06339989 0.018033847 0.05401072 -0.13743587
000360 52 c4 40 bd 39 dc b6 bd 3e 35 be 3d d1 f5 34 3d
       -0.047062226 -0.08928723 0.09287499 0.04417974
000370 a2 33 82 bc af c9 a2 3d 6a 98 ea bd 71 06 20 be
       -0.015893761 0.07948624 -0.11454852 -0.15627457
000380 76 71 9a bc 48 ae ea 3d 5c 4d 6b bd fe c0 97 bd
       -0.01885293 0.11459023 -0.057446823 -0.07409857
000390 9c e6 f6 3c e7 ed 8f 3d 8b b9 15 3e cb 83 42 bd
       0.03013926 0.07027798 0.1462156 -0.04748897
0003a0 75 7c 28 be 8b 91 30 3d 2b ee 81 3d 57 6c bb bc
       -0.16453727 0.04310755 0.06344255 -0.022878809
0003b0 5f 88 13 3e 62 ac 17 3e fc 3a ce 3d 70 45 63 be
       0.1440749 0.14811853 0.10069844 -0.22194457
0003c0 cc f8 ef bc 1d fe 28 3d 0b 85 60 3e fd 1b 0a 3d
       -0.02929344 0.041257966 0.21925752 0.033718098
0003d0 f6 79 f8 bc fb 5e cc bd 40 c5 19 3e c5 4f fe 3d
       -0.030331593 -0.099790536 0.15016651 0.124175586
0003e0 40 3d c2 bd 02 43 14 bd 66 9b 0d 3e 3b 56 29 be
       -0.09484339 -0.036196716 0.13828811 -0.165368
0003f0 36 45 94 bd 51 bb cd bc 72 43 38 3e 0b d9 b7 bc
       -0.072397634 -0.025113733 0.17994478 -0.022442361

main_network.lstm.bias_ih_l0 f4 [256]
000000 ee 7c b9 bd c3 8f 18 be d2 6c 02 3e be 88 4a 3d
       -0.090570316 -0.1489859 0.12736824 0.049446814
000010 ad 81 ab bd 71 f8 fe bd cc aa dd 3b 96 d3 76 bd
       -0.08374343 -0.1244973 0.0067647453 -0.060260378
000020 aa 33 c9 bc a8 09 30 3e 0c 5b 8c bd bc 40 ee 3c
       -0.024560768 0.17191184 -0.06853303 0.029083602
000030 01 a3 a1 3d 0a 9e ac 3d 0b 24 0b 3e e1 ab 94 3d
       0.07892419 0.08428581 0.13587968 0.07259346
000040 68 37 55 bc ca 11 23 3e 6f 78 b6 3d e6 39 3f be
       -0.013013698 0.15924755 0.0890969 -0.1867443
000050 6f 5e 27 bd 0d f8 b6 3d 8f f9 1b be e5 14 52 3d
       -0.040861543 0.08934031 -0.15231918 0.051289458
000060 10 be b4 bd 39 3f 11 bd bc fd 3a bd ad 97 bc 3d
       -0.08825314 -0.035460684 -0.045652136 0.09208617
000070 ee 26 9b 3e 84 46 50 bd 0a 43 b3 bc 86 e6 8a 3d
       0.30303138 -0.0508485 -0.021882553 0.0678225
000080 a8 73 de 3d ab eb 5a bd c8 6d 2d 3c b8 82 ac ba
       0.108619034 -0.053447407 0.010585256 -0.0013161516
000090 b8 6c ff 3c 2f 8e be bc 29 88 e6 3d 1d a0 0b 3e
       0.03117977 -0.023261158 0.11256439 0.13635297
0000a0 ba 85 b1 3d 5e a7 ac 3d 1a bc 0d be cb 17 69 3e
       0.086680844 0.0843036 -0.13841286 0.22762983
0000b0 f9 5f 6a 3d 0f 52 cc 3d 93 cf 6f bd ac f7 a2 3d
       0.057220433 0.09976589 -0.058547568 0.07957396
0000c0 a7 b7 4c 3e b4 c1 eb 3d 22 1d 3b 3c 36 f8 88 3c
       0.19991933 0.11511555 0.01142052 0.016719919
0000d0 bb 0d 7b 3d 76 48 97 bc dc 5b e8 3d fd b6 06 3e
       0.06129239 -0.01846717 0.11345646 0.13155742
0000e0 26 21 fe bc fe ca 93 3c da 30 7d bd 1f c6 5f 3d
       -0.031021666 0.01804113 -0.061814167 0.054632302
0000f0 22 f0 be bc 15 5f 07 3e 0d 30 c2 3d d1 a6 97 3d
       -0.023307864 0.13219865 0.09481821 0.074048646
000100 4c 37 29 bd 82 ef 53 bd cf b3 b6 bd 6e fd de 3d
       -0.0413125 -0.051742084 -0.089210145 0.108881816
000110 53 88 98 3d bf 11 d7 3c f5 b0 43 3d 15 ef e6 bd
       0.07447877 0.02625358 0.04777618 -0.1127607
000120 d4 7e 29 bd c7 ca d0 bd 7f 62 cd 3d 3a f7 c6 3c
       -0.04138072 -0.10194927 0.10028552 0.024287809
000130 ad f4 0c 3d d8 b7 be 3d ae 08 20 3e e0 fb ba 3c
       0.03441303 0.09312409 0.15628311 0.022825181
000140 73 5b 8a bd f1 aa b0 3d cb ac b9 3c e6 92 91 bd
       -0.06755724 0.086263545 0.022665402 -0.07108097
000150 6e 76 42 3e 1c e2 cc 3d 4b e0 d8 3d ad d7 4d 3d
       0.1899049 0.100040644 0.105896555 0.050254513
000160 ad f5 36 be 48 b5 10 bd 16 86 01 bd d8 92 9d bd
       -0.17867155 -0.035329133 -0.031622015 -0.07694024
000170 31 3d e0 3d 23 66 52 bd fe 22 1f be fd 4c 52 3d
       0.10949171 -0.051366936 -0.15540692 0.051342953
000180 32 0d 9b bd fd f3 d4 bd 81 2e c2 3d d9 66 15 bd
       -0.07570876 -0.103980996 0.09481526 -0.036475036
000190 84 7a 4d bc a6 40 4b bd 99 29 26 3d 57 9b cc bc
       -0.012541417 -0.0496222 0.040567014 -0.024976416
0001a0 f3 e6 5e bd 6b b1 8d bd 7d eb b2 3d f1 db d4 bd
       -0.05441947 -0.069186054 0.08736322 -0.10393513
0001b0 47 ea 85 3d 4b b1 24 be 67 e8 1c 3b e9 8a e7 bd
       0.065388255 -0.16083257 0.0023942234 -0.11305792
0001c0 6f c9 38 3d d3 5d 01 be 4e 38 10 bd 98 42 32 be
       0.045113977 -0.12633447 -0.035209946 -0.17408216
0001d0 a2 93 54 3d 46 a0 37 3e d8 2d 88 3c ad b3 8a bd
       0.051898606 0.17932233 0.016623423 -0.06772552
0001e0 d8 d6 8f 3c dd c6 57 bd 14 a5 2e 3c b6 14 0c bd
       0.0175585 -0.052679885 0.010659475 -0.03419944
0001f0 6a 91 ba 3d 04 0d dc bd 6a cf 0e bd c5 d1 e6 bb
       0.09109767 -0.1074467 -0.034865774 -0.0070440494
000200 61 c4 09 bb b2 25 8a 3d 93 3a 7e bc 17 a1 8a bd
       -0.0021021592 0.06745471 -0.015516895 -0.06769007
000210 b8 01 30 3d 34 d5 37 bc 02 2c e7 3d 55 77 7d bd
       0.04297039 -0.011220265 0.11287691 -0.061881382
000220 56 86 05 3d 94 73 9b 3c 85 f5 a7 3d 36 80 57 3d
       0.032598816 0.01897601 0.08201126 0.052612506
000230 fe 10 23 3e fa f3 8b 3d c1 6e d2 3c e5 e0 84 3b
       0.15924451 0.06833644 0.025687577 0.00405513
000240 68 06 1e bd 6a fd 45 be 79 e3 99 bd 78 fb 47 bd
       -0.03858033 -0.19334951 -0.0751409 -0.048823804
000250 68 26 bb bd 56 07 0c bd c0 6d e4 bc d1 f3 26 3e
       -0.09138185 -0.034186684 -0.027884364 0.16303946
000260 9d 1b 8c 3d 38 20 21 bd 67 53 12 3d b0 ff a6 3c
       0.06841204 -0.039337367 0.03572407 0.020385593
000270 e1 1b 26 be e4 42 8a bd 7c 6c c8 3d 9a d9 33 bc
       -0.16221572 -0.067510396 0.09786317 -0.010977173
000280 95 3b 3d 3e 08 b7 c1 ba 7a 38 0f be 54 24 be 3d
       0.1847976 -0.0014779279 -0.13986388 0.09284273
000290 3b 2b dd 3d dc 7a 9e 3c 99 3b fb 3d fb 4f a0 bc
       0.10799261 0.019345693 0.12267227 -0.019569388
0002a0 6a 85 e3 bd 37 74 a6 3d 24 b7 47 bc f9 a7 b3 bd
       -0.11109431 0.08127635 -0.01218966 -0.087722726
0002b0 b6 06 d8 3c f0 f1 34 3c 78 c6 0c 3e 7b 8a 43 bd
       0.026370388 0.0110440105 0.13747585 -0.047739487
0002c0 8c a3 09 be 48 e5 25 3e 9d 04 87 bd 03 42 93 bc
       -0.13441294 0.16200745 -0.06592677 -0.017975813
0002d0 48 22 18 be 2b b3 d7 bd b6 9a 37 bc 31 51 09 be
       -0.14856827 -0.105322205 -0.01120632 -0.13409878
0002e0 2f b9 b8 bd a0 69 66 3d e1 6a d5 bd 62 0f ee 3d
       -0.09019696 0.056253076 -0.10420776 0.11624028
0002f0 9d 38 db 3d c6 25 c4 bc e6 32 52 bd 3e 16 a7 bd
       0.107041575 -0.023943793 -0.05131807 -0.08158539
000300 44 df 9d 3b c2 db 91 3d 3c 8f bc 3d 37 23 ac 3c
       0.004817875 0.071219936 0.09207007 0.021012885
000310 15 1f aa 3c 90 52 1f bd 53 b5 45 3c 52 30 ac bd
       0.020766774 -0.038897097 0.012067157 -0.08407654
000320 a5 9f 3d 3d 23 55 2b 3e b7 5e c5 bd 36 b2 69 3d
       0.046294827 0.16731696 -0.09637206 0.05705472
000330 c2 14 38 bd 2c d1 5f 3d 63 d4 06 bd 4b 55 9e 3d
       -0.04494167 0.05464284 -0.03291739 0.07731112
000340 a4 d3 6d ba f0 ca 4f 3c d7 df e2 bd 64 f7 72 bc
       -0.00090723694 0.012682661 -0.1107785 -0.01482949
000350 2a 9c fc 3d 40 61 d7 bd d0 4d d0 bd 51 50 93 bd
       0.123344734 -0.10516596 -0.101710916 -0.071930535
000360 d2 79 c3 3d 88 bd 8d 3b 9d 48 11 bc 74 05 88 3d
       0.0954472 0.0043255724 -0.00886741 0.06641665
000370 c4 dc 14 3e 25 9e 8d 3d 70 6e c3 3d 8e 7b 81 bd
       0.1453734 0.06914929 0.09542549 -0.06322394
000380 f0 b2 0c bc c6 96 24 3c c3 ac b0 3d 8b 76 00 3e
       -0.008587584 0.010045713 0.08626702 0.1254522
000390 e8 51 c4 3b 5f 88 f8 bd ab 92 0e 3e 2e 46 ee 3c
       0.0059912093 -0.12135386 0.13923137 0.029086199
0003a0 97 e3 23 3e f5 4f 14 bc ef 2a 8d 3c ad dd 80 3e
       0.16004787 -0.009052266 0.017232386 0.25169125
0003b0 ac d6 f8 3c 8c a5 a8 3d 74 f6 c7 3d 23 83 5f bc
       0.030375801 0.082347006 0.09763804 -0.013642105
0003c0 39 9d 92 3c aa af c3 3d ab 82 3a 3e 95 a7 6f 3d
       0.017897235 0.0955499 0.18213908 0.058509428
0003d0 9e aa bf 3d 80 a9 2a 3e a4 35 07 3e 28 34 65 bc
       0.093587145 0.16666222 0.13204056 -0.013989486
0003e0 54 3b f7 3d 89 98 0f 3e cf f8 db 3d 2b 9f d0 bd
       0.12071863 0.14023031 0.10740816 -0.10186609
0003f0 9f b6 3c bc ff 07 b4 3d 44 48 03 3e e9 b4 64 3e
       -0.01151815 0.08790588 0.12820536 0.22334637

main_network.lstm.bias_hh_l0 f4 [256]
000000 df 1b f5 3c 19 11 8d bd d7 7e 00 3e dc 9e 67 3d
       0.029920517 -0.06888027 0.12548386 0.056547984
000010 75 5f 1d 3c e0 55 f9 bc 45 b4 66 3d 34 2c 15 3d
       0.009605278 -0.030436456 0.056324262 0.03641911
000020 6a 84 ab bd 37 c3 0f 3e c3 34 c5 bd 9e b3 84 3d
       -0.08374865 0.14039312 -0.09629204 0.06479572
000030 9d 89 7d bd 1b 71 a3 bd c8 4b 50 3e 43 5a 35 3d
       -0.061898816 -0.079805575 0.20341408 0.044275533
000040 47 16 a3 3d f6 2f 89 3d 39 f6 9d 3d 87 19 50 be
       0.079632334 0.06698601 0.07712979 -0.20322238
000050 24 75 bf 3d d9 81 16 be d2 b5 6c 3c 2b eb 84 bd
       0.09348515 -0.1469797 0.014447646 -0.06490167
000060 65 02 af 3d 0e 36 7a 3d 03 98 d2 3c 9e 4d 40 3e
       0.085453786 0.061086707 0.02570725 0.18779609
000070 73 cc 92 3e ff b5 ab 3d 3a 1a 73 bd 65 8b 44 3d
       0.28671607 0.083843224 -0.059351183 0.0479845
000080 29 d8 bb 3c d8 17 55 3d 59 a4 5d 3d 9b 99 3a bd
       0.022930222 0.052024692 0.054111812 -0.045556646
000090 57 96 a9 3d 40 79 95 bd 70 88 9a bb f8 d0 df 3d
       0.08280628 -0.07298517 -0.0047159716 0.109285295
0000a0 73 0f 60 3e b9 c6 03 be 53 e2 8b 3d 05 58 38 3d
       0.21880893 -0.12868775 0.06830277 0.045005817
0000b0 71 ea 26 bd 28 67 88 3d ba b2 20 bd fe bb 09 3e
       -0.040750924 0.066603005 -0.039232947 0.1345062
0000c0 81 05 63 3e 92 62 0a 3d 7c 74 d4 bd 7c e9 8f 3d
       0.22170068 0.03378541 -0.1037378 0.070269555
0000d0 80 c4 89 3d 60 bf 2a 3e 2f 9f 10 bd 82 13 fb 3d
       0.067269325 0.16674566 -0.03530806 0.1225958
0000e0 cc c5 c2 3d 5a 86 33 bd 73 bc b7 bc 3f 8b d4 bd
       0.09510383 -0.0438293 -0.022428727 -0.103781216
0000f0 6d 83 45 3e 7b d3 69 3d 96 f9 48 bd b2 02 14 3e
       0.19288416 0.05708645 -0.04906615 0.14454153
000100 f5 2c 73 3d 29 66 7f bd 52 cc fa bd a7 88 04 3d
       0.059369046 -0.062353287 -0.12246002 0.032356884
000110 28 2d c9 bd d2 23 c4 3b 3f 36 d6 bd a9 a2 1d be
       -0.09823066 0.0059857154 -0.10459565 -0.15394081
000120 72 0a 96 3d b6 08 35 be 77 2e 8c bb 2a 68 e6 bc
       0.07326211 -0.17679104 -0.004278 -0.028125841
000130 ca fc ea 3d 8e f4 40 3d f5 7f 6d 3d be 28 00 be
       0.11473997 0.047108226 0.057983357 -0.12515542
000140 d2 d2 c8 3d 70 d7 09 3e e7 f3 ab bc 34 4f 8a bd
       0.09805836 0.13461089 -0.020990325 -0.06753388
000150 9f 2c 2f 3d c2 16 08 be a0 84 d3 3d fe 66 a5 bd
       0.042767163 -0.13289931 0.103280306 -0.08076285
000160 c5 0d b3 bd 41 60 0a bd 35 00 92 3c a6 a6 51 be
       -0.08742861 -0.0337832 0.017822364 -0.20473728
000170 41 2b 81 3c 4a 73 01 bd af 16 38 3d 20 55 94 bd
       0.015767695 -0.03160409 0.044943508 -0.07242799
000180 40 52 18 3e 9c 1b 7e be 9b 45 2a 3e 3c 9e e2 3d
       0.14875126 -0.2481522 0.16628115 0.11065337
000190 04 64 87 bd bb 80 c6 bd 78 0d 40 3d 54 4f 9a 3d
       -0.06610873 -0.09692522 0.046887845 0.07534662
0001a0 94 80 c4 bd a4 fc 88 bd 2b 17 01 3e c2 e4 0c be
       -0.09594837 -0.066888124 0.12606494 -0.13759139
0001b0 89 10 c5 bd 94 7e 99 3d 25 35 3f 3e 89 18 98 bd
       -0.096222945 0.07494846 0.18672617 -0.07426555
0001c0 7b 6a 60 3e 75 8c c2 bd 90 fe 1e bb 9f aa 21 bd
       0.21915619 -0.09499446 -0.0024260618 -0.039469358
0001d0 46 3d 94 3d f1 cb 41 3e 3f 63 29 bd 3f 20 f7 3d
       0.072382495 0.18925454 -0.041354414 0.12066697
0001e0 62 33 39 3d 09 da 9f 3d 90 ad 7b bb 9c 66 26 bd
       0.045215018 0.07805259 -0.0038403012 -0.0406252
0001f0 a6 48 d2 3d df 2d 20 be 18 c1 ba bd 0c 6c 96 bd
       0.10267763 -0.15642498 -0.09118861 -0.07344827
000200 1f 38 d6 3d a9 37 dc 3c 90 74 01 3e c9 e3 06 bd
       0.10459923 0.02688201 0.12642121 -0.032932077
000210 45 aa be bd 28 4e 0e bd e3 5b 26 bb cc d2 8e 3c
       -0.0930982 -0.034742504 -0.0025384359 0.0174345
000220 5d f6 dc 3d 01 a9 a3 3d 38 53 1b 3d 0c f4 56 3b
       0.107891776 0.07991219 0.03792116 0.0032799272
000230 b2 1b 61 bc a3 a8 a6 3b 1d 1b 37 3e 58 69 e3 3d
       -0.013739513 0.005086021 0.17881437 0.11104077
000240 40 1a 80 3d 32 29 13 be bc 72 fb bc 95 ed 8d 3a
       0.06255007 -0.14371184 -0.030694358 0.0010828251
000250 ff ac 3f bd 37 3d fe 37 7d ba 6e 3d bc 6c 62 3d
       -0.04679584 3.0307665e-05 0.058283318 0.05527948
000260 c9 5e 9b 3d a2 3e 75 3c fa 4c 01 be 88 02 10 3e
       0.07586438 0.014968546 -0.1262702 0.14063466
000270 d9 0b c3 bd f7 5c 8a 3c aa 4d 9c bd 70 12 c2 bc
       -0.09523744 0.016890032 -0.07632001 -0.023690432
000280 78 73 9f 3d c2 0e c1 bc 15 8d bb bc 60 bb 2c bd
       0.07785696 -0.023566607 -0.022894422 -0.042170882
000290 d6 78 03 3d 5b 78 c1 bc 28 0f b8 bd c2 03 7e ba
       0.03209766 -0.02361696 -0.08987266 -0.0009689891
0002a0 03 8a c0 3d 5f 4b 45 bd 4a d4 1a be 31 03 5f 3c
       0.09401324 -0.048167583 -0.15120044 0.013611601
0002b0 4f 15 e7 3d c1 46 21 bd bf 61 36 3d 87 7d 86 3d
       0.11283361 -0.039374117 0.04452681 0.06566911
0002c0 37 08 a0 bc 59 8a 71 3c 9b 02 d2 bd 5a 35 8e 3d
       -0.019535167 0.014742457 -0.10254403 0.0694377
0002d0 fb 27 7d 3d 26 98 13 be 38 ec 17 be c4 79 01 be
       0.061805706 -0.14413509 -0.14836204 -0.12644106
0002e0 37 15 21 be 42 ea 9c 3d e8 e1 a9 bd 52 bd 09 3e
       -0.15730749 0.07661869 -0.08295041 0.13451126
0002f0 60 ca 06 3d ba cd 75 bc f0 8e c2 b9 da ea 11 3d
       0.032907844 -0.015002662 -0.0003710906 0.035624363
000300 b3 dd b4 3d e8 eb 53 bd 88 22 37 bc 7b a8 05 3e
       0.08831348 -0.05173865 -0.0111776665 0.13052551
000310 7a b7 0a 3e ca f6 0a bd 81 2e 27 3e 72 0f ce bd
       0.13546553 -0.033926763 0.16326334 -0.1006154
000320 97 fa 82 3c d6 3d 1f 3e 6f 4f 31 bd b3 04 c8 3c
       0.015988631 0.15550932 -0.043288644 0.024416303
000330 e8 90 92 bc 6a 0a 4d bd 77 b5 25 3e bc 05 d2 3c
       -0.017891362 -0.05005876 0.16182505 0.0256375
000340 6a 8e 9d bc 27 b6 8f 3d 5d a4 d7 3d ce 0c 3b 3c
       -0.019232947 0.07017165 0.10529397 0.011416627
000350 34 91 a8 3d 96 af b1 3d 58 2c 0f be c3 76 47 ba
       0.0823082 0.086760685 -0.1398176 -0.00076089444
000360 bd 98 00 3d 2e e7 eb 3b d1 ec 98 3d f6 13 8b bb
       0.031395663 0.0071991896 0.07467044 -0.004244323
000370 ee c2 87 3e c0 68 eb bd 07 e8 a6 bd 8f af ee 3d
       0.26515907 -0.11494589 -0.081497245 0.11654579
000380 fc 2b 0f 3c 3e 5a 16 3d b3 23 32 3e 58 03 23 bd
       0.008738514 0.036707155 0.1739643 -0.03979811
000390 10 89 86 bd 25 08 8a bd 1e cf a4 bc c0 25 cc 3d
       -0.06569111 -0.06739835 -0.020118292 0.09968138
0003a0 9d 89 5a 3e c1 de c6 bc ac dd 06 be b4 ba 32 3e
       0.21341558 -0.02427614 -0.13170499 0.17454034
0003b0 10 cd 5b 3d 01 fe 08 3e 57 4b 47 3e ed 66 82 bd
       0.05366236 0.13378145 0.19462334 -0.06367288
0003c0 9a de 12 3d 46 d6 6b 3d a1 4d e3 3c c2 e1 3c 3d
       0.03585682 0.057577394 0.027746977 0.046113737
0003d0 3a ea 0b bc e5 55 c6 3d 78 59 ce 3c bb 22 77 bc
       -0.008539731 0.09684352 0.025189146 -0.015083964
0003e0 eb c6 31 bd 79 21 11 3e cd 9e d3 3d f2 04 a8 bd
       -0.043402594 0.14172925 0.10333023 -0.08204068
0003f0 93 62 30 3e da 57 81 3d d5 17 60 3d 40 a0 37 3e
       0.17225103 0.063155845 0.054710228 0.17932224

main_network.fc.weight f4 [3, 64]
000000 f3 8e 96 3b c6 a0 04 bb bc 89 84 bc da dc fd bc
       0.0045946776 -0.002023743 -0.016178958 -0.0309891
000010 a9 36 26 3e 67 41 f6 3d a6 f6 8c 3d 53 a1 87 be
       0.16231789 0.12024193 0.06882982 -0.26490268
000020 0a 68 e1 3c 52 96 bb bb ad ad 02 3d a3 8e 30 bd
       0.02751543 -0.0057247067 0.03190391 -0.04310478
000030 28 e4 1a bd 12 80 fa bd 74 fd 00 be 57 d8 06 3d
       -0.037815243 -0.12231459 -0.12596685 0.03292116
000040 1e 39 82 bc 9a 10 f0 3c d2 01 9a bd 7b ab 68 3d
       -0.015896376 0.029304791 -0.075198784 0.05680416
000050 e9 48 15 bd 12 1d 5c 3d b2 8b 67 bd 1d fb a2 3d
       -0.036446486 0.05373866 -0.05652971 0.07958052
000060 53 9f a7 3d 42 bf 84 3d e9 23 9b 3c cd 7d 1e 3d
       0.081846856 0.06481792 0.018938022 0.03869419
000070 25 36 cf bd dc 52 0a 3d 60 49 90 bc cd 5c 23 bd
       -0.10117749 0.033770427 -0.017613113 -0.039883424
000080 ec 7c 9d 3c 02 cb a2 3b 7c 4e 65 bd 27 03 9c bd
       0.019224606 0.004968048 -0.05598305 -0.07617789
000090 91 d3 bb bd 0b 7e 2b 3d 45 7c 64 3d 76 91 90 3d
       -0.091712125 0.04186825 0.055782575 0.070589945
0000a0 27 e2 c8 bd 34 1f 1b bd 9f cf c0 3d 60 8f 02 bd
       -0.0980876 -0.037871554 0.094146006 -0.031875014
0000b0 ed 98 da 3c 89 a1 a3 bd 03 49 eb bd 06 2f 90 bc
       0.026684249 -0.07989795 -0.11488535 -0.017600548
0000c0 f6 1f 01 be 1e 05 00 3d f9 49 51 bd 6f 93 a2 ba
       -0.12609848 0.03125488 -0.051095936 -0.0012403558
0000d0 25 72 56 3d fa b5 19 3a 5b 47 3e 3b 4b 0e 70 bd
       0.05235495 0.00058636034 0.002903423 -0.05860738
0000e0 73 2f d0 bd a6 50 fa 3c 26 80 67 bd fa f7 16 3c
       -0.101653 0.030556034 -0.056518696 0.009214396
0000f0 c1 35 bb bc 04 34 07 3e 53 b8 16 3d ab 24 83 bd
       -0.02285278 0.13203436 0.03679688 -0.06403478
000100 bd cd 74 3c 12 cf a3 bd 28 21 7c 3c d2 d7 13 bd
       0.01494163 -0.0799848 0.015388764 -0.036094494
000110 6e a4 95 3d 51 1a 51 bd 06 1a fc 3d 4c 13 8d be
       0.07306753 -0.051050488 0.12309651 -0.27553785
000120 77 0b 01 bc c9 e2 4e bd 40 88 a5 3d 5b 06 81 bd
       -0.007876269 -0.050509248 0.08082628 -0.0630004
000130 78 90 af bd 5f 17 16 be b7 46 38 3d 85 86 96 3d
       -0.08572477 -0.14657353 0.044989314 0.07349876
000140 fc 2c 84 bc f2 12 b7 bd 64 bf d7 ba 60 33 4f 3d
       -0.016134731 -0.089391604 -0.0016460237 0.050586104
000150 a0 0d 67 bc 82 4a 0b bb bf 60 c4 3d 18 66 c1 3d
       -0.01410237 -0.0021254127 0.09588765 0.09443301
000160 5e e2 2c be aa 3f 00 b9 f3 0b 90 3c cc ea 8b bc
       -0.16883227 -0.00012230748 0.017583823 -0.017079733
000170 42 b7 a9 bd 37 fd 27 3d c5 45 05 3e ab 5d 9b bd
       -0.08286907 0.04101297 0.13014896 -0.07586225
000180 32 32 15 bd 7b 2d 0d bd ad 59 87 bd 2c 8a 38 3d
       -0.036424823 -0.0344672 -0.06608901 0.045053646
000190 27 99 d5 3d 20 9e 00 bd d4 1e 68 3d dc d9 77 3d
       0.10429602 -0.0314008 0.056670025 0.0605105
0001a0 fa 96 65 3d 6a 7e 5a bd 89 01 9e 3d 86 5d 85 bc
       0.056052186 -0.053343214 0.077151366 -0.016279947
0001b0 a0 09 48 3d 1b dd 8a bd c6 f0 d4 bd 2f 63 ba bd
       0.048837304 -0.06780454 -0.103974864 -0.09100949
0001c0 d0 17 f1 3b 3d 4c 03 be f2 ca 89 bc aa b0 e6 bc
       0.007357575 -0.12822051 -0.016820405 -0.028160412
0001d0 d9 24 db bc 82 97 4e bd 7f 47 e4 3c 07 91 ed 3c
       -0.026750969 -0.050437458 0.027866123 0.028999818
0001e0 0c 72 01 3d 7f 3a 08 3e fa d9 29 3d ee 5c e4 bb
       0.031602904 0.13303564 0.041467644 -0.006969086
0001f0 05 c1 91 3c 8c 40 66 be c8 0c bd 3d bd 25 81 3c
       0.017792234 -0.2248556 0.092309535 0.015765065
000200 d7 7e e9 bd 72 81 99 3d a3 95 66 3e e7 5e 1e 3e
       -0.11401146 0.07495393 0.2251802 0.1546589
000210 36 f8 83 be cc 42 c7 3d 89 37 64 be a3 49 30 3e
       -0.25775307 0.09729537 -0.2228681 0.1721559
000220 d5 63 8f 3d 37 90 33 3e d2 fc 01 3c 28 1c 3d bd
       0.07001463 0.17535482 0.007933812 -0.04616943
000230 ff 68 ca 3c 50 78 21 3e af 69 d4 3d fc 4a ca 3d
       0.02470827 0.15768552 0.1037172 0.098775834
000240 d9 59 c0 bd cd f2 8e be ce 65 18 3d 38 17 6d 3e
       -0.09392137 -0.27919617 0.037206464 0.23153389
000250 97 f7 2f be dc be 00 3e b5 b0 e6 bd e7 4a 85 3e
       -0.17184292 0.12572807 -0.11264173 0.26033708
000260 d0 6a d3 bd 4f 13 c0 3e 9e 8a 80 be c8 38 82 3e
       -0.10323107 0.3751473 -0.25105757 0.25433946
000270 01 fd 81 be f8 71 97 3d 59 b5 e2 bd 37 dc 71 bd
       -0.2538834 0.07394785 -0.110697456 -0.059047904
000280 71 82 b2 3e 84 5e a7 3d ef a5 4f be b7 ff e7 3c
       0.34865144 0.08172324 -0.20278142 0.028320177
000290 4a c8 1d 3d 4f be f3 3c 25 b5 60 3e 26 fa 5c be
       0.03852109 0.029753832 0.21944101 -0.21579799
0002a0 07 15 4d be e8 c1 88 be ae b0 a5 bd 18 0e 60 3e
       -0.20027553 -0.2671044 -0.080903396 0.21880376
0002b0 c2 03 9f 3e 9a db 2a be e6 ca 0d 3e ae d1 83 be
       0.31057554 -0.16685334 0.13846931 -0.2574591
0002c0 28 85 45 be 0e d8 2d 3e 61 ac 13 be 0a 49 29 3e
       -0.19289076 0.1697695 -0.14421226 0.16531768
0002d0 68 e0 be ba dd 6f 40 be 95 cb 9b bc 82 d6 c2 bb
       -0.0014562728 -0.18792672 -0.019017974 -0.0059459815
0002e0 73 2d 5b be 4a 11 5c 3e ad 67 8f be e1 d8 ec bd
       -0.21404056 0.2149097 -0.28008786 -0.11564804
0002f0 76 8b fc 3d 10 12 43 be 44 68 9a bd 3b 5c 25 3e
       0.123312876 -0.19049859 -0.07539418 0.16148464

main_network.fc.bias f4 [3]
000000 bd d5 a6 3d e2 83 aa 3d 6e 2b 05 3d
       0.08146236 0.08325936 0.03251212

short_term_context_network.fc1.weight f4 [32, 7]
000000 07 a7 64 be 77 21 f6 3d c5 67 bd be 9f 7c 4d be
       -0.22329341 0.12018102 -0.36993232 -0.2006707
000010 e8 e8 39 3d be a6 84 3e 54 d6 2e be d7 28 28 3e
       0.045388132 0.25908464 -0.17073947 0.16421829
000020 38 d0 22 bd 0a 3f e1 bd 98 61 00 be 99 14 2c bd
       -0.039749354 -0.10998352 -0.12537229 -0.04201183
000030 9a 2c 5e bc 29 12 f4 3e 9f 3e 1a 3e 10 1c b8 be
       -0.0135604385 0.47670105 0.1506295 -0.3595891
000040 b0 19 98 3e b7 5d 86 3e a2 c8 47 bd 03 1f 5b 3e
       0.29707098 0.26243374 -0.048775323 0.21398549
000050 4d 01 8e bd a8 65 03 bd 3a d2 1a be 8f 66 4e be
       -0.06933842 -0.03207937 -0.15119258 -0.2015631
000060 3a e5 fd 3d ac 43 b5 be 6c a4 99 3d e2 4f f7 3d
       0.12397237 -0.35403192 0.07502064 0.12075783
000070 f0 20 bc bd 57 d0 99 bc fd 15 00 3e 61 9a a0 be
       -0.0918597 -0.018776102 0.12508388 -0.31367782
000080 bc c3 c4 3b 18 83 63 be b9 6c 4c 3e 6b aa 97 bc
       0.0060047787 -0.22217977 0.1996335 -0.018513879
000090 c4 ef 81 3e 5b 16 09 3e 88 1e 98 3d d4 5e 81 bd
       0.2537824 0.13387434 0.074276984 -0.06316915
0000a0 56 71 b6 3c 1f 67 0c 3e f1 11 4c be 1d a6 1b be
       0.02227084 0.13711213 -0.19928719 -0.15200086
0000b0 76 84 05 bd 91 05 f9 3d 83 a5 b7 bd f1 b4 a7 be
       -0.032597028 0.12159265 -0.08967116 -0.32755235
0000c0 9e 6a 03 be 36 73 63 3d cd 99 c0 3e cf d0 8a 3d
       -0.1283364 0.055529796 0.3761734 0.06778108
0000d0 b3 09 6d 3e 39 4a 02 3f df 67 7f 3e 97 ad 67 be
       0.23148231 0.50894505 0.24941967 -0.22624813
0000e0 35 31 63 be 92 a3 b8 be 53 9f c7 bd 54 9e 0e be
       -0.2218674 -0.36062294 -0.097471856 -0.13927585
0000f0 17 61 eb 3d 88 f9 01 be d1 9f 8d be b6 7b bc 3d
       0.11493128 -0.12692845 -0.27660993 0.092032835
000100 14 53 1e be d2 01 55 3e c0 72 d3 3c e1 4c 04 bf
       -0.1546138 0.20801476 0.025811553 -0.5167981
000110 f4 77 86 3d 59 be 73 3e 5c b3 4d 3e fe 38 a2 3e
       0.06565848 0.2380308 0.20087951 0.31684107
000120 8c 77 f1 3d 1c 9c a3 be cf 75 e7 3d 7c 4f 6d 3e
       0.1179038 -0.3195504 0.11301767 0.23174852
000130 f7 bd 8c bd 30 85 30 bd 8d d3 a8 3d 8d 41 36 be
       -0.068721704 -0.043095767 0.08243475 -0.17798443
000140 a3 4e 1e 3e b2 49 b7 bd eb c4 3a be 01 40 ab 3e
       0.15459685 -0.08949603 -0.1823918 0.3344727
000150 87 fd bf be 14 ff 44 be 12 dd a9 bd 62 3f 7d be
       -0.37498114 -0.1923793 -0.08294119 -0.2473121
000160 5d 54 a3 be 42 78 95 be a7 b9 8a 3e 4c 8d 72 be
       -0.31900302 -0.29193312 0.27094766 -0.23686713
000170 eb 6e a3 3e 0b d6 24 3e 46 5b 0c 3e 1d c6 a7 3d
       0.3192056 0.16097276 0.13706693 0.08192084
000180 7c bb 55 be dd 62 52 3d 25 70 01 bb 8f 51 6b 3e
       -0.20872301 0.051363815 -0.0019750681 0.22980331
000190 d9 cc fd 3d 9e 25 38 bc fe 9b 47 3d df 68 3d 3d
       0.12392587 -0.011239437 0.04873275 0.04624259
0001a0 df 7e be be fd e5 ec 3e fd b4 e7 3b ad ae 36 3c
       -0.3720617 0.46269217 0.007071136 0.011150044
0001b0 ea 81 41 3e 21 93 9b bd dc 33 90 be 51 86 52 bd
       0.18897215 -0.07596422 -0.28164566 -0.051397625
0001c0 bd fb 0b bb 8b 38 f8 3d bc 37 19 3d 16 5d 51 3e
       -0.0021359765 0.1212016 0.037406668 0.20445666
0001d0 d7 8c f4 3d c5 f4 bb 3e 08 16 fc 3d cf 76 43 3e
       0.119409256 0.36710182 0.123088896 0.1908829
0001e0 87 55 7c 3c 82 a2 86 3d 2a bb 82 3e 10 55 3e be
       0.015401251 0.06573965 0.2553342 -0.18587136
0001f0 51 f8 6b 3e 33 cc a0 3e 17 e9 d1 3e 8b 7d 44 be
       0.23043944 0.31405792 0.40998146 -0.19188516
000200 3b 31 75 3e 0f 42 8f bd a6 3d 1b be dd 61 2d 3e
       0.23944561 -0.069950216 -0.15160236 0.16931863
000210 ea dd 06 bf a0 c2 85 3e 0a a8 b3 3c e9 a2 9e 3e
       -0.52682364 0.2612505 0.021930713 0.30983666
000220 d2 4d 01 3e ac 5f c4 bd de 83 30 3d bb 46 20 3c
       0.12627342 -0.095885605 0.04309451 0.009782488
000230 2b f5 5a bd e8 bd 94 3e d2 5e 9a 3e a6 88 9a 3e
       -0.053456467 0.29051137 0.30150467 0.3018238
000240 c8 47 68 be 8d 7c e8 bd f0 63 9f 3e 93 d8 3c be
       -0.22683632 -0.11351881 0.31130934 -0.18441992
000250 56 94 26 3e 8c e4 1d 3e 3d cd 78 be 2d a8 b4 be
       0.16267523 0.15419215 -0.24297042 -0.35284558
000260 59 18 af be 7a 8e de bd 8b 35 2f bc be 04 bb 3e
       -0.34198263 -0.10867019 -0.010693918 0.36527056
000270 9b e7 05 be 06 5c d9 3c 0a 0c 84 3e 80 19 b3 3e
       -0.13076632 0.026533138 0.25790435 0.34980392
000280 ce 0d d1 be 29 ff a0 3d f4 ef 7f 3d 14 88 b8 3c
       -0.40830845 0.07861168 0.062484697 0.022525825
000290 62 4f 46 3d 94 7d 35 be b6 54 61 be 48 9b 82 be
       0.04841555 -0.17723686 -0.22004971 -0.25509095
0002a0 5f f2 01 be 10 63 c3 3b a6 43 fe 3d c3 d7 8a 3e
       -0.12690113 0.005962737 0.12415247 0.27117738
0002b0 71 cc 50 bd 44 ac b5 be 1e d8 66 bd 77 3d 90 3c
       -0.05097622 -0.3548299 -0.05635845 0.017607434
0002c0 c4 97 98 be ab bd 4e be d4 32 ba 3e ee 4d 3f be
       -0.29803288 -0.2018954 0.36366904 -0.18682072
0002d0 ed aa 0e bb 3d a1 93 3e 3f a8 e8 bd 15 78 89 3c
       -0.002176936 0.28833953 -0.113602154 0.016780892
0002e0 32 46 8b be 32 5b 30 3e b7 e9 3a be 90 ae 10 3c
       -0.27201992 0.17222288 -0.18253218 0.008830681
0002f0 90 29 92 3e d4 de 94 be d1 18 42 bd 29 62 99 3d
       0.28547335 -0.29076254 -0.047386948 0.07489426
000300 f9 8e 99 3d af 85 6f bc 0e dc 36 be 1e 4a a8 3e
       0.07497973 -0.014619275 -0.17857382 0.32869047
000310 83 57 8b be 20 58 36 bc b6 ca b0 be 03 e2 3d bb
       -0.27215204 -0.011129409 -0.34529656 -0.0028973825
000320 3f 03 c1 be 9c 62 cd 3e 0b fe a5 be b1 25 b0 ba
       -0.3769779 0.40114295 -0.32420382 -0.0013438967
000330 f5 fa 5d bb bf c9 13 be 35 2c 9d bb e0 5b e3 3d
       -0.0033871506 -0.14432429 -0.0047965297 0.11101508
000340 d5 85 89 be c6 16 da 3d 8b b1 c3 bd 63 0e 4a be
       -0.26859918 0.10648875 -0.09555348 -0.1973205
000350 b9 b1 aa be 7f d6 6a 3e f3 c9 6e 3e 62 13 8b 3e
       -0.33338717 0.22933386 0.23319225 0.27163225
000360 b4 ab 8f be fa 39 87 3e b0 66 5a 3e 57 9a bf bb
       -0.28060687 0.2641142 0.21328235 -0.005847256
000370 53 ea 39 3d f6 ac bd be e5 bd 49 bc 0c 78 d3 3e
       0.045389485 -0.3704602 -0.012313341 0.41302526

short_term_context_network.fc1.bias f4 [32]
000000 b4 dd a7 be c5 c4 63 bc 7a 12 6f be ff 25 2f be
       -0.32786334 -0.013901894 -0.23346892 -0.17104338
000010 c5 ef ab 3c a5 27 38 3c 23 3e b5 3d 44 57 9a 3d
       0.020988354 0.011239921 0.08849742 0.07536176
000020 6a 67 88 3d 0b 6c f4 bd 7d 71 4c be 93 72 ed bd
       0.0666035 -0.1193467 -0.19965167 -0.11594119
000030 6a a2 86 3e 79 05 4d 3d 48 36 01 be 51 1c de bc
       0.26295787 0.050054047 -0.12618363 -0.027113112
000040 50 69 34 be e7 40 12 be 70 b1 99 be 9c 54 68 3e
       -0.17618299 -0.14282571 -0.30018187 0.22688526
000050 38 ce a8 be 85 10 72 3e 76 49 b7 3e fe 14 73 be
       -0.32969832 0.23639114 0.35798234 -0.23738477
000060 a9 5d 82 3e 0a 7e bb 3d fb 86 ca 3e f5 f1 9c 3e
       0.25462082 0.091548994 0.39556107 0.3065335
000070 9d 59 60 bd 17 ca 51 3e 9a d1 61 be 68 f6 35 be
       -0.054772962 0.20487247 -0.22052613 -0.17769778

short_term_context_network.fc2.weight f4 [16, 32]
000000 5a 70 f6 3d 66 28 47 be fa cd 9a 3b 07 05 cc ba
       0.12033148 -0.19449005 0.0047242614 -0.0015565463
000010 98 2f 41 be 52 b2 2d be f6 b7 97 3d 20 44 09 be
       -0.18865812 -0.16962555 0.07408135 -0.13404894
000020 10 13 82 bd 08 89 90 bd 18 22 87 3c 59 ef 82 3d
       -0.06351292 -0.07057387 0.01649575 0.06393308
000030 a2 68 e1 3d 4c 2f 81 3c db ac 7a bc 2c a8 99 bc
       0.11006285 0.015769623 -0.015300001 -0.018756948
000040 d4 7a 11 bd fa 6e 38 bd 67 74 f3 bd d4 69 31 be
       -0.03551753 -0.04502771 -0.11887436 -0.17325526
000050 50 2e 60 3c 8c 3f 03 3e 36 22 de bd 2e a5 9f 3d
       0.013682917 0.1281721 -0.10846369 0.077951774
000060 05 39 ef bd 1e e7 b7 3d 89 5c b7 3d fb 88 1c 3d
       -0.116807975 0.08979629 0.089531966 0.038216572
000070 f2 61 a0 3d fa e4 05 3e 01 f9 fa 3c 9a 10 49 3c
       0.078311816 0.13075629 0.030636312 0.0122720245
000080 03 2d 0f bd 47 6e d0 bd 18 7f bd bd 8b 8e b2 3d
       -0.034955036 -0.10177284 -0.09252757 0.08718594
000090 81 8b 6b bc 29 cd 23 be 90 84 ac bc d2 9c 64 bd
       -0.014376522 -0.15996231 -0.021059304 -0.055813618
0000a0 14 e0 11 bb c0 6a 20 be a2 96 ff bd 9c c4 82 3d
       -0.0022258805 -0.15665722 -0.12479903 0.063851565
0000b0 f2 51 34 3e 9d 04 12 3e 79 3b d3 bd 10 a2 06 3e
       0.17609385 0.14259572 -0.10314078 0.1314776
0000c0 4c 58 13 3e a4 bc 14 bd 6c cd 3c 3d 03 d4 2b 3e
       0.14389151 -0.036312714 0.046094343 0.16780095
0000d0 6a 92 7d bd 86 db d0 3c e1 1b 80 bc 38 ee 99 3d
       -0.06190721 0.025495302 -0.015638294 0.0751614
0000e0 19 76 11 be 1d e2 f5 3c e3 f3 f4 bd 0f 54 78 bd
       -0.14205207 0.030015046 -0.1196058 -0.06062704
0000f0 fc ab d8 3d a6 74 a0 3d 82 7f 16 be c2 5f ee bc
       0.105796784 0.07834749 -0.14697078 -0.029098395
000100 64 ba 10 3e ff 1f c8 3c 11 2a 64 3e b4 18 b3 bd
       0.14133602 0.02442932 0.22281672 -0.08744946
000110 ff e9 78 3d 0d 81 12 3d a3 25 1f 3c 25 60 cb 3e
       0.06077003 0.035767604 0.009713563 0.3972179
000120 7b b6 76 3e 20 f4 39 3e 7a d1 1a 3e ba 4d 62 bd
       0.24093048 0.18159533 0.15118971 -0.055249907
000130 79 fc 12 be 62 82 f1 3d ed e1 cd bc ca 6c 87 3e
       -0.14354123 0.11792447 -0.025132144 0.26450187
000140 b8 84 1a 3d 70 74 c2 bd d7 01 c1 3e 10 a2 a5 3e
       0.037724227 -0.09494865 0.37696716 0.32350206
000150 04 94 05 3e 6a f4 90 be 28 5f 4f 3e 44 f1 d7 3d
       0.13044745 -0.28311473 0.20251143 0.10544065
000160 a0 56 1a bc 75 f0 58 bd 24 3f 0e 3e cd d6 c1 3d
       -0.009420067 -0.052963693 0.13891274 0.09464798
000170 83 dc ca 3d fe cf 6a 3d 72 85 df 3d cf bf c9 3c
       0.099053405 0.057327263 0.109141245 0.024627594
000180 52 e2 bd 3c d2 39 e4 3c f5 0f 2a bc 00 8f f4 3d
       0.023179207 0.027859602 -0.010379781 0.119413376
000190 92 50 dc bc 34 7f c7 3d d0 d7 19 3c bd 1a 25 be
       -0.026893888 0.09741059 0.009389833 -0.16123481
0001a0 5e dc 50 b9 e4 ad ad 3c d9 f3 4d bd 4d b7 01 be
       -0.00019918519 0.021201082 -0.05028138 -0.1266758
0001b0 58 f7 2b 3d 74 ed 23 be f0 43 db bd 07 e6 f6 bd
       0.041983932 -0.1600855 -0.107063174 -0.12055593
0001c0 c1 22 94 bd ea 13 31 3d ce 0b a5 3d 96 b7 1c be
       -0.07233191 0.043231882 0.08058892 -0.15304407
0001d0 57 b5 fd 3d f4 4a 06 3e 83 c5 c0 bd 17 5c a6 bd
       0.123881035 0.1311453 -0.09412672 -0.081230335
0001e0 45 e0 35 be cf 1d 7c 3d 81 33 59 be 12 81 fc bd
       -0.17761333 0.061551865 -0.21211053 -0.12329306
0001f0 e4 fa 25 be 89 07 69 3d e3 21 16 3e cb d3 b1 bd
       -0.16208988 0.05689195 0.14661364 -0.086829744
000200 dc 93 89 bd b4 74 4d 3e a9 ca 3a bd ef b7 ea 3d
       -0.06717655 0.2006405 -0.045603428 0.11460864
000210 5a 6d 79 3e a5 83 18 bd 96 38 18 bd 30 b7 86 be
       0.2435812 -0.03723492 -0.03716334 -0.26311636
000220 9c 51 61 bd c4 f9 8e 3e 30 c5 85 3c e9 19 88 3e
       -0.05500947 0.2792493 0.016329378 0.26582268
000230 6e ad 74 bd b6 49 d7 bd cc 5e fa bd 99 9c 82 be
       -0.059735708 -0.10512106 -0.12225112 -0.255101
000240 e2 90 a4 3d 86 8f b1 bd 11 5b 0e be 88 f8 c8 bd
       0.08035447 -0.08669953 -0.13901927 -0.098130286
000250 e1 88 75 ba 89 d5 46 3e 92 a4 93 bc 9a 78 17 3e
       -0.0009366405 0.19417395 -0.01802281 0.147921
000260 e5 69 29 3e 4d fd 39 bd 0d 23 2a 3e 05 33 bc 3d
       0.16544302 -0.045407582 0.16614933 0.09189419
000270 88 1d 92 3d fc 60 cf 3d 75 7d 8a b9 73 6a 9f 3d
       0.07134539 0.1012592 -0.00026414884 0.077839755
000280 c7 dd b7 3d 20 0c 11 be 62 b0 3f be e1 f5 56 ba
       0.089778475 -0.14164782 -0.18719628 -0.0008200091
000290 77 dc 85 bb 0b 9d e3 3d e7 41 33 bc ee d5 53 be
       -0.0040851193 0.11113938 -0.010941005 -0.20687076
0002a0 c0 28 fa bd f0 1c 18 3e 96 80 2b bd ce 78 19 be
       -0.12214804 0.14854789 -0.041870676 -0.1498749
0002b0 4b 4a 51 be 34 b5 ba 3d 65 4b 8b 3b b7 e3 e8 bd
       -0.20438497 0.09116593 0.004250931 -0.11371558
0002c0 f4 e7 88 bd df fd 8b 3d 53 35 1c bd 9c 4f 83 bd
       -0.066848665 0.068355314 -0.03813679 -0.06411669
0002d0 3a 6b 46 bb c2 59 e4 3d 1e bf e6 bd bb d2 2f be
       -0.0030276314 0.111499324 -0.112669215 -0.17170231
0002e0 65 7b 9e 3d 1f d6 b2 3d bc cc b3 bd 2a 54 af 3d
       0.077383794 0.087322466 -0.08779284 0.08560975
0002f0 f2 1e 08 be 56 52 f0 3d 49 8c 1b be d6 10 15 be
       -0.13293055 0.11734454 -0.15190233 -0.14557204
000300 e6 29 07 be bc 5d 4f bd 4f f3 6b 3e 96 7a e9 3d
       -0.13199577 -0.0506265 0.23042034 0.114003345
000310 3b ff eb bd a4 3f 1d be 4b 2f 34 be 56 ce 89 3e
       -0.11523291 -0.15356308 -0.17596166 0.26915234
000320 cd 57 44 3e 9b 92 05 be 7a 5c 5b 3e 5f 2e 7a bd
       0.19174118 -0.13044207 0.21421996 -0.06107938
000330 2d b3 04 be f1 c7 94 bd c1 99 a6 bd 9e a3 09 3e
       -0.12958975 -0.07264698 -0.08134795 0.13441321
000340 03 39 a1 3d 66 18 80 be 0a 0c 22 3e b9 ea 49 bd
       0.07872202 -0.25018615 0.15824905 -0.049296115
000350 14 f7 c4 ba 2f e5 02 3c dd e2 dc 3d 9d 77 b7 bd
       -0.0015027248 0.007989212 0.10785458 -0.08958361
000360 f9 37 56 3e 66 40 cd bd e6 de 20 bd bb c3 40 3d
       0.2091979 -0.10022049 -0.039275073 0.047061663
000370 82 0c 91 3d c2 08 c5 3d a7 6c 97 3c ea 29 82 bd
       0.07082464 0.09620811 0.018484427 -0.06355651
000380 cb 29 18 be ec 4f 3b 3e 32 8d 23 bc 1a 7f 0f 3e
       -0.14859693 0.18292207 -0.009982394 0.14013329
000390 24 c6 55 bc b4 97 00 be de 78 24 be f4 14 61 3d
       -0.013047729 -0.1255787 -0.16061732 0.054951623
0003a0 91 a1 9d bd c8 be eb bd 13 8e 67 3d 3c 8c 2c be
       -0.07696832 -0.11510998 0.056531977 -0.1685037
0003b0 ff ad fc 3c 1a a1 86 bd 2e a7 21 3e dc d9 0c 3e
       0.030844687 -0.065736964 0.1578643 0.13754982
0003c0 03 76 72 be c4 7a 45 3e 43 79 ff bc 80 e0 40 3e
       -0.2367783 0.19285113 -0.031185752 0.1883564
0003d0 fc 98 3c 3c 56 e7 24 bc 87 2c 69 3d 6d 8b d6 bd
       0.011511084 -0.01006492 0.05692723 -0.10475812
0003e0 95 58 31 bd 1e 0f 59 3c 85 04 0e be 80 d6 11 be
       -0.04329737 0.013248233 -0.13868912 -0.14241982
0003f0 c0 5d 20 be 09 97 a5 bd 2b 60 4d be c6 bf 21 3e
       -0.15660763 -0.08085448 -0.20056216 0.15795812

short_term_context_network.fc2.bias f4 [16]
000000 1a 06 bc bd 87 0d 21 be 11 53 77 3e cb 57 c8 3d
       -0.09180851 -0.15727817 0.24152781 0.0978237
000010 96 5c 06 3e 16 c2 77 bc 4a 7d 13 3e 0b 9b 01 be
       0.13121256 -0.015121957 0.14403263 -0.126568
000020 72 d6 8a bd 67 5c 8a 3e f6 3e 7d bc 49 92 fa 3d
       -0.067791834 0.27023622 -0.015456906 0.12234933
000030 0f 76 0b 3e 61 dd c9 3d 48 26 3b 3d f2 7b 12 3e
       0.13619255 0.09856678 0.045690805 0.14305094

short_term_context_network.fc3.weight f4 [1, 16]
000000 ff eb 64 be 1a 13 6f 3e 15 25 b9 be a0 b5 0a be
       -0.2235565 0.2334713 -0.36161104 -0.13545847
000010 25 ee 99 3d d5 67 ec bd bf a1 aa be 6a 70 bd bd
       0.075161256 -0.11543242 -0.33326527 -0.09249957
000020 7b 13 09 3c b4 da b7 be 06 41 8e 3e 3f df ab 3d
       0.008366461 -0.35909045 0.27783984 0.0839219
000030 47 6d cd bd 02 2b 9f 3e 68 83 28 be 16 18 63 3e
       -0.100306086 0.310875 -0.16456378 0.22177157
