Uni_Research/IRL/Final/Extended/old/V3/V3_demo1/Testing_Suite/model_C0_R0_S100.0.pth (torch, 91211 bytes, 11 tensors)

main_network.lstm.weight_ih_l0 f4 [256, 15]
0.092924684 -0.113256 0.06025693 -0.09054426 0.085767314 7.978893e-06 0.032666586 0.075386025
-0.028859012 -0.06717088 0.01354965 -0.0071153925 -0.074041195 -0.04729135 -0.05987567 0.05330248
-0.08884156 -0.03316574 -0.06816812 -0.04168075 0.042918697 0.1054871 0.04102315 -0.028034562
-0.040426996 -0.0116690425 -0.07095353 0.12030671 -0.0082910145 -0.02868568 -0.056290366 0.045528073
0.04644363 0.0073239463 -0.06649113 0.08475944 0.030091917 -0.097840756 0.061419763 0.043313973
-0.063070156 0.011827601 0.030858088 -0.086381674 -0.04209402 -0.0825495 -0.07612854 -0.046295244
0.10855457 -0.00025824964 -0.034430727 -0.033347413 0.005795874 -0.036987845 0.13592331 -0.017655862
-0.10205483 0.11306904 0.044522487 -0.018131817 -0.0040107095 0.0770026 -0.08275827 -0.017125536
-0.012402776 -0.090699576 -0.07138353 -0.12363568 -0.10212777 0.081331424 0.08028393 -0.05697205
0.061328612 0.01655828 0.06631355 -0.0032289037 0.13179402 0.026369292 0.057969533 0.06002179
0.107412234 0.120907165 -0.08080934 -0.082304 -0.009950224 0.10916998 -0.066324905 -0.093203075
0.08499091 -0.10600483 -0.13198143 -0.04002952 0.019322423 -0.052907582 0.055211455 -0.093712695
0.015928216 0.015173523 -0.10824666 -0.09540618 -0.11904076 -0.07125553 -0.10783644 0.084739685
0.0572921 -0.120439306 -0.021096949 -0.0838898 -0.009912061 0.061428607 -0.083981544 0.10136527
-0.08482071 0.03613504 0.011960365 0.01838108 -0.0069556837 0.047516502 0.038588915 -0.096886255
0.11538507 0.11522084 -0.050596025 0.12457399 0.026504861 -0.07086908 -0.07357151 0.0006710326
-0.029573118 0.070905335 0.07509855 -0.076081514 0.08837316 -0.04696798 -0.004701303 0.04334376
-0.026026761 -0.10226242 0.11998279 0.0077946894 0.08876054 -0.098375104 0.03146174 0.06122329
0.02152771 0.10865856 0.12542276 -0.083465755 0.15098543 -0.0050903396 0.013477573 -0.02139934
0.110828824 -0.07899335 -0.029007219 0.019500494 -0.137835 -0.0086694 -0.008726375 0.04341343
-0.114121445 -0.04851007 -0.033911817 0.037584655 -0.015271372 -0.02653833 -0.020240037 -0.01161349
-0.06573825 0.09044606 -0.082470894 0.030658524 0.028172541 -0.04584464 0.05535748 -0.11522034
-0.06526456 0.06592205 -0.08320215 -0.10111196 0.0916207 0.035148516 0.07826248 0.056612168
0.056038808 -0.038330425 0.08586339 -0.11065792 0.05880976 -0.011151274 -0.062985234 -0.09964889
-0.061536863 0.09422728 -0.09941039 -0.08382202 0.0049711154 -0.07584661 -0.06694644 -0.06610949
-0.09412236 0.04369046 0.07408731 -0.005327586 0.013173311 -0.0261506 0.054910786 0.057513792
0.023542529 -0.11549918 -0.05818962 -0.11023546 0.11501191 -0.13490771 0.027544994 0.009491972
0.108077146 -0.12154982 0.055914033 0.06588691 -0.030201433 -0.10132931 -0.041024707 0.05730035
-0.10058023 -0.07033956 0.06961833 0.016901694 0.013348345 0.05314968 -0.08328896 0.11819952
-0.07731403 -0.040826034 -0.06403267 -0.06788964 -0.0046833223 -0.08246498 0.09316324 -0.03674225
-0.022203788 -0.09629157 -0.08987667 0.015053479 -0.11207752 -0.10434021 -0.08566579 0.08450693
-0.017816456 -0.08490595 -0.12190377 0.035866898 0.009724133 -0.027773527 0.0873881 0.031447068
00000000: 4c4f be3d c3f2 e7bd f8cf 763d 456f b9bd
00000010: c6a6 af3d 16dd 0537 66cd 053d fd63 9a3d
00000020: bc69 ecbc e390 89bd 5aff 5d3c 3d28 e9bb
00000030: e9a2 97bd 93b4 41bd 3140 75bd b453 5a3d
00000040: 90f2 b5bd cdd8 07bd ba9b 8bbd 6fb9 2abd
00000050: 84cb 2f3d 9f09 d83d e407 283d bda8 e5bc
00000060: c796 25bd 832f 3fbc 1650 91bd 5d63 f63d
00000070: 09d7 07bc 3bfe eabc ba90 66bd a57b 3a3d
00000080: ad3b 3e3d b7fd ef3b 802c 88bd 5b96 ad3d
00000090: 5383 f63c bc60 c8bd 4a93 7b3d fe69 313d
000000a0: ed2a 81bd 8ec8 413c 1aca fc3c e0e8 b0bd
000000b0: c76a 2cbd b60f a9bd 48e9 9bbd 15a0 3dbd
000000c0: dc51 de3d ae65 87b9 3c07 0dbd 4c97 08bd
000000d0: 51eb bd3b 9180 17bd 7b2f 0b3e 07a3 90bc
000000e0: 1f02 d1bd be90 e73d 365d 363d 2d89 94bc
000000f0: 456c 83bb 8ab3 9d3d 2b7d a9bd da4a 8cbc
00000100: 0335 4bbc b3c0 b9bd 8731 92bd b434 fdbd
00000110: 5d28 d1bd 1791 a63d e76b a43d 865b 69bd
00000120: b633 7b3d 3ba5 873c 66cf 873d 049c 53bb
00000130: 03f5 063e 6a04 d83c 7671 6d3d 69d9 753d
00000140: f2fa db3d 2d9e f73d 5e7f a5bd 008f a8bd
00000150: 4406 23bc 8394 df3d 5ad5 87bd 41e1 bebd
00000160: b70f ae3d 0f19 d9bd 2426 07be fef5 23bd
00000170: 0f4a 9e3c 9fb5 58bd 6825 623d 71ec bfbd
00000180: e47b 823c 5e9a 783c 6db0 ddbd 5164 c3bd
00000190: a4cb f3bd 6bee 91bd 5ad9 dcbd 008c ad3d
000001a0: 1fab 6a3d e2a8 f6bd 82d3 acbc 6ace abbd
000001b0: 3266 22bc 909c 7b3d 84fe abbd 9898 cf3d
000001c0: 7bb6 adbd 5602 143d 68f5 433c eb93 963c
000001d0: 81ec e3bb aaa0 423d 690f 1e3d 4d6c c6bd
000001e0: 024f ec3d e7f8 eb3d c73d 4fbd a620 ff3d
000001f0: b920 d93c cf23 91bd a9ac 96bd 3ce8 2f3a
00000200: 5343 f2bc d136 913d 45cd 993d a0d0 9bbd
00000210: fdfc b43d 7f61 40bd 630d 9abb 3a89 313d
00000220: 1336 d5bc f66e d1bd 89b9 f53d 986a ff3b
00000230: 16c8 b53d e378 c9bd 07de 003d 46c5 7a3d
00000240: e15a b03c 6188 de3d d36e 003e 18f0 aabd
00000250: ed9b 1a3e ddcc a6bb 0ad1 5c3c ab4d afbc
00000260: 39fa e23d 44c7 a1bd 8ca0 edbc 80bf 9f3c
00000270: 9e24 0dbe 190a 0ebc 12f9 0ebc 48d2 313d
00000280: 81b8 e9bd 7fb2 46bd 1ee7 0abd 5ef2 193d
00000290: c734 7abc e966 d9bc 6fce a5bc 8246 3ebc
000002a0: c7a1 86bd c93b b93d 80e6 a8bd 9627 fb3c
000002b0: 1aca e63c 97c7 3bbd 86be 623d a4f8 ebbd
000002c0: 6da9 85bd 2402 873d e465 aabd ca13 cfbd
000002d0: a2a3 bb3d e4f7 0f3d 1448 a03d 29e2 673d
000002e0: f388 653d 5d00 1dbd 25d9 af3d 9fa0 e2bd
000002f0: 81e2 703d d5b3 36bc 67fe 80bd b814 ccbd
00000300: 140e 7cbd 3bfa c03d ad97 cbbd e1aa abbd
00000310: bde4 a23b 7855 9bbd 371b 89bd 6a64 87bd
00000320: 39c3 c0bd c5f4 323d 16bb 973d 0893 aebb
00000330: dfd4 573c c839 d6bc 22ea 603d 9593 6b3d
00000340: 43dc c03c d68a ecbd 3d58 6ebd 21c3 e1bd
00000350: 5d8b eb3d 3f25 0abe 0aa6 e13c 3784 1b3c
00000360: 8d57 dd3d 1def f8bd 1d06 653d b7ef 863d
00000370: ff68 f7bc be85 cfbd 8609 28bd c6b3 6a3d
00000380: 02fd cdbd 300e 90bd 0e94 8e3d 6c75 8a3c
00000390: 04b3 5a3c 7bb3 593d 6793 aabd 9712 f23d
000003a0: d156 9ebd 3339 27bd 8f23 83bd b909 8bbd
000003b0: 8e76 99bb 66e3 a8bd 5ecc be3d 0b7f 16bd
000003c0: b8e4 b5bc 8434 c5bd 4211 b8bd dea2 763c
000003d0: e688 e5bd 52b0 d5bd 8c71 afbd f811 ad3d
000003e0: d1f3 91bc 2ce3 adbd afa8 f9bd 2be9 123d
000003f0: f851 1f3c 4f85 e3bc 88f8 b23d a4ce 003d

main_network.lstm.weight_hh_l0 f4 [256, 64]
0.014226834 -0.048538495 -0.060056083 0.097922966 0.008818591 0.054893952 -0.100764364 0.032715578
0.07720192 -0.06937473 0.004746435 -0.037821054 0.0063748583 0.034631856 -0.11075569 -0.08104952
-0.033250805 -0.01894348 0.086183295 0.048868693 -0.093560554 0.026429057 0.06924734 0.088380225
-0.058381557 0.10091428 0.12554264 -0.043622132 0.032351773 0.10436706 0.027170116 0.06758393
-0.024835879 -0.013517728 -0.08695813 0.069437295 0.10844304 -0.07731058 0.03859413 -0.071180046
-0.045349218 0.05532377 0.0028854143 -0.10610876 -0.06427099 -0.112063386 0.093609974 -0.019523224
0.11948468 -0.10563402 -0.024592169 0.05909929 -0.09260047 -0.024824703 -0.09893986 0.08736334
0.079871856 0.006121956 0.12663183 -0.093598716 0.015294618 0.11592607 0.054491997 0.051244758
-0.020119652 -0.11127494 -0.11887897 -0.07144505 -0.07857409 -0.027897941 0.13181913 0.10523341
0.09764042 -0.10459426 0.110507205 0.05609411 -0.10320457 0.044400245 0.03450905 0.051027477
-0.056672316 0.043368842 -0.034382775 0.062202524 0.026907552 0.000927753 0.04632042 -0.07144295
-0.13322207 -0.07427871 -0.0052615684 -0.11493788 0.019107541 -0.13632417 -0.13730909 -0.040900096
0.01690095 -0.011850709 -0.09396607 0.07542031 0.1036606 -0.075908326 0.06121307 0.06416357
0.018670775 0.06282001 -0.12086544 0.09670332 5.4120403e-05 -0.11370391 0.07714822 -0.013016355
0.0052906224 -0.088020116 -0.124646835 -0.002665062 0.10787986 -0.10322239 0.0838982 0.012774038
-0.012362965 -0.08065369 -0.057662133 -0.104958914 -0.08338384 -0.057303723 0.019625884 -0.08437836
0.045484673 -0.10728512 -0.093378365 0.0035363832 0.07272593 0.058554612 2.1486134e-05 0.101854235
-0.051027235 0.040339343 -0.053521287 -0.07034522 -0.059646692 0.08601328 -0.08514724 -0.06081358
-0.09476638 0.08780746 -0.011762959 0.10920515 -0.07191991 -0.002174362 -0.119455345 0.05278623
-0.12475784 0.042094484 -0.11237506 0.034221537 -0.12145393 0.035679456 -0.09620567 -0.08699432
-0.12456406 -0.10875058 0.053776298 0.08096045 -0.10856561 -0.061637595 0.091828994 0.093841225
-0.021341074 0.07209804 -0.065001145 0.024752036 0.07258224 0.08872317 0.008101612 -0.027740309
-0.046990674 -0.078550234 0.038128875 0.10926399 0.045475025 -0.067689516 -0.099560246 -0.085451394
-0.0059409924 -0.103010334 0.106156096 -0.031479362 -0.016457077 0.08294353 -0.0394309 -0.038677394
-0.0031879854 0.060474947 -0.06839767 -0.15042993 0.07042589 0.07840354 0.10356497 0.13668886
0.0013546252 -0.0019795897 0.029114341 0.0907057 0.092783384 0.059113357 -0.03904439 -0.04876166
-0.016129771 -0.09790829 0.071361095 0.014316388 -0.024363855 -0.00923876 -0.0057760933 -0.010683305
-0.03783919 0.1232262 -0.09566718 0.13566849 0.03218265 -0.044625252 0.030747976 0.00471203
0.009016284 -0.017866395 0.054406773 0.050894108 0.09795001 0.07581894 -0.061818145 -0.119585045
-0.04347816 -0.034788128 -0.098025 -0.045635458 0.066876 0.017690293 0.0009670827 0.044910815
-0.053841967 0.10398771 0.05810429 0.08265346 0.022861335 -0.116766006 -0.09706819 -0.01416113
0.056553774 0.068800695 -0.008478454 0.0614359 -0.013518438 -0.064642504 -0.059620384 -0.048753604
00000000: ab17 693c 4dd0 46bd 5efd 75bd d68b c83d
00000010: da7b 103c 7bd8 603d 8c5d cebd c500 063d
00000020: 0a1c 9e3d 5714 8ebd fc87 9b3b 40ea 1abd
00000030: 30e4 d03b 22da 0d3d e1d3 e2bd 4afd a5bd
00000040: ff31 08bd 5b2f 9bbc de80 b03d 8a2a 483d
00000050: ad9c bfbd c081 d83c 8dd1 8d3d b100 b53d
00000060: 8021 6fbd 25ac ce3d 408e 003e 1fad 32bd
00000070: 4b83 043d 66be d53d dd93 de3c 7269 8a3d
00000080: 9d74 cbbc 7679 5dbc 1b17 b2bd 2435 8e3d
00000090: 6217 de3d 0255 9ebd e114 1e3d d8c6 91bd
000000a0: 1ac0 39bd 2d9b 623d 3819 3d3b 8d4f d9bd
000000b0: 82a0 83bd 7d81 e5bd 96b6 bf3d 2bef 9fbc
000000c0: 62b4 f43d a656 d8bd 8475 c9bc 1912 723d
000000d0: 51a5 bdbd 2d5d cbbc fba0 cabd 8deb b23d
000000e0: db93 a33d b09a c83b c6ab 013e afb0 bfbd
000000f0: 4796 7a3c a66a ed3d 0033 5f3d 06e6 513d
00000100: f8d1 a4bc 1ee4 e3bd d176 f3bd c851 92bd
00000110: 74eb a0bd 398a e4bc 98fb 063e 9d84 d73d
00000120: b3f7 c73d 8435 d6bd 9a51 e23d f0c2 653d
00000130: eb5c d3bd 08dd 353d 5d59 0d3d 3002 513d
00000140: 3b21 68bd 87a3 313d f4d4 0cbd 13c8 7e3d
00000150: 3a6d dc3c 7334 733a 7bba 3d3d ae50 92bd
00000160: 5e6b 08be 701f 98bd 3c69 acbb 8d64 ebbd
00000170: 6b87 9c3c 9098 0bbe c19a 0cbe dc86 27bd
00000180: dc73 8a3c 7a29 42bc 4871 c0bd f775 9a3d
00000190: 024c d43d d375 9bbd 8eba 7a3d 3168 833d
000001a0: 74f3 983c c7a7 803d 4d88 f7bd 640c c63d
000001b0: 57ff 6238 98dd e8bd e3ff 9d3d 8d42 55bc
000001c0: f55c ad3b e443 b4bd d746 ffbd 52a8 2ebb
000001d0: 1ef0 dc3d 4366 d3bd d2d2 ab3d 334a 513c
000001e0: 098e 4abc c32d a5bd 212f 6cbd b3f4 d6bd
000001f0: 26c5 aabd 4fb7 6abd 76c6 a03c 90ce acbd
00000200: 234e 3a3d 4db8 dbbd 283d bfbd aac2 673b
00000210: 55f1 943d f6d6 6f3d 1f3d b437 f498 d03d
00000220: ef01 51bd de3a 253d 2339 5bbd 2811 90bd
00000230: 1750 74bd bb27 b03d ad61 aebd a917 79bd
00000240: e014 c2bd 66d4 b33d 6db9 40bc f3a6 df3d
00000250: bf4a 93bd be7f 0ebb 01a5 f4bd 6036 583d
00000260: 0a81 ffbd 446b 2c3d e524 e6bd e22b 0c3d
00000270: d7bc f8bd 9f24 123d 7a07 c5bd 142a b2bd
00000280: 711b ffbd a0b8 debd 8944 5c3d 98ce a53d
00000290: a657 debd b477 7cbd d710 bc3d d42f c03d
000002a0: 7ad3 aebc 23a8 933d 521f 85bd c8c4 ca3c
000002b0: ffa5 943d 7eb4 b53d a0bc 043c a53f e3bc
000002c0: 4b79 40bd f2de a0bd 062d 1c3d ccc5 df3d
000002d0: 0544 3a3d cda0 8abd 3ee6 cbbd 2401 afbd
000002e0: a8ac c2bb 15f7 d2bd 5e68 d93d 81f0 00bd
000002f0: fed0 86bc 4cde a93d 4c82 21bd 306c 1ebd
00000300: 85ed 50bb 94b4 773d 1414 8cbd 4e0a 1abe
00000310: 733b 903d 0992 a03d df19 d43d 2af8 0b3e
00000320: ae8d b13a 01bc 01bb 3381 ee3c e9c3 b93d
00000330: 3705 be3d d920 723d 03ed 1fbd 4eba 47bd
00000340: 9522 84bc 2484 c8bd c425 923d 498f 6a3c
00000350: b596 c7bc 2b5e 17bc 6245 bdbb 0709 2fbc
00000360: 44fd 1abd 055e fc3d 28ed c3bd aeec 0a3e
00000370: f4d1 033d f8c8 36bd 2ee3 fb3c 5f67 9a3b
00000380: 09b9 133c 8c5c 92bc a3d9 5e3d 5776 503d
00000390: 049a c83d f646 9b3d 0635 7dbd 01e9 f4bd
000003a0: 2816 32bd ff7d 0ebd 55c1 c8bd 3fec 3abd
000003b0: 49f6 883d 3ceb 903c d283 7d3a 67f4 373d
000003c0: 6589 5cbd 82f7 d43d c4fe 6d3d 3846 a93d
000003d0: b247 bb3c 0423 efbd b0cb c6bd 1604 68bc
000003e0: eea4 673d 61e7 8c3d 37e9 0abc 36a4 7b3d
000003f0: 707c 5dbc 4a63 84bd 8134 74bd dcb1 47bd

main_network.lstm.bias_ih_l0 f4 [256]
0.08321269 0.052975245 -0.0872599 -0.021749184 -0.06331046 -0.06349044 -0.0049416088 0.06726834
0.12726998 0.0025625364 -0.09111176 -0.08869157 0.077250905 0.12382925 -0.017294493 -0.0055584027
-0.015009173 0.11222499 0.0581699 0.03346172 -0.1096952 0.07255129 0.13378896 -0.0474214
-0.13193148 0.012024493 0.0053900303 -0.017787103 -0.104745686 0.048847426 0.04547008 0.03945916
-0.11410682 -0.051000506 -0.10208958 0.003511755 0.0046164044 0.11554082 0.05080272 -0.08357553
-0.05480408 -0.07167913 -0.054517392 0.1359245 -0.026787912 -0.021432023 0.031369545 -0.062032726
-0.11719679 0.035553306 0.051540077 0.059196346 -0.09776215 -0.0071018795 -0.07868521 0.014885755
-0.054683242 0.100525305 0.08082765 -0.060617544 -0.109654635 -0.0005652855 0.1017532 0.040872395
0.05985019 0.0031109198 0.109066434 0.05688196 -0.0896878 -0.0874586 -0.0860763 0.10454275
-0.09900622 0.034676384 -0.06543714 -0.01081343 -0.056787606 0.083175 0.008757846 -0.015537987
-0.06299198 -0.031175341 -0.0811429 0.05545485 -0.07118862 0.014613842 0.003177536 0.08213635
-0.046374645 0.029688822 0.026508888 0.0049921186 0.00458413 0.13006313 0.06548583 0.08042992
-0.01947344 3.721307e-05 -0.038259756 -0.105265126 -0.07312262 0.07781206 -0.00909769 0.030835975
0.115676306 0.035770297 0.08371311 0.054642465 0.055445008 -0.05495164 -0.07675862 0.041429423
-0.069342114 0.013298443 0.052818216 -0.066035755 0.038813956 0.12250405 -0.09902019 0.08601825
0.08428402 0.04584503 0.08067696 0.049397983 0.038265318 0.117521174 -0.08225159 -0.0050030043
-0.0022487412 -0.05032662 0.011263576 -0.093721464 -0.06033386 0.10598868 -0.039997987 -0.015166246
0.10081831 0.09228669 -0.10175637 0.043759957 0.07793792 -0.101184264 -0.021907207 -0.14456873
0.13059522 -0.10650801 -0.12854396 -0.050860226 -0.045300446 0.019727407 0.113952495 0.11511552
0.09659036 0.1076433 0.057554983 0.08396375 -0.0046140146 -0.110239506 0.033904828 -0.045987256
-0.011194138 -0.07319115 0.008999632 -0.10792045 0.018459639 0.12304727 0.0711892 0.046496637
-0.06580221 -0.04590368 -0.08408967 -0.067892775 0.0920453 -0.12289325 0.04741609 -0.09503788
-0.07274036 0.09176513 0.06815181 0.015337804 0.021193543 -0.068086006 -0.0031909512 0.10349224
-0.016366212 0.1259957 -0.030365868 -0.007567512 -0.022565426 0.026003132 0.107081056 -0.024936616
0.1024113 -0.017646307 -0.0142526 -0.07910661 -0.05956196 -0.005548384 -0.112607084 -0.105686456
-0.037108738 -0.0018617316 -0.009815874 0.1098068 0.031254 -0.080922924 -0.11502718 0.063467
0.042308934 0.14420657 0.08145687 -0.014321445 0.06578325 0.09847365 -0.0559566 0.08054701
0.08123444 0.05614301 0.037806034 -0.017990813 -0.062282037 -0.0910807 -0.10122369 -0.08297696
-0.11038115 -0.0158592 0.006659716 0.02993088 -0.033076465 -0.022737924 0.0035699566 -0.08663224
0.06659662 0.05489315 -0.029533293 0.064368896 -0.015633032 0.1308129 -0.030347405 0.04687385
0.008285795 0.061516978 0.010284245 0.13344485 -0.045035582 -0.08597367 -0.081663236 -0.098310366
-0.08278083 -0.03426558 -0.059274904 -0.057174977 0.111501835 -0.092449605 -0.11792151 0.1263613
00000000: 6a6b aa3d 92fc 583d 52b5 b2bd 582b b2bc
00000010: eaa8 81bd 4707 82bd 38ed a1bb fcc3 893d
00000020: 1053 023e 3af0 273b cd98 babd eda3 b5bd
00000030: b935 9e3d 319a fd3d 2ead 8dbc 4323 b6bb
00000040: 09e9 75bc 37d6 e53d 9043 6e3d 280f 093d
00000050: e1a7 e0bd c595 943d f9ff 083e f13c 42bd
00000060: 0c19 07be 6102 453c da9e b03b 42b6 91bc
00000070: e884 d6bd 3d14 483d d63e 3a3d ee9f 213d
00000080: d6b0 e9bd e8e5 50bd 5714 d1bd 7925 663b
00000090: 3545 973b aaa0 ec3d 8316 503d a629 abbd
000000a0: 3e7a 60bd 82cc 92bd a14d 5fbd cb2f 0b3e
000000b0: 5372 dbbc 3692 afbc 5a7d 003d 0716 7ebd
000000c0: df04 f0bd 58a0 113d b01b 533d de77 723d
000000d0: 8637 c8bd e2b6 e8bb b625 a1bd 62e3 733c
000000e0: 89fb 5fbd 36e0 cd3d f888 a53d 1a4a 78bd
000000f0: 9c92 e0bd ab2f 14ba fb63 d03d d069 273d
00000100: 7925 753d 93e0 4b3b 395e df3d 0ffd 683d
00000110: 3dae b7bd 7f1d b3bd c548 b0bd 821a d63d
00000120: c6c3 cabd d308 0e3d e803 86bd d02a 31bc
00000130: 1f9a 68bd a857 aa3d 127d 0f3c 0b93 7ebc
00000140: f001 81bd 6e63 ffbc 402e a6bd a024 633d
00000150: 57cb 91bd e56e 6f3c 353e 503b 1a37 a83d
00000160: 57f3 3dbd f935 f33c 2b29 d93c ed94 a33b
00000170: 7836 963b 452f 053e 6f1d 863d 71b8 a43d
00000180: c386 9fbc 3b15 1c38 43b6 1cbd 3e95 d7bd
00000190: 50c1 95bd ee5b 9f3d 7a0e 15bc ba9b fc3c
000001a0: b3e7 ec3d e083 123d c771 ab3d c7d0 5f3d
000001b0: 4e1a 633d f914 61bd a033 9dbd e6b1 293d
000001c0: 3d03 8ebd b6e1 593c ea57 583d c13d 87bd
000001d0: 62fb 1e3d 67e3 fa3d 19cb cabd 562a b03d
000001e0: 1a9d ac3d 00c8 3b3d f639 a53d 8a55 4a3d
000001f0: 18bc 1c3d f1ae f03d 8673 a8bd 3ef0 a3bb
00000200: 9e5f 13bb 4923 4ebd dd8a 383c 0af1 bfbd
00000210: a320 77bd 9810 d93d eed4 23bd d97b 78bc
00000220: d579 ce3d ce00 bd3d a565 d0bd a43d 333d
00000230: eb9d 9f3d b239 cfbd be76 b3bc d309 14be
00000240: c1ba 053e df20 dabd 07a1 03be d052 50bd
00000250: f68c 39bd 5f9b a13c ed5f e93d b0c1 eb3d
00000260: 2bd1 c53d 1774 dc3d c6be 6b3d 30f5 ab3d
00000270: 2931 97bb 40c5 e1bd cadf 0a3d 225d 3cbd
00000280: 9e67 37bc 3ee5 95bd 3173 133c 6605 ddbd
00000290: ab38 973c 3500 fc3d a5cb 913d 4273 3e3d
000002a0: 4fc3 86bd 7f05 3cbd 3437 acbd 5e0b 8bbd
000002b0: 3f82 bc3d 75af fbbd 6037 423d 38a3 c2bd
000002c0: e6f8 94bd 5bef bb3d 2d93 8b3d 6a4b 7b3c
000002d0: 159e ad3c ad70 8bbd 471f 51bb bdf3 d33d
000002e0: 6f12 86bc 0405 013e d7c1 f8bc e4f8 f7bb
000002f0: 21db b8bc 8504 d53c 504d db3d e047 ccbc
00000300: 04bd d13d fd8e 90bc bd83 69bc a502 a2bd
00000310: 3ef7 73bd 38cf b5bb 8b9e e6bd 2472 d8bd
00000320: 55ff 17bd 5905 f4ba c2d2 20bc 63e2 e03d
00000330: 3204 003d ebba a5bd 5f93 ebbd fdfa 813d
00000340: 224c 2d3d e3aa 133e dcd2 a63d 7ea4 6abc
00000350: 5eb9 863d 8eac c93d bf32 65bd d5f5 a43d
00000360: 3e5e a63d 36f6 653d 80da 1a3d 7861 93bc
00000370: 731b 7fbd 8588 babd 5e4e cfbd d3ef a9bd
00000380: 830f e2bd 27eb 81bc bf39 da3b 9b31 f53c
00000390: 307b 07bd e244 babc eff5 693b 3e6c b1bd
000003a0: cf63 883d a4d7 603d ceef f1bc d7d3 833d
000003b0: d810 80bc d1f3 053e 1f9b f8bc cbfe 3f3d
000003c0: 25c1 073c 3af9 7b3d 407f 283c c4a5 083e
000003d0: 3b77 38bd f712 b0bd 0e3f a7bd f256 c9bd
000003e0: ff88 a9bd 115a 0cbd 3eca 72bd 4f30 6abd
000003f0: 135b e43d 3856 bdbd d580 f1bd db64 013e

main_network.lstm.bias_hh_l0 f4 [256]
-0.08627391 0.018112283 0.0986613 -0.047211137 -0.073213145 -0.065055646 0.119558394 -0.005102819
-0.0068243593 -0.04334209 -0.07615594 0.0497769 0.05695007 0.061775886 -0.08853988 -0.09443895
-0.07219804 -0.047585707 0.05685799 0.0075587323 0.10236625 0.072442345 0.005889899 0.034431245
0.04775676 0.07703337 -0.034820143 0.009434254 0.09589782 -0.050026663 -0.05585751 -0.030081905
-0.00724696 0.022713387 -0.015413696 0.0978764 -0.058916558 0.097726986 -0.020196771 0.0070698676
0.12787797 -0.10477242 -0.048371904 -0.080904424 -0.019286921 -0.10529769 -0.08667223 -0.07874998
-0.08489168 0.0015105506 0.054095298 -0.084826715 0.005859605 0.03801772 -0.07512136 -0.03896312
0.0699435 0.06548255 0.017203022 -0.0006154887 -0.043919526 0.03817075 0.10980099 0.12592715
0.057702485 -0.06714146 0.1068153 0.13991278 -0.028822228 0.025279481 0.054235727 -0.04389839
-0.08796318 0.116649054 -0.0061518066 -0.12064394 -0.028000742 0.08564757 -0.10642405 0.08101714
0.012043988 0.07030789 -0.026841756 0.009644343 -0.06990389 0.07504775 0.026913267 0.10300705
0.08672672 -0.0020429946 0.12261717 0.0159332 0.068667464 -0.05088267 0.031599827 -0.0388951
0.062100668 -0.054994054 0.033131108 0.0357985 -0.08567083 -0.08810155 -0.011278325 0.05613324
-0.10149329 -0.040056936 0.03561054 0.12958196 0.03646993 -0.0133528 -0.013214712 0.060938254
0.11094222 -0.030487489 0.08818288 0.060509034 -0.11490562 -0.0330237 0.019378895 -0.0861613
0.020750802 -0.015287794 0.1233731 0.1384195 -0.076596685 0.10154017 -0.032577455 -0.09176248
-0.10572644 -0.032012038 -0.07795746 0.012506409 0.017770048 0.046383332 0.11905425 0.08197861
0.104499556 0.06519504 0.04677319 -0.082437076 0.09646309 -0.11963534 -0.11089577 0.057778552
-0.048801064 0.0532971 -0.025646085 0.009224943 0.11518021 -0.013110876 -0.082498066 0.13352479
-0.07284792 -0.08848601 -0.10890658 -0.04268067 0.12611727 0.10090956 -0.10397593 -0.05693543
0.0061576585 -0.10405663 -0.062238876 0.10990372 0.13416515 0.07566602 -0.116151996 -0.056148354
-0.0154507505 0.14317998 -0.1133773 0.03455642 0.1264935 -0.07659675 -0.103130825 -0.050609
0.022491997 -0.07992264 -0.09721383 0.052379396 0.03772906 -0.062920846 -0.11131805 -0.0010193689
0.027549254 -0.020397412 -0.027406912 0.023960682 0.067209415 0.10765486 -0.068020806 -0.026075022
0.099033594 -0.07250022 0.0252983 -0.08688163 -0.10603936 -0.08209805 -0.094075255 -0.045499712
0.059689324 0.049021706 0.07043799 0.05445073 -0.040405247 -0.11172483 0.11893017 0.036146972
0.08919142 0.14211333 0.0052990965 -0.0863024 -0.07625136 -0.09025389 0.024782477 -0.031240145
-0.05336971 0.02398474 0.07306245 0.051030576 0.01342747 0.054041814 0.06712769 -0.08873359
0.09352345 0.005540658 -0.0992385 0.06073812 -0.120708495 0.036088828 0.036997184 0.02948106
-0.085585505 0.027969418 -0.10275519 0.105287045 0.12184939 0.12025714 0.0039000087 0.017794846
0.032816228 -0.06492713 -0.09938956 0.13364556 0.029934775 -0.060401652 -0.04444999 0.07724949
-0.016530437 0.009827154 0.12445088 -0.03912903 0.08550883 0.03891761 -0.022781773 -0.11380293
00000000: 60b0 b0bd 3660 943c f00e ca3d 7760 41bd
00000010: c6f0 95bd e53b 85bd 08db f43d 8c35 a7bb
00000020: e09e dfbb 7a87 31bd a5f7 9bbd dde2 4b3d
00000030: 7a44 693d b608 7d3d 6654 b5bd 3569 c1bd
00000040: 91dc 93bd 3be9 42bd ece3 683d 3eaf f73b
00000050: 65a5 d13d a75c 943d 0e00 c13b c707 0d3d
00000060: 989c 433d acc3 9d3d 919f 0ebd 2192 1a3c
00000070: 1466 c43d c2e8 4cbd d8ca 64bd 546e f6bc
00000080: e877 edbb 6d11 ba3c ba89 7cbc 6c73 c83d
00000090: 7d52 71bd 1625 c83d b373 a5bc 59aa e73b
000000a0: 71f2 023e ec92 d6bd 9e21 46bd 38b1 a5bd
000000b0: 9bff 9dbc 51a6 d7bd 3681 b1bd ab47 a1bd
000000c0: b0db adbd abfd c53a 0893 5d3d a1b9 adbd
000000d0: ee01 c03b 78b8 1b3d 3ad9 99bd cb97 1fbd
000000e0: 8a3e 8f3d b71b 863d 5aed 8c3c bf58 21ba
000000f0: f6e4 33bd ef58 1c3d 57df e03d 0cf3 003e
00000100: 7159 6c3d 7681 89bd fbc1 da3d 4c45 0f3e
00000110: 981c ecbc ea16 cf3c 4826 5e3d ccce 33bd
00000120: 0a26 b4bd b3e5 ee3d 1895 c9bb 2c14 f7bd
00000130: d061 e5bc fe67 af3d daf4 d9bd 50ec a53d
00000140: 2654 453c 95fd 8f3d 3ee3 dbbc 4e03 1e3c
00000150: c529 8fbd a2b2 993d 3679 dc3c 5cf5 d23d
00000160: c79d b13d c3e3 05bb b61e fb3d 5886 823c
00000170: 87a1 8c3d 596a 50bd d26e 013d 7850 1fbd
00000180: 455d 7e3d 7241 61bd 7cb4 073d 73a1 123d
00000190: 3074 afbd 966e b4bd b9c8 38bc f8eb 653d
000001a0: b7db cfbd be12 24bd 5cdc 113d 22b1 043e
000001b0: 7e61 153d b4c5 5abc 8582 58bc 649a 793d
000001c0: ad35 e33d e6c0 f9bc 3a99 b43d 52d8 773d
000001d0: a353 ebbd dc43 07bd 7dc0 9e3c 5675 b0bd
000001e0: 96fd a93c a879 7abc 09ab fc3d d7bd 0d3e
000001f0: b9de 9cbd 4bf4 cf3d f06f 05bd f8ed bbbd
00000200: 1b87 d8bd 0e1f 03bd 29a8 9fbd aee7 4c3c
00000210: 7e92 913c 73fc 3d3d b7d2 f33d 67e4 a73d
00000220: dd03 d63d fa84 853d 3f95 3f3d c5d4 a8bd
00000230: 718e c53d 6003 f5bd 521d e3bd 34a9 6c3d
00000240: a0e3 47bd 0f4e 5a3d bd17 d2bc 3724 173c
00000250: 9ae3 eb3d 00cf 56bc bff4 a8bd b9ba 083e
00000260: 4a31 95bd 2738 b5bd 6a0a dfbd edd1 2ebd
00000270: e324 013e aca9 ce3d 55f1 d4bd 2035 69bd
00000280: 2fc6 c93b a41b d5bd 31ee 7ebd 3415 e13d
00000290: 9762 093e c9f6 9a3d 19e1 edbd d1fb 65bd
000002a0: 2525 7dbc c69d 123e 5c32 e8bd 088b 0d3d
000002b0: 8387 013e c2de 9cbd 4136 d3bd 624b 4fbd
000002c0: 2341 b83c 7bae a3bd 0b18 c7bd c78b 563d
000002d0: c989 1a3d a5dc 80bd b8fa e3bd 589c 85ba
000002e0: f9ae e13c 7918 a7bc 7684 e0bc 3149 c43c
000002f0: 17a5 893d 277a dc3d 7e4e 8bbd 499b d5bc
00000300: 20d2 ca3d ff7a 94bd 613e cf3c ffee b1bd
00000310: 2a2b d9bd 0623 a8bd 87aa c0bd e85d 3abd
00000320: cb7c 743d fcca 483d cb41 903d bb07 5f3d
00000330: f97f 25bd fdcf e4bd a991 f33d d90e 143d
00000340: fea9 b63d 2886 113e 0ba4 ad3b 50bf b0bd
00000350: ac29 9cbd 08d7 b8bd 9f04 cb3c 55eb ffbc
00000360: 329a 5abd a57b c43c c4a1 953d 7005 513d
00000370: e4fe 5b3c f35a 5d3d 3e7a 893d f5b9 b5bd
00000380: 3989 bf3d 688e b53b 8e3d cbbd 89c8 783d
00000390: 0436 f7bd e1d1 133d 5c8a 173d 4482 f13c
000003a0: 7447 afbd 1f20 e53c 5071 d2bd bca0 d73d
000003b0: 2c8c f93d 6049 f63d 4a97 7f3b 7fc6 913c
000003c0: 4f6a 063d 84f8 84bd c18c cbbd 62da 083e
000003d0: c639 f53c b967 77bd 3111 36bd fb34 9e3d
000003e0: d76a 87bc 1202 213c 1ae0 fe3d c345 20bd
000003f0: 411f af3d 1268 1f3d d7a0 babc 8311 e9bd

main_network.fc.weight f4 [3, 64]
0.056676775 0.07412698 -0.043545052 -0.0054840306 -0.12503158 -0.062999554 0.10930827 0.12926288
-0.09663047 -0.11295332 -0.06653086 -0.050613716 -0.04819248 0.0475221 -0.08500659 -0.009137137
0.091228686 0.054178983 -0.035794258 0.021450426 0.09280688 0.13622038 -0.022278225 0.07428345
-0.023078589 -0.05934917 0.07589128 -0.031323463 0.09213338 0.0016217596 0.011151494 -0.10329883
-0.020304253 -0.12002241 -0.113326736 -0.06041648 0.00622362 0.119721435 0.05930685 0.09025916
-0.09719507 -0.0026829077 -0.120137595 -0.11169129 0.10563315 0.04263236 -0.03954742 -0.0068610543
0.039738998 0.04115491 -0.042913884 0.10061681 0.053282652 0.11003571 0.0477588 -0.10105385
-0.00936717 -0.06687078 -0.0073935147 0.07604733 -0.024795868 -0.0047795563 -0.0477661 -0.030298652
-0.011805372 0.047689743 -0.07030617 0.053197213 0.047849778 0.10178648 -0.101818234 -0.106566936
-0.10926127 -0.02804515 0.1021109 0.11700214 0.11118336 -0.062377036 0.119556874 0.036856875
0.032964423 0.05622352 -0.00043445866 0.008047573 -0.059314135 0.061697952 -0.10024756 0.106191985
0.08462594 -0.06866828 -0.07086291 0.11591571 -0.0065456117 -0.029057728 0.07042906 -0.08628827
-0.092948 0.1044737 0.106545255 0.092044316 0.002816388 -0.070340864 0.018683685 0.04130824
0.03265721 -0.0941234 0.10249324 0.1050389 0.008358379 -0.033928037 -0.080420256 0.12525314
-0.04106896 -0.094641 -0.119287744 0.08458498 0.11442782 0.030917933 -0.021513183 -0.09289142
0.09144701 0.004667923 0.10583116 0.067854464 0.094475605 0.10950637 0.10105788 0.08824436
-0.09579777 -0.01226504 -0.06953868 -0.035141766 -0.024863657 0.04537013 -0.038845036 0.009403147
0.06545578 -0.12003844 -0.019657698 0.025511649 -0.010408443 -0.0075274273 -0.11251713 -0.11019219
0.07765639 0.011578349 -0.0811585 0.09204441 0.123058975 -0.066369794 0.0052246144 0.13922642
-0.07693558 -0.03870317 -0.08708432 0.07865912 0.07564631 -0.09207381 -0.0398533 -0.04193926
0.08399198 -0.08022176 0.0862574 -0.10765857 0.09997742 0.05792299 -0.13911742 -0.07943734
-0.12865932 0.11106633 0.00035845846 0.016132744 0.07943548 0.017152442 -0.13763797 -0.09610824
0.09961837 0.12558576 0.114540555 0.05602057 0.103775114 -0.018881781 -0.07591221 -0.030544309
-0.0040681087 0.035704594 0.10833869 -0.12782894 -0.07287574 0.053479496 0.01682991 -0.05090781
00000000: e825 683d e3cf 973d 4c5c 32bd 62b3 b3bb
00000010: 4708 00be e905 81bd 04dd df3d 7d5d 043e
00000020: 32e6 c5bd 1254 e7bd 5541 88bd 5450 4fbd
00000030: 7a65 45bd 89a6 423d ef17 aebd eeb3 15bc
00000040: 1bd6 ba3d c8ea 5d3d 009d 12bd ceb8 af3c
00000050: 8911 be3d 5b7d 0b3e d380 b6bc ec21 983d
00000060: 4f0f bdbc 1e18 73bd e36c 9b3d 084d 00bd
00000070: 6db0 bc3d 3991 d43a c2b4 363c 568e d3bd
00000080: 1b55 a6bc 4fce f5bd d917 e8bd 4577 77bd
00000090: 82ef cb3b 8330 f53d bdeb 723d cbd9 b83d
000000a0: 350e c7bd b9d3 2fbb b30a f6bd 67be e4bd
000000b0: 3156 d83d 459f 2e3d 7afc 21bd b2d2 e0bb
000000c0: 5cc5 223d 0d92 283d 78c6 2fbd 3010 ce3d
000000d0: e93e 5a3d 675a e13d bb9e 433d 52f5 cebd
000000e0: c278 19bc 8cf3 88bd 4c45 f2bb b4be 9b3d
000000f0: b420 cbbc d39d 9cbb 63a6 43bd e134 f8bc
00000100: 526b 41bc 5256 433d aefc 8fbd 52e5 593d
00000110: 21fe 433d 6e75 d03d 1486 d0bd c43f dabd
00000120: 5fc4 dfbd f1be e5bc 851f d13d d19e ef3d
00000130: 1ab4 e33d 107f 7fbd 3cda f43d 3cf7 163d
00000140: b405 073d a24a 663d 0ec8 e3b9 f8d9 033c
00000150: 61f3 72bd feb6 7c3d 984e cdbd 2f7b d93d
00000160: 5d50 ad3d f5a1 8cbd 9320 91bd 3765 ed3d
00000170: 927c d6bb 790a eebc 1c3d 903d e8b7 b0bd
00000180: 855b bebd 4ff6 d53d 6634 da3d bb81 bc3d
00000190: 2693 383b df0e 90bd 870e 993c d432 293d
000001a0: 91c3 053d c5c3 c0bd fae7 d13d a31e d73d
000001b0: 95f1 083c 20f8 0abd 60b3 a4bd 5c42 003e
000001c0: ed37 28bd 24d3 c1bd 224d f4bd e43a ad3d
000001d0: 2259 ea3d 9b47 fd3c 6a3c b0bc db3d bebd
000001e0: 9248 bb3d 60f5 983b 02be d83d 48f7 8a3d
000001f0: 6d7c c13d e044 e03d 6ff7 ce3d 76b9 b43d
00000200: 9f31 c4bd 4ef3 48bc 4c6a 8ebd d0f0 0fbd
00000210: deae cbbc 08d6 393d f91b 1fbd a80f 1a3c
00000220: ae0d 863d b7d6 f5bd 2e09 a1bc cefd d03c
00000230: 2d88 2abc a3a8 f6bb 626f e6bd 71ac e1bd
00000240: 500a 9f3d 1eb3 3d3c 6d36 a6bd c881 bc3d
00000250: 5806 fc3d e3ec 87bd 3e33 ab3b 5f91 0e3e
00000260: 6790 9dbd 3787 1ebd 4459 b2bd 0818 a13d
00000270: 74ec 9a3d 3291 bcbd 373d 23bd 80c8 2bbd
00000280: fd03 ac3d 4e4b a4bd b8a7 b03d 197c dcbd
00000290: f6c0 cc3d a840 6d3d cc74 0ebe 0bb0 a2bd
000002a0: 45bf 03be be76 e33d 7bef bb39 d128 843c
000002b0: 12af a23d 4783 8c3c f8f0 0cbe 66d4 c4bd
000002c0: b704 cc3d 8e99 003e 3d94 ea3d d375 653d
000002d0: 0c88 d43d f7ad 9abc dc77 9bbd 0f38 fabc
000002e0: c54d 85bb fb3e 123d ade0 dd3d 97e5 02be
000002f0: e03f 95bd 510d 5b3d e1de 893c b584 50bd

main_network.fc.bias f4 [3]
0.09282196 -0.025620753 0.037721623
00000000: 7119 be3d 9de2 d1bc fd81 1a3d

short_term_context_network.fc1.weight f4 [32, 7]
0.25881475 -0.15983026 -0.27320147 0.12733163 -0.23196116 0.3399507 0.19742157 0.2226692
-0.26265204 0.077226944 -0.16938853 -0.25883538 -0.120395765 0.3702497 -0.21407382 -0.003945721
0.09375647 0.050693534 0.11046626 -0.09769771 -0.045062862 0.15945052 -0.09397927 0.15328652
-0.2641433 -0.20852205 -0.34032685 0.26546296 -0.32318652 -0.35476404 0.3098404 0.27269268
-0.14887354 0.2237103 0.07877324 0.022161726 0.01536854 -0.0926592 -0.21176574 0.15818806
0.27124828 -0.29116705 -0.108551204 0.21158014 0.33208588 -0.15927781 0.07678576 -0.10608344
0.2129651 0.28648067 0.2353372 0.3210794 0.11017762 -0.16696504 -0.19146661 0.12081167
0.10677343 -0.22560892 0.046017442 0.15104002 -0.33219746 -0.35765126 0.16734709 0.17479855
-0.2833376 0.114407875 -0.078135155 -0.21291488 0.31193432 0.073297314 -0.31060344 -0.1427241
-0.01577198 -0.35438314 0.028859785 0.12242692 -0.27516535 0.22740993 -0.24623615 0.3530299
-0.13884786 0.1724254 -0.11296887 0.38574824 0.017446429 -0.2791169 0.27959234 -0.20230402
0.10293441 0.2212079 0.24392942 -0.11862835 0.37638995 -0.25423834 0.37240314 -0.12707886
-0.2530141 0.14682773 0.07808264 -0.31842083 -0.06588748 0.22821145 0.34564498 -0.10154307
-0.18716039 -0.31984475 0.33220533 0.12016443 -0.37145275 0.33624148 -0.23273881 -0.32568917
0.24923775 0.034644954 0.32889572 0.073366426 -0.28804776 0.014809641 -0.069907784 0.21940283
0.18381575 0.07135342 0.24960315 -0.09983255 -0.35804766 0.03254432 0.14618292 0.08678355
-0.26667073 0.07227596 0.25371873 -0.073164314 0.19202675 0.34329256 -0.08554696 -0.115691416
-0.21314353 0.18872583 0.053135213 0.06963368 0.1171403 -0.20460224 -0.36613718 -0.24194893
0.27208903 -0.14187822 -0.025982397 -0.094554335 0.14518821 -0.27585143 -0.30253395 0.247997
-0.1169672 0.30203044 -0.30732992 0.017108366 -0.35051873 0.28824067 0.026642254 0.19503582
0.04185368 -0.0430635 0.23406024 0.034737725 0.078983895 0.34782168 -0.33199555 -0.13507906
0.17604135 -0.08545343 -0.29629523 -0.03267056 0.23529989 0.1839182 -0.093576625 -0.026685972
-0.16635044 0.051027723 0.34022367 -0.34113917 0.25497812 0.12779297 -0.1328954 0.3196565
-0.2706149 -0.34123555 -0.10319593 0.004000645 -0.2095785 0.3086665 0.1403955 -0.0069551594
0.22235091 0.09886477 -0.20803447 0.42796192 -0.33256006 0.2060076 0.11730652 -0.17927735
-0.037045762 -0.08659612 -0.22055633 -0.12401734 -0.018472733 -0.07025015 -0.36717677 0.3058198
0.12839782 0.3579124 -0.3226778 0.23931275 -0.24126601 -0.10610863 -0.35472608 0.17070225
0.118178375 -0.30666143 -0.059484538 0.23765236 -0.29124552 0.1559278 0.0018420726 0.10965526
00000000: 5e83 843e 8baa 23be 10e1 8bbe 3963 023e
00000010: 3a87 6dbe 050e ae3e e128 4a3e 6503 643e
00000020: 547a 86be 2929 9e3d 3074 2dbe 1286 84be
00000030: 0e92 f6bd 5e91 bd3e 2b36 5bbe 1b4b 81bb
00000040: 6403 c03d 06a4 4f3d 223c e23d bd15 c8bd
00000050: d693 38bd ff46 233e 3478 c0bd 24f7 1c3e
00000060: ca3d 87be ce86 55be 523f aebe c3ea 873e
00000070: b478 a5be a2a3 b5be 67a3 9e3e 609e 8b3e
00000080: 4e72 18be 5014 653e dd53 a13d 828c b53c
00000090: 54cc 7b3c 1bc4 bdbd 1ed9 58be 0dfc 213e
000000a0: 0ee1 8a3e d913 95be 1850 debd 77a8 583e
000000b0: 2907 aa3e b919 23be da41 9d3d 4642 d9bd
000000c0: 8613 5a3e 98ad 923e 3cfc 703e 8564 a43e
000000d0: cea4 e13d e2f8 2abe d30f 44be 1c6c f73d
000000e0: 07ac da3d 0606 67be c97c 3c3d 3caa 1a3e
000000f0: c915 aabe 111e b7be 095d 2b3e 64fe 323e
00000100: a011 91be ad4e ea3d 5305 a0bd 5c06 5abe
00000110: dbb5 9f3e e71c 963d 6a07 9fbe 4426 12be
00000120: 3d34 81bc b571 b5be 5b6b ec3c f7ba fa3d
00000130: 79e2 8cbe 26de 683e 5425 7cbe 56c0 b43e
00000140: 222e 0ebe 4990 303e 395c e7bd cb80 c53e
00000150: d0eb 8e3c 69e8 8ebe ba26 8f3e c928 4fbe
00000160: 47cf d23d 5384 623e a2c8 793e 6cf3 f2bd
00000170: 2fb6 c03e 872b 82be a0ab be3e f620 02be
00000180: 108b 81be 025a 163e cbe9 9f3d 0e08 a3be
00000190: 04f0 86bd 43b0 693e 61f8 b03e d0f5 cfbd
000001a0: f9a6 3fbe b1c2 a3be d116 aa3e c518 f63d
000001b0: 0e2f bebe d827 ac3e 1553 6ebe bbc0 a6be
000001c0: 2e38 7f3e dee7 0d3d 0565 a83e 2341 963d
000001d0: ff7a 93be 23a4 723c d02b 8fbd 23ab 603e
000001e0: 323a 3c3e be21 923d f897 7f3e 0275 ccbd
000001f0: 0652 b7be 314d 053d fab0 153e 93bb b13d
00000200: 1189 88be 6b05 943d 6ce7 813e 2cd7 95bd
00000210: a9a2 443e 0bc4 af3e 3f33 afbd 9fef ecbd
00000220: 4c42 5abe 5841 413e 4fa4 593d 1a9c 8e3d
00000230: 41e7 ef3d 4083 51be 5576 bbbe 76c1 77be
00000240: 414f 8b3e 8648 11be 09d9 d4bc b4a5 c1bd
00000250: 38ac 143e 663c 8dbe bbe5 9abe edf2 7d3e
00000260: 808c efbd bca3 9a3e 595a 9dbe d826 8c3c
00000270: 3177 b3be 4894 933e db40 da3c 78b7 473e
00000280: c46e 2b3d 5a63 30bd 7dad 6f3e 2549 0e3d
00000290: 4fc2 a13d af15 b23e 52fb a9be 2a52 0abe
000002a0: 2f44 343e 3502 afbd 02b4 97be 91d1 05bd
000002b0: 74f2 703e 0d55 3c3e 1aa5 bfbd 8a9c dabc
000002c0: c557 2abe 7202 513d cc31 ae3e cba9 aebe
000002d0: 7e8c 823e 29dc 023e bb15 08be 04aa a33e
000002e0: 098e 8abe 6db6 aebe 6358 d3bd d817 833b
000002f0: bf9b 56be 8909 9e3e d7c3 0f3e 1be8 e3bb
00000300: f5af 633e 9d79 ca3d fd06 55be d31d db3e
00000310: 5045 aabe a8f3 523e 673e f03d 7b94 37be
00000320: 4cbd 17bd 4e59 b1bd 85d9 61be cefc fdbd
00000330: 2154 97bc 50df 8fbd 98fe bbbe 6a94 9c3e
00000340: b87a 033e 4b40 b73e 0636 a5be 670e 753e
00000350: 700e 77be 7b4f d9bd a89e b5be 92cc 2e3e
00000360: 8107 f23d ba02 9dbe 0fa6 73bd 245b 733e
00000370: 221e 95be 8aab 1f3e b371 f13a f092 e03d

short_term_context_network.fc1.bias f4 [32]
0.40663037 -0.084136166 0.22913064 -0.13370456 0.3074222 -0.28550938 -0.12153744 0.28129244
-0.35976043 0.16872928 -0.22352378 0.055061672 -0.36830568 -0.050318044 0.32303187 -0.34827238
0.03608416 0.24469438 -0.08688342 -0.21440043 0.28511795 -0.33832505 0.21999826 0.18522467
0.4054488 -0.26176003 -0.21903265 -0.0039224257 -0.30767718 -0.037644766 -0.18718469 0.313846
00000000: db31 d03e 954f acbd 39a1 6a3e d9e9 08be
00000010: 7166 9d3e 492e 92be 9fe8 f8bd 9005 903e
00000020: 8532 b8be 5ec7 2c3e 6be3 64be 5988 613d
00000030: 9092 bcbe 4b1a 4ebd 6f64 a53e c250 b2be
00000040: fccc 133d 2a91 7a3e efef b1bd c98b 5bbe
00000050: fbfa 913e f138 adbe 3947 613e 89ab 3d3e
00000060: fc96 cf3e 6905 86be 184a 60be b187 80bb
00000070: dd87 9dbe 6631 1abd 58ad 3fbe 6cb0 a03e

short_term_context_network.fc2.weight f4 [16, 32]
-0.09837281 -0.05514377 -0.19679254 -0.11829121 -0.13302875 0.066637814 -0.17923862 0.039373517
-0.15818736 -0.16537486 -0.017604275 0.11281277 0.01987561 0.12970395 0.1129718 -0.054499034
-0.10605296 -0.1021132 0.118591264 -0.15088399 0.1171792 0.0005492788 -0.045719255 -0.033029344
0.00088109187 0.020749673 0.024611989 -0.21368118 -0.10122071 -0.01236588 0.034335203 0.042987287
0.091086484 -0.021921817 0.19936997 0.13428976 -0.040022038 -0.109076664 0.029879238 -0.09225905
0.027134517 0.042877167 0.028981542 -0.037465937 0.10323491 -0.09390305 0.13754551 -0.16771655
0.1011664 0.21976936 -0.059436467 -0.15521868 0.15516707 0.055316873 0.15135269 0.031310037
0.07804265 0.020864965 0.054134592 0.016615363 -0.015502728 0.16340294 -0.14956953 0.0500489
-0.12471231 -0.04025905 0.11254911 -0.088588856 0.1498507 -0.017733835 -0.12422741 -0.1109097
0.053777672 -0.074014224 0.17323224 -0.12059623 -0.002630785 -0.008120307 -0.1717349 -0.052128844
0.1080347 -0.054907165 -0.17300323 -0.112124376 -0.16615969 -0.018024985 -0.13010632 0.027762255
-0.17386869 0.13675715 -0.12028462 -0.042141538 -0.15210256 0.0687147 -0.037698228 0.1552295
-0.04217536 0.1837596 0.007569596 -0.049986057 -0.019872854 -0.05113602 -0.08085672 0.0527822
-0.12974496 0.17049648 0.08886006 0.1963806 -0.06162891 -0.1307821 0.15364777 0.04546492
0.09969809 0.091917865 0.2222193 0.03823989 0.22968861 -0.14131168 0.09200392 0.22067393
0.21595752 0.031787068 -0.07867935 -0.11138591 0.02678154 -0.08564208 0.11710605 0.23654014
-0.102454014 -0.14477162 -0.018095708 0.10036271 -0.0903219 0.067695975 0.10524266 0.002506178
0.0034061607 0.062704414 0.121746354 -0.038067307 0.0008744839 0.17247371 -0.02179563 -0.05604612
-0.014935832 -0.025519473 -0.037836026 -0.10750588 -0.11741747 -0.02132955 -0.15117672 -0.14125948
-0.036261693 -0.150681 -0.14915428 -0.0786429 0.1479737 -0.04843872 -0.16791423 -0.14806858
0.16821808 0.108069375 -0.049453553 -0.041838203 0.048793893 -0.08547402 0.10326921 0.17731318
-0.074449554 0.20670263 0.16309083 -0.07030158 -0.12537295 -0.08706107 0.14638999 0.1338468
0.09402179 0.17574044 0.06878497 -0.018316297 0.10426653 -0.007550376 -0.067902885 -0.0038792843
0.17814222 0.103925385 0.010170371 -0.13100561 -0.01547569 -0.141588 -0.16291876 0.014156246
0.13891469 -0.015378542 -0.1649052 -0.14452738 -0.13052239 0.10236096 0.10681086 -0.14993629
-0.09782336 -0.037519418 -0.07476341 0.028386429 0.033415012 0.08994599 -0.08143938 0.025808454
-0.121796995 0.015577833 0.0643662 -0.16668642 0.010096826 -0.16433728 -0.16805027 0.06389304
-0.08387661 0.11247681 0.059401684 0.09367541 -0.06579064 -0.14842841 0.1389093 0.070738345
-0.18793274 0.027508663 -0.11048806 -0.023767969 0.13276264 -0.05165364 -0.010183713 -0.15192695
0.049586587 0.036339406 0.15587308 -0.16513364 -0.04765093 0.13739955 -0.032696977 -0.07472263
0.11588853 -0.118108414 0.04678692 -0.16092406 -0.04955602 -0.12411092 0.14717102 0.019822024
-0.16283657 0.006004198 0.0076713376 0.12765288 0.122766055 -0.014558437 0.0011326544 -0.052462842
00000000: af77 c9bd 6fde 61bd fc83 49be a942 f2bd
00000010: b038 08be 6879 883d 548a 37be 2046 213d
00000020: defb 21be 0758 29be d736 90bc 620a e73d
00000030: 2dd2 a23c 1dd1 043e c25d e73d 613a 5fbd
00000040: 4b32 d9bd ba20 d1bd fadf f23d 5581 1abe
00000050: a6fb ef3d 7afd 0f3a 1d44 3bbd c749 07bd
00000060: 13f9 663a 38fb a93c 159f c93c 3dcf 5abe
00000070: ce4c cfbd 439a 4abc 12a3 0c3d 7013 303d
00000080: 8d8b ba3d 6295 b3bc a427 4c3e 4183 093e
00000090: 26ee 23bd 9663 dfbd 4ec5 f43c 50f2 bcbd
000000a0: 3549 de3c f89f 2f3d b36a ed3c e275 19bd
000000b0: d36c d33d 3e50 c0bd bbd8 0c3e e3bd 2bbe
000000c0: 5430 cf3d 380b 613e a773 73bd a5f1 1ebe
000000d0: 1ee4 1e3e f293 623d 33fc 1a3e f43e 003d
000000e0: d3d4 9f3d 01ed aa3c 3cbc 5d3d f11c 883c
000000f0: 27ff 7dbc 1a53 273e c128 19be 1300 4d3d
00000100: 2b69 ffbd ace6 24bd 2680 e63d 136e b5bd
00000110: 7672 193e 8c46 91bc f16a febd a024 e3bd
00000120: fa45 5c3d c594 97bd cb63 313e 28fb f6bd
00000130: 4069 2cbb 090b 05bc 46db 2fbe 0e85 55bd
00000140: 4c41 dd3d 56e6 60bd c227 31be 77a1 e5bd
00000150: c425 2abe 22a9 93bc 973a 05be ab6d e33c
00000160: a20a 32be 110a 0c3e c857 f6bd 9b9c 2cbd
00000170: c6c0 1bbe 4bba 8c3d 7569 1abd 7bf4 1e3e
00000180: 12c0 2cbd 7a2b 3c3e 600a f83b 2ebe 4cbd
00000190: 65cc a2bc 0174 51bd 3598 a5bd 2632 583d
000001a0: dddb 04be a196 2e3e 43fc b53d ff17 493e
000001b0: 996e 7cbd beeb 05be d755 1d3e 6d39 3a3d
000001c0: 832e cc3d 6f3f bc3d 758d 633e 6ea1 1c3d
000001d0: 7e33 6b3e 02b4 10be 8d6c bc3d 59f8 613e
000001e0: f823 5d3e 2833 023d a422 a1bd 4c1e e4bd
000001f0: f664 db3c 1d65 afbd 4cd5 ef3d 9437 723e
00000200: 69d3 d1bd 033f 14be 733d 94bc f78a cd3d
00000210: b0fa b8bd 30a4 8a3d 7789 d73d b13e 243b
00000220: e539 5f3b 2c6b 803d 2756 f93d 77ec 1bbd
00000230: 9f3d 653a f39c 303e c08c b2bc 9e90 65bd
00000240: 6bb5 74bc 370e d1bc f3f9 1abd 0b2c dcbd
00000250: 9278 f0bd 4fbb aebc 12ce 1abe 53a6 10be
00000260: 2487 14bd 1f4c 1abe e6bb 18be 870f a1bd
00000270: 6b86 173e ae67 46bd b5f1 2bbe 4a9f 17be
00000280: 5c41 2c3e 7a53 dd3d cf8f 4abd 895e 2bbd
00000290: 1bdc 473d 010d afbd cf7e d33d 9691 353e
000002a0: 0279 98bd dba9 533e 4801 273e 46fa 8fbd
000002b0: c461 00be 134d b2bd 42e7 153e 230f 093e
000002c0: 7f8e c03d 4df5 333e 22df 8c3d 0f0c 96bc
000002d0: b189 d53d 2569 f7bb ab10 8bbd 973b 7ebb
000002e0: ea6a 363e d5d6 d43d a1a1 263c 5626 06be
000002f0: c08d 7dbc 72fc 10be 2dd4 26be 99ef 673c
00000300: a73f 0e3e 48f6 7bbc e9dc 28be fcfe 13be
00000310: a9a7 05be 9fa2 d13d a7bf da3d e688 19be
00000320: 9d57 c8bd f6ad 19bd 8f1d 99bd a88a e83c
00000330: 2ede 083d 9a35 b83d b1c9 a6bd 406c d33c
00000340: b470 f9bd 2b3a 7f3c 6dd2 833d d8af 2abe
00000350: 286d 253c 0848 28be 5f15 2cbe 5bda 823d
00000360: 80c7 abbd 3e5a e63d 2e4f 733d e5d8 bf3d
00000370: 3ebd 86bd 9efd 17be 3d3e 0e3e 44df 903d
00000380: 7171 40be d959 e13c 9047 e2bd 0bb5 c2bc
00000390: eef2 073e c492 53bd 97d9 26bc bd92 1bbe
000003a0: 4e1b 4b3d a1d8 143d 319d 1f3e cb18 29be
000003b0: 9f2d 43bd 78b2 0c3e 44ed 05bd 2e08 99bd
000003c0: f756 ed3d d3e2 f1bd a4a3 3f3d 47c9 24be
000003d0: 41fb 4abd de2d febd 00b4 163e cc61 a23c
000003e0: a1be 26be ddbe c43b d85f fb3b 70b7 023e
000003f0: c56c fb3d 8386 6ebc 9375 943a 47e3 56bd

short_term_context_network.fc2.bias f4 [16]
-0.056578327 0.20563363 -0.13306215 -0.07404231 -0.17324302 -0.08928494 -0.0021388473 0.14122733
-0.17643392 -0.16951506 -0.023410508 0.20892824 0.0624776 -0.04238209 0.0077682356 0.14995204
00000000: adbe 67bd 9f91 523e 7241 08be 7fa3 97bd
00000010: 9e66 31be 06db b6bd e72b 0cbb e69d 103e
00000020: 18ab 34be 5b95 2dbe 65c7 bfbc 49f1 553e
00000030: 83e8 7f3d d898 2dbd af8c fe3b 078d 193e

short_term_context_network.fc3.weight f4 [1, 16]
0.0011716544 0.2573867 -0.16208744 0.15076113 0.11964333 0.1084585 0.010545492 -0.10006317
-0.09874462 0.003411711 0.08694059 0.12851164 -0.1265022 0.23162927 -0.089251325 0.2209031
00000000: 3392 993a 31c8 833e 40fa 25be 2061 1a3e
00000010: 9007 f53d 7d1f de3d 00c7 2c3c ebed ccbd
00000020: 9f3a cabd 0397 5f3b e80d b23d 8e98 033e
00000030: cb89 01be 3930 6d3e 66c9 b6bd 6c34 623e
