Uni_Research/IRL/Final/Extended/old/V3/V3_demo1/Testing_Suite/model_C10000_R0_S10.0.pth (torch, 91250 bytes, 11 tensors)

main_network.lstm.weight_ih_l0 f4 [256, 15]
0	0xbdd22a8d	-0.10262022
1	0xbd107de3	-0.035276305
2	0xbdb59f4d	-0.08868275
3	0xbd888db0	-0.0666765
4	0xbeeac19f	-0.45850846
5	0xbe2fdc79	-0.17173947
6	0xbdef5f72	-0.116881266
7	0xbf38f912	-0.7225505
8	0xbe41cac8	-0.18925011
9	0xbe9ae79c	-0.3025483
10	0xbedc17d5	-0.42986932
11	0xbedf09b0	-0.43562078
12	0xbe868b5a	-0.26278192
13	0xbe94128e	-0.28920406
14	0xbeaadccc	-0.3337158
15	0x3e45ef37	0.19329534
16	0x3cc8d90d	0.02451756
17	0xbe42dc41	-0.19029333
18	0x3e8446c4	0.2583524
19	0xbe04e35a	-0.12977353
20	0xbe45bea0	-0.19310999
21	0xbeb6fd7a	-0.35740262
22	0x3e6f9357	0.2339605
23	0xbe6e1516	-0.23250231
24	0x3eb441aa	0.35206348
25	0x3d871a9b	0.065968715
26	0xbe1ff496	-0.15620646
27	0x3da9b2ce	0.082860574
28	0x3d0054e4	0.031330958
29	0x3c239220	0.009983569
30	0xbe056eb9	-0.13030519
31	0xbe90e899	-0.28302458
32	0xbdadf990	-0.08494866
33	0xbdb2e2ee	-0.0873469
34	0x3db83b97	0.08995741
35	0xbd69b2f4	-0.05705543
36	0x3da67d86	0.081294104
37	0xbf0012d5	-0.50028735
38	0xbe0e742b	-0.13911502
39	0xbeb3a25d	-0.3508481
40	0x3d9641b1	0.073367484
41	0xbd25fde5	-0.040525336
42	0xbdb8449c	-0.08997461
43	0xbe370008	-0.17871106
44	0x3c81156f	0.01575729
45	0xbd905f31	-0.07049406
46	0xbdbe0a8a	-0.09279354
47	0xbdb471f4	-0.08810797
48	0x3d9f67fd	0.07783506
49	0x3e29283e	0.16519257
50	0x3b1a6dda	0.0023564012
51	0xbe8a3a4b	-0.269976
52	0x3f1947a3	0.59874934
53	0xbe03cb24	-0.12870461
54	0x3e51ca1c	0.20487255
55	0x3f028bb8	0.50994444
56	0xbde6fda2	-0.11278845
57	0xbdcb346e	-0.099221095
58	0x3dac2939	0.084063
59	0xbe274b02	-0.16337207
60	0x3e619f8c	0.22033519
61	0xbe8a6287	-0.27028295
62	0xbd883d80	-0.06652355
63	0x3ec0bfaf	0.37646243
64	0xbde2f49e	-0.11081813
65	0xbdfcf44e	-0.12351285
66	0xbe4af008	-0.19818127
67	0x3e9abac3	0.30220613
68	0xbeb3b07d	-0.35095587
69	0xbe2500cb	-0.16113584
70	0xbef3637f	-0.47536847
71	0xbe9a94bd	-0.30191603
72	0xbf011015	-0.50415164
73	0xbe9b4a7e	-0.3033027
74	0x3e818ac5	0.25301185
75	0x3e691b0d	0.22764225
76	0x3c5c290c	0.013437521
77	0xbe1d17d5	-0.15341122
78	0xbe20b2cc	-0.15693206
79	0xbe335cb0	-0.17515826
80	0xbe609824	-0.21933037
81	0xbd62b735	-0.0553505
82	0x3e8f4b62	0.279872
83	0xbe07b996	-0.13254389
84	0x3e5abf1d	0.21361966
85	0x3daf1a76	0.08549969
86	0xbe7953f0	-0.24348426
87	0xbe341df1	-0.17589547
88	0xbe4cabac	-0.19987363
89	0xbd66bfce	-0.056335263
90	0xbe0601ca	-0.1308662
91	0x3de6c9bf	0.11268949
92	0xbd5c65a8	-0.053807884
93	0xbedf6005	-0.43627945
94	0xbe099ff8	-0.1343993
95	0xbdaf9025	-0.08572415
96	0xbe9436ee	-0.28948158
97	0xbe1e5d1e	-0.15465209
98	0xbe0c9d36	-0.13731846
99	0xbee15de7	-0.44016954
100	0x3de4d971	0.11174286
101	0x3e5b766e	0.21431896
102	0xbdc33700	-0.09531975
103	0xbdb626e6	-0.08894138
104	0xbe5c2220	-0.21497393
105	0xbd7bab54	-0.061442688
106	0xbceaab2c	-0.028646074
107	0x3e950946	0.29108638
108	0xbdd11903	-0.10209849
109	0x3e09b4b7	0.13447843
110	0xbb9562dd	-0.0045589046
111	0x3daaa581	0.083323486
112	0x3d97cba1	0.07411886
113	0xbe12d143	-0.1433764
114	0xbe74bf34	-0.23901063
115	0x3ee5c43e	0.44876283
116	0xbf2b0a16	-0.66812265
117	0xbe88bf40	-0.26708412
118	0xbeb9cf8c	-0.36291158
119	0xbd8c1e7d	-0.06841753
120	0x3dd5f6ee	0.10447489
121	0xbe3f9b53	-0.18711595
122	0x3e147de1	0.14501144
123	0x3d9a690e	0.07539569
124	0x3d2b8157	0.041871395
125	0xbc33eb67	-0.010981417
126	0xbe8eebfc	-0.27914417
127	0x3eac4b71	0.33651307
128	0x3c179f9c	0.009254362
129	0xbdaae440	-0.083443165
130	0xbe1bb206	-0.1520463
131	0x3cbc5034	0.022987463
132	0x3dde5cc9	0.10857541
133	0xbd8b42b0	-0.06799829
134	0xbb8c4f4e	-0.004281915
135	0xbd23bb02	-0.039973266
136	0x3d23ec9f	0.04002058
137	0xbcfd5775	-0.030925492
138	0xbcc4ff48	-0.024047509
139	0x3ddb7700	0.10716057
140	0xbd8cab32	-0.068685904
141	0x3ded073d	0.11573646
142	0x3e090602	0.13381198
143	0xbdd138e9	-0.10215933
144	0x3de3450c	0.11097154
145	0x3e16c54e	0.14723703
146	0xbdffdd02	-0.12493326
147	0x3d079890	0.03310448
148	0xbd5e898e	-0.0543304
149	0x3e42e310	0.1903193
150	0x3ebca851	0.36847165
151	0x3e3c418e	0.18384382
152	0x3da3878b	0.07984837
153	0x3e609a60	0.2193389
154	0x3e386a24	0.1800924
155	0xbe4578a6	-0.19284305
156	0x3e796180	0.243536
157	0xbde5b101	-0.112154014
158	0xbdbb64d1	-0.091500886
159	0x3c54d1f5	0.012989511
160	0xbe589495	-0.2115043
161	0xbe0b1490	-0.13582063
162	0xbe084b02	-0.13309863
163	0x3c722227	0.01477865
164	0x3e08cc42	0.13359168
165	0x3e15cda7	0.14629231
166	0xbe125661	-0.14290763
167	0xbdeeee95	-0.116666
168	0x3e5fe95d	0.21866365
169	0xbe0d9d92	-0.1382964
170	0xbee64a2e	-0.4497847
171	0x3d8e0eed	0.069364406
172	0x3d537353	0.051623654
173	0x3d597c19	0.053096864
174	0xbedecd70	-0.4351611
175	0xbe9250a7	-0.28577158
176	0xbd8fd5ea	-0.07023223
177	0xbed6de97	-0.41966698
178	0xbdfc0652	-0.12305893
179	0x3a8cbf9d	0.0010738258
180	0x3e9b380e	0.30316204
181	0x3d4bb29e	0.04973089
182	0x3e5c0c8c	0.21489161
183	0x3f1dffe4	0.61718583
184	0xbe68f2cf	-0.22748874
185	0xbeac2d3f	-0.3362827
186	0x3e959de3	0.2922202
187	0x3f41bcd6	0.75678766
188	0xbd5e5247	-0.054277685
189	0xbe3a5f8a	-0.18200508
190	0xbe9f2892	-0.3108564
191	0x3df00bc8	0.11720997
192	0x3e1af258	0.1513151
193	0x3e03af91	0.12859942
194	0x3b242499	0.0025046228
195	0x3e840080	0.2578163
196	0xbe11fb01	-0.14255907
197	0xbe485673	-0.19564228
198	0xbf15a0ff	-0.58448786
199	0xbe6caf8e	-0.23113844
200	0x3e374bff	0.17900084
201	0xbe98fbb9	-0.2987955
202	0xbdc81dfd	-0.09771345
203	0x3ebca8f1	0.36847642
204	0xbe73542a	-0.23762575
205	0xbd651a1d	-0.055933107
206	0x3ca31cf6	0.01991127
207	0x3f3daf0f	0.74095243
208	0x3eadd672	0.3395267
209	0xbe5606e8	-0.20901072
210	0xbe3221f9	-0.17395772
211	0xbd5dce7b	-0.054151993
212	0xbe3de938	-0.18545997
213	0x3eb9c605	0.3628389
214	0xbdd3b6b1	-0.1033758
215	0xbe9856ca	-0.29753715
216	0xbd8c1c15	-0.06841294
217	0xbdf960b2	-0.12176646
218	0xbd0f9ebd	-0.035063494
219	0x3e0e2fd9	0.1388544
220	0xbd7306c9	-0.059332643
221	0xbeba2a5e	-0.3636045
222	0x3d0c1581	0.034200195
223	0xbd206bba	-0.039165236
224	0xbc9056b2	-0.017619465
225	0xbe45f15f	-0.19330357
226	0x3cf90345	0.030397067
227	0x3e9e232b	0.30886206
228	0x3e80ebae	0.2517981
229	0x3e71ed62	0.2362571
230	0xbcc54ea1	-0.024085345
231	0x3ecaee03	0.39634714
232	0x3e8fb425	0.28067127
233	0xbe3673a9	-0.17817558
234	0xbd5e4161	-0.05426157
235	0xbed5c468	-0.4175141
236	0xbc0a62fc	-0.008446451
237	0xbe6b6a45	-0.22989757
238	0x3e8fac70	0.28061247
239	0x3dfe823c	0.12427184
240	0xbd4d1727	-0.050070908
241	0xbe5a94b9	-0.21345796
242	0xbe0a77b2	-0.13522223
243	0x3e804575	0.25052992
244	0xbf273b75	-0.653251
245	0xbd73280f	-0.059364375
246	0xbf0edacb	-0.558026
247	0x3f188b1f	0.5958728
248	0xbdbf0633	-0.09327354
249	0x3f094dba	0.53634226
250	0xbe1006a0	-0.14065027
251	0xbe0f58c2	-0.13998702
252	0x3ee59fc3	0.4484845
253	0xbdf04422	-0.11731745
254	0xbd8160ee	-0.06317316
255	0xbe2c2ce8	-0.16814005

main_network.lstm.weight_hh_l0 f4 [256, 64]
0	0x3ea6edaf	0.32603213
1	0xbdd66869	-0.104691334
2	0xbe2fa785	-0.17153747
3	0x3d25b6f5	0.040457685
4	0x3eb5a755	0.35479227
5	0xbf0ba580	-0.5454941
6	0xbed775ec	-0.42082155
7	0xbe84901b	-0.25891194
8	0xbe519338	-0.20466316
9	0xbd9c0b37	-0.076193266
10	0x3e21e838	0.1581124
11	0xbcc203f7	-0.023683531
12	0x3d089bde	0.03335177
13	0x3f0bada7	0.5456185
14	0xbe156a3d	-0.14591308
15	0xbe1b01dd	-0.1513743
16	0x3dd90595	0.10596768
17	0xbf3dd8b8	-0.7415881
18	0x3e0b59e5	0.13608511
19	0xbedba102	-0.42896277
20	0xbec8b0fc	-0.39197528
21	0x3e5ef813	0.2177432
22	0x3ed75dc8	0.42063737
23	0xbe2ec6f5	-0.17068084
24	0xbde95f14	-0.11395088
25	0x3eae94e5	0.34097973
26	0xbea0faec	-0.31441438
27	0x3f1d8bc8	0.61541414
28	0x3d960554	0.07325235
29	0xbd801246	-0.062534854
30	0x3c15cc52	0.009142952
31	0xbdbbe2b7	-0.09174102
32	0x3d88aabf	0.06673192
33	0x3d7d30e5	0.061814208
34	0xbedcbd05	-0.4311296
35	0x3e32227e	0.1739597
36	0x3ea23dd8	0.31687808
37	0x3e8e7c50	0.27829218
38	0xbc89950d	-0.016794706
39	0xbe65fe40	-0.2246027
40	0xbea545be	-0.32279772
41	0xbee8895a	-0.4541729
42	0xbe9c13b9	-0.30483797
43	0x3ea85ee0	0.32884884
44	0x3f32032c	0.6953609
45	0xbe432ccc	-0.19060057
46	0x3f157a01	0.5838929
47	0x3e3025d2	0.17201927
48	0xbe1afe1c	-0.15135998
49	0x3da8ef6c	0.08248791
50	0x3d825213	0.06363311
51	0xbee683e0	-0.45022488
52	0x3eb4e738	0.35332656
53	0xbf030352	-0.5117694
54	0xbef1bc54	-0.47213995
55	0x3d7f61ac	0.062349007
56	0x3eabe6dd	0.33574572
57	0x3e7d8d1a	0.24760857
58	0xbf081a59	-0.53165203
59	0xbe9fb530	-0.31192923
60	0xbeadaad5	-0.33919397
61	0xbad0d77e	-0.0015933362
62	0xbf32420a	-0.6963202
63	0xbf18db0a	-0.5970923
64	0x3dce05c6	0.10059695
65	0x3d58992e	0.05288046
66	0xbd15248b	-0.036411803
67	0xbed50570	-0.4160571
68	0x3e9b3b52	0.30318695
69	0xbe2e7ca6	-0.17039737
70	0x3e530c0e	0.20610067
71	0xbdd79de9	-0.10528166
72	0x3d9cd319	0.07657451
73	0x3e5cf73d	0.21578689
74	0x3eaeaa4b	0.34114298
75	0xbe3782ea	-0.17921034
76	0xbca97916	-0.020687621
77	0x3e08ab43	0.13346581
78	0x3e417c7d	0.18895145
79	0x3e980122	0.29688364
80	0xbde6d50a	-0.11271103
81	0x3d02ca29	0.031931076
82	0xbd2400c1	-0.04003978
83	0x3cb367bc	0.02190005
84	0xbe1e5550	-0.15462232
85	0xbe82b6df	-0.25530145
86	0xbda7e544	-0.08198026
87	0xbe908706	-0.28228015
88	0xbd59f1f7	-0.05320927
89	0xbe2e0114	-0.16992599
90	0xbd80b5c6	-0.062846705
91	0xbd049dba	-0.032376982
92	0x3e8bc436	0.27298135
93	0x3e556074	0.20837575
94	0x3c2d5f77	0.010581843
95	0x3cd84f2b	0.026404938
96	0xbc11a9d4	-0.008890588
97	0x3e8b39b3	0.2719246
98	0x3d40e639	0.047094557
99	0xbd449e31	-0.048002426
100	0xbe188620	-0.14894915
101	0xbd0d8a11	-0.0345555
102	0xbd626979	-0.055276368
103	0x3d1110f6	0.035416566
104	0x3d5d2e8a	0.05399946
105	0xbd021639	-0.031759474
106	0xbd829447	-0.06375938
107	0x3e7af5b9	0.24507798
108	0xbe85253a	-0.26004964
109	0xbdb7ffc1	-0.08984328
110	0xbe083cbb	-0.13304417
111	0xbd2a0963	-0.041512858
112	0x3ddb6af8	0.10713762
113	0xbeafd5d1	-0.34342816
114	0xbdde6651	-0.10859359
115	0x3d702757	0.058631267
116	0x3d5830a2	0.052780755
117	0xbe077d65	-0.13231428
118	0x3cb7d8e7	0.022442294
119	0x3c5faf51	0.0136526385
120	0x3d4fc90f	0.050728854
121	0x3c376637	0.0111938035
122	0xbdc96029	-0.09832794
123	0x3d7f2d34	0.06229897
124	0x3ddf73c9	0.10910756
125	0xbcce1812	-0.025157962
126	0x3d289e83	0.041166794
127	0xbdbbafe2	-0.09164406
128	0x3d3aa712	0.045569487
129	0xbdc1de86	-0.09466271
130	0xbd1dfd14	-0.038571432
131	0x3c797590	0.015225783
132	0x3d54e1ae	0.051973037
133	0xbca5981b	-0.020214131
134	0xbea19efa	-0.31566602
135	0x3c3c4958	0.011492096
136	0xbdaa1766	-0.08305244
137	0xbe1e9231	-0.15485455
138	0x3e0905bf	0.13381098
139	0x3d079c93	0.033108305
140	0x3d5bb6a6	0.053640984
141	0xbd8be058	-0.068298995
142	0xbd8a112e	-0.06741558
143	0xbcadd33f	-0.021218894
144	0x3c8bf7d2	0.017085943
145	0x3d0a763d	0.033804167
146	0x3cbec947	0.023289336
147	0x3cf73991	0.030178817
148	0xbd3693ee	-0.04457467
149	0x3ddea11f	0.10870575
150	0x3c7e7b23	0.015532288
151	0x3b312374	0.0027029188
152	0xbdbd126b	-0.092320286
153	0x3e147b32	0.1450012
154	0xbdbc4f4d	-0.09194813
155	0x3dbc02c6	0.091802165
156	0x3dcf463b	0.10120817
157	0xbcd592ef	-0.02607104
158	0xbd688d39	-0.056775305
159	0x3cee280f	0.029071836
160	0x3dc1aad6	0.094564125
161	0x3c0d9489	0.008641371
162	0xbe7a134e	-0.24421427
163	0xbe36fd1f	-0.17869996
164	0x3e0ba917	0.13638721
165	0xbda91322	-0.082556024
166	0x3dbcd980	0.09221172
167	0xbe78c4be	-0.24293801
168	0xbe2b5568	-0.16731799
169	0xbe25991f	-0.16171692
170	0xbd82d6db	-0.06388637
171	0x3ddf96bb	0.109174214
172	0x3daa67a5	0.0832055
173	0xbdfd7195	-0.1237518
174	0x3e1dc128	0.15405715
175	0x3aab27e9	0.0013058159
176	0xbd005369	-0.031329546
177	0xbcf78ae9	-0.030217605
178	0xbce5a4b3	-0.028032636
179	0x3d4252a5	0.047442097
180	0x3dc412cc	0.09573898
181	0xbe945898	-0.28973842
182	0x3c172405	0.009224896
183	0xbca09b0b	-0.01960518
184	0x3e1789ef	0.14798711
185	0x3ddcc336	0.10779421
186	0xbd162a3c	-0.03666137
187	0xbc655745	-0.013997857
188	0xbdfd58fb	-0.12370487
189	0xbe1c12c1	-0.15241529
190	0xbe6bdf60	-0.2303443
191	0x3d1124e4	0.035435572
192	0x3e434257	0.19068275
193	0x3e1e9414	0.15486175
194	0xbc4117af	-0.011785432
195	0xbda444f5	-0.08020965
196	0x3e3ba1db	0.18323462
197	0xbe0c6ffc	-0.13714594
198	0xbd2e02de	-0.042483203
199	0xbdaae9ed	-0.08345399
200	0xbe3751d9	-0.17902316
201	0x3d3dfa5a	0.046381332
202	0x3e5733f4	0.21015912
203	0x3e396446	0.18104658
204	0x3ec1b5da	0.37834054
205	0x3c716981	0.014734627
206	0x3e7a9ee1	0.2447467
207	0x3caa902d	0.020820701
208	0x3d3c2d71	0.045941774
209	0x3c7f7b2c	0.015593331
210	0xbc2d900e	-0.010593427
211	0x3c21c821	0.009874375
212	0xbe3a852e	-0.18214867
213	0xbe052320	-0.1300168
214	0xbd98d295	-0.0746204
215	0xbe082ea6	-0.13299045
216	0xbd105449	-0.03523663
217	0xbdb0e21f	-0.08636879
218	0xbdc242b9	-0.094853826
219	0x3dd8850c	0.10572252
220	0x3e22bb3e	0.1589174
221	0x3a821a68	0.0009926083
222	0xbe0ae354	-0.13563281
223	0x3d8179ef	0.06322085
224	0x3cd6476c	0.026157103
225	0xbdc83b95	-0.09776989
226	0xbe3c3673	-0.18380146
227	0x3d46865e	0.048467986
228	0x3e106086	0.14099321
229	0xbdcda813	-0.10041823
230	0x3d1a2c76	0.037640058
231	0x3dbba217	0.091617756
232	0xbe96c378	-0.29446006
233	0x3df282cb	0.11841353
234	0xbde6adc3	-0.11263611
235	0xbde24037	-0.11047404
236	0x3d68220b	0.05667309
237	0x3cb20241	0.02172959
238	0xbd2ce8df	-0.04221427
239	0xbab73c39	-0.001397974
240	0xbd4a4099	-0.04937801
241	0x3dd57406	0.1042252
242	0xbc6370b6	-0.013881853
243	0xbd9fd737	-0.07804721
244	0xbdda0291	-0.10645021
245	0x3d24448a	0.040104426
246	0xbd8f6e61	-0.07003475
247	0xbd80f735	-0.06297151
248	0xbd822b12	-0.06355871
249	0xbe42bb53	-0.19016771
250	0xbe19518f	-0.14972518
251	0xbe002c47	-0.1251689
252	0x3e545afc	0.20737833
253	0x3e0fb674	0.14034444
254	0xbc66d581	-0.014088989
255	0xbb1f0ead	-0.0024270222

main_network.lstm.bias_ih_l0 f4 [256]
0	0x3d9fa995	0.07796017
1	0xbdbf8218	-0.09350985
2	0xbd5301e6	-0.051515482
3	0x3d9d37a1	0.07676626
4	0x3cc63bae	0.02419838
5	0x3e037229	0.12836517
6	0x3d82f211	0.06393827
7	0xbdad8dbc	-0.08474299
8	0x3e069cc8	0.13145745
9	0xbca23a1a	-0.019803096
10	0x3d28af2a	0.041182674
11	0xbe1f7017	-0.15570103
12	0xba15cfd1	-0.0005714866
13	0x3dd4e615	0.10395447
14	0xbc6b5dd8	-0.014365636
15	0x3e46490e	0.19363806
16	0xbe3fa870	-0.18716598
17	0x3e2c57e5	0.16830404
18	0x3e361fed	0.17785616
19	0x3e216a5b	0.15763228
20	0xbd0c3fb0	-0.034240425
21	0x3b9c1934	0.0047637466
22	0x3e56e624	0.20986229
23	0x3c574308	0.01313854
24	0xbe26d199	-0.16290893
25	0x3d983f9c	0.074340075
26	0x3d4ca8fa	0.049965836
27	0x3cdf0918	0.027226016
28	0xba008138	-0.00049020676
29	0x3db6de9a	0.08929177
30	0xbe197632	-0.14986494
31	0xbe6380ae	-0.22217056
32	0xbd1832d6	-0.037157856
33	0x3d470062	0.04858435
34	0x3dabef20	0.08395219
35	0x3dec424d	0.11536083
36	0xbd6259fd	-0.0552616
37	0x3e098305	0.13428886
38	0xbd11e149	-0.03561524
39	0x3cd78940	0.026310563
40	0x3c9b0b7f	0.01892638
41	0xbde78ac9	-0.11305768
42	0xbe16dfd5	-0.14733823
43	0xbdad9a65	-0.08476714
44	0x3d24587b	0.040123444
45	0x3d6eed1c	0.058331594
46	0xbe241964	-0.16025311
47	0xbe3dae18	-0.18523443
48	0x3e408fd7	0.1880487
49	0x3d78964c	0.06069021
50	0x3dd13d26	0.10216741
51	0xbab5eb0c	-0.0013879254
52	0xbe20a884	-0.15689284
53	0x3db53df1	0.08849705
54	0x3e2f5051	0.17120482
55	0x3ea2d3a9	0.3180211
56	0xbcda3670	-0.026637286
57	0x3e1d1afd	0.15342326
58	0x3e3f3e63	0.18676142
59	0xbe4f7dd5	-0.20262845
60	0x3d40d63b	0.047079306
61	0x3e234dc9	0.15947641
62	0x3e8c9449	0.27456883
63	0x3d8a4537	0.06751483
64	0xbc399057	-0.011325917
65	0x3dd6b002	0.104827896
66	0xbd900c78	-0.07033628
67	0x3dac40e2	0.08410813
68	0xbea82b1c	-0.3284539
69	0xbdb79bf3	-0.08965292
70	0xbce0ec3e	-0.027456399
71	0xbd3496fd	-0.044089306
72	0xbe038637	-0.12844168
73	0x3cbdefc5	0.02318562
74	0x3d8e3092	0.06942858
75	0x3dca33c9	0.098731585
76	0xbe02c57c	-0.12770647
77	0x3defd571	0.117106326
78	0x3e013a56	0.1261991
79	0x3e217e49	0.1577083
80	0xbc93145f	-0.01795405
81	0xbdfb615b	-0.122744285
82	0x3e178dfc	0.14800256
83	0xbddc7a2a	-0.107654884
84	0x3d9f4661	0.077770956
85	0xbda83167	-0.08212548
86	0xbc2e5b4b	-0.010641883
87	0x3df7a797	0.12092512
88	0x3bb23c8f	0.005439348
89	0xbd6fb621	-0.0585233
90	0xbe1e1cc6	-0.15440664
91	0xbe2ca761	-0.16860725
92	0xbdd40ccf	-0.103540055
93	0x3e5a177f	0.21298026
94	0x3dfd694e	0.12373601
95	0xbd88b942	-0.0667596
96	0xbd8fedf3	-0.07027807
97	0xbdafa85c	-0.08577034
98	0xbdedb235	-0.11606256
99	0x3c8a1ed6	0.016860407
100	0x3e71f5de	0.23628947
101	0x3cb6a9d1	0.022297772
102	0xbd4f557b	-0.05061863
103	0xbc6aabf4	-0.014323223
104	0x3e3373bc	0.17524618
105	0xbe23d80c	-0.16000384
106	0xbdc1337b	-0.09433647
107	0x3e0bf1bc	0.13666433
108	0x3e064d5b	0.13115446
109	0xbe2d5573	-0.16927128
110	0xbdce5b05	-0.10075954
111	0x3d6bc104	0.05755712
112	0x3e276caa	0.16350046
113	0x3d6e2584	0.058141246
114	0x3ce88f3c	0.028388612
115	0xbbd0a7e3	-0.00636767
116	0xbe3875b2	-0.18013647
117	0x3e50d7d6	0.20394835
118	0xbd869057	-0.065704994
119	0x3e5c25ef	0.21498846
120	0x3cead198	0.028664395
121	0xbe3662a3	-0.17811064
122	0xbc8b7a63	-0.017026132
123	0xbe2820a3	-0.164187
124	0x3d305077	0.043045487
125	0x3a99224b	0.0011683194
126	0x3b9ecc17	0.0048461067
127	0x3bd1a563	0.0063978895
128	0xbdeb6ecc	-0.11495742
129	0x3d544d6b	0.051831644
130	0x3d32c4d8	0.043644756
131	0xbd34141a	-0.043964483
132	0x3e1b3596	0.1515716
133	0xbe2fd5b2	-0.17171362
134	0x3cdc0ab1	0.026860567
135	0x3e19965c	0.14998764
136	0xbc104d39	-0.008807474
137	0xbe0dfd1f	-0.1386609
138	0x3e292206	0.16516885
139	0xbe1b2311	-0.15150096
140	0x3a277065	0.00063872925
141	0x3b7ce0af	0.003858607
142	0x3e01dbd4	0.12681514
143	0x3e068766	0.13137588
144	0x3d5b04d0	0.053471386
145	0xbe78429e	-0.24244162
146	0xbe300775	-0.17190345
147	0x3ce45a6a	0.027875144
148	0xbe117fbb	-0.14208882
149	0xbe3f844f	-0.18702815
150	0x3e46058b	0.19338052
151	0xbd6cb67c	-0.05779122
152	0xbd0bc1b0	-0.03412026
153	0x3e040a56	0.12894568
154	0xbe4bf02e	-0.1991584
155	0x3e119bcf	0.14219593
156	0x3e3d0674	0.18459493
157	0x3d9f273e	0.07771157
158	0x3d4c6c87	0.049908187
159	0x3dfd882f	0.123794906
160	0x3da7ebc3	0.08199265
161	0xbc2027b0	-0.009775087
162	0xbd912442	-0.07086994
163	0x3d93e5e0	0.072215796
164	0xbd786888	-0.060646564
165	0xbb88c89b	-0.0041743047
166	0xbd1168ab	-0.03550021
167	0x3dd4a305	0.10382656
168	0xbc28cefb	-0.010303254
169	0x3dc9e2bd	0.098577
170	0xbd05dc36	-0.032680713
171	0x3e0c874f	0.13723491
172	0x3d1803ae	0.037112884
173	0xbd3df069	-0.04637185
174	0x3db608ac	0.08888373
175	0x3d486359	0.04892287
176	0x3dac274c	0.08405933
177	0xbdb661d4	-0.08905378
178	0xbe745d65	-0.23863752
179	0xbe2f1b1f	-0.1710019
180	0xbca1ffde	-0.019775327
181	0xbcd10237	-0.025513751
182	0x3d5b9b84	0.053615108
183	0x3e1fbad5	0.15598615
184	0x3b623bf4	0.0034520598
185	0x3de868ea	0.11348136
186	0x3b6138a2	0.0034366031
187	0x3e039d33	0.12852935
188	0xbd67b58b	-0.056569617
189	0x3d92f96b	0.07176479
190	0xbe1683eb	-0.1469876
191	0xbe139c58	-0.14415109
192	0x3d70835c	0.058719024
193	0x3d077d38	0.033078402
194	0xbdb15a9e	-0.08659862
195	0xbd3133da	-0.04326234
196	0xb88e74b3	-6.7928246e-05
197	0x3e165a4a	0.1468288
198	0xbd21db6e	-0.039515905
199	0xbd36c42d	-0.04462068
200	0xbda00c20	-0.07814813
201	0x3d986713	0.07441535
202	0x3cd2a8c3	0.025715237
203	0xbd23a4b9	-0.039952014
204	0x3cd459e5	0.025921771
205	0x3e9b87eb	0.30377135
206	0xbc509550	-0.012730911
207	0xbb26f9f8	-0.0025478583
208	0x3dd7c01f	0.10534691
209	0x3e73d8e9	0.23813213
210	0x3dd7a924	0.10530308
211	0x3e3befeb	0.1835324
212	0x3e6e452f	0.23268579
213	0x3db0d61b	0.086345874
214	0x3d4f85c3	0.050664674
215	0xbb8ddea5	-0.00432952
216	0xbe35e512	-0.17763165
217	0xbd2264ad	-0.039646793
218	0x3e2b3ece	0.16723177
219	0xbdc8e4c4	-0.098092586
220	0x3e09e122	0.13464788
221	0x3cd4103c	0.025886647
222	0xbde6bf2d	-0.11266933
223	0xbd9ba2e3	-0.075994276
224	0x3c5025c0	0.012704313
225	0xbd15827c	-0.036501393
226	0x3dbfffad	0.09374938
227	0x3dca3002	0.09872438
228	0x3ddb4435	0.10706369
229	0x3d7e9a5e	0.062158935
230	0x3ea04fb7	0.31310818
231	0x3ca9484a	0.020664353
232	0x3db5a3f2	0.08869161
233	0xbe429d22	-0.19005254
234	0x3d662af3	0.056193303
235	0x3d8f14ba	0.06986375
236	0x3e42348f	0.18965362
237	0x3da512c9	0.080602236
238	0xbe11e802	-0.1424866
239	0xbe050a6d	-0.12992258
240	0x3e353d16	0.17699084
241	0x3cb4707e	0.022026297
242	0x3e4c1572	0.19930056
243	0xbdadf0cb	-0.08493193
244	0x3db0b504	0.08628276
245	0x3e13ea8d	0.14444943
246	0x3d61af78	0.05509898
247	0x3e643f3e	0.2228975
248	0xbe39a56e	-0.18129513
249	0x3eb7d52e	0.3590483
250	0x3e6e9d8e	0.2330229
251	0xbe5f1786	-0.21786317
252	0xbd02f99e	-0.031976335
253	0x3ba38aa1	0.004990891
254	0x3ea908d4	0.33014548
255	0xbe33c178	-0.17554271

main_network.lstm.bias_hh_l0 f4 [256]
0	0x3d886386	0.066596076
1	0x3caea61b	0.02131944
2	0xbe89af2b	-0.26891455
3	0xbcb302a7	-0.02185185
4	0xbc66ee94	-0.014094967
5	0xbce99d4d	-0.02851739
6	0xbd8ed8ff	-0.069749825
7	0xbe315bc7	-0.17320167
8	0xbd30740e	-0.04307943
9	0x3da9ab07	0.08284574
10	0x3e54c693	0.20778875
11	0xbda35696	-0.07975499
12	0xbd242d89	-0.04008249
13	0x3cdf216d	0.027237618
14	0x3d9f8f25	0.077909745
15	0x3ddd01c4	0.107913524
16	0xbdc16946	-0.094439074
17	0x3c55e3ed	0.01305483
18	0x3e5603d2	0.20899895
19	0x3ea2dc21	0.3180857
20	0x3d875f22	0.06609942
21	0xbd9aa758	-0.075514495
22	0x3e92cf7b	0.2867392
23	0xbd97508e	-0.073884115
24	0xbcfe8d40	-0.031073213
25	0x3d9fe7dc	0.078078955
26	0x3e2efbec	0.17088288
27	0xbd1501e6	-0.036378764
28	0x3df3ecae	0.119103774
29	0xbd5c683f	-0.053810354
30	0xbe4dee2c	-0.20110387
31	0xbd89c654	-0.06727281
32	0xbcd6b9fd	-0.026211733
33	0xbda82d3e	-0.08211754
34	0x3e5890b8	0.21148956
35	0x3c813546	0.015772473
36	0x3dce017b	0.10058876
37	0x3dab1ddb	0.08355304
38	0xbd87fae6	-0.06639652
39	0xbd51ede3	-0.051252257
40	0xbde1575a	-0.11002989
41	0xbd091718	-0.03346929
42	0xbe124e0c	-0.14287585
43	0x3d9addb2	0.07561816
44	0x3d3b76d5	0.045767624
45	0xbd9a6edc	-0.07540676
46	0xbdfdd47e	-0.12394045
47	0xbadb72fc	-0.0016742642
48	0x3e59fb37	0.21287237
49	0x3d9b68be	0.07588337
50	0xbc903543	-0.017603522
51	0xbd697e3a	-0.057005145
52	0xbdb7ff4b	-0.0898424
53	0x3df01fc7	0.11724811
54	0x3d9a3439	0.07529492
55	0x3e937680	0.28801346
56	0x3ca0b8c6	0.019619357
57	0x3dfd1cd4	0.12359014
58	0x3d037581	0.032094482
59	0x3c34c583	0.011033419
60	0x3dbe4e87	0.09292322
61	0xbcb16144	-0.021652825
62	0x3e7137f1	0.23556496
63	0x3d8c2291	0.068425305
64	0x3e01282c	0.1261298
65	0x3cfdcd18	0.030981585
66	0xbdfb3bb9	-0.122672506
67	0x3d259c63	0.040432345
68	0xbe951469	-0.29117134
69	0x3d126879	0.035744164
70	0xbcd4f677	-0.02599643
71	0x3cfb011f	0.030640183
72	0x3d007337	0.031359877
73	0xbd5793b1	-0.052631084
74	0x3e57e384	0.21082884
75	0x3d777e46	0.060423158
76	0x3cff729b	0.031182578
77	0x3deb9f6b	0.11505016
78	0xbd50ac6a	-0.050945677
79	0xbd6e7510	-0.05821711
80	0x3de2d8a3	0.110764764
81	0xbe404da5	-0.18779619
82	0x3d9e0efe	0.07717703
83	0x3d01ea71	0.03171772
84	0xbcc5dd90	-0.0241535
85	0x3bb69799	0.005572271
86	0xbdfe81bb	-0.12427088
87	0xbcf1121e	-0.029427584
88	0x3daabb12	0.08336462
89	0x3c0c3e84	0.008559827
90	0xbdb7df6e	-0.08978163
91	0xbd3afcc7	-0.045651224
92	0xbd94634f	-0.07245504
93	0x3e8f5f61	0.28002456
94	0x3bb20b1e	0.005433454
95	0xbdb587a9	-0.08863766
96	0xbe01c706	-0.12673578
97	0x3d4f5855	0.05062135
98	0xbe70af19	-0.23504294
99	0x3e0ca95c	0.1373648
100	0x3e58fbed	0.21189852
101	0xbd068569	-0.032842074
102	0x3e16c770	0.14724517
103	0xbd66a88c	-0.056313083
104	0x3d0a33f4	0.033740953
105	0xbccaaa31	-0.024739357
106	0x3d32aac6	0.043619893
107	0xbd88caa9	-0.06679279
108	0x3e7117c6	0.23544225
109	0x3d321ac6	0.043482564
110	0xbd83a8e1	-0.064286955
111	0xbc5c6a46	-0.013453072
112	0x3c050802	0.008119585
113	0xbc829e61	-0.015944662
114	0xbccbb37a	-0.024865855
115	0x3e31e713	0.17373304
116	0xbdb3f2f0	-0.08786571
117	0x3e2b1fde	0.16711375
118	0x3d99e016	0.07513444
119	0x3e25e930	0.16202235
120	0x3d3dbd0f	0.04632288
121	0xbda20858	-0.07911748
122	0x3bde1ed5	0.006778578
123	0xbe2eab76	-0.17057595
124	0xbcb8a15d	-0.022537882
125	0xbe0bd974	-0.1365717
126	0xbdb424ff	-0.08796119
127	0xbbf7c6a8	-0.0075615235
128	0xbe548f84	-0.20757872
129	0xbc04fd41	-0.008117021
130	0x3d920b0f	0.071310155
131	0x3d11e3f4	0.035617784
132	0xbca3af89	-0.019981163
133	0xbe6b69b5	-0.22989543
134	0xbce0f012	-0.027458224
135	0x3dfefd8e	0.124507055
136	0x3bab6f59	0.0052317795
137	0x3d48a297	0.048983183
138	0x3e887e94	0.2665907
139	0xbcebac96	-0.028768819
140	0xbd46b6a1	-0.048514012
141	0x3d7b8b42	0.061412103
142	0xbd2adc11	-0.041713778
143	0x3e2b2e8e	0.16716978
144	0x3dd6a503	0.10480692
145	0xbe46b984	-0.19406706
146	0xbdff0f62	-0.12454106
147	0xbdb41742	-0.087934986
148	0xbe1dc720	-0.15407991
149	0xbcffb34c	-0.031213425
150	0x3dd1aaa0	0.10237622
151	0xbe277264	-0.1635223
152	0x3dce8f1f	0.10085892
153	0xbd22dbf4	-0.039760545
154	0xbe1e3d87	-0.15453158
155	0x3df845ac	0.12122664
156	0x3e5fb207	0.21845256
157	0x3c8071d5	0.01567928
158	0x3d94aa97	0.072591
159	0x3d9d34a1	0.07676054
160	0x3e1773d4	0.14790279
161	0xbc1d9850	-0.009618834
162	0xbe652938	-0.22379005
163	0x3e13adef	0.14421819
164	0xbe375092	-0.17901829
165	0x3d1a882f	0.03772753
166	0xbdbf74cc	-0.09348449
167	0x3bac5041	0.0052585904
168	0x3de2c3f7	0.110725336
169	0xbd9d739f	-0.076880686
170	0x3bca8034	0.006179834
171	0x3e0a3597	0.13497005
172	0xbe175465	-0.14778288
173	0x3c235c66	0.00997076
174	0x3e0faf8a	0.14031807
175	0x3d8c7be7	0.0685957
176	0x3d8f92bb	0.070104085
177	0x3c82c9d7	0.015965385
178	0xbe04fcfc	-0.12987131
179	0xbe887811	-0.26654103
180	0x3d8c964e	0.06864606
181	0x3e41367d	0.18868442
182	0xbdbf7937	-0.09349292
183	0x3e52be5d	0.2058043
184	0x3e0f200a	0.13977066
185	0x3d77647f	0.060398575
186	0xbdfa94e7	-0.12235432
187	0x3dc459d0	0.09587443
188	0xbd47ced6	-0.04878124
189	0x3b562872	0.0032677916
190	0xbbea1163	-0.007143186
191	0xbe23656b	-0.15956657
192	0x3aaf8475	0.0013390916
193	0x3d758671	0.059942666
194	0xbe767bf9	-0.2407073
195	0x3c64fb9e	0.013976006
196	0x3d954aab	0.072896324
197	0x3dbae42b	0.09125551
198	0x3d8fb01a	0.070160106
199	0xbd423b0a	-0.047419585
200	0xbd4e516d	-0.050370622
201	0xbcd8f6fc	-0.026484959
202	0x3c78b66b	0.015180211
203	0xbe0284f5	-0.12746032
204	0x3e6968a4	0.22793823
205	0x3e8b46f5	0.27202573
206	0xbdcd8bdf	-0.10036444
207	0xbdaed372	-0.08536424
208	0x3de6a4a4	0.112618715
209	0x3e0e770e	0.13912603
210	0x3e6604a8	0.22462714
211	0x3e9fe285	0.31227508
212	0xbb420651	-0.0029605816
213	0xbdf91226	-0.12161665
214	0x3d32fb81	0.043696884
215	0xbd4c260c	-0.04984097
216	0xbe3269d7	-0.17423187
217	0x3bf488c7	0.007462594
218	0x3e41afb6	0.18914685
219	0xbd337710	-0.04381472
220	0x3e51833a	0.20460215
221	0x3d81646b	0.06317981
222	0x3ca28f73	0.019843793
223	0xbe0ebaae	-0.139384
224	0xbe07ec49	-0.1327373
225	0x3d52500e	0.051345877
226	0x3dab76e7	0.08372288
227	0x3de82ed6	0.11337058
228	0xbd0e43c9	-0.034732614
229	0x3d98894c	0.07448062
230	0x3ece0a77	0.4024236
231	0xbd913848	-0.07090813
232	0x3e6e868f	0.23293518
233	0xbdc3d3ac	-0.095618576
234	0x3d8ee505	0.06977276
235	0x3e0017bc	0.12509054
236	0x3e1a58f0	0.1507299
237	0x3cecf8cd	0.028927231
238	0xbd0bd0c7	-0.034134652
239	0xbda8b3ce	-0.0823742
240	0x3d31f516	0.043446623
241	0x3ce87441	0.028375747
242	0x3dbae3af	0.091254584
243	0x3dfa123c	0.12210509
244	0xbce31bd7	-0.027723236
245	0x3d1f4704	0.038886085
246	0x3d1bd556	0.03804525
247	0x3e99404d	0.2993187
248	0xbc6b5236	-0.014362862
249	0x3e774592	0.24147633
250	0x3d391632	0.045187183
251	0xbde6ae29	-0.11263687
252	0x3d7a753b	0.061146956
253	0x3da29f3f	0.0794053
254	0x3dd2cb82	0.10292722
255	0xbdd06c20	-0.10176873

main_network.fc.weight f4 [3, 64]
0	0x3ce5f306	0.028069984
1	0xbdb3a17d	-0.08771036
2	0xbe75a670	-0.23989272
3	0x3d5e0c34	0.054210857
4	0x3d5ae1a2	0.053437836
5	0xbc915540	-0.017740846
6	0x3bb54be4	0.0055327285
7	0x3d945a74	0.07243815
8	0x3d1753eb	0.036945265
9	0x3d2bf675	0.041983087
10	0x3c39e42e	0.011345906
11	0x3c22444f	0.009903981
12	0xbab7a147	-0.0014009856
13	0x3c8491b0	0.01618275
14	0x3d2baaca	0.041910924
15	0x3ca440dc	0.020050459
16	0xbddda30f	-0.108221166
17	0x3bda4464	0.006660985
18	0xbd48b229	-0.04899803
19	0xbc39b04c	-0.011333536
20	0xbd5ea7a5	-0.054359097
21	0xbde7e039	-0.11322064
22	0x3c8b4e0a	0.017004985
23	0xbc1d8b0c	-0.009615671
24	0x3d70f2b6	0.058825217
25	0xbc509198	-0.012730025
26	0xbb0d6b43	-0.0021578826
27	0x3cd6f6fd	0.02624082
28	0x3d094fdc	0.033523425
29	0x3c3c6497	0.011498592
30	0x3d46d86f	0.04854625
31	0xbd1d8941	-0.038460974
32	0x3e879668	0.26481938
33	0xbe2405db	-0.16017859
34	0x3e055bbb	0.13023274
35	0xbcaa232a	-0.02076872
36	0xbcc65c56	-0.024213951
37	0x3d0dbd2c	0.034604236
38	0x3d6ca8ed	0.057778288
39	0xbdb6a39c	-0.08917925
40	0xbcae1053	-0.021248018
41	0x3a9263ec	0.0011168695
42	0x3dae6e3e	0.08517121
43	0x3de0c3d1	0.10974849
44	0xbc41fc72	-0.011839973
45	0xbdb42cb3	-0.08797588
46	0x3d9510bf	0.07278585
47	0xbdb5f6e2	-0.0888498
48	0x3cc933a8	0.024560764
49	0x3c8218ba	0.015880931
50	0x3cf6821d	0.03009134
51	0x3d105e79	0.035246346
52	0xbc7e8252	-0.0155340005
53	0xbca5846a	-0.020204742
54	0x3d3fe518	0.04684934
55	0xbcbcfd1b	-0.023069909
56	0xbcf8d6cc	-0.03037586
57	0x3c112d81	0.008860947
58	0xbb98d976	-0.0046645952
59	0x3cd0cb05	0.025487432
60	0xbd35e273	-0.044405412
61	0x3cd36c7c	0.025808565
62	0xbcf88d5b	-0.030340841
63	0x3d1bfbbb	0.038081866
64	0x3ce451b4	0.02787099
65	0xbd59a7a0	-0.053138375
66	0x3dd1f775	0.10252277
67	0xbd0aef38	-0.033919543
68	0x3c98f74a	0.018672604
69	0xbd0bdfaf	-0.03414887
70	0xbce0ac6f	-0.027425973
71	0xbce19fd6	-0.027542036
72	0x3c871d6c	0.016493522
73	0x3d2d798d	0.042352248
74	0x3ce0189a	0.027355481
75	0x3d9c679f	0.07636952
76	0x3ca5619e	0.020188149
77	0xbd2a1d43	-0.041531812
78	0xbd0cc641	-0.034368757
79	0x3bed7d2d	0.007247588
80	0x3ce5b7f8	0.028041825
81	0xbc9c144d	-0.019052649
82	0xbd413978	-0.047173947
83	0x3ce74d4e	0.028235104
84	0xbd65a851	-0.056068722
85	0xbd35af45	-0.044356603
86	0x3c6764c6	0.014123147
87	0xbd12a093	-0.035797667
88	0xbd1fe477	-0.03903624
89	0xbbebd83b	-0.0071974075
90	0xbd010c7a	-0.03150604
91	0x3a77fb40	0.00094597414
92	0x3c49e069	0.01232157
93	0x3d649f5b	0.055816036
94	0x3e03d83a	0.12875453
95	0xbda00972	-0.078143016
96	0xbe05dd5c	-0.13072723
97	0x3a8bbbb2	0.0010660796
98	0x3dd53140	0.10409784
99	0x3d23915a	0.03993354
100	0x3da7f1c8	0.08200413
101	0xbc913c57	-0.017728968
102	0x3d6e4e38	0.058180064
103	0xbe0d1afc	-0.13779825
104	0xbcbe27b8	-0.023212299
105	0x3d75442b	0.059879463
106	0x3d99a5bd	0.07502315
107	0x3cc1e55a	0.023668934
108	0xbb8e6a94	-0.004346201
109	0xbd88b552	-0.06675209
110	0x3d309d27	0.043118622
111	0x3e1c1bfd	0.15245052
112	0x3dcc8d29	0.09987862
113	0xbdb0b0e5	-0.0862749
114	0x3d377617	0.044790354
115	0xbdc3c9de	-0.095599875
116	0x3cb4a20b	0.022049924
117	0xbd4c33fe	-0.04985427
118	0xbdcf099e	-0.10109256
119	0xbda741b1	-0.081668265
120	0xbd2d845c	-0.042362556
121	0xba95af53	-0.0011420049
122	0x3d725f0d	0.05917268
123	0x3db04636	0.08607142
124	0xbc81fdbb	-0.015868058
125	0x3d948a98	0.07252997
126	0xbcafd5f1	-0.02146432
127	0xbc8c11bc	-0.0170983
128	0x3f0e097a	0.5548321
129	0x3e5844a5	0.21119936
130	0xbe383bbe	-0.1799154
131	0x3ea44355	0.3208262
132	0x3e9ed1dd	0.31019488
133	0xbe635732	-0.22201231
134	0xbd19f776	-0.037589513
135	0x3ef3a1f2	0.47584492
136	0xbeaa3f45	-0.33251396
137	0xbe8a22c9	-0.26979664
138	0x3e51ae0d	0.20476551
139	0x3e7d5025	0.24737604
140	0x3e802944	0.25031483
141	0xbecf0c2b	-0.4043897
142	0x3e99b29c	0.3001908
143	0x3e8a4ca3	0.27011594
144	0x3e70300d	0.2345583
145	0xbdcc9eae	-0.09991203
146	0xbea65bec	-0.32492006
147	0xbed94e6f	-0.42442653
148	0xbf186f1c	-0.5954454
149	0xbe575ca0	-0.21031427
150	0xbe8d3a3a	-0.27583486
151	0xbd2dbdf8	-0.042417496
152	0xbe8e35b8	-0.2777536
153	0x3ed8eb8c	0.42367208
154	0x3d629ebd	0.055327166
155	0x3baeea45	0.0053379857
156	0x3e8434db	0.25821576
157	0xbe64c100	-0.22339249
158	0xbe30eff7	-0.1727904
159	0x3effab4a	0.4993537
160	0x3e4218a0	0.18954706
161	0xbe316eee	-0.17327473
162	0xbe03648a	-0.12831321
163	0x3ec366b6	0.381643
164	0x3e4c655a	0.19960538
165	0xbea75751	-0.32683805
166	0x3e906604	0.28202832
167	0xbe7a9a3d	-0.244729
168	0xbedaff1a	-0.42772752
169	0xbf5b592e	-0.8568295
170	0xbea6d5c7	-0.32584974
171	0x3f199deb	0.6000659
172	0x3e1aa389	0.15101446
173	0xbe6b49c8	-0.22977364
174	0x3e4f509f	0.20245598
175	0x3ebbc914	0.36676848
176	0xbe5494c6	-0.20759878
177	0x3e53cc2c	0.20683354
178	0xbec5a0b1	-0.3859916
179	0xbeaee542	-0.34159285
180	0xbe6b56d1	-0.22982337
181	0x3cd1cd45	0.025610575
182	0xbed72f87	-0.42028448
183	0x3ed19aa0	0.40938282
184	0x3e5970ba	0.21234408
185	0x3e5da648	0.21645463
186	0xbde10480	-0.109871864
187	0xbe803cfe	-0.25046533
188	0xbef73ece	-0.48290104
189	0x3dc33462	0.095314756
190	0x3eae4454	0.34036505
191	0xbf09654d	-0.536702

main_network.fc.bias f4 [3]
0	0x3d0ae6d0	0.033911526
1	0x3db935a7	0.090434365
2	0x3e595c9c	0.21226734

short_term_context_network.fc1.weight f4 [32, 7]
0	0xbe49c3b1	-0.19703557
1	0x3e505a7a	0.20347014
2	0xbe631e52	-0.22179535
3	0x3e401d99	0.1876129
4	0xbd6fcb4a	-0.05854348
5	0xbdcfd7e0	-0.10148597
6	0xbc520c40	-0.012820303
7	0xbe8a0b4b	-0.2696174
8	0x3d6b221a	0.05740557
9	0xbeb24e03	-0.34825143
10	0xbe502ae9	-0.20328869
11	0xbe4a1e1b	-0.19738047
12	0xbe3f29b8	-0.18668258
13	0x3eccadde	0.399764
14	0xbea7665b	-0.3269528
15	0x3c216836	0.009851506
16	0x3e490a62	0.19632867
17	0x3e322084	0.17395216
18	0x3eac3811	0.33636525
19	0xbc27dc4b	-0.010245393
20	0x3e34823b	0.17627804
21	0x3d76c36f	0.060244974
22	0x3e08309a	0.1329979
23	0xbe78ff33	-0.24316101
24	0xbda9ed53	-0.08297219
25	0xbedecd00	-0.43515778
26	0xbf02074d	-0.5079239
27	0x3ddc0fce	0.10745202
28	0x3c524930	0.012834832
29	0xbd221294	-0.0395685
30	0xbe1afcae	-0.15135452
31	0xbeab34d9	-0.33438757
32	0xbf674cf7	-0.90351814
33	0xbe54a655	-0.20766576
34	0x3eeac726	0.45855063
35	0x3ec78534	0.38968813
36	0xbe17ac74	-0.1481188
37	0xbeae430c	-0.34035528
38	0xbbb54c86	-0.005532804
39	0x3d7991e7	0.06093016
40	0x3e13330a	0.14374939
41	0x3e81db83	0.25362787
42	0x3e9f2e79	0.31090143
43	0xbe80f5c4	-0.25187504
44	0xbe246646	-0.16054639
45	0xbde72030	-0.11285436
46	0xbebf636c	-0.3738054
47	0x3de54ecc	0.1119667
48	0xbc3274d3	-0.010892111
49	0xbe194241	-0.1496668
50	0xbdafce00	-0.08584213
51	0x3e1e1398	0.15437162
52	0xbbe8f948	-0.0071097948
53	0xbe149188	-0.14508641
54	0xbe5bd6a9	-0.21468605
55	0x3e973ecb	0.29540095
56	0xbeb14756	-0.34624738
57	0xbd5abc19	-0.05340204
58	0xbdcc474e	-0.09974538
59	0xbc1e7c38	-0.009673171
60	0xbe6f3711	-0.2336085
61	0x3ec5412d	0.38526288
62	0xbe6d474f	-0.23171733
63	0xbe2c7b87	-0.16843997
64	0xbe6f323c	-0.23359007
65	0x3df9b03e	0.12191819
66	0xbe8f9709	-0.28044918
67	0x3dd2c37e	0.102911934
68	0x3df5a049	0.119934626
69	0x3e8b633c	0.27224147
70	0x3cf1c0af	0.029510824
71	0x3eb1694c	0.34650648
72	0xbe79539b	-0.24348299
73	0x3e8b3a5e	0.27192968
74	0xbdd69b0d	-0.10478792
75	0xbe03bf7a	-0.12866011
76	0xbe110605	-0.14162453
77	0x3e4866a6	0.19570407
78	0x3dc6fdf5	0.09716407
79	0x3cc967bd	0.0245856
80	0x3d8d7f5c	0.069090575
81	0xbeac29cd	-0.3362564
82	0xbe469ff9	-0.19396962
83	0x3de06149	0.10956056
84	0x3e4a71c2	0.19769958
85	0x3c2ca6c9	0.010537812
86	0x3eb9c2b1	0.3628135
87	0x3e7e597c	0.24838823
88	0xbe76ce92	-0.24102238
89	0x3e954292	0.29152352
90	0xbeaf1de2	-0.34202486
91	0xbdd6794b	-0.104723535
92	0x3e785d1a	0.24254265
93	0x3e7b60ea	0.24548689
94	0xbea3c8c8	-0.3198912
95	0x3e047d2f	0.12938379
96	0xbd8f2231	-0.06988943
97	0xbe37261a	-0.17885628
98	0xbe8d24c8	-0.27567124
99	0xbe43432c	-0.19068593
100	0xbdd862fe	-0.10565756
101	0x3dcd8336	0.10034792
102	0x3dfc3e0a	0.123165205
103	0x3dab0a69	0.08351595
104	0x3ea35f73	0.3190876
105	0xbe9ff3f8	-0.3124082
106	0x3e93d150	0.2887063
107	0x3e67580b	0.2259218
108	0xbea6decc	-0.32591856
109	0xbe081e9f	-0.13292931
110	0x3da2d3e8	0.07950574
111	0x3e56b6bc	0.20968145
112	0xbebf2535	-0.37333074
113	0xbeabf45c	-0.3358487
114	0x3ebc1643	0.36735734
115	0x3ea0edbd	0.3143138
116	0xbdb43119	-0.08798427
117	0xbd80059b	-0.06251069
118	0xbd22481b	-0.039619546
119	0x3e5b8574	0.21437627
120	0x3e0c5db8	0.13707626
121	0xbea9709d	-0.3309373
122	0x3e6e793f	0.23288439
123	0x3ef20d64	0.4727584
124	0xbf0cd3ce	-0.5501069
125	0xbf0feb84	-0.56218743
126	0x3e42db53	0.19028978
127	0x3e9bc242	0.30421644
128	0xbea4f7de	-0.32220358
129	0x3dc126d9	0.09431238
130	0xbe8ef3b3	-0.27920303
131	0xbee49d20	-0.44651127
132	0x3e851062	0.25989062
133	0xbd2e4102	-0.042542465
134	0x3eaa61e0	0.33277798
135	0xbeac963d	-0.33708373
136	0xbe62451f	-0.2209668
137	0xbdcc1a2f	-0.099659316
138	0xbd13be68	-0.036070257
139	0x3ee67d81	0.45017627
140	0x3e1db1b5	0.15399821
141	0xbeb3b55e	-0.3509931
142	0xbe644ef0	-0.22295737
143	0xbe2fef46	-0.1718112
144	0x3e7b3be0	0.24534559
145	0x3e6858bb	0.22690098
146	0xbe6be0b9	-0.23034944
147	0xbe84a2f4	-0.25905573
148	0x3e050c8d	0.12993069
149	0xbd9fc095	-0.07800404
150	0x3b4cfc96	0.0031278483
151	0xbdba86e5	-0.0910776
152	0xbe834ac3	-0.25642976
153	0x3e6ac1d3	0.229255
154	0x3d53e7f4	0.05173488
155	0xbc440db6	-0.01196616
156	0xbd16541b	-0.036701303
157	0xbd9346b6	-0.071912214
158	0x3bbe5d45	0.0058094584
159	0xbf0c84cd	-0.5489014
160	0x3f043808	0.51647997
161	0x3ef8b7aa	0.48577625
162	0x3e07c800	0.13259888
163	0xbda0de65	-0.078549184
164	0xbdd29eb0	-0.102841735
165	0xbe4cc690	-0.1999762
166	0xbe5e2313	-0.21693067
167	0xbec1ddb6	-0.37864465
168	0xbd809ea8	-0.06280261
169	0x3e263437	0.16230856
170	0xbe82a901	-0.25519565
171	0x3e822502	0.2541886
172	0xbee4d46a	-0.4469331
173	0xbdaae3ab	-0.083442055
174	0xbdf6d5a9	-0.12052471
175	0xbd31b012	-0.043380804
176	0xbebcd38e	-0.36880153
177	0xbc1d3303	-0.009594682
178	0x3e1b8a76	0.15189537
179	0x3e4aa63f	0.1978998
180	0x3e85d0dd	0.26135913
181	0x3d921355	0.071325935
182	0xbea991bc	-0.33119
183	0xbea1355b	-0.3148602
184	0x3dfbb73c	0.122908086
185	0xbeb18d3f	-0.34678075
186	0x3e70f1d9	0.23529758
187	0x3e51b283	0.20478253
188	0xbe56e8b4	-0.20987207
189	0xbeb71a46	-0.35762233
190	0x3ea417a8	0.32049298
191	0x3deb1724	0.11479023
192	0xbe01625f	-0.12635182
193	0xbc94858d	-0.018130088
194	0xbd99e1b1	-0.0751375
195	0xbebaba35	-0.3647019
196	0x3edf9174	0.4366566
197	0xbe05da7f	-0.13071631
198	0xbccf896d	-0.025334084
199	0x3ea02f52	0.31286103
200	0x3dff09e0	0.124530554
201	0x3d65f183	0.056138527
202	0xbe72c270	-0.23706985
203	0x3d5888cb	0.05286483
204	0xbe175abb	-0.14780705
205	0x3e89cdb3	0.2691475
206	0x3e8a0b77	0.26961872
207	0xbf37660d	-0.7164009
208	0x3d9c190e	0.07621966
209	0x3f017c97	0.50580734
210	0x3e2b65f5	0.16738112
211	0xbe67c34b	-0.22633092
212	0xbe9ed95e	-0.31025213
213	0x3e48a84d	0.19595452
214	0xbe6e0035	-0.23242266
215	0xbec9893b	-0.3936251
216	0x3e85d9d6	0.26142758
217	0xbec3a1b8	-0.3820932
218	0xbe6004d2	-0.21876839
219	0xbe2be382	-0.16786006
220	0xbd8aff10	-0.067869306
221	0x3db815b7	0.08988517
222	0x3e90c11a	0.28272325
223	0xbe33526a	-0.17511907

short_term_context_network.fc1.bias f4 [32]
0	0xbe8920a2	-0.2678271
1	0xbc022984	-0.007944468
2	0xbeac8fab	-0.3370336
3	0x3d77ff54	0.060546234
4	0x3ea1d54c	0.31608045
5	0xbd57ceab	-0.05268733
6	0x3e962a84	0.29329312
7	0x3deef21f	0.11667275
8	0x3e23ea9a	0.16007462
9	0xbe0a018c	-0.13477153
10	0xbe19aad1	-0.15006568
11	0x3ea39ec7	0.31957075
12	0x3e1070b2	0.1410549
13	0xbeb49160	-0.35267162
14	0x3dd86848	0.10566765
15	0xbe92ba2e	-0.2865767
16	0xbe4107cb	-0.18850629
17	0x3e072293	0.13196783
18	0xbd9570fa	-0.07296939
19	0x3ea86f5f	0.3289747
20	0x3e403363	0.18769602
21	0x3d2f863b	0.04285262
22	0x3e9e1b69	0.30880287
23	0xbf0b2342	-0.54350674
24	0x3e8ac36b	0.27102217
25	0xbec0c664	-0.3765136
26	0x3e4fba25	0.20285852
27	0xbca9b54f	-0.020716337
28	0xbf16aa5a	-0.58853686
29	0x3d7d6bed	0.061870504
30	0xbe84f227	-0.25965998
31	0x3e96d39c	0.2945832

short_term_context_network.fc2.weight f4 [16, 32]
0	0x3e22550c	0.15852755
1	0x3dfb1808	0.12260443
2	0x3e386e80	0.18010902
3	0x3d6e56ca	0.058188237
4	0x3e2ce486	0.1688405
5	0x3e681014	0.22662383
6	0x3d28124e	0.04103308
7	0x3d7cfcb9	0.061764453
8	0xbe3d5c25	-0.18492182
9	0xbbb3a7ee	-0.0054826653
10	0xbd2e2928	-0.04251972
11	0x3ddb8852	0.107193604
12	0x3dfab698	0.12241858
13	0xbdc35234	-0.095371634
14	0x3e17d497	0.1482719
15	0xbd1bc46d	-0.038029123
16	0x3dba8e86	0.091092154
17	0x3d637978	0.055535764
18	0xbd2b0363	-0.041751277
19	0x3e4a8fe1	0.19781448
20	0xbe07d125	-0.13263376
21	0x3cbd0b7a	0.023076762
22	0x3d27f497	0.041004743
23	0xbe87ac17	-0.26498482
24	0xbd54fe4c	-0.05200033
25	0xbe0c0078	-0.13672054
26	0xbaaa06cc	-0.0012971996
27	0x3dce0317	0.10059183
28	0xbb92b27b	-0.004476843
29	0x3e5ebcfd	0.21751781
30	0x3cedc64b	0.029025218
31	0xbc3c447d	-0.011490938
32	0xbcb132e3	-0.02163071
33	0xbd500b4a	-0.050792016
34	0x3d10e5e7	0.035375502
35	0x3dca3a10	0.09874356
36	0x3da8c021	0.08239771
37	0x3d126878	0.03574416
38	0xbc8f42cf	-0.017487912
39	0xbd86c612	-0.06580748
40	0xbda80225	-0.08203534
41	0x3d9fdd47	0.07805877
42	0x3e23148e	0.1592581
43	0xbc9fbdba	-0.019499648
44	0x3c1fc582	0.009751679
45	0xbd12e7f6	-0.035865746
46	0xbe0f896c	-0.14017266
47	0x3d9c5044	0.07632497
48	0xbe1b9bbc	-0.15196127
49	0x3d567799	0.05236015
50	0xbdb5c974	-0.08876315
51	0xbe0bf5f6	-0.13668045
52	0xbe4e6970	-0.20157409
53	0x3db69cf3	0.089166544
54	0x3d59fe70	0.053221166
55	0x3deb8f7c	0.11501977
56	0x3d58a4e2	0.05289162
57	0x3e1c03dd	0.15235849
58	0xbe08f7f9	-0.13375844
59	0x3e1789b4	0.14798623
60	0xbd827419	-0.063698
61	0x3d15c14d	0.0365613
62	0xbe21461d	-0.15749402
63	0xbdf401b6	-0.11914389
64	0xbde124fb	-0.109933816
65	0xbd80b9f0	-0.06285465
66	0xbe1fbdaa	-0.15599695
67	0xba9d2d8d	-0.0011991725
68	0xbe57d18a	-0.21076027
69	0xbc5c9a61	-0.013464541
70	0x3e839dfc	0.2570647
71	0x3ca86ce2	0.020559732
72	0x3cbabe92	0.02279595
73	0xbeb3731e	-0.35048765
74	0xbe113f08	-0.14184201
75	0xbd0de2e1	-0.034640197
76	0x3e043bd5	0.12913449
77	0x3e00eaec	0.12589616
78	0x3d94068f	0.072278135
79	0x3d76ad3b	0.0602238
80	0x3dc2e695	0.09516636
81	0x3da09402	0.0784073
82	0x3e850bbe	0.2598552
83	0xbf05db90	-0.5228815
84	0x3dddc7de	0.10829137
85	0xbdd9db8b	-0.106375776
86	0xbe86d67d	-0.26335517
87	0x3ee09945	0.43866935
88	0xbe2a7522	-0.16646245
89	0x3db94fb7	0.090484075
90	0xbe8034ac	-0.25040185
91	0xbe22485a	-0.15847912
92	0x3e83e403	0.25759897
93	0xbd76e047	-0.06027248
94	0xbdf767ed	-0.12080369
95	0xbe42820f	-0.18994926
96	0x3e259006	0.16168222
97	0x3e9280f9	0.28614023
98	0xbdc9ecc5	-0.09859613
99	0x3d3824d1	0.044956986
100	0x3d70a275	0.05874868
101	0x3e4f9b86	0.20274171
102	0x3d95234e	0.072821245
103	0x3dc87696	0.097882435
104	0xbe3dfada	-0.18552724
105	0x3e469694	0.19393378
106	0xbd907407	-0.070533805
107	0x3e3a1ef7	0.18175875
108	0xbe1a2e46	-0.15056714
109	0xbd50af22	-0.05094827
110	0xbde48cd3	-0.111596726
111	0x3d528408	0.051395446
112	0x3dc1bd7c	0.094599694
113	0xbecaf239	-0.39637926
114	0xbd1a1d29	-0.037625466
115	0x3e620649	0.2207271
116	0xbc045fe8	-0.008079506
117	0x3e8a0175	0.26954237
118	0x3db7360d	0.08945856
119	0xbea1f73c	-0.31633937
120	0x3d3df556	0.04637655
121	0xbd030952	-0.03199131
122	0xbd90cde3	-0.0707052
123	0x3c306a92	0.010767596
124	0xbe85a0aa	-0.2609914
125	0x3e0b52ec	0.13605851
126	0xbc5034af	-0.012707873
127	0x3d93cf50	0.07217276
128	0xbe01ee56	-0.12688574
129	0xbc5cd5fb	-0.013478751
130	0xbd3cc4a6	-0.046085976
131	0x3e1b5672	0.15169695
132	0xbd4c8de2	-0.049939997
133	0x3e890eaf	0.26769015
134	0x3caa9641	0.0208236
135	0xbe9a99ad	-0.3019537
136	0xbc09d94f	-0.008413627
137	0xbe8eb9b4	-0.27876055
138	0x3e327699	0.17428054
139	0x3e7c0ee5	0.24615057
140	0x3e50357a	0.203329
141	0xbe1a1325	-0.15046366
142	0xbe1acbdb	-0.15116827
143	0x3d8b1b8b	0.06792363
144	0x3e30ed23	0.1727796
145	0xbd822ced	-0.06356225
146	0x3ec9d2a3	0.39418516
147	0x3d269074	0.040665105
148	0xbcef8cf5	-0.029242018
149	0x3e07392d	0.13205405
150	0xbeb90e53	-0.3614374
151	0x3f014edb	0.5051095
152	0xbdec11f9	-0.115268655
153	0x3e12fc39	0.14354028
154	0xbdd73035	-0.10507242
155	0x3e2f172d	0.17098685
156	0x3ec6e960	0.38849926
157	0xbe46fa26	-0.19431362
158	0x3e03db5f	0.12876652
159	0xbe4dafc6	-0.20086583
160	0x3ddf3979	0.10899634
161	0x3d934ee4	0.071927816
162	0xbc8b1816	-0.016979259
163	0x3b8d0c9e	0.0043044826
164	0x3e1e31e5	0.15448721
165	0x3e2a8467	0.1665207
166	0xbde0f70b	-0.1098462
167	0x3e3de7f3	0.18545513
168	0xbce624a1	-0.028093638
169	0xbddb947e	-0.10721682
170	0x3db8c1eb	0.09021362
171	0x3e38970a	0.18026367
172	0xbd2a331f	-0.04155266
173	0x3e19b1fa	0.15009299
174	0x3d9a83fd	0.07544706
175	0xbc1c106b	-0.009525399
176	0x3dfadb4e	0.1224886
177	0xbe6bf07f	-0.2304096
178	0x3e5d912a	0.21637407
179	0x3ba500a6	0.0050354777
180	0xbe34d3e4	-0.17658955
181	0x3e76f2a9	0.24116005
182	0x3e2ac3d1	0.1667626
183	0xbebefb31	-0.3730102
184	0xbd8d8333	-0.0690979
185	0xbe2cd68c	-0.16878718
186	0x3b1eb5a3	0.002421715
187	0xbe165f52	-0.146848
188	0xbe778f42	-0.24175742
189	0xbc56330b	-0.013073693
190	0x3ddc317b	0.10751625
191	0x3db0203f	0.085999005
192	0x3b6c4754	0.0036053257
193	0x3e8aad36	0.27085274
194	0x3ddab5dd	0.10679219
195	0x3e36751a	0.17818108
196	0x3e972fc6	0.29528636
197	0x3d9bc6f3	0.07606306
198	0x3e61a4c5	0.22035511
199	0x3e835720	0.2565241
200	0xbe6033f3	-0.21894817
201	0xbc8a8483	-0.01690889
202	0xbd3b84a5	-0.045780797
203	0x3e6952d3	0.22785501
204	0x3dcda41e	0.100410685
205	0xbdc7b887	-0.09751993
206	0xbdc200f8	-0.09472841
207	0xbde91485	-0.11380867
208	0x3cf16b79	0.029470192
209	0x3c4f932d	0.012669367
210	0xbdc385bf	-0.095469944
211	0x3dea3caf	0.11437356
212	0xbcc52cbe	-0.024069186
213	0x3e3a05f1	0.18166329
214	0x3e7f6515	0.24940903
215	0xbe94bb19	-0.29048994
216	0x3e31efab	0.17376582
217	0xbd7696a6	-0.060202263
218	0xbd86f904	-0.06590465
219	0xbd37e621	-0.044897202
220	0xbe0bc571	-0.13649537
221	0x3d944721	0.07240129
222	0xbdeea080	-0.11651707
223	0xbdd5795d	-0.10423539
224	0x3dd877ae	0.10569702
225	0x3c68b7c7	0.014203972
226	0x3da91946	0.08256774
227	0x3d31f186	0.043443225
228	0xbe0f9060	-0.14019918
229	0xbe3bb412	-0.1833041
230	0xbda3602b	-0.07977327
231	0xbdc0632b	-0.09393915
232	0x3d4bce1e	0.049757116
233	0xbe07e6cc	-0.13271636
234	0x3dc989c5	0.098407306
235	0xbe4c7883	-0.19967847
236	0x3da1e957	0.07905834
237	0xbdd8f6e8	-0.10593969
238	0x3e22fcf1	0.15916802
239	0x3d215f41	0.03939748
240	0x3e24a03a	0.16076747
241	0xbe35d580	-0.17757225
242	0xbdb47a92	-0.08812441
243	0x3cdf78f6	0.027279358
244	0x3de5105d	0.11184762
245	0xbdf3e5e4	-0.119090825
246	0xbcad5ba8	-0.02116187
247	0x3bc2bf4f	0.005943216
248	0xbd691af3	-0.056910466
249	0x3d85619d	0.06512759
250	0xbe2f4902	-0.17117694
251	0x3e27c6b6	0.16384396
252	0x3e0a9eba	0.13537112
253	0xbdd80844	-0.105484515
254	0x3daefc12	0.08544172
255	0xbcdaa775	-0.026691178

short_term_context_network.fc2.bias f4 [16]
0	0xbc02bec9	-0.007980057
1	0xbc99589b	-0.018719008
2	0xbe613f73	-0.2199686
3	0xbd919d03	-0.07110026
4	0xbe2fc481	-0.17164804
5	0xbd4def26	-0.050276898
6	0x3d06be42	0.032896288
7	0xbe1e83cb	-0.15479963
8	0xbd2ed30e	-0.042681746
9	0x3e3a4f93	0.18194418
10	0x3d919e79	0.071103044
11	0x3e98a908	0.2981646
12	0x3e0546f6	0.1301535
13	0x3c89fcbb	0.016844144
14	0x3da523ce	0.0806347
15	0xbe2fb751	-0.17159773

short_term_context_network.fc3.weight f4 [1, 16]
0	0x3e114869	0.14187779
1	0xbd57acfb	-0.0526552
2	0xbef6f46a	-0.48233348
3	0x3e82bc86	0.25534457
4	0xbed13988	-0.40864205
5	0x3e43dec7	0.19127952
6	0x3e1b62ef	0.15174459
7	0x3e4f97e6	0.20272788
8	0x3e34b1b6	0.17645916
9	0x3e35bfb7	0.17748915
10	0x3b8499db	0.0040466613
11	0xbebf8398	-0.37405086
12	0x3e430380	0.19044304
13	0xbe0470a9	-0.12933601
14	0x3e751133	0.23932342
15	0xbdb5b8d8	-0.08873147
