Uni_Research/IRL/Final/Extended/old/V3/V3_demo1/Testing_Suite/model_C10000_R1000_S10.0.pth (torch, 91353 bytes, 11 tensors)

main_network.lstm.weight_ih_l0 f4 [256, 15]
0	0xbddfac59	-0.109215446
1	0xbd23b8f4	-0.039971307
2	0xbdb623d6	-0.08893554
3	0xbd8eab29	-0.0696624
4	0xbeed05eb	-0.46293578
5	0xbe327d8b	-0.17430703
6	0xbdf4c66c	-0.119519085
7	0xbf3a0403	-0.7266237
8	0xbe445aa8	-0.19175208
9	0xbe9f552d	-0.3111967
10	0xbeddfa61	-0.43355086
11	0xbee04852	-0.43805176
12	0xbe89e733	-0.26934204
13	0xbe9654e4	-0.2936164
14	0xbeac1c1a	-0.3361519
15	0x3e42024e	0.18946192
16	0x3cc0ec57	0.023550196
17	0xbe49b281	-0.19697
18	0x3e83a7d8	0.25713992
19	0xbe0c2551	-0.1368611
20	0xbe40bb0a	-0.1882135
21	0xbeb94697	-0.36186668
22	0x3e71846b	0.2358567
23	0xbe68467a	-0.22683135
24	0x3eb15dad	0.3464178
25	0x3d8a61d9	0.06756944
26	0xbe1a9d41	-0.1509905
27	0x3da0b04b	0.07846125
28	0x3cd6d96a	0.026226718
29	0x3c35f6d6	0.011106214
30	0xbe02c800	-0.12771606
31	0xbe8e12f0	-0.27748823
32	0xbda66140	-0.08124018
33	0xbdb53120	-0.088472605
34	0x3db36359	0.087591834
35	0xbd66dcec	-0.05636303
36	0x3dabec7b	0.083947144
37	0xbefeb06e	-0.4974398
38	0xbe0e633b	-0.13905041
39	0xbeb7f5a9	-0.3592961
40	0x3d906351	0.07050193
41	0xbd312c90	-0.04325539
42	0xbdb65540	-0.08902979
43	0xbe2ee2d0	-0.1707871
44	0x3c5e5087	0.013569004
45	0xbd923a16	-0.07139985
46	0xbdc659e8	-0.09685117
47	0xbdb678b1	-0.08909739
48	0x3d99d9fb	0.075122796
49	0x3e221d9b	0.15831606
50	0xbacf6a0b	-0.001582445
51	0xbe89def1	-0.26927903
52	0x3f184a63	0.59488505
53	0xbe084a8c	-0.13309687
54	0x3e4e9010	0.20172143
55	0x3f02e6f0	0.5113363
56	0xbdefc606	-0.11707692
57	0xbdcd3a14	-0.10020843
58	0x3da5a048	0.08087212
59	0xbe27533f	-0.1634035
60	0x3e594678	0.21218288
61	0xbe8ca501	-0.27469638
62	0xbd86cc95	-0.0658199
63	0x3ebf4e0f	0.3736424
64	0xbdf5c8f7	-0.120012216
65	0xbdfa08ad	-0.12208686
66	0xbe4a3300	-0.19746017
67	0x3e98c989	0.2984126
68	0xbeb13fae	-0.34618896
69	0xbe23ea7b	-0.16007416
70	0xbef2f8ff	-0.47455594
71	0xbe9702a9	-0.29494217
72	0xbf029316	-0.51005685
73	0xbe9d29df	-0.30696008
74	0x3e8450a9	0.2584279
75	0x3e67972e	0.22616264
76	0x3c9ca8f4	0.019123532
77	0xbe21faa3	-0.15818267
78	0xbe1d6230	-0.15369487
79	0xbe35336f	-0.17695402
80	0xbe5f1c97	-0.2178825
81	0xbd6443e3	-0.055728804
82	0x3e8ece03	0.2789155
83	0xbe05c441	-0.13063146
84	0x3e55c2d3	0.20875101
85	0x3db9a65f	0.09064936
86	0xbe753d7a	-0.23949233
87	0xbe2fb893	-0.17160253
88	0xbe499cef	-0.19688772
89	0xbd5f6c9d	-0.05454694
90	0xbe0822f3	-0.13294582
91	0x3decc9c3	0.115619205
92	0xbd71a355	-0.058993656
93	0xbee012f0	-0.43764448
94	0xbe0519ff	-0.12998198
95	0xbdbaf6f2	-0.09129132
96	0xbe93bc55	-0.28854623
97	0xbe175bf5	-0.14781173
98	0xbe131740	-0.14364338
99	0xbeddf33a	-0.4334963
100	0x3ddea8c6	0.10872035
101	0x3e51bcbe	0.20482156
102	0xbdc11f02	-0.094297424
103	0xbdbb9a5f	-0.09160303
104	0xbe6017a1	-0.21884014
105	0xbd78ccce	-0.060742192
106	0xbced8784	-0.028995283
107	0x3e9726f1	0.29521897
108	0xbdd48d21	-0.10378481
109	0x3e0a6692	0.1351569
110	0xbaf1de2f	-0.0018453057
111	0x3da27373	0.079321764
112	0x3da422d4	0.080144554
113	0xbe10502b	-0.14093082
114	0xbe75773e	-0.23971269
115	0x3ee46be0	0.44613552
116	0xbf2a5fc3	-0.6655237
117	0xbe884c71	-0.2662082
118	0xbebcfae3	-0.3691016
119	0xbd8b417a	-0.06799598
120	0x3dd0ca02	0.1019478
121	0xbe3aa05d	-0.18225236
122	0x3e132a8a	0.14371696
123	0x3d977195	0.07394711
124	0x3d3f39fb	0.046686154
125	0xbc6c57cc	-0.014425229
126	0xbe8b9d7d	-0.27268592
127	0x3ead0ca6	0.33798712
128	0x3b6abccd	0.00358181
129	0xbdb76873	-0.08955469
130	0xbe1ff4e7	-0.15620767
131	0x3c8d3160	0.017235458
132	0x3dd43009	0.103607245
133	0xbd8b5b19	-0.06804485
134	0xbbd143c4	-0.006386252
135	0xbd20f936	-0.039300166
136	0x3d253b30	0.04033965
137	0xbd0b0bab	-0.033946674
138	0xbcba0218	-0.022706077
139	0x3de0121e	0.109409556
140	0xbd9475c6	-0.07249026
141	0x3defd934	0.1171135
142	0x3e046cfa	0.12932196
143	0xbdd2d43a	-0.10294385
144	0x3df0c34e	0.117560014
145	0x3e1f4a29	0.15555634
146	0xbdfd558c	-0.123698324
147	0x3cfa9974	0.03059075
148	0xbd4dd33a	-0.05025027
149	0x3e41dba6	0.18931445
150	0x3ebbcb74	0.3667866
151	0x3e3fea0b	0.18741624
152	0x3d96a769	0.0735615
153	0x3e62aa9b	0.22135393
154	0x3e31793d	0.17331405
155	0xbe41e0e6	-0.18933448
156	0x3e77f941	0.24216177
157	0xbdea409f	-0.11438107
158	0xbdb67f78	-0.089110315
159	0x3bca87be	0.0061807325
160	0xbe503444	-0.20332438
161	0xbe0a42f2	-0.135021
162	0xbe099144	-0.1343432
163	0x3cb8ed90	0.022574216
164	0x3e04cf25	0.12969644
165	0x3e14faf8	0.14548862
166	0xbe0f6e57	-0.14006935
167	0xbded388e	-0.115830526
168	0x3e62b79f	0.22140358
169	0xbe100a48	-0.14066422
170	0xbee70766	-0.45122832
171	0x3d897970	0.067126155
172	0x3d64cd57	0.05585989
173	0x3d456663	0.048193347
174	0xbedc83f6	-0.43069428
175	0xbe90d0ae	-0.2828421
176	0xbd960e39	-0.073269315
177	0xbed96206	-0.42457598
178	0xbe02d8ef	-0.12778066
179	0xbbbd74e1	-0.0057817553
180	0x3e9ad047	0.30237028
181	0x3d416780	0.047217846
182	0x3e5456b7	0.20736204
183	0x3f1cdd03	0.6127474
184	0xbe62816b	-0.22119682
185	0xbead207b	-0.33813843
186	0x3e9532f6	0.29140443
187	0x3f425860	0.759161
188	0xbd602a69	-0.054727945
189	0xbe3a9643	-0.18221383
190	0xbea0fcf7	-0.31442997
191	0x3de15d91	0.110041745
192	0x3e142029	0.14465393
193	0x3e0a2f1f	0.13494538
194	0x3b03cad7	0.0020109916
195	0x3e83e579	0.2576101
196	0xbe12a21f	-0.14319657
197	0xbe4aa566	-0.19789657
198	0xbf161ef7	-0.58641
199	0xbe624426	-0.22096309
200	0x3e3b4131	0.18286587
201	0xbe9c6cef	-0.3055186
202	0xbdb8b7c5	-0.09019426
203	0x3ebcb48c	0.36856496
204	0xbe743490	-0.23848176
205	0xbd64b213	-0.055833887
206	0x3cb52f24	0.022117205
207	0x3f3e99b2	0.7445327
208	0x3eacb944	0.33735096
209	0xbe53b81e	-0.20675704
210	0xbe32bf9d	-0.17455907
211	0xbd44886c	-0.047981665
212	0xbe40ad18	-0.1881603
213	0x3eba9fad	0.36449948
214	0xbdcbe891	-0.09956468
215	0xbe99f2ab	-0.30067953
216	0xbd8732f7	-0.06601518
217	0xbdff5bd9	-0.124686904
218	0xbd1b70b9	-0.037949298
219	0x3e0c7fbd	0.13720603
220	0xbd696e5d	-0.056990016
221	0xbebb5061	-0.36584762
222	0x3d0cca5e	0.03437268
223	0xbd00105c	-0.0312656
224	0xbcb05730	-0.02152595
225	0xbe4c8146	-0.19971189
226	0x3cc23c4f	0.023710398
227	0x3e9de3ee	0.3083796
228	0x3e7f5395	0.24934228
229	0x3e7565ec	0.23964661
230	0xbcabb3ae	-0.020959701
231	0x3ecc8bb8	0.39950347
232	0x3e8cb3ba	0.2748087
233	0xbe332cea	-0.17497602
234	0xbd656a96	-0.05600985
235	0xbed9a3b6	-0.42507714
236	0xbbb87c5d	-0.0056300596
237	0xbe6ff6c9	-0.23433985
238	0x3e90a429	0.28250244
239	0x3e028d18	0.12749135
240	0xbd3cb33c	-0.04606937
241	0xbe580a79	-0.21097745
242	0xbe0d2654	-0.13784152
243	0x3e8130ca	0.25232536
244	0xbf272ffe	-0.65307605
245	0xbd80e58d	-0.06293783
246	0xbf0da8e4	-0.5533583
247	0x3f19f479	0.6013866
248	0xbdb921e9	-0.09039671
249	0x3f0b8bf0	0.545104
250	0xbe0fda1c	-0.14048046
251	0xbe0d8bd2	-0.13822868
252	0x3ee7e508	0.45291924
253	0xbdf5a52f	-0.11994397
254	0xbd881cbe	-0.06646107
255	0xbe29a84e	-0.1656811

main_network.lstm.weight_hh_l0 f4 [256, 64]
0	0x3ea77509	0.32706478
1	0xbdd92cdb	-0.106042586
2	0xbe31caca	-0.17362514
3	0x3d2a67dd	0.041602958
4	0x3eb4b43d	0.3529376
5	0xbf0a8e38	-0.5412326
6	0xbed80f40	-0.42199135
7	0xbe852168	-0.2600205
8	0xbe52bfd3	-0.20580988
9	0xbd9e8ff3	-0.077423
10	0x3e24252b	0.16029803
11	0xbcb19e91	-0.021682056
12	0x3d19ab22	0.03751672
13	0x3f0bf63b	0.5467259
14	0xbe13e227	-0.14441739
15	0xbe1c43da	-0.15260258
16	0x3ddb3915	0.10704247
17	0xbf3d726a	-0.74002707
18	0x3e0d98a1	0.13827755
19	0xbed9fe1b	-0.4257668
20	0xbec67e44	-0.38768208
21	0x3e5fe361	0.21864082
22	0x3ed6b77e	0.41936868
23	0xbe2dc19a	-0.16968384
24	0xbdec5525	-0.115396775
25	0x3eadb4c4	0.33926976
26	0xbea16ffe	-0.31530756
27	0x3f1edf15	0.62059146
28	0x3d941bc4	0.072318584
29	0xbd82bfda	-0.06384249
30	0x3bfe12ce	0.0077537065
31	0xbdc00bde	-0.093772635
32	0x3d8f3fe7	0.0699461
33	0x3d76e6de	0.060278766
34	0xbedcf211	-0.43153432
35	0x3e316d1d	0.1732678
36	0x3ea2d073	0.3179966
37	0x3e8ecca4	0.27890503
38	0xbc92d5a7	-0.017924143
39	0xbe67f21f	-0.22650956
40	0xbea5ca9c	-0.3238114
41	0xbee7c905	-0.45270553
42	0xbe9c9fb0	-0.30590582
43	0x3ea60a25	0.32429615
44	0x3f327440	0.69708633
45	0xbe470f58	-0.19439447
46	0x3f150c49	0.5822187
47	0x3e3152c4	0.17316729
48	0xbe1f5e48	-0.15563309
49	0x3db0b087	0.0862742
50	0x3d8b8161	0.068117864
51	0xbee44b05	-0.44588485
52	0x3eb57805	0.3544313
53	0xbf034e09	-0.5129095
54	0xbef135e2	-0.47111422
55	0x3d7a8b71	0.061168138
56	0x3eadae4a	0.33922035
57	0x3e7c2e04	0.24626929
58	0xbf0857c1	-0.532589
59	0xbea04b0c	-0.31307256
60	0xbead2363	-0.3381606
61	0xbb962afd	-0.0045827613
62	0xbf3276f3	-0.6971275
63	0xbf1927f2	-0.59826577
64	0x3dcb0538	0.09913105
65	0x3d5a59bd	0.053308237
66	0xbd0ce8e8	-0.034401804
67	0xbed655ac	-0.41862237
68	0x3e9b72e1	0.30361083
69	0xbe31f4d5	-0.17378552
70	0x3e5589a9	0.20853294
71	0xbdd4041e	-0.10352348
72	0x3d9cbf38	0.076536596
73	0x3e5d5eaf	0.2161815
74	0x3eac56ea	0.3366006
75	0xbe391932	-0.18076017
76	0xbc8963e5	-0.016771266
77	0x3e046a6a	0.12931219
78	0x3e3ff78d	0.18746777
79	0x3e990e47	0.29893705
80	0xbde81296	-0.1133167
81	0x3d0dbef7	0.034605946
82	0xbd224ca9	-0.03962389
83	0x3c853940	0.01626265
84	0xbe1ffe66	-0.15624389
85	0xbe8373e4	-0.25674355
86	0xbdac5a86	-0.084157035
87	0xbe91b721	-0.2846003
88	0xbd59c29b	-0.053164106
89	0xbe276987	-0.16348849
90	0xbd822271	-0.063542254
91	0xbd03a31a	-0.032137968
92	0x3e89de36	0.26927346
93	0x3e5588d1	0.20852973
94	0x3c476998	0.012171172
95	0x3ce4b4bd	0.027918214
96	0xbb67c59b	-0.0035365585
97	0x3e88e48b	0.26736864
98	0x3d4a588d	0.049400855
99	0xbd40a19d	-0.047029126
100	0xbe187265	-0.14887388
101	0xbd0006c9	-0.03125647
102	0xbd558c60	-0.052135825
103	0x3d0f9df8	0.03506276
104	0x3d66b8e3	0.056328665
105	0xbd04c226	-0.032411717
106	0xbd834293	-0.064091824
107	0x3e7ee00a	0.24890152
108	0xbe854705	-0.26030746
109	0xbdb7bc74	-0.089714915
110	0xbe0aa0d4	-0.13537914
111	0xbd1eb4f2	-0.03874678
112	0x3dda32e6	0.10654239
113	0xbeaf03c1	-0.34182552
114	0xbde25188	-0.11050707
115	0x3d6aced1	0.05732614
116	0x3d4e8257	0.05041727
117	0xbe074a6f	-0.13211988
118	0x3ca8ad18	0.02059035
119	0x3c7aa8cf	0.015299036
120	0x3d50f675	0.05101629
121	0x3c4f20c6	0.012642091
122	0xbdc081a8	-0.0939973
123	0x3d7f3fe7	0.0623168
124	0x3ddbe7cf	0.10737573
125	0xbcc72053	-0.024307406
126	0x3d30560e	0.04305082
127	0xbdb6836d	-0.08911786
128	0x3d49b704	0.049246803
129	0xbdc69400	-0.096961975
130	0xbd1a248b	-0.037632506
131	0x3c8f44b8	0.017488822
132	0x3d4d1a99	0.050074194
133	0xbca05afb	-0.019574633
134	0xbea2e064	-0.3181182
135	0x3becd079	0.0072270003
136	0xbdb236a1	-0.08701826
137	0xbe23232a	-0.15931383
138	0x3e0b0e31	0.13579632
139	0x3d0d32de	0.03447234
140	0x3d5eb6a4	0.0543734
141	0xbd8b892d	-0.068132736
142	0xbd83623c	-0.06415221
143	0xbcd25f6a	-0.025680263
144	0x3c8b981b	0.017040303
145	0x3d0d33a1	0.034473065
146	0x3cca4030	0.02468881
147	0x3cfbab1e	0.030721243
148	0xbd310812	-0.043220587
149	0x3de390a6	0.11111574
150	0x3c881aff	0.016614435
151	0x3bea8e6f	0.0071580927
152	0xbdbbea1d	-0.09175513
153	0x3e138b3c	0.14408582
154	0xbdb8287d	-0.089920975
155	0x3db8d856	0.09025638
156	0x3dc62819	0.09675617
157	0xbcf844cd	-0.030306244
158	0xbd78f560	-0.060780883
159	0x3ce15800	0.027507782
160	0x3dc57f6c	0.096434444
161	0x3bcc57b1	0.0062360396
162	0xbe79319d	-0.24335332
163	0xbe3b387c	-0.18283266
164	0x3e0f3cf0	0.1398809
165	0xbda49f44	-0.0803819
166	0x3dbda06a	0.09259112
167	0xbe7a334a	-0.24433628
168	0xbe2fa63a	-0.17153254
169	0xbe243103	-0.16034321
170	0xbd8813cc	-0.06644401
171	0x3dde43f6	0.10852806
172	0x3daf6dd5	0.08565871
173	0xbdfd3521	-0.12363649
174	0x3e1b5cef	0.1517217
175	0x3bb28632	0.0054481262
176	0xbd035c67	-0.032070544
177	0xbd07cf21	-0.033156518
178	0xbcd5f58c	-0.026118062
179	0x3d5d62a5	0.054049153
180	0x3dc602fc	0.09668538
181	0xbe968cfc	-0.29404438
182	0x3c15e770	0.009149417
183	0xbcc23831	-0.023708435
184	0x3e15f49d	0.14644094
185	0x3dd3f890	0.10350144
186	0xbd249aff	-0.04018688
187	0xbc84ccd2	-0.016210947
188	0xbdf454b0	-0.11930215
189	0xbe1c95e1	-0.1529155
190	0xbe6f6b88	-0.23380864
191	0x3cf88eb2	0.03034148
192	0x3e41df6e	0.18932888
193	0x3e201fa6	0.15637073
194	0xbc582a87	-0.013193733
195	0xbdab8ff2	-0.08377065
196	0x3e3c3e79	0.18383206
197	0xbe0a6c81	-0.13517953
198	0xbd27a13f	-0.04092526
199	0xbda88c9b	-0.08229943
200	0xbe35e10a	-0.17761627
201	0x3d41730d	0.04722886
202	0x3e55a0a0	0.20862055
203	0x3e38a7fc	0.18032831
204	0x3ec2a9b3	0.38020095
205	0x3cabab76	0.020955782
206	0x3e7a08c2	0.24417403
207	0x3cb49598	0.022043988
208	0x3d3535cb	0.044240754
209	0x3c773d32	0.015090274
210	0xbc359096	-0.011081835
211	0x3ba33eec	0.004981866
212	0xbe38a258	-0.18030679
213	0xbe045e82	-0.12926677
214	0xbd95c528	-0.07312995
215	0xbe076c09	-0.13224806
216	0xbd007bfc	-0.03136824
217	0xbdba9fdc	-0.09112522
218	0xbdc1cf08	-0.09463316
219	0x3ddf84d7	0.10914009
220	0x3e2379df	0.15964459
221	0x3b8a1458	0.004213851
222	0xbe09b8ab	-0.13449351
223	0x3d7cb530	0.06169623
224	0x3cdae87e	0.026722189
225	0xbdc1bb52	-0.09459557
226	0xbe3bc66a	-0.18337408
227	0x3d5a5863	0.05330695
228	0x3e0eeb59	0.13956966
229	0xbdd92af0	-0.10603893
230	0x3d27d432	0.04097385
231	0x3dbcca7a	0.09218307
232	0xbe95fe39	-0.2929552
233	0x3df1cef0	0.11807048
234	0xbde39b18	-0.11113566
235	0xbddc77f2	-0.10765065
236	0x3d5b94e2	0.053608783
237	0x3cbfe290	0.023423463
238	0xbd292e9a	-0.04130421
239	0xbb23aab1	-0.0024973566
240	0xbd4fe4d0	-0.050755322
241	0x3dcecaf0	0.10097301
242	0xbc6c93d6	-0.014439544
243	0xbd9c5c3e	-0.07634781
244	0xbddd4bfa	-0.10805507
245	0x3d290600	0.041265488
246	0xbd87ce16	-0.06631105
247	0xbd7c01bb	-0.061525088
248	0xbd88cced	-0.066797115
249	0xbe4170c8	-0.18890679
250	0xbe17c638	-0.14821708
251	0xbdfd0ba8	-0.12355739
252	0x3e55b944	0.20871454
253	0x3e130099	0.14355697
254	0xbc5969ae	-0.013269825
255	0xba7ac6bc	-0.0009566357

main_network.lstm.bias_ih_l0 f4 [256]
0	0x3d9dc0d7	0.07702797
1	0xbdbb3a1d	-0.091419436
2	0xbd6420f4	-0.05569549
3	0x3d9fd58e	0.07804404
4	0x3ce6df0d	0.02818253
5	0x3e044338	0.12916267
6	0x3d78e8e7	0.060768988
7	0xbda79cdf	-0.08184218
8	0x3e05da20	0.1307149
9	0xbc9aae27	-0.01888187
10	0x3d2807ff	0.04102325
11	0xbe23c75b	-0.15994017
12	0xbb65b295	-0.003504907
13	0x3dd896b4	0.10575619
14	0xbc990b14	-0.01868204
15	0x3e4a7f25	0.19775064
16	0xbe3c1870	-0.18368697
17	0x3e2cc9be	0.16873834
18	0x3e30cb47	0.17265044
19	0x3e241203	0.16022496
20	0xbce6058e	-0.02807882
21	0x3bfa6b01	0.0076421504
22	0x3e5130c0	0.20428753
23	0x3c9c5609	0.019083994
24	0xbe238187	-0.1596738
25	0x3d9bae27	0.07601576
26	0x3d5a302b	0.053268593
27	0x3d013e04	0.031553283
28	0x39d087b4	0.00039773958
29	0x3db3874d	0.08766041
30	0xbe1b15a5	-0.15144975
31	0xbe5ce176	-0.21570382
32	0xbd087089	-0.033310447
33	0x3d4df98b	0.05028681
34	0x3daa81be	0.083255276
35	0x3def3326	0.11679678
36	0xbd67a6f6	-0.05655571
37	0x3e0a76a6	0.13521823
38	0xbd0e1bf9	-0.034694646
39	0x3cb3907b	0.02191948
40	0x3c91eadf	0.01781219
41	0xbdee27ae	-0.11628662
42	0xbe1add50	-0.15123487
43	0xbda9ae27	-0.0828517
44	0x3d1e3dae	0.03863304
45	0x3d746617	0.059667673
46	0xbe25ba17	-0.16184269
47	0xbe39a987	-0.18131076
48	0x3e3d905b	0.18512098
49	0x3d5e141c	0.054218397
50	0x3dd42072	0.10357751
51	0xba157b33	-0.0005702257
52	0xbe1f9c17	-0.15586887
53	0x3daf78a8	0.08567935
54	0x3e33d1d8	0.17560518
55	0x3ea2062e	0.3164534
56	0xbce4f350	-0.027948052
57	0x3e23e6c3	0.16005997
58	0x3e3dbfb2	0.18530157
59	0xbe50c472	-0.20387438
60	0x3d4f613d	0.050629843
61	0x3e25b7bd	0.16183372
62	0x3e8e7573	0.27823982
63	0x3d8d1305	0.06888393
64	0xbc4a6544	-0.012353245
65	0x3dd4cbcb	0.10390433
66	0xbd9c1473	-0.07621088
67	0x3db11885	0.08647255
68	0xbea72e38	-0.3265245
69	0xbdbf9318	-0.09354228
70	0xbcf98c52	-0.030462418
71	0xbd2b2b83	-0.041789543
72	0xbe012126	-0.12610301
73	0x3cb7cdfa	0.022437084
74	0x3d8b0480	0.06787968
75	0x3dc19160	0.09451556
76	0xbe03fe24	-0.12889916
77	0x3dea2df5	0.11434547
78	0x3e056d56	0.1302999
79	0x3e1e7567	0.15474473
80	0xbc723105	-0.014782195
81	0xbdf8759e	-0.12131809
82	0x3e144d4b	0.1448261
83	0xbdddf6cf	-0.10838091
84	0x3d9c0de1	0.07619835
85	0xbd9e2c6d	-0.07723317
86	0xbbc46638	-0.0059936307
87	0x3dff05a7	0.1245225
88	0x3c18bdc5	0.009322588
89	0xbd5f08ec	-0.054451868
90	0xbe1b5431	-0.15168835
91	0xbe2b3822	-0.16720632
92	0xbdcc5194	-0.09976497
93	0x3e58a0ed	0.21155138
94	0x3dfa80a4	0.122315675
95	0xbd85c32e	-0.06531368
96	0xbd90b7e4	-0.07066324
97	0xbda75c2a	-0.08171876
98	0xbdebd071	-0.115143664
99	0x3c8af204	0.016961105
100	0x3e70bcc9	0.23509516
101	0x3cadc6a5	0.021212885
102	0xbd4e3ed7	-0.050352897
103	0xbcaa92cd	-0.020821953
104	0x3e325758	0.17416131
105	0xbe227269	-0.15863957
106	0xbdc9422e	-0.09827076
107	0x3e0c12f7	0.1367911
108	0x3e053b50	0.13010907
109	0xbe2bb917	-0.16769825
110	0xbdcd4726	-0.10023336
111	0x3d702d30	0.058636844
112	0x3e2333c8	0.15937722
113	0x3d6e428c	0.058168933
114	0x3cbbb1f5	0.022912005
115	0xbc220869	-0.0098897
116	0xbe3514da	-0.17683735
117	0x3e4ff145	0.20306881
118	0xbd81a580	-0.06330395
119	0x3e58916f	0.21149229
120	0x3cfa4043	0.03054822
121	0xbe35a513	-0.17738752
122	0xbc6ab5f6	-0.014325609
123	0xbe29771f	-0.16549347
124	0x3d440a81	0.04786158
125	0x3b9819b6	0.004641737
126	0x3b8e4d7d	0.0043427334
127	0x3b933cba	0.004493323
128	0xbde9b150	-0.11410773
129	0x3d4e521b	0.05037127
130	0x3d264a76	0.040598355
131	0xbd20398f	-0.039117392
132	0x3e1ba5d2	0.15199974
133	0xbe2fa7b2	-0.17153814
134	0x3cc48aea	0.02399202
135	0x3e1c3c9d	0.15257497
136	0xbc179c93	-0.009253639
137	0xbe0eb336	-0.13935551
138	0x3e27b970	0.16379333
139	0xbe18324f	-0.14862941
140	0x3a9499f3	0.0011337384
141	0x3b8b0873	0.0042429506
142	0x3dfbcbbb	0.12294718
143	0x3e051940	0.12997913
144	0x3d5b84c0	0.053593397
145	0xbe77a185	-0.24182709
146	0xbe2c5057	-0.16827522
147	0x3cdbf9f3	0.026852584
148	0xbe144aa8	-0.14481604
149	0xbe3c4b32	-0.1838806
150	0x3e435aa5	0.19077547
151	0xbd7b40ed	-0.061341215
152	0xbd0ddc38	-0.034633845
153	0x3e09321f	0.13398026
154	0xbe4b901c	-0.19879192
155	0x3e110e48	0.14165604
156	0x3e394348	0.18092072
157	0x3d9d6221	0.07684732
158	0x3d4213d7	0.047382202
159	0x3e01fc48	0.12693894
160	0x3da084f5	0.078378595
161	0xbc34694f	-0.011011436
162	0xbd93adef	-0.072109096
163	0x3d8c7af0	0.06859386
164	0xbd7527f9	-0.059852574
165	0xb909086c	-0.00013068476
166	0xbd1606d4	-0.036627606
167	0x3dce3568	0.1006878
168	0xbc333de4	-0.010940049
169	0x3dca2d90	0.098719716
170	0xbd08e8a4	-0.03342499
171	0x3e0d0a1d	0.13773389
172	0x3d1ad097	0.037796583
173	0xbd41e711	-0.047339503
174	0x3db0a6be	0.086255535
175	0x3d44b7bd	0.04802679
176	0x3da9b073	0.08285608
177	0xbdb4ee5f	-0.08834528
178	0xbe734675	-0.23757346
179	0xbe2d7f78	-0.16943157
180	0xbc8c764c	-0.017146252
181	0xbcc4d563	-0.024027532
182	0x3d56e78e	0.05246692
183	0x3e1e6f2f	0.154721
184	0x3b98f6df	0.004668101
185	0x3ddf27b0	0.10896242
186	0x39bbc928	0.00035817293
187	0x3e02b7a1	0.12765361
188	0xbd622e18	-0.05521974
189	0x3d8ef5ff	0.06980514
190	0xbe17de32	-0.14830855
191	0xbe1419ef	-0.14463018
192	0x3d6ca75b	0.05777679
193	0x3d0fbeab	0.035093945
194	0xbdb9ed1f	-0.090784304
195	0xbd2b6143	-0.041840803
196	0x3ae7d843	0.0017688352
197	0x3e12eedd	0.14348932
198	0xbd1bd42d	-0.038044143
199	0xbd32b9f1	-0.04363436
200	0xbda4dc8b	-0.08049878
201	0x3d957209	0.07297141
202	0x3cbe3d64	0.023222633
203	0xbd2c50d1	-0.04206926
204	0x3ca206b1	0.019778581
205	0x3e9ab9b4	0.30219805
206	0xbc4dee71	-0.012569056
207	0xbba1815f	-0.0049287523
208	0x3ddf530c	0.10904512
209	0x3e743464	0.2384811
210	0x3dcc6463	0.09980085
211	0x3e3f1986	0.1866208
212	0x3e7231f1	0.23651864
213	0x3db6cbbc	0.08925578
214	0x3d3ae74e	0.045630746
215	0xbb12c1f2	-0.0022393432
216	0xbe329f10	-0.1744349
217	0xbd1b99a7	-0.03798833
218	0x3e2e7de0	0.17040205
219	0xbdc08c9c	-0.09401819
220	0x3e0ae7d6	0.13565001
221	0x3cc6e04e	0.024276879
222	0xbdea1100	-0.11429024
223	0xbd8e3016	-0.069427654
224	0x3c87e847	0.01659025
225	0xbd0e4b9e	-0.034740083
226	0x3dc83cf3	0.0977725
227	0x3dcbc3d7	0.09949463
228	0x3dd8a718	0.105787456
229	0x3d81141b	0.06302663
230	0x3ea07f9f	0.31347367
231	0x3c6a3658	0.014295183
232	0x3db35e45	0.08758215
233	0xbe44da43	-0.19223885
234	0x3d5e356f	0.054250177
235	0x3d993c20	0.07482171
236	0x3e3e3fca	0.18579021
237	0x3da7d772	0.0819539
238	0xbe14112f	-0.1445968
239	0xbe0187f6	-0.12649521
240	0x3e31111c	0.17291683
241	0x3c612fee	0.0137443375
242	0x3e516286	0.2044774
243	0xbdabf478	-0.08396238
244	0x3db2b82e	0.08726536
245	0x3e114355	0.14185841
246	0x3d6e40c6	0.05816724
247	0x3e60ba4e	0.2194607
248	0xbe3b5e17	-0.18297611
249	0x3ebaffd4	0.36523306
250	0x3e6c3e70	0.23070693
251	0xbe605fe2	-0.21911576
252	0xbcdd2576	-0.026995402
253	0x3bf02655	0.0073287883
254	0x3eabdb46	0.3356573
255	0xbe326d3c	-0.17424482

main_network.lstm.bias_hh_l0 f4 [256]
0	0x3d867ac8	0.065663874
1	0x3cbfc612	0.023409877
2	0xbe8bd30c	-0.27309453
3	0xbca88aed	-0.020574057
4	0xbc25a7d8	-0.010110818
5	0xbce314d6	-0.027719896
6	0xbd95569e	-0.072919115
7	0xbe2e6359	-0.17030086
8	0xbd337ead	-0.04382198
9	0x3dab8e05	0.083766975
10	0x3e549cc9	0.20762934
11	0xbdac0520	-0.08399415
12	0xbd303175	-0.043015916
13	0x3cede3e8	0.029039338
14	0x3d96b81c	0.07359335
15	0x3de56df0	0.112026095
16	0xbdba494a	-0.0909601
17	0x3c5d0176	0.013489118
18	0x3e50af2c	0.20379323
19	0x3ea42ff5	0.32067838
20	0x3d93fd98	0.072261035
21	0xbd94c239	-0.072636075
22	0x3e8ff4cb	0.2811645
23	0xbd8b236e	-0.06793867
24	0xbce40c9b	-0.027838042
25	0x3da35667	0.07975464
26	0x3e325db8	0.17418563
27	0xbd03486f	-0.0320515
28	0x3df5be37	0.11999171
29	0xbd6316d8	-0.055441707
30	0xbe4f8d9f	-0.20268868
31	0xbd790fc8	-0.060806066
32	0xbcb73563	-0.022364324
33	0xbda4b0aa	-0.080415085
34	0x3e57da05	0.21079262
35	0x3c8cf8ad	0.017208422
36	0x3dcb5aff	0.099294655
37	0x3dad051b	0.084482394
38	0xbd86183f	-0.06547593
39	0xbd63ea43	-0.05564333
40	0xbde39f82	-0.11114408
41	0xbd1650e3	-0.036698233
42	0xbe164b87	-0.14677249
43	0x3d9ec9f0	0.0775336
44	0x3d355c08	0.04427722
45	0xbd97b25f	-0.074070685
46	0xbe008af1	-0.12553002
47	0x3b136b38	0.0022494327
48	0x3e56fbbb	0.20994465
49	0x3d8e27a7	0.06941157
50	0xbc84a80a	-0.016193409
51	0xbd6624cc	-0.056187436
52	0xbdb5e672	-0.088818446
53	0x3dea5a7e	0.11443041
54	0x3da33746	0.07969527
55	0x3e92a905	0.28644577
56	0x3c95fbe6	0.018308591
57	0x3e055a2f	0.13022684
58	0x3cfaf566	0.030634593
59	0x3c205bd8	0.009787522
60	0x3dc5940a	0.09647377
61	0xbc9e1191	-0.019295486
62	0x3e74fa43	0.23923592
63	0x3d8ef05f	0.06979441
64	0x3e001add	0.12510248
65	0x3cf63c41	0.030058028
66	0xbe03a1db	-0.12854712
67	0x3d2f4ba6	0.042796753
68	0xbe941785	-0.28924194
69	0x3d027a2f	0.031854805
70	0xbced9688	-0.029002443
71	0x3d06ec09	0.032939944
72	0x3d0a077e	0.03369855
73	0xbd5aa496	-0.053379618
74	0x3e564d7b	0.20927994
75	0x3d663979	0.056207154
76	0x3cf5ad5f	0.029989896
77	0x3de5f7ef	0.1122893
78	0xbd3fe066	-0.046844862
79	0xbd7a989b	-0.061180692
80	0x3de9579a	0.11393662
81	0xbe3ed7c5	-0.18636997
82	0x3d978d9a	0.07400055
83	0x3cfde249	0.03099169
84	0xbcd2bf8e	-0.025726106
85	0x3c2b7398	0.010464571
86	0xbdf4fcb6	-0.11962263
87	0xbcd399e1	-0.025830211
88	0x3db2af00	0.08724785
89	0x3c4ef350	0.012631252
90	0xbdb24e45	-0.08706335
91	0xbd353fcd	-0.0442503
92	0xbd8ca814	-0.06867996
93	0x3e8ea417	0.27859566
94	0x3b838099	0.004013133
95	0xbdb29194	-0.08719173
96	0xbe022bff	-0.12712096
97	0x3d5ff0bc	0.05467294
98	0xbe6fbe37	-0.23412405
99	0x3e0cc3c3	0.13746552
100	0x3e57c2d8	0.2107042
101	0xbd0af6ff	-0.03392696
102	0x3e170d1b	0.14751093
103	0xbd80a37a	-0.06281181
104	0x3d05c261	0.032656077
105	0xbcbf7d14	-0.023375072
106	0x3d228d62	0.039685614
107	0xbd888832	-0.06666602
108	0x3e7005bb	0.23439686
109	0x3d388c38	0.045055598
110	0xbd829502	-0.06376077
111	0xbc4ab993	-0.012373346
112	0x3b82f3cc	0.003996348
113	0xbc82644d	-0.015916968
114	0xbcf890c3	-0.030342465
115	0x3e2e4bcd	0.17021103
116	0xbdad3143	-0.084566616
117	0x3e2a394d	0.16623421
118	0x3d9ecaed	0.07753549
119	0x3e2254b0	0.15852618
120	0x3d457467	0.048206713
121	0xbda08d33	-0.078394316
122	0x3c1b4e3b	0.009479101
123	0xbe3001f2	-0.17188242
124	0xbc912d46	-0.017721783
125	0xbe084aea	-0.13309827
126	0xbdb52ce5	-0.088464536
127	0xbc1b17a9	-0.00946609
128	0xbe53b0c6	-0.20672902
129	0xbc1cea85	-0.009577398
130	0x3d8bcdde	0.068263754
131	0x3d25be7f	0.040464874
132	0xbca02daa	-0.019553024
133	0xbe6b3bb5	-0.22971995
134	0xbcf86fdd	-0.030326778
135	0x3e022509	0.1270944
136	0x3b9cd0a3	0.0047856136
137	0x3d45ca36	0.048288547
138	0x3e87ca49	0.2652152
139	0xbcd42692	-0.025897298
140	0xbd44af92	-0.048019
141	0x3d7d1e42	0.061796434
142	0xbd3ab3ec	-0.045581743
143	0x3e29c068	0.16577303
144	0x3dd6e4fd	0.10492895
145	0xbe46186b	-0.19345252
146	0xbdf7a128	-0.12091285
147	0xbdb62f5f	-0.08895754
148	0xbe20920d	-0.15680714
149	0xbce5ea67	-0.028065873
150	0x3dcc54d5	0.09977118
151	0xbe2b14ff	-0.16707228
152	0x3dcd81dc	0.10034534
153	0xbd0e3cd2	-0.03472597
154	0xbe1ddd75	-0.1541651
155	0x3df72aa2	0.120686784
156	0x3e5beedb	0.21477835
157	0x3c72bac3	0.014815035
158	0x3d8f7e42	0.07006504
159	0x3da3a4fd	0.079904534
160	0x3e13c06d	0.14428873
161	0xbc31d9ef	-0.010855182
162	0xbe666e10	-0.22502923
163	0x3e0ff878	0.14059627
164	0xbe36806f	-0.17822431
165	0x3d2b183a	0.04177115
166	0xbdc1c3e0	-0.09461188
167	0x3b0aec8d	0.0021198124
168	0x3de1761a	0.11008854
169	0xbd9d28cc	-0.07673797
170	0x3bb21cd4	0.0054355655
171	0x3e0ab865	0.13546903
172	0xbe16a12b	-0.14709918
173	0x3c1381c7	0.009003109
174	0x3e0cfe94	0.13768989
175	0x3d8aa617	0.067699604
176	0x3d8d1be2	0.06890084
177	0x3c8897ac	0.016673885
178	0xbe03e60b	-0.12880723
179	0xbe87aa3c	-0.26497066
180	0x3d91f8b0	0.071275115
181	0x3e42bc19	0.19017066
182	0xbdc1d331	-0.0946411
183	0x3e5172b7	0.20453916
184	0x3e105ed1	0.1409867
185	0x3d64e207	0.05587962
186	0xbe007171	-0.12543274
187	0x3dc28eae	0.0949987
188	0xbd424763	-0.04743136
189	0x3aab75f0	0.0013081413
190	0xbc0aad3d	-0.008464155
191	0xbe23e302	-0.16004565
192	0x39d011cf	0.0003968612
193	0x3d7dc7e5	0.061958212
194	0xbe7ac53a	-0.24489298
195	0x3c7c45f9	0.015397542
196	0x3d990da9	0.074733086
197	0x3db40d52	0.08791603
198	0x3d92b3ba	0.07163186
199	0xbd3e30ce	-0.046433263
200	0xbd57f242	-0.05272127
201	0xbce4cb21	-0.02792889
202	0x3c4fdfa5	0.012687598
203	0xbe04affb	-0.12957756
204	0x3e631e3d	0.22179504
205	0x3e8a78be	0.27045244
206	0xbdcd3703	-0.10020258
207	0xbdb3b3b4	-0.0877451
208	0x3dee3791	0.11631692
209	0x3e0ed289	0.139475
210	0x3e606249	0.21912493
211	0x3ea17751	0.31536344
212	0x3a64a8fc	0.00087226904
213	0xbdf31c85	-0.11870674
214	0x3d1e5d0c	0.038662955
215	0xbd439656	-0.047750793
216	0xbe2f23d5	-0.17103513
217	0x3c157078	0.009121053
218	0x3e44eec8	0.19231713
219	0xbd22c6bb	-0.039740305
220	0x3e5289ee	0.20560429
221	0x3d7c30dd	0.061570037
222	0x3c95482a	0.018222887
223	0xbe080147	-0.13281737
224	0xbe03f19b	-0.12885134
225	0x3d5986ec	0.053107187
226	0x3db3b42d	0.087746
227	0x3de9c2ab	0.11414083
228	0xbd137e04	-0.03600885
229	0x3d9a5038	0.07534832
230	0x3ece3a5f	0.4027891
231	0xbd9e4390	-0.0772773
232	0x3e6d63b8	0.23182571
233	0xbdc84dea	-0.09780486
234	0x3d8aea46	0.06782965
235	0x3e052b70	0.13004851
236	0x3e16642b	0.14686649
237	0x3cf80b73	0.030278897
238	0xbd14757c	-0.036244854
239	0xbda1aee1	-0.07894684
240	0x3d21452f	0.03937262
241	0x3ca49bba	0.020093787
242	0x3dc57dd5	0.09643141
243	0x3dfc0e8e	0.123074636
244	0xbcdb0f32	-0.026740644
245	0x3d14aa25	0.036295075
246	0x3d2866a2	0.041113503
247	0x3e977dd4	0.29588187
248	0xbc836e6d	-0.016043866
249	0x3e7d9adf	0.2476611
250	0x3d2f99bb	0.04287122
251	0xbde93ede	-0.11388944
252	0x3d876e10	0.0661279
253	0x3da768fb	0.0817432
254	0x3dde1543	0.10843899
255	0xbdcdc3a8	-0.10047084

main_network.fc.weight f4 [3, 64]
0	0x3ce5f306	0.028069984
1	0xbdb3a17d	-0.08771036
2	0xbe75a670	-0.23989272
3	0x3d5e0c34	0.054210857
4	0x3d5ae1a2	0.053437836
5	0xbc915540	-0.017740846
6	0x3bb54be4	0.0055327285
7	0x3d945a74	0.07243815
8	0x3d1753eb	0.036945265
9	0x3d2bf675	0.041983087
10	0x3c39e42e	0.011345906
11	0x3c22444f	0.009903981
12	0xbab7a147	-0.0014009856
13	0x3c8491b0	0.01618275
14	0x3d2baaca	0.041910924
15	0x3ca440dc	0.020050459
16	0xbddda30f	-0.108221166
17	0x3bda4464	0.006660985
18	0xbd48b229	-0.04899803
19	0xbc39b04c	-0.011333536
20	0xbd5ea7a5	-0.054359097
21	0xbde7e039	-0.11322064
22	0x3c8b4e0a	0.017004985
23	0xbc1d8b0c	-0.009615671
24	0x3d70f2b6	0.058825217
25	0xbc509198	-0.012730025
26	0xbb0d6b43	-0.0021578826
27	0x3cd6f6fd	0.02624082
28	0x3d094fdc	0.033523425
29	0x3c3c6497	0.011498592
30	0x3d46d86f	0.04854625
31	0xbd1d8941	-0.038460974
32	0x3e879668	0.26481938
33	0xbe2405db	-0.16017859
34	0x3e055bbb	0.13023274
35	0xbcaa232a	-0.02076872
36	0xbcc65c56	-0.024213951
37	0x3d0dbd2c	0.034604236
38	0x3d6ca8ed	0.057778288
39	0xbdb6a39c	-0.08917925
40	0xbcae1053	-0.021248018
41	0x3a9263ec	0.0011168695
42	0x3dae6e3e	0.08517121
43	0x3de0c3d1	0.10974849
44	0xbc41fc72	-0.011839973
45	0xbdb42cb3	-0.08797588
46	0x3d9510bf	0.07278585
47	0xbdb5f6e2	-0.0888498
48	0x3cc933a8	0.024560764
49	0x3c8218ba	0.015880931
50	0x3cf6821d	0.03009134
51	0x3d105e79	0.035246346
52	0xbc7e8252	-0.0155340005
53	0xbca5846a	-0.020204742
54	0x3d3fe518	0.04684934
55	0xbcbcfd1b	-0.023069909
56	0xbcf8d6cc	-0.03037586
57	0x3c112d81	0.008860947
58	0xbb98d976	-0.0046645952
59	0x3cd0cb05	0.025487432
60	0xbd35e273	-0.044405412
61	0x3cd36c7c	0.025808565
62	0xbcf88d5b	-0.030340841
63	0x3d1bfbbb	0.038081866
64	0x3ce451b4	0.02787099
65	0xbd59a7a0	-0.053138375
66	0x3dd1f775	0.10252277
67	0xbd0aef38	-0.033919543
68	0x3c98f74a	0.018672604
69	0xbd0bdfaf	-0.03414887
70	0xbce0ac6f	-0.027425973
71	0xbce19fd6	-0.027542036
72	0x3c871d6c	0.016493522
73	0x3d2d798d	0.042352248
74	0x3ce0189a	0.027355481
75	0x3d9c679f	0.07636952
76	0x3ca5619e	0.020188149
77	0xbd2a1d43	-0.041531812
78	0xbd0cc641	-0.034368757
79	0x3bed7d2d	0.007247588
80	0x3ce5b7f8	0.028041825
81	0xbc9c144d	-0.019052649
82	0xbd413978	-0.047173947
83	0x3ce74d4e	0.028235104
84	0xbd65a851	-0.056068722
85	0xbd35af45	-0.044356603
86	0x3c6764c6	0.014123147
87	0xbd12a093	-0.035797667
88	0xbd1fe477	-0.03903624
89	0xbbebd83b	-0.0071974075
90	0xbd010c7a	-0.03150604
91	0x3a77fb40	0.00094597414
92	0x3c49e069	0.01232157
93	0x3d649f5b	0.055816036
94	0x3e03d83a	0.12875453
95	0xbda00972	-0.078143016
96	0xbe05dd5c	-0.13072723
97	0x3a8bbbb2	0.0010660796
98	0x3dd53140	0.10409784
99	0x3d23915a	0.03993354
100	0x3da7f1c8	0.08200413
101	0xbc913c57	-0.017728968
102	0x3d6e4e38	0.058180064
103	0xbe0d1afc	-0.13779825
104	0xbcbe27b8	-0.023212299
105	0x3d75442b	0.059879463
106	0x3d99a5bd	0.07502315
107	0x3cc1e55a	0.023668934
108	0xbb8e6a94	-0.004346201
109	0xbd88b552	-0.06675209
110	0x3d309d27	0.043118622
111	0x3e1c1bfd	0.15245052
112	0x3dcc8d29	0.09987862
113	0xbdb0b0e5	-0.0862749
114	0x3d377617	0.044790354
115	0xbdc3c9de	-0.095599875
116	0x3cb4a20b	0.022049924
117	0xbd4c33fe	-0.04985427
118	0xbdcf099e	-0.10109256
119	0xbda741b1	-0.081668265
120	0xbd2d845c	-0.042362556
121	0xba95af53	-0.0011420049
122	0x3d725f0d	0.05917268
123	0x3db04636	0.08607142
124	0xbc81fdbb	-0.015868058
125	0x3d948a98	0.07252997
126	0xbcafd5f1	-0.02146432
127	0xbc8c11bc	-0.0170983
128	0x3f0dd53e	0.55403507
129	0x3e5c68db	0.21524374
130	0xbe3402d2	-0.17579201
131	0x3ea330aa	0.31873065
132	0x3e9fdb4e	0.31222004
133	0xbe6799c8	-0.22617257
134	0xbd0a87c1	-0.03382087
135	0x3ef42d8a	0.47690994
136	0xbea8ae05	-0.32945266
137	0xbe895fae	-0.2683081
138	0x3e52d28e	0.20588133
139	0x3e79274d	0.24331398
140	0x3e7e1574	0.24812871
141	0xbed08769	-0.4072831
142	0x3e9726ea	0.29521877
143	0x3e8bf2e1	0.2733374
144	0x3e6c8ad7	0.23099838
145	0xbdcb68bc	-0.09932086
146	0xbea98582	-0.3310967
147	0xbed8f5b5	-0.4237496
148	0xbf1a17a3	-0.60192317
149	0xbe5a7ed7	-0.21337448
150	0xbe8d60ed	-0.2761301
151	0xbd33471b	-0.043768983
152	0xbe8e3bf0	-0.27780104
153	0x3ed9b314	0.42519438
154	0x3d6f75aa	0.058461823
155	0x3ba5d73e	0.0050610593
156	0x3e85b96f	0.26118037
157	0xbe61312c	-0.21991414
158	0xbe2d3ef5	-0.16918547
159	0x3f00f9aa	0.5038096
160	0x3e4336b2	0.19063833
161	0xbe33ff61	-0.17577888
162	0xbdfe1cac	-0.124078125
163	0x3ec4c3a4	0.38430512
164	0x3e4912fe	0.19636151
165	0xbea8baf3	-0.3295513
166	0x3e92008d	0.28516045
167	0xbe743776	-0.23849282
168	0xbed961d7	-0.42457458
169	0xbf5b836e	-0.8574742
170	0xbea54255	-0.3227717
171	0x3f1924bd	0.59821683
172	0x3e16d68c	0.1473028
173	0xbe69e037	-0.22839437
174	0x3e50f140	0.2040453
175	0x3eba30e0	0.36365414
176	0xbe572262	-0.2100921
177	0x3e5406f9	0.20705785
178	0xbec61f9c	-0.3869599
179	0xbeafe41d	-0.34353724
180	0xbe6e6f1f	-0.23284577
181	0x3cef2e6e	0.029196944
182	0xbed886b9	-0.42290285
183	0x3ed2267e	0.41044992
184	0x3e5635e4	0.20918995
185	0x3e61776d	0.22018214
186	0xbdda6e57	-0.10665577
187	0xbe7d2b11	-0.2472346
188	0xbef7b399	-0.4837921
189	0x3dbc03b8	0.09180397
190	0x3eafc762	0.34331805
191	0xbf08eb36	-0.53483903

main_network.fc.bias f4 [3]
0	0x3d0ae6d0	0.033911526
1	0x3db935a7	0.090434365
2	0x3e5c9014	0.21539336

short_term_context_network.fc1.weight f4 [32, 7]
0	0xbe49c3b1	-0.19703557
1	0x3e505a7a	0.20347014
2	0xbe631e52	-0.22179535
3	0x3e401d99	0.1876129
4	0xbd6fcb4a	-0.05854348
5	0xbdcfd7e0	-0.10148597
6	0xbc520c40	-0.012820303
7	0xbe8a0b4b	-0.2696174
8	0x3d6b221a	0.05740557
9	0xbeb24e03	-0.34825143
10	0xbe502ae9	-0.20328869
11	0xbe4a1e1b	-0.19738047
12	0xbe3f29b8	-0.18668258
13	0x3eccb478	0.39981437
14	0xbea7665b	-0.3269528
15	0x3c216836	0.009851506
16	0x3e490a62	0.19632867
17	0x3e322084	0.17395216
18	0x3eac3811	0.33636525
19	0xbc27dc4b	-0.010245393
20	0x3e34823b	0.17627804
21	0x3d79d789	0.060996566
22	0x3e08309a	0.1329979
23	0xbe78ff33	-0.24316101
24	0xbda9ed53	-0.08297219
25	0xbedecd00	-0.43515778
26	0xbf02074d	-0.5079239
27	0x3ddc27bf	0.107497685
28	0x3c5f356c	0.013623577
29	0xbd221294	-0.0395685
30	0xbe1afcae	-0.15135452
31	0xbeab34d9	-0.33438757
32	0xbf674cf7	-0.90351814
33	0xbe54a655	-0.20766576
34	0x3eeacc90	0.45859194
35	0x3ec7e7a0	0.39043903
36	0xbe17ac74	-0.1481188
37	0xbeae430c	-0.34035528
38	0xbbb54c86	-0.005532804
39	0x3d7991e7	0.06093016
40	0x3e13330a	0.14374939
41	0x3e81e1c5	0.2536756
42	0x3e9f92ef	0.3116679
43	0xbe80f5c4	-0.25187504
44	0xbe246646	-0.16054639
45	0xbde72030	-0.11285436
46	0xbebf636c	-0.3738054
47	0x3de54ecc	0.1119667
48	0xbc31cdbc	-0.010852274
49	0xbe1870a4	-0.14886719
50	0xbdafce00	-0.08584213
51	0x3e1e1398	0.15437162
52	0xbbe8f948	-0.0071097948
53	0xbe149188	-0.14508641
54	0xbe5bd6a9	-0.21468605
55	0x3e974270	0.29542875
56	0xbeb14756	-0.34624738
57	0xbd5abc19	-0.05340204
58	0xbdcc474e	-0.09974538
59	0xbc1e7c38	-0.009673171
60	0xbe6f3711	-0.2336085
61	0x3ec5412d	0.38526288
62	0xbe6d474f	-0.23171733
63	0xbe2c7b87	-0.16843997
64	0xbe6f323c	-0.23359007
65	0x3df9b03e	0.12191819
66	0xbe8f9709	-0.28044918
67	0x3dd2c37e	0.102911934
68	0x3df5a049	0.119934626
69	0x3e8b68f2	0.27228504
70	0x3cf1c0af	0.029510824
71	0x3eb1694c	0.34650648
72	0xbe79539b	-0.24348299
73	0x3e8b3a5e	0.27192968
74	0xbdd69b0d	-0.10478792
75	0xbe03bf7a	-0.12866011
76	0xbe110605	-0.14162453
77	0x3e492238	0.1964196
78	0x3dc6fdf5	0.09716407
79	0x3cc967bd	0.0245856
80	0x3d8d7f5c	0.069090575
81	0xbeac29cd	-0.3362564
82	0xbe469ff9	-0.19396962
83	0x3de07a06	0.10960774
84	0x3e497477	0.19673334
85	0x3c2ca6c9	0.010537812
86	0x3eb9c2b1	0.3628135
87	0x3e7e597c	0.24838823
88	0xbe76ce92	-0.24102238
89	0x3e954292	0.29152352
90	0xbeaf9c89	-0.34299114
91	0xbdd6794b	-0.104723535
92	0x3e785d1a	0.24254265
93	0x3e7b60ea	0.24548689
94	0xbea3c8c8	-0.3198912
95	0x3e047d2f	0.12938379
96	0xbd8f2231	-0.06988943
97	0xbe37261a	-0.17885628
98	0xbe8d24c8	-0.27567124
99	0xbe43432c	-0.19068593
100	0xbdd862fe	-0.10565756
101	0x3dcd8336	0.10034792
102	0x3dfc3e0a	0.123165205
103	0x3dab0a69	0.08351595
104	0x3ea36580	0.31913376
105	0xbe9ff3f8	-0.3124082
106	0x3e93d150	0.2887063
107	0x3e67580b	0.2259218
108	0xbea6decc	-0.32591856
109	0xbe081e9f	-0.13292931
110	0x3da2d3e8	0.07950574
111	0x3e56b6bc	0.20968145
112	0xbebf2535	-0.37333074
113	0xbeabf45c	-0.3358487
114	0x3ebc1643	0.36735734
115	0x3ea0edbd	0.3143138
116	0xbdb43119	-0.08798427
117	0xbd80059b	-0.06251069
118	0xbd22481b	-0.039619546
119	0x3e5b8574	0.21437627
120	0x3e0c5db8	0.13707626
121	0xbea9709d	-0.3309373
122	0x3e6e793f	0.23288439
123	0x3ef20d64	0.4727584
124	0xbf0cd3ce	-0.5501069
125	0xbf0feb84	-0.56218743
126	0x3e41c800	0.1892395
127	0x3e9bc242	0.30421644
128	0xbea4f7de	-0.32220358
129	0x3dc126d9	0.09431238
130	0xbe8ef3b3	-0.27920303
131	0xbee49d20	-0.44651127
132	0x3e851671	0.25993684
133	0xbd2b1281	-0.041765694
134	0x3eaa61e0	0.33277798
135	0xbeac963d	-0.33708373
136	0xbe62451f	-0.2209668
137	0xbdcc1a2f	-0.099659316
138	0xbd13be68	-0.036070257
139	0x3ee68324	0.45021927
140	0x3e1cd18a	0.15314308
141	0xbeb3b55e	-0.3509931
142	0xbe644ef0	-0.22295737
143	0xbe2fef46	-0.1718112
144	0x3e7b3be0	0.24534559
145	0x3e6858bb	0.22690098
146	0xbe6cc0e3	-0.23120455
147	0xbe84a2f4	-0.25905573
148	0x3e050c8d	0.12993069
149	0xbd9fc095	-0.07800404
150	0x3b4cfc96	0.0031278483
151	0xbdba86e5	-0.0910776
152	0xbe834ac3	-0.25642976
153	0x3e6ace7b	0.22930329
154	0x3d5733b6	0.05253955
155	0xbc440db6	-0.01196616
156	0xbd16541b	-0.036701303
157	0xbd9346b6	-0.071912214
158	0x3bbe5d45	0.0058094584
159	0xbf0c84cd	-0.5489014
160	0x3f043a4b	0.5165145
161	0x3ef84bd3	0.4849535
162	0x3e07c800	0.13259888
163	0xbda0de65	-0.078549184
164	0xbdd29eb0	-0.102841735
165	0xbe4cc690	-0.1999762
166	0xbe5e2313	-0.21693067
167	0xbec2498d	-0.3794674
168	0xbd7e0603	-0.062017452
169	0x3e263437	0.16230856
170	0xbe82a901	-0.25519565
171	0x3e822502	0.2541886
172	0xbee4d46a	-0.4469331
173	0xbdaae3ab	-0.083442055
174	0xbdf6c4f2	-0.12049283
175	0xbd31b012	-0.043380804
176	0xbebcd38e	-0.36880153
177	0xbc1d3303	-0.009594682
178	0x3e1b8a76	0.15189537
179	0x3e4aa63f	0.1978998
180	0x3e85d0dd	0.26135913
181	0x3d921355	0.071325935
182	0xbea991bc	-0.33119
183	0xbea1355b	-0.3148602
184	0x3dfbb73c	0.122908086
185	0xbeb18d3f	-0.34678075
186	0x3e70f1d9	0.23529758
187	0x3e51b283	0.20478253
188	0xbe56e8b4	-0.20987207
189	0xbeb71a46	-0.35762233
190	0x3ea417a8	0.32049298
191	0x3deb1724	0.11479023
192	0xbe01625f	-0.12635182
193	0xbc94858d	-0.018130088
194	0xbd99e1b1	-0.0751375
195	0xbebaba35	-0.3647019
196	0x3edf24b4	0.4358269
197	0xbe05da7f	-0.13071631
198	0xbccf896d	-0.025334084
199	0x3ea02f52	0.31286103
200	0x3dff09e0	0.124530554
201	0x3d65f183	0.056138527
202	0xbe739beb	-0.23789947
203	0x3d5bcea5	0.05366387
204	0xbe175abb	-0.14780705
205	0x3e89cdb3	0.2691475
206	0x3e8a0b77	0.26961872
207	0xbf37660d	-0.7164009
208	0x3d9c190e	0.07621966
209	0x3f017f2b	0.5058467
210	0x3e2a7aa6	0.16648349
211	0xbe67c34b	-0.22633092
212	0xbe9ed95e	-0.31025213
213	0x3e48a84d	0.19595452
214	0xbe6e0035	-0.23242266
215	0xbec9893b	-0.3936251
216	0x3e85642d	0.2605299
217	0xbec3a1b8	-0.3820932
218	0xbe6004d2	-0.21876839
219	0xbe2be382	-0.16786006
220	0xbd8aff10	-0.067869306
221	0x3db815b7	0.08988517
222	0x3e90c11a	0.28272325
223	0xbe336153	-0.17517595

short_term_context_network.fc1.bias f4 [32]
0	0xbe8920a2	-0.2678271
1	0xbc01567f	-0.007894157
2	0xbeac8fab	-0.3370336
3	0x3d782f34	0.06059189
4	0x3ea1dab6	0.31612176
5	0xbd579ca7	-0.05263963
6	0x3e962fc0	0.29333305
7	0x3def00ab	0.11670049
8	0x3e23ea9a	0.16007462
9	0xbe09f620	-0.13472795
10	0xbe19aad1	-0.15006568
11	0x3ea3a4f9	0.31961802
12	0x3e0f7365	0.14008863
13	0xbeb49160	-0.35267162
14	0x3dd88076	0.10571377
15	0xbe92ba2e	-0.2865767
16	0xbe4107cb	-0.18850629
17	0x3e072293	0.13196783
18	0xbd9558cb	-0.072923265
19	0x3ea87502	0.3290177
20	0x3e3f5339	0.1868409
21	0x3d2fb8e1	0.042900924
22	0x3e9e1fee	0.30883735
23	0xbf0b592c	-0.5443294
24	0x3e8ac79b	0.27105412
25	0xbec0c664	-0.3765136
26	0x3e4fba25	0.20285852
27	0xbca9b54f	-0.020716337
28	0xbf16e0ba	-0.58936656
29	0x3d7d9523	0.061909806
30	0xbe8567d0	-0.26055765
31	0x3e96cc25	0.29452625

short_term_context_network.fc2.weight f4 [16, 32]
0	0x3e22550c	0.15852755
1	0x3dfb3201	0.12265397
2	0x3e386e80	0.18010902
3	0x3d6e726e	0.058214597
4	0x3e2cf048	0.16888535
5	0x3e6806c6	0.22658834
6	0x3d281351	0.041034047
7	0x3d7d3088	0.06181386
8	0xbe3d5c25	-0.18492182
9	0xbbb22762	-0.0054368237
10	0xbd2e2928	-0.04251972
11	0x3ddb978a	0.10722263
12	0x3dfc7a8a	0.1232806
13	0xbdc35234	-0.095371634
14	0x3e17e19e	0.1483216
15	0xbd1bc46d	-0.038029123
16	0x3dba8e86	0.091092154
17	0x3d637978	0.055535764
18	0xbd2afbff	-0.04174423
19	0x3e4a9c13	0.197861
20	0xbe06f387	-0.13178836
21	0x3cbd7193	0.023125445
22	0x3d282284	0.04104854
23	0xbe871b6f	-0.26388118
24	0xbd54cf6f	-0.051955637
25	0xbe0c0078	-0.13672054
26	0xbaaa06cc	-0.0012971996
27	0x3dce0317	0.10059183
28	0xbb5c4ad0	-0.0033613928
29	0x3e5ec801	0.21755983
30	0x3cf4a0bb	0.029861799
31	0xbc3b5891	-0.01143469
32	0xbcb132e3	-0.02163071
33	0xbd500b4a	-0.050792016
34	0x3d10e5e7	0.035375502
35	0x3dca3a10	0.09874356
36	0x3da8c021	0.08239771
37	0x3d126878	0.03574416
38	0xbc8f42cf	-0.017487912
39	0xbd86c612	-0.06580748
40	0xbda80225	-0.08203534
41	0x3d9fdd47	0.07805877
42	0x3e23148e	0.1592581
43	0xbc9fbdba	-0.019499648
44	0x3c1fc582	0.009751679
45	0xbd12e7f6	-0.035865746
46	0xbe0f896c	-0.14017266
47	0x3d9c5044	0.07632497
48	0xbe1b9bbc	-0.15196127
49	0x3d567799	0.05236015
50	0xbdb5c974	-0.08876315
51	0xbe0bf5f6	-0.13668045
52	0xbe4e6970	-0.20157409
53	0x3db69cf3	0.089166544
54	0x3d59fe70	0.053221166
55	0x3deb8f7c	0.11501977
56	0x3d58a4e2	0.05289162
57	0x3e1c03dd	0.15235849
58	0xbe08f7f9	-0.13375844
59	0x3e1789b4	0.14798623
60	0xbd827419	-0.063698
61	0x3d15c14d	0.0365613
62	0xbe21461d	-0.15749402
63	0xbdf401b6	-0.11914389
64	0xbde124fb	-0.109933816
65	0xbd80b9f0	-0.06285465
66	0xbe1fbdaa	-0.15599695
67	0xba9d2d8d	-0.0011991725
68	0xbe57d18a	-0.21076027
69	0xbc5c9a61	-0.013464541
70	0x3e839dfc	0.2570647
71	0x3ca86ce2	0.020559732
72	0x3cbabe92	0.02279595
73	0xbeb3731e	-0.35048765
74	0xbe113f08	-0.14184201
75	0xbd0de2e1	-0.034640197
76	0x3e043bd5	0.12913449
77	0x3e00eaec	0.12589616
78	0x3d94068f	0.072278135
79	0x3d76ad3b	0.0602238
80	0x3dc2e695	0.09516636
81	0x3da09402	0.0784073
82	0x3e850bbe	0.2598552
83	0xbf05db90	-0.5228815
84	0x3dddc7de	0.10829137
85	0xbdd9db8b	-0.106375776
86	0xbe86d67d	-0.26335517
87	0x3ee09945	0.43866935
88	0xbe2a7522	-0.16646245
89	0x3db94fb7	0.090484075
90	0xbe8034ac	-0.25040185
91	0xbe22485a	-0.15847912
92	0x3e83e403	0.25759897
93	0xbd76e047	-0.06027248
94	0xbdf767ed	-0.12080369
95	0xbe42820f	-0.18994926
96	0x3e259006	0.16168222
97	0x3e92879f	0.28619096
98	0xbdc9ecc5	-0.09859613
99	0x3d384344	0.044986024
100	0x3d70d383	0.058795463
101	0x3e4f934d	0.20271035
102	0x3d952591	0.07282556
103	0x3dc8913f	0.097933285
104	0xbe3dfada	-0.18552724
105	0x3e46a2f5	0.193981
106	0xbd907407	-0.070533805
107	0x3e3a2741	0.18179037
108	0xbe194a7f	-0.14969824
109	0xbd50af22	-0.05094827
110	0xbde47230	-0.11154592
111	0x3d528408	0.051395446
112	0x3dc1bd7c	0.094599694
113	0xbecaf239	-0.39637926
114	0xbd1a1265	-0.0376152
115	0x3e6212f6	0.22077546
116	0xbbecd0f9	-0.00722706
117	0x3e8a0800	0.2695923
118	0x3db74e0d	0.08950434
119	0xbea16628	-0.31523252
120	0x3d3e25f8	0.04642293
121	0xbd030952	-0.03199131
122	0xbd90cde3	-0.0707052
123	0x3c306a92	0.010767596
124	0xbe850e1a	-0.2598732
125	0x3e0b5e7c	0.13610262
126	0xbc4261ff	-0.011864184
127	0x3d93ed0a	0.07222946
128	0xbe01ee56	-0.12688574
129	0xbc5cd5fb	-0.013478751
130	0xbd3cc4a6	-0.046085976
131	0x3e1a8567	0.15089951
132	0xbd4fe66f	-0.050756868
133	0x3e88a355	0.26687112
134	0x3ca3e25e	0.020005401
135	0xbe9afcd3	-0.30271015
136	0xbc09d94f	-0.008413627
137	0xbe8eb9b4	-0.27876055
138	0x3e327699	0.17428054
139	0x3e7b38af	0.24533342
140	0x3e4f4de5	0.20244558
141	0xbe1a1325	-0.15046366
142	0xbe1acbdb	-0.15116827
143	0x3d8b1b8b	0.06792363
144	0x3e30ed23	0.1727796
145	0xbd822ced	-0.06356225
146	0x3ec9660b	0.39335665
147	0x3d2339bc	0.03984998
148	0xbcf6a7d6	-0.030109327
149	0x3e07392d	0.13205405
150	0xbeb9799d	-0.36225596
151	0x3f0105e8	0.5039964
152	0xbded5793	-0.11588969
153	0x3e12fc39	0.14354028
154	0xbdd73035	-0.10507242
155	0x3e2f172d	0.17098685
156	0x3ec65619	0.38737562
157	0xbe47cfb9	-0.19512834
158	0x3e02fa44	0.12790781
159	0xbe4dafc6	-0.20086583
160	0x3ddf3979	0.10899634
161	0x3d936935	0.07197801
162	0xbc8b1816	-0.016979259
163	0x3b8df6c8	0.004332397
164	0x3e1e3df2	0.15453318
165	0x3e2a7bba	0.1664876
166	0xbde0f585	-0.10984329
167	0x3e3df521	0.1855054
168	0xbce624a1	-0.028093638
169	0xbddb7c0b	-0.10717019
170	0x3db8c1eb	0.09021362
171	0x3e389f0c	0.18029422
172	0xbd26a713	-0.04068668
173	0x3e19b1fa	0.15009299
174	0x3d9a9e60	0.07549739
175	0xbc1c106b	-0.009525399
176	0x3dfadb4e	0.1224886
177	0xbe6bf07f	-0.2304096
178	0x3e5d9380	0.21638298
179	0x3ba68fe5	0.0050830715
180	0xbe33f535	-0.17574008
181	0x3e76ff9b	0.24120943
182	0x3e2acf99	0.16680755
183	0xbebe6a49	-0.37190464
184	0xbd8d6b41	-0.06905223
185	0xbe2cd68c	-0.16878718
186	0x3b1eb5a3	0.002421715
187	0xbe165f52	-0.146848
188	0xbe766a72	-0.24064043
189	0xbc557d9d	-0.013030437
190	0x3dddea3c	0.10835692
191	0x3db03de1	0.086055525
192	0x3b6c4754	0.0036053257
193	0x3e8ab3bd	0.27090254
194	0x3ddab5dd	0.10679219
195	0x3e367c1c	0.17820781
196	0x3e9735b3	0.29533157
197	0x3d9bb4aa	0.07602818
198	0x3e61a526	0.22035655
199	0x3e835da3	0.25657377
200	0xbe6033f3	-0.21894817
201	0xbc8a23f3	-0.016862845
202	0xbd3b84a5	-0.045780797
203	0x3e695a8a	0.22788444
204	0x3dcf6892	0.10127367
205	0xbdc7b887	-0.09751993
206	0xbdc1e6d6	-0.094678566
207	0xbde91485	-0.11380867
208	0x3cf16b79	0.029470192
209	0x3c4f932d	0.012669367
210	0xbdc381d0	-0.09546244
211	0x3dea5539	0.11442036
212	0xbcbe3da9	-0.023222761
213	0x3e3a12bf	0.18171214
214	0x3e7f70a9	0.2494532
215	0xbe942a60	-0.2893858
216	0x3e31fb73	0.17381077
217	0xbd7696a6	-0.060202263
218	0xbd86f904	-0.06590465
219	0xbd37e621	-0.044897202
220	0xbe0aa0eb	-0.13537948
221	0x3d945d55	0.07244364
222	0xbdece95a	-0.11567946
223	0xbdd55bd7	-0.10417908
224	0x3dd877ae	0.10569702
225	0x3c68b7c7	0.014203972
226	0x3da91946	0.08256774
227	0x3d31f186	0.043443225
228	0xbe0f9060	-0.14019918
229	0xbe3bb412	-0.1833041
230	0xbda3602b	-0.07977327
231	0xbdc0632b	-0.09393915
232	0x3d4bce1e	0.049757116
233	0xbe07e6cc	-0.13271636
234	0x3dc989c5	0.098407306
235	0xbe4c7883	-0.19967847
236	0x3da1e957	0.07905834
237	0xbdd8f6e8	-0.10593969
238	0x3e22fcf1	0.15916802
239	0x3d215f41	0.03939748
240	0x3e24a03a	0.16076747
241	0xbe35d580	-0.17757225
242	0xbdb47a92	-0.08812441
243	0x3cdf78f6	0.027279358
244	0x3de5105d	0.11184762
245	0xbdf3e5e4	-0.119090825
246	0xbcad5ba8	-0.02116187
247	0x3bc2bf4f	0.005943216
248	0xbd691af3	-0.056910466
249	0x3d85619d	0.06512759
250	0xbe2f4902	-0.17117694
251	0x3e27c6b6	0.16384396
252	0x3e0a9eba	0.13537112
253	0xbdd80844	-0.105484515
254	0x3daefc12	0.08544172
255	0xbcdaa775	-0.026691178

short_term_context_network.fc2.bias f4 [16]
0	0xbc01f85c	-0.007932749
1	0xbc99589b	-0.018719008
2	0xbe613f73	-0.2199686
3	0xbd918345	-0.07105116
4	0xbe309dba	-0.17247668
5	0xbd4dbc6e	-0.05022853
6	0x3d06f024	0.03294386
7	0xbe1e83cb	-0.15479963
8	0xbd2ea09a	-0.04263363
9	0x3e3a5c30	0.18199229
10	0x3d91817f	0.071047775
11	0x3e98a908	0.2981646
12	0x3e0553a1	0.13020183
13	0x3c89fcbb	0.016844144
14	0x3da53d7a	0.08068366
15	0xbe2fb751	-0.17159773

short_term_context_network.fc3.weight f4 [1, 16]
0	0x3e1152d1	0.14191748
1	0xbd57acfb	-0.0526552
2	0xbef6f46a	-0.48233348
3	0x3e82c1d4	0.25538504
4	0xbed0a7a5	-0.40752903
5	0x3e43e8dd	0.19131799
6	0x3e1b6e35	0.1517876
7	0x3e4f97e6	0.20272788
8	0x3e34bb4c	0.17649573
9	0x3e35cadc	0.17753166
10	0x3b854a25	0.0040676766
11	0xbebf8398	-0.37405086
12	0x3e430e05	0.19048317
13	0xbe0470a9	-0.12933601
14	0x3e751c5d	0.23936601
15	0xbdb5b8d8	-0.08873147
