Uni_Research/IRL/Final/Extended/old/V3/V3_demo1/Testing_Suite/model_C0_R10000_S0.0.pth (torch, 91237 bytes, 11 tensors)

main_network.lstm.weight_ih_l0 f4 [256, 15]
0	0x3dd79042	0.10525562
1	0xbdf56b04	-0.11983302
2	0x3d8eaffa	0.069671586
3	0xbd9a97e0	-0.07548499
4	0x3d99d49a	0.07511254
5	0xbafac500	-0.0019132197
6	0x3d608cc4	0.054821745
7	0x3d85ed60	0.06539416
8	0xbcd81298	-0.026376054
9	0xbd668890	-0.05628258
10	0x3c5381c0	0.012909353
11	0xbb484140	-0.003055647
12	0xbd8c2be8	-0.06844312
13	0xbd4f8638	-0.05066511
14	0xbd537e40	-0.051634073
15	0x3d542650	0.05179435
16	0xbdbab1e6	-0.09115963
17	0xbcfab1c8	-0.03060235
18	0xbdd8fe6e	-0.105954036
19	0xbd184ac0	-0.037180662
20	0x3d3ea404	0.046543136
21	0x3db3b9f8	0.08775705
22	0x3d6765a8	0.05649343
23	0xbcf080e8	-0.029358342
24	0xbd3f7920	-0.046746373
25	0xbb98df80	-0.004665315
26	0xbd800176	-0.06250279
27	0x3df22462	0.11823346
28	0xbc7366d0	-0.014856055
29	0xbcc57680	-0.024104357
30	0xbd2cbf84	-0.04217483
31	0x3d0f16dc	0.03493391
32	0x3d17b864	0.037041083
33	0xbd0065f0	-0.031347215
34	0xbd587094	-0.052841738
35	0x3dbfa7d0	0.093581796
36	0x3cac3660	0.021022022
37	0xbdbef126	-0.09323339
38	0x3d9903a4	0.074713975
39	0x3d4e8e54	0.050428703
40	0xbd880086	-0.06640725
41	0x3ce6c068	0.028167918
42	0x3cdd9f30	0.027053446
43	0xbdc73a54	-0.09727922
44	0xbd182838	-0.03714773
45	0xbdd1ddf8	-0.10247415
46	0xbdbdf1ac	-0.09274611
47	0xbd65a1f4	-0.056062654
48	0x3d7c5bcc	0.06161098
49	0xbc161920	-0.009161264
50	0xbd2f1f48	-0.04275444
51	0xbd657854	-0.056022957
52	0x3b5cb9c0	0.0033680052
53	0xbd525dc4	-0.051358953
54	0x3ddfe13e	0.109316334
55	0xbd04a8fc	-0.03238772
56	0xbde8f9b2	-0.113757506
57	0x3dc64784	0.09681609
58	0x3ce79658	0.028269932
59	0xbd1e90c4	-0.038712278
60	0xbc3638b0	-0.011121914
61	0x3d9bb840	0.07603502
62	0xbd95e012	-0.07318129
63	0xbce50760	-0.027957618
64	0xbb56a700	-0.0032753348
65	0xbdaef302	-0.08542444
66	0xbd9b4a86	-0.075825736
67	0xbdeb8eda	-0.11501856
68	0xbdc817ca	-0.097701624
69	0x3da28122	0.079347864
70	0x3d9eec68	0.07759935
71	0xbd55d278	-0.05220267
72	0x3d3b3f6c	0.04571478
73	0x3c33e8a0	0.010980755
74	0x3d9603f4	0.07324973
75	0xbca14358	-0.019685432
76	0x3dfb2c5c	0.1226432
77	0x3c956ab0	0.01823935
78	0x3c7909d0	0.015200093
79	0x3d5c61f4	0.053804353
80	0x3de1e9e0	0.11030936
81	0x3dd9d074	0.106354624
82	0xbd9e2a42	-0.07722904
83	0xbdbd6782	-0.09248258
84	0xbcd8fed0	-0.026488692
85	0x3dd042b0	0.1016897
86	0xbd93c816	-0.07215898
87	0xbdcc6894	-0.09980884
88	0x3d9aeb24	0.07564381
89	0xbdf5335c	-0.11972687
90	0xbdf4ab76	-0.11946766
91	0xbd5de4ec	-0.054173395
92	0x3b7b32c0	0.003832981
93	0xbdab4a78	-0.08363813
94	0x3d68bf44	0.05682303
95	0xbdb7e7ac	-0.08979735
96	0xbc27eba0	-0.0102490485
97	0x3ce75460	0.028238475
98	0xbdc3e4b6	-0.095651075
99	0xbdba9f70	-0.091124415
100	0xbdd6dab4	-0.10490933
101	0xbd9530a0	-0.07284665
102	0xbdcdd026	-0.10049467
103	0x3d9b34e4	0.075784475
104	0x3d64fbe4	0.055904284
105	0xbdfb1064	-0.12258986
106	0xbc6eb990	-0.014570609
107	0xbda5635a	-0.080755904
108	0xbca263f8	-0.01982306
109	0x3d8fbf98	0.070189655
110	0xbda411da	-0.080112174
111	0x3d9cf42a	0.07663758
112	0xbd7c0608	-0.06152919
113	0x3d274748	0.040839463
114	0x3b203c80	0.0024450123
115	0x3d2eba50	0.04265815
116	0xbc33a5a0	-0.010964781
117	0x3d02dd14	0.031949118
118	0x3d2dad30	0.042401493
119	0xbdc1d99a	-0.09465332
120	0x3dc2c8ea	0.095109776
121	0x3dd740aa	0.105103806
122	0xbd79710c	-0.060898826
123	0x3da1650a	0.078806
124	0x3c9e47f0	0.019321412
125	0xbda6944a	-0.08133753
126	0xbdc8a2f2	-0.09796704
127	0x3b6a0f00	0.0035714507
128	0xbd3145dc	-0.043279514
129	0x3d2ee28c	0.04269652
130	0x3d8dc1c4	0.069217235
131	0xbdaaddc2	-0.08343078
132	0x3d8e50a2	0.06948973
133	0xbd5e36d0	-0.054251492
134	0xbcc78c68	-0.024358943
135	0x3cfeefd8	0.031120226
136	0xbd6bee00	-0.05760002
137	0xbde30b50	-0.11086142
138	0x3daf6cac	0.085656494
139	0x3b67f400	0.0035393238
140	0x3da97358	0.08273953
141	0xbdadd758	-0.08488339
142	0x3c4bb8f0	0.012434229
143	0x3d465700	0.048422813
144	0x3cb18af0	0.021672696
145	0x3dd8012a	0.10547097
146	0x3df2f0a6	0.11862306
147	0xbda829f8	-0.0821113
148	0x3dfc1c54	0.12310091
149	0xbc902ca0	-0.017599404
150	0x3c00da40	0.007864535
151	0xbd422d60	-0.047406554
152	0x3dde5e9c	0.10857889
153	0xbde52206	-0.1118813
154	0xbc934628	-0.017977789
155	0x3c2a2700	0.010385275
156	0xbdc7e7f6	-0.0976104
157	0xbc7fe8f0	-0.0156195015
158	0xbca95a98	-0.020673081
159	0x3d2d861c	0.042364225
160	0xbdfcf30a	-0.123510435
161	0xbd860024	-0.065429956
162	0xbd048ce8	-0.03236094
163	0x3cf15860	0.029461086
164	0xbcddf360	-0.02709359
165	0xbc234a00	-0.009966373
166	0xbd153d3c	-0.03643535
167	0xbcb8edb8	-0.02257429
168	0xbdb669e4	-0.08906916
169	0x3db62fda	0.08895846
170	0xbd9cf2e8	-0.07663518
171	0x3d40fbd0	0.047115147
172	0x3c829fb0	0.015945286
173	0xbcf3da18	-0.029767081
174	0x3d8f96d4	0.0701119
175	0xbde8a20e	-0.113590345
176	0xbd9899b0	-0.074511886
177	0x3d808e40	0.06277132
178	0xbdc41c04	-0.09575656
179	0xbdd36c3a	-0.10323377
180	0x3ddae538	0.10688251
181	0x3d6e2ac8	0.058146268
182	0x3da9d13e	0.08291863
183	0x3d3a13a4	0.045428887
184	0x3d50ea24	0.051004544
185	0xbd0cfa58	-0.034418434
186	0x3d97f876	0.07420437
187	0xbdd47138	-0.10373157
188	0x3d95eb18	0.07320231
189	0xbb430ac0	-0.0029761046
190	0xbd61711c	-0.05503951
191	0xbda770e0	-0.08175826
192	0xbd802a22	-0.06258036
193	0x3ddeabec	0.10872635
194	0xbdac439e	-0.084113345
195	0xbdb3b432	-0.08774604
196	0x3c9ce268	0.019150928
197	0xbd9fa4c6	-0.077951
198	0xbdbddcec	-0.09270653
199	0xbd8bc322	-0.06824328
200	0xbdc08d02	-0.09401895
201	0x3d00bc44	0.031429544
202	0x3da8bdf2	0.08239354
203	0xbc261c80	-0.010138631
204	0x3c33a500	0.010964632
205	0xbcc83118	-0.024437472
206	0x3d4aafe4	0.04948415
207	0x3d6eb2bc	0.058275923
208	0x3cc9dfb8	0.02464281
209	0xbdfaf682	-0.12254049
210	0xbd848b62	-0.06471898
211	0xbdc238e4	-0.09483507
212	0x3defea3e	0.117146
213	0xbdfa0350	-0.12207663
214	0x3ce2d408	0.027688995
215	0x3b6358c0	0.003469035
216	0x3dcdf474	0.10056391
217	0xbdfe1640	-0.124065876
218	0x3d6558e4	0.055992976
219	0x3d78da94	0.060755327
220	0xbce70cd0	-0.028204352
221	0xbdd26ba8	-0.1027444
222	0xbd1afc00	-0.037837982
223	0x3d91aa32	0.0711254
224	0xbdd7015c	-0.10498306
225	0xbdb8a654	-0.090160996
226	0x3db51bf4	0.08843222
227	0x3cd2b0c8	0.025719061
228	0xbc56f960	-0.013120979
229	0x3d35609c	0.044281587
230	0xbda864b4	-0.082223326
231	0x3dd736e0	0.105085135
232	0xbd924256	-0.07141559
233	0xbd5636dc	-0.05229841
234	0xbda8e6dc	-0.08247158
235	0xbd858848	-0.06520134
236	0xbca866a0	-0.020556748
237	0xbdbde2b0	-0.09271753
238	0x3de1c586	0.11024003
239	0xbd49d520	-0.049275517
240	0xbcd36d10	-0.025808841
241	0xbdd8fd38	-0.10595173
242	0xbdb64a78	-0.089009225
243	0xbb75ee40	-0.0037526041
244	0xbdfdc5ba	-0.12391229
245	0xbdd3fa32	-0.10350455
246	0xbdc23de6	-0.094844624
247	0x3d83c0da	0.06433268
248	0xbcb8a7f8	-0.022541031
249	0xbdbace08	-0.091213286
250	0xbdeed0bc	-0.11660907
251	0x3cc61bb8	0.02418314
252	0x3c00f190	0.007870093
253	0xbd1a73b4	-0.037708
254	0x3dbe2a36	0.09285395
255	0x3cc24968	0.023716643

main_network.lstm.weight_hh_l0 f4 [256, 64]
0	0x3cf9f848	0.030513898
1	0xbd5a8534	-0.05334969
2	0xbd2987fc	-0.04138945
3	0x3dae16ba	0.085004285
4	0x3baac380	0.0052112937
5	0x3d922642	0.07136203
6	0xbdbea314	-0.093084484
7	0x3d381390	0.04494053
8	0x3daa627e	0.08319567
9	0xbd6ce3c8	-0.057834417
10	0xbbb5f120	-0.005552426
11	0xbd20dfb0	-0.039275825
12	0x3b2d4ac0	0.002644226
13	0x3ca2c860	0.019870937
14	0xbdbcddfc	-0.09222028
15	0xbdbf1812	-0.09330763
16	0xbd3831e8	-0.04496947
17	0xbcb571e8	-0.022149041
18	0x3da9d39e	0.08292316
19	0x3d543b6c	0.05181448
20	0xbd9c1ca2	-0.07622649
21	0x3ce51660	0.02796477
22	0x3d855d88	0.0651198
23	0x3dd17366	0.10227089
24	0xbd452df0	-0.048139513
25	0x3de0c4ce	0.109750375
26	0x3de0165e	0.10941766
27	0xbd5fa8f4	-0.054604486
28	0x3c9b5270	0.018960208
29	0x3d9f09e8	0.07765561
30	0x3cefa2b8	0.029252395
31	0x3d79f674	0.06102605
32	0xbca48e58	-0.020087406
33	0xbccee480	-0.025255442
34	0xbdafc0fe	-0.08581732
35	0x3d90467a	0.07044692
36	0x3dcbc562	0.09949757
37	0xbd80ef74	-0.06295672
38	0x3cb13130	0.0216299
39	0xbd8ed60c	-0.0697442
40	0xbd473ea4	-0.048643723
41	0x3d8faf50	0.0701586
42	0xbc4f6cc0	-0.012660205
43	0xbdcd55be	-0.1002612
44	0xbd65e0cc	-0.056122586
45	0xbde87046	-0.113495395
46	0x3daf24da	0.08551951
47	0xbcff0868	-0.031131938
48	0x3df1f0e4	0.11813524
49	0xbdd2f646	-0.10300879
50	0xbd35066c	-0.044195578
51	0x3d7ac65c	0.061224326
52	0xbd9b9758	-0.07597226
53	0xbcf39cb8	-0.029737815
54	0xbde40eae	-0.111356124
55	0x3dc9e914	0.09858909
56	0x3db88014	0.09008804
57	0x3c907528	0.01763399
58	0x3decca06	0.115619704
59	0xbda0e016	-0.07855241
60	0x3c7c6820	0.015405685
61	0x3dfed708	0.12443358
62	0x3d3f50d4	0.046707943
63	0x3d7195d8	0.058980793
64	0xbc94de58	-0.018172428
65	0xbdc88de6	-0.0979269
66	0xbddd5a86	-0.108082816
67	0xbd558a94	-0.05213411
68	0xbd8f6d50	-0.070032716
69	0xbd24eab4	-0.040262893
70	0x3de04acc	0.10951766
71	0x3dcf17e6	0.1011198
72	0x3daf4188	0.08557421
73	0xbdb98406	-0.090583846
74	0x3dfab7ba	0.12242074
75	0x3d9baf4a	0.07601793
76	0xbdee5512	-0.116373196
77	0x3d546128	0.051850468
78	0x3ce84768	0.028354362
79	0x3d707594	0.05870588
80	0xbd7535dc	-0.059865817
81	0x3d6c811c	0.057740316
82	0xbca54188	-0.02017285
83	0x3d8966e8	0.06709081
84	0x3cc06760	0.023486793
85	0x3bb97e20	0.005660787
86	0x3d002c44	0.031292215
87	0xbdafd1e0	-0.08584952
88	0xbdfda2d8	-0.123845756
89	0xbd956054	-0.07293764
90	0x3b1f01c0	0.0024262518
91	0xbded2fac	-0.11581358
92	0x3d24aac4	0.040201917
93	0xbdfe6292	-0.124211445
94	0xbdf26e02	-0.118373886
95	0xbd043148	-0.03227356
96	0x3cf236c8	0.029567137
97	0xbb06dd80	-0.0020578802
98	0xbdb6ca20	-0.08925271
99	0x3d703d08	0.058651954
100	0x3dccc94a	0.0999933
101	0xbdb945fa	-0.0904655
102	0x3d8ee4b2	0.06977214
103	0x3d98a3a6	0.074530885
104	0x3cdcecf8	0.026968464
105	0x3d61e650	0.055151284
106	0xbdda10aa	-0.1064771
107	0x3d96d212	0.073642865
108	0xbc76e080	-0.015068173
109	0xbdc1738c	-0.09445867
110	0x3dc9a788	0.09846407
111	0x3ae75180	0.001764819
112	0x3cab5880	0.020916224
113	0xbde62856	-0.11238162
114	0xbdf3bf64	-0.11901739
115	0xbccc8c90	-0.02496937
116	0x3dcd7122	0.10031344
117	0xbdb36516	-0.08759515
118	0x3dbfd214	0.09366241
119	0xbbcd7fe0	-0.0062713474
120	0xbd2f0310	-0.04272753
121	0xbdac3bd0	-0.08409846
122	0xbd8c65fa	-0.06855388
123	0xbdb191d8	-0.086703956
124	0xbd9a86a4	-0.07545212
125	0xbd84bcac	-0.06481299
126	0x3cffc300	0.031220913
127	0xbdd1b404	-0.102394134
128	0x3d64d560	0.055867553
129	0xbdd98028	-0.10620147
130	0xbdc01858	-0.09379643
131	0x3c147ba0	0.009062678
132	0x3d8558e8	0.06511098
133	0x3d63a958	0.05558142
134	0xbbaaade0	-0.005208716
135	0x3dce22f0	0.100652575
136	0xbd72c3b0	-0.059268653
137	0x3d03c94c	0.032174394
138	0xbd47caf8	-0.04877755
139	0xbd81899c	-0.06325075
140	0xbd97ebda	-0.07418032
141	0x3daccf78	0.08438009
142	0xbda03b82	-0.0782385
143	0xbd637434	-0.05553074
144	0xbdaf4d6c	-0.08559689
145	0x3dc711d4	0.09720197
146	0xbb946340	-0.004528433
147	0x3de08b48	0.10964066
148	0xbdb4642a	-0.08808167
149	0xbc9e8728	-0.019351557
150	0xbdfc5550	-0.123209596
151	0x3d3dba4c	0.046320245
152	0xbdd55346	-0.10416274
153	0x3d40d454	0.047077492
154	0xbddd5984	-0.108080894
155	0x3d2573c8	0.04039362
156	0xbde9ad56	-0.11410014
157	0x3d152730	0.036414325
158	0xbda53988	-0.08067614
159	0xbdb3f24e	-0.0878645
160	0xbdf61f2c	-0.12017664
161	0xbde3ef86	-0.1112967
162	0x3d8da282	0.069157615
163	0x3da487fc	0.080337495
164	0xbdda07f4	-0.10646048
165	0xbd8cf49c	-0.06882593
166	0x3db2b598	0.087260425
167	0x3da983aa	0.08277066
168	0xbc73ce50	-0.014880732
169	0x3d9900f2	0.074708834
170	0xbd7117b8	-0.05886051
171	0x3c957f98	0.018249318
172	0x3d8bde8a	0.06829555
173	0x3dbf83f4	0.0935134
174	0x3c5c1170	0.013431892
175	0xbc8ee4c0	-0.01744306
176	0xbcdd1530	-0.026987642
177	0xbdc5a230	-0.096500754
178	0x3cfe52d0	0.031045347
179	0x3db62f74	0.0889577
180	0x3d27822c	0.040895626
181	0xbd8927ec	-0.066970676
182	0xbdcbdf9a	-0.09954758
183	0xbdc126a2	-0.09431197
184	0xbc4d0990	-0.012514487
185	0xbdd60fa6	-0.104522035
186	0x3dd77eae	0.10522209
187	0xbcd45da0	-0.02592355
188	0xbd0cea60	-0.034403205
189	0x3db51ce6	0.088434026
190	0xbd1a85a4	-0.037725106
191	0xbd563818	-0.05229959
192	0x3c158ef0	0.009128317
193	0x3dae8fac	0.08523497
194	0xbd623954	-0.055230454
195	0xbdf674d8	-0.12034005
196	0x3db1b11e	0.086763605
197	0x3d514ebc	0.051100478
198	0x3da1a2b0	0.07892358
199	0x3df81d76	0.12114994
200	0xbcbd8b28	-0.023137644
201	0x39010c00	0.00012306869
202	0x3d4d5904	0.05013372
203	0x3dfef7c4	0.12449601
204	0x3d8c4fd4	0.068511635
205	0x3dabe73a	0.08393712
206	0xbd4cc248	-0.04998997
207	0xbce95ac8	-0.02848567
208	0xbcc93ca0	-0.024565041
209	0xbd834f46	-0.064116046
210	0x3dc34efc	0.095365494
211	0x3d0cf880	0.034416676
212	0xbd2e314c	-0.042527482
213	0x3c5d87a0	0.013521105
214	0xbcf9e270	-0.030503482
215	0xbd1c9b74	-0.03823419
216	0xbd2b6054	-0.041839913
217	0x3de7312c	0.11288676
218	0xbd92d6de	-0.07169889
219	0x3df654d4	0.120278984
220	0x3d7af5c8	0.06126955
221	0xbca5e2a0	-0.020249665
222	0x3d853fac	0.06506285
223	0x3cf7ee18	0.0302649
224	0x3d05aa94	0.03263338
225	0x3bb0e240	0.005398065
226	0x3d43b708	0.047781974
227	0x3d0dfdb8	0.034665793
228	0x3da1976a	0.07890208
229	0x3d517920	0.051140904
230	0xbd1c90f4	-0.038224176
231	0xbddbd572	-0.10734071
232	0xbcf30088	-0.02966334
233	0xbd5fe720	-0.054663777
234	0xbd95c496	-0.073128864
235	0xbd9597aa	-0.07304318
236	0x3d13f540	0.03612256
237	0x3d4ecab0	0.050486267
238	0x3d16b748	0.036795884
239	0x3d8dca5c	0.069233626
240	0xbcb02f88	-0.02150704
241	0x3da675a6	0.081279084
242	0x3d84df68	0.06487924
243	0x3d4942ec	0.049136087
244	0xba98cd80	-0.0011657923
245	0xbdbd1542	-0.0923257
246	0xbd8f5c4e	-0.070000276
247	0xbd3f3f80	-0.046691418
248	0x3c9fc578	0.01950334
249	0x3d5ce334	0.053927615
250	0xbcc82288	-0.024430528
251	0x3db9949c	0.09061548
252	0xbc8db0b8	-0.01729618
253	0xbdab98fc	-0.08378789
254	0xbd37fea0	-0.044920564
255	0xbd96e97e	-0.07368754

main_network.lstm.bias_ih_l0 f4 [256]
0	0x3dc62a26	0.09676008
1	0x3d2161ac	0.039399788
2	0xbdbd8c6e	-0.092553005
3	0xbd39d2d8	-0.045367092
4	0xbd9ddb1a	-0.07707806
5	0xbda5848c	-0.08081922
6	0xbc2815d0	-0.010259107
7	0x3d55efac	0.052230522
8	0x3dd4d15e	0.10391496
9	0xbafe2a80	-0.0019391328
10	0xbdc8f882	-0.09813024
11	0xbdaf9754	-0.085737854
12	0x3dbfc0a6	0.09362917
13	0x3deaed98	0.11471099
14	0xbcc00850	-0.023441464
15	0xbc974968	-0.01846762
16	0xbcc7ec38	-0.02440463
17	0x3dbae8ae	0.091264114
18	0x3d2a07b0	0.041511238
19	0x3cc2a810	0.02376178
20	0xbdf0a2e6	-0.117498204
21	0x3d3d21cc	0.04617481
22	0x3dedb9f6	0.11607735
23	0xbd73152c	-0.059346363
24	0xbde00bce	-0.109397516
25	0x3caf2d88	0.021384016
26	0xbb0e4b40	-0.0021712333
27	0x3c0b3c40	0.008498251
28	0xbde256d6	-0.11051719
29	0x3d0ebad8	0.034846157
30	0x3ccd7ea8	0.025084808
31	0x3cc79128	0.024361208
32	0xbdd798b2	-0.10527171
33	0xbd810038	-0.0629887
34	0xbde24d2c	-0.110498756
35	0x3be1e180	0.006893337
36	0x3bdc2f80	0.0067195296
37	0x3dd9e9ec	0.1064032
38	0x3ceb4618	0.028719947
39	0xbdcdd836	-0.100510046
40	0xbd9d10ec	-0.07669243
41	0xbdab3238	-0.08359188
42	0xbd8a83cc	-0.067634195
43	0x3de46464	0.111519605
44	0xbd350f08	-0.044203788
45	0xbcf0e300	-0.029405117
46	0x3c91fcc0	0.017820716
47	0xbdaa7b08	-0.083242476
48	0xbdffe000	-0.124938965
49	0x3ce6b668	0.02816315
50	0x3d7da180	0.061921597
51	0x3d387544	0.04503371
52	0xbdc83ed0	-0.097776055
53	0xbca64cf8	-0.020300373
54	0xbdc604aa	-0.09668858
55	0x3b672780	0.0035271347
56	0xbd950dca	-0.07278021
57	0x3dbc6da0	0.09200597
58	0x3d93c7a6	0.07215814
59	0xbda67656	-0.081280395
60	0xbdf771f2	-0.1208228
61	0xbb22eb40	-0.0024859458
62	0x3dc64eea	0.096830204
63	0x3d0678dc	0.032830104
64	0x3d85bbf2	0.06529988
65	0xbbc87480	-0.0061174035
66	0x3dcc216e	0.09967314
67	0x3d0dc244	0.034609094
68	0xbddbd58c	-0.1073409
69	0xbddeb4b0	-0.10874307
70	0xbdc062f4	-0.09393874
71	0x3dc3706a	0.09542926
72	0xbdf7aa4c	-0.120930284
73	0x3cae93c8	0.021310702
74	0xbd98ce56	-0.074612305
75	0xbba28340	-0.004959494
76	0xbd7cd6b4	-0.061728194
77	0x3d9794a0	0.07401395
78	0x3b91d4c0	0.0044504106
79	0xbd0174ec	-0.031605646
80	0xbda43f18	-0.08019847
81	0xbd3bf6f4	-0.04588981
82	0xbdce7b68	-0.100821316
83	0x3d9e0870	0.07716453
84	0xbd99a45e	-0.07502054
85	0xbba26620	-0.004956022
86	0xbc5ad940	-0.0133574605
87	0x3d8fbc7a	0.07018371
88	0xbd2ab9bc	-0.041681036
89	0x3d039cc0	0.03213191
90	0x3bd11360	0.0063804835
91	0x3c83b940	0.016079545
92	0x3cc344a0	0.023836434
93	0x3de53f9c	0.11193773
94	0x3d278b58	0.040904373
95	0x3d9350ac	0.07193121
96	0xbc88d9b0	-0.016705364
97	0xbc4854f0	-0.012227282
98	0xbd3798f8	-0.044823617
99	0xbdb91a5e	-0.09038232
100	0xbdb5590e	-0.088548765
101	0x3d8b4a36	0.06801264
102	0xbce2e9d8	-0.027699396
103	0x3c77d490	0.015126362
104	0x3dc8f052	0.098114625
105	0x3c8f2bd8	0.017476961
106	0x3d95a322	0.07306506
107	0x3cdfefb0	0.027335972
108	0x3d211038	0.039322108
109	0xbd67e7c0	-0.0566175
110	0xbdc8343e	-0.097755894
111	0x3c90a870	0.017658442
112	0xbd97172a	-0.07377465
113	0xbc42c870	-0.011888608
114	0x3d8b14d6	0.067910835
115	0xbdbcf64a	-0.092266634
116	0x3d19b610	0.037527144
117	0x3de32f9e	0.11093067
118	0xbdf13e2a	-0.11779435
119	0x3da9aeee	0.08285318
120	0x3d8fb16e	0.07016264
121	0x3d2ae2cc	0.041720197
122	0x3d8972e2	0.06711365
123	0x3cbe1fe8	0.023208573
124	0x3ca9e020	0.020736754
125	0x3dea328e	0.11435424
126	0xbd7dc074	-0.061951116
127	0xbc0aa640	-0.008462489
128	0x3c243840	0.010023177
129	0xbd325058	-0.043533653
130	0x3d0810e8	0.033219248
131	0xbda1d918	-0.079027355
132	0xbd47c074	-0.048767522
133	0x3db63382	0.08896543
134	0xbd4a0028	-0.049316555
135	0xbcda41f0	-0.02664277
136	0x3da2af78	0.07943624
137	0x3ddb011c	0.10693571
138	0xbdbc752e	-0.09202038
139	0x3d0e1374	0.03468652
140	0x3db3e704	0.08784297
141	0xbdb8b6a4	-0.09019211
142	0xbc1cbf90	-0.009567156
143	0xbdfcb072	-0.12338342
144	0x3dec84e8	0.11548787
145	0xbdbcfeae	-0.09228264
146	0xbdeef07a	-0.11666961
147	0xbd88bc94	-0.066765934
148	0xbd6c1714	-0.057639197
149	0x3d04c65c	0.032415733
150	0x3dbfa6be	0.093579754
151	0x3dd6f316	0.10495584
152	0x3de396b0	0.11112726
153	0x3dc721f0	0.0972327
154	0x3d9ad864	0.075608045
155	0x3d928482	0.0715418
156	0xbc8baef8	-0.017051205
157	0xbdc8673e	-0.09785317
158	0x3d5aa75c	0.053382263
159	0xbd137ba4	-0.036006585
160	0xbcced028	-0.025245741
161	0xbd7345a4	-0.059392586
162	0xbc1fcde0	-0.009753674
163	0xbdc23b36	-0.0948395
164	0xba1ec000	-0.0006055832
165	0x3de1b394	0.1102058
166	0x3dbd553a	0.09244771
167	0x3d881884	0.06645301
168	0xbd5210b8	-0.051285475
169	0xbd8b51e8	-0.06802732
170	0xbd91cffa	-0.071197465
171	0xbd9d82f8	-0.07690996
172	0x3da0065a	0.078137115
173	0xbdfddb46	-0.12395339
174	0x3d6ea6a0	0.058264375
175	0xbd958c3e	-0.0730214
176	0xbdabcafa	-0.08388324
177	0x3d9f00c6	0.077638194
178	0x3d3e9044	0.0465243
179	0x3b9bc9e0	0.00475429
180	0x3c29ede0	0.010371655
181	0xbd6f9ec4	-0.05850102
182	0x3c876a70	0.016530246
183	0x3df2ab60	0.118490934
184	0xbcca1b48	-0.024671212
185	0x3dd87078	0.10568327
186	0xbd57179c	-0.05251275
187	0x3c6802f0	0.014160857
188	0xbc376970	-0.011194572
189	0x3bd6a200	0.0065500736
190	0x3dcefe3e	0.101070866
191	0xbc873078	-0.016502604
192	0x3de99cd8	0.11406869
193	0xbcfb49a8	-0.03067477
194	0xbca177f8	-0.019710526
195	0xbdd49f50	-0.10381949
196	0xbd957c82	-0.072991386
197	0xbcce93f8	-0.025217041
198	0xbdf4cbac	-0.1195291
199	0xbdf6ef10	-0.12057316
200	0xbd742258	-0.059603065
201	0xbbd64540	-0.006539017
202	0xbc8eba40	-0.017422795
203	0x3de84d7c	0.11342904
204	0x3d43c394	0.04779394
205	0xbdb31a6e	-0.087452754
206	0xbdf862c4	-0.12128213
207	0x3d57eb2c	0.05271451
208	0x3d02c020	0.031921506
209	0x3df81bf8	0.121147096
210	0x3d851202	0.06497575
211	0xbcbcc5c8	-0.023043528
212	0x3d6af260	0.057360053
213	0x3d93f036	0.07223551
214	0xbd981d40	-0.07427454
215	0x3d8cadae	0.06869064
216	0x3dd4757a	0.103739694
217	0x3d8a3e22	0.06750132
218	0x3cde9f58	0.02717559
219	0x3c121120	0.008915216
220	0xbd90647e	-0.07050417
221	0xbdd1cac4	-0.102437526
222	0xbdfbddd4	-0.1229817
223	0xbdc809b0	-0.09767473
224	0xbdd12cc8	-0.102136195
225	0xbcf3c130	-0.029755205
226	0xbb02bd40	-0.0019949228
227	0x3d0808a0	0.03321135
228	0xbcfb7e38	-0.030699834
229	0xbce15670	-0.027507037
230	0xbcabc778	-0.020969138
231	0xbddaff76	-0.106932566
232	0x3d328af8	0.043589562
233	0x3d312d70	0.043256223
234	0xbd302374	-0.04300256
235	0x3d268f68	0.040664107
236	0xbd0916b8	-0.033468932
237	0x3df84c96	0.121239826
238	0xbd33e394	-0.043918207
239	0x3cd35560	0.025797546
240	0x38d9a800	0.00010378659
241	0x3d5fab9c	0.05460702
242	0x3ca8d850	0.020610958
243	0x3debbcfa	0.11510654
244	0xbd32f648	-0.043691903
245	0xbdcb6370	-0.099310756
246	0xbdc73018	-0.0972597
247	0xbde2cee0	-0.110746145
248	0xbdd3be14	-0.10338989
249	0xbd2afd48	-0.041745454
250	0xbd88ce60	-0.06679988
251	0xbda08c40	-0.078392506
252	0x3dcd9266	0.10037689
253	0xbdc2af50	-0.095060945
254	0xbdfa8494	-0.122323185
255	0x3dedbe00	0.11608505

main_network.lstm.bias_hh_l0 f4 [256]
0	0xbd94f1a4	-0.07272652
1	0x3b94a9a0	0.0045368224
2	0x3dbf37d4	0.0933682
3	0xbd910ed2	-0.07082905
4	0xbdb222f6	-0.086980745
5	0xbda8b92a	-0.08238442
6	0x3de9f722	0.1142409
7	0xbca4fe00	-0.020140648
8	0xbcf73ab8	-0.030179366
9	0xbd43f7d0	-0.047843754
10	0xbdaa575a	-0.08317442
11	0x3d57fc0c	0.052730605
12	0x3d962d2a	0.07332833
13	0x3d57af88	0.052657634
14	0xbdc1eb2e	-0.09468685
15	0xbddbd95c	-0.107348174
16	0xbda71a7e	-0.0815935
17	0xbd8c6226	-0.06854658
18	0x3d24a80c	0.040199324
19	0xbb0c5380	-0.0021412075
20	0x3dc1aa5e	0.09456323
21	0x3d3caf90	0.046065867
22	0xbc41afa0	-0.011821657
23	0x3cb85f20	0.022506297
24	0x3d8ff498	0.070290744
25	0x3db0eec4	0.08639291
26	0xbd2d9820	-0.042381406
27	0x3d124ebc	0.03571962
28	0x3db89426	0.09012632
29	0xbd832114	-0.064027935
30	0xbd9c252e	-0.07624279
31	0xbd390e80	-0.045179844
32	0x3ad02800	0.0015881062
33	0x3c2fb8b0	0.010725185
34	0xbcc32820	-0.023822844
35	0x3dcf605a	0.101257995
36	0xbd68b538	-0.05681345
37	0x3db56e58	0.08858937
38	0xbd2d2d58	-0.04227957
39	0xbc219f50	-0.009864643
40	0x3dd9110e	0.10598956
41	0xbdeef8a2	-0.11668517
42	0xbd7bdb98	-0.061488718
43	0xbdd7ac6c	-0.10530934
44	0xbd1655ac	-0.036702797
45	0xbde7fa82	-0.113270774
46	0xbdcd40b4	-0.10022107
47	0xbdccb7b0	-0.09995973
48	0xbdbdb6d0	-0.09263384
49	0xbbc0a9a0	-0.005879596
50	0x3d840c6c	0.06447682
51	0xbdcabaee	-0.09898935
52	0x3bbf8d40	0.0058456957
53	0x3ccb51a8	0.02481921
54	0xbdbeb82e	-0.09312473
55	0xbd4e1e2c	-0.050321743
56	0x3d545d18	0.051846594
57	0x3d695244	0.05696322
58	0x3c0bd020	0.008533508
59	0xbcae4fe0	-0.021278322
60	0xbd61a3a8	-0.055087715
61	0x3d147af8	0.036250085
62	0x3dd6ca46	0.10487799
63	0x3df16da2	0.11788489
64	0x3d8155ee	0.06315218
65	0xbd9c67c4	-0.07636979
66	0x3dc78530	0.097422004
67	0x3df0ed2c	0.11763987
68	0xbd3e5cf4	-0.046475366
69	0x3b82e8e0	0.003995046
70	0x3d3df1e4	0.046373263
71	0xbd5922f8	-0.053011864
72	0xbde10c90	-0.10988724
73	0x3dd38640	0.103283405
74	0xbc7b1e10	-0.015326992
75	0xbdeb1706	-0.11479001
76	0xbd06ed7c	-0.032941326
77	0x3d9ca4f6	0.07648651
78	0xbde2c734	-0.11073151
79	0x3d850438	0.06494945
80	0xbba92a20	-0.0051624924
81	0x3d63b5e8	0.0555934
82	0xbd3e8bec	-0.04652016
83	0x3d006d14	0.031354025
84	0xbd9702cc	-0.0737358
85	0x3d633cc4	0.055477872
86	0x3c2a09a0	0.010378271
87	0x3dba7abc	0.09105441
88	0x3dbb3a92	0.09142031
89	0x39d1c400	0.00040009618
90	0x3dd1e5a2	0.10248877
91	0x3cdd5a58	0.027020618
92	0x3db40f46	0.08791976
93	0xbd8d541a	-0.06900807
94	0x3be5faa0	0.007018402
95	0xbd422004	-0.047393814
96	0x3d84d9e6	0.06486873
97	0xbd89beda	-0.06725855
98	0x3cd9a388	0.026567236
99	0x3d4f9728	0.050681263
100	0xbdcf0bee	-0.10109697
101	0xbdc8804e	-0.09790097
102	0xbcf4c6f8	-0.029880032
103	0x3d25933c	0.040423617
104	0xbdf3d318	-0.11905497
105	0xbd6f00b4	-0.05835028
106	0x3ccc7e30	0.024962515
107	0x3dd175d0	0.10227549
108	0x3ca6aed0	0.020347029
109	0xbc7610e0	-0.015018672
110	0xbd0c21d8	-0.034211963
111	0x3d183cb8	0.03716728
112	0x3dda21c0	0.106509686
113	0xbd640afc	-0.055674538
114	0x3dd3821a	0.10327549
115	0x3d0c6744	0.03427817
116	0xbdedf64c	-0.11619243
117	0xbd36ab78	-0.04459712
118	0x3a1e8800	0.0006047487
119	0xbdb6f0be	-0.08932637
120	0x3bd93b40	0.0066293776
121	0xbc9f0740	-0.019412637
122	0x3de0e3f8	0.109809816
123	0x3de5d8e2	0.11223008
124	0xbdc0c4bc	-0.09412524
125	0x3dc977e8	0.098373234
126	0xbc492550	-0.012276962
127	0xbdc303b8	-0.09522194
128	0xbdbf6514	-0.09345451
129	0xbcce9838	-0.025219068
130	0xbd656220	-0.056001782
131	0x3cded3a0	0.02720052
132	0x3cf052e8	0.029336408
133	0x3cf08498	0.0293601
134	0x3de0bd18	0.10973567
135	0x3d906364	0.07050207
136	0x3daa3980	0.083117485
137	0x3da38548	0.07984406
138	0x3d677620	0.056509137
139	0xbdbb69da	-0.09151049
140	0x3dd9d78a	0.10636814
141	0xbdde8052	-0.10864319
142	0xbdc9d794	-0.098555714
143	0x3da1b7d8	0.078963935
144	0xbd82e26a	-0.06390841
145	0x3d8a4934	0.06752244
146	0xbc61a2d0	-0.013771728
147	0xbbdaea20	-0.006680742
148	0x3dd29e88	0.10284144
149	0xb9dd8a00	-0.00042255223
150	0xbdd2adee	-0.10287081
151	0x3dfca6d0	0.123365045
152	0xbd6ed78c	-0.05831103
153	0xbdca8a4e	-0.09889661
154	0xbdba1166	-0.0908535
155	0xbd61b338	-0.055102557
156	0x3de8d118	0.113680065
157	0x3de807ae	0.1132959
158	0xbdad0d8c	-0.084498495
159	0xbd4053a4	-0.046954766
160	0xbc0155a0	-0.00789395
161	0xbdb8d938	-0.09025806
162	0xbda5df3c	-0.08099219
163	0x3dfbdf66	0.12298469
164	0x3debb986	0.11509995
165	0x3d80aa2a	0.06282456
166	0xbdc25784	-0.094893485
167	0xbd143e0c	-0.036191985
168	0xba74da00	-0.0009340346
169	0x3df7ec6a	0.12105639
170	0xbdcdcb22	-0.1004851
171	0x3cd137c0	0.025539279
172	0x3de69324	0.112585336
173	0xbd9f0a90	-0.077656865
174	0xbdbcfea4	-0.09228256
175	0xbcea3af0	-0.028592557
176	0x3c39f190	0.011349097
177	0xbdc09d10	-0.09404957
178	0xbdf36316	-0.118841335
179	0x3d2b322c	0.041795895
180	0x3cdc6c78	0.02690719
181	0xbd5a76bc	-0.05333589
182	0xbdbb9722	-0.09159686
183	0x3c650990	0.013979331
184	0x3c9da620	0.019244254
185	0xbd26bf60	-0.040709853
186	0xbd4af8ec	-0.049553797
187	0x3d3b2470	0.045689046
188	0x3da0eeb2	0.078580275
189	0x3db4a328	0.08820182
190	0xbd979d90	-0.074030995
191	0xbc9083e0	-0.017641008
192	0x3de2b1f4	0.11069098
193	0xbdaf29aa	-0.08552869
194	0x3ca28848	0.019840375
195	0xbde48baa	-0.11159451
196	0xbdf4ac0e	-0.11946879
197	0xbdd06b0e	-0.10176669
198	0xbdced7a8	-0.10099727
199	0xbd7757c8	-0.06038645
200	0x3d1859c8	0.037194997
201	0x3d35a27c	0.04434441
202	0x3d80ad92	0.06283106
203	0x3d6ddde8	0.058072954
204	0xbcc38128	-0.023865297
205	0xbdf22f80	-0.11825466
206	0x3de6c244	0.11267522
207	0x3cd00818	0.025394484
208	0x3da16400	0.078804016
209	0x3df3d282	0.119053856
210	0xbc3734d0	-0.011182025
211	0xbdc29c30	-0.09502447
212	0xbdad69d8	-0.08467454
213	0xbdee9360	-0.11649203
214	0x3bd3d4a0	0.006464556
215	0xbd3085ec	-0.043096468
216	0xbcfcd770	-0.030864447
217	0x3d10c3e0	0.03534305
218	0x3d7fb8b8	0.06243202
219	0x3d9f9d38	0.07793659
220	0x3baa9180	0.0052053332
221	0x3d2ed674	0.042684987
222	0x3d39d590	0.045369685
223	0xbdd3d3d2	-0.10343136
224	0x3dd06bf4	0.101768404
225	0xbc08e4e0	-0.008355349
226	0xbddcf716	-0.107893154
227	0x3d831c30	0.06401861
228	0xbdf257f8	-0.11833185
229	0x3d00491c	0.031319723
230	0x3c4c1d00	0.012458086
231	0x3c166af0	0.009180769
232	0xbdde65c6	-0.108592555
233	0x3c85cbb0	0.016332477
234	0xbdee0714	-0.11622444
235	0x3da71498	0.08158225
236	0x3dd50504	0.10401347
237	0x3de2ae50	0.11068404
238	0xbc1e7250	-0.009670809
239	0xbb570dc0	-0.0032814592
240	0x3cc9cdb0	0.024634212
241	0xbd931f50	-0.07183707
242	0xbdb66698	-0.08906287
243	0x3dec2636	0.11530726
244	0x3d001dd8	0.03127846
245	0xbd970458	-0.073738754
246	0xbd75f340	-0.060046434
247	0x3d84bd0e	0.06481372
248	0xbd181f98	-0.037139505
249	0x3b19d500	0.0023472905
250	0x3def76d8	0.116925895
251	0xbd772df4	-0.06034656
252	0x3d985694	0.074383885
253	0x3d14b5e0	0.036306262
254	0xbcdeafd8	-0.027183458
255	0xbdfe1d3c	-0.1240792

main_network.fc.weight f4 [3, 64]
0	0x3d6bd2e8	0.057574183
1	0x3da34f1c	0.07974073
2	0xbd0e5014	-0.034744337
3	0x3b32e8c0	0.0027299374
4	0xbdef69a6	-0.11690073
5	0xbd8ccbb0	-0.06874788
6	0x3ddbd6be	0.10734318
7	0x3df088b4	0.11744824
8	0xbdd253dc	-0.10269901
9	0xbdf35122	-0.11880709
10	0xbd853528	-0.065042794
11	0xbd46f5f0	-0.048574388
12	0xbd51a7a4	-0.051185265
13	0x3d537e04	0.05163385
14	0xbdc578e4	-0.09642199
15	0x3a83ef80	0.0010065883
16	0x3ddc3486	0.107522056
17	0x3d898a32	0.06715812
18	0xbcffde68	-0.031233981
19	0x3d2b55dc	0.04182993
20	0x3daf3c5a	0.08556433
21	0x3dfa401c	0.12219259
22	0xbd0ca948	-0.034341127
23	0x3d8ccf5a	0.06875487
24	0xbd0a44fc	-0.033757195
25	0xbd727e38	-0.059202403
26	0x3dba112e	0.09085308
27	0xbd2aeef4	-0.04173179
28	0x3dc39e4e	0.095516786
29	0x3b798ac0	0.0038077086
30	0x3cb0a330	0.021562189
31	0xbdbf913e	-0.093538746
32	0xbc7f87c0	-0.01559633
33	0xbde2c270	-0.11072242
34	0xbdfb611c	-0.122743815
35	0xbd6f0480	-0.0583539
36	0x39db9400	0.00041881204
37	0x3dedf27a	0.11618514
38	0x3d844876	0.06459133
39	0x3daa91b4	0.08328572
40	0xbdb8106e	-0.08987509
41	0xbc34bb20	-0.011030942
42	0xbddd5d96	-0.10808866
43	0xbdd6cdfa	-0.10488506
44	0x3dd3618c	0.1032134
45	0x3d423ec4	0.04742314
46	0xbd22839c	-0.039676294
47	0x3a180a00	0.000579983
48	0x3d29b888	0.04143575
49	0x3d50850c	0.050908133
50	0xbd2f6430	-0.042820156
51	0x3dcace86	0.099026725
52	0x3d1fd8a0	0.03902495
53	0x3df38a5c	0.11891624
54	0x3d5893d4	0.052875355
55	0xbddc3380	-0.1075201
56	0xbc6960f0	-0.014244303
57	0xbd7c6fb4	-0.061629966
58	0xbc4788f0	-0.012178645
59	0x3db3af74	0.087736994
60	0xbcd0a060	-0.025467098
61	0xbcbf5748	-0.023357049
62	0xbd69d060	-0.057083488
63	0xbd29313c	-0.04130672
64	0xbc7a2860	-0.015268415
65	0x3d34edd4	0.044172123
66	0xbd9d7cc0	-0.0768981
67	0x3d4ecbf0	0.05048746
68	0x3d47178c	0.04860644
69	0x3dd4711c	0.103731364
70	0xbdcaf648	-0.09910256
71	0xbde37b14	-0.1110746
72	0xbdd9baf6	-0.10631363
73	0xbcc9bd30	-0.024626344
74	0x3dd4d756	0.103926346
75	0x3df56f5c	0.11984131
76	0x3de755ae	0.11295639
77	0xbd84011a	-0.064455226
78	0x3dfae6d8	0.12251061
79	0x3d1122b0	0.03543347
80	0x3d1460f4	0.036225274
81	0x3d5bd4dc	0.053669795
82	0x3b17f5c0	0.002318725
83	0x3c337420	0.010952979
84	0xbd73399c	-0.059381112
85	0x3d701958	0.05861792
86	0xbdd65968	-0.10466272
87	0x3ddd5778	0.10807699
88	0x3da35a00	0.079761505
89	0xbd862c24	-0.06551388
90	0xbd94ecee	-0.07271753
91	0x3ded6932	0.1159233
92	0xbc0b3f10	-0.008498922
93	0xbcfe3258	-0.031029865
94	0x3d96c79c	0.07362291
95	0xbdb7862e	-0.089611396
96	0xbdc4c966	-0.09608726
97	0x3dcda584	0.10041335
98	0x3dcefeda	0.10107203
99	0x3dbfe71c	0.093702525
100	0x3b1fb280	0.002436787
101	0xbd8ceb80	-0.068808556
102	0x3c82c2f8	0.015962109
103	0x3d28c904	0.04120733
104	0x3cea5ce0	0.02860874
105	0xbdb5e730	-0.08881986
106	0x3dcf6b2a	0.10127862
107	0x3dddeb4a	0.108358935
108	0x3c3e27f0	0.0116062015
109	0xbd162d28	-0.036664158
110	0xbdabfaee	-0.083974704
111	0x3dfe0468	0.12403184
112	0xbd33a8c8	-0.043862134
113	0xbdccec54	-0.100060135
114	0xbdfa7304	-0.12228969
115	0x3dade98e	0.08491813
116	0x3def479c	0.1168358
117	0x3ce33eb8	0.027739868
118	0xbcc6f2f0	-0.024285764
119	0xbdb99888	-0.09062296
120	0x3dc0885e	0.0940101
121	0x3c29a5b0	0.010354444
122	0x3dcebf00	0.10095024
123	0x3d7c9fe0	0.061675906
124	0x3dc85e7c	0.097836465
125	0x3ddbf1c0	0.107394695
126	0x3dcd386e	0.10020529
127	0x3db0ed7c	0.086390465
128	0xbdd50a54	-0.104023606
129	0x3c0ba580	0.008523345
130	0xbd950d1c	-0.07277891
131	0xbc565d80	-0.013083816
132	0xbcbe5030	-0.023231596
133	0x3cf80368	0.030275062
134	0xbd4a8bcc	-0.049449727
135	0x3bc90e40	0.006135732
136	0x3d28d6b0	0.041220367
137	0xbdf26792	-0.11836161
138	0xb91de400	-0.00015057623
139	0x3d5c397c	0.05376576
140	0xbd14cf14	-0.036330298
141	0x3b819f00	0.003955722
142	0xbde3d088	-0.111237586
143	0xbdc2271e	-0.09480117
144	0x3d946a34	0.07246819
145	0x3cca90e8	0.0247273
146	0xbd8b61fc	-0.068057984
147	0x3dab4080	0.08361912
148	0x3dde6b56	0.108603165
149	0xbd3828b8	-0.044960707
150	0xbb728440	-0.0037005097
151	0x3dfbbd78	0.12291998
152	0xbdba6896	-0.091019794
153	0xbd849faa	-0.06475766
154	0xbd9747a0	-0.07386708
155	0x3dc5e65a	0.09663077
156	0x3da17cea	0.078851536
157	0xbdb2a7f0	-0.08723438
158	0xbcb51008	-0.02210237
159	0xbcada348	-0.021196023
160	0x3dd868d8	0.10566872
161	0xbd85b8d8	-0.06529397
162	0x3d9995a2	0.07499243
163	0xbdecaa6a	-0.115559414
164	0x3dcc9b98	0.09990615
165	0x3d2c8340	0.042117357
166	0xbdf22602	-0.11823656
167	0xbd776974	-0.060403302
168	0xbde36a76	-0.1110429
169	0x3dcc0586	0.09961991
170	0x3c6a49b0	0.014299795
171	0xbb371640	-0.0027936846
172	0x3d6b9ef0	0.05752462
173	0x3d238954	0.03992589
174	0xbded10e0	-0.11575484
175	0xbda2cee6	-0.07949619
176	0x3dc409f0	0.09572208
177	0x3de2938a	0.11063297
178	0x3defd9c8	0.1171146
179	0x3d3a8480	0.045536518
180	0x3dc59f22	0.09649493
181	0xbabec400	-0.0014554262
182	0xbd75b4c0	-0.05998683
183	0xbd340bc8	-0.043956548
184	0xbcebd998	-0.02879028
185	0x3c99c360	0.01876992
186	0x3dc5922a	0.09647019
187	0xbde090fe	-0.10965155
188	0xbd88d0a4	-0.0668042
189	0x3d24ff04	0.040282264
190	0x3c60dc50	0.013724402
191	0xbd647e74	-0.055784658

main_network.fc.bias f4 [3]
0	0x3dac2fd2	0.084075585
1	0xbcbd8980	-0.023136854
2	0x3c9efd98	0.019408032

short_term_context_network.fc1.weight f4 [32, 7]
0	0x3e7fb824	0.24972588
1	0xbe23aa8b	-0.15983026
2	0xbe8be110	-0.27320147
3	0x3e026339	0.12733163
4	0xbe8ccf61	-0.27501968
5	0x3eb2ab8c	0.34896505
6	0x3e04dfb7	0.12975965
7	0x3e5309b6	0.20609173
8	0xbe867a54	-0.26265204
9	0x3d9e2929	0.077226944
10	0xbe2d7430	-0.16938853
11	0xbe87901d	-0.26477137
12	0xbdfcaa4a	-0.123371676
13	0x3ebb6670	0.3660159
14	0xbe5b362b	-0.21407382
15	0xbb814b1b	-0.003945721
16	0x3dc00364	0.09375647
17	0x3d4fa406	0.050693534
18	0x3d3e4332	0.0464508
19	0xbdb654d7	-0.08902901
20	0xbde751c0	-0.112948895
21	0x3e1d54dd	0.15364404
22	0xbdc07834	-0.09397927
23	0x3e1cf724	0.15328652
24	0xbe873dca	-0.2641433
25	0xbe5586ce	-0.20852205
26	0xbeae3f52	-0.34032685
27	0x3e4c13a4	0.19929367
28	0xbea578b4	-0.32318652
29	0xbeb5a3a2	-0.35476404
30	0x3e9ea367	0.3098404
31	0x3e8b9e60	0.27269268
32	0xbded22ab	-0.11578878
33	0x3e5c37f4	0.2150572
34	0x3df33d81	0.11876965
35	0x3caded29	0.02123125
36	0x3c7bcc54	0.01536854
37	0xbdbdc41b	-0.0926592
38	0xbe58d91e	-0.21176574
39	0x3e21fc0d	0.15818806
40	0x3e8a6719	0.27031782
41	0xbe9513d9	-0.29116705
42	0xbdde5018	-0.108551204
43	0x3e58a877	0.21158014
44	0x3eaa0729	0.33208588
45	0xbe2319b9	-0.15927781
46	0x3db2b526	0.087259576
47	0xbdd94246	-0.10608344
48	0x3e898f52	0.26867157
49	0x3e8af15d	0.2713727
50	0x3e70fc3c	0.2353372
51	0x3ea46485	0.3210794
52	0x3de1a4ce	0.11017762
53	0xbe5da333	-0.21644287
54	0xbe3cd2d2	-0.18439797
55	0x3d6133c5	0.054981012
56	0x3dfab074	0.12240687
57	0xbe670606	-0.22560892
58	0x3d3c7cc9	0.046017442
59	0x3e1aaa3c	0.15104002
60	0xbeaa15c9	-0.33219746
61	0xbeb71e11	-0.35765126
62	0x3e3b5f27	0.18298016
63	0x3e23be5a	0.15990582
64	0xbe9111a0	-0.2833376
65	0x3dea4ead	0.114407875
66	0xbda00553	-0.078135155
67	0xbe606fd8	-0.21917665
68	0x3ea381bc	0.31934917
69	0x3bf2926e	0.0074027097
70	0xbe9f076a	-0.31060344
71	0xbe122644	-0.1427241
72	0xbc81343d	-0.01577198
73	0xbeb571b5	-0.35438314
74	0x3cec6b5b	0.028859785
75	0x3dfabaf7	0.12242692
76	0xbe8ce279	-0.27516535
77	0x3e5b170b	0.21395509
78	0xbe7c2554	-0.24623615
79	0x3eb4c056	0.3530299
80	0xbe0e2e22	-0.13884786
81	0x3e0df894	0.13864356
82	0xbde947da	-0.11390658
83	0x3eb02a1a	0.3440712
84	0x3c8eebd0	0.017446429
85	0xbe8ee869	-0.2791169
86	0x3e8f26ba	0.27959234
87	0xbe4f28c9	-0.20230402
88	0x3dd2cf47	0.10293441
89	0x3e628453	0.2212079
90	0x3e79c8a2	0.24392942
91	0xbdf2f36c	-0.11862835
92	0x3ec0b62f	0.37638995
93	0xbe822b87	-0.25423834
94	0x3ebeaba0	0.37240314
95	0xbe0220f6	-0.12707886
96	0xbe818b10	-0.2530141
97	0x3e5b04cc	0.21388549
98	0x3d7be94a	0.06150178
99	0xbea3080e	-0.31842083
100	0xbd86f004	-0.06588748
101	0x3e69b043	0.22821145
102	0x3e9d2a2a	0.3069623
103	0xbdc0af20	-0.094084024
104	0xbe8295ae	-0.25504822
105	0xbea3c2b1	-0.31984475
106	0x3eaa16d1	0.33220533
107	0x3df618c5	0.12016443
108	0xbebe2f0e	-0.37145275
109	0x3eac27d8	0.33624148
110	0xbe6e5315	-0.23273881
111	0xbea6c0bb	-0.32568917
112	0x3e76acb5	0.2408932
113	0x3d0de7de	0.034644954
114	0x3ea86505	0.32889572
115	0x3d964123	0.073366426
116	0xbe96acac	-0.29428613
117	0x3cb4d106	0.022072326
118	0xbd9ab471	-0.07553948
119	0x3e4f75f3	0.20259838
120	0x3e3c3a32	0.18381575
121	0x3d9221be	0.07135342
122	0x3e7f97f8	0.24960315
123	0xbe269c64	-0.16270596
124	0xbeb6d95f	-0.35712716
125	0xbd10917a	-0.035294987
126	0x3e062eb9	0.13103761
127	0x3db1bb93	0.08678355
128	0xbe888911	-0.26667073
129	0x3d94056b	0.07227596
130	0x3e58fa43	0.21189217
131	0xbd93f726	-0.07224874
132	0x3e0c7bb8	0.1371907
133	0x3eb3bfe9	0.35107353
134	0xbdaf333f	-0.08554696
135	0xbdecef9f	-0.115691416
136	0xbe5a424c	-0.21314353
137	0x3e4a8a41	0.19779302
138	0x3d55cdef	0.052198347
139	0x3d9e1a4d	0.0771986
140	0x3dcd41c1	0.10022307
141	0xbe518340	-0.20460224
142	0xbebb7655	-0.36613718
143	0xbe77c176	-0.24194893
144	0x3e55ab9c	0.20866245
145	0xbe09a68f	-0.13442443
146	0xbdc04614	-0.09388366
147	0xbdc1a5b4	-0.094554335
148	0x3e14ac38	0.14518821
149	0xbe8d3c66	-0.27585143
150	0xbe9ae5bb	-0.30253395
151	0x3e7df2ed	0.247997
152	0xbdef8c80	-0.1169672
153	0x3e9aa3bc	0.30203044
154	0xbe9d5a59	-0.30732992
155	0x3c8c26d8	0.017108366
156	0xbeb37731	-0.35051873
157	0x3e939448	0.28824067
158	0xbb22ca5d	-0.0024839856
159	0x3e3edc03	0.18638615
160	0xbcd57528	-0.026056841
161	0xbd1a48e9	-0.03766719
162	0x3e6fad7d	0.23406024
163	0x3d0e4925	0.034737725
164	0x3da1c24f	0.078983895
165	0x3ea35eef	0.31908366
166	0xbea9fb52	-0.33199555
167	0xbe0bce60	-0.13652945
168	0x3e24e8d3	0.1610444
169	0xbdaf0235	-0.08545343
170	0xbe97b402	-0.29629523
171	0xbd05d191	-0.03267056
172	0x3e304bd1	0.17216422
173	0x3e43d455	0.19123967
174	0xbe250ecc	-0.16118926
175	0xbcda9c8a	-0.026685972
176	0xbe2a57c5	-0.16635044
177	0x3d510272	0.051027723
178	0x3eae31cc	0.34022367
179	0xbeaea9cb	-0.34113917
180	0x3e828c7e	0.25497812
181	0x3e02dc29	0.12779297
182	0xbe0815bb	-0.1328954
183	0x3ea3aa04	0.3196565
184	0xbe8a8e09	-0.2706149
185	0xbeaeb66d	-0.34123555
186	0xbdd35863	-0.10319593
187	0x3b8317d8	0.004000645
188	0xbe569bbf	-0.2095785
189	0x3e944e03	0.28965768
190	0x3e0fc3d7	0.1403955
191	0xbbe3e81b	-0.0069551594
192	0x3e63aff5	0.22235091
193	0x3d857f2b	0.06518396
194	0xbe55ff4b	-0.20898168
195	0x3ec0cf82	0.37658316
196	0xbeaa4550	-0.33256006
197	0x3e52f3a8	0.2060076
198	0x3df03e67	0.11730652
199	0xbe37947b	-0.17927735
200	0xbd17bd4c	-0.037045762
201	0xbdb1594e	-0.08659612
202	0xbe61d985	-0.22055633
203	0xbe00d779	-0.12582196
204	0xbc975421	-0.018472733
205	0xbd8fdf50	-0.07025015
206	0xbebbfe98	-0.36717677
207	0x3e8dc563	0.27689657
208	0x3df53bc8	0.11974293
209	0x3e9d02a8	0.3066609
210	0xbea53606	-0.3226778
211	0x3e750e67	0.23931275
212	0xbe770e70	-0.24126601
213	0xbdd94f7b	-0.10610863
214	0xbeb59ea8	-0.35472608
215	0x3e2ecc92	0.17070225
216	0x3df20781	0.118178375
217	0xbe9d02ba	-0.30666143
218	0xbd73a60f	-0.059484538
219	0x3e735b24	0.23765236
220	0xbe951e22	-0.29124552
221	0x3dfacc05	0.12245945
222	0x3c2c503c	0.010517176
223	0x3de0f268	0.10983735

short_term_context_network.fc1.bias f4 [32]
0	0x3eb3471d	0.35015193
1	0xbdafef1f	-0.085905306
2	0x3e2ef5a7	0.17085896
3	0xbe4cabc3	-0.19987397
4	0x3eae117c	0.33997715
5	0xbe92a83e	-0.28643984
6	0xbd8c49e0	-0.06850028
7	0x3e69dc00	0.2283783
8	0xbeb03175	-0.34412733
9	0x3de5dd92	0.11223902
10	0xbe64e36b	-0.22352378
11	0x3c90d3dc	0.017679147
12	0xbebc9290	-0.36830568
13	0x3c892187	0.01673962
14	0x3e84a226	0.2590496
15	0xbeb250c2	-0.34827238
16	0x3d0a9860	0.033836722
17	0x3e38007c	0.17968935
18	0xbe092c99	-0.13395919
19	0xbe5155fd	-0.20442958
20	0x3e69d205	0.22834022
21	0xbead38f1	-0.33832505
22	0x3e23dfab	0.16003291
23	0x3e36c1a5	0.17847307
24	0x3eb29a52	0.34883362
25	0xbe860569	-0.26176003
26	0xbe604a18	-0.21903265
27	0xbd687f6f	-0.056762155
28	0xbe9d87dd	-0.30767718
29	0xbdc2aa18	-0.09505099
30	0xbe3fad58	-0.18718469
31	0x3ea2e396	0.3181426

short_term_context_network.fc2.weight f4 [16, 32]
0	0xbd30686f	-0.043068346
1	0xbd2b24e9	-0.041783247
2	0xbe0f41f6	-0.13990006
3	0xbde7bb76	-0.11315052
4	0xbd9a6079	-0.07537932
5	0x3d887968	0.066637814
6	0xbe2b963c	-0.16756529
7	0x3dba1b1f	0.09087204
8	0xbe21fbde	-0.15818736
9	0xbe1c115a	-0.15240994
10	0xbc9036d7	-0.017604275
11	0x3e2d60d2	0.16931465
12	0x3ca2d22d	0.01987561
13	0x3e0d0c4c	0.13774222
14	0x3e2d5412	0.16926602
15	0xbd5f3a61	-0.054499034
16	0xbdcd5117	-0.10025232
17	0xbd44261b	-0.047887903
18	0x3e315829	0.17318787
19	0xbe1250ed	-0.14288683
20	0x3e31df8d	0.17370434
21	0x3a0ffd7a	0.0005492788
22	0x3c3f04da	0.011658872
23	0x3cc02a7b	0.023457756
24	0x3d6b0ebe	0.057387106
25	0x3ca9fb38	0.020749673
26	0x3cc99f15	0.024611989
27	0xbe2b57b3	-0.16732673
28	0xbdcf4cce	-0.10122071
29	0x3d38f28b	0.045153182
30	0x3d0ca312	0.034335203
31	0x3dcd7672	0.10032357
32	0x3d1d19c8	0.038354665
33	0xbda9db85	-0.08293823
34	0x3e0dfb54	0.13865405
35	0x3d981dc0	0.07427549
36	0xbdc70dd9	-0.09719438
37	0xbddd7046	-0.1081243
38	0xbd13e718	-0.03610906
39	0xbe194454	-0.14967471
40	0x3c8c1aee	0.017102685
41	0xbc04df32	-0.0081098545
42	0x3ced6ab3	0.028981542
43	0xbdcbc9a1	-0.09950567
44	0x3dd36cd3	0.10323491
45	0xbe2597a1	-0.16171123
46	0x3da45272	0.08023538
47	0xbe2bbde3	-0.16771655
48	0x3dbd925d	0.09256432
49	0x3e23140e	0.15925619
50	0xbdee4458	-0.11634129
51	0xbe2e4a3a	-0.17020503
52	0x3dc23d7e	0.09484385
53	0x3d6293f2	0.055316873
54	0x3dc213cf	0.094764344
55	0xbd047fef	-0.03234857
56	0x3cb432ce	0.021996882
57	0x3caaed01	0.020864965
58	0x3d5dbc3c	0.054134592
59	0xbd2e20f6	-0.042511903
60	0xbc7dff27	-0.015502728
61	0x3dcb6281	0.099308975
62	0xbe1928c1	-0.14956953
63	0xbc2ca955	-0.010538419
64	0xbdff692b	-0.12471231
65	0xbd24e6ac	-0.04025905
66	0x3de68026	0.11254911
67	0xbdb56e13	-0.088588856
68	0x3e197276	0.1498507
69	0xbc91468c	-0.017733835
70	0xbdfe6af1	-0.12422741
71	0xbde324a0	-0.1109097
72	0x3d5c45fa	0.053777672
73	0xbd9794c5	-0.074014224
74	0x3e3163cb	0.17323224
75	0xbdf6fb28	-0.12059623
76	0xbb2c6940	-0.002630785
77	0xbc050b09	-0.008120307
78	0xbe2fdb46	-0.1717349
79	0xbd55850e	-0.052128844
80	0x3ddd414c	0.1080347
81	0xbd60e656	-0.054907165
82	0xbe3127c2	-0.17300323
83	0xbde5a177	-0.112124376
84	0xbe2a25c4	-0.16615969
85	0xbc93a922	-0.018024985
86	0xbe053a97	-0.13010632
87	0x3ce36dab	0.027762255
88	0xbe320aa2	-0.17386869
89	0x3e0c0a11	0.13675715
90	0xbdf657c8	-0.12028462
91	0xbd2c9c9b	-0.042141538
92	0xbe1bc0c6	-0.15210256
93	0x3d8cba4b	0.0687147
94	0xbd1a6975	-0.037698228
95	0x3e1ef47b	0.1552295
96	0xbdc6a193	-0.096987866
97	0x3e120c36	0.1426247
98	0xbd67b703	-0.056571018
99	0xbdb7ec16	-0.08980577
100	0xbdaaa0a6	-0.083314225
101	0xbd4d8eaa	-0.050184883
102	0xbe01bc3b	-0.1266946
103	0x3baceda8	0.0052773543
104	0xbe1370a1	-0.14398433
105	0x3e0266f7	0.1273459
106	0x3db5fc43	0.08886006
107	0x3e0d6fd1	0.13812186
108	0xbd7c6e99	-0.06162891
109	0xbe2a1ec3	-0.16613297
110	0x3db9000e	0.090332136
111	0x3d3a396d	0.04546492
112	0x3da84d03	0.08217814
113	0x3d252206	0.04031565
114	0x3e29f2de	0.16596553
115	0x3caeb799	0.02132778
116	0x3e2a78ae	0.16647598
117	0xbe10b402	-0.14131168
118	0x3ce6fb2f	0.028195946
119	0x3e20ea21	0.15714313
120	0x3e1cee8b	0.15325372
121	0x3d023328	0.031787068
122	0xbda122a4	-0.07867935
123	0xbe20d229	-0.1570517
124	0x3cdb64f6	0.02678154
125	0xbe18f042	-0.14935401
126	0x3defd54c	0.11710605
127	0x3e30d30f	0.17268012
128	0xbdd1d369	-0.102454014
129	0xbe143f03	-0.14477162
130	0xbc943d73	-0.018095708
131	0x3dcd8af7	0.10036271
132	0xbdb8fab0	-0.0903219
133	0x3d8aa430	0.067695975
134	0x3dd78977	0.10524266
135	0x3b243eb1	0.002506178
136	0x3b5f39e5	0.0034061607
137	0x3d806b2c	0.062704414
138	0x3df95627	0.121746354
139	0xbd1bec77	-0.038067307
140	0x3a653d9f	0.0008744839
141	0x3e309cf3	0.17247371
142	0xbcb28cc0	-0.02179563
143	0xbd65909e	-0.05604612
144	0xbc74b56b	-0.014935832
145	0xbcd10e37	-0.025519473
146	0xbd1af9f3	-0.037836026
147	0xbddc2c0b	-0.10750588
148	0xbdf07892	-0.11741747
149	0xbcaebb4f	-0.02132955
150	0xbe1ace12	-0.15117672
151	0xbe10a653	-0.14125948
152	0xbd148724	-0.036261693
153	0xbe1a4c1f	-0.150681
154	0xbe18bbe6	-0.14915428
155	0xbda10f87	-0.0786429
156	0x3e17866b	0.1479737
157	0xbd4667ae	-0.04843872
158	0xbe2bf1b5	-0.16791423
159	0xbe179f4a	-0.14806858
160	0x3e0b8fe2	0.13629106
161	0x3d92af18	0.07162303
162	0xbd909b40	-0.070608616
163	0xbd9cf837	-0.07664531
164	0x3ce296c1	0.027659776
165	0xbdad1af5	-0.08452407
166	0x3d9ebdd9	0.07751054
167	0x3e127704	0.14303213
168	0xbdb59c83	-0.08867743
169	0x3e335c74	0.17515737
170	0x3e270148	0.16309083
171	0xbdde6c07	-0.10860448
172	0xbe0061c4	-0.12537295
173	0xbde71507	-0.112833075
174	0x3de207af	0.11036622
175	0x3e090f23	0.1338468
176	0x3da69574	0.08133975
177	0x3e0d0a1f	0.13773392
178	0x3d07f91f	0.033196565
179	0xbd075a00	-0.033044815
180	0x3d8d114a	0.06888063
181	0xbbf76925	-0.007550376
182	0xbdb66577	-0.08906072
183	0xbd20719f	-0.039170858
184	0x3e11dc99	0.14244308
185	0x3dd4d6d5	0.103925385
186	0x3c26a1a1	0.010170371
187	0xbe2d2c38	-0.169114
188	0xbc7d8dc0	-0.01547569
189	0xbe272606	-0.16323099
190	0xbe26d42d	-0.16291876
191	0xbbe54fd4	-0.0069980416
192	0x3e0e3fa7	0.13891469
193	0xbc7bf648	-0.015378542
194	0xbe28dce9	-0.1649052
195	0xbe13fefc	-0.14452738
196	0xbe05a7a9	-0.13052239
197	0x3dd1a29f	0.10236096
198	0x3ddabfa7	0.10681086
199	0xbe1988e6	-0.14993629
200	0xbdc8579d	-0.09782336
201	0xbd19adf6	-0.037519418
202	0xbd991d8f	-0.07476341
203	0x3ce88aa8	0.028386429
204	0x3d08de2e	0.033415012
205	0x3db8359a	0.08994599
206	0xbda6c9b1	-0.08143938
207	0x3cd36c40	0.025808454
208	0xbdf970b4	-0.121796995
209	0x3c7f3a2b	0.015577833
210	0x3d83d26d	0.0643662
211	0xbe2aafd8	-0.16668642
212	0x3c256d28	0.010096826
213	0xbe284808	-0.16433728
214	0xbe2c155f	-0.16805027
215	0x3d82da5b	0.06389304
216	0xbdabc780	-0.08387661
217	0x3de65a3e	0.11247681
218	0x3d734f2e	0.059401684
219	0x3dbfd8e5	0.09367541
220	0xbd86bd3e	-0.06579064
221	0xbe17fd9e	-0.14842841
222	0x3e0e3e3d	0.1389093
223	0x3d90df44	0.070738345
224	0xbe32def4	-0.17467862
225	0x3d561e8b	0.05227522
226	0xbdbe41a0	-0.09289861
227	0xbaeb1fc2	-0.0017938542
228	0x3e165627	0.14681302
229	0xbd5392c4	-0.05165364
230	0x3c5225a8	0.012826361
231	0xbe094eb3	-0.13408928
232	0x3d4b1b4e	0.049586587
233	0x3d4b3cc3	0.049618494
234	0x3e1f9d31	0.15587308
235	0xbe11a6de	-0.14223811
236	0xbd432d9f	-0.04765093
237	0x3e260e3f	0.16216372
238	0xbc8e3926	-0.017361235
239	0xbd99082e	-0.07472263
240	0x3ddb9552	0.1072184
241	0xbdc3e7e4	-0.09565714
242	0x3d8c10d2	0.06839146
243	0xbe228ccf	-0.15874027
244	0xbd003605	-0.031301517
245	0xbdfe2dde	-0.12411092
246	0x3e246b23	0.16056494
247	0x3d21cea5	0.039503712
248	0xbe18167e	-0.1485233
249	0x3bc4bedd	0.006004198
250	0x3bfb5fd8	0.0076713376
251	0x3e1a8065	0.15088041
252	0x3dfb6cc5	0.122766055
253	0x3bd1431e	0.006386175
254	0x3a947593	0.0011326544
255	0xbd0f60be	-0.03500437

short_term_context_network.fc2.bias f4 [16]
0	0x3a0c04a8	0.000534127
1	0x3e17be6b	0.14818732
2	0xbe084172	-0.13306215
3	0xbe0c7011	-0.13714625
4	0xbe31669e	-0.17324302
5	0xbdfc93d5	-0.12332884
6	0xbb0c2be7	-0.0021388473
7	0x3e200a11	0.1562884
8	0xbe304880	-0.17215157
9	0xbe1c63bf	-0.15272425
10	0xbcbfc765	-0.023410508
11	0x3e1b11a3	0.15143447
12	0x3d7e111e	0.062028043
13	0xbdd81967	-0.1055172
14	0x3d850baa	0.06496365
15	0x3dbf76e0	0.093488455

short_term_context_network.fc3.weight f4 [1, 16]
0	0xbd61f518	-0.05516538
1	0x3e4cdc4a	0.20005909
2	0xbe25fa40	-0.16208744
3	0x3db4025c	0.087895125
4	0x3df50790	0.11964333
5	0x3da16fa0	0.07882619
6	0x3c2cc700	0.010545492
7	0xbdeb0cb8	-0.11477035
8	0xbdd2ff28	-0.103025734
9	0xbc89d0f0	-0.016823262
10	0x3db20de8	0.08694059
11	0x3d8ca15c	0.06866714
12	0xbdfa2f88	-0.12216097
13	0x3e3282ae	0.17432663
14	0xbe15b976	-0.14621529
15	0x3e2d5592	0.16927174
