Uni_Research/IRL/Final/Extended/old/V3/V3_demo1/Testing_Suite/model_C0_R0_S10.0.pth (torch, 91198 bytes, 11 tensors)

main_network.lstm.weight_ih_l0 f4 [256, 15]
000000 b6 34 ca 3d 05 a8 eb bd cb da 9a 3d 58 c6 a7 bd
       0.09873335 -0.115066566 0.07561263 -0.08192128
000010 07 73 91 3d dd cf 2c bb 72 e0 46 3d a5 17 85 3d
       0.07102018 -0.0026369013 0.04855389 0.064986505
000020 4c f8 aa bc bb d2 7f bd 21 88 c5 3b 35 5f 13 bc
       -0.02087035 -0.062456828 0.0060281907 -0.008994867
000030 78 63 99 bd 78 5e 43 bd 54 ee 41 bd cc 52 66 3d
       -0.07489675 -0.047697514 -0.047346428 0.056231305
000040 9e 76 c6 bd 47 44 d7 bc ca 91 cf bd 3c 5c 2f bd
       -0.09690593 -0.026277674 -0.10135229 -0.04281257
000050 7e 6d 38 3d 15 b8 bc 3d 4b 32 62 3d c1 9e fd bc
       0.045026295 0.09214798 0.055223744 -0.030959489
000060 7f 49 2b bd 27 5f 02 bb 7a d3 86 bd bb d0 fb 3d
       -0.04181814 -0.001989314 -0.06583305 0.122956716
000070 c0 8d 3c bc 21 10 c9 bc 9a d8 11 bd ee 21 1b 3d
       -0.011508405 -0.024543824 -0.035606958 0.037874155
000080 e7 b8 2f 3d 27 09 df bc 0a 85 6f bd e7 dc b3 3d
       0.042900946 -0.027226044 -0.058476485 0.08782368
000090 2b f2 c1 3c 11 ab b3 bd b3 41 8e 3d 7e d0 37 3d
       0.023675045 -0.08772863 0.06946125 0.044876568
0000a0 1b 69 78 bd 5d af b3 3c 28 2a ec 3c 1f ec bc bd
       -0.06064711 0.021934206 0.028828695 -0.09224724
0000b0 37 a7 03 bd a9 7e c5 bd 85 f0 b9 bd 8f 07 43 bd
       -0.03214189 -0.09643299 -0.090790786 -0.04761463
0000c0 c4 f6 8a 3d 6a 4d b9 bb 17 ee 19 bd 30 02 4b bd
       0.06785348 -0.0056549804 -0.037580576 -0.049562633
0000d0 d6 94 ef 3b a3 9d 45 bd 5b e4 eb 3d 4d ee d8 bc
       0.007311444 -0.048246037 0.11518165 -0.026480818
0000e0 48 b7 e2 bd 38 8d d1 3d d6 1c 0b 3d ce 45 0a bd
       -0.110701144 0.102320135 0.033963047 -0.033757977
0000f0 c1 c1 95 bb 9a 54 92 3d 20 d0 a2 bd 25 c9 ad bc
       -0.0045702164 0.07145043 -0.07949853 -0.021214077
000100 2e 6a 56 3b df e9 af bd e6 5d 8e bd b5 73 f3 bd
       0.0032717097 -0.08589529 -0.069515035 -0.11887304
000110 dd 7f cb bd 9a 81 af 3d 05 6e a0 3d 10 b9 42 bd
       -0.09936497 0.085696414 0.078334846 -0.04753977
000120 b3 44 5f 3d f7 20 47 3c 56 58 96 3d 7d 0a 5b bc
       0.054508876 0.0121538555 0.073410675 -0.0133692
000130 16 1a 03 3e d8 2d ca 3c 56 06 c1 3c 03 25 6e 3d
       0.1280292 0.024680063 0.023562592 0.058140766
000140 70 6c f0 3d ae 4e e6 3d a0 21 96 bd 4f 24 ad bd
       0.11739433 0.11245476 -0.07330632 -0.08454191
000150 28 4e a8 bc 77 f6 dc 3d d8 85 8b bd 73 73 c1 bd
       -0.02054508 0.10789197 -0.06812638 -0.09445848
000160 4b 57 a8 3d f5 61 ea bd 23 8b 00 be ed 01 6b bd
       0.08219775 -0.11444465 -0.12553076 -0.057374883
000170 f3 01 63 ba 70 98 b7 bd 01 3c 57 3d 44 63 c3 bd
       -0.0008659653 -0.08964622 0.05254746 -0.09540418
000180 8c 0c 86 bc d2 2b c0 3c b9 bb b8 bd 8b 96 c6 bd
       -0.016363405 0.023458395 -0.0902018 -0.096966825
000190 e3 72 e3 bd 84 e5 9d bd e5 60 e1 bd 3b c9 90 3d
       -0.11105897 -0.07709792 -0.11004809 0.07069632
0001a0 8a f0 4a 3d 33 98 f0 bd 36 88 a0 bc 3b 63 b1 bd
       0.049545802 -0.1174778 -0.0195962 -0.08661505
0001b0 e6 80 64 bc f8 06 80 3d 80 e8 b3 bd f2 8d af 3d
       -0.013946747 0.06251329 -0.0878458 0.08571996
0001c0 1c 64 85 bd 14 0b 14 3d ed cb 3e 3c df 57 2b 3d
       -0.06513235 0.036143377 0.011645299 0.041831847
0001d0 f1 99 2b bc c0 3d 2a 3d 90 57 18 3d a6 78 d0 bd
       -0.010473714 0.041562796 0.03719288 -0.10179262
0001e0 bf cd cf 3d 8b 19 dc 3d b9 cf 56 bd c5 4a ae 3d
       0.10146665 0.107470594 -0.052444194 0.08510355
0001f0 05 ed c8 3c fb f7 a1 bd fe e0 bb bd d0 7b 04 3c
       0.024527082 -0.07908627 -0.09173773 0.00808616
000200 b3 41 17 bd 08 19 44 3d de 8c 99 3d 2a 00 9b bd
       -0.03692789 0.047875434 0.074975714 -0.07568391
000210 a3 41 98 3d b8 f0 45 bd 6a 92 c3 bc 46 20 0f 3d
       0.07434394 -0.04832527 -0.023873527 0.034942888
000220 3a 1d 64 bd 18 72 d4 bd a6 37 bd 3d c2 ef e5 3b
       -0.055691935 -0.10373324 0.0923913 0.0070171067
000230 56 66 af 3d c2 36 a7 bd 13 5a 7c 3c b6 a8 4f 3d
       0.08564441 -0.08164741 0.015402335 0.050698005
000240 63 66 ca 3c 6e 3c dd 3d e5 7b f4 3d 8c f8 a2 bd
       0.024707025 0.10802542 0.119376935 -0.07957563
000250 a9 d4 00 3e 32 2f 6f bc 7b 3e 4a 3b 76 d7 47 bd
       0.12581123 -0.014598655 0.0030859995 -0.048789464
000260 85 36 d7 3d 82 7f ef bd 3a 1e 4d bc 64 61 8a 3c
       0.10508446 -0.11694242 -0.012519414 0.016892143
000270 1d 61 d2 bd 0e bd aa bc 0e 49 9e bc fb 91 11 3d
       -0.10272429 -0.020842101 -0.019321945 0.03553961
000280 8a a5 f7 bd 41 5c 69 bd a6 ed 28 bd 1c 57 d3 3c
       -0.12092121 -0.056972746 -0.041242264 0.025798373
000290 7c f1 cc bc 05 82 85 bc da dd 03 bd 51 96 b2 bc
       -0.025017492 -0.01629735 -0.032193996 -0.021800192
0002a0 1e 08 c8 bd f9 8e c3 3d c7 ad 91 bd 81 e2 26 3d
       -0.09767173 0.09548754 -0.071132235 0.040743355
0002b0 36 d5 a2 3c a2 1b c9 bc 62 b4 82 3d 96 75 ec bd
       0.019877058 -0.02454931 0.063820615 -0.11545865
0002c0 23 8c 8c bd 36 82 68 3d be 08 c5 bd 55 75 cc bd
       -0.068626665 0.056764804 -0.09620808 -0.09983317
0002d0 95 01 e2 3d df f6 86 3d af c0 b9 3d 7f d5 48 3d
       0.11035458 0.06590056 0.090699546 0.04903173
0002e0 64 20 67 3d a3 4c 05 bd e7 4a 9a 3d 70 7a cb bd
       0.056427374 -0.03254379 0.07533818 -0.099354625
0002f0 bd 5c a2 3d 59 b0 f1 ba ae 52 5e bd ec 61 9b bd
       0.07927845 -0.0018439397 -0.05427807 -0.075870365
000300 85 f9 73 bd f8 f6 d7 3d 97 4b a3 bd 4d c1 a9 bd
       -0.059564132 0.105451524 -0.07973402 -0.08288822
000310 9b 8e da 3c 8d a2 90 bd 54 1e b2 bd 10 cf 7d bd
       0.026679328 -0.07062254 -0.08697191 -0.06196505
000320 c0 8a b7 bd 8b 5e 14 3d a6 ad b0 3d 6e 6e a1 bb
       -0.08962011 0.036222976 0.08626871 -0.0049264943
000330 a2 e7 82 3c d1 e0 9b bc e7 a1 65 3d ba 04 7a 3d
       0.015979592 -0.0190281 0.056062605 0.061039664
000340 ce a6 f3 3c d6 b8 f1 bd 17 c3 71 bd 2c 6a b5 bd
       0.029742625 -0.11802833 -0.059023943 -0.08858141
000350 e2 13 f3 3d ba 01 ee bd d8 e6 d4 3c c6 0d bc 34
       0.11869027 -0.11621423 0.025988981 3.502775e-07
000360 fc 01 d5 3d d3 13 f7 bd 52 7b 84 3d 89 ea 83 3d
       0.10400769 -0.12064328 0.06468834 0.064412184
000370 41 16 c9 bc a5 27 cc bd 9c cc 0c bd e4 ba 8b 3d
       -0.024546744 -0.09968499 -0.03437482 0.06822756
000380 ad 04 cf bd 37 5d a7 bd 22 75 bf 3d 52 48 90 3c
       -0.10108314 -0.08172076 0.09348513 0.01761261
000390 83 4f 1b bc be c4 49 3d ef 9a 9f bd e7 44 e3 3d
       -0.009479406 0.049259894 -0.07793223 0.110971265
0003a0 4a cd 8a bd 2e 8e 6a bd 03 86 9c bd 04 9f 85 bd
       -0.06777437 -0.0572645 -0.07642748 -0.065244704
0003b0 37 cb 8c bc 4a 64 b2 bd bf 40 d3 3d a1 b9 32 bd
       -0.017186744 -0.08710535 0.10315084 -0.04363406
0003c0 72 e0 af bc df 98 d2 bd 1a db c2 bd 16 09 6e 3a
       -0.021469329 -0.10283064 -0.095144466 0.00090803334
0003d0 a2 c1 01 be 7d 71 dd bd be ea b9 bd b4 f1 80 3d
       -0.12671521 -0.10812662 -0.09077977 0.06296101
0003e0 e4 98 a4 bc 71 76 b2 bd b5 f7 fb bd 8e fe a6 3c
       -0.020092435 -0.08713997 -0.12303106 0.020385053
0003f0 bb 5f 42 3c 40 93 3a bd 99 33 b3 3d a5 70 f1 3c
       0.011863644 -0.045550585 0.08750076 0.029472658

main_network.lstm.weight_hh_l0 f4 [256, 64]
000000 e0 0e b3 3c 2c ae 42 bd 1a fc 40 bd d0 1a ba 3d
       0.021857679 -0.047529384 -0.047115423 0.09087145
000010 46 e2 13 3c a0 4a 86 3d 1c e9 c4 bd f4 89 28 3d
       0.009026116 0.06557202 -0.096147746 0.041147187
000020 53 a9 9e 3d 75 7e 82 bd df 1f 05 bb fb 61 09 bd
       0.0774714 -0.06371776 -0.0020313186 -0.033540707
000030 7f 32 52 bb a6 eb ca 3c 27 a8 cd bd 72 e9 b3 bd
       -0.0032073555 0.024770569 -0.10041838 -0.087847605
000040 aa ee 28 bd 77 c7 87 bc 64 79 b1 3d 65 8a 69 3d
       -0.041243233 -0.016574604 0.086657315 0.05701675
000050 6f 10 a3 bd f1 62 f5 3c 94 cc 8a 3d d9 92 c5 3d
       -0.07962119 0.029954406 0.067773014 0.096471496
000060 0e 4b 45 bd 5a c1 de 3d f7 a1 d9 3d f3 70 52 bd
       -0.04816728 0.10876723 0.106265955 -0.051377248
000070 36 13 ce 3c 3e 29 aa 3d 90 02 0f 3d 0a 91 88 3d
       0.025155645 0.083086476 0.034914553 0.06668289
000080 ed 32 62 bc e5 3a a1 bc 22 75 a9 bd f3 85 84 3d
       -0.013806087 -0.019681403 -0.082742944 0.06470861
000090 1d 2b d7 3d 1c 4c 8d bd 75 41 e1 3c b7 05 98 bd
       0.1050627 -0.06899282 0.027497033 -0.07422965
0000a0 26 38 59 bd 59 e4 84 3d b0 c1 dc bb bd 74 d9 bd
       -0.053032063 0.06488866 -0.0067369565 -0.10617969
0000b0 6c a3 7d bd 26 c6 dc bd 38 e2 bb 3d 4a 18 d1 bc
       -0.06192343 -0.10779981 0.09174007 -0.025524277
0000c0 af 53 fd 3d 56 bc de bd 55 cb 1c bd 61 1a 63 3d
       0.12369477 -0.10875766 -0.03827985 0.05544508
0000d0 61 e0 a7 bd 49 ad c4 bc 28 fe d8 bd 4b 35 be 3d
       -0.08197094 -0.02400841 -0.105953515 0.092875086
0000e0 6a 65 ab 3d 50 2a 57 3c 97 ce f3 3d 9f 5b a9 bd
       0.083689526 0.013132647 0.11904638 -0.082694285
0000f0 97 3c 34 3c b4 02 f5 3d 2f 0c 59 3d d3 8f 5a 3d
       0.011000774 0.11963406 0.052990135 0.053359818
000100 99 76 38 bc c1 af cf bd 1b 8a e2 bd fd 6f 63 bd
       -0.011258745 -0.10140944 -0.11061498 -0.055526722
000110 48 40 90 bd 9d 53 17 bd dc ab e7 3d 2c 30 d7 3d
       -0.07043511 -0.036944974 0.113120764 0.10507235
000120 77 fa b5 3d 92 95 b2 bd 1e 0e f9 3d 04 b5 95 3d
       0.08885663 -0.087199345 0.12160896 0.073099166
000130 40 78 e7 bd af dc 48 3d 16 d4 04 3d 3b ad 62 3d
       -0.11302233 0.049038585 0.032428823 0.055340987
000140 5e ee 81 bd c7 ca 5f 3d 49 36 b3 bc 1a bf 82 3d
       -0.06344293 0.054636743 -0.021876471 0.06384106
000150 24 8f de 3c 17 4a 7b 3b 55 38 d4 3c 61 e4 a8 bd
       0.027167864 0.0038343722 0.025905767 -0.08246685
000160 ae 40 02 be b9 ca 99 bd b8 3e f0 b9 70 9d f2 bd
       -0.12719986 -0.075093694 -0.00045823096 -0.11846435
000170 47 8f 14 3d 38 92 03 be ee e6 f7 bd 46 a3 11 bd
       0.036269452 -0.12848747 -0.12104593 -0.0355561
000180 e9 14 d3 3c 7d 1f b1 bb d3 fa bf bd 76 49 7d 3d
       0.025766807 -0.005405365 -0.09374013 0.061837636
000190 fa a9 b9 3d bb e1 b1 bd 1e 88 87 3d f0 63 9f 3d
       0.090656236 -0.08685633 0.06617759 0.077827334
0001a0 eb f0 08 3d 13 dc 6f 3d e9 61 e1 bd 4b d1 9d 3d
       0.033432882 0.05855949 -0.11005003 0.07705935
0001b0 45 05 41 bc f8 89 c7 bd a7 59 c2 3d 9a cf 97 ba
       -0.0117810415 -0.09743112 0.09489756 -0.0011582256
0001c0 e0 2b 91 3c 17 47 e9 bd dd 1d fb bd 29 41 b7 bc
       0.017721117 -0.113905124 -0.12261555 -0.022369938
0001d0 58 ef d4 3d a9 26 ba bd 5a 93 b9 3d 8f 86 48 bb
       0.10397214 -0.09089405 0.09061308 -0.0030597781
0001e0 9e 5e 1e bd 54 f8 a6 bd 7e 11 93 bd 3f 24 ab bd
       -0.038664453 -0.081528336 -0.07181071 -0.08356523
0001f0 d2 cf 93 bd e1 c4 7b bd 0c ba c6 3c 24 64 ca bd
       -0.07217373 -0.061467055 0.024258636 -0.098823816
000200 ab ee 6e 3d 77 7d e4 bd 55 d1 c5 bd a4 3d 72 3b
       0.05833308 -0.11156743 -0.096590675 0.003696301
000210 18 05 86 3d 77 92 77 3d 73 1e 36 bb 7d 65 c8 3d
       0.0654394 0.060442414 -0.0027789145 0.09784982
000220 65 4b 5b bd ce af 17 3d 1b ca 50 bd 53 38 8c bd
       -0.0535387 0.037032895 -0.050973993 -0.068466805
000230 b5 00 8e bd 7a a5 a1 3d e5 1d 93 bd 01 13 7d bd
       -0.069337286 0.0789289 -0.07183436 -0.0617857
000240 d4 9a ba bd 7c f9 c1 3d b3 18 b5 bb b7 98 d7 3d
       -0.09111562 0.094714135 -0.005526626 0.10527175
000250 96 e0 aa bd 55 b8 9c bc cf f5 f6 bd ec 80 53 3d
       -0.083436176 -0.019130865 -0.12058603 0.05163662
000260 b2 56 da bd e6 48 20 3d cf 8a e6 bd c6 f4 15 3d
       -0.10661067 0.03913202 -0.112569444 0.036610387
000270 78 7f f3 bd b2 73 0a 3d 65 22 b0 bd 6a ac bd bd
       -0.11889547 0.033801742 -0.0860031 -0.09261401
000280 4d 19 00 be 6e 71 f0 bd b5 c3 84 3d 24 29 a6 3d
       -0.12509651 -0.11740385 0.06482641 0.08113316
000290 12 63 de bd f5 ce 81 bd cc 62 aa 3d fa 91 b2 3d
       -0.1085874 -0.06338302 0.08319625 0.08719249
0002a0 aa ee 6d bc 75 b4 99 3d f3 f0 83 bd 1b cc ad 3c
       -0.014522234 0.075051226 -0.06442442 0.02121549
0002b0 7e f3 95 3d 8a 47 bb 3d 86 da 43 3c ba d1 b1 bc
       0.07321833 0.09144504 0.0119539555 -0.02170645
0002c0 69 48 ff bc 92 2e c0 bd eb 2c d3 3c ee 68 ba 3d
       -0.031162458 -0.093838826 0.025778254 0.09102045
0002d0 9e 50 3e 3d 7c a6 95 bd ec 31 cc bd 9d 5e b6 bd
       0.0464636 -0.07307145 -0.09970459 -0.08904765
0002e0 da a2 ff bb 6a 2b d1 bd 43 8e d6 3d 76 f2 f6 bc
       -0.007801396 -0.10213359 0.10476353 -0.030144911
0002f0 20 d4 f5 bc 6b a0 b7 3d 05 1c 32 bd 1d 24 3c bd
       -0.030008376 0.08966144 -0.043483753 -0.045932878
000300 e9 d6 92 3c 12 40 a4 3d f4 94 55 bd 93 18 00 be
       0.017924743 0.08020033 -0.052144006 -0.12509374
000310 30 a0 b5 3d 6a 04 66 3d b3 ef a7 3d 48 5c fc 3d
       0.08868444 0.056156553 0.08200016 0.12322289
000320 e0 0f 95 bc 85 cf 81 3b d8 56 3a 3d 76 48 f5 3d
       -0.018196046 0.003961506 0.045492977 0.119767115
000330 db af 96 3d e9 4c a2 3d 9d 38 35 bd 3a a7 09 bd
       0.073577605 0.07924826 -0.044243444 -0.033606745
000340 78 d9 c3 bc f8 7f 8d bd 25 2b c6 3d d3 07 ef 3c
       -0.023907408 -0.06909174 0.09676198 0.029178536
000350 26 0e 2f bd 33 21 f3 3b 7f 64 14 bd 2a ae 07 bd
       -0.042738102 0.007419729 -0.036228653 -0.03312508
000360 f2 a5 19 bd b5 cb ea 3d 68 99 9e bd 02 2d f8 3d
       -0.037511773 0.11464635 -0.07744104 0.121179596
000370 ff a0 61 3d ec 6d c8 bc 2f ab 84 3d 78 93 d0 3c
       0.05508518 -0.024466477 0.06477963 0.025460944
000380 91 93 e2 3c 65 9a 1e 3a 91 91 35 3d af 4d 20 3d
       0.027658256 0.0006050228 0.044328276 0.039136585
000390 82 8f 9e 3d 8f 8a 66 3d b4 a5 33 bd b2 b6 d1 bd
       0.07742216 0.056284484 -0.0438592 -0.102399245
0003a0 6d 61 d0 bc a7 58 53 bd 55 4e 9f bd 06 31 8b bd
       -0.025437081 -0.051598217 -0.077786125 -0.0679646
0003b0 c0 c3 28 3d d7 fb 3b 3d d4 ab 02 3d b6 cd 83 3d
       0.041202307 0.04589447 0.03190215 0.064357206
0003c0 18 06 d0 bc 11 2c 9f 3d 63 b0 73 3d 9f 6d 59 3d
       -0.02539353 0.07772077 0.059494387 0.05308306
0003d0 59 9e 7e 3b a5 18 c9 bd ae 0a 9a bd d3 9a 2a bd
       0.0038851707 -0.09819154 -0.07521568 -0.041651558
0003e0 8c c0 cd 3c c2 10 6f 3d ff 55 d2 bc ea a6 bc 3d
       0.025116228 0.05836559 -0.025675772 0.09211524
0003f0 2d 1e 6a bc d7 bd a2 bd 43 b5 5e bd 10 37 8c bd
       -0.014289421 -0.07946365 -0.054372083 -0.0684644

main_network.lstm.bias_ih_l0 f4 [256]
000000 fc 7a ba 3d 7e a1 2e 3d 99 df b2 bd c5 b2 25 bd
       0.09105489 0.04263448 -0.08734054 -0.04045369
000010 e2 c0 8a bd c4 31 9b bd 43 b6 7f bc 4b 63 6e 3d
       -0.06775071 -0.075778514 -0.015607419 0.058200162
000020 82 cd de 3d 3a 34 c6 39 24 36 d0 bd 5b b0 b6 bd
       0.10879041 0.00037804415 -0.101665765 -0.08920356
000030 b3 f4 c0 3d ff b9 f0 3d ed 82 91 bc 2d 67 56 bc
       0.09421673 0.11754226 -0.017762626 -0.013086122
000040 b4 bb a7 bc fa 5f c4 3d fc 30 27 3d a5 b7 6f 3c
       -0.020475246 0.095886186 0.0408182 0.014631187
000050 be 29 fc bd 87 b3 62 3d b1 7f e5 3d f1 18 80 bd
       -0.12312649 0.055346992 0.11205996 -0.06254757
000060 41 7a ec bd 71 2f 8a 3c 53 4e b9 ba 6d 50 3a 3b
       -0.115467556 0.016868325 -0.0014137722 0.0028429285
000070 c9 4f da bd 57 f1 27 3d be 02 fc 3c 65 a3 ac 3c
       -0.10659749 0.041001644 0.030763026 0.021074006
000080 ec 7a d1 bd 9c 8a 85 bd 21 ef f2 bd 69 6a 1f 3c
       -0.102285236 -0.06520578 -0.118620165 0.00972996
000090 22 d6 60 b9 d9 63 d1 3d d9 79 0c 3d 4d 0c d8 bd
       -0.00021442075 0.102241226 0.03429589 -0.10549221
0000a0 5f 21 8c bd c3 c5 a8 bd ae 59 93 bd a2 d8 f0 3d
       -0.068423025 -0.08240845 -0.071948394 0.117600694
0000b0 9e d8 41 bd 3e 58 de bc 56 6f 6c 3c b9 44 9f bd
       -0.047325723 -0.027141687 0.014430841 -0.0777678
0000c0 92 ea fa bd e2 4c b5 3c 94 da 64 3d 16 38 1c 3d
       -0.12251772 0.022131387 0.055872515 0.038139425
0000d0 55 4b cf bd 30 35 85 bc 76 f9 ba bd 77 1b db 3b
       -0.1012179 -0.016260713 -0.09129612 0.0066866237
0000e0 92 f0 8b bd 03 fb c5 3d 1b a8 89 3d 14 f8 a3 bd
       -0.068329945 0.09667017 0.06721517 -0.080063015
0000f0 7f 12 f7 bd e7 3c 00 bc 10 56 b8 3d 42 92 13 3d
       -0.12064075 -0.00782702 0.0900079 0.036028154
000100 9d 37 72 3d ed 57 30 bb fa ad d8 3d 06 94 1c 3d
       0.05913507 -0.0026907877 0.105800584 0.038227104
000110 b9 20 da bd 55 1c d4 bd b8 b8 c7 bd f5 40 bc 3d
       -0.106507726 -0.103569664 -0.09752029 0.09192077
000120 01 f9 ee bd 7b de c4 3c 4e 59 97 bd b9 af 2e bc
       -0.116685875 0.024031868 -0.073900804 -0.010662013
000130 f2 3b 7b bd e8 d7 9d 3d 94 ba 0b 3c 95 43 d5 bc
       -0.061336465 0.077071965 0.00852837 -0.026033202
000140 95 a3 9e bd 01 54 2e bd 0b 93 d0 bd 60 c0 a3 3d
       -0.077460445 -0.04256058 -0.10184296 0.07995677
000150 71 93 99 bd c1 02 54 3b c2 42 9a bc 25 38 89 3d
       -0.07498825 0.0032350274 -0.01883066 0.06700162
000160 8f 32 3a bd b7 3c 01 3d be a8 45 3c 46 f9 4f 3c
       -0.045458373 0.031552043 0.012064157 0.012693709
000170 fc 4c e1 3c 99 c0 f0 3d dd d6 33 3d 7a 9f 8c 3d
       0.02750253 0.11755485 0.04390608 0.06866355
000180 dd 90 62 bc 3f 0b 75 bc c3 b9 3f bd a3 27 b8 bd
       -0.013828483 -0.014956295 -0.046808016 -0.08991935
000190 d3 f1 b4 bd 77 49 83 3d 81 40 b4 bc 94 f9 21 3c
       -0.08835187 0.06410497 -0.022003414 0.009886164
0001a0 fb 5f ce 3d 3e b7 ac 3c 12 a6 8b 3d 6f fa 02 3d
       0.100769006 0.02108347 0.06818785 0.031977113
0001b0 4d 0d 14 3d 4b 00 5e bd 2d 24 cf bd 12 89 bd 3c
       0.036145497 -0.0541995 -0.10114322 0.02313665
0001c0 2e 2e 92 bd 95 dd ae bb 6a 0b 7d 3d b5 f1 c2 bd
       -0.07137714 -0.005336473 0.061778463 -0.09518758
0001d0 0f ae 0c 3d 7d 63 eb 3d eb 48 e6 bd bd 71 af 3d
       0.034345683 0.11493585 -0.11244377 0.08566616
0001e0 0c 32 98 3d 4f 73 3a 3d 0e 83 80 3d 35 3d ad 3c
       0.07431421 0.045520123 0.06274997 0.02114735
0001f0 83 29 ba 3c 5b e9 f3 3d bb 07 8d bd 15 11 c5 bb
       0.022724872 0.119097434 -0.0688624 -0.006013999
000200 4a 62 4e 3c e7 72 3f bd 7b bc e8 3c d7 42 a9 bd
       0.012596676 -0.04674044 0.028410187 -0.08264702
000210 f1 36 35 bd c6 aa c0 3d 26 34 5e bd cb 40 00 bd
       -0.04424185 0.094075724 -0.05424895 -0.03131179
000220 2d 19 ab 3d 18 cf e0 3d 86 74 b4 bd 7c 8c 23 3d
       0.08354411 0.10977 -0.088112876 0.0399289
000230 ba b2 b4 3d a8 da bf bd b5 11 e9 bb bf c9 03 be
       0.08823152 -0.09367877 -0.0071127065 -0.12869929
000240 81 18 e7 3d d3 23 c6 bd e0 b1 e9 bd f3 63 8e bd
       0.112839706 -0.09674802 -0.1141088 -0.069526576
000250 fa 42 77 bd d0 df ea 3c a2 c7 c7 3d 5b 82 d0 3d
       -0.06036661 0.028671175 0.09754874 0.10181113
000260 f2 70 e4 3d 1a 80 cd 3d 77 60 90 3d 3a 02 8c 3d
       0.11154355 0.10034199 0.07049649 0.06836362
000270 57 0a a1 bc 9d 04 c3 bd 37 2c 46 3d 94 97 06 bd
       -0.01965825 -0.09522364 0.04838201 -0.0328594
000280 eb 2a e3 bc c2 27 68 bd 2b 64 91 bb 3a 30 c1 bd
       -0.027730426 -0.05667854 -0.00443699 -0.094330266
000290 39 87 9a 3b 53 6f d8 3d bc b5 b2 3d 85 c7 7a 3d
       0.004715827 0.105681084 0.08726069 0.061225433
0002a0 49 f6 46 bd e7 9b 7f bd 00 d1 88 bd ff ca 94 bd
       -0.04857472 -0.06240454 -0.066804886 -0.07265281
0002b0 6e d1 99 3d 6e a8 01 be 13 c4 7a 3d 1f 91 a0 bd
       0.07510649 -0.12661907 0.061222147 -0.0784018
0002c0 bc 34 b1 bd 4a de 9d 3d aa 60 56 3d 91 55 f2 3a
       -0.086526364 0.07708414 0.05233828 0.0018488636
0002d0 36 a8 f9 3b cf 9a 7d bd 6a b9 3a 3c 1a 32 f8 3d
       0.0076189293 -0.061915215 0.011396745 0.12118931
0002e0 f7 9d b4 bc 29 18 e3 3d ef ee 43 bd 61 8a 10 3c
       -0.02204798 0.110885926 -0.047835287 0.008822055
0002f0 b0 37 0c bc e1 11 3c 3c f4 83 d5 3d e4 58 67 bc
       -0.008558199 0.011478872 0.10425559 -0.014120314
000300 1f eb dd 3d 80 be e0 bc 6e 97 6e bc 33 f8 c9 bd
       0.108358614 -0.027434587 -0.014562471 -0.09861793
000310 54 49 82 bd 4c b5 a4 bc 3f 91 fb bd f7 d6 ea bd
       -0.063616425 -0.02010598 -0.12283563 -0.114667825
000320 cf 63 60 bd 62 6f 8a bb b3 e7 ab bc 42 4c e1 3d
       -0.054782685 -0.0042247036 -0.020984506 0.11000873
000330 61 52 46 3d 67 eb ad bd 15 dc f0 bd 27 99 6d 3d
       0.048418406 -0.08492165 -0.11760727 0.058007386
000340 f7 2a 13 3d 76 b6 00 3e df b9 83 3d 7b e2 03 bd
       0.035929646 0.12569603 0.064319365 -0.03219841
000350 21 ea 53 3d 6f 79 a6 3d 6d cd a0 bd d0 24 86 3d
       0.051736955 0.0812863 -0.07851682 0.0654999
000360 61 84 c8 3d e2 d9 80 3d c8 07 e5 3c ec 6a 52 3b
       0.09790874 0.06291558 0.027957812 0.0032107187
000370 f7 71 88 bd fd 57 c5 bd 95 da ef bd c0 cb ce bd
       -0.06662362 -0.09635923 -0.11711613 -0.10097456
000380 41 ea ca bd fe f9 02 bd 18 d5 25 bc df 97 13 3d
       -0.09907962 -0.031976692 -0.010121606 0.036033507
000390 30 20 1a bd 8e 01 03 bd 10 73 7d bc 0b fb e4 bd
       -0.037628353 -0.031983905 -0.015469328 -0.11180695
0003a0 02 c4 54 3d 74 29 36 3d ac af 43 bd d0 4d 3f 3d
       0.05194474 0.044473127 -0.047774956 0.046705067
0003b0 05 d5 15 bd 90 50 fd 3d 5e 8e 41 bd 3d 08 00 3d
       -0.036580104 0.12368882 -0.047254913 0.031257857
0003c0 f9 8a 28 3b cc a5 46 3d 0c 1f 6e 3c 3c a2 dd 3d
       0.00257176 0.04849796 0.014533769 0.108219594
0003d0 6c 1e 41 bd 5c e9 c2 bd 9f 23 bc bd db 0d dc bd
       -0.047148153 -0.09517166 -0.09186482 -0.1074483
0003e0 eb 6f ca bd 25 ab 17 bd be 09 93 bd 19 d4 9d bd
       -0.09884628 -0.03702845 -0.071795925 -0.0770647
0003f0 3c dc cd 3d 71 78 cd bd 92 2f 04 be ef 34 f4 3d
       0.10051772 -0.10032738 -0.12908772 0.11924159

main_network.lstm.bias_hh_l0 f4 [256]
000000 ce a0 a0 bd 37 a8 fe 3b a9 e4 c9 3d c8 fe 86 bd
       -0.07843171 0.0077715176 0.098580666 -0.065915644
000010 be 08 9f bd 62 66 9e bd 13 03 df 3d 85 2d 68 bc
       -0.07765339 -0.07734372 0.10889258 -0.014171009
000020 2a 4a cf bc 13 7a 3a bd fc 94 b1 bd ff c9 49 3d
       -0.025303919 -0.045526575 -0.08670995 0.049264904
000030 37 61 97 3d 57 48 63 3d d6 49 b6 bd e7 d3 d0 bd
       0.07391589 0.05548891 -0.08900802 -0.10196667
000040 5d 0e 9f bd da ea 82 bd 58 d1 21 3d 5c ad 38 bc
       -0.077664115 -0.06392451 0.039506286 -0.011271801
000050 86 23 b6 3d 4b 41 62 3d e2 c0 81 bc b2 25 9e 3c
       0.08893494 0.05523805 -0.015839044 0.019305084
000060 25 86 83 3d 3f af a7 3d df 7d 2a bd 66 49 f6 3c
       0.064220704 0.081877224 -0.041623946 0.030064296
000070 33 9b c0 3d a8 0b 6d bd 29 84 90 bd 61 85 46 bd
       0.09404602 -0.057872444 -0.070564575 -0.048467044
000080 64 e6 95 3b 9c 65 0b 3c fa d7 02 bd 91 2f d5 3d
       0.004574584 0.008508112 -0.031944253 0.10409463
000090 ff 8d 82 bd 45 e8 ac 3d 8a 56 16 bd 03 40 73 bc
       -0.0637474 0.084427394 -0.036703624 -0.014846805
0000a0 9b 00 ea 3d 2d 8c ec bd ae c3 86 bd 2e 38 cb bd
       0.11425897 -0.11550174 -0.06580292 -0.09922825
0000b0 42 1f 23 bd d0 57 e3 bd fa 31 d4 bd 61 81 c1 bd
       -0.03982473 -0.11100733 -0.10361095 -0.09448505
0000c0 62 c1 b8 bd da 27 43 bc ed 51 6f 3d 84 d9 d8 bd
       -0.0902126 -0.011911357 0.05842774 -0.10588363
0000d0 c5 89 1d 3b 70 69 ec 3c fa ac b3 bd 35 2d 41 bd
       0.0024038416 0.02885887 -0.08773227 -0.047162253
0000e0 88 97 66 3d 0d 6d 7c 3d 12 4f 6b 3b d5 56 a4 bc
       0.056296855 0.061627436 0.0035905284 -0.020060936
0000f0 bd e4 60 bd e8 34 fd 3c 6c d1 c8 3d 56 fa f7 3d
       -0.05490564 0.030909017 0.09805569 0.12108295
000100 94 6b 69 3d 3c 63 95 bd bc 11 d4 3d 0c 56 f8 3d
       0.05698736 -0.07294318 0.10354945 0.12125787
000110 4a f3 3a bd 4e 37 16 3c 5a 46 2f 3d e3 81 67 bd
       -0.045642175 0.009168459 0.0427917 -0.056520354
000120 45 5b d8 bd ed 18 d9 3d c8 75 6f bc c8 c4 f6 bd
       -0.10564283 0.10600457 -0.014615484 -0.12049252
000130 ba 52 05 bd 3e e8 a2 3d 2d 6d da bd c9 6d 90 3d
       -0.032549597 0.07954453 -0.10665355 0.0705219
000140 08 e4 1e bb db 58 71 3d 35 bb 42 bd f2 dc 0b 3d
       -0.0024244804 0.05892263 -0.047541816 0.034146257
000150 df f1 96 bd db 64 82 3d b8 ba a0 3b 67 f6 b3 3d
       -0.07370352 0.06366893 0.004905071 0.08787232
000160 29 7e b3 3d 47 81 3c b9 83 89 dd 3d bc 9d c1 3c
       0.087642975 -0.00017977237 0.10817244 0.023634784
000170 5c 91 bb 3d 1d d3 81 bd 63 2b 24 3c 6a 82 4f bd
       0.091585845 -0.06339095 0.01002011 -0.050661482
000180 38 be 8a 3d a4 55 8f bd f1 61 c9 3c 9f 7c 51 3d
       0.067745626 -0.069987565 0.024582835 0.05114424
000190 b3 a4 ce bd 0d 81 d0 bd a1 1d c6 bc 7e 1c 10 3d
       -0.10090008 -0.101808645 -0.02418405 0.035183422
0001a0 6f 63 ee bd 02 3b 60 bd f0 89 a4 3c 1e f7 da 3d
       -0.11640059 -0.054743774 0.020085305 0.10691665
0001b0 f7 a8 8c 3c 0b 73 4e bc b4 01 1a bd 0a ad 2e 3d
       0.017170412 -0.012600671 -0.03759928 0.04264549
0001c0 bc 0a df 3d 94 34 49 bd f9 f2 c6 3d 6b 70 00 3d
       0.10890719 -0.049122408 0.09714312 0.03135721
0001d0 4e 7a f4 bd ba 43 26 bd ea 24 c3 3b ef 2d b1 bd
       -0.1193739 -0.040591933 0.0059553282 -0.08651339
0001e0 90 a2 30 3c 76 cc 7f bc 24 f4 d7 3d 34 a0 e1 3d
       0.010780945 -0.015612712 0.10544613 0.110168844
0001f0 62 b2 bc bd b5 2e d3 3d ad 30 9d bc 01 00 be bd
       -0.09213711 0.10311643 -0.01918825 -0.092773445
000200 d2 1f ba bd 56 dd e8 bc c9 14 79 bd a1 2c c1 3c
       -0.090881005 -0.028425854 -0.060810838 0.023580851
000210 f7 b2 0a 3d d6 30 0d 3d 1a a3 d6 3d 79 d3 86 3d
       0.03386208 0.0344704 0.10480328 0.06583304
000220 35 a3 b2 3d 44 53 a9 3d 6e 77 77 3d 56 ad b0 bd
       0.087225355 0.08267835 0.06041663 -0.08626811
000230 40 a3 da 3d 56 a4 e5 bd bd d0 c4 bd cb d4 96 3d
       0.10675669 -0.11212985 -0.09610126 0.07364806
000240 d1 4e 88 bd 0f 24 81 3d 0a ae 37 bc 0c b0 1a bc
       -0.06655658 0.06305706 -0.011210928 -0.009441387
000250 95 08 cd 3d 40 8c 88 bb 0a 8d ca bd 15 36 f6 3d
       0.100114025 -0.0041671097 -0.09890182 0.12022034
000260 04 23 6d bd 24 2c c4 bd 53 89 c4 bd c8 b7 6e bd
       -0.05789472 -0.09578732 -0.09596505 -0.058280736
000270 3f 7a e3 3d 4f 6a ed 3d 1d 4b b7 bd 94 6f 33 bd
       0.11107301 0.115925424 -0.089498736 -0.04380758
000280 27 0b 2a bc 47 4a b3 bd c3 fb 9a bd 63 ea fc 3d
       -0.0103786355 -0.08754402 -0.07567551 0.12349393
000290 7a 9f f6 3d d1 cb 6e 3d 02 f7 cc bd 92 a7 29 bd
       0.120421365 0.058299843 -0.100080505 -0.041419573
0002a0 cd e0 e8 3a 2f b8 01 3e 28 cc c4 bd a8 17 f4 3c
       0.0017767191 0.12667917 -0.09609252 0.029796436
0002b0 38 5e e0 3d 26 80 a4 bd ec ef b6 bd 3b 27 0b bd
       0.10955471 -0.08032255 -0.0893248 -0.03397296
0002c0 80 a3 0e 3c 8c bf c1 bd e3 7a e7 bd 9c 4b 1f 3d
       0.008705974 -0.09460363 -0.11302736 0.038890466
0002d0 96 df c5 3c c6 72 68 bd 91 1a c6 bd b0 9f 88 3c
       0.024154466 -0.05675008 -0.09673036 0.016677707
0002e0 71 23 b3 3c f7 6f 11 bd 3f d0 37 bd 4a 46 25 3d
       0.021867486 -0.03550717 -0.044876333 0.040350236
0002f0 ea 54 a6 3d 45 bb be 3d da 17 91 bd b4 ff 79 bc
       0.08121665 0.093130626 -0.070846274 -0.015258718
000300 3b 00 d7 3d e1 86 a8 bd 88 b4 cc 3c 8d e4 d9 bd
       0.10498091 -0.08228851 0.024988428 -0.10639296
000310 e0 78 e1 bd 64 f3 c5 bd 3b 9d d5 bd 94 27 5f bd
       -0.11009383 -0.09665564 -0.1043038 -0.054481104
000320 51 18 2c 3d 37 1d 3f 3d 6b c4 72 3d 73 db 5f 3d
       0.042015377 0.04665872 0.05926935 0.054652642
000330 8d 63 be bc 79 00 ed bd f3 48 ee 3d 0d 64 fb 3c
       -0.023240829 -0.11572356 0.11635008 0.030687356
000340 6c 99 a9 3d 75 23 fd 3d e2 f5 41 bc fc 5b d5 bd
       0.08281216 0.123602785 -0.011838408 -0.10417935
000350 f9 ed b8 bd 27 0a dc bd b9 a3 11 3b a8 97 3d bd
       -0.09029765 -0.10744124 0.002222283 -0.04628721
000360 e7 4d 16 bd c0 f6 fb 3c 79 76 81 3d 6b ee 93 3d
       -0.036695387 0.030757308 0.06321425 0.07223209
000370 ee dc 14 3c 02 bc 47 3d 0e dc 51 3d e2 95 da bd
       0.009085877 0.048763283 0.05123525 -0.10673119
000380 7b ae d6 3d 79 4a 2d bc cf 9b ed bd ce e3 88 3d
       0.10482498 -0.010576838 -0.11601984 0.06684075
000390 41 44 00 be 8e e5 db 3c 70 1c 93 3c 8b 1c 8d 3b
       -0.12526037 0.026842859 0.017957896 0.004306381
0003a0 42 49 cd bd b5 c3 8f 3c 32 cd f7 bd cd 73 b3 3d
       -0.100237384 0.017549375 -0.12099685 0.087623216
0003b0 dd a5 ce 3d 4a b2 e7 3d 76 1d 55 bc 0c cb 0e 3b
       0.1009023 0.11313303 -0.013007512 0.0021788506
0003c0 69 05 de 3c 39 a2 9f bd ca d8 c2 bd 78 0b de 3d
       0.02710219 -0.077946134 -0.095140055 0.10842031
0003d0 67 eb e3 3c 44 8a 8e bd 4d da 5f bd 13 7e 8b 3d
       0.02782221 -0.06959966 -0.054651547 0.06811156
0003e0 48 83 05 bd 9b 7b e7 3b 7a 3b e5 3d a5 bd 71 bd
       -0.032595903 0.0070642955 0.11192985 -0.05901875
0003f0 6a a0 98 3d 41 47 fe 3c 07 0d 0b bd 4d a6 f7 bd
       0.074524716 0.031039836 -0.03394797 -0.12092266

main_network.fc.weight f4 [3, 64]
000000 d3 77 51 3d cd 56 ab 3d d0 34 21 bd b7 29 e9 3b
       0.051139664 0.08366165 -0.039357007 0.0071155685
000010 52 5b 01 be 52 2d 94 bd 90 f8 d4 3d 3f 0e fe 3d
       -0.12632492 -0.07235207 0.10398972 0.12405061
000020 51 fe da bd e3 0e f9 bd d4 60 73 bd c7 6e 37 bd
       -0.10693038 -0.121610425 -0.059418514 -0.04478338
000030 29 15 64 bd 2e 89 5e 3d b0 f6 d0 bd 58 47 9f 3b
       -0.055684242 0.054330043 -0.10203302 0.0048607998
000040 d6 85 e6 3d 32 ee 92 3d 1c 1d 14 bd 27 14 1b 3d
       0.11255996 0.071743384 -0.036160573 0.037861016
000050 e9 12 a6 3d d2 e0 06 3e 07 7e e6 bc 2b a2 84 3d
       0.081090756 0.131717 -0.028136266 0.064762436
000060 aa eb c5 bc 1d f2 56 bd 6f 34 b4 3d 6a d8 12 bd
       -0.024160225 -0.05247699 0.087990634 -0.03585092
000070 98 8a d0 3d 2d c6 1a 3c 2d 10 d0 3c bf 1e b8 bd
       0.10182685 0.009446663 0.025398338 -0.08990239
000080 7d 49 34 bc cd 6f dd bd 7e 90 ef bd 28 f9 80 bd
       -0.011003849 -0.1081234 -0.116974816 -0.06297523
000090 ba 52 ef 3b a8 c8 e4 3d 62 26 8c 3d 2d 40 a4 3d
       0.007303563 0.11171085 0.068432584 0.08020053
0000a0 a8 32 cb bd e3 ba e5 bb 22 83 d4 bd 7b d1 e1 bd
       -0.09921771 -0.007010804 -0.10376574 -0.11026283
0000b0 ea bc ca 3d 2d 86 4e 3d 9b 49 10 bd 04 8e 9d 3b
       0.09899314 0.05042093 -0.035226446 0.0048081893
0000c0 c4 51 38 3d fe e4 2f 3d 34 df 1b bd 3b 3a c0 3d
       0.044999853 0.042942993 -0.03805466 0.093861066
0000d0 51 87 0e 3d f5 84 fb 3d fd 81 6a 3d 74 3a e4 bd
       0.034797017 0.12281219 0.057252873 -0.111439615
0000e0 4f ca a3 bc 4a 06 84 bd 49 62 22 bc 0e 6f b2 3d
       -0.01999393 -0.06446512 -0.009911128 0.08712588
0000f0 11 ad f4 bc 3a 41 64 bc fb 72 42 bd 20 3c 3e bd
       -0.02986768 -0.013931567 -0.047472935 -0.04644406
000100 9c b0 7d bc 50 5c 34 3d b5 2f 9a bd fe bf 4d 3d
       -0.0154840015 0.04403335 -0.07528631 0.050231926
000110 20 38 35 3d f2 5e d5 3d 0a 42 cc bd ef 9a e0 bd
       0.044242978 0.104185 -0.099735335 -0.10967051
000120 46 54 da bd 60 61 c7 bc c2 26 de 3d 20 8e fa 3d
       -0.10660605 -0.024338424 0.10847236 0.122341394
000130 31 52 e7 3d a2 57 85 bd ac a7 fa 3d e7 3c 10 3d
       0.11294974 -0.06510855 0.12239012 0.03521433
000140 fe 5b 1b 3d e5 e3 5b 3d b4 d9 ab 38 65 f6 08 3c
       0.037929527 0.053684134 8.194466e-05 0.008359526
000150 d2 2c 84 bd 4b ec 6d 3d d1 0a d7 bd 35 fb dd 3d
       -0.06453861 0.058086675 -0.1050011 0.108389296
000160 fb 4f a3 3d 5c 61 80 bd 21 b6 96 bd 75 5d f3 3d
       0.079742394 -0.0626857 -0.07358957 0.1188306
000170 40 10 13 bc 8d 6e fa bc 3d d7 9a 3d e5 c2 b7 bd
       -0.008976042 -0.030570293 0.07560585 -0.0897272
000180 83 19 c5 bd e3 61 d2 3d ad 98 d1 3d f5 95 c0 3d
       -0.096240066 0.10272577 0.10234199 0.09403602
000190 e8 10 3b 3b 3c 4a 8d bd 97 14 7e 3c 62 9d 20 3d
       0.0028544012 -0.06898925 0.015507839 0.039212592
0001a0 df 46 f1 3c 2d e9 af bd 92 09 d0 3d 49 8c dd 3d
       0.02945274 -0.085893966 0.101580754 0.10817773
0001b0 ee 1f 45 3c 4d 95 18 bd 2b 69 ac bd 8b 0b fe 3d
       0.012031538 -0.03725176 -0.08418497 0.124045454
0001c0 93 40 34 bd 06 16 cf bd df 92 fa bd 56 d8 ab 3d
       -0.044006895 -0.101116225 -0.12235045 0.08390872
0001d0 89 da ef 3d 46 11 e4 3c e5 55 cc bc 65 8e b8 bd
       0.11711604 0.027840268 -0.024943301 -0.090115346
0001e0 eb fa c0 3d 07 16 2e 3c 1b 3c cf 3d b7 32 7e 3d
       0.09422859 0.010625369 0.10118886 0.062060084
0001f0 81 90 c5 3d 30 30 df 3d 2d bf cd 3d cd 09 ac 3d
       0.096467026 0.10897863 0.100462295 0.08400307
000200 54 47 d2 bd 92 a9 ea 3b e8 e2 97 bd b6 b6 6c bc
       -0.10267511 0.0071613276 -0.07416326 -0.014447859
000210 e4 bf c9 bc 9f 92 01 3d 3b fd 44 bd 65 bf 9c 3b
       -0.024627633 0.03163397 -0.048093062 0.004783558
000220 40 6b 2e 3d ee 98 ef bd 03 e6 c1 ba 68 c8 56 3d
       0.04258275 -0.11699091 -0.001479328 0.052437216
000230 84 40 0f bd f0 4a 2a 3b f4 09 e1 bd 14 f8 c4 bd
       -0.034973636 0.0025984608 -0.109882265 -0.0961763
000240 ec a0 91 3d 80 6c bf 3c 39 a2 88 bd 80 8c a8 3d
       0.071107715 0.023367167 -0.066715665 0.08229923
000250 b8 ac db 3d eb b6 3d bd d1 28 a6 bb a3 84 fe 3d
       0.10726303 -0.046317022 -0.0050707837 0.12427642
000260 fa 6f bd bd 3e 6b 87 bd 97 07 9a bd ac 2a c3 3d
       -0.092498735 -0.06612252 -0.07520979 0.095296234
000270 d9 b6 9e 3d e5 75 b5 bd be 46 c0 bc 27 cb b8 bc
       0.07749719 -0.08860377 -0.023471233 -0.022557808
000280 a1 a0 d5 3d d1 7f 88 bd 84 c5 96 3d f3 e4 e9 bd
       0.10431028 -0.06665004 0.07361892 -0.11420622
000290 8d cb c9 3d 05 13 32 3d ff ef f4 bd c8 eb 71 bd
       0.09853277 0.04347517 -0.11959838 -0.05906275
0002a0 33 38 e6 bd a2 45 c9 3d a8 e5 53 3c 74 1e bb ba
       -0.11241188 0.098277345 0.012933172 -0.0014276044
0002b0 6f 2e 71 3d af fc 1d 3d 54 da ef bd 73 95 a5 bd
       0.058882173 0.038571056 -0.11711565 -0.08085146
0002c0 2e 3c c1 3d 99 c7 df 3d 23 14 ed 3d 2c f6 3f 3d
       0.094353065 0.10926742 0.115761064 0.046865627
0002d0 20 70 c8 3d bd 5e 38 bb 31 4c 7b bd a6 7c 2e bd
       0.09787011 -0.002813264 -0.06135196 -0.042599343
0002e0 94 b8 e0 bc 37 ec a4 3c 90 b9 c2 3d e7 5a e3 bd
       -0.027431764 0.020132167 0.095080495 -0.111013226
0002f0 85 03 86 bd 56 01 2b 3d 4d a4 4a 3c 27 e6 5e bd
       -0.0654364 0.04174932 0.012368274 -0.05441871

main_network.fc.bias f4 [3]
000000 b3 b7 a4 3d 69 10 bb bc 60 1e aa 3c
       0.0804285 -0.022834973 0.020766437

short_term_context_network.fc1.weight f4 [32, 7]
000000 3d a1 7a 3e 8b aa 23 be 10 e1 8b be 39 63 02 3e
       0.2447557 -0.15983026 -0.27320147 0.12733163
000010 4c 3e 8f be c2 6e b1 3e 10 74 06 3e bc 47 54 3e
       -0.27977216 0.34654814 0.13130212 0.2073049
000020 54 7a 86 be 29 29 9e 3d 30 74 2d be 36 81 88 be
       -0.26265204 0.077226944 -0.16938853 -0.2666108
000030 09 6c f6 bd ff 9d ba 3e 2b 36 5b be 1b 4b 81 bb
       -0.12032325 0.36448666 -0.21407382 -0.003945721
000040 64 03 c0 3d 06 a4 4f 3d 99 44 2e 3d 62 0d bb bd
       0.09375647 0.050693534 0.04254589 -0.09133412
000050 44 29 e4 bd dd 54 1d 3e 34 78 c0 bd 24 f7 1c 3e
       -0.11140683 0.15364404 -0.09397927 0.15328652
000060 ca 3d 87 be ce 86 55 be 52 3f ae be a4 13 4c 3e
       -0.2641433 -0.20852205 -0.34032685 0.19929367
000070 b4 78 a5 be a2 a3 b5 be 67 a3 9e 3e 60 9e 8b 3e
       -0.32318652 -0.35476404 0.3098404 0.27269268
000080 2c 23 e5 bd 4b 91 5e 3e 8b 13 f0 3d 58 7b c8 3c
       -0.11188349 0.21735112 0.117224775 0.024472877
000090 54 cc 7b 3c 1b c4 bd bd 1e d9 58 be 0d fc 21 3e
       0.01536854 -0.0926592 -0.21176574 0.15818806
0000a0 fc 0f 8c 3e d9 13 95 be 18 50 de bd 77 a8 58 3e
       0.27355945 -0.29116705 -0.108551204 0.21158014
0000b0 29 07 aa 3e b9 19 23 be 34 fc ba 3d 46 42 d9 bd
       0.33208588 -0.15927781 0.09130135 -0.10608344
0000c0 51 c5 88 3e 92 68 88 3e 3c fc 70 3e 85 64 a4 3e
       0.2671304 0.2664228 0.2353372 0.3210794
0000d0 ce a4 e1 3d c3 2d 62 be a2 56 3f be c3 8b 67 3d
       0.11017762 -0.22087769 -0.18685392 0.05652977
0000e0 74 b0 fa 3d 06 06 67 be c9 7c 3c 3d 3c aa 1a 3e
       0.12240687 -0.22560892 0.046017442 0.15104002
0000f0 c9 15 aa be 11 1e b7 be 27 5f 3b 3e 46 b9 1e 3e
       -0.33219746 -0.35765126 0.18298016 0.15500364
000100 a0 11 91 be ad 4e ea 3d 53 05 a0 bd 4f 23 62 be
       -0.2833376 0.114407875 -0.078135155 -0.22083782
000110 33 ef a0 3e b9 8e 12 3c 6a 07 9f be 44 26 12 be
       0.31432495 0.008945161 -0.31060344 -0.1427241
000120 3d 34 81 bc b5 71 b5 be 5b 6b ec 3c f7 ba fa 3d
       -0.01577198 -0.35438314 0.028859785 0.12242692
000130 79 e2 8c be 78 10 60 3e 54 25 7c be 56 c0 b4 3e
       -0.27516535 0.21881282 -0.24623615 0.3530299
000140 22 2e 0e be a7 cf 11 3e 19 a4 e2 bd 04 60 af 3e
       -0.13884786 0.1423937 -0.110664554 0.34252942
000150 d0 eb 8e 3c 69 e8 8e be ba 26 8f 3e c9 28 4f be
       0.017446429 -0.2791169 0.27959234 -0.20230402
000160 47 cf d2 3d 53 84 62 3e a2 c8 79 3e 6c f3 f2 bd
       0.10293441 0.2212079 0.24392942 -0.11862835
000170 2f b6 c0 3e 87 2b 82 be a0 ab be 3e f6 20 02 be
       0.37638995 -0.25423834 0.37240314 -0.12707886
000180 10 8b 81 be 40 71 59 3e 3f 42 67 3d 0e 08 a3 be
       -0.2530141 0.21234608 0.05645966 -0.31842083
000190 04 f0 86 bd 43 b0 69 3e 3f 77 9c 3e ab dd ca bd
       -0.06588748 0.22821145 0.30559728 -0.09905561
0001a0 83 cc 81 be b1 c2 a3 be d1 16 aa 3e c5 18 f6 3d
       -0.25351343 -0.31984475 0.33220533 0.12016443
0001b0 0e 2f be be d8 27 ac 3e 15 53 6e be bb c0 a6 be
       -0.37145275 0.33624148 -0.23273881 -0.32568917
0001c0 65 a2 71 3e de e7 0d 3d 05 65 a8 3e 23 41 96 3d
       0.23597105 0.034644954 0.32889572 0.073366426
0001d0 30 89 97 be e8 08 a0 3c 71 b4 9a bd 34 6f 4a 3e
       -0.29596853 0.019535497 -0.07553948 0.19768983
0001e0 32 3a 3c 3e be 21 92 3d f8 97 7f 3e 1e a9 2a be
       0.18381575 0.07135342 0.24960315 -0.16666076
0001f0 26 82 b8 be 0b 3d 0a bd 2c 1c 01 3e 93 bb b1 3d
       -0.36036795 -0.03374962 0.12608403 0.08678355
000200 11 89 88 be 6b 05 94 3d 48 5a 5a 3e fc 99 9a bd
       -0.26667073 0.07227596 0.21323502 -0.075489014
000210 4c e9 0a 3e fe 3b b6 3e 3f 33 af bd 9f ef ec bd
       0.13565558 0.35592645 -0.08554696 -0.115691416
000220 4c 42 5a be 91 30 4c 3e 50 15 63 3d 4d 1a 9e 3d
       -0.21314353 0.19940402 0.055440247 0.0771986
000230 48 28 c3 3d 40 83 51 be 55 76 bb be 76 c1 77 be
       0.095291674 -0.20460224 -0.36613718 -0.24194893
000240 ba 9e 51 3e 6b 83 0e be 2e 1c bd bd b4 a5 c1 bd
       0.20470706 -0.1391732 -0.092338905 -0.094554335
000250 38 ac 14 3e 66 3c 8d be bb e5 9a be ed f2 7d 3e
       0.14518821 -0.27585143 -0.30253395 0.247997
000260 80 8c ef bd bc a3 9a 3e 59 5a 9d be d8 26 8c 3c
       -0.1169672 0.30203044 -0.30732992 0.017108366
000270 31 77 b3 be 48 94 93 3e c2 20 a4 3a a8 34 41 3e
       -0.35051873 0.28824067 0.001252197 0.18867743
000280 76 e9 c8 bc 14 a1 13 bd 7d ad 6f 3e 25 49 0e 3d
       -0.024525385 -0.036042288 0.23406024 0.034737725
000290 4f c2 a1 3d 35 21 a5 3e 52 fb a9 be 33 63 0d be
       0.078983895 0.32251897 -0.33199555 -0.13807373
0002a0 f5 d3 1f 3e 35 02 af bd 02 b4 97 be 91 d1 05 bd
       0.15608199 -0.08545343 -0.29629523 -0.03267056
0002b0 72 2a 2c 3e 1f 34 41 3e 37 7a 23 be 8a 9c da bc
       0.16813067 0.18867539 -0.1596459 -0.026685972
0002c0 c5 57 2a be 72 02 51 3d cc 31 ae 3e cb a9 ae be
       -0.16635044 0.051027723 0.34022367 -0.34113917
0002d0 7e 8c 82 3e 29 dc 02 3e bb 15 08 be 04 aa a3 3e
       0.25497812 0.12779297 -0.1328954 0.3196565
0002e0 09 8e 8a be 6d b6 ae be 63 58 d3 bd d8 17 83 3b
       -0.2706149 -0.34123555 -0.10319593 0.004000645
0002f0 bf 9b 56 be 86 f5 94 3e d7 c3 0f 3e 1b e8 e3 bb
       -0.2095785 0.2909357 0.1403955 -0.0069551594
000300 f5 af 63 3e d8 6d 8d 3d 52 ad 52 be 96 06 c0 3e
       0.22235091 0.06905717 -0.20573929 0.37505025
000310 50 45 aa be a8 f3 52 3e 67 3e f0 3d 7b 94 37 be
       -0.33256006 0.2060076 0.11730652 -0.17927735
000320 4c bd 17 bd 4e 59 b1 bd 85 d9 61 be 79 d7 00 be
       -0.037045762 -0.08659612 -0.22055633 -0.12582196
000330 21 54 97 bc 50 df 8f bd 98 fe bb be fe d2 8f 3e
       -0.018472733 -0.07025015 -0.36717677 0.28090662
000340 16 f0 f9 3d 61 38 9c 3e 06 36 a5 be 67 0e 75 3e
       0.12203996 0.30511764 -0.3226778 0.23931275
000350 70 0e 77 be 7b 4f d9 bd a8 9e b5 be 92 cc 2e 3e
       -0.24126601 -0.10610863 -0.35472608 0.17070225
000360 81 07 f2 3d ba 02 9d be 0f a6 73 bd 24 5b 73 3e
       0.118178375 -0.30666143 -0.059484538 0.23765236
000370 22 1e 95 be fd de fb 3d 5a 7a 06 3c 41 c8 dd 3d
       -0.29124552 0.12298391 0.008207882 0.10829211

short_term_context_network.fc1.bias f4 [32]
000000 f3 9d b0 3e 3f da b1 bd c1 60 2a 3e c3 ab 4c be
       0.34495506 -0.08684205 0.16638471 -0.19987397
000010 e8 47 b0 3e 5b ff 90 be a7 f4 84 bd 13 4f 64 3e
       0.3442986 -0.2831982 -0.06491976 0.2229579
000020 75 31 b0 be f1 da d9 3d 6b e3 64 be 39 25 ac 3c
       -0.34412733 0.10637463 -0.22352378 0.021013843
000030 90 92 bc be 53 0a 79 3c e8 9a 82 3e c2 50 b2 be
       -0.36830568 0.015200215 0.2550881 -0.34827238
000040 5f a0 f2 3c 93 5b 34 3e 9e 21 08 be d5 5d 4c be
       0.029617487 0.17613058 -0.13294074 -0.19957669
000050 df a9 64 3e f1 38 ad be e8 c4 28 3e b6 1c 39 3e
       0.22330426 -0.33832505 0.16481364 0.18077359
000060 ab f6 af 3e 69 05 86 be 18 4a 60 be b9 e7 58 bd
       0.3436788 -0.26176003 -0.21903265 -0.052955363
000070 dd 87 9d be 03 c7 b7 bd 58 ad 3f be 35 f8 a0 3e
       -0.30767718 -0.08973505 -0.18718469 0.31439367

short_term_context_network.fc2.weight f4 [16, 32]
000000 7e 9a 26 bd d1 92 2a bd 9d 5f 0b be 76 bb e7 bd
       -0.04067468 -0.04164392 -0.13610692 -0.11315052
000010 cf fd 93 bd 68 79 88 3d 4d f6 28 be be 79 be 3d
       -0.072261445 0.066637814 -0.16500206 0.09300564
000020 de fb 21 be dc f5 1b be d7 36 90 bc 9c 4f 30 3e
       -0.15818736 -0.15230507 -0.017604275 0.17217869
000030 2d d2 a2 3c 92 77 0b 3e ea 4a 31 3e 61 3a 5f bd
       0.01987561 0.13619831 0.17313734 -0.054499034
000040 40 f0 c9 bd 4b 0d 3b bd 2e 0e 35 3e ca a4 10 be
       -0.09860277 -0.045666974 0.1768119 -0.14125362
000050 8a a4 35 3e 7a fd 0f 3a 1e b0 77 3c 9e 84 df 3c
       0.17738548 0.0005492788 0.015117673 0.027284916
000060 5e f6 79 3d 38 fb a9 3c 15 9f c9 3c d3 5d 29 be
       0.06102597 0.020749673 0.024611989 -0.16539697
000070 ce 4c cf bd ca a8 46 3d 12 a3 0c 3d e1 7c d4 3d
       -0.10122071 0.048500814 0.034335203 0.10375381
000080 99 fb fc 3c 18 dc af bd 61 8d 09 3e c0 1d 98 3d
       0.03088169 -0.085869014 0.13432838 0.07427549
000090 84 3b d1 bd 35 14 e4 bd 19 8d 1e bd f4 62 1f be
       -0.1021643 -0.11136667 -0.03870878 -0.15565091
0000a0 ee 1a 8c 3c 9e 94 6d bc b3 6a ed 3c 57 e7 d2 bd
       0.017102685 -0.014500765 0.028981542 -0.10298031
0000b0 d3 6c d3 3d 17 03 24 be db 37 9b 3d e3 bd 2b be
       0.10323491 -0.16016804 0.07579013 -0.16771655
0000c0 71 a7 af 3d 3d 4b 1d 3e 74 34 f6 bd f2 4c 33 be
       0.08576859 0.15360732 -0.120217234 -0.17509821
0000d0 eb 93 b9 3d f2 93 62 3d 6a 9c b7 3d dd 5e 14 bd
       0.09061416 0.055316873 0.089653805 -0.03622328
0000e0 61 07 8a 3c 01 ed aa 3c 3c bc 5d 3d 94 d1 43 bd
       0.016849222 0.020864965 0.054134592 -0.04780729
0000f0 27 ff 7d bc ad f8 c3 3d c1 28 19 be 42 24 74 bc
       -0.015502728 0.095689155 -0.14956953 -0.014901223
000100 2b 69 ff bd ac e6 24 bd 26 80 e6 3d 13 6e b5 bd
       -0.12471231 -0.04025905 0.11254911 -0.088588856
000110 76 72 19 3e 8c 46 91 bc f1 6a fe bd a0 24 e3 bd
       0.1498507 -0.017733835 -0.12422741 -0.1109097
000120 fa 45 5c 3d c5 94 97 bd cb 63 31 3e 28 fb f6 bd
       0.053777672 -0.074014224 0.17323224 -0.12059623
000130 40 69 2c bb 09 0b 05 bc 46 db 2f be 0e 85 55 bd
       -0.002630785 -0.008120307 -0.1717349 -0.052128844
000140 4c 41 dd 3d 56 e6 60 bd c2 27 31 be 77 a1 e5 bd
       0.1080347 -0.054907165 -0.17300323 -0.112124376
000150 c4 25 2a be 22 a9 93 bc 97 3a 05 be ab 6d e3 3c
       -0.16615969 -0.018024985 -0.13010632 0.027762255
000160 a2 0a 32 be 11 0a 0c 3e c8 57 f6 bd 9b 9c 2c bd
       -0.17386869 0.13675715 -0.12028462 -0.042141538
000170 c6 c0 1b be 4b ba 8c 3d 75 69 1a bd 7b f4 1e 3e
       -0.15210256 0.0687147 -0.037698228 0.1552295
000180 b7 98 d6 bd 1e fb 0c 3e 53 26 78 bd 16 ec b7 bd
       -0.10478347 0.13767669 -0.060583424 -0.08980577
000190 33 c4 b2 bd 3e d6 5a bd 9e a4 05 be 08 fd 06 bb
       -0.08728828 -0.053426974 -0.13051078 -0.0020597596
0001a0 a1 70 13 be 38 bd fa 3d 43 fc b5 3d 33 de 08 3e
       -0.14398433 0.12243122 0.08886006 0.13366012
0001b0 99 6e 7c bd c3 1e 2a be dd 9f b0 3d 6d 39 3a 3d
       -0.06162891 -0.16613297 0.086242415 0.04546492
0001c0 96 3c 9e 3d af 82 05 3d fc ed 25 3e 45 97 86 3c
       0.077263996 0.032595333 0.16204065 0.016429553
0001d0 9b 3c 26 3e 02 b4 10 be 5f 7d c6 3c cf df 1c 3e
       0.16234057 -0.14131168 0.024229703 0.15319751
0001e0 92 5e 18 3e 28 33 02 3d a4 22 a1 bd ea 73 28 be
       0.14879826 0.031787068 -0.07867935 -0.16450468
0001f0 f6 64 db 3c ce 00 1d be 4c d5 ef 3d ad bc 2c 3e
       0.02678154 -0.15332338 0.11710605 0.16868849
000200 69 d3 d1 bd 03 3f 14 be 73 3d 94 bc f7 8a cd 3d
       -0.102454014 -0.14477162 -0.018095708 0.10036271
000210 b0 fa b8 bd 30 a4 8a 3d 77 89 d7 3d b1 3e 24 3b
       -0.0903219 0.067695975 0.10524266 0.002506178
000220 e5 39 5f 3b 2c 6b 80 3d 27 56 f9 3d 77 ec 1b bd
       0.0034061607 0.062704414 0.121746354 -0.038067307
000230 9f 3d 65 3a f3 9c 30 3e c0 8c b2 bc 9e 90 65 bd
       0.0008744839 0.17247371 -0.02179563 -0.05604612
000240 6b b5 74 bc 37 0e d1 bc f3 f9 1a bd 0b 2c dc bd
       -0.014935832 -0.025519473 -0.037836026 -0.10750588
000250 92 78 f0 bd 4f bb ae bc 12 ce 1a be 53 a6 10 be
       -0.11741747 -0.02132955 -0.15117672 -0.14125948
000260 24 87 14 bd 1f 4c 1a be e6 bb 18 be 87 0f a1 bd
       -0.036261693 -0.150681 -0.14915428 -0.0786429
000270 6b 86 17 3e ae 67 46 bd b5 f1 2b be 4a 9f 17 be
       0.1479737 -0.04843872 -0.16791423 -0.14806858
000280 25 df 04 3e 39 8d 88 3d dc 55 95 bd 37 f8 9c bd
       0.12975748 0.06667561 -0.07291767 -0.07664531
000290 b1 b9 cf 3c b7 be b3 bd d9 bd 9e 3d 54 8a 0b 3e
       0.0253571 -0.0877661 0.07751054 0.13626987
0002a0 83 9c b5 bd 99 a8 2c 3e 48 01 27 3e 4b 73 e8 bd
       -0.08867743 0.1686119 0.16309083 -0.113501154
0002b0 c4 61 00 be 07 15 e7 bd 5b a9 d4 3d 23 0f 09 3e
       -0.12537295 -0.112833075 0.103838645 0.1338468
0002c0 04 a8 98 3d 8b 03 08 3e b2 c3 e7 3c 86 69 1b bd
       0.074539214 0.13282602 0.028291557 -0.037942432
0002d0 12 af 7e 3d 25 69 f7 bb 70 1c bb bd 91 37 27 bd
       0.06217868 -0.007550376 -0.091362834 -0.040824477
0002e0 df 31 0b 3e d5 d6 d4 3d a1 a1 26 3c 05 31 32 be
       0.13593243 0.103925385 0.010170371 -0.17401512
0002f0 c0 8d 7d bc 44 7d 29 be 2d d4 26 be db 68 18 bc
       -0.01547569 -0.16551691 -0.16291876 -0.009302343
000300 a7 3f 0e 3e 48 f6 7b bc e9 dc 28 be fc fe 13 be
       0.13891469 -0.015378542 -0.1649052 -0.14452738
000310 a9 a7 05 be 9f a2 d1 3d a7 bf da 3d e6 88 19 be
       -0.13052239 0.10236096 0.10681086 -0.14993629
000320 9d 57 c8 bd f6 ad 19 bd 8f 1d 99 bd a8 8a e8 3c
       -0.09782336 -0.037519418 -0.07476341 0.028386429
000330 2e de 08 3d 9a 35 b8 3d b1 c9 a6 bd 40 6c d3 3c
       0.033415012 0.08994599 -0.08143938 0.025808454
000340 b4 70 f9 bd 2b 3a 7f 3c 6d d2 83 3d d8 af 2a be
       -0.121796995 0.015577833 0.0643662 -0.16668642
000350 28 6d 25 3c 08 48 28 be 5f 15 2c be 5b da 82 3d
       0.010096826 -0.16433728 -0.16805027 0.06389304
000360 80 c7 ab bd 3e 5a e6 3d 2e 4f 73 3d e5 d8 bf 3d
       -0.08387661 0.11247681 0.059401684 0.09367541
000370 3e bd 86 bd 9e fd 17 be 3d 3e 0e 3e 44 df 90 3d
       -0.06579064 -0.14842841 0.1389093 0.070738345
000380 1a 74 2d be 94 cb 4f 3d af 74 b5 bd c2 1f eb ba
       -0.1693882 0.050731257 -0.08860146 -0.0017938542
000390 61 66 1b 3e c4 92 53 bd ae 5e 7c 3c a1 66 05 be
       0.15175773 -0.05165364 0.015403433 -0.13027431
0003a0 4e 1b 4b 3d 13 fb 53 3d 31 9d 1f 3e db 7e 0e be
       0.049586587 0.051753115 0.15587308 -0.13915579
0003b0 9f 2d 43 bd 8b 79 24 3e 5c af 55 bc 2e 08 99 bd
       -0.04765093 0.1606199 -0.013042297 -0.07472263
0003c0 10 4f e0 3d c3 27 be bd f4 01 94 3d cf 8c 22 be
       0.1095258 -0.09284928 0.07226935 -0.15874027
0003d0 a2 10 df bc de 2d fe bd bc a0 29 3e 3a b7 31 3d
       -0.02722961 -0.12411092 0.16565222 0.04338763
0003e0 ff 33 13 be dd be c4 3b d8 5f fb 3b bf e8 1c 3e
       -0.14375304 0.006004198 0.0076713376 0.1532316
0003f0 c5 6c fb 3d 10 71 23 3c 93 75 94 3a e5 3f fb bc
       0.122766055 0.009975687 0.0011326544 -0.030670116

short_term_context_network.fc2.bias f4 [16]
000000 5a 07 80 3b 42 dd 12 3e 72 41 08 be 85 ce 10 be
       0.0039071264 0.14342216 -0.13306215 -0.14141281
000010 9e 66 31 be 76 d1 04 be e7 2b 0c bb fe aa 24 3e
       -0.17324302 -0.12970528 -0.0021388473 0.16080853
000020 80 48 30 be 13 f7 1d be 65 c7 bf bc 03 2c 16 3e
       -0.17215157 -0.15426283 -0.023410508 0.14665227
000030 1b 71 82 3d 34 31 de bd 16 c3 8e 3d c7 0f b3 3d
       0.063692294 -0.108492285 0.069708034 0.08743244

short_term_context_network.fc3.weight f4 [1, 16]
000000 7d 89 71 bd d0 e3 47 3e 40 fa 25 be 36 7a ab 3d
       -0.05896901 0.19520497 -0.16208744 0.08372919
000010 90 07 f5 3d 54 a6 93 3d 00 c7 2c 3c 8c f3 f3 bd
       0.11964333 0.07209459 0.010545492 -0.11911687
000020 28 ff d2 bd 36 80 7a bc e8 0d b2 3d 69 7a 83 3d
       -0.103025734 -0.015289357 0.08694059 0.06419832
000030 66 51 fe bd b7 75 2e 3e d1 5f 1a be 90 d3 26 3e
       -0.12417869 0.17037092 -0.15075614 0.16291642
