Uni_Research/IRL/Final/Extended/old/V3/V3_demo1/Testing_Suite/model_SC_C1000_R1000_S10.0.pth (torch, 91379 bytes, 11 tensors)

main_network.lstm.weight_ih_l0 f4 [256, 15]
0	0xbdad1af4	-0.084524065
1	0x3d891bf8	0.06694788
2	0xbd623e37	-0.055235114
3	0x3d39213e	0.045197718
4	0x3c849dc7	0.016188515
5	0xbc92619e	-0.017868813
6	0xbdaa22c7	-0.083074145
7	0x3d17b639	0.037039015
8	0x3db13f96	0.08654706
9	0x3d6b49e1	0.057443503
10	0x3a330b3b	0.00068299816
11	0xbd76f0a5	-0.06028809
12	0xbdb56c56	-0.08858554
13	0x3ced82f4	0.028993107
14	0xbe30d0ff	-0.17267226
15	0xbcc5c14e	-0.024140026
16	0xbc7b2c3c	-0.0153303705
17	0xbe3c2f51	-0.18377425
18	0x3e126f96	0.14300379
19	0xbcd980e8	-0.026550725
20	0xbd75a440	-0.059971094
21	0x3c9f956f	0.019480435
22	0xbd45cafc	-0.048289284
23	0xbd2af08a	-0.041733302
24	0x3d1a4c65	0.03767051
25	0xbd685834	-0.056724742
26	0x3d14915d	0.03627144
27	0x3d0cf968	0.03441754
28	0xbd69eac4	-0.057108656
29	0xbdbc325a	-0.09189291
30	0x3e042fe5	0.12908895
31	0x3d733a58	0.059381813
32	0x3cfb12d2	0.030648623
33	0x3ed79d59	0.42112234
34	0x3df6382f	0.12022435
35	0x3ca18e93	0.019721305
36	0xbe166d00	-0.14690018
37	0x3d3401c0	0.04394698
38	0x3e4cf030	0.200135
39	0xbc1c07a8	-0.00952331
40	0xbd101d74	-0.03518434
41	0x3e246273	0.1605318
42	0x3d305579	0.043050263
43	0x3e704860	0.23465109
44	0xbca628a8	-0.020283058
45	0xbe06df29	-0.13171066
46	0xbe0c1b03	-0.13682179
47	0xbafa09cc	-0.0019076406
48	0x3e3e6a5f	0.18595265
49	0xbe3ca160	-0.18420935
50	0xbc22beaa	-0.009933153
51	0xbe0e2d92	-0.13884571
52	0xbe2df767	-0.16988908
53	0xbd399cb1	-0.04531545
54	0xbe176c31	-0.14787365
55	0xbe5b91f3	-0.21442394
56	0xbd2559fc	-0.04036902
57	0xbe78d656	-0.24300513
58	0xbd8db326	-0.069189355
59	0xbdbf8018	-0.09350604
60	0xbe691c8d	-0.22764798
61	0xbe7f6cd3	-0.24943857
62	0xbe49e2e1	-0.19715454
63	0x3c86de07	0.016463293
64	0xbe11ca1e	-0.14237258
65	0x3c54985f	0.012975781
66	0xbe255653	-0.16146211
67	0xbe1c3293	-0.15253668
68	0xbe49edf6	-0.19719681
69	0xbe09f934	-0.1347397
70	0xbe27df34	-0.16393739
71	0xbe07772f	-0.13229059
72	0xbe11ed19	-0.14250602
73	0xbe124860	-0.14285421
74	0xbe3cf145	-0.18451412
75	0xbe503c5e	-0.20335528
76	0xbe6669a5	-0.22501238
77	0x3d8bf247	0.0683332
78	0x3e2df741	0.16988851
79	0xbe8865e9	-0.2664025
80	0xbcfa789b	-0.030575087
81	0xbe612d5b	-0.21989958
82	0xbdddda23	-0.10832622
83	0xbdc2da3a	-0.0951428
84	0x3d7cb326	0.061694287
85	0xbde0ce93	-0.10976901
86	0xbe0ae2c4	-0.13563067
87	0xbd436cf8	-0.047711343
88	0xbdbe3c89	-0.0928889
89	0xbd44c41e	-0.048038594
90	0x3bae42a8	0.0053180046
91	0x3e2db67f	0.16964148
92	0x3cd72a35	0.026265243
93	0xbdb85fa8	-0.0900262
94	0x3e3571fa	0.1771926
95	0x3d2b652f	0.041844543
96	0x3cfaeb2e	0.03062972
97	0xbd87fe14	-0.066402584
98	0x3e691fb3	0.22765999
99	0xbe7aa2a8	-0.24476111
100	0xbdd70048	-0.104981005
101	0x3e14f0ac	0.14544934
102	0xbd260e7b	-0.040541153
103	0x3e101e9c	0.14074177
104	0x3d2dcea8	0.04243341
105	0x3dc7d27f	0.09756946
106	0x3d97088f	0.07374679
107	0x3e0a4057	0.13501106
108	0xbdca7e9d	-0.09887431
109	0x3e2033fb	0.15644829
110	0xbd390e02	-0.045179375
111	0xbd4c743c	-0.049915537
112	0x3db968d4	0.090531975
113	0x3dd65aca	0.104665354
114	0xbd459568	-0.048238188
115	0xbe0a2da0	-0.13493967
116	0xbe3d9d58	-0.18517053
117	0x3de6d621	0.112713106
118	0xbc6ddaff	-0.014517545
119	0xbdfb0276	-0.12256329
120	0x3cfe31d3	0.031029617
121	0xbd1ff56f	-0.039052423
122	0xbd22b71e	-0.039725415
123	0x3dc5a1ed	0.096500255
124	0x3d61957a	0.055074193
125	0xbd4abf77	-0.049499
126	0xbe0eb1c2	-0.13934997
127	0xbda0014d	-0.07812748
128	0x3d03aaf4	0.032145455
129	0xbdbdd019	-0.09268207
130	0xbd215040	-0.039383173
131	0xbd8c3e7d	-0.06847856
132	0xbe00fcd4	-0.12596446
133	0xbb7cbf97	-0.0038566345
134	0x3d37cfcb	0.0448759
135	0xbd8a5608	-0.067546904
136	0x3d49983a	0.04921744
137	0xbc90c274	-0.017670847
138	0x3de16600	0.11005783
139	0xbe1293c3	-0.14314179
140	0xbdcc5077	-0.09976285
141	0x3dcd97ef	0.10038745
142	0xbd143ad1	-0.036188904
143	0xbd09a57f	-0.033605095
144	0xbc50ace5	-0.012736534
145	0xbdd0f935	-0.102037825
146	0x3d9d2175	0.07672397
147	0xbc8ec582	-0.017428163
148	0xbd4db669	-0.050222788
149	0xbe26e2d2	-0.16297463
150	0xbce810ff	-0.028328417
151	0xbc64c7e3	-0.013963672
152	0xbd06bdf3	-0.032895993
153	0x3e1ebc17	0.15501438
154	0xbcac1fef	-0.02101132
155	0x3d9d5afc	0.076833695
156	0x3d52931d	0.05140983
157	0x3e1f06ab	0.15529887
158	0xbd8cb528	-0.0687049
159	0x3d68cd55	0.056836445
160	0xbd5274d3	-0.051380944
161	0xbdb2b114	-0.08725181
162	0x3db4a3c5	0.08820299
163	0x3ddcb9ef	0.107776515
164	0x3dbccd3f	0.09218835
165	0xbb9304ed	-0.004486671
166	0xbd359ad2	-0.0443371
167	0x3dcb6994	0.09932247
168	0x3eaf48bf	0.34235188
169	0xbc6f7c88	-0.014617093
170	0xbcb71a03	-0.02235127
171	0x3dc2ba16	0.09508149
172	0x3d3c7ef9	0.046019528
173	0xbd485326	-0.04890742
174	0x3da90c09	0.08254249
175	0x3cd90010	0.026489288
176	0x3e2be7ec	0.1678769
177	0x3bca6e0d	0.00617767
178	0x3ea7752f	0.3270659
179	0xbdb3e143	-0.087832
180	0xbb1a2049	-0.0023517779
181	0x3cc827b0	0.024432987
182	0x3dae0ff7	0.08499139
183	0x3e949f2c	0.29027689
184	0x3d92f2bb	0.071752034
185	0x3cb88329	0.02252348
186	0x3dab48e3	0.083635114
187	0xbca6f365	-0.020379731
188	0xbd2cc0b2	-0.042175956
189	0x3dc5f9cf	0.09666788
190	0xbda9f0d9	-0.08297891
191	0xbdfaa42a	-0.12238343
192	0x3d568bc8	0.0523794
193	0x3dbf0118	0.093263805
194	0x3d2fa8cc	0.042885587
195	0xbe04adce	-0.12956926
196	0xbe3aae32	-0.18230513
197	0xbd0c3d00	-0.03423786
198	0x3e949d5a	0.290263
199	0xbca13d32	-0.0196825
200	0xbe1ed5b8	-0.15511215
201	0xbe0bf95b	-0.1366934
202	0x3bc4c0d3	0.0060044318
203	0xbe0307ec	-0.1279599
204	0x3c10606a	0.008812049
205	0x3da172f5	0.078832544
206	0xbdeb5741	-0.11491252
207	0xbb3760b9	-0.0027981235
208	0x3e178194	0.14795524
209	0xbcc42d01	-0.02394724
210	0xbd9fb142	-0.07797481
211	0xbe06cdfc	-0.13164514
212	0x3b680afb	0.0035406935
213	0x3dd11f2d	0.102110244
214	0x3dd0faa6	0.102040574
215	0xbdcf8651	-0.10133041
216	0xbcafeb2a	-0.02147444
217	0xbcb8a11a	-0.022537757
218	0xbe19e126	-0.15027294
219	0x3dcc3cf1	0.09972561
220	0xbe36feb6	-0.17870602
221	0xbe2ba251	-0.16761138
222	0xbe05c20d	-0.13062306
223	0xbe0509aa	-0.12991968
224	0xbcf7f7e4	-0.03026957
225	0x3dc0a310	0.09406102
226	0xbd5ff0e0	-0.054673076
227	0x3cf0c52b	0.029390892
228	0x3e71bc2a	0.23606935
229	0x3df973e1	0.12180305
230	0xbda8cac0	-0.082417965
231	0x3e425845	0.18978985
232	0xbe13349d	-0.14375539
233	0xbe0389dd	-0.1284556
234	0x3e258a39	0.16166009
235	0x3da2c6db	0.07948085
236	0xbe1a816e	-0.15088436
237	0x3cedd67b	0.029032936
238	0x3de40574	0.111338526
239	0x3cb6d182	0.022316698
240	0xbdf50d5f	-0.11965441
241	0xbc66ee63	-0.014094922
242	0xbe3c7e23	-0.18407492
243	0xbd88ce72	-0.06680001
244	0x3bb04692	0.0053795064
245	0xbd117908	-0.035515815
246	0xbd88bb8a	-0.06676395
247	0x3c92c0c7	0.017914189
248	0xbd2d84ee	-0.0423631
249	0xbdc69557	-0.09696453
250	0xbd3fce16	-0.0468274
251	0xbcb51f05	-0.022109518
252	0xbd132f7c	-0.035933957
253	0x3da6fcf5	0.081537165
254	0xbd6841dc	-0.056703433
255	0x3d10b209	0.035326038

main_network.lstm.weight_hh_l0 f4 [256, 64]
0	0xbe000cd3	-0.12504892
1	0xbcf342b2	-0.029694889
2	0xbe38346a	-0.17988744
3	0x3db91451	0.09037078
4	0x3d0eb1f6	0.034837686
5	0xbce5ed22	-0.028067175
6	0x3e0fe4ec	0.1405217
7	0xbe3c78ac	-0.18405408
8	0xbd848f01	-0.06472588
9	0xbdd0939e	-0.10184406
10	0xbce665d2	-0.028124724
11	0x3da1ae02	0.078945175
12	0x3c28272f	0.010263248
13	0x3e015625	0.12630518
14	0x3cedeab3	0.029042577
15	0xbceadd90	-0.028670102
16	0xbd7b45bf	-0.061345812
17	0x3d83cea4	0.06435898
18	0x3dc109a5	0.09425668
19	0xbd45f7a5	-0.048331875
20	0xbd34ebce	-0.044170193
21	0xbd1ee7dd	-0.03879534
22	0x3d28144e	0.04103499
23	0x3c73b8f4	0.014875639
24	0xbda2918a	-0.079379156
25	0xbe22c77f	-0.15896414
26	0x3e11e113	0.14246015
27	0xbd2c32c7	-0.042040613
28	0x3ebf268c	0.37334096
29	0xbb5c674d	-0.0033630908
30	0x3cb5006d	0.02209493
31	0xbe16b2b8	-0.14716613
32	0xbd68b546	-0.0568135
33	0xbc9b33e3	-0.01894564
34	0xbd477def	-0.048704084
35	0xbcea24c3	-0.028581982
36	0x3df1cfff	0.1180725
37	0x3da58bf3	0.08083334
38	0xbdb8937f	-0.09012508
39	0x3e856b77	0.26058552
40	0xbd87f554	-0.066385895
41	0x3dcd4f4b	0.100248896
42	0xbd601151	-0.054704014
43	0xbd6f34d6	-0.058399998
44	0xbd82fa50	-0.063953996
45	0x3e1da0e7	0.1539341
46	0x3d07d93f	0.033166166
47	0x3e556e9a	0.20842972
48	0x3b3bfe23	0.0028685413
49	0x3d0819a1	0.033227567
50	0x3d72b7f5	0.059257466
51	0xbc7e3de1	-0.015517683
52	0x3e2bdf27	0.16784345
53	0x3d9fc5d2	0.07801403
54	0xbd908c1e	-0.07057975
55	0x3d6c58c4	0.05770184
56	0xbcd0530d	-0.025430227
57	0x3d91b165	0.071139134
58	0x3e042ff8	0.12908924
59	0xbe1893de	-0.14900157
60	0xbd1b7198	-0.03795013
61	0x3d24ce61	0.04023588
62	0x3e05471e	0.1301541
63	0x3cb2bdb8	0.02181898
64	0x3d94feb7	0.072751455
65	0xbcd374ed	-0.02581259
66	0xbd489694	-0.048971727
67	0xbd9490f9	-0.07254214
68	0x3e30bf54	0.17260486
69	0x3d0aafdd	0.033859123
70	0x3e6c7e6a	0.23095098
71	0xbda25419	-0.079261966
72	0xbd4e5c2f	-0.050380882
73	0x3ca719a3	0.020397967
74	0x3c3d495b	0.011553134
75	0xbc85aca8	-0.01631768
76	0x3d327b7e	0.043574803
77	0x3d4503a2	0.048099168
78	0xbe1e127d	-0.1543674
79	0x3bccb9a5	0.0062477165
80	0xbc861ae6	-0.016370248
81	0xbc9db7ce	-0.019252684
82	0xbb6c5f20	-0.003606744
83	0xbe85e9d5	-0.26154962
84	0x3d4252fc	0.04744242
85	0xbd45e46e	-0.04831355
86	0xbe031f6f	-0.1280496
87	0xbd32d714	-0.043662146
88	0xbcd824dd	-0.026384765
89	0x3da80897	0.082047634
90	0xbc32878c	-0.010896575
91	0xbe1a0aed	-0.1504323
92	0x3e11596b	0.14194266
93	0xbe01096a	-0.12601247
94	0xbd8c25dd	-0.06843159
95	0xbd7c069b	-0.061529737
96	0xbd0143a5	-0.03155865
97	0x3e13423c	0.14380735
98	0xbd4db324	-0.05021967
99	0x3d286d98	0.04112014
100	0x3d9632ba	0.07333894
101	0x3c1789b8	0.009249143
102	0xbe08655a	-0.13319913
103	0xbc70d7a0	-0.0146998465
104	0x3da9517f	0.08267497
105	0x3d1ac244	0.037782922
106	0x3dfb050f	0.12256824
107	0x3dfd56cf	0.12370073
108	0xbe5b5056	-0.21417364
109	0xbdcd54d2	-0.10025944
110	0xbcc3eecb	-0.023917576
111	0x3ce4fbdb	0.027952125
112	0x3c9abbcc	0.018888377
113	0xbcfbea95	-0.030751506
114	0xbdd9abfe	-0.10628508
115	0xbe3da16d	-0.1851861
116	0x3d3a04fa	0.045414902
117	0x3d50fb21	0.051020745
118	0xbce3ec53	-0.02782265
119	0x3d2b4971	0.041818086
120	0x3e15335f	0.14570378
121	0xbc80dc5d	-0.015730077
122	0x3a1d95c2	0.00060113904
123	0x3d5927ca	0.05301646
124	0xbd157c74	-0.03649564
125	0x3e596dfa	0.21233359
126	0x3da00eef	0.07815348
127	0x3dc49e66	0.096005246
128	0x3b484ca4	0.003056326
129	0x3e03b222	0.12860921
130	0x3dc7e643	0.09760716
131	0x3e45b9de	0.19309184
132	0xbe671758	-0.22567499
133	0x3c924dfc	0.017859451
134	0xbeb26a3c	-0.34846675
135	0xbda8024a	-0.082035616
136	0x3ca8a341	0.020585658
137	0x3e6bee37	0.2304009
138	0xbe17f32e	-0.1483886
139	0x3b48ee7f	0.0030659733
140	0x3e0b5a91	0.13608767
141	0x3e810d8c	0.25205648
142	0x3e31b3dc	0.17353767
143	0x3d57eada	0.052714206
144	0xbd6000fe	-0.054688446
145	0xbe74b130	-0.23895717
146	0x3d539c9b	0.051663022
147	0x3e6eb9c6	0.23313054
148	0xbe44ba08	-0.1921159
149	0x3e12192a	0.14267412
150	0xbd5a3e01	-0.053281788
151	0xbda9025c	-0.08252403
152	0x3dae334c	0.08505878
153	0x3dc87702	0.09788324
154	0x3d7fe58c	0.062474772
155	0xbccf51ab	-0.025307497
156	0xbe04ac41	-0.12956335
157	0x3d1482c8	0.036257535
158	0xbe15c472	-0.14625719
159	0xbd6597b5	-0.056052882
160	0x3d874ba4	0.06606224
161	0xbd003519	-0.031300638
162	0xbe693362	-0.22773507
163	0x3d14ea17	0.036356058
164	0x3e3966a3	0.18105559
165	0x3e0867a5	0.13320787
166	0x3e2fcc3b	0.17167751
167	0xbe8af827	-0.2714245
168	0xbd1a6f89	-0.037704024
169	0xbe5d33d1	-0.21601798
170	0xbe1b6bc5	-0.1517783
171	0xbdf61ea3	-0.12017562
172	0x3e236f39	0.15960397
173	0x3d2135c5	0.03935792
174	0x3e207f08	0.15673459
175	0xbe3e4f5a	-0.18584958
176	0xbe0def08	-0.13860714
177	0x3e5a566c	0.2132203
178	0xbc7ac9ad	-0.015306872
179	0xbbfbc96c	-0.0076839235
180	0xbca89d6a	-0.020582873
181	0xbe0367e1	-0.12832595
182	0x3dfa5001	0.12222291
183	0x3e2d2bf0	0.16911292
184	0xbdfa79c8	-0.12230259
185	0xbcd7362f	-0.026270954
186	0xbc1a7407	-0.009427077
187	0x3c183502	0.009289982
188	0x3e22e661	0.15908195
189	0xbe91a9bf	-0.28449818
190	0x3e860adc	0.2618016
191	0xbe154628	-0.14577544
192	0xbd4f65d6	-0.050634228
193	0xbd82966b	-0.06376346
194	0xbe0842f5	-0.13306792
195	0x3e3544d6	0.1770204
196	0xbda0cd83	-0.07851698
197	0x3d78085a	0.06055484
198	0xbbdb921f	-0.0067007686
199	0xbe38324c	-0.17987937
200	0x3e00f13e	0.12592027
201	0x3cf7aa8c	0.03023269
202	0xbcc64c30	-0.02420625
203	0x3d896fa8	0.0671075
204	0xbd097355	-0.033557255
205	0x3dfee436	0.124458715
206	0x3e1351e5	0.14386709
207	0x3dbba831	0.09162939
208	0x3dc4f307	0.09616666
209	0x3cf22a74	0.029561259
210	0xbcf77cd8	-0.030210897
211	0x3e4dd40f	0.20100425
212	0x3d741564	0.059590712
213	0x3caa4d0b	0.02078869
214	0x3d56b47f	0.05241823
215	0xbe08ddc8	-0.13365853
216	0xbd52ab20	-0.05143273
217	0xbd8de614	-0.069286495
218	0x3dbd4b1f	0.09242844
219	0x3d2c207a	0.04202316
220	0xbc8836df	-0.016627727
221	0x3daf2124	0.08551243
222	0xbdd7a56a	-0.10529597
223	0xbe23c8ce	-0.1599457
224	0xbcbca0b7	-0.023025854
225	0x3dd31a63	0.10307767
226	0xbd5fa675	-0.054602105
227	0xbd9dfa31	-0.07713736
228	0x3ce732f3	0.028222537
229	0x3d96af24	0.07357624
230	0x3e14adb7	0.14519392
231	0xbd23e566	-0.040013693
232	0xbe2fd02b	-0.17169254
233	0x3d1d5452	0.038410492
234	0x3d7c0c47	0.061535146
235	0xbc2aa84f	-0.010416104
236	0x3e0a1e40	0.13488102
237	0x3e16b0a5	0.14715822
238	0x3dd2d307	0.102941565
239	0xbe64ea42	-0.22354987
240	0xbd0072e3	-0.031359565
241	0x3cd2e80b	0.025745412
242	0x3e68d400	0.22737122
243	0x3cee28c3	0.029072171
244	0xbcd1c5b0	-0.02560696
245	0xbdcf1621	-0.10111643
246	0x3e1d5136	0.15363011
247	0x3e05e2aa	0.13074747
248	0xbdb382f8	-0.08765215
249	0xbd31b514	-0.04338558
250	0x3e0b8444	0.13624674
251	0xbe308768	-0.17239153
252	0xbd87b1df	-0.06625723
253	0xbcb560ce	-0.022140887
254	0x3e3c75d8	0.18404329
255	0xbccb03a0	-0.024782002

main_network.lstm.bias_ih_l0 f4 [256]
0	0xbdbe86ce	-0.09303056
1	0xbe06f16f	-0.13178037
2	0x3e0d4b47	0.13798247
3	0x3d2bd899	0.04195461
4	0xbdb660d3	-0.089051865
5	0xbdeeb0d6	-0.116548225
6	0xba76f3dd	-0.0009420494
7	0xbd61e73f	-0.055152174
8	0xbc77adbe	-0.015117107
9	0x3e3f4f07	0.1868249
10	0xbd89d6a2	-0.06730391
11	0x3cce2057	0.025161905
12	0x3dc048d4	0.09388891
13	0x3db3cc76	0.08779232
14	0x3e10eb1a	0.14152184
15	0x3da4164f	0.080120675
16	0xbc9a1004	-0.018806465
17	0x3e1af99e	0.15134284
18	0x3db1863b	0.086681806
19	0xbe3f255c	-0.18666595
20	0xbcf796cc	-0.030223273
21	0x3dc09ba9	0.0940469
22	0xbe1618a9	-0.14657845
23	0x3d862e22	0.06551768
24	0xbdac3819	-0.08409137
25	0xbcdca820	-0.026935637
26	0xbd11dcb3	-0.035610866
27	0x3dbf9b57	0.093558006
28	0x3e9d1314	0.30678618
29	0xbd4b806e	-0.049683027
30	0xbc308d7e	-0.010775922
31	0x3d77ca60	0.060495734
32	0x3df998ea	0.12187369
33	0xbd443216	-0.04789933
34	0x3c9d3c3a	0.019193757
35	0x3a4e76fc	0.00078760064
36	0x3d1396d6	0.03603252
37	0xbcaf5d89	-0.021406906
38	0x3df38260	0.118901014
39	0x3e153411	0.14570643
40	0x3db0b25e	0.08627771
41	0x3d9744c0	0.0738616
42	0xbe04b8e2	-0.12961152
43	0x3e6b7676	0.22994408
44	0x3d8d55fd	0.069011666
45	0x3de05df8	0.10955423
46	0xbd727e24	-0.05920233
47	0x3d991ed3	0.074765824
48	0x3e4b2526	0.1983839
49	0x3df46e94	0.119351536
50	0x3bf13ebe	0.007362216
51	0x3ce6693a	0.028126348
52	0x3d7413de	0.05958926
53	0xbc072bec	-0.008250218
54	0x3de71c8c	0.11284742
55	0x3e082c0b	0.13298051
56	0xbc664d81	-0.014056564
57	0x3ca9d904	0.020733364
58	0xbd72ac58	-0.05924639
59	0x3d6fc492	0.058537073
60	0xbcb7b8d7	-0.022427006
61	0x3e120ece	0.1426346
62	0x3dc4f549	0.09617097
63	0x3d9ee2a3	0.07758071
64	0xbd34b88e	-0.044121318
65	0xbd3711ea	-0.04469482
66	0xbd9f0318	-0.07764262
67	0x3ddb9af7	0.107229166
68	0x3d9029e2	0.070392385
69	0x3cf807c5	0.030277142
70	0x3d4abdd6	0.049497448
71	0xbde875da	-0.113506034
72	0xbd1a4888	-0.037666827
73	0xbdbb9968	-0.09160119
74	0x3dc3915f	0.09549212
75	0x3c97ee63	0.018546289
76	0x3d172db4	0.03690882
77	0x3dc788bd	0.09742878
78	0x3e1f945d	0.1558394
79	0x3cf56cb8	0.029959068
80	0xbd8e0671	-0.06934822
81	0x3d7f7e4f	0.062376317
82	0x3cb34832	0.021885011
83	0xbd8c9992	-0.06865229
84	0x3e4e261b	0.20131724
85	0x3dc0246c	0.09381947
86	0x3dd771fa	0.10519786
87	0x3cf17d79	0.029478775
88	0xbe37b6db	-0.17940848
89	0xbd43f32e	-0.047839336
90	0xbcfbdb37	-0.030744178
91	0xbd9972dd	-0.074926116
92	0x3dcc8101	0.09985543
93	0xbd58111a	-0.052750684
94	0xbe0c65e0	-0.13710737
95	0x3d2d6251	0.04233009
96	0xbdb94af6	-0.09047501
97	0xbdafd7b2	-0.085860625
98	0x3dc9b5ee	0.098491535
99	0xbd22b5d6	-0.039724194
100	0xbc2b8bc9	-0.010470339
101	0xbd439836	-0.04775258
102	0x3d359d5e	0.04433953
103	0xbc6aaf5c	-0.0143240355
104	0xbd8068ad	-0.06269965
105	0xbd97c32b	-0.07410272
106	0x3dacf027	0.08444243
107	0xbdd3ec57	-0.103478126
108	0x3d93b0bc	0.07211444
109	0xbe2db5e0	-0.16963911
110	0x3a8b295f	0.0010617188
111	0xbdf79dc1	-0.12090636
112	0x3d352551	0.04422504
113	0xbde9d46c	-0.114174694
114	0xbd134a1d	-0.03595935
115	0xbe1f4517	-0.155537
116	0x3d320d63	0.043469798
117	0x3e39614b	0.1810352
118	0x3c6e9915	0.014562865
119	0xbd880fd5	-0.06643645
120	0x3cc8d47c	0.024515383
121	0xbd8d2a39	-0.06892819
122	0x3c8c8730	0.017154306
123	0xbcea5224	-0.02860362
124	0x3dad7b27	0.08470755
125	0xbdc9d68e	-0.09855376
126	0xbd1b7797	-0.037955847
127	0xbc9a98b4	-0.018871643
128	0xbb0b62a5	-0.0021268514
129	0x3d9e6259	0.07733602
130	0xbcd7b6e5	-0.026332328
131	0xbd8c7f09	-0.068601675
132	0x3d2e171d	0.04250251
133	0xbbcda8eb	-0.00627624
134	0x3def4d8a	0.11684711
135	0xbd6eed9d	-0.058332074
136	0x3d26c092	0.040710993
137	0x3cc37dd0	0.023863703
138	0x3da257d3	0.079269074
139	0x3d35567d	0.044271935
140	0x3e12447e	0.1428394
141	0x3d913c65	0.070915975
142	0x3d0d0153	0.03442509
143	0x3bdd9252	0.0067618275
144	0xbd234263	-0.039858233
145	0xbe38fed9	-0.18065967
146	0xbd957dbd	-0.07299373
147	0xbd5a0ed5	-0.0532368
148	0xbdbb0b3e	-0.09133004
149	0xbd040f61	-0.03224123
150	0xbce52a7f	-0.027974365
151	0x3e1c035e	0.1523566
152	0x3d8f3e59	0.06994314
153	0xbd1583b8	-0.03650257
154	0x3d375d5d	0.044766773
155	0x3cacb5df	0.021082817
156	0xbe1fc702	-0.15603259
157	0xbd8c314a	-0.06845339
158	0x3dc4411c	0.09582731
159	0xbc2e62bf	-0.01064366
160	0x3e31a949	0.17349733
161	0xbc14301e	-0.009044675
162	0xbe14f9fe	-0.1454849
163	0x3dbd90d0	0.092561364
164	0x3dc65e50	0.096859574
165	0x3c81947e	0.015817877
166	0x3e0009b3	0.125037
167	0xbcd14495	-0.025545398
168	0xbde150ed	-0.110017635
169	0x3dad5d7d	0.08465097
170	0xbc379ddd	-0.011207071
171	0xbdbff54f	-0.09372961
172	0x3ccbff1b	0.024901917
173	0x3cabf369	0.02099009
174	0x3e1638c2	0.14670089
175	0xbd3f426b	-0.0466942
176	0xbe1060a6	-0.14099368
177	0x3e2aa9d6	0.1666635
178	0xbd84f2f7	-0.06491654
179	0xbcc858ed	-0.024456466
180	0xbe18975a	-0.14901486
181	0xbdec35a0	-0.11533666
182	0xbc42a7bc	-0.011880811
183	0xbe0d292b	-0.13785236
184	0xbdc29a1a	-0.09502049
185	0x3d571e17	0.05251893
186	0xbdb8b53f	-0.09018945
187	0x3df233f8	0.118263185
188	0x3dcaf186	0.09909348
189	0xbcbde6fd	-0.023181433
190	0xbd4f6f34	-0.05064316
191	0xbda83f29	-0.08215172
192	0x3b04de15	0.0020273973
193	0x3db2bdd9	0.08727617
194	0x3ddb2b54	0.107016236
195	0x3c5dd73b	0.0135400845
196	0x3c873c9f	0.016508399
197	0xbd030629	-0.031988297
198	0x3bd7f48d	0.006590432
199	0xbda6c4dd	-0.081430174
200	0x3d663d2e	0.05621069
201	0x3e3ac6e0	0.18239927
202	0xbdc1968f	-0.09452545
203	0x3d7f2115	0.06228741
204	0xbd1b210c	-0.037873313
205	0x3d7d3ad9	0.0618237
206	0xbce3f5f3	-0.027827239
207	0x3daf86e1	0.08570648
208	0xbbdd69ac	-0.006756982
209	0x3bde3fcb	0.006782507
210	0xbde5a67c	-0.11213395
211	0xbc70fa60	-0.014708132
212	0x3e03e6c3	0.12880997
213	0xbdcd23a9	-0.10016567
214	0xbdbf3e17	-0.093380146
215	0xbd72e9ba	-0.05930493
216	0x3dcbcd36	0.0995125
217	0x3c054af3	0.008135545
218	0x3a0cd87e	0.0005372836
219	0x3d8f8c5d	0.07009194
220	0x3e0c46c7	0.13698874
221	0x3d8ff754	0.07029596
222	0x3dd8a58f	0.10578453
223	0xbd907783	-0.07054045
224	0xbaffd601	-0.0019518734
225	0x3c435e74	0.011924375
226	0x3dbd6e39	0.09249539
227	0x3dff79d3	0.12474408
228	0x3c28f097	0.010311267
229	0xbdf4f942	-0.11961605
230	0x3e12f3e3	0.14350848
231	0x3d1fe486	0.039036296
232	0x3e24a150	0.16077161
233	0xbc9bddba	-0.019026626
234	0x3cf9e730	0.030505747
235	0x3e822200	0.25416565
236	0x3d3af705	0.045645732
237	0x3dbdb07f	0.092621796
238	0x3dc75dee	0.097347125
239	0xbc19167e	-0.009343741
240	0x3c84fbab	0.016233286
241	0x3dd5ab35	0.10433046
242	0x3e2e3e4a	0.17015949
243	0x3d89fdcc	0.06737861
244	0x3dd089bd	0.101825215
245	0x3e362e0e	0.17791006
246	0x3e067a01	0.13132478
247	0xbc4c1099	-0.012455129
248	0x3e0a7805	0.13522346
249	0x3e0ccead	0.13750716
250	0x3de4d43a	0.111732915
251	0xbdc50743	-0.09620526
252	0xbc7002e1	-0.014649124
253	0x3dc9b698	0.0984928
254	0x3e115631	0.14193036
255	0x3e640ed7	0.22271286

main_network.lstm.bias_hh_l0 f4 [256]
0	0x3ce0f45b	0.027460268
1	0xbd53a8f5	-0.0516748
2	0x3e0b5d4c	0.13609809
3	0x3d48eeb7	0.04905578
4	0x3b8ccc7c	0.0042968374
5	0xbcb83785	-0.022487411
6	0x3d47231d	0.04861747
7	0x3d2a1889	0.041527305
8	0xbd982d37	-0.07430499
9	0x3e1f0896	0.15530619
10	0xbdc2b059	-0.09506292
11	0x3d795705	0.060874004
12	0xbd403dfc	-0.046934113
13	0xbd9c42af	-0.076299064
14	0x3e5612d7	0.20905624
15	0x3d542f1a	0.051802732
16	0x3d973932	0.07383956
17	0x3d71ff35	0.059081275
18	0x3d990405	0.0747147
19	0xbe5004fd	-0.20314403
20	0x3dd53ea9	0.10412342
21	0xbe11b00d	-0.14227314
22	0x3ca5622f	0.02018842
23	0xbd4f8ef7	-0.05067345
24	0x3db7885c	0.08961555
25	0x3d8e909a	0.06961174
26	0x3d126d0a	0.03574852
27	0x3e41cf77	0.18926798
28	0x3e94b899	0.29047087
29	0x3dae190d	0.08500872
30	0xbd459c15	-0.048244555
31	0x3d2688b7	0.040657725
32	0x3d14369b	0.03618489
33	0x3d6bd16d	0.05757277
34	0x3d807382	0.06272031
35	0xbd31fbaa	-0.043452896
36	0x3db38691	0.08765901
37	0xbd91ad16	-0.07113092
38	0x3ad46c90	0.001620667
39	0x3df2f8d5	0.11863867
40	0x3e5fa5c8	0.21840584
41	0xbe0e7810	-0.13912988
42	0x3d9de8c3	0.077104114
43	0x3d41d2aa	0.047320046
44	0xbced3ce7	-0.028959705
45	0x3d9c7311	0.07639135
46	0xbd23614d	-0.039887715
47	0x3e04cf8d	0.129698
48	0x3e617300	0.22016525
49	0x3d1bbc52	0.038021393
50	0xbddcc432	-0.10779609
51	0x3da745bc	0.08167598
52	0x3d864793	0.065566204
53	0x3e3535b6	0.1769627
54	0xbd131dcf	-0.0359171
55	0x3dfdfd96	0.12401883
56	0x3de58465	0.11206893
57	0xbd287f58	-0.04113707
58	0xbca2b372	-0.019860957
59	0xbdcc8c07	-0.099876456
60	0x3e466a55	0.193765
61	0x3d8a4936	0.06752245
62	0xbd436f20	-0.0477134
63	0x3e17a0a0	0.14807367
64	0x3d67abb4	0.056560233
65	0xbd628892	-0.055306025
66	0xbde31b9b	-0.1108925
67	0x3cfb876d	0.030704224
68	0xbdd18b99	-0.10231704
69	0x3c23fdef	0.010009273
70	0xbdd2afd0	-0.1028744
71	0xbe1e660e	-0.15468618
72	0x3d9da592	0.07697596
73	0xbe2a7008	-0.16644299
74	0xbc14a040	-0.00907141
75	0xbd0ab881	-0.033867363
76	0x3df0194f	0.11723577
77	0x3d52965d	0.05141293
78	0x3d6baeac	0.057539627
79	0xbdf1b543	-0.11802151
80	0x3dc527d4	0.09626737
81	0x3de2c31e	0.11072372
82	0xbcb2587f	-0.021770714
83	0xbd8555e0	-0.0651052
84	0x3d5deb44	0.054179445
85	0xbe0e7597	-0.13912044
86	0x3dd2164f	0.10258161
87	0xbdcff373	-0.10153856
88	0xbdb49021	-0.08816553
89	0xbd3d9e27	-0.046293404
90	0x3c993129	0.0187002
91	0xbe4f96ab	-0.20272319
92	0x3bc8ea12	0.006131419
93	0xbd071e43	-0.032987844
94	0x3d81858f	0.063243024
95	0xbda6ca74	-0.081440836
96	0x3e09335e	0.13398501
97	0xbe6b8d75	-0.2300318
98	0x3e2e095d	0.1699576
99	0x3ddbf6b8	0.10740417
100	0xbd832630	-0.06403768
101	0xbdc2ac84	-0.09505561
102	0x3d4f813d	0.05066036
103	0x3db0203f	0.085999005
104	0xbdd575c4	-0.10422853
105	0xbd930e64	-0.07180479
106	0x3dfc3300	0.12314415
107	0xbe0c6cf8	-0.13713443
108	0xbdb74a15	-0.08949677
109	0x3d877568	0.0661419
110	0x3e3dd7d8	0.18539369
111	0xbda82b61	-0.08211399
112	0x3e5f8179	0.21826734
113	0xbda9a538	-0.08283466
114	0xbb501bc0	-0.0031754822
115	0xbcab6928	-0.020924166
116	0x3d82fa29	0.063953705
117	0x3e438cf6	0.19096741
118	0xbd31d3e9	-0.043414984
119	0x3df9c417	0.12195604
120	0x3d55b22e	0.05217188
121	0x3d7d267e	0.061804287
122	0x3b2df793	0.002654527
123	0xbd0f7af5	-0.03502937
124	0x3dc53263	0.09628751
125	0xbe1712a4	-0.14753205
126	0xbdc1152d	-0.09427867
127	0xbdaea51d	-0.085275866
128	0x3dd62b2f	0.10457455
129	0x3d16952d	0.03676336
130	0x3decc2bd	0.11560581
131	0xbd0a9fad	-0.033843685
132	0xbdbf9f9a	-0.093566135
133	0xbcf41bfe	-0.029798504
134	0x3abbac54	0.0014318326
135	0x3cabe644	0.020983823
136	0x3ded9382	0.116004005
137	0x3dadab99	0.08479995
138	0x3d1017d9	0.035178993
139	0xbba5d3dd	-0.0050606565
140	0xbcf6f1df	-0.03014463
141	0x3bfb2f34	0.007665539
142	0x3e400d98	0.18755186
143	0x3de8f477	0.11374753
144	0x3d7af886	0.061272167
145	0xbe062aa2	-0.131022
146	0xbce9dbd0	-0.028547198
147	0xbb5a3edb	-0.0033301625
148	0xbd3f76a5	-0.046744008
149	0x3b017c07	0.0019757764
150	0x3d6e5c23	0.058193337
151	0x3d36aaf4	0.044596627
152	0x3d9e8185	0.07739548
153	0x3c91d858	0.017803356
154	0xbdf014fb	-0.11722752
155	0x3e10b94a	0.14133182
156	0xbdb66221	-0.08905435
157	0x3c82a351	0.015947016
158	0xbda0790a	-0.07835586
159	0xbcbf5706	-0.023356926
160	0x3d884ee6	0.06655674
161	0xbcff0b5e	-0.03113335
162	0xbce9991d	-0.028515393
163	0xbd2de263	-0.042452227
164	0x3cabbe0f	0.02096465
165	0xbcde5eb9	-0.027144777
166	0xbdb33759	-0.08750791
167	0xbbe392ca	-0.006944989
168	0x3dc2be80	0.09508991
169	0xbd3778c6	-0.044792913
170	0xbe19d2b5	-0.15021785
171	0x3bf93114	0.0076047275
172	0x3de4136e	0.111365184
173	0xbcf11314	-0.029428042
174	0x3d5c2ada	0.053751804
175	0x3d88a18c	0.066714376
176	0xbcd5f118	-0.026115939
177	0x3c9ee98b	0.019398471
178	0xbdcff0f6	-0.101533815
179	0x3d80ef9e	0.06295703
180	0x3d7b53b4	0.061359122
181	0xbe1dd961	-0.15414955
182	0xbe189d10	-0.14903665
183	0xbe0551bf	-0.13019465
184	0xbe2605a6	-0.16213092
185	0x3d95447d	0.07288454
186	0xbd8d2c46	-0.0689321
187	0x3e0bcf9b	0.13653414
188	0x3ccc7869	0.02495976
189	0xbc695026	-0.0142403
190	0x399f4c95	0.000303839
191	0x3d0f9913	0.035058092
192	0x3daf26b0	0.08552301
193	0xbd1227c1	-0.035682444
194	0x3b76f91f	0.003768511
195	0x3dfc0305	0.123052634
196	0x3e065b24	0.13120705
197	0xbcdd54c5	-0.02701796
198	0x3e2192ca	0.15778652
199	0xbdc8a3fd	-0.09796903
200	0x3cd435aa	0.025904495
201	0x3e2eaf93	0.17059164
202	0xbd29bf1b	-0.041442018
203	0x3cf2e26e	0.029648986
204	0xbc315302	-0.010823013
205	0xbd2fa0b8	-0.042877883
206	0x3e2aebd2	0.16691521
207	0x3d0b660c	0.034032866
208	0xbccd7a39	-0.025082694
209	0x3d83a0c5	0.06427149
210	0x3dd4ddb8	0.10393852
211	0x3c3d09cd	0.011537981
212	0x3db3c28a	0.0877734
213	0x3dbbed2d	0.09176097
214	0xbe06a479	-0.13148679
215	0x3c42641e	0.01186469
216	0x3d113f8a	0.035460986
217	0x3c345fcb	0.011009167
218	0x3dac2f94	0.08407512
219	0xba152cd3	-0.0005690578
220	0x3e8377f0	0.25677443
221	0xbde90f91	-0.11379922
222	0xbd91b0e8	-0.0711382
223	0x3ddfb39a	0.10922928
224	0x3c7be42c	0.015374225
225	0x3d1e0c2d	0.03858583
226	0x3e388474	0.18019277
227	0xbd25e9da	-0.04050622
228	0xbd7b603a	-0.061371066
229	0xbd86790a	-0.06566055
230	0xbc81c53c	-0.015841119
231	0x3de08676	0.109631464
232	0x3e5b4756	0.21413931
233	0xbd0c4a3e	-0.03425049
234	0xbdf28c43	-0.11843159
235	0x3e354361	0.17701484
236	0x3d8d2c5f	0.06893229
237	0x3e138378	0.1440562
238	0x3e46ff1c	0.19433254
239	0xbd7332b5	-0.05937453
240	0x3d0c0dd5	0.03419288
241	0x3d87e6af	0.06635796
242	0x3c812a98	0.01576738
243	0x3d6135c0	0.0549829
244	0xb99e2862	-0.00030166196
245	0x3ddd5ef3	0.10809126
246	0x3cc87c55	0.024473349
247	0xbc5dff2c	-0.013549607
248	0xbcecbb02	-0.028897766
249	0x3e0e579d	0.1390061
250	0x3ddc7a38	0.10765499
251	0xbd9c6d0a	-0.07637985
252	0x3e2d2dcb	0.16912
253	0x3d970673	0.07374277
254	0x3d8c27c3	0.068435214
255	0x3e36fa2e	0.17868873

main_network.fc.weight f4 [3, 64]
0	0x3b968ef3	0.0045946776
1	0xbb04a0c6	-0.002023743
2	0xbc8489bc	-0.016178958
3	0xbcfddcda	-0.0309891
4	0x3e2636a9	0.16231789
5	0x3df64167	0.12024193
6	0x3d8cf6a6	0.06882982
7	0xbe87a153	-0.26490268
8	0x3ce1680a	0.02751543
9	0xbbbb9652	-0.0057247067
10	0x3d02adad	0.03190391
11	0xbd308ea3	-0.04310478
12	0xbd1ae428	-0.037815243
13	0xbdfa8012	-0.12231459
14	0xbe00fd74	-0.12596685
15	0x3d06d857	0.03292116
16	0xbc82391e	-0.015896376
17	0x3cf0109a	0.029304791
18	0xbd9a01d2	-0.075198784
19	0x3d68ab7b	0.05680416
20	0xbd1548e9	-0.036446486
21	0x3d5c1d12	0.05373866
22	0xbd678bb2	-0.05652971
23	0x3da2fb1d	0.07958052
24	0x3da79f53	0.081846856
25	0x3d84bf42	0.06481792
26	0x3c9b23e9	0.018938022
27	0x3d1e7dcd	0.03869419
28	0xbdcf3625	-0.10117749
29	0x3d0a52dc	0.033770427
30	0xbc904960	-0.017613113
31	0xbd235ccd	-0.039883424
32	0x3c9d7cec	0.019224606
33	0x3ba2cb02	0.004968048
34	0xbd654e7c	-0.05598305
35	0xbd9c0327	-0.07617789
36	0xbdbbd391	-0.091712125
37	0x3d2b7e0b	0.04186825
38	0x3d647c45	0.055782575
39	0x3d909176	0.070589945
40	0xbdc8e227	-0.0980876
41	0xbd1b1f34	-0.037871554
42	0x3dc0cf9f	0.094146006
43	0xbd028f60	-0.031875014
44	0x3cda98ed	0.026684249
45	0xbda3a189	-0.07989795
46	0xbdeb4903	-0.11488535
47	0xbc902f06	-0.017600548
48	0xbe011ff6	-0.12609848
49	0x3d00051e	0.03125488
50	0xbd5149f9	-0.051095936
51	0xbaa2936f	-0.0012403558
52	0x3d567225	0.05235495
53	0x3a19b5fa	0.00058636034
54	0x3b3e475b	0.002903423
55	0xbd700e4b	-0.05860738
56	0xbdd02f73	-0.101653
57	0x3cfa50a6	0.030556034
58	0xbd678026	-0.056518696
59	0x3c16f7fa	0.009214396
60	0xbcbb35c1	-0.02285278
61	0x3e073404	0.13203436
62	0x3d16b853	0.03679688
63	0xbd8324ab	-0.06403478
64	0x3c9a10a6	0.018806767
65	0xbda3946d	-0.07987294
66	0x3c884b83	0.01663757
67	0xbd211f03	-0.039336216
68	0x3d9cd8d3	0.076585434
69	0xbd5de40c	-0.05417256
70	0x3e014b6d	0.12626429
71	0xbe8b8c98	-0.27255702
72	0xbc30fa32	-0.010801839
73	0xbd5bf48a	-0.053700007
74	0x3dacd008	0.08438116
75	0xbd76f7cd	-0.060294915
76	0xbdb01a54	-0.08598772
77	0xbe19faf4	-0.15037137
78	0x3d43c396	0.047793947
79	0x3d909514	0.070596844
80	0xbc5dfaec	-0.013548594
81	0xbdbd7b97	-0.092520885
82	0xbb8098c8	-0.003924463
83	0x3d4274bb	0.047474604
84	0xbc5e0079	-0.013549917
85	0xbba6a074	-0.0050850455
86	0x3dcbb3e2	0.09946419
87	0x3dc1df3b	0.09466406
88	0xbe2af79d	-0.1669602
89	0x39dc3aeb	0.00042005567
90	0x3c732197	0.014839551
91	0xbc851247	-0.016244067
92	0xbdab6394	-0.083686024
93	0x3d1bda96	0.038050257
94	0x3e01d770	0.12679839
95	0xbd950e8a	-0.07278164
96	0xbd094f77	-0.03352305
97	0xbd18804b	-0.037231725
98	0xbd887eee	-0.06664835
99	0x3d460bc5	0.048351068
100	0x3dd41c4e	0.10356961
101	0xbd0b5e47	-0.034025457
102	0x3d68c1d3	0.05682547
103	0x3d768c75	0.060192544
104	0x3d73fb53	0.059565853
105	0xbd500cd4	-0.050793484
106	0x3d9ed156	0.077547714
107	0xbc8027c2	-0.015643958
108	0x3d3ca1ec	0.04605286
109	0xbd90aeea	-0.07064612
110	0xbdcf5e1b	-0.10125371
111	0xbdb4b92e	-0.08824383
112	0x3be7460b	0.0070579103
113	0xbe063341	-0.1310549
114	0xbca4918c	-0.020088933
115	0xbd00a151	-0.031403843
116	0xbcf81cdd	-0.0302872
117	0xbd51e7ed	-0.051246572
118	0x3cc8bb9c	0.024503522
119	0x3cd2155b	0.025644949
120	0x3cf93091	0.030418666
121	0x3e0913ac	0.1338641
122	0x3d276a6e	0.040872984
123	0xbb800a3f	-0.0039074714
124	0x3ca72628	0.020403937
125	0xbe63ed31	-0.2225845
126	0x3db6c1b2	0.08923663
127	0x3c9a325e	0.018822845
128	0xbde69fc5	-0.11260942
129	0x3d915b17	0.07097452
130	0x3e782836	0.2423409
131	0x3e1c171b	0.15243189
132	0xbe82ae9f	-0.2552385
133	0x3dc74462	0.0972984
134	0xbe5c7486	-0.21528825
135	0x3e2fa97b	0.17154495
136	0x3d986fae	0.07443176
137	0x3e2cf71b	0.16891138
138	0x3c7484f9	0.014924281
139	0xbd303270	-0.04301685
140	0x3c329819	0.010900521
141	0x3e1b73be	0.15180871
142	0x3df1a49c	0.11798975
143	0x3dbf6fed	0.0934752
144	0xbdb6ef2a	-0.08932336
145	0xbe916a89	-0.28401592
146	0x3cf9d1fb	0.030495634
147	0x3e65db47	0.22446929
148	0xbe2cf434	-0.16890031
149	0x3df4cb48	0.11952835
150	0xbdd8dff0	-0.10589588
151	0x3e847e00	0.2587738
152	0xbdca8993	-0.098895214
153	0x3ec055d3	0.3756548
154	0xbe83201f	-0.25610444
155	0x3e826ec8	0.25475144
156	0xbe82ee98	-0.25572658
157	0x3d926403	0.07147982
158	0xbdf56998	-0.11983031
159	0xbd56b69d	-0.052420247
160	0x3eb2cd2e	0.34922165
161	0x3d9b4ecf	0.07583391
162	0xbe5ab1ae	-0.21356842
163	0x3cdf5343	0.027261382
164	0x3ca24083	0.019806152
165	0x3ce720d9	0.028213905
166	0x3e604ec3	0.21905045
167	0xbe6e2d88	-0.23259556
168	0xbe459734	-0.1929596
169	0xbe8783eb	-0.26467833
170	0xbdc0a9dd	-0.09407399
171	0x3e629c70	0.22129989
172	0x3e9dcbf6	0.30819672
173	0xbe313f43	-0.17309289
174	0x3e184604	0.14870459
175	0xbe80d16a	-0.2515977
176	0xbe515c6e	-0.20445415
177	0x3e29ab4d	0.16569252
178	0xbe1b40f7	-0.15161501
179	0x3e27a089	0.16369833
180	0xbc096316	-0.00838544
181	0xbe49f836	-0.19723591
182	0xbca615a4	-0.02027399
183	0xbc1b3403	-0.00947285
184	0xbe71d082	-0.23614696
185	0x3e651f36	0.22375187
186	0xbe8f6fb8	-0.28014922
187	0xbde72861	-0.112869985
188	0x3e017ee5	0.12646063
189	0xbe48ac13	-0.19596891
190	0xbd9f14a2	-0.07767607
191	0x3e2e881f	0.17044114

main_network.fc.bias f4 [3]
0	0x3da6d5bd	0.08146236
1	0x3db0739e	0.08615802
2	0x3d1db1b2	0.03849954

short_term_context_network.fc1.weight f4 [32, 7]
0	0xbe64a707	-0.22329341
1	0x3df62177	0.12018102
2	0xbebd67c5	-0.36993232
3	0xbe4d7c9f	-0.2006707
4	0x3d39e8e8	0.045388132
5	0x3e84a6be	0.25908464
6	0xbe2ed654	-0.17073947
7	0x3ec1dcaa	0.37863666
8	0xbd22d038	-0.039749354
9	0xbde13f0a	-0.10998352
10	0xbe006198	-0.12537229
11	0x3e10c74c	0.14138526
12	0x3e33e475	0.17567618
13	0x3f4b4ac6	0.7941097
14	0x3deb1f23	0.11480548
15	0xbeb81c10	-0.3595891
16	0x3e9819b0	0.29707098
17	0x3e865db7	0.26243374
18	0x3f5b61df	0.85696214
19	0x3f9f708a	1.2456219
20	0xbf49c6f0	-0.7881918
21	0xbd0365a8	-0.03207937
22	0xbe1ad23a	-0.15119258
23	0xbe4e668f	-0.2015631
24	0x3dfde53a	0.12397237
25	0xbeb543ac	-0.35403192
26	0x3d99a46c	0.07502064
27	0x3df74fe2	0.12075783
28	0xbeca2dd4	-0.3948809
29	0xbc99d057	-0.018776102
30	0x3e0015fd	0.12508388
31	0xbea09a61	-0.31367782
32	0x3e3a3816	0.18185458
33	0x3e26c233	0.16285019
34	0x3f41755c	0.755697
35	0xbe9ed79c	-0.31023872
36	0x3e81efc4	0.2537824
37	0x3e09165b	0.13387434
38	0x3d981e88	0.074276984
39	0x3e020fd5	0.12701352
40	0x3e638c03	0.22221379
41	0x3f0feb62	0.5621854
42	0xbe4c11f1	-0.19928719
43	0xbe1ba61d	-0.15200086
44	0xbd058476	-0.032597028
45	0x3df90591	0.12159265
46	0xbdb7a583	-0.08967116
47	0xbea7b4f1	-0.32755235
48	0xbe036a9e	-0.1283364
49	0xbe014b71	-0.12626435
50	0x3ec099cd	0.3761734
51	0x3d8ad0cf	0.06778108
52	0x3e6d09b3	0.23148231
53	0x3ecf30d6	0.40466946
54	0x3e143393	0.14472799
55	0xbe5dde73	-0.21666889
56	0xbe633135	-0.2218674
57	0xbeb8a392	-0.36062294
58	0xbdc79f53	-0.097471856
59	0xbe0e9e54	-0.13927585
60	0x3e28cd27	0.1648451
61	0xbe01f988	-0.12692845
62	0xbe8d9fd1	-0.27660993
63	0xbe948653	-0.2900873
64	0xbe1e5314	-0.1546138
65	0x3e5501d2	0.20801476
66	0x3cd372c0	0.025811553
67	0xbf044ce1	-0.5167981
68	0x3e8967a0	0.26836872
69	0x3f1e30b9	0.61793095
70	0x3e159074	0.14605886
71	0x3ea238fe	0.31684107
72	0x3df1778c	0.1179038
73	0xbea39c1c	-0.3195504
74	0x3f17cfa6	0.5930122
75	0x3f0e1933	0.555072
76	0xbf1c7ab7	-0.6112475
77	0xbec7f180	-0.39051437
78	0x3da8d38d	0.08243475
79	0xbe36418d	-0.17798443
80	0x3e1e4ea3	0.15459685
81	0x4029967b	2.6498096
82	0x40184b35	2.3795903
83	0x3f4b46bb	0.794048
84	0xbf084633	-0.53232116
85	0xbe44ff14	-0.1923793
86	0xbda9dd12	-0.08294119
87	0xbe7d3f62	-0.2473121
88	0xbe2277bd	-0.15865989
89	0xbdf2b723	-0.11851337
90	0x3f793840	0.97351456
91	0xbebe28b5	-0.37140432
92	0x3ea36eeb	0.3192056
93	0x3e24d60b	0.16097276
94	0x3e0c5b46	0.13706693
95	0x3e9b2e18	0.30308604
96	0x3d17a688	0.03702405
97	0x3f196db1	0.59933
98	0xbb017025	-0.0019750681
99	0x3e6b518f	0.22980331
100	0x3dfdccd9	0.12392587
101	0xbc38259e	-0.011239437
102	0x3d479bfe	0.04873275
103	0x3d3d68df	0.04624259
104	0xbebe7edf	-0.3720617
105	0x3f7bee99	0.98410946
106	0x3be7b4fd	0.007071136
107	0x3c36aead	0.011150044
108	0x3e4181ea	0.18897215
109	0xbf3fc393	-0.749078
110	0xbf943a64	-1.158032
111	0xbc467ad3	-0.0121142445
112	0x3e2f9dbb	0.17150013
113	0x3df8388b	0.1212016
114	0x3d1937bc	0.037406668
115	0x3e515d16	0.20445666
116	0x3f622b84	0.8834765
117	0x3ee7f38b	0.45302996
118	0xbed38625	-0.41313282
119	0x3f886a92	1.0657523
120	0x3c7c5587	0.015401251
121	0x3d86a282	0.06573965
122	0x3e82bb2a	0.2553342
123	0x3eca8b00	0.39559174
124	0x3ebc92d6	0.36830777
125	0x3f5639c8	0.8368192
126	0x3f6a0cd0	0.914258
127	0xbe447d8b	-0.19188516
128	0x3e75313b	0.23944561
129	0xbd8f420f	-0.069950216
130	0xbf2ccd1c	-0.6750047
131	0xbefb3943	-0.49067125
132	0xbeb21bd3	-0.34786853
133	0x3d007ef2	0.031371064
134	0x3cb3a80a	0.021930713
135	0x3e9ea2e9	0.30983666
136	0x3e014dd2	0.12627342
137	0x3e440153	0.1914113
138	0x3e95714b	0.29187998
139	0x3e7c7926	0.2465559
140	0xbd5af52b	-0.053456467
141	0x3e94bde8	0.29051137
142	0x3e9a5ed2	0.30150467
143	0x3e9a88a6	0.3018238
144	0xbe6847c8	-0.22683632
145	0xbde87c8d	-0.11351881
146	0x3e9f63f0	0.31130934
147	0xbed2d166	-0.41175383
148	0x3e269456	0.16267523
149	0x3e1de48c	0.15419215
150	0xbe78cd3d	-0.24297042
151	0xbe251ee4	-0.16125065
152	0xbe20a64a	-0.15688434
153	0x3f100eb1	0.5627242
154	0x3df85c19	0.12126941
155	0x3ebb04be	0.36527056
156	0xbe05e79b	-0.13076632
157	0x3cd95c06	0.026533138
158	0x3e40d1c0	0.18830013
159	0x3e8ef7fe	0.27923578
160	0xbf264a03	-0.6495668
161	0x3da0ff29	0.07861168
162	0x3d7feff4	0.062484697
163	0x3cb88814	0.022525825
164	0x3d464f62	0.04841555
165	0xbe357d94	-0.17723686
166	0xbe6154b6	-0.22004971
167	0xbe829b48	-0.25509095
168	0xbecfdc18	-0.40597606
169	0x3bc36310	0.005962737
170	0x3dfe43a6	0.12415247
171	0x3e8ad7c3	0.27117738
172	0x3e73224c	0.23743552
173	0xbe053d56	-0.13011679
174	0x3efdf1e5	0.49598613
175	0x3da2daf0	0.07951915
176	0xbe9897c4	-0.29803288
177	0xbe4ebdab	-0.2018954
178	0x3eba32d4	0.36366904
179	0x3ab2f129	0.0013652194
180	0x3e3b3b5b	0.18284361
181	0x3f23654d	0.6382645
182	0xbef2abac	-0.473966
183	0x3c897815	0.016780892
184	0xbe8b4632	-0.27201992
185	0x3e305b32	0.17222288
186	0x3c876613	0.016528165
187	0x3e57432d	0.2102172
188	0x3f358ae4	0.70915055
189	0xbf144f8f	-0.57933897
190	0xbd4218d1	-0.047386948
191	0x3d996229	0.07489426
192	0x3d998ef9	0.07497973
193	0x3e44fe93	0.19237737
194	0x3cacbba0	0.02108556
195	0x3f866577	1.0499715
196	0xbe8b5783	-0.27215204
197	0xbc365820	-0.011129409
198	0xbeb0cab6	-0.34529656
199	0xbb3de203	-0.0028973825
200	0xbec1033f	-0.3769779
201	0x3eabec3c	0.3357867
202	0xbea5fe0b	-0.32420382
203	0xbebb620e	-0.36598247
204	0xbb5dfaf5	-0.0033871506
205	0xbe13c9bf	-0.14432429
206	0xbb9d2c35	-0.0047965297
207	0x3eb9e8e3	0.3631049
208	0xbd29f6a3	-0.041494977
209	0x3f035eac	0.5131633
210	0xbdc3b18b	-0.09555348
211	0xbe4a0e63	-0.1973205
212	0xbeaab1b9	-0.33338717
213	0x3e6ad67f	0.22933386
214	0x3e5e8725	0.21731241
215	0x3e7214ab	0.23640697
216	0xbe8fabb4	-0.28060687
217	0x3f1e8874	0.6192696
218	0x3e5a66b0	0.21328235
219	0xbbbf9a57	-0.005847256
220	0x3d39ea53	0.045389485
221	0x3e0c26fd	0.13686748
222	0x3e83af95	0.25719896
223	0x3f348cd0	0.7052736

short_term_context_network.fc1.bias f4 [32]
0	0xbea7ddb4	-0.32786334
1	0x3e9c3e4a	0.30516273
2	0x3ee31ee1	0.44359496
3	0xbe2f25ff	-0.17104338
4	0x3edb879e	0.42876905
5	0x3ebca113	0.3684164
6	0x3db53e23	0.08849742
7	0xbcf0adb1	-0.029379698
8	0x3deea133	0.1165184
9	0x3e812398	0.25222468
10	0x3e311dcc	0.17296523
11	0x3ec12de3	0.3773032
12	0x3f1f8df2	0.62325966
13	0x3f03c27c	0.51468635
14	0xbe013648	-0.12618363
15	0xbf1d3b90	-0.6141901
16	0xbdcfcbc4	-0.10146287
17	0x3dae03e9	0.084968396
18	0xbf28eec2	-0.65989316
19	0x3f1336c2	0.5750543
20	0xbea8ce38	-0.32969832
21	0x3f2c1d6d	0.672324
22	0x3e9247ac	0.28570306
23	0xbe7314fe	-0.23738477
24	0x3f38c504	0.7217562
25	0x3edcb70f	0.43108413
26	0x3f366d5b	0.71260613
27	0x3f3017ef	0.6878652
28	0xbdf60c06	-0.12014012
29	0x3f15abb4	0.58465123
30	0xbe7eba64	-0.2487579
31	0x3e8bca9c	0.27303016

short_term_context_network.fc2.weight f4 [16, 32]
0	0x3df6705a	0.12033148
1	0xbe472866	-0.19449005
2	0x3b9acdfa	0.0047242614
3	0xbacc0507	-0.0015565463
4	0xbe412f98	-0.18865812
5	0xbe2db252	-0.16962555
6	0x3d97b7f6	0.07408135
7	0xbe094420	-0.13404894
8	0xbd821310	-0.06351292
9	0xbd908908	-0.07057387
10	0x3c872218	0.01649575
11	0x3d82ef59	0.06393308
12	0x3de168a2	0.11006285
13	0x3c812f4c	0.015769623
14	0xbc7aacdb	-0.015300001
15	0xbc99a82c	-0.018756948
16	0xbd117ad4	-0.03551753
17	0xbd386efa	-0.04502771
18	0xbdf37467	-0.11887436
19	0xbe3169d4	-0.17325526
20	0x3c602e50	0.013682917
21	0x3e033f8c	0.1281721
22	0xbdde2236	-0.10846369
23	0x3d9fa52e	0.077951774
24	0xbdef3905	-0.116807975
25	0x3db7e71e	0.08979629
26	0x3db75c89	0.089531966
27	0x3d1c88fb	0.038216572
28	0x3da061f2	0.078311816
29	0x3e05e4fa	0.13075629
30	0x3cfaf901	0.030636312
31	0x3c49109a	0.0122720245
32	0xbd0f2d03	-0.034955036
33	0xbdf4e4a4	-0.11957672
34	0xbde1343b	-0.1099629
35	0x3db28e8b	0.08718594
36	0xbc6b8b81	-0.014376522
37	0xbe3603c6	-0.17774877
38	0xbcac8490	-0.021059304
39	0xbd649cd2	-0.055813618
40	0xbb11e014	-0.0022258805
41	0xbe32a313	-0.1744502
42	0xbdff96a2	-0.12479903
43	0x3d82c49c	0.063851565
44	0x3e3451f2	0.17609385
45	0x3e12049d	0.14259572
46	0xbdd33b79	-0.10314078
47	0x3de8cd84	0.11367324
48	0x3e13584c	0.14389151
49	0xbd5da90d	-0.054116298
50	0x3ce7c0c4	0.02829016
51	0x3e199942	0.1499987
52	0xbd7d926a	-0.06190721
53	0x3cd0db86	0.025495302
54	0xbc801be1	-0.015638294
55	0x3d99ee38	0.0751614
56	0xbe117619	-0.14205207
57	0x3c4816cd	0.012212467
58	0xbe0ca3b3	-0.13734321
59	0xbd78540f	-0.06062704
60	0x3dd8abfc	0.105796784
61	0x3d79187c	0.060814366
62	0xbe167f82	-0.14697078
63	0xbd401ce0	-0.046902537
64	0x3e10ba64	0.14133602
65	0xbe2b7a2e	-0.16745827
66	0x3d83ab9a	0.06429215
67	0xbdb318b4	-0.08744946
68	0xbddabc7a	-0.1068048
69	0xbe0c8ed0	-0.13726354
70	0x3c1f25a3	0.009713563
71	0x3ea82bb0	0.3284583
72	0x3e37d743	0.1795321
73	0x3b2ca674	0.002634433
74	0xbd2599b2	-0.04042978
75	0xbdcd1a62	-0.10014798
76	0xbe955a4c	-0.29170454
77	0xbc98b6ba	-0.018641818
78	0xbccde1ed	-0.025132144
79	0xbc4afe25	-0.012389694
80	0xbcbc9493	-0.023020064
81	0xbe8d0d82	-0.27549368
82	0x3e350b1d	0.1768002
83	0x3e1f4668	0.15554202
84	0x3e059404	0.13044745
85	0xbedc1410	-0.42984056
86	0x3e07fa7a	0.13279143
87	0x3dd7f144	0.10544065
88	0xbe30e786	-0.17275819
89	0xbe67100b	-0.22564714
90	0xbc8a3a62	-0.016873542
91	0xbd7ead74	-0.062177137
92	0x3d12f03d	0.03587364
93	0xbdde0fbb	-0.10842844
94	0x3da7d845	0.08195547
95	0xbe48c03a	-0.19604579
96	0x3cbde252	0.023179207
97	0x3ce439d2	0.027859602
98	0xbc2a0ff5	-0.010379781
99	0x3df48f00	0.119413376
100	0xbcdc5092	-0.026893888
101	0x3dc77f34	0.09741059
102	0x3c19d7d0	0.009389833
103	0xbe251abd	-0.16123481
104	0xb950dc5e	-0.00019918519
105	0x3cadade4	0.021201082
106	0xbd4df3d9	-0.05028138
107	0xbe01b74d	-0.1266758
108	0x3d2bf758	0.041983932
109	0xbe23ed74	-0.1600855
110	0xbddb43f0	-0.107063174
111	0xbdf6e607	-0.12055593
112	0xbd9422c1	-0.07233191
113	0x3d3113ea	0.043231882
114	0x3da50bce	0.08058892
115	0xbe1cb796	-0.15304407
116	0x3dfdb557	0.123881035
117	0x3e064af4	0.1311453
118	0xbdc0c583	-0.09412672
119	0xbda65c17	-0.081230335
120	0xbe35e045	-0.17761333
121	0x3d7c1dcf	0.061551865
122	0xbe593381	-0.21211053
123	0xbdfc8112	-0.12329306
124	0xbe25fae4	-0.16208988
125	0x3d690789	0.05689195
126	0x3e1621e3	0.14661364
127	0xbdb1d3cb	-0.086829744
128	0xbd8993dc	-0.06717655
129	0x3f0f88dc	0.56068206
130	0x3f948044	1.1601644
131	0x3deab7ef	0.11460864
132	0x3f4d4dc7	0.80196804
133	0x3ee79c8a	0.45236617
134	0xbd183896	-0.03716334
135	0xbdf78058	-0.120850265
136	0x3dff7031	0.12472571
137	0x3f4bf2f4	0.7966759
138	0x3f35809c	0.7089937
139	0x3f70ec64	0.94110703
140	0x3f0050f0	0.501235
141	0x3edba9ee	0.42903084
142	0xbdfa5ecc	-0.12225112
143	0xbf2b415d	-0.6689661
144	0x3ed2b1d4	0.41151297
145	0x3e8cdd54	0.2751261
146	0xbf1d231d	-0.61381704
147	0x3e94626b	0.28981337
148	0xba7588e1	-0.0009366405
149	0x3f5f1644	0.8714335
150	0x3e197837	0.14987265
151	0x3e17789a	0.147921
152	0x3f304d47	0.68867916
153	0x3eac1ed5	0.33617273
154	0x3f1e036c	0.6172397
155	0x3f150d78	0.58223677
156	0x3e580c14	0.21098357
157	0x3f13fa57	0.57803863
158	0x3ce5f43b	0.02807056
159	0x3eca51a2	0.39515406
160	0x3db7ddc7	0.089778475
161	0xbe110c20	-0.14164782
162	0xbe3fb062	-0.18719628
163	0xba56f5e1	-0.0008200091
164	0xbb85dc77	-0.0040851193
165	0x3de39d0b	0.11113938
166	0xbc3341e7	-0.010941005
167	0xbe53d5ee	-0.20687076
168	0xbdfa28c0	-0.12214804
169	0x3e181cf0	0.14854789
170	0xbd2b8096	-0.041870676
171	0xbe1978ce	-0.1498749
172	0xbe514a4b	-0.20438497
173	0x3dbab534	0.09116593
174	0x3b8b4b65	0.004250931
175	0xbde8e3b7	-0.11371558
176	0xbd88e7f4	-0.066848665
177	0x3d8bfddf	0.068355314
178	0xbd1c3553	-0.03813679
179	0xbd834f9c	-0.06411669
180	0xbb466b3a	-0.0030276314
181	0x3de459c2	0.111499324
182	0xbde6bf1e	-0.112669215
183	0xbe2fd2bb	-0.17170231
184	0x3d9e7b65	0.077383794
185	0x3db2d61f	0.087322466
186	0xbdb3ccbc	-0.08779284
187	0x3daf542a	0.08560975
188	0xbe081ef2	-0.13293055
189	0x3df05256	0.11734454
190	0xbe1b8c49	-0.15190233
191	0xbe1510d6	-0.14557204
192	0xbe0729e6	-0.13199577
193	0xbe08d283	-0.13361554
194	0x3e1f075d	0.15530153
195	0x3de97a96	0.114003345
196	0xbe4c45a5	-0.19948442
197	0xbe6542cb	-0.22388761
198	0xbe342f4b	-0.17596166
199	0x3e558e18	0.20854986
200	0x3e0720bb	0.1319608
201	0xbe39cb44	-0.18143946
202	0x3e1494d7	0.14509903
203	0xbd7a2e5f	-0.06107938
204	0xbe537b04	-0.20652395
205	0xbe1c6eee	-0.15276691
206	0xbda699c1	-0.08134795
207	0x3cdb0e73	0.026740288
208	0x3d0bb20e	0.034105353
209	0xbe9df450	-0.30850458
210	0x3d482a81	0.04886866
211	0xbdeeab96	-0.11653821
212	0xbac4f714	-0.0015027248
213	0xbda511ba	-0.08060022
214	0x3d516742	0.051123865
215	0xbdb7779d	-0.08958361
216	0x3e048edc	0.12945122
217	0xbe287a27	-0.16452847
218	0xbdcc5d82	-0.09978773
219	0xbcae1ebf	-0.021254895
220	0x3cdfda39	0.027325736
221	0x3c8d46c3	0.017245656
222	0xbc0faa7a	-0.008768672
223	0xbe19c7ae	-0.15017578
224	0xbe1829cb	-0.14859693
225	0x3f3bcb9e	0.7335757
226	0xbf8dd10f	-1.1079425
227	0x3e0f7f1a	0.14013329
228	0xc0148d8f	-2.32114
229	0xbfb30c8b	-1.3988203
230	0xbe2478de	-0.16061732
231	0xbe619f4f	-0.22033428
232	0xbd9da191	-0.07696832
233	0xbf727817	-0.9471449
234	0xbf43ec5c	-0.7653253
235	0xc01b3e11	-2.4256632
236	0xc0238e99	-2.5555785
237	0xc0298696	-2.6488395
238	0x3e21a72e	0.1578643
239	0x3fb6dca7	1.4286088
240	0xbf9687bd	-1.1760174
241	0x3f8eb7ee	1.1149881
242	0x3fb28597	1.3947018
243	0x3e39c29b	0.18140642
244	0x3c3c98fc	0.011511084
245	0xc029ff83	-2.6562202
246	0xbf3d42f9	-0.7393032
247	0xbdd68b6d	-0.10475812
248	0xc0233654	-2.550191
249	0x3e90cc02	0.28280646
250	0xbfdc3dd8	-1.7206373
251	0xc02906c9	-2.6410391
252	0xbe2ee7d0	-0.17080617
253	0xbfdb66e9	-1.7140781
254	0xbe4d602b	-0.20056216
255	0x3f65613d	0.896015

short_term_context_network.fc2.bias f4 [16]
0	0xbdbc061a	-0.09180851
1	0xbe3348b1	-0.17508198
2	0x3db7cf24	0.08975056
3	0x3dc857cb	0.0978237
4	0x3ee09149	0.43860844
5	0xbc77c216	-0.015121957
6	0x3daa63fc	0.08319852
7	0xbcf5d02b	-0.030006489
8	0xbdabe2d5	-0.08392874
9	0x3e2c37ad	0.16818114
10	0x3e8bf845	0.27337852
11	0x3edacbac	0.42733514
12	0x3db5305c	0.088471144
13	0x3ecf8f56	0.40539044
14	0x3d3b2648	0.045690805
15	0x3de6b0b1	0.1126417

short_term_context_network.fc3.weight f4 [1, 16]
0	0xbe64ebff	-0.2235565
1	0x3e5d1aa4	0.21592194
2	0xbe6a45bf	-0.22878169
3	0xbe0ab5a0	-0.13545847
4	0x3f2b09bb	0.6681172
5	0xbdec67d5	-0.11543242
6	0xbe9343c0	-0.28762627
7	0xbffe1394	-1.9849725
8	0xbbf7d772	-0.007563525
9	0xbe8f87de	-0.28033346
10	0x3f6c86dc	0.9239328
11	0x3f306587	0.6890492
12	0xbd74ba62	-0.05974806
13	0x3f7df65f	0.9920406
14	0xbe288368	-0.16456378
15	0x3e477910	0.19479775
