Uni_Research/IRL/Final/Extended/old/V3/V3_demo1/Testing_Suite/model_C1000_R10000_S10.0.pth (torch, 91353 bytes, 11 tensors)

main_network.lstm.weight_ih_l0 f4 [256, 15]
00000000: 201b b1bd 2d7e 813d d794 66bd 3eb0 3f3d
00000010: a10f 053c 93e3 8dbc 500e b1bd 25ad f63c
00000020: 3fef b53d 18d6 753d 74e9 81bb 9377 65bd
00000030: 790e b9bd cd79 c63c 9ea1 2ebe e470 c8bc
00000040: 9ed6 43bc 5a9a 3bbe 272d 133e 6fa4 e9bc
00000050: ed0e 81bd 0067 563c 2e51 58bd a168 25bd
00000060: 4e45 113d a998 5ebd 3096 163d 1838 fd3c
00000070: b50d 7bbd f418 acbd a4bd 023e 49f0 613d
00000080: 5cc5 003d 4d66 d63e 4371 eb3d 193e 733c
00000090: 6a3d 1cbe 4500 1b3d 8bc5 4d3e 348e 21bc
000000a0: a245 32bd d389 203e 5f6d 273d 4167 6b3e
000000b0: eb04 a1bc 4cae 0dbe 7af2 15be 5b68 bbbb
000000c0: ceb8 433e 3fb0 47be d6db 55bc 8a3c 16be
000000d0: 2fd8 35be dd93 39bd f6f7 18be ad29 5fbe
000000e0: 5d9a 18bd b482 7dbe ef8d a1bd 04d2 bebd
000000f0: 7dfa 68be a958 85be 02cd 4cbe fed7 5a3c
00000100: d580 1cbe a824 283c 6b15 28be c377 22be
00000110: a31f 4cbe 09f3 0cbe 841f 31be 780c 0abe
00000120: 71df 15be ab2e 1cbe bde1 3ebe fe0b 4abe
00000130: 3860 6cbe 1231 7b3d d577 283e b699 8cbe
00000140: e7f6 16bd 9c10 60be 3888 e4bd 56d0 c7bd
00000150: db28 863d f179 efbd 3312 0ebe b0ab 32bd
00000160: 45ab cfbd dff7 59bd 643a b53b 2e34 293e
00000170: 49ea df3c 04fe 9dbd 03e0 2e3e 7d8e 313d
00000180: ac64 e33c b984 9bbd 8c7d 6b3e e50b 7abe
00000190: b0e8 dfbd 05aa 153e d6d4 2bbd 5e33 0b3e
000001a0: 5d31 363d f65f c43d 6f99 953d b242 053e
000001b0: b553 b9bd c683 223e 7325 45bd f84d 55bd
000001c0: 1554 cf3d d345 cb3d 5c88 2fbd 57c4 06be
000001d0: 72be 40be 6c1b ee3d d646 37bc 7e03 01be
000001e0: 2080 0e3d 6257 33bd 6a46 ebbc 6573 c43d
000001f0: addd 5e3d ffcd 55bd b016 0ebe 1ef2 9ebd
00000200: 5121 e53c 6df8 b8bd cf2f 15bd e4e5 8bbd
00000210: 23c2 01be 3171 57bc c621 633d 912f 83bd
00000220: 887f 233d 0e76 c8bc 6be1 e03d 9a99 19be
00000230: e6c8 d3bd 397b d33d 246b 3fbd 5e0c 0cbd
00000240: e701 3cbc cee2 e2bd b0a0 983d 0b7a 09bc
00000250: dc5a 7fbd 832d 2cbe 8be5 d2bc bbdd 3cbc
00000260: cb8b e1bc 39fb 1d3e f758 b7bc 31a8 9b3d
00000270: 25c0 4b3d c54e 273e 44d2 8abd bec4 773d
00000280: 0000 43bd 3b09 afbd 8ea0 bb3d d9db dd3d
00000290: 1d06 bd3d d00e f4bb 03e3 1dbd 9fa1 d23d
000002a0: 2d04 af3e 6779 4abc 5e0f 8ebc 9966 c63d
000002b0: 6e77 1d3d 7d76 2bbd 0443 ac3d 089d d13c
000002c0: d7b0 273e 9b8d 2fba 9b3d a93e 1301 a2bd
000002d0: 9828 5b3b ce54 143d 3e40 c13d 05fb 953e
000002e0: 13ca 8f3d 3aa8 d13c e4a6 b13d df05 babc
000002f0: 37b7 1cbd 9802 c93d 2a7e 9cbd 33ea f1bd
00000300: 3b97 4b3d 0159 ca3d 4ba7 5e3d b4d1 febd
00000310: 45a5 39be 4219 f7bc 5f39 943e c1dc d7bc
00000320: 9177 21be 8128 0bbe e466 99ba 641d 01be
00000330: fe20 463c 945c a03d 7c4b edbd b864 9fba
00000340: bb90 103e f8a1 89bc d1aa 9bbd ae4e 02be
00000350: d666 0e3c 7920 cd3d b0e2 de3d 3778 c2bd
00000360: ba5a a1bc 5eb1 9fbc 5b22 16be 3a9e d03d
00000370: 7f74 2ebe eefd 2abe 4a53 04be 287a febd
00000380: 20aa debc 4288 c23d ff92 72bd dbfd e33c
00000390: fccd 723e 9207 f73d 9a4d babd c235 463e
000003a0: 645b 1bbe dbe4 08be ecbb 243e 6831 973d
000003b0: 43f2 1dbe 755f 193d e0fc d33d 6b50 993c
000003c0: 2890 f2bd 67f1 a8bc a35c 3ebe 2132 85bd
000003d0: c437 3cbb 1a84 1abd 15bb 8ebd c45f 3c3c
000003e0: 5b31 36bd 8413 c7bd 7105 53bd 591a c1bc
000003f0: 3b1a 15bd f4e0 9c3d 4d6d 6ebd 8911 223d
-0.08647752 0.06322894 -0.05629429 0.046798937 0.008121402 -0.01732043 -0.08645308 0.030111859
0.08883523 0.06001863 -0.0039645974 -0.056022238 -0.090359636 0.024228001 -0.1705384 -0.024467893
-0.011953024 -0.18320599 0.14372693 -0.02852079 -0.06301675 0.013086081 -0.052811794 -0.040382985
0.035466485 -0.054344807 0.036764324 0.030910537 -0.06129237 -0.08403197 0.12767655 0.055160794
0.031438217 0.41874924 0.11496212 0.014846348 -0.15257803 0.037842054 0.20094888 -0.009860564
-0.04352344 0.15677576 0.04087579 0.22988607 -0.019655665 -0.1383602 -0.14643279 -0.0057192273
0.19113466 -0.19500826 -0.013052901 -0.14671531 -0.17758249 -0.04530703 -0.1493834 -0.21793242
-0.037256587 -0.2475689 -0.078884 -0.09317401 -0.22751804 -0.26044205 -0.2000008 0.013357161
-0.1528352 0.010262646 -0.1641442 -0.15865998 -0.19933943 -0.13764586 -0.17297179 -0.13481319
-0.14636017 -0.15252177 -0.186408 -0.19731137 -0.2308358 0.061326094 0.16451962 -0.27461022
-0.03685656 -0.21881336 -0.11158794 -0.09756534 0.06550761 -0.1169318 -0.1387413 -0.043620765
-0.10140089 -0.053214904 0.0055306423 0.16523811 0.027333396 -0.07714465 0.17077641 0.043348778
0.027757965 -0.07593674 0.22997111 -0.244186 -0.109330535 0.14615639 -0.041951023 0.13593814
0.04448067 0.095886156 0.07304656 0.13013723 -0.09049169 0.1587058 -0.048131417 -0.05207631
0.10123459 0.09925427 -0.04285465 -0.13160835 -0.18822649 0.11626324 -0.011186322 -0.12598988
0.03479016 -0.043784507 -0.0287201 0.09592322 0.054410625 -0.052198406 -0.13875842 -0.07761024
0.027969988 -0.090317585 -0.036422547 -0.068309575 -0.12671714 -0.0131495455 0.05545213 -0.06405557
0.039916545 -0.024470355 0.10980495 -0.15 -0.10341053 0.10326237 -0.046733037 -0.03419148
-0.011475063 -0.11078416 0.07452524 -0.008390914 -0.06234251 -0.16814236 -0.02574422 -0.011527474
-0.027532479 0.15427865 -0.022381289 0.07600439 0.04974379 0.16338642 -0.06778386 0.060490362
-0.047607422 -0.085466824 0.09161483 0.10832948 0.09229682 -0.007448055 -0.038546573 0.10284733
0.34182873 -0.012358046 -0.017341312 0.09687538 0.038443975 -0.041861046 0.0841122 0.025587574
0.16376053 -0.0006696821 0.33054814 -0.07910361 0.0033440944 0.03621369 0.09436081 0.29293075
0.070209645 0.025592912 0.0867441 -0.022707878 -0.038260665 0.09814948 -0.076412514 -0.11812248
0.04970477 0.098802574 0.05435876 -0.124423414 -0.18129452 -0.030163411 0.2895002 -0.02635038
-0.15768267 -0.1358967 -0.0011703637 -0.12608868 0.012092827 0.07830158 -0.11586663 -0.0012160754
0.1411771 -0.016800866 -0.0760094 -0.12725326 0.00869151 0.10015959 0.10883081 -0.094955854
-0.019696582 -0.019493755 -0.14661543 0.10186429 -0.17036627 -0.16698429 -0.12922397 -0.12425643
-0.027180731 0.09498645 -0.059222218 0.027831009 0.2371139 0.12061991 -0.090968326 0.19356444
-0.15171582 -0.13368551 0.16087312 0.0738247 -0.15424447 0.03744455 0.103509665 0.018715104
-0.11843902 -0.020622922 -0.18590026 -0.06503702 -0.0028719762 -0.037723638 -0.06969277 0.011497442
-0.044480663 -0.09720519 -0.05151886 -0.023572134 -0.03640197 0.07660094 -0.058209706 0.039567504

main_network.lstm.weight_hh_l0 f4 [256, 64]
00000000: 102c fbbd bc9d e6bc e83b 36be 5f41 b43d
00000010: b0a9 173d 234f f8bc e089 123e 9332 3abe
00000020: 2314 7dbd 2ee0 c1bd aa5d d1bc e5b9 a63d
00000030: 760b 523c cbbb 013e 4f36 fe3c 35cc e3bc
00000040: 4f4c 71bd cefd 7c3d 7445 bb3d 1d97 4fbd
00000050: f140 36bd 83f2 28bd 6b6b 343d 37d6 8c3c
00000060: 6f5d 9dbd 465f 21be e444 0f3e 5e61 21bd
00000070: f2e8 bd3e 92f5 c3bb a163 a33c c21d 14be
00000080: 286f 5ebd 1c92 adbc 2035 4ebd 1fce d8bc
00000090: 137b f63d 8e6b a53d a5c6 c6bd 8a91 8a3e
000000a0: c2f1 82bd 7efd d13d 61f6 69bd 7b5e 84bd
000000b0: 549c 6cbd 8cc9 1a3e e8a1 103d 2702 583e
000000c0: 45cd 403a 2da5 de3c 70f0 683d ee91 62bc
000000d0: e686 293e 1c22 9c3d ea85 95bd d21a 623d
000000e0: 3c37 e1bc 9496 973d 84da 013e 210d 16be
000000f0: 6ecb 12bd 9f09 1b3d f5a0 023e f37e c83c
00000100: 92a6 9d3d 87b2 97bc 59a7 3fbd b98e 8fbd
00000110: 7aaf 323e 3c5a 063d 42db 6f3e 9fd9 a1bd
00000120: 459a 5fbd 2db3 943c f49f 063c dc6c 6cbc
00000130: 9f48 303d 651d 4d3d 91eb 17be ccd0 4a3b
00000140: c5b2 52bc 732a 94bc d74a cdb9 7041 88be
00000150: b52c 4f3d 0406 42bd ec82 01be 9d76 30bd
00000160: 967d c2bc ec17 a73d 5689 1fbc 16bb 1abe
00000170: fd17 133e 2347 03be 2377 9abd fe3f 77bd
00000180: 5e8c 06bd 78e2 103e b91f 6ebd 462f 2c3d
00000190: 18d6 993d de87 ce3b 7321 05be 7068 8ebc
000001a0: 7e58 b13d 0c7f 253d d613 023e 4267 f63d
000001b0: 4794 5ebe 4c67 c8bd 1a32 a9bc 1a10 013d
000001c0: 6ec1 9c3c 90f2 cfbc 1a6c dabd fcca 3ebe
000001d0: af0d 483d 0b6e 3c3d 583f fabc c31d 2d3d
000001e0: 8a4c 163e 06f5 94bc 5a9f 813b 98d0 673d
000001f0: 453a 1abd 44fc 593e 6f4b a43d 54a1 be3d
00000200: 3a40 163b 8b02 0a3e 1833 b33d b0c9 483e
00000210: 8171 68be a5fb ab3c 2ed7 b5be 798a aabd
00000220: 24dc 543c 6af3 6a3e cc02 1cbe 4eee d03a
00000230: 1cf1 023e a2e5 7f3e 888c 293e 8e65 533d
00000240: 34e5 68bd 4084 6bbe 4748 6b3d b2fb 723e
00000250: c3de 3cbe ce88 133e 0583 6fbd a90b b7bd
00000260: 3b61 a83d 74ea bb3d b019 973d 0945 16bd
00000270: 4689 fcbd cb15 223d c3a0 13be ac01 75bd
00000280: 5862 693d daee eabc a024 62be 8857 073d
00000290: 63d8 383e 010b 043e 47f5 2b3e bf8c 86be
000002a0: 335b 2dbd 8742 64be 46ce 0ebe 67c4 f3bd
000002b0: 8e4d 1e3e 0fe7 473d 481e 193e 742d 3ebe
000002c0: e3cc 02be 6f89 5b3e 5d26 42bc b17b 45bc
000002d0: 7502 a9bc 09fd fabd 8496 003e 3bec 303e
000002e0: a582 ebbd b655 11bd 37cb d5ba f6f1 bc3b
000002f0: c4de 173e fb55 8cbe 3d5c 893e 89b9 1ebe
00000300: d930 48bd f71c 82bd 66da 09be 3239 343e
00000310: d5eb 9ebd dd71 733d a990 bfbb 6d7d 37be
00000320: 6641 f93d c4ac 0c3d 51c3 bbbc e4af 8b3d
00000330: 6a3d febc 7eeb eb3d 4821 153e b70d b63d
00000340: dd65 c73d 804c e33c 456a 00bd 0524 4c3e
00000350: e437 843d d375 a23c 7ff8 5b3d 5322 07be
00000360: f287 4cbd 7ab4 93bd c410 bc3d d0fa 343d
00000370: 5812 99bc a050 ac3d a00b dbbd 3fe7 22be
00000380: 50fb adbc 78db d03d 2155 65bd 5c96 9bbd
00000390: 9559 fa3c fa8d 963d a393 083e 18f0 0abd
000003a0: a5a0 2ebe 7f75 133d cb8f 733d 2dec 42bc
000003b0: 8bb7 0a3e 32c7 153e ca64 d63d 1c63 67be
000003c0: 8737 08bd 0053 b03c b265 673e f594 0f3d
000003d0: 66aa dbbc ba8d d2bd 2897 1b3e 9029 043e
000003e0: b0a6 b6bd 2f42 29bd d84b 093e 11e7 2ebe
000003f0: c16d 83bd 4e50 75bc 8b5f 3b3e 9403 d7bc
-0.12264264 -0.028151385 -0.1779629 0.08801531 0.03702706 -0.030311173 0.14310408 -0.18183355
-0.061786782 -0.09466587 -0.025557358 0.08140925 0.012820115 0.12669294 0.031031756 -0.027807334
-0.058910664 0.061765485 0.091441065 -0.050681222 -0.044495527 -0.041246902 0.044047754 0.01719199
-0.07683837 -0.15759 0.13991123 -0.039399497 0.37091786 -0.005980202 0.019944968 -0.14464477
-0.054305226 -0.021187834 -0.050343633 -0.026465474 0.12035193 0.08077155 -0.09705857 0.27064162
-0.06393768 0.10253428 -0.05711973 -0.06463333 -0.057766274 0.15115947 0.035310656 0.21094571
0.00073548063 0.027178371 0.056869924 -0.013828738 0.16555366 0.07623693 -0.07300933 0.05520136
-0.027492158 0.074017674 0.12681013 -0.14653446 -0.035838537 0.037850972 0.12756713 0.024474597
0.076977864 -0.018517746 -0.046790455 -0.07009644 0.17449751 0.032800898 0.23423484 -0.07902836
-0.054590482 0.018151844 0.008216847 -0.014430251 0.043038007 0.05007686 -0.14835955 0.0030947207
-0.012860005 -0.018086648 -0.00039156407 -0.26612425 0.050579745 -0.04736902 -0.12647599 -0.04308187
-0.023741525 0.081588596 -0.009737333 -0.1511043 0.1436462 -0.12820105 -0.07542255 -0.060363762
-0.03284871 0.14148891 -0.05813572 0.04203727 0.07511538 0.0063028177 -0.13001041 -0.017383784
0.08659457 0.040404364 0.1270288 0.120314136 -0.21736251 -0.09785327 -0.020653773 0.031509496
0.019135203 -0.025384218 -0.1066515 -0.1863212 0.048841175 0.046003383 -0.030547783 0.04226471
0.14677635 -0.018183243 0.0039557638 0.056595415 -0.037653226 0.21287638 0.080222 0.09308115
0.0022926466 0.13477533 0.0874998 0.19608188 -0.22699548 0.020994017 -0.35515732 -0.08327193
0.012991939 0.22944418 -0.15235442 0.0015940161 0.12787288 0.24989942 0.16557515 0.051610522
-0.05685921 -0.22999668 0.057441976 0.23728827 -0.18444352 0.14407656 -0.05847456 -0.08937771
0.0822167 0.09175578 0.073779464 -0.03668693 -0.1233087 0.039571565 -0.14416794 -0.059816048
0.056978554 -0.028678346 -0.22084284 0.03304246 0.18051295 0.12894823 0.16792785 -0.26279256
-0.042323302 -0.22291003 -0.13945875 -0.11902695 0.15459272 0.04880434 0.14952958 -0.18572026
-0.1277347 0.21439146 -0.011849967 -0.012053416 -0.020631054 -0.12255294 0.12557417 0.17277615
-0.11499528 -0.03548213 -0.0016311173 0.0057661487 0.14831072 -0.27409348 0.26828185 -0.15500464
-0.04887471 -0.06353181 -0.13462219 0.17599943 -0.07759825 0.05943476 -0.0058461023 -0.1791894
0.12170677 0.03434445 -0.022920283 0.06820658 -0.031035144 0.11519526 0.14563477 0.08889335
0.09736226 0.027746439 -0.031351347 0.19935615 0.06455973 0.019831574 0.05370378 -0.13196687
-0.049934335 -0.072121575 0.09182885 0.044184506 -0.018685505 0.084138155 -0.10695577 -0.15908526
-0.021238 0.1019811 -0.05598939 -0.07597038 0.030560294 0.07351299 0.13337569 -0.033920377
-0.17053469 0.036000725 0.059463304 -0.011897129 0.13546579 0.14626768 0.10468443 -0.22596401
-0.03325608 0.021523952 0.22597387 0.035054166 -0.02681465 -0.102809384 0.1519438 0.1290648
-0.08918512 -0.041322883 0.13407838 -0.17080332 -0.06417418 -0.014972759 0.18298166 -0.026246823

main_network.lstm.bias_ih_l0 f4 [256]
00000000: 1360 b9bd 70f7 02be 5395 093e 83a3 323d
00000010: 6a65 b4bd a7fa f1bd e269 be3a 466d 61bd
00000020: be4e 2ebc 134b 3b3e b421 7cbd 161b c03c
00000030: c3d0 c43d a8ff bd3d 9c1b 0f3e 9183 a53d
00000040: 9711 8fbc 2ed6 1a3e 6e1c b53d 6f31 3ebe
00000050: aea0 b8bc 5893 b83d 56be 16be 6424 813d
00000060: cdd8 abbd 4a51 f1bc 0f7a 1bbd e49d bd3d
00000070: 9402 a13e 439c 41bd 7227 19bc a36a 7d3d
00000080: 98a2 f63d 2eb8 52bd faee 983c c92a 903b
00000090: 9c1c 1d3d 3f1d 9cbc f536 ff3d 2433 1a3e
000000a0: f70b b23d 0cbc 993d c910 04be 7598 6b3e
000000b0: e6a9 6f3d 0a5c db3d 10a8 71bd e4ff 9a3d
000000c0: 55d7 4b3e fded fc3d bfa3 333b 862f de3c
000000d0: ba90 843d 0bb4 b4bb 931c ec3d f3d5 0a3e
000000e0: 823b 40bc d8cc b53c 4b0d 67bd da5e 733d
000000f0: 55a1 80bc 9c37 123e c1fb bb3d 3a14 903d
00000100: fc71 2abd 620b 22bd 54c8 97bd 5688 df3d
00000110: 2768 933d 96f8 d53c 9e77 553d b92e e1bd
00000120: 08f2 0abd afa0 b4bd d3e1 d03d ce20 c83c
00000130: 14c8 123d 2e2d d43d 92e6 1d3e 3d2c 013d
00000140: b74a 8abd b4f1 903d d047 c83c c237 8bbd
00000150: 787e 4f3e f86f c23d dca8 dc3d 3424 113d
00000160: b856 35be ed15 39bd 9e07 e4bc 44c4 9abd
00000170: bd80 d13d bdc2 4cbd bc73 0cbe 060b 353d
00000180: 6c6f aabd f514 a2bd 721f c73d fe12 1bbd
00000190: cfdc 39bc 61a4 3abd a368 593d 1d3c 08bc
000001a0: 24bf 79bd dffe 93bd 134a af3d 4b81 cbbd
000001b0: c9d0 8c3d 62e2 23be b98b feb9 3d55 f5bd
000001c0: 46f7 2d3d b6e0 e2bd ac2f 24bd a665 20be
000001d0: ff80 393d 22f9 373e d576 8a3c 0c27 83bd
000001e0: c4f6 c23c bf39 86bd 1ec7 853c 384c e3bc
000001f0: a2ca ac3d 024e c0bd ce00 18bd 7929 3cbc
00000200: 967e 1239 7934 9b3d ecca f3bc e641 91bd
00000210: d16f 363d c008 0abc bd20 f43d 8747 6bbd
00000220: a4ce 1d3d 6f7b b03c 5d5f a73d 00eb 603d
00000230: 0745 143e 185d 8c3d 47fb 033d e684 933b
00000240: f74e 19bd d7ec 33be d447 9abd 1c80 5dbd
00000250: a905 b6bd 83dc 0dbd 9492 d2bc 60c5 173e
00000260: 125d 933d a810 1abd c536 383d 71a0 be3c
00000270: 22f3 1dbe 44b6 90bd bb22 c73d 4318 09bc
00000280: 3c20 2e3e 6630 50bc 7327 14be fff8 c13d
00000290: 0de0 d73d 8d7e 5c3c a73c fb3d 8346 c3bc
000002a0: 8b2b ddbd 0847 b23d 5475 22bc 876e d3bd
000002b0: a7f4 c23c 7d59 b03c 975f 153e 5590 35bd
000002c0: dc2f 0fbe e0c0 283e 524a 80bd ca6e b7bc
000002d0: ec95 1abe 339c e9bd 2ec8 5ebc 070a 0ebe
000002e0: f82f bebd 1ee4 613d 05ff bcbd 5635 f73d
000002f0: 09d6 d63d 2d32 aabc c754 58bd 4287 a3bd
00000300: 0914 953b 615d b63d b301 d23d 50a9 773c
00000310: e003 903c 5851 06bd 0fd9 123c 955b a6bd
00000320: 5faa 783d 609f 373e 84f5 b6bd 520a 763d
00000330: 43ff 07bd a285 883d 1efc edbc 7fee b03d
00000340: 8580 b2bb 9417 163c 5884 e2bd 378b 5dbc
00000350: 95ac 0b3e 5fe3 d5bd 081a c4bd 6509 7ebd
00000360: 4dee cb3d 5b77 b83b b273 d1ba 0550 8d3d
00000370: ff76 143e cb0b 953d 7867 db3d d435 8ebd
00000380: ad81 56bb e54c 393c fad3 c03d cc6f 033e
00000390: f6e4 4f3c 61a0 f0bd 6acc 1a3e 2477 323d
000003a0: 01ed 223e 0173 91bc fefd 003d 692c 823e
000003b0: c800 0b3d a6c4 b83d e703 c73d 0778 0cbc
000003c0: 4e04 8a3c 9ddb dd3d d144 2c3e f5f9 873d
000003d0: 6a01 de3d 496d 383e 5701 093e 3438 22bc
000003e0: 73bf 0c3e 025b 103e 4225 ec3d d23c c3bd
000003f0: 871c 00bc d45a c93d 8d49 0e3e 9d07 5f3e
-0.09051528 -0.12789702 0.13435869 0.04361297 -0.08808406 -0.11815386 0.0014527405 -0.055035852
-0.010638891 0.18290357 -0.06155558 0.023450416 0.09610131 0.09277278 0.13975376 0.08081735
-0.017464442 0.15120766 0.08843313 -0.18573545 -0.022537556 0.090124786 -0.14721045 0.06305769
-0.08390961 -0.029457707 -0.0379582 0.09258631 0.3144728 -0.047268163 -0.009347783 0.061869275
0.12042731 -0.05144518 0.01866864 0.0043996316 0.038357362 -0.019056914 0.12461654 0.15058571
0.08693688 0.0750657 -0.12897028 0.23007376 0.058511637 0.107109144 -0.058998168 0.075683385
0.19906361 0.1235008 0.0027410833 0.02712227 0.06472917 -0.005514627 0.115288876 0.13558178
-0.011732938 0.022192404 -0.05640916 0.05941663 -0.01570193 0.14279026 0.091788776 0.07035108
-0.04161261 -0.039561637 -0.074112564 0.10914676 0.071976 0.026119512 0.05211603 -0.1099524
-0.033922225 -0.088197105 0.101993226 0.024429705 0.03583534 0.1036018 0.15419987 0.03153633
-0.06752532 0.07077351 0.024448305 -0.06797744 0.20263088 0.094940126 0.10774395 0.035434917
-0.17708862 -0.045186926 -0.027835663 -0.07556966 0.10229633 -0.049990404 -0.13716024 0.044199966
-0.08322033 -0.079141535 0.097227946 -0.03785991 -0.011344149 -0.04556692 0.053078305 -0.008315113
-0.0609733 -0.07226347 0.085590504 -0.0993677 0.0687576 -0.16004327 -0.00048550757 -0.119791485
0.042472146 -0.110780165 -0.040084526 -0.15663776 0.045289036 0.1796613 0.016902367 -0.06403932
0.023799308 -0.06553983 0.016330298 -0.027746305 0.08437087 -0.09389879 -0.037110142 -0.011484497
0.00013970802 0.07578368 -0.029759847 -0.07092647 0.04454023 -0.008424938 0.11920307 -0.05744126
0.038527146 0.021543233 0.08172486 0.054911613 0.14479457 0.06853694 0.03222206 0.0045019267
-0.037428822 -0.17570816 -0.075332314 -0.054077253 -0.08887798 -0.034634124 -0.02570466 0.14821386
0.07195486 -0.03761354 0.044974107 0.023269864 -0.15424779 -0.070660144 0.09723421 -0.008367601
0.17004484 -0.012706852 -0.14468174 0.0947132 0.10540781 0.013457906 0.12267428 -0.023837334
-0.10799321 0.087049544 -0.0099156685 -0.10323816 0.0237983 0.021527046 0.14587246 -0.0443271
-0.139831 0.16479826 -0.062641755 -0.022391696 -0.15096253 -0.11406746 -0.013597531 -0.13871013
-0.09286493 0.05514919 -0.092283286 0.1207072 0.10490043 -0.020775879 -0.052815225 -0.07984783
0.0045495075 0.08904529 0.1025423 0.015116051 0.017579973 -0.03279242 0.008962884 -0.08122937
0.060709354 0.1793189 -0.08933547 0.060068436 -0.03320242 0.066661134 -0.029050883 0.086392395
-0.0054474496 0.009160895 -0.11060399 -0.013521961 0.13640054 -0.10443758 -0.095752776 -0.062020678
0.09957562 0.0056294627 -0.0015979914 0.06900028 0.14498518 0.0727764 0.107130945 -0.06943861
-0.0032731101 0.011309837 0.09415431 0.12835616 0.012688866 -0.1174934 0.1511704 0.043570653
0.15910722 -0.017755033 0.031492226 0.25424507 0.033936292 0.09021883 0.09717541 -0.008573539
0.016847756 0.108329035 0.16823126 0.066394724 0.108401135 0.18010439 0.13379417 -0.009901095
0.13744907 0.14097217 0.11530544 -0.09533085 -0.007819301 0.09831777 0.13895245 0.21780248

main_network.lstm.bias_hh_l0 f4 [256]
00000000: 428f f53c f3c0 43bd 58a7 073e a1b9 4f3d
00000010: 0383 ac3b c95e c5bc 3bf2 503d 8292 2a3d
00000020: 5a01 8fbd a204 1b3e 91ea b6bd 6254 723d
00000030: 202e 37bd 7d0f 92bd 5943 543e 9b09 573d
00000040: cef8 993d 7271 713d 389a 9c3d 1011 4fbe
00000050: 2ffc e43d 34b4 15be c134 a03c 75a2 59bd
00000060: a8e7 b73d 4f66 893d adcf 083d bbd0 403e
00000070: 19a8 983e 250b b33d 93c2 3fbd fa28 2c3d
00000080: f849 0e3d 554b 5d3d 65c0 7e3d 2d30 23bd
00000090: 7349 b83d 03dd 8cbd 6764 f03b fdf6 fc3d
000000a0: 9452 603e 6a3c 0dbe f438 9f3d a15a 423d
000000b0: 85a0 21bd 2371 973d 398b 22bd 13c0 053e
000000c0: 2f25 623e 22bb 2c3d ff3a e6bd 4c37 a53d
000000d0: 5fce 903d d502 383e c51d 09bd b7a8 013e
000000e0: a346 ea3d 6c85 22bd 5c75 8bbc e4be cabd
000000f0: 464d 4d3e d69a 8a3d 2d62 55bd 6b39 103e
00000100: 46f2 713d 0a82 4dbd d7e0 dbbd 729e 053d
00000110: 544d cebd 1fbf bf3b ea52 cdbd 7dc2 1abe
00000120: d150 a53d abf3 26be 5372 28bb 973e e5bc
00000130: 7fe6 ed3d 40df 6b3d 79f7 643d 547a eebd
00000140: 8ee3 c83d aaf5 f33d e258 9dbc 10f4 83bd
00000150: c14c 633d d04f 0dbe 314d d73d bac0 c3bd
00000160: dccf afbd e6c0 32bd c204 b13c 5f3f 50be
00000170: d972 0c3c cb9f f7bc d569 813d 18f6 a2bd
00000180: 23a1 103e 13ac 64be 1cbe 2c3e 25c8 df3d
00000190: 50f0 84bd 9a32 bebd 824c 733d a76e bc3d
000001a0: a9ec d1bd 184a 8fbd ec8c fe3d 7137 08be
000001b0: 082a bebd 661c 9b3d 4142 3c3e dee2 a5bd
000001c0: f7b5 5d3e 82b1 a2bd 523a efbb a66d b4bc
000001d0: f7b3 863d cd24 423e c43e 28bd e0ac fe3d
000001e0: 54c3 523d b883 853d f3ed ef3a fef7 0bbd
000001f0: de81 c43d 5f4e 12be c859 bfbd 1f84 9fbd
00000200: 83cf da3d 6939 103d bbbd e53d 6425 14bd
00000210: 4073 bbbd 12db 02bd ba3c 783b 6932 b33c
00000220: 8c1a e93d 03eb a83d ef26 1a3d 43d0 b63b
00000230: a4ed e6bc 6c3a ad3b 17cc 3d3e a353 e43d
00000240: f975 823d a018 01be 2104 fdbc 94a9 88bb
00000250: 7f6b 35bd 1fb1 dab9 1ba8 773d fbb2 253d
00000260: 3ea0 a23d 7bbe 883c 48a8 efbd 9df6 123e
00000270: 65ba b2bd d31e 613c 6b97 9dbd cab1 acbc
00000280: ca3c 813d c085 0ebd bd04 e3bc ff11 25bd
00000290: 09c5 f13c f1b3 f1bc 1a0e b8bd 7f9a abbb
000002a0: e2e3 c63d aea5 2dbd 2d80 18be 9d89 f9ba
000002b0: d1d0 e13d 00ad ecbc 27c6 583d 977a 8d3d
000002c0: cb6a ccbc e1a1 8f3c 5048 cbbd 272a 853d
000002d0: 6b59 733d a88c 1cbe 175f 1abe 9c32 06be
000002e0: 95d0 23be 7ea7 9a3d 0c76 91bd 4a50 0e3e
000002f0: 690a fc3c 85e6 41bc 39df f4ba e108 193d
00000300: 0151 b43d b1e8 0abd f3eb 38ba 493d ff3d
00000310: 0c74 073e 23eb e3bc b500 243e b53a c8bd
00000320: 0b10 f93c 1388 2b3e 067d 14bd e7b4 e03c
00000330: c597 c9bb 4ed0 1bbd 0eab 293e 4235 0e3d
00000340: f0bf c2bc bb7f 883d dcff d73d f978 503c
00000350: 2e4e c33d 772d b33d 7112 09be 6fe5 153c
00000360: bb81 113d 8350 0b3c 15d0 a73d 0cac d9ba
00000370: 0c90 873e 1afb e3bd ffee 8ebd 49f5 e13d
00000380: 813e 663c c987 1b3d 5437 3a3e 511e 17bd
00000390: 23a3 71bd 2820 82bd 0a02 06bc c6cf e93d
000003a0: 0793 593e e214 07bd 1487 f0bd 3358 353e
000003b0: 8562 6a3d 8d0d 113e 19d2 463e 190b 70bd
000003c0: 2892 0e3d 1717 903d 78bd 623c 122e 5d3d
000003d0: 4b98 cd3b 69dd e13d 11b7 dc3c c826 34bc
000003e0: 937f dabc f2e3 113e 40cb e33d 99a2 9abd
000003f0: 302c 343e afaa 963d 7c0e 863d f4f2 313e
0.029975537 -0.047791433 0.1324743 0.05071414 0.0052646413 -0.024093049 0.05101226 0.041643627
-0.0698268 0.15138486 -0.08931459 0.059162505 -0.044721723 -0.071318604 0.20728816 0.052499395
0.07518159 0.05894608 0.076466024 -0.20221353 0.11180913 -0.14619523 0.019556405 -0.053133447
0.08979732 0.06708967 0.03340118 0.18829624 0.29815748 0.0874236 -0.04681642 0.042031266
0.03473851 0.05402692 0.0621952 -0.039840866 0.08998384 -0.06878092 0.0073361876 0.12351797
0.21906501 -0.13792577 0.07774535 0.04744971 -0.039459724 0.07394626 -0.039683554 0.13061552
0.22084497 0.04217065 -0.11241721 0.08067188 0.07070612 0.1796983 -0.033475656 0.12662016
0.11439254 -0.039678022 -0.017023735 -0.09899691 0.20049009 0.06767814 -0.05209558 0.14084403
0.05906894 -0.050172843 -0.10736244 0.03262181 -0.10073343 0.005851641 -0.1002558 -0.15113254
0.08072055 -0.1630389 -0.0025702908 -0.027983947 0.11616229 0.057585955 0.05590007 -0.11644426
0.098090276 0.11912091 -0.019207422 -0.064430356 0.05549312 -0.13799977 0.1051277 -0.09558244
-0.08584568 -0.043640994 0.021608714 -0.20336674 0.008572304 -0.030227562 0.06319014 -0.07957095
0.14123969 -0.22331266 0.16869396 0.109268464 -0.064911485 -0.09286995 0.059399135 0.09200793
-0.102502175 -0.06996554 0.124292225 -0.13302399 -0.092853606 0.07573776 0.18384649 -0.08099912
0.21651445 -0.07944013 -0.0073006535 -0.02202494 0.06577294 0.18959351 -0.041075483 0.12435317
0.05145581 0.06519264 0.0018305167 -0.03417205 0.09595083 -0.14287709 -0.09343296 -0.07788872
0.10684111 0.035211 0.11217829 -0.03616847 -0.091528416 -0.031947203 0.0037877993 0.021874623
0.113820165 0.0824795 0.037634786 0.005579026 -0.028189488 0.0052865054 0.18534885 0.11148765
0.06370158 -0.1260705 -0.030885758 -0.004170606 -0.04429197 -0.00041712166 0.060463052 0.040453892
0.0794072 0.01669239 -0.11702019 0.14351888 -0.08726958 0.013740259 -0.07694896 -0.02108087
0.06310423 -0.034795523 -0.02771222 -0.040300366 0.029512899 -0.029504748 -0.08987065 -0.005236923
0.09711434 -0.042394333 -0.14892645 -0.0019038204 0.11026157 -0.028891087 0.052923348 0.06908148
-0.024953267 0.017533245 -0.09925902 0.065021805 0.059411447 -0.15288031 -0.15075336 -0.13105243
-0.15997536 0.07551478 -0.07102594 0.13897815 0.030766683 -0.011834745 -0.0018682248 0.037361983
0.08804513 -0.033913318 -0.0007054202 0.12462861 0.13227862 -0.027822083 0.16015895 -0.097768225
0.030403158 0.16751127 -0.036252044 0.027430011 -0.0061521255 -0.03804045 0.16569158 0.03471876
-0.023773164 0.06664988 0.10546848 0.012724155 0.09536396 0.08748906 -0.13385941 0.0091489395
0.03552411 0.008503082 0.081939854 -0.001660706 0.26477087 -0.11131878 -0.06979179 0.110331126
0.014052988 0.03797129 0.18185169 -0.036894146 -0.05899347 -0.063537896 -0.008179197 0.11416583
0.21247493 -0.0329789 -0.11744514 0.17709427 0.05722286 0.14165325 0.19416083 -0.058604334
0.034807354 0.07035654 0.013839118 0.053999014 0.0062742583 0.11028559 0.026942762 -0.010995574
-0.02667216 0.1424711 0.11122751 -0.07550544 0.17594981 0.07356774 0.065457314 0.17377836

main_network.fc.weight f4 [3, 64]
00000000: f38e 963b c6a0 04bb bc89 84bc dadc fdbc
00000010: a936 263e 6741 f63d a6f6 8c3d 53a1 87be
00000020: 0a68 e13c 5296 bbbb adad 023d a38e 30bd
00000030: 28e4 1abd 1280 fabd 74fd 00be 57d8 063d
00000040: 1e39 82bc 9a10 f03c d201 9abd 7bab 683d
00000050: e948 15bd 121d 5c3d b28b 67bd 1dfb a23d
00000060: 539f a73d 42bf 843d e923 9b3c cd7d 1e3d
00000070: 2536 cfbd dc52 0a3d 6049 90bc cd5c 23bd
00000080: ec7c 9d3c 02cb a23b 7c4e 65bd 2703 9cbd
00000090: 91d3 bbbd 0b7e 2b3d 457c 643d 7691 903d
000000a0: 27e2 c8bd 341f 1bbd 9fcf c03d 608f 02bd
000000b0: ed98 da3c 89a1 a3bd 0349 ebbd 062f 90bc
000000c0: f61f 01be 1e05 003d f949 51bd 6f93 a2ba
000000d0: 2572 563d fab5 193a 5b47 3e3b 4b0e 70bd
000000e0: 732f d0bd a650 fa3c 2680 67bd faf7 163c
000000f0: c135 bbbc 0434 073e 53b8 163d ab24 83bd
00000100: bdcd 743c 12cf a3bd 2821 7c3c d2d7 13bd
00000110: 6ea4 953d 511a 51bd 061a fc3d 4c13 8dbe
00000120: 770b 01bc c9e2 4ebd 4088 a53d 5b06 81bd
00000130: 7890 afbd 5f17 16be b746 383d 8586 963d
00000140: fc2c 84bc f212 b7bd 64bf d7ba 6033 4f3d
00000150: a00d 67bc 824a 0bbb bf60 c43d 1866 c13d
00000160: 5ee2 2cbe aa3f 00b9 f30b 903c ccea 8bbc
00000170: 42b7 a9bd 37fd 273d c545 053e ab5d 9bbd
00000180: 3232 15bd 7b2d 0dbd ad59 87bd 2c8a 383d
00000190: 2799 d53d 209e 00bd d41e 683d dcd9 773d
000001a0: fa96 653d 6a7e 5abd 8901 9e3d 865d 85bc
000001b0: a009 483d 1bdd 8abd c6f0 d4bd 2f63 babd
000001c0: d017 f13b 3d4c 03be f2ca 89bc aab0 e6bc
000001d0: d924 dbbc 8297 4ebd 7f47 e43c 0791 ed3c
000001e0: 0c72 013d 7f3a 083e fad9 293d ee5c e4bb
000001f0: 05c1 913c 8c40 66be c80c bd3d bd25 813c
00000200: 2fd9 ebbd 25f2 953d a63a 6e3e 6515 1e3e
00000210: d69e 83be f0df cb3d 8e7a 5dbe cb7a 2d3e
00000220: de50 9c3d 5d05 2e3e 9221 583c c0ca 29bd
00000230: 136c 643c c36a 1c3e f23e f53d d71c bc3d
00000240: e622 b8bd 053f 90be 77b3 023d bfe0 673e
00000250: 1ca6 30be 1a28 f63d 9f75 ddbd a814 843e
00000260: 0d29 cebd de2b bf3e 5801 82be 073d 813e
00000270: eeca 81be eda9 963d b680 fbbd bf36 5cbd
00000280: e59a b13e bc56 9e3d 31b7 58be a319 cd3c
00000290: 753f bf3c 9706 f63c 8043 623e dfa4 73be
000002a0: 7296 47be 898d 84be b902 bdbd 3b37 603e
000002b0: 08c1 9c3e eaf8 2ebe 6e51 163e c98e 81be
000002c0: 8519 4fbe 7ab2 2c3e c69c 19be 51fd 233e
000002d0: d0ff d3bb c0eb 4bbe 542f 93bc 7202 eebb
000002e0: 4396 69be 6bce 623e 1e6b 8ebe 864e ebbd
000002f0: 0fb7 fe3d bc9a 46be 5b59 9abd 6731 2c3e
0.0045946776 -0.002023743 -0.016178958 -0.0309891 0.16231789 0.12024193 0.06882982 -0.26490268
0.02751543 -0.0057247067 0.03190391 -0.04310478 -0.037815243 -0.12231459 -0.12596685 0.03292116
-0.015896376 0.029304791 -0.075198784 0.05680416 -0.036446486 0.05373866 -0.05652971 0.07958052
0.081846856 0.06481792 0.018938022 0.03869419 -0.10117749 0.033770427 -0.017613113 -0.039883424
0.019224606 0.004968048 -0.05598305 -0.07617789 -0.091712125 0.04186825 0.055782575 0.070589945
-0.0980876 -0.037871554 0.094146006 -0.031875014 0.026684249 -0.07989795 -0.11488535 -0.017600548
-0.12609848 0.03125488 -0.051095936 -0.0012403558 0.05235495 0.00058636034 0.002903423 -0.05860738
-0.101653 0.030556034 -0.056518696 0.009214396 -0.02285278 0.13203436 0.03679688 -0.06403478
0.01494163 -0.0799848 0.015388764 -0.036094494 0.07306753 -0.051050488 0.12309651 -0.27553785
-0.007876269 -0.050509248 0.08082628 -0.0630004 -0.08572477 -0.14657353 0.044989314 0.07349876
-0.016134731 -0.089391604 -0.0016460237 0.050586104 -0.01410237 -0.0021254127 0.09588765 0.09443301
-0.16883227 -0.00012230748 0.017583823 -0.017079733 -0.08286907 0.04101297 0.13014896 -0.07586225
-0.036424823 -0.0344672 -0.06608901 0.045053646 0.10429602 -0.0314008 0.056670025 0.0605105
0.056052186 -0.053343214 0.077151366 -0.016279947 0.048837304 -0.06780454 -0.103974864 -0.09100949
0.007357575 -0.12822051 -0.016820405 -0.028160412 -0.026750969 -0.050437458 0.027866123 0.028999818
0.031602904 0.13303564 0.041467644 -0.006969086 0.017792234 -0.2248556 0.092309535 0.015765065
-0.11516034 0.07321576 0.2326456 0.15437849 -0.2570712 0.09954822 -0.21628782 0.16941373
0.07632612 0.16994233 0.013191598 -0.041453123 0.0139417825 0.15275101 0.119748965 0.09185188
-0.08991031 -0.2817308 0.031909432 0.22644328 -0.17250866 0.120193675 -0.1081345 0.2579701
-0.100664236 0.37338156 -0.2539165 0.25241873 -0.25350136 0.073566295 -0.12280409 -0.053763147
0.34688488 0.07731387 -0.21163632 0.025036639 0.023345688 0.03003244 0.22096062 -0.23793362
-0.19490984 -0.25889233 -0.09229035 0.21896069 0.3061602 -0.1708714 0.146795 -0.2530425
-0.20224579 0.16864958 -0.1500121 0.16014601 -0.006469704 -0.1991415 -0.017966904 -0.007263475
-0.22811227 0.22149055 -0.278161 -0.114895865 0.124372594 -0.19394964 -0.075365745 0.1681572

main_network.fc.bias f4 [3]
00000000: bdd5 a63d e283 aa3d 1652 173d
0.08146236 0.08325936 0.036943518

short_term_context_network.fc1.weight f4 [32, 7]
00000000: 07a7 64be 7721 f63d c567 bdbe 9f7c 4dbe
00000010: e8e8 393d bea6 843e 54d6 2ebe df88 693e
00000020: 38d0 22bd 0a3f e1bd 9861 00be 9914 2cbd
00000030: 9a2c 5ebc c3b8 0b3f 9f3e 1a3e 101c b8be
00000040: b019 983e b75d 863e a2c8 47bd 031f 5b3e
00000050: 4d01 8ebd a865 03bd 3ad2 1abe 8f66 4ebe
00000060: 3ae5 fd3d ac43 b5be 6ca4 993d e24f f73d
00000070: 00d4 e5bc 57d0 99bc fd15 003e 619a a0be
00000080: bcc3 c43b 1883 63be de92 893e 0f57 393d
00000090: c4ef 813e 5b16 093e 881e 983d d45e 81bd
000000a0: 5671 b63c 2b99 483e f111 4cbe 1da6 1bbe
000000b0: 7684 05bd 9105 f93d 83a5 b7bd f1b4 a7be
000000c0: 9e6a 03be 3673 633d cd99 c03e cfd0 8a3d
000000d0: b309 6d3e 394a 023f df67 7f3e 97ad 67be
000000e0: 3531 63be 92a3 b8be 539f c7bd 549e 0ebe
000000f0: 1761 eb3d 88f9 01be d19f 8dbe 769b 1f3e
00000100: 1453 1ebe d201 553e c072 d33c e14c 04bf
00000110: f477 863d 1e3a 9d3e 6d89 5f3e fe38 a23e
00000120: 8c77 f13d 1c9c a3be cf75 e73d 7c4f 6d3e
00000130: 5623 52bd 512a aa3c 8dd3 a83d 8d41 36be
00000140: a34e 1e3e b249 b7bd ebc4 3abe c5a9 ce3e
00000150: 87fd bfbe 14ff 44be 12dd a9bd 623f 7dbe
00000160: 5d54 a3be 4278 95be 28e8 ad3e 4c8d 72be
00000170: eb6e a33e 0bd6 243e 465b 0c3e 1dc6 a73d
00000180: 7cbb 55be 28ad f53d 2570 01bb 8f51 6b3e
00000190: d9cc fd3d 9e25 38bc fe9b 473d df68 3d3d
000001a0: df7e bebe 5c32 cc3e fdb4 e73b adae 363c
000001b0: ea81 413e 2193 9bbd dc33 90be d211 ecbd
000001c0: bdfb 0bbb 8b38 f83d bc37 193d 165d 513e
000001d0: d78c f43d c5f4 bb3e 0816 fc3d 5c13 5d3e
000001e0: 8755 7c3c 82a2 863d 2abb 823e 1055 3ebe
000001f0: 51f8 6b3e c911 a33e 17e9 d13e 8b7d 44be
00000200: 3b31 753e 0f42 8fbd a63d 1bbe dd61 2d3e
00000210: eadd 06bf a4f3 743e 0aa8 b33c e9a2 9e3e
00000220: d24d 013e ac5f c4bd de83 303d f63c 2bbc
00000230: 2bf5 5abd e8bd 943e d25e 9a3e a688 9a3e
00000240: c847 68be 8d7c e8bd f063 9f3e 93d8 3cbe
00000250: 5694 263e 8ce4 1d3e 3dcd 78be 2da8 b4be
00000260: 5918 afbe 859a 23bd 8b35 2fbc be04 bb3e
00000270: 9be7 05be 065c d93c 0a0c 843e 8019 b33e
00000280: ce0d d1be 29ff a03d f4ef 7f3d 1488 b83c
00000290: 624f 463d 947d 35be b654 61be 489b 82be
000002a0: 655d d0bd 1063 c33b a643 fe3d c3d7 8a3e
000002b0: 71cc 50bd 44ac b5be 2a45 3bbb 37c7 a63d
000002c0: c497 98be abbd 4ebe d432 ba3e ee4d 3fbe
000002d0: edaa 0ebb d306 b73e 4794 91bd 1578 893c
000002e0: 3246 8bbe 325b 303e b7e9 3abe 90ae 103c
000002f0: cd91 983e 1da0 68be d118 42bd 2962 993d
00000300: f98e 993d af85 6fbc 0edc 36be 5ef2 bd3e
00000310: 8357 8bbe 2058 36bc b6ca b0be 03e2 3dbb
00000320: 3f03 c1be 9c62 cd3e 0bfe a5be 4d1e 0b3d
00000330: f5fa 5dbb bfc9 13be 352c 9dbb e05b e33d
00000340: d585 89be 1afb 043e 8bb1 c3bd 630e 4abe
00000350: b9b1 aabe 7fd6 6a3e f3c9 6e3e 6213 8b3e
00000360: b4ab 8fbe 2aec a73e b066 5a3e 579a bfbb
00000370: 53ea 393d f6ac bdbe e5bd 49bc d7dd f63e
-0.22329341 0.12018102 -0.36993232 -0.2006707 0.045388132 0.25908464 -0.17073947 0.22806118
-0.039749354 -0.10998352 -0.12537229 -0.04201183 -0.0135604385 0.545788 0.1506295 -0.3595891
0.29707098 0.26243374 -0.048775323 0.21398549 -0.06933842 -0.03207937 -0.15119258 -0.2015631
0.12397237 -0.35403192 0.07502064 0.12075783 -0.028055191 -0.018776102 0.12508388 -0.31367782
0.0060047787 -0.22217977 0.26869863 0.04524904 0.2537824 0.13387434 0.074276984 -0.06316915
0.02227084 0.19589679 -0.19928719 -0.15200086 -0.032597028 0.12159265 -0.08967116 -0.32755235
-0.1283364 0.055529796 0.3761734 0.06778108 0.23148231 0.50894505 0.24941967 -0.22624813
-0.2218674 -0.36062294 -0.097471856 -0.13927585 0.11493128 -0.12692845 -0.27660993 0.15586647
-0.1546138 0.20801476 0.025811553 -0.5167981 0.06565848 0.30708402 0.21829768 0.31684107
0.1179038 -0.3195504 0.11301767 0.23174852 -0.05130323 0.020772131 0.08243475 -0.17798443
0.15459685 -0.08949603 -0.1823918 0.403639 -0.37498114 -0.1923793 -0.08294119 -0.2473121
-0.31900302 -0.29193312 0.33966184 -0.23686713 0.3192056 0.16097276 0.13706693 0.08192084
-0.20872301 0.119959176 -0.0019750681 0.22980331 0.12392587 -0.011239437 0.04873275 0.04624259
-0.3720617 0.3988217 0.007071136 0.011150044 0.18897215 -0.07596422 -0.28164566 -0.115268365
-0.0021359765 0.1212016 0.037406668 0.20445666 0.119409256 0.36710182 0.123088896 0.21589416
0.015401251 0.06573965 0.2553342 -0.18587136 0.23043944 0.31849506 0.40998146 -0.19188516
0.23944561 -0.069950216 -0.15160236 0.16931863 -0.52682364 0.23921067 0.021930713 0.30983666
0.12627342 -0.095885605 0.04309451 -0.010451546 -0.053456467 0.29051137 0.30150467 0.3018238
-0.22683632 -0.11351881 0.31130934 -0.18441992 0.16267523 0.15419215 -0.24297042 -0.35284558
-0.34198263 -0.039942283 -0.010693918 0.36527056 -0.13076632 0.026533138 0.25790435 0.34980392
-0.40830845 0.07861168 0.062484697 0.022525825 0.04841555 -0.17723686 -0.22004971 -0.25509095
-0.101740636 0.005962737 0.12415247 0.27117738 -0.05097622 -0.3548299 -0.002857516 0.08143466
-0.29803288 -0.2018954 0.36366904 -0.18682072 -0.002176936 0.35747394 -0.0710836 0.016780892
-0.27201992 0.17222288 -0.18253218 0.008830681 0.29798737 -0.22717328 -0.047386948 0.07489426
0.07497973 -0.014619275 -0.17857382 0.37098974 -0.27215204 -0.011129409 -0.34529656 -0.0028973825
-0.3769779 0.40114295 -0.32420382 0.033964444 -0.0033871506 -0.14432429 -0.0047965297 0.11101508
-0.26859918 0.12986413 -0.09555348 -0.1973205 -0.33338717 0.22933386 0.23319225 0.27163225
-0.28060687 0.32797366 0.21328235 -0.005847256 0.045389485 -0.3704602 -0.012313341 0.48216125

short_term_context_network.fc1.bias f4 [32]
00000000: b4dd a7be 240a 623d 7a12 6fbe ff25 2fbe
00000010: 106e b83d 0669 8f3d 233e b53d 4457 9a3d
00000020: 6a67 883d 1500 4ebd 4e9b 3abe 9896 3fbd
00000030: ebd0 a93e 76fe f23d 4836 01be bc55 babd
00000040: 5069 34be b1b5 0dbe 70b1 99be 619c 533e
00000050: 38ce a8be 8338 9c3e 7649 b73e fe14 73be
00000060: 18c2 9d3e 518a 243e 38ef d03e 359a b23e
00000070: 9d59 60bd d0b9 693e 9ad1 61be 5d55 debd
-0.32786334 0.055185452 -0.23346892 -0.17104338 0.09005368 0.070024535 0.08849742 0.07536176
0.0666035 -0.050293047 -0.18223307 -0.046774477 0.33167204 0.11864941 -0.12618363 -0.09098384
-0.17618299 -0.13838841 -0.30018187 0.20665123 -0.32969832 0.30511865 0.35798234 -0.23738477
0.30812144 0.16068389 0.4080751 0.34883276 -0.054772962 0.22824788 -0.22052613 -0.108561255

short_term_context_network.fc2.weight f4 [16, 32]
00000000: 5a70 f63d 6628 47be facd 9a3b 0705 ccba
00000010: 982f 41be 52b2 2dbe f6b7 973d 2044 09be
00000020: 1013 82bd 0889 90bd 1822 873c 59ef 823d
00000030: a268 e13d 4c2f 813c dbac 7abc 2ca8 99bc
00000040: d47a 11bd fa6e 38bd 6774 f3bd d469 31be
00000050: 502e 603c 8c3f 033e 3622 debd 2ea5 9f3d
00000060: 0539 efbd 1ee7 b73d 895c b73d fb88 1c3d
00000070: f261 a03d fae4 053e 01f9 fa3c 9a10 493c
00000080: 032d 0fbd 476e d0bd 187f bdbd 8b8e b23d
00000090: 818b 6bbc 29cd 23be 9084 acbc d29c 64bd
000000a0: 14e0 11bb c06a 20be a296 ffbd 9cc4 823d
000000b0: f251 343e 9d04 123e 793b d3bd 10a2 063e
000000c0: 4c58 133e a4bc 14bd 6ccd 3c3d 03d4 2b3e
000000d0: 6a92 7dbd 86db d03c e11b 80bc 38ee 993d
000000e0: 1976 11be 1de2 f53c e3f3 f4bd 0f54 78bd
000000f0: fcab d83d a674 a03d 827f 16be c25f eebc
00000100: 64ba 103e 270d 30bd 112a 643e b418 b3bd
00000110: b3bf cabb d6a4 00bd a325 1f3c 2560 cb3e
00000120: 7bb6 763e c4a5 e93d ea04 b33d 8e9c fabd
00000130: fc74 48be 16a9 863d ede1 cdbc 8c6f 4d3e
00000140: b884 1a3d 357f 26be d701 c13e bbf5 823e
00000150: 0494 053e fcab abbe 285f 4f3e 44f1 d73d
00000160: e1f8 9bbd 3236 f6bd 2d17 933d 16fb e33c
00000170: 83dc ca3d f003 22bc 7285 df3d d815 30bd
00000180: 52e2 bd3c d239 e43c f50f 2abc 008f f43d
00000190: 9250 dcbc 347f c73d d0d7 193c bd1a 25be
000001a0: 5edc 50b9 e4ad ad3c d9f3 4dbd 4db7 01be
000001b0: 58f7 2b3d 74ed 23be f043 dbbd 07e6 f6bd
000001c0: c122 94bd ea13 313d ce0b a53d 96b7 1cbe
000001d0: 57b5 fd3d f44a 063e 83c5 c0bd 175c a6bd
000001e0: 45e0 35be cf1d 7c3d 8133 59be 1281 fcbd
000001f0: e4fa 25be 8907 693d e321 163e cbd3 b1bd
00000200: dc93 89bd 5b32 8a3e a9ca 3abd efb7 ea3d
00000210: 76f8 9f3e 5650 023d 9638 18bd 30b7 86be
00000220: 9c51 61bd 4b7b b23e 67fc a33d db6e ab3e
00000230: 404a 123c 4f8a 15bd cc5e fabd 39d7 43be
00000240: e290 a43d 8115 8dbc 115b 0ebe 8768 eabc
00000250: e188 75ba 5c8d 863e 92a4 93bc 9a78 173e
00000260: edbe 6f3e 1b68 c23c 65cb 703e 4781 243e
00000270: 881d 923d 7373 2e3e 757d 8ab9 10d1 163e
00000280: c7dd b73d 200c 11be 62b0 3fbe e1f5 56ba
00000290: 77dc 85bb 0b9d e33d e741 33bc eed5 53be
000002a0: c028 fabd f01c 183e 9680 2bbd ce78 19be
000002b0: 4b4a 51be 34b5 ba3d 654b 8b3b b7e3 e8bd
000002c0: f4e7 88bd dffd 8b3d 5335 1cbd 9c4f 83bd
000002d0: 3a6b 46bb c259 e43d 1ebf e6bd bbd2 2fbe
000002e0: 657b 9e3d 1fd6 b23d bccc b3bd 2a54 af3d
000002f0: f21e 08be 5652 f03d 498c 1bbe d610 15be
00000300: e629 07be bc5d 4fbd 4ff3 6b3e 967a e93d
00000310: 3bff ebbd a43f 1dbe 4b2f 34be 56ce 893e
00000320: cd57 443e 9b92 05be 7a5c 5b3e 5f2e 7abd
00000330: 2db3 04be f1c7 94bd c199 a6bd 9ea3 093e
00000340: 0339 a13d 6618 80be 0a0c 223e b9ea 49bd
00000350: 14f7 c4ba 2fe5 023c dde2 dc3d 9d77 b7bd
00000360: f937 563e 6640 cdbd e6de 20bd bbc3 403d
00000370: 820c 913d c208 c53d a76c 973c ea29 82bd
00000380: cb29 18be 1671 153e 328d 23bc 1a7f 0f3e
00000390: a7a2 4cbd 526a 26be de78 24be f414 613d
000003a0: 91a1 9dbd a3ba 1bbe 44ce a03c 5f62 52be
000003b0: ffad fc3c 1aa1 86bd 2ea7 213e 15ea cd3d
000003c0: 0376 72be bd99 1f3e 4379 ffbc 3bfb 1a3e
000003d0: fc98 3c3c 56e7 24bc 872c 693d 6d8b d6bd
000003e0: 9558 31bd ee5d c2bc 96e2 33be 2f9f 37be
000003f0: c05d 20be cf4f f1bd 2b60 4dbe 19c2 f73d
0.12033148 -0.19449005 0.0047242614 -0.0015565463 -0.18865812 -0.16962555 0.07408135 -0.13404894
-0.06351292 -0.07057387 0.01649575 0.06393308 0.11006285 0.015769623 -0.015300001 -0.018756948
-0.03551753 -0.04502771 -0.11887436 -0.17325526 0.013682917 0.1281721 -0.10846369 0.077951774
-0.116807975 0.08979629 0.089531966 0.038216572 0.078311816 0.13075629 0.030636312 0.0122720245
-0.034955036 -0.10177284 -0.09252757 0.08718594 -0.014376522 -0.15996231 -0.021059304 -0.055813618
-0.0022258805 -0.15665722 -0.12479903 0.063851565 0.17609385 0.14259572 -0.10314078 0.1314776
0.14389151 -0.036312714 0.046094343 0.16780095 -0.06190721 0.025495302 -0.015638294 0.0751614
-0.14205207 0.030015046 -0.1196058 -0.06062704 0.105796784 0.07834749 -0.14697078 -0.029098395
0.14133602 -0.042981293 0.22281672 -0.08744946 -0.006187403 -0.0314072 0.009713563 0.3972179
0.24093048 0.114085704 0.08741172 -0.12236892 -0.19575876 0.06575219 -0.025132144 0.20062083
0.037724227 -0.16259463 0.37696716 0.25578102 0.13044745 -0.3352965 0.20251143 0.10544065
-0.07615829 -0.12022056 0.07182155 0.027829688 0.099053405 -0.009888634 0.109141245 -0.04298958
0.023179207 0.027859602 -0.010379781 0.119413376 -0.026893888 0.09741059 0.009389833 -0.16123481
-0.00019918519 0.021201082 -0.05028138 -0.1266758 0.041983932 -0.1600855 -0.107063174 -0.12055593
-0.07233191 0.043231882 0.08058892 -0.15304407 0.123881035 0.1311453 -0.09412672 -0.081230335
-0.17761333 0.061551865 -0.21211053 -0.12329306 -0.16208988 0.05689195 0.14661364 -0.086829744
-0.06717655 0.26991543 -0.045603428 0.11460864 0.31244248 0.031814896 -0.03716334 -0.26311636
-0.05500947 0.3485969 0.08007126 0.33483014 0.008928835 -0.036508854 -0.12225112 -0.1912507
0.08035447 -0.017222168 -0.13901927 -0.028614296 -0.0009366405 0.26279724 -0.01802281 0.147921
0.23412676 0.023731282 0.23515089 0.1606494 0.07134539 0.17036228 -0.00026414884 0.14728189
0.089778475 -0.14164782 -0.18719628 -0.0008200091 -0.0040851193 0.11113938 -0.010941005 -0.20687076
-0.12214804 0.14854789 -0.041870676 -0.1498749 -0.20438497 0.09116593 0.004250931 -0.11371558
-0.066848665 0.068355314 -0.03813679 -0.06411669 -0.0030276314 0.111499324 -0.112669215 -0.17170231
0.077383794 0.087322466 -0.08779284 0.08560975 -0.13293055 0.11734454 -0.15190233 -0.14557204
-0.13199577 -0.0506265 0.23042034 0.114003345 -0.11523291 -0.15356308 -0.17596166 0.26915234
0.19174118 -0.13044207 0.21421996 -0.06107938 -0.12958975 -0.07264698 -0.08134795 0.13441321
0.07872202 -0.25018615 0.15824905 -0.049296115 -0.0015027248 0.007989212 0.10785458 -0.08958361
0.2091979 -0.10022049 -0.039275073 0.047061663 0.07082464 0.09620811 0.018484427 -0.06355651
-0.14859693 0.1459392 -0.009982394 0.14013329 -0.049959805 -0.16251495 -0.16061732 0.054951623
-0.07696832 -0.15207915 0.019629605 -0.20545338 0.030844687 -0.065736964 0.1578643 0.10054413
-0.2367783 0.1558599 -0.031185752 0.151349 0.011511084 -0.01006492 0.05692723 -0.10475812
-0.04329737 -0.02372643 -0.17566904 -0.17931817 -0.15660763 -0.117828004 -0.20056216 0.12097568

short_term_context_network.fc2.bias f4 [16]
00000000: 1a06 bcbd 870d 21be 8380 323e cb57 c83d
00000010: 9b21 4d3e 16c2 77bc 4a7d 133e aa7c 27be
00000020: 72d6 8abd e550 803e 30e7 5b3d 470f 443e
00000030: 0f76 0b3e dcbc 2b3e 4826 3b3d f27b 123e
-0.09180851 -0.15727817 0.17431836 0.0978237 0.2003235 -0.015121957 0.14403263 -0.1635615
-0.067791834 0.25061718 0.053687274 0.19146453 0.13619255 0.16771263 0.045690805 0.14305094

short_term_context_network.fc3.weight f4 [1, 16]
00000000: ffeb 64be 1a13 6f3e 1b6e 96be a0b5 0abe
00000010: 8199 133e d567 ecbd bfa1 aabe 4078 62bd
00000020: 7b13 093c 00a9 adbe 1fa7 b13e ba75 1c3e
00000030: 476d cdbd 0b92 c23e 6883 28be 1618 633e
-0.2235565 0.2334713 -0.2938088 -0.13545847 0.14414026 -0.11543242 -0.33326527 -0.05529046
0.008366461 -0.33918 0.34697816 0.15279284 -0.100306086 0.38002047 -0.16456378 0.22177157
