Uni_Research/IRL/Final/Extended/old/V3/V3_demo1/Testing_Suite/model_C1000_R0_S100.0.pth (torch, 91250 bytes, 11 tensors)

main_network.lstm.weight_ih_l0 f4 [256, 15]
-0.08004537 0.06694336 -0.05248248 0.04356817 0.020413503 -0.000578009 -0.09664274 0.018831829
0.0980289 0.066067815 0.004837674 -0.04398241 -0.08683289 0.025911732 -0.16197947 -0.03434922
-0.0032128063 -0.18072748 0.15283751 -0.012384533 -0.066889115 0.025441827 -0.05406291 -0.048014723
0.044569172 -0.055271495 0.032529984 0.033670723 -0.06281453 -0.079358496 0.13773054 0.045342747
0.034326874 0.4223626 0.12570316 0.01162722 -0.16533585 0.041132588 0.2023545 -0.010262039
-0.051118165 0.15860459 0.050103404 0.22565775 -0.025767135 -0.14105396 -0.14787935 -0.0016554971
0.19230238 -0.19660132 -0.012084952 -0.15707329 -0.16206285 -0.0454787 -0.17708574 -0.21426897
-0.03124799 -0.24278201 -0.086524926 -0.08497086 -0.23298065 -0.2630982 -0.20241731 0.02361134
-0.16421477 0.0078763785 -0.14898138 -0.13362285 -0.20003478 -0.15370336 -0.17231166 -0.12699315
-0.13427134 -0.15748076 -0.1775508 -0.19988637 -0.24538495 0.065682374 0.18748912 -0.28868327
-0.039563812 -0.22384696 -0.08546276 -0.10545628 0.045984183 -0.10312812 -0.14555322 -0.038169842
-0.115682356 -0.051008906 0.0012225384 0.18557414 0.024268495 -0.08606491 0.18765941 0.042189855
0.021187242 -0.10179539 0.23336376 -0.23199858 -0.10546537 0.15749905 -0.042416446 0.14930491
0.051684935 0.09453863 0.06430937 0.12787057 -0.089793056 0.14833 -0.054756675 -0.063248694
0.12521274 0.10063047 -0.055101153 -0.12560858 -0.2106543 0.10878115 -0.01767514 -0.13875812
0.029113019 -0.052669805 -0.047408942 0.11063192 0.07483219 -0.05566003 -0.136874 -0.059899468
0.023400038 -0.094242804 -0.051245335 -0.0630813 -0.12333957 -0.023277856 0.059894223 -0.08447401
0.03139562 -0.02706996 0.09409657 -0.16955289 -0.10538767 0.11317481 -0.038560763 -0.036697447
-0.017483404 -0.12660825 0.077267535 -0.016023614 -0.06418302 -0.16017564 -0.03219486 -0.03483616
-0.028094117 0.16067442 -0.04549154 0.078125134 0.049961902 0.1832396 -0.08136722 0.037354503
-0.041449614 -0.0959573 0.09569164 0.0993068 0.087123945 6.949675e-05 -0.032653723 0.10279204
0.34289882 0.003964827 -0.032260776 0.114091046 0.01776397 -0.026873492 0.101551436 0.0058273585
0.19852851 0.0071553835 0.33497903 -0.058131505 0.005444498 0.04804462 0.09762496 0.2943788
0.08310805 0.03220408 0.07999509 -0.03051481 -0.0359764 0.10362159 -0.08087652 -0.115720175
0.050517075 0.10223883 0.05512166 -0.13475844 -0.20670968 -0.016712286 0.29873404 -0.03730791
-0.15660876 -0.14382648 0.011035937 -0.1252588 -0.0068310453 0.077199735 -0.1144557 -0.002982554
0.120251976 -0.016200323 -0.08213411 -0.117088206 0.010528169 0.10571427 0.12232553 -0.09836883
-0.0050998386 -0.035075862 -0.15455809 0.10516901 -0.17694846 -0.16537702 -0.1260936 -0.12652414
-0.030366551 0.086673334 -0.07486028 0.030003864 0.2445479 0.102733925 -0.08172619 0.200495
-0.1534864 -0.13368645 0.14931 0.07700751 -0.15819138 0.048816375 0.097591996 0.025221601
-0.114150204 -0.01951134 -0.18838753 -0.07013048 0.008000775 -0.03826316 -0.076267794 0.0027273253
-0.042059254 -0.086769685 -0.038220808 -0.021539139 -0.040078603 0.07366493 -0.04880325 0.03313526
00000000: d4ee a3bd 9a19 893d def7 56bd 8a74 323d
00000010: 383a a73c 8785 17ba a1ec c5bd 3545 9a3c
00000020: 60c3 c83d 904e 873d 5a85 9e3b e626 34bd
00000030: 71d5 b1bd d744 d43c f2dd 25be c5b1 0cbd
00000040: f28d 52bb a010 39be 7081 1c3e 7fe8 4abc
00000050: 29fd 88bd 616b d03c 1271 5dbd 16ab 44bd
00000060: 2a8e 363d 5d64 62bd 293e 053d 50ea 093d
00000070: e8a4 80bd b586 a2bd 3c09 0d3e 51b9 393d
00000080: 569a 0c3d e93f d83e 54b8 003e 1880 3e3c
00000090: cd4d 29be a57a 283d 0536 4f3e 1c22 28bc
000000a0: 4861 51bd 3e69 223e 3a39 4d3d d312 673e
000000b0: 9915 d3bc 7370 10be af6d 17be 44fd d8ba
000000c0: eaea 443e db51 49be f6ff 45bc d2d7 20be
000000d0: cef3 25be e047 3abd f755 35be 5369 5bbe
000000e0: c9fb ffbc d99b 78be fb33 b1bd 3405 aebd
000000f0: 7b92 6ebe cfb4 86be 7c46 4fbe 926c c13c
00000100: eb27 28be ed0b 013c 938e 18be 6ed4 08be
00000110: ebd5 4cbe 6a64 1dbe 7872 30be 7e0a 02be
00000120: 6d7e 09be a342 21be e0cf 35be 03af 4cbe
00000130: 3146 7bbe 7b84 863d 26fd 3f3e 4bce 93be
00000140: aa0d 22bd 2338 65be 1907 afbd 76f9 d7bd
00000150: e959 3c3d d634 d3bd e70b 15be fb57 1cbd
00000160: dfea ecbd b7ee 50bd 953d a03a 2607 3e3e
00000170: b9ce c63c cd42 b0bd ca29 403e 45cf 2c3d
00000180: de90 ad3c 1a7a d0bd e9f6 6e3e 0991 6dbe
00000190: 3afe d7bd 6e47 213e debc 2dbd 63e3 183e
000001a0: 95b3 533d 789d c13d a2b4 833d 81f0 023e
000001b0: 6ce5 b7bd d2e3 173e 8948 60bd 8888 81bd
000001c0: c537 003e 5917 ce3d bfb1 61bd 899f 00be
000001d0: c3b5 57be a7c8 de3d 75cb 90bc 9c16 0ebe
000001e0: 6d7e ee3c 4bbc 57bd e12f 42bd fd92 e23d
000001f0: 9f41 993d c6fb 63bd b328 0cbe 2559 75bd
00000200: 70b1 bf3c 5f02 c1bd a1e6 51bd c530 81bd
00000210: 7599 fcbd 34b1 bebc a553 753d b600 adbd
00000220: b298 003d d2c1 ddbc b4b5 c03d 469f 2dbe
00000230: 7ed5 d7bd 32c8 e73d e4f1 1dbd 1050 16bd
00000240: 5b39 8fbc 98a5 01be 713e 9e3d f443 83bc
00000250: 6372 83bd 1505 24be c2de 03bd 5cb0 0ebd
00000260: a225 e6bc d687 243e 5655 3abd 1200 a03d
00000270: daa4 4c3d 29a3 3b3e dba3 a6bd 0901 193d
00000280: 12c7 29bd 4385 c4bd fbf9 c33d 5d61 cb3d
00000290: 0a6e b23d c9be 9138 e9bf 05bd a284 d23d
000002a0: 6f90 af3e 61eb 813b e023 04bd 91a8 e93d
000002b0: bf85 913c cc25 dcbc 33fa cf3d 6df3 be3b
000002c0: 0f4b 4b3e b577 ea3b 5f82 ab3e 4d1b 6ebd
000002d0: c267 b23b 6fca 443d 98ef c73d d1b8 963e
000002e0: 8e34 aa3d 6de8 033d 77d4 a33d 32fa f9bc
000002f0: fd5b 13bd 8e37 d43d 97a2 a5bd b3fe ecbd
00000300: feea 4e3d 9762 d13d 40c7 613d 1efe 09be
00000310: b4ab 53be 34e8 88bc abf3 983e 2ed0 18bd
00000320: 0c5e 20be 4047 13be 13d0 343c d843 00be
00000330: f6d6 dfbb e51a 9e3d c067 eabd f476 43bb
00000340: ab46 f63d 8ab6 84bc ee35 a8bd f1cb efbd
00000350: 577e 2c3c b980 d83d cf85 fa3d 9975 c9bd
00000360: 8c1c a7bb b5ab 0fbd 7a44 1ebe da62 d73d
00000370: fa31 35be 9858 29be ae1e 01be 8b8f 01be
00000380: 46c3 f8bc ca81 b13d 5950 99bd aaca f53c
00000390: c46a 7a3e 2a66 d23d 1060 a7bd 904e 4d3e
000003a0: 8a2b 1dbe 1ae5 08be b8e4 183e 1db6 9d3d
000003b0: ecfc 21be aef3 473d 50de c73d 889d ce3c
000003c0: 95c7 e9bd 3fd6 9fbc a9e8 40be 92a0 8fbd
000003d0: af15 033c d5b9 1cbd 4a32 9cbd edbc 323b
000003e0: 5346 2cbd 4eb4 b1bd 6c8d 1cbd d972 b0bc
000003f0: 7629 24bd a4dd 963d ebe5 47bd d7b8 073d

main_network.lstm.weight_hh_l0 f4 [256, 64]
-0.12351037 -0.028619032 -0.17819051 0.08989224 0.036341555 -0.029313875 0.14282814 -0.18860982
-0.07456496 -0.09962613 -0.030551227 0.08357463 0.008411572 0.13239321 0.027230212 -0.03351668
-0.058794115 0.06349479 0.09378632 -0.049386915 -0.045561217 -0.042448547 0.043836724 0.0137717705
-0.077840954 -0.15904029 0.14559029 -0.044214066 0.37373835 -0.0041275043 0.019088117 -0.14275725
-0.057269208 -0.025144644 -0.04858511 -0.036097303 0.119221136 0.08418223 -0.10049891 0.27229202
-0.0614019 0.107159235 -0.057212956 -0.06173731 -0.06729547 0.16034019 0.0318807 0.21136715
0.001868285 0.04372317 0.05994978 -0.031492803 0.16694337 0.08134066 -0.07087298 0.057421014
-0.018793939 0.06805857 0.13302764 -0.14804788 -0.039387845 0.0410194 0.12391158 0.018924465
0.063768476 -0.010952356 -0.050486773 -0.06519063 0.15944663 0.04091247 0.2199131 -0.088788256
-0.041908734 0.034086797 0.003090039 -0.0252391 0.049213957 0.05004475 -0.1649238 0.019222675
-0.027252512 -0.008453256 0.006463125 -0.2569702 0.043090925 -0.040269587 -0.1375288 -0.041778978
-0.034358535 0.07932936 -0.0027130197 -0.15404655 0.16173297 -0.11595866 -0.07733744 -0.073022544
-0.03629194 0.15774757 -0.06134332 0.04596266 0.08174979 0.0163671 -0.11569534 -0.018649686
0.06874656 0.024573376 0.13375293 0.12452385 -0.20806248 -0.09528266 -0.033242974 0.018337933
0.03025887 -0.021889608 -0.09469804 -0.17649926 0.049864758 0.043551076 -0.027668556 0.048478816
0.13847202 -0.021014843 0.012633338 0.04209444 -0.05389289 0.19942127 0.08802746 0.08865589
-0.0052749636 0.14261849 0.08730227 0.20694342 -0.23239891 0.036682677 -0.35970718 -0.09182329
0.024746435 0.23714894 -0.16287914 -0.008492144 0.121370465 0.2545089 0.16303092 0.06603839
-0.06565713 -0.21946254 0.065871604 0.25173318 -0.18621634 0.16201742 -0.070830084 -0.09877324
0.06920903 0.08481249 0.08634933 -0.045244366 -0.11324701 0.048283976 -0.1617353 -0.070653446
0.04784266 -0.01607555 -0.22430387 0.03352413 0.190187 0.14495893 0.17536935 -0.27415827
-0.050450407 -0.22700281 -0.13258244 -0.11938332 0.15954894 0.058636848 0.15086852 -0.19594689
-0.11978594 0.21963704 -0.0018764146 0.00029795364 -0.0050364914 -0.11965439 0.14003582 0.18097779
-0.12009991 -0.04430026 -0.000182086 -0.002599164 0.13399813 -0.28633067 0.27687904 -0.16624197
-0.047450095 -0.058348976 -0.13066787 0.1751089 -0.07892537 0.062016692 -0.005192618 -0.18170723
0.11573419 0.038205355 -0.025930088 0.06759502 -0.034443032 0.12133743 0.14470996 0.09172622
0.09618537 0.030594463 -0.02499804 0.20502369 0.057422906 0.023617648 0.05237271 -0.13166448
-0.048309136 -0.07188326 0.088615365 0.045699466 -0.020563306 0.08493987 -0.104975216 -0.161565
-0.022807572 0.10828313 -0.055127453 -0.079842806 0.029362276 0.08053626 0.13526739 -0.051163837
-0.16942379 0.0431883 0.06187915 -0.01644863 0.13284963 0.15377383 0.10248199 -0.22343162
-0.03093194 0.043393895 0.22474171 0.023893362 -0.025827004 -0.09962864 0.15608835 0.13027085
-0.090221256 -0.04133559 0.13758631 -0.1721791 -0.067454256 -0.015627224 0.18169796 -0.02472774
00000000: 01f3 fcbd 7672 eabc 9377 36be 6c19 b83d
00000010: e2da 143d a723 f0bc 8a41 123e ef22 41be
00000020: 84b5 98bd c908 ccbd 9146 fabc 2d29 ab3d
00000030: b1d0 093c 1692 073e e511 df3c c948 09bd
00000040: 19d2 70bd 8e09 823d 0b13 c03d ef49 4abd
00000050: 669e 3abd 87de 2dbd 238e 333d fea2 613c
00000060: 146b 9fbd 75db 22be 9f15 153e cf19 35bd
00000070: a25a bf3e 0440 87bb af5e 9c3c f52e 12be
00000080: 1e93 6abd 24fc cdbc 2e01 47bd c4da 13bd
00000090: 362a f43d bc67 ac3d 5fd2 cdbd dc69 8b3e
000000a0: 8f80 7bbd 4d76 db3d 2258 6abd 43e0 7cbd
000000b0: 35d2 89bd 3830 243e 5695 023d a170 583e
000000c0: 3ee1 f43a 1117 333d e78d 753d 99fe 00bd
000000d0: 34f3 2a3e ef95 a63d da25 91bd 4c32 6b3d
000000e0: bff5 99bc 4b62 8b3d 6638 083e dd99 17be
000000f0: 2655 21bd f503 283d 5bc5 fd3d 7b07 9b3c
00000100: 0c99 823d 8371 33bc 38cb 4ebd aa82 85bd
00000110: fa45 233e d693 273d e630 613e 9ed6 b5bd
00000120: 7ea8 2bbd 999e 0b3d 4082 4a3b 3bc2 cebc
00000130: 9394 493d b9fb 4c3d c9e1 28be df78 9d3c
00000140: a940 dfbc 877f 0abc 9fc8 d33b 9991 83be
00000150: 1c80 303d b9f1 24bd 5ad4 0cbe 6f20 2bbd
00000160: 89bb 0cbd 6e77 a23d ebcc 31bb 61be 1dbe
00000170: 549d 253e bc7b edbd 1763 9ebd d88c 95bd
00000180: dba6 14bd 9488 213e 2243 7bbd 5843 3c3d
00000190: 6f6c a73d 4c14 863c aef1 ecbd 3ac7 98bc
000001a0: ffca 8c3d 1b4e c93c 87f6 083e 5c06 ff3d
000001b0: 550e 55be 8e23 c3bd c929 08bd 6f39 963c
000001c0: 73e1 f73c d651 b3bc 0cf1 c1bd 39bc 34be
000001d0: fd3e 4c3d 9d62 323d 2ba9 e2bc b991 463d
000001e0: 9ccb 0d3e 5227 acbc 0ffc 4e3c 386b 2c3d
000001f0: cbbe 5cbd 1735 4c3e be47 b43d 3891 b53d
00000200: 9ad9 acbb 950a 123e 88cb b23d fae8 533e
00000210: fbf9 6dbe 9340 163d 8a2b b8be d90d bcbd
00000220: 09b9 ca3c 2cd7 723e cac9 26be a222 0bbc
00000230: 1491 f83d fe4e 823e 94f1 263e 233f 873d
00000240: 3f77 86bd caba 60be b1e7 863d 2ce3 803e
00000250: 7faf 3ebe e5e7 253e 5d0f 91bd a049 cabd
00000260: 77bd 8d3d 2cb2 ad3d ebd7 b03d 2852 39bd
00000270: 0cee e7bd 6bc5 453d f09d 25be c1b2 90bd
00000280: aaf6 433d dfb0 83bc eaaf 65be 9950 093d
00000290: 62c0 423e 1d70 143e 0694 333e 795e 8cbe
000002a0: 16a5 4ebd 6d73 68be b1c3 07be 3e7f f4bd
000002b0: cc60 233e 312d 703d 477d 1a3e 4da6 48be
000002c0: 5552 f5bd 88e8 603e 07f2 f5ba a936 9c39
000002d0: 2709 a5bb 5c0d f5bd 8d65 0f3e 3e52 393e
000002e0: f1f6 f5bd 3074 35bd 57ee 3eb9 bc56 2abb
000002f0: ce36 093e ef99 92be 17c3 8d3e 563b 2abe
00000300: 085b 42bd 56ff 6ebd cccd 05be bf4f 333e
00000310: a0a3 a1bd 3705 7e3d d626 aabb 7611 3abe
00000320: 0c06 ed3d 387d 1c3d 566b d4bc 426f 8a3d
00000330: 2314 0dbd c27f f83d d92e 143e f5da bb3d
00000340: d6fc c43d 3da1 fa3c b1c8 ccbc bbf1 513e
00000350: 4834 6b3d cc79 c13c c484 563d 0ed3 06be
00000360: cddf 45bd 8837 93bd f97b b53d 5d2f 3b3d
00000370: 6174 a8bc f4f4 ad3d 3ffd d6bd 4c71 25be
00000380: f2d6 babc 8cc3 dd3d 53cd 61bd a084 a3bd
00000390: 2889 f03c 32f0 a43d 8983 0a3e 2c91 51bd
000003a0: 6e7d 2dbe 37e6 303d fe74 7d3d 47bf 86bc
000003b0: bc09 083e e376 1d3e 14e2 d13d 42cb 64be
000003c0: fb64 fdbc ccbd 313d b122 663e 03bc c33c
000003d0: 2793 d3bc 1a0a ccbd a0d5 1f3e b965 053e
000003e0: ecc5 b8bd 824f 29bd 6de3 0c3e b84f 30be
000003f0: 7525 8abd aa04 80bc 080f 3a3e d491 cabc

main_network.lstm.bias_ih_l0 f4 [256]
-0.0912692 -0.14310035 0.121944346 0.043706045 -0.08940826 -0.12098409 0.0035960665 -0.067204386
-0.005915649 0.17694227 -0.06166337 0.024983928 0.086448744 0.08941317 0.14039244 0.07501103
-0.018169368 0.15889399 0.080236465 -0.1891758 -0.022188725 0.08885466 -0.15410757 0.0591316
-0.08444285 -0.032849558 -0.04260625 0.09473816 0.31330162 -0.048829302 -0.011109443 0.06119575
0.110363476 -0.059602257 0.015008781 0.009100921 0.031042663 -0.022245338 0.12146617 0.13593681
0.086187035 0.07567286 -0.13142566 0.22282638 0.0651204 0.10753367 -0.056661107 0.075388156
0.19922948 0.12240278 0.005486698 0.021365352 0.058124654 -0.012254617 0.11708417 0.13366868
-0.017358406 0.027009454 -0.0593019 0.05381622 -0.015971107 0.14100616 0.086793035 0.07488491
-0.044281233 -0.05188336 -0.08885444 0.10971992 0.06936522 0.026097095 0.045005772 -0.10824143
-0.026000949 -0.09820071 0.09249445 0.019493284 0.03323183 0.10153031 0.15600602 0.031695727
-0.07102116 0.070989646 0.0201879 -0.0717253 0.20115662 0.08935342 0.109292746 0.04072928
-0.18159352 -0.04328707 -0.03043108 -0.07473158 0.107155204 -0.05190194 -0.14770792 0.048868258
-0.08602817 -0.10237914 0.09731953 -0.04078706 -0.010705782 -0.04879515 0.056644972 -0.023713307
-0.054592703 -0.070623055 0.084879495 -0.10203593 0.06715743 -0.16276662 0.0008624946 -0.12068587
0.04334473 -0.12364991 -0.04048275 -0.1664266 0.045771796 0.18371882 0.0149085075 -0.06744295
0.023716362 -0.063283324 0.008495559 -0.030361313 0.088494316 -0.10172291 -0.033773437 -0.008713565
-0.0032696342 0.07808647 -0.019321453 -0.06919134 0.04163372 -0.007807163 0.115910314 -0.05943935
0.039078124 0.021404212 0.079872504 0.04180187 0.1445436 0.07096104 0.032989524 0.004469113
-0.037903618 -0.1873989 -0.0732519 -0.051542614 -0.09008123 -0.034406155 -0.028320152 0.15797554
0.07029184 -0.034504805 0.043924324 0.023493439 -0.15525568 -0.0703274 0.09907122 -0.009222614
0.18158092 0.006124649 -0.14446461 0.09232997 0.0988931 0.016326526 0.12435102 -0.027533848
-0.11028155 0.08379156 -0.012780097 -0.079420485 0.024959361 0.01689834 0.14543352 -0.045310862
-0.13932517 0.1660987 -0.05697974 -0.013810147 -0.14846317 -0.11501232 -0.010632076 -0.13693635
-0.09129064 0.054094106 -0.099189505 0.11766185 0.09280245 -0.021375002 -0.052529663 -0.08062018
0.004048168 0.07421141 0.08540236 0.0151376985 0.011633113 -0.03868587 0.012690872 -0.082851835
0.06494617 0.17298043 -0.089555085 0.05274517 -0.04325912 0.061329216 -0.024043864 0.081048034
-0.0058568623 0.01562963 -0.11805419 -0.01516444 0.14782794 -0.104276784 -0.09676465 -0.05977474
0.098889515 0.006380392 0.0019446102 0.073206194 0.1474451 0.07081161 0.10725219 -0.07009687
-0.0056193587 0.0028113006 0.08871812 0.13291855 0.0064767194 -0.12059744 0.14698383 0.028700631
0.16181277 -0.017449314 0.029184395 0.24702306 0.032224663 0.08937996 0.09964377 -0.009589347
0.017043874 0.10168588 0.17196038 0.061421473 0.10041821 0.17308393 0.13523708 -0.011362833
0.13195884 0.15218173 0.10955474 -0.10257004 -0.008793322 0.09631598 0.1407038 0.22551209
00000000: 59eb babd e688 12be f5bd f93d 1c05 333d
00000010: ae1b b7bd 82c6 f7bd fcab 6b3b 74a2 89bd
00000020: 0fd8 c1bb 5b30 353e bb92 7cbd 18ab cc3c
00000030: 0a0c b13d 411e b73d 09c3 0f3e 629f 993d
00000040: edd7 94bc 1bb5 223e 0453 a43d 4db7 41be
00000050: 21c5 b5bc 6ff9 b53d 60ce 1dbe fa33 723d
00000060: 5ff0 acbd 428d 06bd e483 2ebd 1506 c23d
00000070: 1269 a03e 3c01 48bd 6204 36bc 65a8 7a3d
00000080: 3f06 e23d 7f21 74bd 64e7 753c 081c 153c
00000090: 2f4d fe3c db3b b6bc 41c3 f83d 0533 0b3e
000000a0: d482 b03d 5ffa 9a3d 7394 06be 992c 643e
000000b0: d85d 853d 9d3a dc3d 7a15 68bd 1b65 9a3d
000000c0: d002 4c3e 4fae fa3d c2c9 b33b 6406 af3c
000000d0: 1e14 6e3d 97c7 48bc d3c9 ef3d 71e0 083e
000000e0: 3733 8ebc ee42 dd3c 8de6 72bd 666e 5c3d
000000f0: d7d5 82bc eb63 103e 8cc0 b13d 425d 993d
00000100: 3d60 35bd a583 54bd 51f9 b5bd d6b4 e03d
00000110: 5a0f 8e3d 93c9 d53c f957 383d afad ddbd
00000120: f1ff d4bc 741d c9bd bb6d bd3d 61b0 9f3c
00000130: 191e 083d 20ef cf3d 0bc0 1f3e 61d3 013d
00000140: 8b73 91bd 0563 913d 1861 a53c b7e4 92bd
00000150: 00fc 4d3e edfe b63d e0d4 df3d bfd3 263d
00000160: a7f3 39be c84d 31bd 9a4a f9bc df0c 99bd
00000170: 3074 db3d 2197 54bd bf40 17be 152a 483d
00000180: 8a2f b0bd 28ac d1bd 764f c73d 5510 27bd
00000190: 4e67 2fbc 6cdd 47bd 8f04 683d 6942 c2bc
000001a0: 999c 5fbd d2a2 90bd 4dd5 ad3d 37f8 d0bd
000001b0: d689 893d 4bac 26be 0819 623a 272a f7bd
000001c0: 3e8a 313d 2a3c fdbd 3dd1 25bd bc6b 2abe
000001d0: 357b 3b3d c920 3c3e d042 743c 881f 8abd
000001e0: d148 c23c b09a 81bd f530 0b3c 4ab8 f8bc
000001f0: 823c b53d 1a54 d0bd 0456 0abd 57c3 0ebc
00000200: 5c47 56bb cdeb 9f3d 0648 9ebc 30b4 8dbd
00000210: 1f88 2a3d 3bd3 ffbb 6362 ed3d ad76 73bd
00000220: 6210 203d e357 af3c 3294 a33d 7038 2b3d
00000230: 3d03 143e 0654 913d 0620 073d a371 923b
00000240: d340 1bbd 7fe5 3fbe 1805 96bd 591e 53bd
00000250: 827c b8bd 78ed 0cbd aaff e7bc 57c4 213e
00000260: 2bf5 8f3d e954 0dbd fee9 333d 5075 c03c
00000270: 58fb 1ebe d007 90bd dae5 ca3d 721a 17bc
00000280: 59f0 393e 48b1 c83b 88ee 13be 7f17 bd3d
00000290: 7788 ca3d 35bf 853c bfab fe3d aa8e e1bc
000002a0: 4bdb e1bd e99a ab3d 9d63 51bc 35a7 a2bd
000002b0: 9377 cc3c 636e 8a3c 86ec 143e e297 39bd
000002c0: 42ab 0ebe c715 2a3e 9663 69bd f443 62bc
000002d0: bb06 18be 948b ebbd 2932 2ebc 0b39 0cbe
000002e0: 96f6 babd c891 5d3d de23 cbbd b2f8 f03d
000002f0: 360f be3d a11a afbc 5829 57bd 311c a5bd
00000300: 7fa6 843b 27fc 973d 6fe7 ae3d 1c04 783c
00000310: d098 3e3c 1375 1ebd 60ed 4f3c 39ae a9bd
00000320: 7f02 853d c821 313e a868 b7bd 520b 583d
00000330: 7a30 31bd 5834 7b3d a3f7 c4bc 83fc a53d
00000340: ecea bfbb b609 803c 65c6 f1bd 4574 78bc
00000350: 3560 173e 118f d5bd 8b2c c6bd 5cd6 74bd
00000360: 9686 ca3d 9b12 d13b 4ae2 fe3a 21ed 953d
00000370: d9fb 163e ad05 913d 09a7 db3d f38e 8fbd
00000380: 9922 b8bb cc3d 383b d8b1 b53d cd1b 083e
00000390: a93a d43b cafb f6bd ee82 163e 961d eb3c
000003a0: 3fb2 253e ddf1 8ebc 1d14 ef3c 9df3 7c3e
000003b0: 02fe 033d d70c b73d 0812 cc3d a31c 1dbc
000003c0: 989f 8b3c b040 d03d 6216 303e 1595 7b3d
000003d0: 10a8 cd3d ea3c 313e 977b 0a3e 2d2b 3abc
000003e0: 3820 073e 87d5 1b3e 3c5e e03d 3e10 d2bd
000003f0: de11 10bc 5041 c53d a814 103e a4ec 663e

main_network.lstm.bias_hh_l0 f4 [256]
0.029221598 -0.06299484 0.12005995 0.050807215 0.0039404463 -0.026923297 0.05315558 0.029475082
-0.06510356 0.14542356 -0.08942239 0.060696006 -0.0543743 -0.07467821 0.20792684 0.04669311
0.074476674 0.06663235 0.06826936 -0.20565388 0.11215796 -0.14746542 0.012659355 -0.057059515
0.08926408 0.06369781 0.028753141 0.19044808 0.2969863 0.08586244 -0.04857807 0.04135774
0.024674667 0.045869842 0.05853535 -0.035139594 0.082669154 -0.07196927 0.0041858167 0.10886906
0.21831511 -0.13731857 0.07528993 0.040202413 -0.032850944 0.07437079 -0.037346493 0.13032037
0.22101083 0.041072655 -0.109671615 0.07491497 0.06410162 0.17295825 -0.031680338 0.124706976
0.108767055 -0.034860972 -0.01991645 -0.10459729 0.20022087 0.065893985 -0.057091355 0.14537777
0.0564003 -0.062494572 -0.12210433 0.033194985 -0.10334421 0.0058292244 -0.1073661 -0.14942157
0.088641845 -0.17304248 -0.012069075 -0.032920368 0.11355881 0.055514444 0.0577063 -0.116284885
0.094594434 0.119337045 -0.023467826 -0.06817821 0.054018825 -0.14358653 0.1066765 -0.090288095
-0.09035044 -0.041741136 0.019013295 -0.20252866 0.013431177 -0.032139093 0.052642483 -0.074902676
0.13843173 -0.24655026 0.16878544 0.10634131 -0.06427314 -0.096098214 0.06296579 0.07660976
-0.09612156 -0.068325125 0.1235812 -0.1356922 -0.09445378 0.07301438 0.18519449 -0.08189351
0.21738707 -0.09230995 -0.007698866 -0.031813767 0.06625573 0.19365102 -0.04306934 0.120949544
0.051372867 0.067449145 -0.0060042185 -0.03678707 0.10007428 -0.15070117 -0.09009628 -0.07511779
0.103431754 0.037513793 0.1226167 -0.034433354 -0.09443491 -0.03132943 0.00049501343 0.019876538
0.11437116 0.08234048 0.03578245 -0.0075307125 -0.02844042 0.007710624 0.18611631 0.111454815
0.06322678 -0.13776122 -0.028805409 -0.0016359653 -0.045495197 -0.0001891549 0.05784755 0.05021559
0.07774418 0.019801123 -0.11807 0.14374246 -0.08827737 0.014073005 -0.075111955 -0.021935865
0.07464026 -0.015964024 -0.02749512 -0.042683598 0.022998136 -0.026636135 -0.08819392 -0.00893343
0.094826 -0.045652304 -0.15179086 0.021913871 0.11142263 -0.033519775 0.052484427 0.06809767
-0.024447424 0.018833663 -0.093596995 0.07360335 0.061910797 -0.15382521 -0.14778788 -0.12927866
-0.15840098 0.07445974 -0.07793216 0.13593274 0.01866868 -0.012433877 -0.0015826756 0.03658961
0.087543786 -0.048747182 -0.017845357 0.12465023 0.12633182 -0.033715528 0.16388696 -0.09939069
0.034639984 0.16117279 -0.03647168 0.02010678 -0.016208809 -0.043372378 0.17069858 0.029374389
-0.024182586 0.07311858 0.09801828 0.01108168 0.1067914 0.08764986 -0.13487135 0.011394877
0.03483806 0.009254013 0.08548248 0.0025451733 0.26723084 -0.113283575 -0.06967054 0.10967286
0.011706746 0.029472752 0.1764154 -0.03233179 -0.06520563 -0.066641934 -0.012365768 0.09929582
0.21518047 -0.032673154 -0.11975297 0.1698722 0.05551123 0.14081436 0.19662914 -0.059620135
0.035003476 0.0637134 0.017568266 0.049025774 -0.0017086434 0.10326525 0.028385693 -0.012457313
-0.032162413 0.15368067 0.10547681 -0.082744636 0.17497574 0.07156595 0.0672087 0.18148796
00000000: 2262 ef3c 7003 81bd fee1 f53d 3a1b 503d
00000010: dc1e 813b 3f8e dcbc aab9 593d ba75 f13c
00000020: 0455 85bd eae9 143e 1623 b7bd 609c 783d
00000030: 96b7 5ebd e4f0 98bd c6ea 543e 4641 3f3d
00000040: 3a87 983d 8b76 883d ced0 8b3d ee96 52be
00000050: 13b3 e53d 2d01 17be 2f69 4f3c 3db7 69bd
00000060: 16d0 b63d ff73 823d b58b eb3c d204 433e
00000070: 970e 983e a6d8 af3d ccf9 46bd bc66 293d
00000080: 8722 ca3c 04e2 3b3d c3c2 6f3d 89ee 0fbd
00000090: 724e a93d a064 93bd 2d29 893b bef6 de3d
000000a0: ff8d 5f3e 3d9d 0cbe 9b31 9a3d 49ab 243d
000000b0: b68e 06bd b64f 983d a3f8 18bd b472 053e
000000c0: aa50 623e cd3b 283d 839b e0bd 056d 993d
000000d0: b647 833d f81b 313e 3ec3 01bd 5f66 ff3d
000000e0: 43c1 de3d 61ca 0ebd d327 a3bc 1b37 d6bd
000000f0: b306 4d3e 6df3 863d a0d8 69bd e9dd 143e
00000100: 0004 673d 4ffa 7fbd d611 fabd 77f7 073d
00000110: 21a6 d3bd 1403 bf3b c2e2 dbbd f801 19be
00000120: db89 b53d 0c32 31be 5fbd 45bc 82d7 06bd
00000130: 8591 e83d 1d63 633d 715d 6c3d c526 eebd
00000140: baba c13d fb66 f43d 993f c0bc 04a1 8bbd
00000150: d842 5d3d 5908 13be 3579 da3d f7e8 b8bd
00000160: a709 b9bd c1f8 2abd c5c1 9b3c ac63 4fbe
00000170: 700e 5c3c 48a4 03bd a59f 573d 9366 99bd
00000180: 0cc1 0d3e ac77 7cbe 17d6 2c3e 79c9 d93d
00000190: a3a1 83bd 24cf c4bd 35f4 803d 94e5 9c3d
000001a0: 61db c4bd 0bee 8bbd 2418 fd3d e5f2 0abe
000001b0: fc70 c1bd 9088 953d a0a3 3d3e c9b7 a7bd
000001c0: b79a 5e3e 000d bdbd c546 fcbb 274f 02bd
000001d0: 16b1 873d 744c 463e 7a69 30bd 65b4 f73d
000001e0: 5b6c 523d c722 8a3d 09bf c4bb 0aae 16bd
000001f0: bef3 cc3d 6851 1abe 6684 b8bd 5bd7 99bd
00000200: 07d4 d33d 10a8 193d 771e fb3d fd09 0dbd
00000210: 1767 c1bd 4a53 00bd cac3 013a 1fd4 a23c
00000220: 6d3b ea3d 20a2 a83d 9e90 123d 32c4 f6bb
00000230: e2fb e8bc 67a9 fc3b 4695 3e3e 6c42 e43d
00000240: 0b7d 813d 4711 0dbe 52f9 ebbc e36d d6ba
00000250: 2c59 3abd e257 46b9 8df1 6c3d ddae 4d3d
00000260: 5738 9f3d f735 a23c afce f1bd 3931 133e
00000270: c4ca b4bd 7692 663c 4cd4 99bd d8b2 b3bc
00000280: fedc 983d fcc6 82bc 723d e1bc ffd4 2ebd
00000290: 9666 bc3c 0634 dabc 049f b4bd 855d 12bc
000002a0: 2234 c23d e9fd 3abd 106f 1bbe b884 b33c
000002b0: 8c31 e43d 084c 09bd e9f9 563d cb76 8b3d
000002c0: f745 c8bc 0e49 9a3c c8af bfbd 5abd 963d
000002d0: 2d96 7d3d 5b84 1dbe b555 17be a061 04be
000002e0: de33 22be 597e 983d e59a 9fbd f431 0b3e
000002f0: 0fef 983c 76b7 4bbc c871 cfba fdde 153d
00000300: 284a b33d 20ab 47bd 6d30 92bc 9f48 ff3d
00000310: 215d 013e 4b19 0abd fcd1 273e 598d cbbd
00000320: a8e2 0d3d 7b0a 253e 5463 15bd f9b6 a43c
00000330: 56c8 84bc 3ca7 31bd 9ccb 2e3e 8fa2 f03c
00000340: 8f1a c6bc 32bf 953d cfbd c83d ef8f 353c
00000350: 73b5 da3d c581 b33d b71b 0abe 94b1 3a3c
00000360: 5bb2 0e3d 259e 173c 7011 af3d eccc 263b
00000370: 7bd2 883e 3801 e8bd 6eaf 8ebd 2a9c e03d
00000380: a7cd 3f3c d770 f13c 3da6 343e 576e 04bd
00000390: 888a 85bd 917b 88bd ca99 4abc 9b5b cb3d
000003a0: 4558 5c3e 49d4 05bd 0c41 f5bd faf2 2d3e
000003b0: be5f 633d a431 103e 2659 493e 3e34 74bd
000003c0: ce5f 0f3d 2c7c 823d 53eb 8f3c 40cf 483d
000003d0: 8ff4 dfba bb7c d33d 1d89 e83c c219 4cbc
000003e0: bcbc 03bd 775e 1d3e 3a04 d83d 0576 a9bd
000003f0: d72c 333e 2b91 923d b7a4 893d fbd7 393e

main_network.fc.weight f4 [3, 64]
0.0045946776 -0.002023743 -0.016178958 -0.0309891 0.16231789 0.12024193 0.06882982 -0.26490268
0.02751543 -0.0057247067 0.03190391 -0.04310478 -0.037815243 -0.12231459 -0.12596685 0.03292116
-0.015896376 0.029304791 -0.075198784 0.05680416 -0.036446486 0.05373866 -0.05652971 0.07958052
0.081846856 0.06481792 0.018938022 0.03869419 -0.10117749 0.033770427 -0.017613113 -0.039883424
0.019224606 0.004968048 -0.05598305 -0.07617789 -0.091712125 0.04186825 0.055782575 0.070589945
-0.0980876 -0.037871554 0.094146006 -0.031875014 0.026684249 -0.07989795 -0.11488535 -0.017600548
-0.12609848 0.03125488 -0.051095936 -0.0012403558 0.05235495 0.00058636034 0.002903423 -0.05860738
-0.101653 0.030556034 -0.056518696 0.009214396 -0.02285278 0.13203436 0.03679688 -0.06403478
0.01494163 -0.0799848 0.015388764 -0.036094494 0.07306753 -0.051050488 0.12309651 -0.27553785
-0.007876269 -0.050509248 0.08082628 -0.0630004 -0.08572477 -0.14657353 0.044989314 0.07349876
-0.016134731 -0.089391604 -0.0016460237 0.050586104 -0.01410237 -0.0021254127 0.09588765 0.09443301
-0.16883227 -0.00012230748 0.017583823 -0.017079733 -0.08286907 0.04101297 0.13014896 -0.07586225
-0.036424823 -0.0344672 -0.06608901 0.045053646 0.10429602 -0.0314008 0.056670025 0.0605105
0.056052186 -0.053343214 0.077151366 -0.016279947 0.048837304 -0.06780454 -0.103974864 -0.09100949
0.007357575 -0.12822051 -0.016820405 -0.028160412 -0.026750969 -0.050437458 0.027866123 0.028999818
0.031602904 0.13303564 0.041467644 -0.006969086 0.017792234 -0.2248556 0.092309535 0.015765065
-0.1129564 0.067069225 0.23659134 0.15380466 -0.25451726 0.097654335 -0.22039539 0.17241335
0.07727703 0.16918942 0.013699541 -0.040655416 0.0173678 0.14709327 0.11144445 0.09878642
-0.087284155 -0.28049773 0.029662667 0.2239405 -0.17216997 0.114654504 -0.107219286 0.25759655
-0.10080998 0.3751242 -0.25142744 0.2543784 -0.25299382 0.071540914 -0.12660025 -0.051749725
0.3499541 0.07641044 -0.20723018 0.026590303 0.04393704 0.02863141 0.21769936 -0.22518225
-0.19285111 -0.26346153 -0.089053005 0.22105475 0.30733284 -0.16791928 0.14781056 -0.2551098
-0.199433 0.1667997 -0.15436043 0.16392437 -0.0069220816 -0.19506942 -0.02095342 -0.008656471
-0.21995835 0.21892042 -0.27341527 -0.11582307 0.13105704 -0.18925007 -0.0767035 0.15980555
00000000: f38e 963b c6a0 04bb bc89 84bc dadc fdbc
00000010: a936 263e 6741 f63d a6f6 8c3d 53a1 87be
00000020: 0a68 e13c 5296 bbbb adad 023d a38e 30bd
00000030: 28e4 1abd 1280 fabd 74fd 00be 57d8 063d
00000040: 1e39 82bc 9a10 f03c d201 9abd 7bab 683d
00000050: e948 15bd 121d 5c3d b28b 67bd 1dfb a23d
00000060: 539f a73d 42bf 843d e923 9b3c cd7d 1e3d
00000070: 2536 cfbd dc52 0a3d 6049 90bc cd5c 23bd
00000080: ec7c 9d3c 02cb a23b 7c4e 65bd 2703 9cbd
00000090: 91d3 bbbd 0b7e 2b3d 457c 643d 7691 903d
000000a0: 27e2 c8bd 341f 1bbd 9fcf c03d 608f 02bd
000000b0: ed98 da3c 89a1 a3bd 0349 ebbd 062f 90bc
000000c0: f61f 01be 1e05 003d f949 51bd 6f93 a2ba
000000d0: 2572 563d fab5 193a 5b47 3e3b 4b0e 70bd
000000e0: 732f d0bd a650 fa3c 2680 67bd faf7 163c
000000f0: c135 bbbc 0434 073e 53b8 163d ab24 83bd
00000100: bdcd 743c 12cf a3bd 2821 7c3c d2d7 13bd
00000110: 6ea4 953d 511a 51bd 061a fc3d 4c13 8dbe
00000120: 770b 01bc c9e2 4ebd 4088 a53d 5b06 81bd
00000130: 7890 afbd 5f17 16be b746 383d 8586 963d
00000140: fc2c 84bc f212 b7bd 64bf d7ba 6033 4f3d
00000150: a00d 67bc 824a 0bbb bf60 c43d 1866 c13d
00000160: 5ee2 2cbe aa3f 00b9 f30b 903c ccea 8bbc
00000170: 42b7 a9bd 37fd 273d c545 053e ab5d 9bbd
00000180: 3232 15bd 7b2d 0dbd ad59 87bd 2c8a 383d
00000190: 2799 d53d 209e 00bd d41e 683d dcd9 773d
000001a0: fa96 653d 6a7e 5abd 8901 9e3d 865d 85bc
000001b0: a009 483d 1bdd 8abd c6f0 d4bd 2f63 babd
000001c0: d017 f13b 3d4c 03be f2ca 89bc aab0 e6bc
000001d0: d924 dbbc 8297 4ebd 7f47 e43c 0791 ed3c
000001e0: 0c72 013d 7f3a 083e fad9 293d ee5c e4bb
000001f0: 05c1 913c 8c40 66be c80c bd3d bd25 813c
00000200: af55 e7bd 975b 893d 0045 723e f87e 1d3e
00000210: 1650 82be fffe c73d 54af 61be 208d 303e
00000220: 6b43 9e3d fe3f 2d3e 0a74 603c 4b86 26bd
00000230: eb46 8e3c 9e9f 163e fd3c e43d 8950 ca3d
00000240: 09c2 b2bd 669d 8fbe 1fff f23c a950 653e
00000250: 534d 30be fbcf ea3d c995 dbbd b2e3 833e
00000260: 7675 cebd 4710 c03e 19bb 80be e33d 823e
00000270: 6888 81be 0b84 923d 7fa3 01be 85f7 53bd
00000280: 2f2d b33e 147d 9c3d 2634 54be e8d3 d93c
00000290: 53f7 333d 6b8c ea3c 95ec 5e3e 2d96 66be
000002a0: c37a 45be 6ee4 86be 6c61 b6bd 2d5c 623e
000002b0: bb5a 9d3e 08f3 2bbe a75b 173e c09d 82be
000002c0: 2a38 4cbe 8acd 2a3e a910 1ebe cadb 273e
000002d0: a1d2 e2bb 47c0 47be 82a6 abbc dfd3 0dbc
000002e0: c33c 61be ad2c 603e 16fd 8bbe a534 edbd
000002f0: d133 063e c5ca 41be b916 9dbd 11a4 233e

main_network.fc.bias f4 [3]
0.08146236 0.08325936 0.039333586
00000000: bdd5 a63d e283 aa3d 411c 213d

short_term_context_network.fc1.weight f4 [32, 7]
-0.22329341 0.12018102 -0.36993232 -0.2006707 0.045388132 0.25908464 -0.17073947 0.15848109
-0.039749354 -0.10998352 -0.12537229 -0.04201183 -0.0135604385 0.47339022 0.1506295 -0.3595891
0.29707098 0.26243374 -0.048775323 0.21398549 -0.06933842 -0.03207937 -0.15119258 -0.2015631
0.12397237 -0.35403192 0.07502064 0.12075783 -0.097634524 -0.018776102 0.12508388 -0.31367782
0.0060047787 -0.22217977 0.19637105 -0.022672813 0.2537824 0.13387434 0.074276984 -0.06316915
0.02227084 0.13710411 -0.19928719 -0.15200086 -0.032597028 0.12159265 -0.08967116 -0.32755235
-0.1283364 0.055529796 0.3761734 0.06778108 0.23148231 0.50894505 0.24941967 -0.22624813
-0.2218674 -0.36062294 -0.097471856 -0.13927585 0.11493128 -0.12692845 -0.27660993 0.08629652
-0.1546138 0.20801476 0.025811553 -0.5167981 0.06565848 0.23466565 0.20520917 0.31684107
0.1179038 -0.3195504 0.11301767 0.23174852 -0.06439145 -0.048837237 0.08243475 -0.17798443
0.15459685 -0.08949603 -0.1823918 0.33118 -0.37498114 -0.1923793 -0.08294119 -0.2473121
-0.31900302 -0.29193312 0.26765513 -0.23686713 0.3192056 0.16097276 0.13706693 0.08192084
-0.20872301 0.048142824 -0.0019750681 0.22980331 0.12392587 -0.011239437 0.04873275 0.04624259
-0.3720617 0.46851346 0.007071136 0.011150044 0.18897215 -0.07596422 -0.28164566 -0.04557643
-0.0021359765 0.1212016 0.037406668 0.20445666 0.119409256 0.36710182 0.123088896 0.1911176
0.015401251 0.06573965 0.2553342 -0.18587136 0.23043944 0.30788764 0.40998146 -0.19188516
0.23944561 -0.069950216 -0.15160236 0.16931863 -0.52682364 0.2630958 0.021930713 0.30983666
0.12627342 -0.095885605 0.04309451 0.012500322 -0.053456467 0.29051137 0.30150467 0.3018238
-0.22683632 -0.11351881 0.31130934 -0.18441992 0.16267523 0.15419215 -0.24297042 -0.35284558
-0.34198263 -0.11196685 -0.010693918 0.36527056 -0.13076632 0.026533138 0.25790435 0.34980392
-0.40830845 0.07861168 0.062484697 0.022525825 0.04841555 -0.17723686 -0.22004971 -0.25509095
-0.12659742 0.005962737 0.12415247 0.27117738 -0.05097622 -0.3548299 -0.050760884 0.011859159
-0.29803288 -0.2018954 0.36366904 -0.18682072 -0.002176936 0.28501 -0.11631002 0.016780892
-0.27201992 0.17222288 -0.18253218 0.008830681 0.289883 -0.28886676 -0.047386948 0.07489426
0.07497973 -0.014619275 -0.17857382 0.33096907 -0.27215204 -0.011129409 -0.34529656 -0.0028973825
-0.3769779 0.40114295 -0.32420382 0.0015752058 -0.0033871506 -0.14432429 -0.0047965297 0.11101508
-0.26859918 0.10972393 -0.09555348 -0.1973205 -0.33338717 0.22933386 0.23319225 0.27163225
-0.28060687 0.2583766 0.21328235 -0.005847256 0.045389485 -0.3704602 -0.012313341 0.40971687
00000000: 07a7 64be 7721 f63d c567 bdbe 9f7c 4dbe
00000010: e8e8 393d bea6 843e 54d6 2ebe de48 223e
00000020: 38d0 22bd 0a3f e1bd 9861 00be 9914 2cbd
00000030: 9a2c 5ebc 3460 f23e 9f3e 1a3e 101c b8be
00000040: b019 983e b75d 863e a2c8 47bd 031f 5b3e
00000050: 4d01 8ebd a865 03bd 3ad2 1abe 8f66 4ebe
00000060: 3ae5 fd3d ac43 b5be 6ca4 993d e24f f73d
00000070: 9cf4 c7bd 57d0 99bc fd15 003e 619a a0be
00000080: bcc3 c43b 1883 63be 7e15 493e 56bc b9bc
00000090: c4ef 813e 5b16 093e 881e 983d d45e 81bd
000000a0: 5671 b63c 0565 0c3e f111 4cbe 1da6 1bbe
000000b0: 7684 05bd 9105 f93d 83a5 b7bd f1b4 a7be
000000c0: 9e6a 03be 3673 633d cd99 c03e cfd0 8a3d
000000d0: b309 6d3e 394a 023f df67 7f3e 97ad 67be
000000e0: 3531 63be 92a3 b8be 539f c7bd 549e 0ebe
000000f0: 1761 eb3d 88f9 01be d19f 8dbe 3bbc b03d
00000100: 1453 1ebe d201 553e c072 d33c e14c 04bf
00000110: f477 863d 314c 703e 5a22 523e fe38 a23e
00000120: 8c77 f13d 1c9c a3be cf75 e73d 7c4f 6d3e
00000130: aadf 83bd 8e09 48bd 8dd3 a83d 8d41 36be
00000140: a34e 1e3e b249 b7bd ebc4 3abe 6d90 a93e
00000150: 87fd bfbe 14ff 44be 12dd a9bd 623f 7dbe
00000160: 5d54 a3be 4278 95be 180a 893e 4c8d 72be
00000170: eb6e a33e 0bd6 243e 465b 0c3e 1dc6 a73d
00000180: 7cbb 55be 6931 453d 2570 01bb 8f51 6b3e
00000190: d9cc fd3d 9e25 38bc fe9b 473d df68 3d3d
000001a0: df7e bebe ffe0 ef3e fdb4 e73b adae 363c
000001b0: ea81 413e 2193 9bbd dc33 90be 5aae 3abd
000001c0: bdfb 0bbb 8b38 f83d bc37 193d 165d 513e
000001d0: d78c f43d c5f4 bb3e 0816 fc3d 55b4 433e
000001e0: 8755 7c3c 82a2 863d 2abb 823e 1055 3ebe
000001f0: 51f8 6b3e 73a3 9d3e 17e9 d13e 8b7d 44be
00000200: 3b31 753e 0f42 8fbd a63d 1bbe dd61 2d3e
00000210: eadd 06bf 7eb4 863e 0aa8 b33c e9a2 9e3e
00000220: d24d 013e ac5f c4bd de83 303d 27ce 4c3c
00000230: 2bf5 5abd e8bd 943e d25e 9a3e a688 9a3e
00000240: c847 68be 8d7c e8bd f063 9f3e 93d8 3cbe
00000250: 5694 263e 8ce4 1d3e 3dcd 78be 2da8 b4be
00000260: 5918 afbe e04e e5bd 8b35 2fbc be04 bb3e
00000270: 9be7 05be 065c d93c 0a0c 843e 8019 b33e
00000280: ce0d d1be 29ff a03d f4ef 7f3d 1488 b83c
00000290: 624f 463d 947d 35be b654 61be 489b 82be
000002a0: c1a2 01be 1063 c33b a643 fe3d c3d7 8a3e
000002b0: 71cc 50bd 44ac b5be a5ea 4fbd eb4c 423c
000002c0: c497 98be abbd 4ebe d432 ba3e ee4d 3fbe
000002d0: edaa 0ebb d5ec 913e f333 eebd 1578 893c
000002e0: 3246 8bbe 325b 303e b7e9 3abe 90ae 103c
000002f0: 8b6b 943e 58e6 93be d118 42bd 2962 993d
00000300: f98e 993d af85 6fbc 0edc 36be c774 a93e
00000310: 8357 8bbe 2058 36bc b6ca b0be 03e2 3dbb
00000320: 3f03 c1be 9c62 cd3e 0bfe a5be 2377 ce3a
00000330: f5fa 5dbb bfc9 13be 352c 9dbb e05b e33d
00000340: d585 89be f1b6 e03d 8bb1 c3bd 630e 4abe
00000350: b9b1 aabe 7fd6 6a3e f3c9 6e3e 6213 8b3e
00000360: b4ab 8fbe f049 843e b066 5a3e 579a bfbb
00000370: 53ea 393d f6ac bdbe e5bd 49bc 69c6 d13e

short_term_context_network.fc1.bias f4 [32]
-0.32786334 -0.017212719 -0.23346892 -0.17104338 0.017726023 0.011231914 0.08849742 0.07536176
0.0666035 -0.12271191 -0.19532126 -0.11923389 0.25966534 0.046833057 -0.12618363 -0.021291886
-0.17618299 -0.14899601 -0.30018187 0.22960314 -0.32969832 0.23309456 0.35798234 -0.23738477
0.26021844 0.08821938 0.3999707 0.30881208 -0.054772962 0.20810768 -0.22052613 -0.18100625
00000000: b4dd a7be b001 8dbc 7a12 6fbe ff25 2fbe
00000010: 2a36 913c 1006 383c 233e b53d 4457 9a3d
00000020: 6a67 883d 6250 fbbd 4c02 48be e630 f4bd
00000030: dbf2 843e 05d4 3f3d 4836 01be 526c aebc
00000040: 5069 34be 6992 18be 70b1 99be 161d 6b3e
00000050: 38ce a8be 57b0 6e3e 7649 b73e fe14 73be
00000060: 5a3b 853e 5dac b43d f6c8 cc3e 9e1c 9e3e
00000070: 9d59 60bd 2e1a 553e 9ad1 61be b459 39be

short_term_context_network.fc2.weight f4 [16, 32]
0.12033148 -0.19449005 0.0047242614 -0.0015565463 -0.18865812 -0.16962555 0.07408135 -0.13404894
-0.06351292 -0.07057387 0.01649575 0.06393308 0.11006285 0.015769623 -0.015300001 -0.018756948
-0.03551753 -0.04502771 -0.11887436 -0.17325526 0.013682917 0.1281721 -0.10846369 0.077951774
-0.116807975 0.08979629 0.089531966 0.038216572 0.078311816 0.13075629 0.030636312 0.0122720245
-0.034955036 -0.10177284 -0.09252757 0.08718594 -0.014376522 -0.15996231 -0.021059304 -0.055813618
-0.0022258805 -0.15665722 -0.12479903 0.063851565 0.17609385 0.14259572 -0.10314078 0.1314776
0.14389151 -0.036312714 0.046094343 0.16780095 -0.06190721 0.025495302 -0.015638294 0.0751614
-0.14205207 0.030015046 -0.1196058 -0.06062704 0.105796784 0.07834749 -0.14697078 -0.029098395
0.14133602 0.0284979 0.22281672 -0.08744946 0.06488264 0.039868116 0.009713563 0.3972179
0.24093048 0.18564847 0.15698013 -0.051149644 -0.13985349 0.12163005 -0.025132144 0.27027643
0.037724227 -0.09091497 0.37696716 0.3275061 0.13044745 -0.27941263 0.20251143 0.10544065
-0.0053145997 -0.04887703 0.14300677 0.0987743 0.099053405 0.061418783 0.109141245 0.028660985
0.023179207 0.027859602 -0.010379781 0.119413376 -0.026893888 0.09741059 0.009389833 -0.16123481
-0.00019918519 0.021201082 -0.05028138 -0.1266758 0.041983932 -0.1600855 -0.107063174 -0.12055593
-0.07233191 0.043231882 0.08058892 -0.15304407 0.123881035 0.1311453 -0.09412672 -0.081230335
-0.17761333 0.061551865 -0.21211053 -0.12329306 -0.16208988 0.05689195 0.14661364 -0.086829744
-0.06717655 0.19737837 -0.045603428 0.11460864 0.24027574 -0.040532265 -0.03716334 -0.26311636
-0.05500947 0.27599335 0.010540029 0.26252934 -0.0630468 -0.10845139 -0.12225112 -0.26087016
0.08035447 -0.089933544 -0.13901927 -0.10135527 -0.0009366405 0.19084716 -0.01802281 0.147921
0.16213188 -0.04868509 0.1628688 0.08857937 0.07134539 0.09797353 -0.00026414884 0.07460013
0.089778475 -0.14164782 -0.18719628 -0.0008200091 -0.0040851193 0.11113938 -0.010941005 -0.20687076
-0.12214804 0.14854789 -0.041870676 -0.1498749 -0.20438497 0.09116593 0.004250931 -0.11371558
-0.066848665 0.068355314 -0.03813679 -0.06411669 -0.0030276314 0.111499324 -0.112669215 -0.17170231
0.077383794 0.087322466 -0.08779284 0.08560975 -0.13293055 0.11734454 -0.15190233 -0.14557204
-0.13199577 -0.0506265 0.23042034 0.114003345 -0.11523291 -0.15356308 -0.17596166 0.26915234
0.19174118 -0.13044207 0.21421996 -0.06107938 -0.12958975 -0.07264698 -0.08134795 0.13441321
0.07872202 -0.25018615 0.15824905 -0.049296115 -0.0015027248 0.007989212 0.10785458 -0.08958361
0.2091979 -0.10022049 -0.039275073 0.047061663 0.07082464 0.09620811 0.018484427 -0.06355651
-0.14859693 0.18725708 -0.009982394 0.14013329 -0.008688787 -0.12122929 -0.16061732 0.054951623
-0.07696832 -0.11076994 0.060931176 -0.16415702 0.030844687 -0.065736964 0.1578643 0.14187533
-0.2367783 0.19718425 -0.031185752 0.19268125 0.011511084 -0.01006492 0.05692723 -0.10475812
-0.04329737 0.017586265 -0.13435407 -0.13802968 -0.15660763 -0.076502495 -0.20056216 0.16229329
00000000: 5a70 f63d 6628 47be facd 9a3b 0705 ccba
00000010: 982f 41be 52b2 2dbe f6b7 973d 2044 09be
00000020: 1013 82bd 0889 90bd 1822 873c 59ef 823d
00000030: a268 e13d 4c2f 813c dbac 7abc 2ca8 99bc
00000040: d47a 11bd fa6e 38bd 6774 f3bd d469 31be
00000050: 502e 603c 8c3f 033e 3622 debd 2ea5 9f3d
00000060: 0539 efbd 1ee7 b73d 895c b73d fb88 1c3d
00000070: f261 a03d fae4 053e 01f9 fa3c 9a10 493c
00000080: 032d 0fbd 476e d0bd 187f bdbd 8b8e b23d
00000090: 818b 6bbc 29cd 23be 9084 acbc d29c 64bd
000000a0: 14e0 11bb c06a 20be a296 ffbd 9cc4 823d
000000b0: f251 343e 9d04 123e 793b d3bd 10a2 063e
000000c0: 4c58 133e a4bc 14bd 6ccd 3c3d 03d4 2b3e
000000d0: 6a92 7dbd 86db d03c e11b 80bc 38ee 993d
000000e0: 1976 11be 1de2 f53c e3f3 f4bd 0f54 78bd
000000f0: fcab d83d a674 a03d 827f 16be c25f eebc
00000100: 64ba 103e 6e74 e93c 112a 643e b418 b3bd
00000110: 31e1 843d c04c 233d a325 1f3c 2560 cb3e
00000120: 7bb6 763e a21a 3e3e 66bf 203e 4a82 51bd
00000130: c135 0fbe 2d19 f93d ede1 cdbc ac61 8a3e
00000140: b884 1a3d a131 babd d701 c13e e1ae a73e
00000150: 0494 053e 2c0f 8fbe 285f 4f3e 44f1 d73d
00000160: 1826 aebb 4833 48bd 5e70 123e 2e4a ca3d
00000170: 83dc ca3d 4392 7b3d 7285 df3d 71ca ea3c
00000180: 52e2 bd3c d239 e43c f50f 2abc 008f f43d
00000190: 9250 dcbc 347f c73d d0d7 193c bd1a 25be
000001a0: 5edc 50b9 e4ad ad3c d9f3 4dbd 4db7 01be
000001b0: 58f7 2b3d 74ed 23be f043 dbbd 07e6 f6bd
000001c0: c122 94bd ea13 313d ce0b a53d 96b7 1cbe
000001d0: 57b5 fd3d f44a 063e 83c5 c0bd 175c a6bd
000001e0: 45e0 35be cf1d 7c3d 8133 59be 1281 fcbd
000001f0: e4fa 25be 8907 693d e321 163e cbd3 b1bd
00000200: dc93 89bd 8e1d 4a3e a9ca 3abd efb7 ea3d
00000210: d80a 763e 2905 26bd 9638 18bd 30b7 86be
00000220: 9c51 61bd 004f 8d3e 16b0 2c3c 3f6a 863e
00000230: ae1e 81bd c31b debd cc5e fabd c690 85be
00000240: e290 a43d 142f b8bd 115b 0ebe 5a93 cfbd
00000250: e188 75ba 706d 433e 92a4 93bc 9a78 173e
00000260: e605 263e 046a 47bd 14c7 263e 1a69 b53d
00000270: 881d 923d 59a6 c83d 757d 8ab9 f4c7 983d
00000280: c7dd b73d 200c 11be 62b0 3fbe e1f5 56ba
00000290: 77dc 85bb 0b9d e33d e741 33bc eed5 53be
000002a0: c028 fabd f01c 183e 9680 2bbd ce78 19be
000002b0: 4b4a 51be 34b5 ba3d 654b 8b3b b7e3 e8bd
000002c0: f4e7 88bd dffd 8b3d 5335 1cbd 9c4f 83bd
000002d0: 3a6b 46bb c259 e43d 1ebf e6bd bbd2 2fbe
000002e0: 657b 9e3d 1fd6 b23d bccc b3bd 2a54 af3d
000002f0: f21e 08be 5652 f03d 498c 1bbe d610 15be
00000300: e629 07be bc5d 4fbd 4ff3 6b3e 967a e93d
00000310: 3bff ebbd a43f 1dbe 4b2f 34be 56ce 893e
00000320: cd57 443e 9b92 05be 7a5c 5b3e 5f2e 7abd
00000330: 2db3 04be f1c7 94bd c199 a6bd 9ea3 093e
00000340: 0339 a13d 6618 80be 0a0c 223e b9ea 49bd
00000350: 14f7 c4ba 2fe5 023c dde2 dc3d 9d77 b7bd
00000360: f937 563e 6640 cdbd e6de 20bd bbc3 403d
00000370: 820c 913d c208 c53d a76c 973c ea29 82bd
00000380: cb29 18be 52c0 3f3e 328d 23bc 1a7f 0f3e
00000390: 6a5b 0ebc 1047 f8bd de78 24be f414 613d
000003a0: 91a1 9dbd 5adb e2bd f892 793d c718 28be
000003b0: ffad fc3c 1aa1 86bd 2ea7 213e c447 113e
000003c0: 0376 72be abea 493e 4379 ffbc 3c4e 453e
000003d0: fc98 3c3c 56e7 24bc 872c 693d 6d8b d6bd
000003e0: 9558 31bd 1211 903c 1d94 09be a757 0dbe
000003f0: c05d 20be 57ad 9cbd 2b60 4dbe 3630 263e

short_term_context_network.fc2.bias f4 [16]
-0.09180851 -0.15727817 0.24561957 0.0978237 0.12793885 -0.015121957 0.14403263 -0.12223732
-0.067791834 0.2759862 -0.018718563 0.119077094 0.13619255 0.09530576 0.045690805 0.14305094
00000000: 1a06 bcbd 870d 21be b283 7b3e cb57 c83d
00000010: 6702 033e 16c2 77bc 4a7d 133e 8f57 fabd
00000020: 72d6 8abd 104e 8d3e ac57 99bc b1de f33d
00000030: 0f76 0b3e ab2f c33d 4826 3b3d f27b 123e

short_term_context_network.fc3.weight f4 [1, 16]
-0.2235565 0.2334713 -0.36557674 -0.13545847 0.0718706 -0.11543242 -0.33326527 -0.09660684
0.008366461 -0.36500755 0.2745595 0.08061985 -0.100306086 0.30760285 -0.16456378 0.22177157
00000000: ffeb 64be 1a13 6f3e e02c bbbe a0b5 0abe
00000010: e530 933d d567 ecbd bfa1 aabe cfd9 c5bd
00000020: 7b13 093c 45e2 babe 1093 8c3e 051c a53d
00000030: 476d cdbd 1f7e 9d3e 6883 28be 1618 633e
