Uni_Research/IRL/Final/Extended/old/V2/learned_policy_new.pth (torch, 85646 bytes, 6 tensors)

lstm.weight_ih_l0 f4 [256, 14]
-0.2372902 -0.16273148 -0.61783534 -0.42491946 0.15378194 -0.70850074 -0.09640267 -0.19674365
-0.8758491 -0.20358256 0.43640462 -0.17601322 0.96474123 0.12142851 0.033236373 -0.56200296
-0.405063 -0.3568852 -0.35671934 -0.1748357 -0.031194678 -0.01599319 0.008881405 0.20649347
0.47423154 -0.08726188 -0.15359014 -0.25103652 -0.5902988 -0.53711927 -0.25281805 -0.3496678
-0.8915932 -0.50959843 -0.8993726 -0.25056335 0.3670535 -0.23909262 -0.26974297 -0.13890189
-1.1484102 -0.6372613 -0.10030316 -0.07182131 0.021646079 0.21849781 -0.15757474 0.10578056
0.050660953 0.45632684 0.0038386432 -0.9997784 -0.19742534 0.377654 -0.45372817 -0.95249665
0.122839004 -0.041084785 -0.098443896 -0.17246777 -0.047631614 -0.7257498 0.47958082 0.09166461
0.31803796 0.39626122 0.19646645 -0.060257714 0.13342193 -0.50863504 0.759837 0.17808864
-0.84772515 -0.82721007 -0.13688849 -0.032581713 -0.120276965 -0.108125664 -0.36982757 0.22759284
-0.8197961 -0.71095246 -0.6762643 -0.37892315 0.016880736 -0.50029415 0.0382887 -0.28037375
-1.1350919 0.23152521 -0.3563944 0.052648336 0.90168726 -0.113901645 -1.1426152 -0.27692786
-0.17867924 -0.32307968 0.30239394 0.09546849 -0.29300827 0.30522683 -0.75310826 -0.34484893
-0.68206036 0.04185987 0.057398397 -0.10106026 -0.08136576 0.35184225 0.7372996 -0.5966094
-0.20868744 0.15280275 -0.1636474 0.02802927 0.052479766 0.064970136 -0.10204053 -0.6677757
0.19167468 -0.3067235 -0.27790406 0.3020524 0.5127001 -0.09653423 -0.93554765 0.41272292
0.42964485 -0.34697792 0.47159132 -0.41660863 -0.3497785 -0.22284257 -0.05470176 0.07800734
-0.14721552 -0.28090805 -0.01878943 0.15873218 -0.47669712 0.15681025 0.25096053 0.1915851
-0.7919049 0.44226453 -0.40444556 -0.069812424 -0.373113 0.32855982 0.16975139 -0.26756376
-0.09415708 0.29649 -0.57608896 0.07886064 0.22709599 -0.16145247 -0.2881264 -0.5485596
-0.4834645 -0.11119381 -0.15093806 0.6556066 0.33134535 0.42243278 0.05148492 -0.18557522
-0.4265113 -0.12570448 0.077373244 -0.20502271 -0.8291516 -0.08595759 0.04658879 -0.18349543
-0.3368621 -0.32673478 -1.1139957 -0.079156645 0.27677283 -0.014504018 -0.5219644 -0.5185783
0.19670342 -0.33349955 -0.10340471 0.13877554 0.039690267 0.49366078 0.18125558 -0.32129738
0.5153668 -0.1359152 -0.23176025 -0.09445281 0.52234685 0.17962676 -0.5175181 0.068167135
-0.022925775 -0.09001549 -0.104669124 -0.27538344 0.537414 0.1435067 0.10381024 -0.23990148
0.19858208 -0.035144992 0.46455538 0.33032116 -0.37748966 0.27708197 0.18370749 -0.42472574
-0.13287224 -0.37331274 0.10627762 0.17317404 -0.2207657 -0.03682884 0.6386661 -0.116842635
0.38779566 -0.09355096 -0.17587966 0.12497547 0.017808544 -0.11459268 -0.70075774 0.040565915
-0.9106127 -0.14660472 -0.16301677 0.3136918 -0.021883147 -0.31807303 -0.6160714 0.09772701
-0.7232676 -0.58809495 -0.3313473 -0.8393795 -0.27227095 -0.5592551 -0.3299368 -0.3362909
-0.5793281 -0.19303913 0.3179441 0.015104588 -0.40563405 -0.7384729 -0.47642782 0.32238603
00000000: 34fc 72be 15a3 26be 752a 1ebf 0b8f d9be
00000010: 0379 1d3e 4e60 35bf c36e c5bd 2b77 49be
00000020: a637 60bf f277 50be 6d70 df3e cf3c 34be
00000030: 48f9 763f 83af f83d dd22 083d 6ddf 0fbf
00000040: 6b64 cfbe a8b9 b6be eba3 b6be 2108 33be
00000050: fb8b ffbc 2704 83bc 5083 113c 0673 533e
00000060: 7ace f23e 5bb6 b2bd bc46 1dbe dc87 80be
00000070: d21d 17bf a680 09bf 5e71 81be a807 b3be
00000080: 743f 64bf 0b75 02bf 483d 66bf d749 80be
00000090: 70ee bb3e b2d4 74be c01b 8abe 4c3c 0ebe
000000a0: 1bff 92bf 8e23 23bf be6b cdbd 0d17 93bd
000000b0: 1e53 b13c e4bd 5f3e 465b 21be 7aa3 d83d
000000c0: dc81 4f3d aca3 e93e bf91 7b3b 7af1 7fbf
000000d0: de29 4abe dd5b c13e 0f4f e8be d2d6 73bf
000000e0: 0493 fb3d 8548 28bd f49c c9bd 649b 30be
000000f0: 5e19 43bd bdca 39bf 9e8b f53e a8ba bb3d
00000100: dfd5 a23e c0e2 ca3e 802e 493e cbd0 76bd
00000110: c29f 083e e835 02bf ad84 423f de5c 363e
00000120: 8404 59bf 0ac4 53bf 7f2c 0cbe 6774 05bd
00000130: c553 f6bd fd70 ddbd 0a5a bdbe 190e 693e
00000140: 28de 51bf fb00 36bf a81f 2dbf 3702 c2be
00000150: 7849 8a3c 4713 00bf 9dd4 1c3d 268d 8fbe
00000160: b14a 91bf f214 6d3e 5479 b6be c8a5 573d
00000170: fad4 663f 4445 e9bd 3741 92bf 7dc9 8dbe
00000180: b1f7 36be b36a a5be 61d3 9a3e fc84 c33d
00000190: 2e05 96be b146 9c3e b4cb 40bf 0a90 b0be
000001a0: 829b 2ebf 4175 2b3d 951a 6b3d aef8 cebd
000001b0: 17a3 a6bd ab24 b43e abbf 3c3f 65bb 18bf
000001c0: 29b2 55be 5378 1c3e 2f93 27be a49d e53c
000001d0: 06f5 563d 100f 853d a0fa d0bd 59f3 2abf
000001e0: 5e46 443e dd0a 9dbe 7149 8ebe 9da6 9a3e
000001f0: 5040 033f bdb3 c5bd 0d80 6fbf 6b50 d33e
00000200: 69fa db3e 17a7 b1be 6b74 f13e ba4d d5be
00000210: 2b16 b3be d830 64be f40e 60bd 50c2 9f3d
00000220: aabf 16be 2ed3 8fbe 4aec 99bc b08a 223e
00000230: a511 f4be de92 203e e67d 803e e22e 443e
00000240: 48ba 4abf 7f70 e23e 7d13 cfbe d1f9 8ebd
00000250: ab08 bfbe fe38 a83e 4fd3 2d3e 1efe 88be
00000260: 6dd5 c0bd 8acd 973e 917a 13bf b081 a13d
00000270: da8b 683e cc53 25be 4e85 93be 676e 0cbf
00000280: a988 f7be 95b9 e3bd 828f 1abe d6d5 273f
00000290: 19a6 a93e 1c49 d83e dae1 523d 6e07 3ebe
000002a0: b05f dabe adb8 00be dd75 9e3d 79f1 51be
000002b0: 4743 54bf 880a b0bd e3d3 3e3d 3ae6 3bbe
000002c0: 3079 acbe c849 a7be 6997 8ebf e11c a2bd
000002d0: 2bb5 8d3e 43a2 6dbc 759f 05bf 8cc1 04bf
000002e0: 9f6c 493e 74c0 aabe d9c5 d3bd 2d1b 0e3e
000002f0: 4392 223d 1bc1 fc3e 109b 393e 1781 a4be
00000300: 14ef 033f 5b2d 0bbe 8f52 6dbe 7a70 c1bd
00000310: 86b8 053f 14f0 373e 117c 04bf 369b 8b3d
00000320: d6ce bbbc 0b5a b8bd c45c d6bd 0fff 8cbe
00000330: f793 093f 6cf3 123e 779a d43d bca8 75be
00000340: 1a59 4b3e 32f4 0fbd 34da ed3e db1f a93e
00000350: 5346 c1be b0dd 8d3e d11d 3c3e a775 d9be
00000360: a90f 08be d922 bfbe 15a8 d93d 8954 313e
00000370: 6710 62be d6d9 16bd 9f7f 233f 314b efbd
00000380: 278d c63e a597 bfbd cc19 34be 24f3 ff3d
00000390: 39e3 913c 91af eabd dc64 33bf 7228 263d
000003a0: ea1d 69bf 8c1f 16be deed 26be 369c a03e
000003b0: 4944 b3bc 78da a2be dbb6 1dbf 1925 c83d
000003c0: 1128 39bf 648d 16bf 5aa6 a9be 93e1 56bf
000003d0: 1967 8bbe 582b 0fbf 7aed a8be 522e acbe
000003e0: d94e 14bf 0dac 45be 92c9 a23e 3c79 773c
000003f0: 44af cfbe 8f0c 3dbf 59ee f3be c80f a53e

lstm.weight_hh_l0 f4 [256, 64]
-0.2488649 0.3775604 0.7131255 -0.031509522 0.331861 -1.4516903 0.041434254 -0.3562355
-0.24038006 0.6098248 -0.19826554 -0.53394586 0.46146303 -0.49268872 -0.46694872 -0.43958113
0.39708513 0.2045639 -0.3085381 -0.84407693 0.38164437 0.92947114 0.09677688 0.091946006
0.90041006 0.16836542 -0.2619076 0.017831631 -0.62308127 -0.6324888 0.25325704 0.098094426
-0.063836224 0.24575983 -0.62476337 0.35764968 -0.7197503 -0.054205015 0.39260036 -0.5449844
0.05390048 0.14699607 -0.7143761 0.1813391 0.26691014 0.29202086 0.23527293 0.044410363
-0.07902254 0.10616672 0.13936391 0.20709532 0.9306452 -1.1258218 0.7896004 -0.40093112
-1.1266989 -0.10143704 -0.49192074 -0.37376934 0.32074752 0.44225228 0.080220066 -0.6670786
-0.06490996 -0.30204862 0.09682298 -0.09492563 -0.56306326 0.26895297 -0.3129387 -0.06358427
-0.11387092 -0.06103139 0.19359764 -0.29211095 -0.08638953 -0.10366004 -0.008619952 -0.31909877
-0.5317282 0.6427146 -0.18803453 -0.18144664 0.030753424 0.023066387 0.09399687 -0.060247768
0.10666376 -0.3563584 0.20781167 0.18358856 0.012775219 0.47815275 0.016553583 -0.3567209
-0.45877638 0.01560439 0.1375728 0.14392313 0.21800254 -0.33959043 0.2671984 0.6232038
-0.036786508 -0.25460708 0.6132992 0.40124393 0.7588161 -0.24536583 0.4798555 0.17982948
0.2529505 -0.312619 -0.5568587 0.4566146 -0.30477282 0.67119783 0.08226622 0.0004950188
0.23620605 -0.11034451 -0.0004828733 -0.44098854 0.20325725 -0.5740112 0.75158036 -0.18633838
0.57139647 -0.68799394 -0.1757186 0.49047503 -0.93447196 0.23132578 0.020348754 -0.37920082
-0.4179801 -0.006190065 -0.016232891 0.68298614 0.64600337 0.27751684 0.63440895 -0.49453083
0.49371025 -0.44681 0.054071967 0.17873307 -0.097302675 0.72287655 -0.019257553 -0.36730382
0.5797326 0.69964254 0.3900367 -0.17171182 -0.054417018 0.06084394 0.19230253 -0.31509486
0.41413927 -0.89221877 0.052588437 -0.666595 -0.11602509 0.13936406 -0.434512 -0.20729025
-0.08681105 -0.0161295 0.19280471 0.54600304 0.22042093 0.4408443 0.61879116 -0.36082372
-0.118374355 0.0664216 -0.59242904 -0.53804976 0.2117392 0.29479462 -0.054818798 -0.12638968
-0.27389985 0.058778826 0.3507264 0.52583855 -0.4147556 -0.79176444 0.35163203 0.3430227
-0.00669712 -0.55438197 -0.37859014 0.32434803 0.20333609 0.31625265 0.50236595 -0.506766
-0.34137025 0.15248652 -0.0030437438 0.5911273 -0.42976546 -0.19191049 0.49673462 0.11101689
0.47816098 -0.33310118 0.96295124 0.6372796 0.48440537 0.10097669 -0.004298451 0.14457226
0.07249013 0.27705517 0.22628035 0.7411897 0.48972148 -0.44590503 -0.25423992 0.13502374
0.34134445 -0.18513963 0.23810275 -0.3452245 -0.18160088 -0.55264646 -0.08546209 0.17371614
-0.03034266 -0.10989088 0.64649636 0.6068228 -0.0105917165 -0.074800394 -0.60545665 -0.030586425
-0.18756586 0.17536575 -0.0044295564 -0.17632382 -0.48509833 0.29434162 -0.056564994 -0.16555128
0.054792024 0.36401692 0.08538346 0.505634 -0.04360575 -0.25243926 0.1589457 -0.17893243
00000000: 71d6 7ebe 994f c13e 658f 363f 2110 01bd
00000010: afe9 a93e fdd0 b9bf f7b6 293d 8064 b6be
00000020: 3126 76be 7a1d 1c3f 1f06 4bbe adb0 08bf
00000030: e244 ec3e b241 fcbe e713 efbe c710 e1be
00000040: be4e cb3e 3379 513e b5f8 9dbe 6d15 58bf
00000050: e466 c33e d2f1 6d3f f532 c63d 304e bc3d
00000060: 4681 663f fc67 2c3e c118 86be a413 923c
00000070: 4182 1fbf c9ea 21bf e8aa 813e bbe5 c83d
00000080: 91bc 82bd 77a8 7b3e 7ef0 1fbf dc1d b73e
00000090: 8e41 38bf 1406 5ebd ea02 c93e 1984 0bbf
000000a0: c0c6 5c3d 2386 163e 5ae1 36bf f5b0 393e
000000b0: 72a8 883e c283 953e 63eb 703e a4e7 353d
000000c0: 92d6 a1bd f06d d93d 6ab5 0e3e cc10 543e
000000d0: c43e 6e3f ee1a 90bf 4023 4a3f d846 cdbe
000000e0: ab37 90bf 39be cfbd 09dd fbbe b25e bfbe
000000f0: 0539 a43e e46e e23e 6b4a a43d aac5 2abf
00000100: 83ef 84bd 1ea6 9abe 204b c63d 5e68 c2bd
00000110: ea24 10bf 34b4 893e 8039 a0be 7838 82bd
00000120: 2835 e9bd 0dfc 79bd 763e 463e 918f 95be
00000130: feec b0bd b74b d4bd b33a 0dbc ea60 a3be
00000140: 571f 08bf f288 243f 208c 40be 26cd 39be
00000150: 9bee fb3c b8f5 bc3c 6e81 c03d 5dc6 76bd
00000160: 8872 da3d 9c74 b6be 95cc 543e a4fe 3b3e
00000170: 274f 513c 70d0 f43e 619b 873c 1fa4 b6be
00000180: bde4 eabe 8ea9 7f3c e2df 0c3e 9660 133e
00000190: 0f3c 5f3e ccde adbe 3bce 883e 498a 1f3f
000001a0: 73ad 16bd dc5b 82be 2d01 1d3f d86f cd3e
000001b0: c641 423f 2e41 7bbe 9faf f53e 3825 383e
000001c0: ba82 813e 990f a0be 4b8e 0ebf 64c9 e93e
000001d0: 2f0b 9cbe 9fd3 2b3f 317b a83d 26c4 013a
000001e0: 00e0 713e 4dfc e1bd 282a fdb9 40c9 e1be
000001f0: ab22 503e 66f2 12bf 9267 403f 7dcf 3ebe
00000200: 0a47 123f 5f20 30bf 94ef 33be 8b1f fb3e
00000210: 8e39 6fbf aae0 6c3e 6eb2 a63c 9c26 c2be
00000220: 7d01 d6be 07d6 cabb d7fa 84bc 2ed8 2e3f
00000230: 7a60 253f b016 8e3e a068 223f 2533 fdbe
00000240: 97c7 fc3e 48c4 e4be 917a 5d3d cd05 373e
00000250: a046 c7bd 700e 393f 04c2 9dbc 3f0f bcbe
00000260: 5b69 143f c61b 333f e4b2 c73e 39d5 2fbe
00000270: 61e4 5ebd 7f37 793d f4ea 443e 1d54 a1be
00000280: 100a d43e 7368 64bf f966 573d f8a5 2abf
00000290: 909e edbd 74b5 0e3e 5b78 debe e543 54be
000002a0: fec9 b1bd 0322 84bc 996e 453e dbc6 0b3f
000002b0: 06b6 613e 58b6 e13e 1969 1e3f e3bd b8be
000002c0: 416e f2bd 0c08 883d 6ea9 17bf a1bd 09bf
000002d0: 29d2 583e 52ef 963e ad89 60bd 4c6c 01be
000002e0: 9a3c 8cbe 11c2 703d 6992 b33e 5b9d 063f
000002f0: d95a d4be 13b1 4abf 1d09 b43e aca0 af3e
00000300: 8473 dbbb faeb 0dbf 91d6 c1be f210 a63e
00000310: 5637 503e deeb a13e 0e9b 003f 6bbb 01bf
00000320: 15c8 aebe 6d25 1c3e 8c79 47bb 1e54 173f
00000330: 380a dcbe 2f84 44be 0054 fe3e d35c e33d
00000340: 84d1 f43e 3d8c aabe f983 763f c224 233f
00000350: fb03 f83e decc ce3d 05da 8cbb c00a 143e
00000360: b575 943d 2dda 8d3e 09b6 673e 9cbe 3d3f
00000370: c6bc fa3e aa4d e4be bc2b 82be aa43 0a3e
00000380: b3c4 ae3e 3e95 3dbe 35d1 733e 44c1 b0be
00000390: 95f5 39be 3d7a 0dbf c006 afbd a5e2 313e
000003a0: 2c91 f8bc 780e e1bd c980 253f bd58 1b3f
000003b0: e188 2dbc f330 99bd 35ff 1abf 6290 fabc
000003c0: 4411 40be 1493 333e d025 91bb 3b8e 34be
000003d0: cf5e f8be f2b3 963e b2b0 67bd 4686 29be
000003e0: 9a6d 603d 6d60 ba3e 86dd ae3d 3b71 013f
000003f0: f19b 32bd b83f 81be a9c2 223e 103a 37be

lstm.bias_ih_l0 f4 [256]
-0.42817694 0.75605756 0.18477575 -0.10371968 0.05810794 -0.43528175 0.0023442951 -0.42824578
-0.19401544 -0.08475716 0.024363242 -0.17747991 -0.21962188 -0.37764934 -0.3151659 0.21180241
0.038678184 0.038563535 0.05382334 -0.45660833 0.1774498 -1.1125587 -0.18647705 -0.1416139
0.42841178 -0.24157828 -0.20410715 -0.13558859 -0.20901218 -0.44861823 -0.8492396 -0.56557095
-0.36577627 0.15950921 0.18452874 0.1763829 0.06868538 -0.4485804 -0.20909189 -0.66191924
0.12265887 0.024853097 -1.1066631 -0.2521254 -0.07692993 -0.09772761 0.13589169 0.3153529
-0.70182955 -0.13529682 -0.31700793 0.26088363 -0.77935255 -0.5413341 -0.18563066 0.026612889
-0.8488745 -0.2819825 -0.57023406 0.07579791 -0.21112743 -0.19824772 0.06677508 -0.2616661
-0.2846373 0.39628336 -0.617391 0.07385344 0.033484574 0.08569307 -0.46457866 -0.54947466
-0.06395779 0.30711618 -0.515637 0.096769005 -0.14717162 -0.15429164 0.07231619 0.044349343
-0.8163287 -0.36581317 0.060706045 -0.13523582 -0.7950253 -0.37348926 -0.0399675 0.111647174
-0.69658494 -0.39231586 -0.020884011 0.2540291 -0.0037726753 -0.41695377 -0.35364616 -0.26326117
-0.4007495 -0.13559303 -0.37545034 -0.3586531 0.53546035 0.02739773 0.033139184 -0.08650424
0.0550594 0.091861404 -0.007124768 0.08741242 -0.64719874 -0.18194053 0.045776602 -0.21991935
-0.051884312 0.011788681 0.08674454 -0.30008933 -0.5711025 -0.5880284 -0.08038072 0.39166024
-0.3297579 -0.20500463 0.19481073 -0.4087671 0.047928687 -0.27611983 -0.21732125 0.0060693207
0.21929768 -0.7444836 -0.48613825 0.0007184549 0.13663013 0.19288188 0.37155136 -0.53507197
0.12074583 -0.31523994 0.19954613 0.0061901635 -0.12597632 0.09874488 0.105786845 0.2890168
0.25076345 -0.16460004 0.08344877 0.49402738 -0.24052657 -0.4409239 0.3775053 0.007187319
-0.35059282 -0.38609174 0.25909147 0.1826529 0.21056613 -0.048564665 0.14841302 0.12914503
0.1073913 0.10850401 0.40386987 0.10138833 0.08476747 -0.42970413 -0.37148178 0.24154413
-0.22789398 0.33489576 0.3432461 -0.07826488 -0.28467232 -0.3464969 0.45713133 -0.50307125
0.47600877 -0.26633903 -0.31297448 -0.6491957 -0.39327678 0.30989224 -0.5211553 -0.27237275
0.42796785 -0.42986363 -0.02406845 0.28532863 -0.053221878 -0.3749591 0.46548378 -0.007975877
-0.13719231 0.19395982 0.18285115 0.027956821 0.041739002 -0.43720758 -0.0053320685 -0.2704952
-0.057617016 -0.2401399 -0.04327805 0.047787048 -0.016146118 -0.41420364 -0.18536861 0.19827287
0.24831118 0.059002165 -0.10659025 -0.50206137 0.33398727 -0.54308546 0.14502473 -0.032532338
0.3673309 0.12683794 -0.38368845 -0.42641026 -0.07028671 -0.32723108 -0.39673385 -0.5207373
-0.11636032 0.050681487 -0.014389195 -0.1263507 0.255819 -0.02174261 0.059022963 -0.59376556
0.070543915 0.056422275 -0.6655286 -0.42314547 0.027143776 -0.037484135 0.22704886 0.25073773
-0.53672975 -0.21819474 -0.12997705 -0.071205616 -0.8031994 -0.54828006 0.025138723 -0.00071203907
-0.7304483 -0.03195734 -0.092939876 0.09763251 -0.34801018 -0.09386191 -0.12746437 -0.06629885
00000000: 023a dbbe fd8c 413f db35 3d3e fc6a d4bd
00000010: 9702 6e3d 40dd debe bfa2 193b 0843 dbbe
00000020: fcab 46be 2995 adbd 6c95 c73c 4bbd 35be
00000030: 8fe4 60be 415b c1be 6d5d a1be bbe2 583e
00000040: 046d 1e3d ccf4 1d3d dd75 5c3d 91c8 e9be
00000050: 66b5 353e 5368 8ebf d7f3 3ebe 3c03 11be
00000060: ca58 db3e 4c60 77be 7701 51be bcd7 0abe
00000070: 4a07 56be 4ab1 e5be c467 59bf 42c9 10bf
00000080: 0747 bbbe 6256 233e 1af5 3c3e b89d 343e
00000090: ecaa 8c3d 55ac e5be 2f1c 56be 8a73 29bf
000000a0: 9334 fb3d b998 cb3c 23a7 8dbf 9516 81be
000000b0: 708d 9dbd 6a25 c8bd 3127 0b3e ef75 a13e
000000c0: 1aab 33bf 408b 0abe dd4e a2be 8a92 853e
000000d0: a683 47bf df94 0abf f715 3ebe 4603 da3c
000000e0: d74f 59bf 0360 90be dcfa 11bf ef3b 9b3d
000000f0: ca31 58be 7301 4bbe 60c1 883d 19f9 85be
00000100: fbbb 91be a7e5 ca3e 560d 1ebf 7940 973d
00000110: 1f27 093d d97f af3d 41dd edbe 5faa 0cbf
00000120: 4dfc 82bd 553e 9d3e c900 04bf d42e c63d
00000130: 28b4 16be a1fe 1dbe 831a 943d a8a7 353d
00000140: ebfa 50bf dd4b bbbe e7a6 783d 427b 0abe
00000150: c786 4bbf fc39 bfbe f6b4 23bd 46a7 e43d
00000160: 6453 32bf a0dd c8be f214 abbc 1a10 823e
00000170: fd3e 77bb f77a d5be 1c11 b5be 2bca 86be
00000180: 0a2f cdbe e6d8 0abe 073b c0be 61a1 b7be
00000190: ee13 093f 3471 e03c f4bc 073d 2329 b1bd
000001a0: f785 613d d521 bc3d e376 e9bb 4805 b33d
000001b0: d1ae 25bf 9e4e 3abe 3f80 3b3d 8a32 61be
000001c0: a584 54bd 5025 413c 1fa7 b13d 4fa5 99be
000001d0: c633 12bf 0789 16bf a69e a4bd b187 c83e
000001e0: 07d6 a8be bcec 51be 777c 473e ec49 d1be
000001f0: df50 443d 945f 8dbe 7689 5ebe 27e1 c63b
00000200: 928f 603e 7a96 3ebf 1de7 f8be b156 3c3a
00000210: c5e8 0b3e d482 453e fb3b be3e 7afa 08bf
00000220: 9749 f73d 2167 a1be d255 4c3e dbd6 ca3b
00000230: f0ff 00be c13a ca3d c6a6 d83d 03fa 933e
00000240: 1164 803e ea8c 28be 30e7 aa3d 28f1 fc3e
00000250: 994c 76be c7c0 e1be 6048 c13e 9a83 eb3b
00000260: e780 b3be d1ad c5be a3a7 843e 5d09 3b3e
00000270: a69e 573e beeb 46bd 95f9 173e 983e 043e
00000280: f8ef db3d 5a37 de3d 08c8 ce3e afa4 cf3d
00000290: 919a ad3d 2e02 dcbe dc32 bebe 5857 773e
000002a0: 0a5d 69be 7577 ab3e f4bd af3e 5649 a0bd
000002b0: 92c0 91be 0b68 b1be 1e0d ea3e 47c9 00bf
000002c0: 6cb7 f33e 975d 88be 313e a0be b031 26bf
000002d0: 935b c9be 32aa 9e3e 6f6a 05bf 7174 8bbe
000002e0: 9a1e db3e 1617 dcbe 332b c5bc 9816 923e
000002f0: 2fff 59bd a4fa bfbe e453 ee3e 41ad 02bc
00000300: 247c 0cbe 679d 463e 553d 3b3e b405 e53c
00000310: 84f6 2a3d acd9 dfbe a2b8 aebb 597e 8abe
00000320: d2ff 6bbd 3ce7 75be 5344 31bd 5abc 433d
00000330: dd44 84bc 8012 d4be 45d1 3dbe 0b08 4b3e
00000340: 4945 7e3e 41ac 713d fd4b dabd 1887 00bf
00000350: 6100 ab3e a607 0bbf 5d81 143e a140 05bd
00000360: cc12 bc3e cee1 013e d072 c4be 7252 dabe
00000370: 7bf2 8fbd d58a a7be b320 cbbe 0a4f 05bf
00000380: 524e eebd 6497 4f3d a8c0 6bbc 1462 01be
00000390: b5fa 823e 8f1d b2bc 10c2 713d 0501 18bf
000003a0: 5479 903d 0b1b 673d 1560 2abf 86a6 d8be
000003b0: a05c de3c f788 19bd 7f7f 683e b260 803e
000003c0: 1f67 09bf 716e 5fbe b418 05be 40d4 91bd
000003d0: 7a9e 4dbf 155c 0cbf b9ef cd3c 22a8 3aba
000003e0: a9fe 3abf b3e5 02bd 4357 bebd 8ef3 c73d
000003f0: 642e b2be ac3a c0bd 0586 02be b1c7 87bd

lstm.bias_hh_l0 f4 [256]
-0.34777433 0.6812658 0.27453548 -0.13062541 -0.06412918 -0.39541286 0.05999771 -0.27349636
-0.21600628 -0.040093113 0.006193347 -0.1402012 -0.32595608 -0.22586773 -0.4830805 0.16324894
0.060986605 0.056999773 0.009938433 -0.44618955 0.14053759 -1.0122979 -0.21814738 -0.2417892
0.56234396 -0.15049967 -0.29242706 -0.17485392 0.00011347873 -0.45188278 -0.8607073 -0.4870579
-0.37447473 0.18662092 0.19065392 0.14394276 0.19894476 -0.4768699 -0.19351451 -0.8198179
-0.009165921 -0.004314325 -1.0513153 -0.19858412 -0.17507835 -0.06173708 0.120251186 0.25287023
-0.64420545 -0.22217208 -0.25129247 0.22593798 -0.887223 -0.57671875 -0.16426133 -0.05860964
-0.83094054 -0.3504946 -0.46487257 -0.083386056 -0.20732355 -0.10806012 0.1538616 -0.35493058
-0.26122794 0.36823454 -0.6750883 0.05449405 0.16525832 0.05141278 -0.41132504 -0.59838766
0.04030313 0.45203874 -0.49128917 0.1678542 -0.16599768 -0.17085786 0.036177084 -0.025075505
-0.8401827 -0.33042052 0.033330053 -0.31557828 -0.6775965 -0.32571465 -0.08811872 0.096879184
-0.6584749 -0.29900002 0.11631312 0.27455136 -0.10872187 -0.34512582 -0.43642223 -0.15342686
-0.26666155 -0.28358376 -0.35517535 -0.44530722 0.4367558 -0.11434038 0.14731814 -0.10639418
-0.0034951617 0.114795566 0.0017004579 0.14745194 -0.7843581 -0.19175118 -0.10153183 -0.13761675
-0.17257759 0.08851287 0.19485438 -0.31340054 -0.48065528 -0.5173278 -0.14257784 0.29930493
-0.25125304 -0.04936846 0.11711813 -0.4423185 -0.12212771 -0.25733125 -0.109113604 0.0013735627
0.14033583 -0.8617536 -0.5060072 -0.03189759 -0.055191476 0.2671329 0.21789908 -0.5270291
-0.038275458 -0.24254315 0.0048173363 0.09597205 -0.29825512 0.02168685 0.092141725 0.24307495
0.2866674 -0.17760694 -0.09357792 0.29081917 -0.3241933 -0.43876597 0.4562491 -0.043466132
-0.33777574 -0.28448877 0.224739 0.18284644 0.15262133 0.11358379 0.09768479 0.06555008
0.06776936 0.04542522 0.45313406 0.1849353 -0.1520752 -0.26224208 -0.45081216 0.31253842
-0.10383757 0.31299576 0.42054683 -0.18010142 -0.15892783 -0.4337196 0.3140768 -0.34637424
0.45994216 -0.2618162 -0.31836078 -0.74505675 -0.31601372 0.34023166 -0.5281635 -0.26512057
0.3305539 -0.42922843 0.01587793 0.31146038 -0.1615469 -0.4504832 0.45055103 -0.13284658
-0.30156925 0.34134963 0.12758552 -0.13360216 0.048064813 -0.50510377 -0.08927253 -0.15804718
-0.055499166 -0.15561013 -0.07873076 -0.03181329 -0.00905401 -0.25196248 -0.06931148 0.42574474
0.20713086 0.24279717 -0.07252906 -0.5023792 0.3266885 -0.5716394 0.108974464 -0.051541995
0.42115766 0.07572459 -0.40561628 -0.32580727 -0.055865202 -0.22038433 -0.3335112 -0.38904586
-0.037178196 0.09545347 0.12414532 -0.13879085 0.3282123 -0.08068073 -0.071498506 -0.6094045
0.2151915 0.09313483 -0.6686571 -0.3678738 -0.064997986 -0.121732794 0.2877892 0.35084468
-0.5147114 -0.17218058 0.008027755 0.058244877 -0.8082415 -0.6687227 0.17633116 -0.0069971518
-0.63323206 -0.2052235 -0.075992964 0.17024203 -0.1867358 -0.18330899 -0.19272451 -0.15811026
00000000: 7a0f b2be 6f67 2e3f ea8f 8c3e abc2 05be
00000010: 2956 83bd 8e73 cabe 29c0 753d b707 8cbe
00000020: c030 5dbe ad38 24bd 8ff1 ca3b e790 0fbe
00000030: b7e3 a6be df49 67be 5456 f7be bb2a 273e
00000040: 17cd 793d 9878 693d cfd4 223c f572 e4be
00000050: 16e9 0f3e fa92 81bf 0762 5fbe 9797 77be
00000060: c6f5 0f3f 961c 1abe 00b9 95be e80c 33be
00000070: 6efb ed38 2e5d e7be 5057 5cbf a75f f9be
00000080: 27bb bfbe 8e19 3f3e c83a 433e bb65 133e
00000090: 2db8 4b3e 4b28 f4be ab28 46be 96df 51bf
000000a0: a92c 16bc 2e5f 8dbb 8091 86bf a359 4bbe
000000b0: bd47 33be 05e0 7cbd 4146 f63d 3578 813e
000000c0: a6ea 24bf 1481 63be 68a9 80be 495c 673e
000000d0: 0c21 63bf d7a3 13bf 1f34 28be a910 70bd
000000e0: 85b8 54bf 0774 b3be c703 eebe 4fc6 aabd
000000f0: a04c 54be a04e ddbd e58d 1d3e 76b9 b5be
00000100: abbf 85be 3d89 bc3e 96d2 2cbf 2735 5f3d
00000110: 7a39 293e 3596 523d 3299 d2be ef2f 19bf
00000120: e514 253d 9f71 e73e 418a fbbe f9e1 2b3e
00000130: 4cfb 29be 5df5 2ebe 6c2e 143d 256b cdbc
00000140: 3716 57bf e12c a9be 1885 083d 7a93 a1be
00000150: f776 2dbf 12c4 a6be 9677 b4bd 9868 c63d
00000160: d091 28bf 8816 99be 9335 ee3d ff91 8c3e
00000170: 92a9 debd 55b4 b0be bc72 dfbe ee1b 1dbe
00000180: dd87 88be e431 91be 8bd9 b5be 4fff e3be
00000190: 759e df3e 4a2b eabd 91da 163e 31e5 d9bd
000001a0: 150f 65bb f019 eb3d e6e1 de3a a4fd 163e
000001b0: b1cb 48bf 6c5a 44be ecef cfbd 68eb 0cbe
000001c0: 2eb8 30be 3c46 b53d e887 473e 0976 a0be
000001d0: 7318 f6be 986f 04bf edff 11be 7f3e 993e
000001e0: 3da4 80be 9536 4abd a1db ef3d 9277 e2be
000001f0: 181e fabd ecc0 83be f476 dfbd 1e09 b43a
00000200: 32b4 0f3e e29b 5cbf b089 01bf 0ca7 02bd
00000210: 7510 62bd a5c5 883e f020 5f3e 61eb 06bf
00000220: bac6 1cbd 3b5d 78be bfda 9d3b ff8c c43d
00000230: e5b4 98be 9fa8 b13c cdb4 bc3d a4e8 783e
00000240: 12c6 923e 98de 35be c8a5 bfbd 40e6 943e
00000250: aafc a5be efa5 e0be 7b99 e93e 8b09 32bd
00000260: f1f0 acbe 83a8 91be fb21 663e 193c 3b3e
00000270: c448 1c3e 9e9e e83d f70e c83d 1f3f 863d
00000280: aaca 8a3d cc0f 3a3d 3001 e83e ae5f 3d3e
00000290: 9ab9 1bbe 9844 86be dad0 e6be 0905 a03e
000002a0: cba8 d4bd fb40 a03e ea51 d73e 826c 38be
000002b0: fabd 22be 7f10 debe adce a03e f757 b1be
000002c0: 8a7d eb3e c60c 86be 2f00 a3be 0abc 3ebf
000002d0: 8dcc a1be d832 ae3e b935 07bf e2bd 87be
000002e0: 5c3e a93e d4c3 dbbe 6f12 823c bc77 9f3e
000002f0: 8d6c 25be bca5 e6be a0ae e63e ef08 08be
00000300: 4967 9abe 61c5 ae3e c7a5 023e 01cf 08be
00000310: 9cdf 443d 7b4e 01bf 84d4 b6bd 1fd7 21be
00000320: 1853 63bd 4358 1fbe 983d a1bd a74e 02bd
00000330: 4557 14bc 3a01 81be 2df3 8dbd 37fb d93e
00000340: 1d1a 543e d29f 783e 1e8a 94bd ec9b 00bf
00000350: b743 a73e f656 12bf 012e df3d b31d 53bd
00000360: faa1 d73e 7e15 9b3d f0ac cfbe 36d0 a6be
00000370: e9d2 64bd 6eac 61be fbc1 aabe 0531 c7be
00000380: 2a48 18bd 1c7d c33d e73f fe3d 301f 0ebe
00000390: 710b a83e f03b a5bd cf6d 92bd ef01 1cbf
000003a0: 295b 5c3e 79bd be3d 1d2d 2bbf f459 bcbe
000003b0: aa1d 85bd 0b4f f9bd 1b59 933e eaa1 b33e
000003c0: 20c4 03bf 1b50 30be d886 033c 2e92 6e3d
000003d0: eae8 4ebf 6931 2bbf 2890 343e 5d48 e5bb
000003e0: 7f1b 22bf 1c26 52be 33a2 9bbd ed53 2e3e
000003f0: ab37 3fbe 5ab5 3bbe 9359 45be a8e7 21be

fc.weight f4 [4, 64]
-0.27526253 0.35424218 -0.07842562 -0.14591312 0.2460347 0.13996544 0.05680911 0.097341165
0.10167336 0.11828361 0.44147176 -0.30050957 -0.35950565 -0.3347258 0.2469459 -0.05108463
0.19267951 0.4460466 0.22200358 -0.37779748 -0.20880476 -0.08095788 0.22255361 0.075617306
-0.06656753 -0.30558547 -0.26089165 -0.822264 0.043690953 0.31556526 -0.37746054 0.5192373
0.012704093 0.25315982 0.041355617 -0.18192159 0.48415366 -0.2272561 0.15535258 0.4083844
-0.2929901 -0.16885063 0.29951146 0.2582919 0.456768 -0.64174837 0.21996675 0.014366083
0.28060043 -0.47257376 -0.3536354 0.4215052 -0.29002687 0.3333703 -0.09130754 0.5472413
0.20085655 0.60361123 -0.9433744 0.5959667 0.17667659 0.23593923 0.4988819 0.1938786
0.07287359 0.2264403 -0.14096181 -0.12095437 0.17104414 0.47318634 0.062487993 0.09727171
0.15492779 0.11781266 -0.42020804 -0.2423762 -0.13246232 -0.503948 0.16364789 -0.096086204
-0.073765256 0.17506616 0.38439843 0.0031201947 -0.18146323 -0.26520184 -0.07599571 0.20822746
-0.06059792 -0.2732807 -0.13684943 -0.22113225 -0.10911422 -0.46416894 -0.120133005 0.227049
0.15476084 0.21230151 -0.19156206 0.028496051 0.5364306 -0.26503283 0.31027243 0.30835736
-0.2506853 -0.32719398 0.25649112 -0.7645148 -0.060060922 -0.56372964 0.2531952 -0.23105665
0.1894395 -0.3302422 -0.33305815 0.31282985 -0.2147881 0.37325707 -0.10773541 0.6375911
0.23219997 -0.17384028 -0.74516785 0.6535556 0.33057648 0.08864143 0.65865433 0.14789517
0.0062307697 0.29839548 -0.1555517 0.03824032 0.2617833 0.15697613 0.06608169 0.16171074
0.22005944 0.12805665 0.71305615 -0.4413243 -0.3638597 -0.25364938 0.23466387 -0.053292293
-0.03668582 0.33994105 0.16123356 -0.58531725 -0.084512785 -0.23036765 0.3077119 0.5025682
-0.39021495 -0.386162 -0.22316693 -0.46913755 0.064838536 0.083412655 -0.43335035 0.33344755
-0.006506064 0.48421124 -0.14926495 -0.1834946 0.66302794 -0.12932566 0.2541952 0.35050267
-0.27063984 -0.24004911 0.24631849 0.30723092 0.2668376 -0.9173595 0.33202752 0.2870341
0.27167717 -0.37373424 -0.29389337 0.47500458 -0.40739575 0.7034896 -0.15178688 0.40506768
0.27490568 0.07267913 -0.6267508 0.32875565 0.34966192 0.34713668 0.6540275 0.26693782
0.013487587 0.22579707 0.042727556 -0.0049022413 0.22311507 0.29736006 0.0075566745 0.22810087
0.40316525 0.04755362 -0.7459079 -0.38932124 -0.12671451 -0.17277396 0.2650376 -0.09894733
0.06694387 0.11681459 0.046066817 0.019300276 -0.43170965 -0.24207449 -0.050247066 0.1646046
-0.30055985 -0.16668826 -0.1927975 -0.30928046 -0.15578102 -0.1659674 -0.27215648 0.24057856
0.12161321 0.27631983 -0.4444815 -0.11211524 0.50846255 -0.24754576 0.30664706 0.19486028
-0.24871713 -0.4175279 0.2869783 -0.5707691 0.47530773 -0.3568505 0.08960925 -0.1294118
0.25566953 -0.44362107 -0.3625663 0.1819595 -0.16676596 0.26858333 -0.037946608 0.6453389
0.23649223 -0.7542157 -0.73564124 0.92272377 0.40608093 0.24198256 0.52221817 0.17144066
00000000: 36ef 8cbe 3b5f b53e 9d9d a0bd 406a 15be
00000010: 85f0 7b3e 1a53 0f3e abb0 683d ce5a c73d
00000020: 1f3a d03d ad3e f23d 9608 e23e 64dc 99be
00000030: 2011 b8be 2e61 abbe 63df 7c3e 1e3e 51bd
00000040: c74d 453e 3860 e43e e854 633e ac6e c1be
00000050: ead0 55be 3fcd a5bd 18e5 633e 3fdd 9a3d
00000060: 8f54 88bd b375 9cbe 9793 85be e57f 52bf
00000070: 49f5 323d c591 a13e 8242 c1be bcec 043f
00000080: d424 503c 2a9e 813e 8264 293d a749 3abe
00000090: fde2 f73e d3b5 68be bf14 1f3e c317 d13e
000000a0: cc02 96be 2ee7 2cbe 9159 993e d63e 843e
000000b0: 7fdd e93e 9f49 24bf f73e 613e b85f 6b3c
000000c0: dcaa 8f3e 30f5 f1be b30f b5be 88cf d73e
000000d0: 677e 94be 83af aa3e 73ff babd 0118 0c3f
000000e0: 57ad 4d3e 4486 1a3f fc80 71bf 4691 183f
000000f0: b5ea 343e 0e9a 713e 736d ff3e 1d88 463e
00000100: c03e 953d f7df 673e 4b58 10be edb6 f7bd
00000110: 3226 2f3e 7b45 f23e 69f3 7f3d 6436 c73d
00000120: 64a5 1e3e c447 f13d 8225 d7be 7731 78be
00000130: 34a4 07be bc02 01bf 5093 273e d8c8 c4bd
00000140: 3d12 97bd 8b44 333e dfcf c43e 2e7c 4c3b
00000150: 7fd1 39be 89c8 87be a4a3 9bbd 9439 553e
00000160: 8635 78bd 73eb 8bbe 4222 0cbe 7e70 62be
00000170: 4777 dfbd 8da7 edbe 4b08 f6bd 887f 683e
00000180: a079 1e3e 9165 593e d828 44be 8d70 e93c
00000190: 8453 093f 62b2 87be 07dc 9e3e 04e1 9d3e
000001a0: d359 80be f885 a7be ce52 833e 3eb7 43bf
000001b0: 7102 76bd 9650 10bf cda2 813e 1d9a 6cbe
000001c0: 6efc 413e 8115 a9be 9986 aabe 3c2b a03e
000001d0: 69f1 5bbe 8d1b bf3e 62a4 dcbd 2c39 233f
000001e0: d4c5 6d3e 3003 32be 52c3 3ebf 6b4f 273f
000001f0: 5241 a93e a389 b53d 929d 283f d571 173e
00000200: 7c2b cc3b 4bc7 983e f248 1fbe e2a1 1c3d
00000210: 7608 863e 5abe 203e d655 873d 8097 253e
00000220: 4357 613e 4821 033e d98a 363f 42f5 e1be
00000230: d24b babe 55de 81be ba4b 703e 0549 5abd
00000240: df43 16bd c10c ae3e 691a 253e 5ad7 15bf
00000250: 0a15 adbd 7fe5 6bbe 6a8c 9d3e 4fa8 003f
00000260: 41ca c7be 07b7 c5be df85 64be cc32 f0be
00000270: 11ca 843d 41d4 aa3d 19e0 ddbe a3b9 aa3e
00000280: d230 d5bb 89ea f73e e9d8 18be 02e6 3bbe
00000290: 33bc 293f f26d 04be e025 823e 1675 b33e
000002a0: 4e91 8abe 6fcf 75be ea3a 7c3e 5f4d 9d3e
000002b0: f09e 883e 12d8 6abf 83ff a93e 22f6 923e
000002c0: 4519 8b3e 185a bfbe 3179 96be cd33 f33e
000002d0: 2d96 d0be e517 343f 056e 1bbe 0865 cf3e
000002e0: 70c0 8c3e ccd8 943d be72 20bf a952 a83e
000002f0: e306 b33e e6bb b13e 596e 273f 13ac 883e
00000300: 0afb 5c3c 5937 673e 1703 2f3d fba2 a0bb
00000310: 4778 643e 943f 983e fb9d f73b 4693 693e
00000320: ad6b ce3e 96c7 423d d2f3 3ebf 1d55 c7be
00000330: 73c1 01be a8eb 30be 02b3 873e e6a4 cabd
00000340: de19 893d 7d3c ef3d 8fb0 3c3d 9d1b 9e3c
00000350: 0c09 ddbe 60e2 77be decf 4dbd 1c8e 283e
00000360: fbe2 99be 54b0 2abe b56c 45be 025a 9ebe
00000370: 0f85 1fbe 5cf3 29be 1858 8bbe 3a5a 763e
00000380: 5910 f93d cb79 8d3e 1493 e3be ad9c e5bd
00000390: 9a2a 023f a37c 7dbe d800 9d3e 7489 473e
000003a0: b4af 7ebe 38c6 d5be d2ee 923e ec1d 12bf
000003b0: 895b f33e 1cb5 b6be 0e85 b73d 8784 04be
000003c0: 1ee7 823e 4d22 e3be 4aa2 b9be 9753 3a3e
000003d0: b2c4 2abe c183 893e e76d 1bbd ee34 253f
000003e0: 052b 723e 4814 41bf fc52 3cbf a037 6c3f
000003f0: d7e9 cf3e 47ca 773e 17b0 053f 248e 2f3e

fc.bias f4 [4]
0.08969968 0.037856057 0.13765651 0.10590767
00000000: 77b4 b73d f40e 1b3d d4f5 0c3e 1fe6 d83d
