Uni_Research/IRL/Final/0.8_policy.pth (torch, 91082 bytes, 11 tensors)

main_network.lstm.weight_ih_l0 f4 [256, 15]
0.017424641 0.08130593 -0.07604743 -0.046512112 -0.063408636 0.021241833 0.017992731 -0.07913921
-0.12030921 -0.08406064 0.095276445 -0.067628935 -0.00010829265 0.0022327595 0.12139411 -0.09886668
0.12001747 0.121006325 -0.07538318 -0.091042995 -0.04222479 -0.022811357 0.06539815 -0.059473895
0.012442172 0.014769877 0.08041559 -0.02988111 0.063560024 0.07244896 -0.030117316 -0.03858805
-0.11061063 0.021107962 -0.06445532 0.044192865 0.04208575 0.10233596 -0.073835865 0.08358367
0.067116156 -0.035519253 0.029169016 0.11168405 -0.030728852 -0.097831145 -0.090176284 -0.04874789
-0.08041127 -0.055968996 -0.13634895 -0.043743566 -0.060396943 -0.042806 -0.0057588797 -0.023447718
0.060620923 -0.0219345 0.046529684 0.039939076 -0.11325089 0.06233992 -0.02947434 0.010045662
0.0051244493 0.0005109959 0.014866847 0.0891553 -0.062836714 0.06572818 -0.13204111 0.02275122
-0.057515867 0.006766563 -0.039867487 -0.02699518 -0.0477668 0.041376416 -0.06785962 -0.016000245
0.11606095 0.037182335 0.06218907 0.07663361 0.048674 -0.015179558 -0.02591185 -0.051223293
0.042282533 -0.10243804 0.116220325 -0.12672676 0.10792122 0.09816832 0.1002327 0.1250871
0.030401127 0.026792718 -0.10257265 0.038051814 -0.045010615 0.082882956 -0.0549163 -0.06223397
0.021853616 -0.0934797 -0.0759243 -0.010358639 0.14017706 0.06955403 -0.015354764 0.023118189
-0.04734238 0.12871434 0.041943423 0.06207537 -0.11362738 -0.11365624 -0.030640258 -0.016772274
0.096231654 0.111761704 -0.06840102 0.034842312 0.0021371718 0.02987442 0.04809562 -0.07166358
-0.049316753 -0.062576175 0.001520259 0.0881116 -0.026271751 0.05829799 -0.026467768 -0.091966845
0.012268533 0.09505086 0.112014204 -0.013584014 -0.006941374 0.00036801017 0.10425245 -0.09307944
0.08382605 0.09343883 -0.06288559 -0.008670899 -0.025785886 0.09696684 -0.027499644 0.052313726
0.02236029 0.12566656 -0.025366794 0.11410526 -0.023539249 0.050967526 0.07453142 0.10691731
0.12004752 0.008095289 -0.070766516 0.017890574 0.070921116 -0.092242934 -0.045146342 0.056405663
0.0019184212 -0.00084656716 0.10406086 0.0033853506 0.01975232 -0.050177608 -0.106919244 -0.089069836
-0.080617666 -0.108605795 -0.06763954 -0.08973448 -0.066500105 -0.03165088 0.039950307 -0.016994048
-0.017486174 0.03944393 -0.07759936 -0.056417663 -0.00021977592 -0.021795753 0.100245185 -0.11461878
0.106638595 0.032061324 -0.1259335 -0.109499745 -0.07037587 -0.0074230283 0.12582977 0.09027968
0.08969896 0.0606166 0.043717742 0.0650204 -0.10306267 0.09107964 0.12402825 0.07967156
0.068532996 0.108624436 -0.06385501 -0.0931117 0.10448772 0.08960368 -0.11970479 0.0036118175
-0.079777084 0.050408572 0.08965491 0.0059671584 -0.043406706 -0.07520315 -0.011264419 0.12260613
-0.00881072 0.027285421 0.0023050897 0.054444343 0.0147846555 -0.03705662 -0.0058763134 0.0064074704
-0.123735026 0.0009581948 -0.024897046 0.0019172993 0.0073762266 -0.12169417 -0.0708405 -0.09286959
0.039287344 0.1100514 0.053111557 -0.12632957 0.102986224 0.06343579 0.0970338 -0.023504786
0.089756325 -0.0909833 0.10559937 0.022344833 -0.11335924 0.0065454235 0.11258215 -0.06266712
00000000: 1fbe 8e3c b983 a63d c1be 9bbd 7c83 3ebd
00000010: 63dc 81bd 5a03 ae3c 7e65 933c bd13 a2bd
00000020: ad64 f6bd fc27 acbd 4c20 c33d 0a81 8abd
00000030: 2c1b e3b8 7d53 123b 7a9d f83d 9d7a cabd
00000040: b8cb f53d 2ad2 f73d 7f62 9abd c074 babd
00000050: e7f3 2cbd e2de babc 77ef 853d e69a 73bd
00000060: 40da 4b3c 5bfd 713c eeb0 a43d 3bc9 f4bc
00000070: c22b 823d 1f60 943d 97b8 f6bc 810e 1ebd
00000080: d387 e2bd 9bea ac3c 2701 84bd 9403 353d
00000090: 1b62 2c3d 8495 d13d 4237 97bd ea2d ab3d
000000a0: 3274 893d a37c 11bd dcf3 ee3c 9bba e43d
000000b0: 13bb fbbc b25b c8bd 58ae b8bd deab 47bd
000000c0: aaae a4bd bf3f 65bd 0f9f 0bbe 742c 33bd
000000d0: c962 77bd 5855 2fbd fcb4 bcbb 6e15 c0bc
000000e0: a54d 783d fbaf b3bc e995 3e3d 2897 233d
000000f0: 15f0 e7bd 2558 7f3d 2c74 f1bc 8f96 243c
00000100: ffea a73b 5bf4 053a 1394 733c 0e97 b63d
00000110: 89b0 80bd 7f9c 863d c935 07be c460 ba3c
00000120: c295 6bbd 0bba dd3b 174c 23bd ff24 ddbc
00000130: 1fa7 43bd 517a 293d fcf9 8abd f212 83bc
00000140: 5db1 ed3d 814c 183d f7b9 7e3d 15f2 9c3d
00000150: 635e 473d aeb3 78bc 1745 d4bc 84cf 51bd
00000160: 7330 2d3d 09cb d1bd ec04 ee3d a9c4 01be
00000170: cd05 dd3d 790c c93d cd46 cd3d d516 003e
00000180: c90b f93c 677c db3c 9c11 d2bd 38dc 1b3d
00000190: 0d5d 38bd 8abe a93d eaef 60bd 0ce9 7ebd
000001a0: 5b06 b33c 4972 bfbd 337e 9bbd 48b7 29bc
000001b0: 938a 0f3e 5872 8e3d 8c92 7bbc 5b62 bd3c
000001c0: 15ea 41bd b1cd 033e decc 2b3d be42 7e3d
000001d0: 79b5 e8bd 9ac4 e8bd 4701 fbbc 0266 89bc
000001e0: 1a15 c53d 52e3 e43d d515 8cbd d0b6 0e3d
000001f0: cb0f 0c3b 33bb f43c eaff 443d 5bc4 92bd
00000200: 5d00 4abd f027 80bd 6d43 c73a db73 b43d
00000210: db37 d7bc e0c9 6e3d efd2 d8bc 1d59 bcbd
00000220: f501 493c 06aa c23d b467 e53d 7c8f 5ebc
00000230: 7774 e3bb 7df1 c039 4f82 d53d 6fa0 bebd
00000240: feac ab3d db5c bf3d 29ca 80bd 6310 0ebc
00000250: ec3c d3bc 8d96 c63d ef46 e1bc eb46 563d
00000260: ed2c b73c bcae 003e 06ce cfbc 05b0 e93d
00000270: 62d5 c0bc 53c3 503d eea3 983d 76f7 da3d
00000280: 79db f53d 1aa2 043c 09ee 90bd 418f 923c
00000290: 173f 913d dde9 bcbd 5feb 38bd a009 673d
000002a0: 8973 fb3a 29ec 5dba dc1d d53d c2dc 5d3b
000002b0: 9ecf a13c 0987 4dbd 7af8 dabd 3f6a b6bd
000002c0: e01a a5bd b76c debd 9986 8abd b6c6 b7bd
000002d0: 3531 88bd 5aa4 01bd efa2 233d 1a37 8bbc
000002e0: 2a3f 8fbc f58f 213d 6aec 9ebd 3516 67bd
000002f0: a673 66b9 028d b2bc 594d cd3d 40bd eabd
00000300: 5665 da3d bc52 033d b6f4 00be 6741 e0bd
00000310: 3921 90bd e03c f3bb 85d9 003e 8ee4 b83d
00000320: 17b4 b73d 1d49 783d 6011 333d 6a29 853d
00000330: 8512 d3bd f687 ba3d 8602 fe3d d82a a33d
00000340: 075b 8c3d 7d76 de3d 6ac6 82bd 59b1 bebd
00000350: a8fd d53d 2282 b73d c927 f5bd 3eb4 6c3b
00000360: 2b62 a3bd 3879 4e3d fe9c b73d 2788 c33b
00000370: 3bcb 31bd 1c04 9abd 668e 38bc ec18 fb3d
00000380: d75a 10bc ad85 df3c fd10 173b 0801 5f3d
00000390: 573b 723c afc8 17bd 178e c0bb c2f5 d13b
000003a0: ca68 fdbd 5d2f 7b3a e4f4 cbbc e44d fb3a
000003b0: 46b4 f13b cb3a f9bd d314 91bd 6932 bebd
000003c0: c4eb 203d a162 e13d 818b 593d 8a5c 01be
000003d0: 71ea d23d a0ea 813d a8b9 c63d 1c8d c0bc
000003e0: 2ad2 b73d 7455 babd 7c44 d83d 830c b73c
000003f0: e428 e8bd fe7a d63b 7891 e63d 9e57 80bd

main_network.lstm.weight_hh_l0 f4 [256, 64]
-0.11533302 -0.08842774 -0.022441456 0.12026645 0.009472588 0.054432314 0.021504302 0.11895374
0.010703913 -0.06079995 -0.11680136 -0.00049363216 -0.10433086 -0.07797558 0.042691536 -0.082952216
0.12545265 0.03162248 -0.038599238 0.051631287 0.12615122 -0.03412576 0.018905085 0.004034344
-0.10552078 0.032204043 0.07218212 0.049505092 0.08919533 0.080428004 -0.037845887 -0.049679227
-0.06475111 0.07698596 0.04092325 0.11125182 -0.059202213 0.08912569 0.057124726 -0.03211176
0.09274955 0.012197102 0.046854235 -0.06306561 -0.10718956 0.015380572 -0.016877366 -0.08918738
-0.066925064 0.081842795 -0.11357222 0.09189342 -0.108139485 0.1268074 -0.12603144 0.08090144
-0.09521414 -0.020288946 -0.06943682 0.11596121 0.032073505 -0.08315148 -0.095796086 0.07751694
-0.012137778 0.036952544 -0.037848935 0.081930704 0.12648018 0.08417061 0.11352443 -0.054084014
-0.07941264 0.109563194 -0.048042506 -0.065547295 -0.06220301 0.0813113 -0.08862789 -0.13395762
0.097343445 0.09638805 0.08786672 -0.035954915 0.00046355117 -0.08884848 0.10776021 0.077049635
-0.052674897 0.061905906 0.09994554 0.11560965 -0.08680173 0.03903103 -0.08993178 0.06070856
0.11028358 -0.0106014535 0.015815737 -0.002021357 0.12901032 -0.013448372 0.12224836 -0.108205296
-0.07139706 -0.054050695 -0.098424815 -0.06265934 -0.11584694 0.013575481 0.11532615 0.03971164
0.03887236 0.11243959 -0.11970435 -0.06659505 -0.09097905 -0.08677283 -0.06293524 0.011203711
0.07581209 0.09639286 -0.014503323 -0.036172707 -0.022506222 0.08710156 -0.06299524 0.0056716595
-0.014226756 -0.03382725 0.025231348 0.05841611 0.062946625 0.09639599 -0.08197718 0.045618664
0.0666347 0.098655015 -0.10935724 0.10109927 0.08801509 0.0406771 0.06739134 -0.13123439
-0.10545653 0.04646738 -0.0075941198 -0.05717019 -0.0011328018 -0.06788901 -0.04699527 0.08021895
0.042551775 -0.08315354 -0.10127689 -0.12734507 0.050723925 0.022586325 -0.026376376 0.014123048
0.112523615 -0.047685057 0.003922549 -0.042917527 0.1194259 -0.09279679 0.097375564 -0.013628881
0.06077263 0.009847106 -0.036418546 -0.0372908 0.12340849 0.039237794 -0.114397764 -0.049535483
0.07462247 -0.10088407 -0.10161017 0.0074143447 0.031420544 0.058820657 0.011609594 -0.08774595
-0.0961416 -0.046145894 0.060597092 -0.006247136 -0.11257328 0.07938576 -0.08378325 0.116982274
0.07572075 -0.0042840587 -0.13517529 -0.07710728 -0.02668842 -0.090459906 -0.026439276 0.09975117
-0.04189691 0.0031549311 0.0450767 0.10099716 -0.00012711812 0.055327345 0.11679288 0.098275945
-0.073829606 -0.08074622 0.0031171495 -0.03076441 -0.03928699 -0.11251657 0.13125889 -0.061823763
-0.06650289 0.057118278 -0.053917374 -0.06215879 -0.101517126 0.024508372 -0.026389487 0.045358375
0.10419341 -0.008692694 0.0031120589 -0.101346105 0.010635962 0.047444176 -0.053595405 0.10980259
-0.07206609 0.09978521 -0.084933385 0.054379918 0.044787556 0.1345687 0.036474098 0.09271103
0.0343573 0.05992941 0.085665114 -0.04909817 0.0905648 0.09784759 -0.0022215617 0.020652141
-0.048945032 -0.1122468 -0.07383842 -0.05314238 -0.036506288 -0.032038298 -0.0047668815 0.10139015
00000000: b833 ecbd 9a19 b5bd 25d7 b7bc 424e f63d
00000010: ea32 1b3c 6bf4 5e3d ca29 b03c 059e f33d
00000020: 775f 2f3c 5e09 79bd 8d35 efbd 1867 01ba
00000030: 6bab d5bd a9b1 9fbd 52dd 2e3d dae2 a9bd
00000040: a976 003e 9386 013d 3c1a 1ebd 547b 533d
00000050: c92d 013e 74c7 0bbd d6de 9a3c 8832 843b
00000060: 471b d8bd 63e8 033d 38d4 933d dac5 4a3d
00000070: 0bac b63d 70b7 a43d 4a04 1bbd 727c 4bbd
00000080: 3b9c 84bd d1aa 9d3d 239f 273d ffd7 e33d
00000090: 057e 72bd 8887 b63d 9efb 693d 9f87 03bd
000000a0: 7af3 bd3d 5bd6 473c 3aea 3f3d 8b28 81bd
000000b0: 3386 dbbd cbfe 7b3c 6742 8abc e0a7 b6bd
000000c0: 0210 89bd 329d a73d 8d98 e8bd 9e32 bc3d
000000d0: 3c78 ddbd cdd9 013e 630e 01be a7af a53d
000000e0: a2ff c2bd 0135 a6bc e434 8ebd 127d ed3d
000000f0: 825f 033d 534b aabd bd30 c4bd 34c1 9e3d
00000100: 88dd 46bc 8d5b 173d 7c07 1bbd 49cb a73d
00000110: 0584 013e a461 ac3d 7f7f e83d 3387 5dbd
00000120: 18a3 a2bd ab62 e03d 38c8 44bd a93d 86bd
00000130: 95c8 7ebd 8a86 a63d 8a82 b5bd 302c 09be
00000140: 005c c73d 1967 c53d 78f3 b33d 7645 13bd
00000150: c908 f339 31f6 b5bd 63b1 dc3d 33cc 9d3d
00000160: a2c1 57bd 0c91 7d3d 3fb0 cc3d c1c4 ec3d
00000170: 1bc5 b1bd 00df 1f3d 272e b8bd 8aa9 783d
00000180: 5cdc e13d b8b1 2dbc 0190 813c be78 04bb
00000190: 481b 043e 8f56 5cbc 595d fa3d bd9a ddbd
000001a0: 9f38 92bd 4364 5dbd f392 c9bd 8a53 80bd
000001b0: 2941 edbd b26b 5e3c 1e30 ec3d aca8 223d
000001c0: a038 1f3d ba46 e63d 8e27 f5bd fc62 88bd
000001d0: 3953 babd f4b5 b1bd 31e4 80bd c58f 373c
000001e0: 5e43 9b3d 9f69 c53d 589f 6dbc d529 14bd
000001f0: f85e b8bc 4d62 b23d a603 81bd 54d9 b93b
00000200: 5717 69bc 718e 0abd f9b1 ce3c bb45 6f3d
00000210: 29ea 803d 436b c53d a7e3 a7bd a3da 3a3d
00000220: c677 883d a40b ca3d b0f6 dfbd 220d cf3d
00000230: 4141 b43d 089d 263d 7904 8a3d 4f62 06be
00000240: 98f9 d7bd 9454 3e3d 18d8 f8bb 4a2b 6abd
00000250: 857a 94ba 6509 8bbd 1d7e 40bd d549 a43d
00000260: c54a 2e3d 674c aabd 426a cfbd bf66 02be
00000270: e4c3 4f3d f506 b93c 4513 d8bc 5b64 673c
00000280: c872 e63d 6851 43bd ba88 803b 4aca 2fbd
00000290: 9195 f43d 3e0c bebd d76c c73d ac4b 5fbc
000002a0: b9ec 783d c255 213c 9d2b 15bd 3dbe 18bd
000002b0: 97bd fc3d cfb7 203d 6049 eabd b8e5 4abd
000002c0: aad3 983d 4f9c cebd fe18 d0bd 08f4 f23b
000002d0: d4b2 003d eeed 703d 2b36 3e3c 26b4 b3bd
000002e0: e3e5 c4bd 7a03 3dbd a834 783d c6b4 ccbb
000002f0: d28c e6bd 0095 a23d 8d96 abbd 6794 ef3d
00000300: 7b13 9b3d 4a61 8cbb 646b 0abe 6cea 9dbd
00000310: aca1 dabc 0b43 b9bd 2e97 d8bc 574a cc3d
00000320: 189c 2bbd f6c2 4e3b 59a2 383d 99d7 ce3d
00000330: 034b 05b9 ed9e 623d 1b31 ef3d e644 c93d
00000340: fa33 97bd 465e a5bd 1749 4c3b a505 fcbc
00000350: 65eb 20bd 166f e6bd bb68 063e ea3a 7dbd
00000360: ab32 88bd dbf4 693d 77d8 5cbd 379a 7ebd
00000370: 36e8 cfbd c8c5 c83c c42e d8bc b4c9 393d
00000380: 5b63 d53d cd6b 0ebc aff3 4b3b 8c8e cfbd
00000390: 7542 2e3c d354 423d db86 5bbd 2ee0 e03d
000003a0: 6397 93bd 305c cc3d 8ef1 adbd 7abd 5e3d
000003b0: 2873 373d 61cc 093e dd65 153d 48df bd3d
000003c0: 3dba 0c3d 8b78 753d 3171 af3d 2a1b 49bd
000003d0: 0a7a b93d 5164 c83d 9f97 11bb ae2e a93c
000003e0: 967a 48bd a6e1 e5bd 9938 97bd d3ab 59bd
000003f0: 9e87 15bd 973a 03bd 8033 9cbb a4a5 cf3d

main_network.lstm.bias_ih_l0 f4 [256]
0.043361966 0.017198836 0.0010789675 -0.030858727 -0.07085733 -0.037199434 0.097028494 -0.051345654
-0.031784836 -0.04252552 -0.063653186 -0.07176774 0.087236084 0.08029633 0.050467428 -0.09802649
0.055433344 0.12338963 -0.03548219 -0.04923922 -0.0021432254 0.018930636 0.11137491 -0.011846152
0.023382196 0.10138756 0.04319724 0.09897922 0.004377813 0.058943357 -0.022550434 0.056017254
0.008032558 0.043331258 0.040478837 0.06495958 0.050793234 -0.0066240123 0.040757153 -0.044257786
0.105532736 -0.10096306 -0.04526425 0.062093776 -0.11634731 -0.09220092 0.028600935 -0.0822371
-0.01711283 0.070676 -0.05001932 0.09337813 -0.003906541 0.055071875 0.033757787 -0.076658785
0.12252442 0.10693874 0.008259908 -0.07997186 -0.115879014 -0.025032463 0.022196725 -0.009963455
-0.100494415 0.10947254 -0.046177562 0.0776871 -0.120753415 -0.07571111 0.0999522 0.030925373
-0.013827295 0.016844343 0.023765283 0.07079479 -0.078062154 -0.02990619 0.12595503 0.011446421
-0.09193192 -0.059181422 0.05372747 0.015021302 0.042010974 -0.091539755 0.06787662 0.11946432
0.017795533 -0.11163183 0.015995214 -0.05520692 -0.03164685 0.0597499 0.031799875 -0.034963064
-0.08999886 -0.08363189 -0.05086128 -0.086899914 -0.055383176 0.12178728 -0.119619764 -0.119452484
0.10836754 0.042971004 -0.02443907 -0.057211783 -0.1251197 -0.045215935 0.097041786 -0.057488732
-0.06921855 -0.08502719 -0.06732743 0.0031357554 -0.11256608 0.04320787 0.049479723 -0.027253844
0.07753596 -0.0832062 -0.01791226 0.021386992 -0.12852584 -0.04867318 0.049864527 0.028581588
-0.015228443 -0.12530845 0.07593543 0.039717365 0.10121578 -0.056790166 0.00594277 -0.022173695
0.111325145 -0.029524188 0.11791208 0.1364365 0.028119458 -0.025915202 -0.025385115 -0.11355662
0.03219296 -0.061769456 -0.025040878 0.05171166 0.1025865 -0.013227947 -0.055091344 -0.09194516
0.07452881 -0.060560133 -0.025281383 -0.023709849 0.12338584 -0.031246673 0.044375423 0.007507329
0.028313966 0.10713594 -0.049557477 0.023339877 0.09595182 -0.08014635 0.040338732 0.051565174
0.0950012 0.035977934 0.050607648 -0.11441194 -0.018472677 -0.11435507 -0.1354267 0.09841214
0.08963124 0.0571174 -0.136687 -0.06912065 0.059272945 0.076258846 0.0065314947 0.0027547057
0.13262628 0.0054335515 0.060522497 0.079322815 -0.086503275 -0.06498421 0.03483653 -0.034811214
0.024837418 -0.045269854 -0.060731113 -0.08705071 -0.048214488 0.019752432 -0.07843407 -0.09713687
0.008004319 0.07899552 0.059117638 -0.013207018 0.06427955 -0.031456027 -0.10761504 0.09272599
-0.01911072 -0.06514785 -0.08737713 0.029024517 0.0771679 0.08217423 -0.009682483 0.0259514
-0.10813846 0.10037932 0.07803765 0.05986771 -0.032490112 0.07026175 0.091892935 0.10041305
0.087842494 -0.02309951 -0.012604747 -0.047391746 0.099378414 -0.037860177 0.06495534 0.032038923
0.030667854 0.034437377 0.029056134 -0.062024713 0.051367708 -0.11112996 -0.014430512 -0.062110372
0.106374554 0.099138714 0.0162871 -0.114533365 -0.086422116 0.12219806 -0.037751865 -0.03420305
0.018855952 0.057365667 -0.018253589 0.010965989 0.11163597 -0.013129524 -0.03226077 0.09715869
00000000: 519c 313d 93e4 8c3c 246c 8d3a 71cb fcbc
00000010: a61d 91bd 6f5e 18bd e0b6 c63d d24f 52bd
00000020: d130 02bd 3d2f 2ebd 9a5c 82bd f7fa 92bd
00000030: d5a8 b23d 6772 a43d efb6 4e3d 1dc2 c8bd
00000040: 130e 633d b4b3 fc3d c655 11bd 10af 49bd
00000050: 5b75 0cbb 6c14 9b3c 8718 e43d 5d16 42bc
00000060: 058c bf3c 48a4 cf3d 97ef 303d 9eb5 ca3d
00000070: c273 8f3b 976e 713d b0bb b8bc 5972 653d
00000080: fd9a 033c 1e7c 313d 23cd 253d 8709 853d
00000090: 910c 503d 3e0e d9bb f9f0 263d a747 35bd
000000a0: 8c21 d83d b9c5 cebd 0267 39bd 0b56 7e3d
000000b0: 8047 eebd d6d3 bcbd 824c ea3c ed6b a8bd
000000c0: 3530 8cbc 94be 903d 0fe1 4cbd 083d bf3d
000000d0: 7102 80bb 0c93 613d 9b45 0a3d 48ff 9cbd
000000e0: 15ee fa3d b302 db3d 9154 073c 49c8 a3bd
000000f0: fa51 edbd e110 cdbc e8d5 b53c c23d 23bc
00000100: 04d0 cdbd 2433 e03d af24 3dbd 6a1a 9f3d
00000110: 914d f7bd 6d0e 9bbd bdb3 cc3d 3557 fd3c
00000120: e18b 62bc 26fd 893c 69af c23c dcfc 903d
00000130: 0ddf 9fbd d3fd f4bc 5bfa 003e c589 3b3c
00000140: cd46 bcbd 3868 72bd 5611 5c3d e81b 763c
00000150: b313 2c3d 3279 bbbd e602 8b3d b6a9 f43d
00000160: f0c7 913c 3b9f e4bd 6508 833c a720 62bd
00000170: 21a0 01bd 50bc 743d 9640 023d 6e35 0fbd
00000180: 5351 b8bd 3247 abbd eb53 50bd 95f8 b1bd
00000190: 78d9 62bd 9c6b f93d 35fb f4bd 81a3 f4bd
000001a0: cdef dd3d 5d02 303d 7234 c8bc e756 6abd
000001b0: 611f 00be 5834 39bd d8bd c63d 4e79 6bbd
000001c0: 75c2 8dbd bc22 aebd f7e2 89bd 3f81 4d3b
000001d0: 0c89 e6bd bcfa 303d 40ab 4a3d 7443 dfbc
000001e0: 2ccb 9e3d 0368 aabd bbbc 92bc c633 af3c
000001f0: 479c 03be 875d 47bd bf3e 4c3d ef23 ea3c
00000200: b880 79bc dc50 00be 0984 9b3d adae 223d
00000210: 384a cf3d ce9c 68bd 91bb c23b 9ca5 b5bc
00000220: 70fe e33d b6dc f1bc e37b f13d 03b6 0b3e
00000230: c75a e63c 1e4c d4bc 72f4 cfbc 6090 e8bd
00000240: c4dc 033d f801 7dbd 8722 cdbc 9bcf 533d
00000250: df18 d23d 08ba 58bc 76a7 61bd be4d bcbd
00000260: 90a2 983d e70d 78bd e71a cfbc 283b c2bc
00000270: b7b1 fc3d 06f9 ffbc 01c3 353d 0a00 f63b
00000280: b1f2 e73c 166a db3d c8fc 4abd 4533 bf3c
00000290: 6382 c43d c523 a4bd 3a3a 253d 0136 533d
000002a0: fd8f c23d 995d 133d f749 4f3d cf50 eabd
000002b0: 0354 97bc fe32 eabd 4cad 0abe 4e8c c93d
000002c0: 9590 b73d eff3 693d adf7 0bbe 218f 8dbd
000002d0: 30c8 723d 992d 9c3d 2606 d63b 4b88 343b
000002e0: 2fcf 073e ef0b b23b 70e6 773d 0074 a23d
000002f0: a128 b1bd 7116 85bd c0b0 0e3d 3496 0ebd
00000300: d777 cb3c e26c 39bd 30c1 78bd a547 b2bd
00000310: 8e7c 45bd dacf a13c 0ba2 a0bd b2ef c6bd
00000320: 8c24 033c 67c8 a13d 5625 723d 4062 58bc
00000330: ffa4 833d 09d8 00bd 4665 dcbd 20e7 bd3d
00000340: 168e 9cbc 3c6c 85bd c8f2 b2bd d3c4 ed3c
00000350: 340a 9e3d f64a a83d 47a3 1ebc 0898 d43c
00000360: b277 ddbd ac93 cd3d 34d2 9f3d d837 753d
00000370: 5a14 05bd 64e5 8f3d 5d32 bc3d 5ba5 cd3d
00000380: c4e6 b33d 2f3b bdbc 2484 4ebc d91d 42bd
00000390: e986 cb3d 4613 1bbd 4e07 853d 3f3b 033d
000003a0: 273b fb3c 350e 0d3d 2107 ee3c a00d 7ebd
000003b0: f266 523d 1b98 e3bd f46d 6cbc 7267 7ebd
000003c0: e7da d93d 3d09 cb3d 866c 853c 7890 eabd
000003d0: 14fe b0bd fa42 fa3d b3a1 1abd 7f18 0cbd
000003e0: cc77 9a3c 43f8 6a3d 8d88 95bc b1aa 333c
000003f0: 66a1 e43d 371d 57bc df23 04bd 23fb c63d

main_network.lstm.bias_hh_l0 f4 [256]
0.05600517 -0.048446123 0.13097093 -0.011914665 -0.13533726 0.058979716 -0.039895337 -0.06691343
-0.008474845 0.07229671 -0.005330651 0.0010565271 -0.12624611 0.09069825 0.11355503 -0.008386307
-0.045811538 0.03679034 0.104790956 0.030996026 -0.11491679 0.11524544 0.113410525 0.0669516
-0.12020648 0.0884361 -0.063286476 0.0056624385 -0.03118206 -0.06003403 0.03593035 -0.0417892
-0.02988519 -0.047639005 0.015559391 0.08410203 0.015978137 0.0534843 -0.006096378 0.057513636
-0.052348435 0.13120764 0.064516425 0.09302507 0.103548184 -0.05836317 0.042582557 0.01865168
0.014260595 -0.13388112 0.08106056 -0.07913749 -0.06712436 -0.070908666 -0.012698894 0.06302256
-0.096400924 0.099768884 0.055944085 0.03675992 -0.009986626 -0.08562818 0.012861907 -0.09065955
-0.040587958 -0.06521052 -0.05162308 0.0069818133 0.07520557 0.09993593 0.033893827 0.09157977
0.10108016 -0.0070802015 -0.01085634 0.028182352 -0.0023769974 -0.009847408 0.13195091 -0.0523953
0.075529404 0.10597991 0.09778355 -0.12223591 0.0051251445 0.046025094 -0.017309213 0.0070615276
0.10741116 0.092028715 0.011385362 0.05440311 0.072663255 0.012207439 0.08347047 -0.0063686864
0.04789088 -0.07794678 0.046775986 0.12103305 0.032299686 0.057607315 -0.11195526 0.11034409
-0.02736869 -0.056106936 0.060601003 0.10344449 -0.08561674 -0.060913388 0.11088821 -0.033269413
0.0015188572 -0.043843437 -0.09729449 0.08300538 -0.04337921 -0.0854706 0.07043059 -0.020215169
-0.042789653 0.023421453 0.04118089 -0.031101389 -0.082088515 -0.06883885 -0.08985984 0.01161742
0.027890643 0.0053623496 -0.10597684 0.09028557 -0.021665433 -0.016615525 -0.02069965 -0.082164794
-0.0339942 0.004784326 -0.03589206 0.10025074 0.022797968 0.1308913 0.018912148 0.07567017
-0.027181529 -0.13561943 -0.08939699 -0.041294206 0.08614429 -0.066421606 -0.04581283 0.07262677
-0.024247278 0.0298251 0.089758456 -0.017131645 0.09866094 0.039407793 -0.032336187 -0.078292385
-0.08708491 0.007729248 -0.020626858 0.019468794 -0.055954266 0.058856633 0.11894294 -0.08752505
0.109615035 0.010051356 0.043054234 0.02464239 0.08579796 -0.08285655 -0.07628429 -0.08769572
0.0706528 -0.13556555 0.084287964 0.11830733 -0.0965964 -0.10382398 -0.019594338 -0.062069923
0.026105378 -0.022329502 0.09063592 0.10727641 -0.038149964 0.0774789 0.034935802 0.07875142
0.060628433 -0.066140085 0.026974376 0.06676767 -0.026828712 0.044192594 0.02158083 0.12488609
-0.07097825 0.034485657 -0.0033756928 -0.04980791 -0.07976263 -0.05448806 -0.063985705 -0.11968054
0.0990816 0.11556968 -0.12699883 0.02965376 -0.07673167 0.07677448 0.038656898 -0.12664586
0.052683424 0.020451847 0.07898164 0.010614064 0.047878988 0.06299211 0.08761161 0.0675217
0.036826115 -0.076905884 0.040090438 -0.044429142 0.09723242 0.118100554 0.057430424 -0.09691945
-0.07636618 -0.03484937 -0.026822312 0.109576195 -0.09156841 -0.045003932 0.13185245 -0.09253158
0.089161865 0.08296337 -0.09869511 -0.009389917 -0.12726946 0.11365116 -0.0008566007 -0.071919404
0.11093444 0.069565706 -0.055089395 0.05505414 0.046790224 0.027025288 -0.07404989 0.096667044
00000000: ad65 653d 716f 46bd 3e1d 063e ba35 43bc
00000010: da95 0abe b794 713d 4b69 23bd e909 89bd
00000020: 14da 0abc 4c10 943d beac aebb 2b7b 8a3a
00000030: a946 01be 01c0 b93d 8a8f e83d b966 09bc
00000040: e1a4 3bbd 78b1 163d a49c d63d 61eb fd3c
00000050: 7e59 ebbd cd05 ec3d c743 e83d ec1d 893d
00000060: d12e f6bd fc1d b53d 579c 81bd fa8b b93b
00000070: 8571 ffbc 3ee6 75bd b42b 133d 272b 2bbd
00000080: c9d1 f4bc 1e21 43bd d1ec 7e3c af3d ac3d
00000090: 95e4 823c 5a12 5b3d 20c4 c7bb 6b93 6b3d
000000a0: 506b 56bd 4c5b 063e 3021 843d ee83 be3d
000000b0: 1211 d43d 380e 6fbd 0c6b 2e3d 68cb 983c
000000c0: 45a5 693c 2218 09be 1403 a63d d612 a2bd
000000d0: 7f78 89bd 9038 91bd 060f 50bc f911 813d
000000e0: d96d c5bd a153 cc3d a025 653d 9291 163d
000000f0: f29e 23bc d45d afbd bfba 523c b7ab b9bd
00000100: 8f3f 26bd 188d 85bd b972 53bd b2c7 e43b
00000110: 6105 9a3d 35ab cc3d 41d4 0a3d 2d8e bb3d
00000120: 1d03 cf3d 0901 e8bb cade 31bc adde e63c
00000130: 66c7 1bbb 0657 21bc 241e 073e 749c 56bd
00000140: 29af 9a3d ff0b d93d be42 c83d d256 fabd
00000150: d4f0 a73b cf84 3c3d 0dcc 8dbc 6364 e73b
00000160: 62fa db3d 8d79 bc3d ab89 3a3c ccd5 5e3d
00000170: 79d0 943d b601 483c 91f2 aa3d 6ab0 d0bb
00000180: 3a29 443d 90a2 9fbd 2d98 3f3d 2de0 f73d
00000190: ad4c 043d a6f5 6b3d cd48 e5bd 15fc e13d
000001a0: 4e34 e0bc 63d0 65bd c238 783d b4da d33d
000001b0: d457 afbd 5180 79bd 5c19 e33d 8245 08bd
000001c0: 6414 c73a 2d95 33bd 5542 c7bd bafe a93d
000001d0: 66ae 31bd 360b afbd ea3d 903d 489a a5bc
000001e0: 3444 2fbd 59de bf3c 4bad 283d 57c8 febc
000001f0: 061e a8bd 62fb 8cbd 7008 b8bd fe56 3e3c
00000200: eb7a e43c a6b6 af3b 630a d9bd a4e7 b83d
00000210: b57b b1bc 481d 88bc 5092 a9bc 0446 a8bd
00000220: 813d 0bbd d6c5 9c3b 8d03 13bd 4350 cd3d
00000230: cec2 ba3c 5e08 063e a6ed 9a3c f6f8 9a3d
00000240: ccab debc d2df 0abe c515 b7bd 1d24 29bd
00000250: 6b6c b03d 0d08 88bd 3ca6 3bbd 58bd 943d
00000260: 3aa2 c6bc c553 f43c 48d3 b73d aa57 8cbc
00000270: bf0e ca3d 116a 213d f372 04bd c257 a0bd
00000280: 9359 b2bd a245 fd3b a8f9 a8bc 057d 9f3c
00000290: 4d30 65bd a713 713d 5b98 f33d 5540 b3bd
000002a0: d97d e03d 71ae 243c a359 303d d6de c93c
000002b0: d7b6 af3d b2b0 a9bd f03a 9cbd d099 b3bd
000002c0: 6ab2 903d b2d1 0abe 2b9f ac3d 1d4b f23d
000002d0: 55d4 c5bd aba1 d4bd 4e84 a0bc 083d 7ebd
000002e0: f2da d53c 5cec b6bc 539f b93d bcb3 db3d
000002f0: 2343 1cbd 42ad 9e3d d818 0f3d 6d48 a13d
00000300: 8555 783d 7474 87bd 5ef9 dc3c 7dbd 883d
00000310: e3c7 dbbc 4b03 353d 48ca b03c 47c4 ff3d
00000320: 0b5d 91bd d540 0d3d ba3a 5dbb 6103 4cbd
00000330: 975a a3bd df2e 5fbd f00a 83bd 121b f5bd
00000340: 4beb ca3d ccaf ec3d fb0b 02be 71ec f23c
00000350: 7e25 9dbd f03b 9d3d b256 1e3d 74af 01be
00000360: 93ca 573d a28a a73c 20c1 a13d 9ce6 2d3c
00000370: c21c 443d 0202 813d b76d b33d d148 8a3d
00000380: fbd6 163d d580 9dbd df35 243d 55fb 35bd
00000390: cb21 c73d b4de f13d 2a3c 6b3d b47d c6bd
000003a0: df65 9cbd 37be 0ebd 77ba dbbc 7c69 e03d
000003b0: 3888 bbbd 0b56 38bd 5404 073e 3281 bdbd
000003c0: 7f9a b63d b3e8 a93d a920 cabd 2bd8 19bc
000003d0: ed52 02be f0c1 e83d 808d 60ba 7b4a 93bd
000003e0: 9831 e33d 7778 8e3d 6ba5 61bd 7380 613d
000003f0: 1ba7 3f3d 2364 dd3c 78a7 97bd 5ff9 c53d

main_network.fc.weight f4 [3, 64]
0.099563345 0.05762914 0.04198302 -0.06461441 0.07484623 -0.14042503 -0.009476567 -0.06296836
0.09204544 -0.07660467 0.100866176 0.038312364 0.06582622 0.089004695 -0.058494393 -0.010828503
0.08188021 -0.029774962 0.06502311 0.073944986 0.13337311 0.05349662 0.027792802 0.020453325
-0.09801147 0.015775083 -0.0011821591 0.050519135 0.018134251 0.083238564 -0.071580075 -0.058749046
0.044066694 -0.07817025 -0.03151684 0.08596806 -0.0151129775 -0.035242636 -0.09976885 -0.1041032
0.13115525 0.09399123 0.08238548 0.09749555 -0.02202466 -0.10299506 -0.06755511 -0.018282264
0.11313752 -0.046752904 -0.015563744 0.08501479 0.078692794 0.079193175 0.011926006 -0.058090653
0.045639034 0.11188378 0.005034118 0.11367677 0.090707466 0.10781679 -0.057397485 -0.08346032
0.09879654 0.06268622 -0.058892757 -0.00712735 0.0936941 -0.10371236 -0.03182768 -0.0038877868
0.027276324 0.055345826 0.05524521 -0.04543025 0.06145496 0.09641826 -0.018177295 -0.08680837
-0.06758313 -0.11631884 -0.001955441 0.00032890518 0.07689212 -0.0050602616 0.10472424 -0.031390835
-0.085980944 -0.030233506 -0.0099654235 0.0015916369 -0.03353598 -0.057770707 0.006813409 0.03234665
0.013267093 -0.08367371 -0.089769036 -0.11640009 -0.09869025 0.10186578 -0.033771954 0.014143482
0.028345928 0.10710197 -0.091227956 -0.041671235 -0.11964955 0.101764806 0.09617996 -0.048665095
-0.05408136 0.06257533 0.107789725 0.06361582 -0.1294963 0.059957698 -0.09523251 -0.031759866
0.0044888845 0.10514819 0.1282774 0.0396586 0.055833045 0.042353626 -0.04571926 0.077377506
-0.12658827 -0.03289601 0.044645242 -0.09357473 0.10162208 0.060560472 0.08064079 -0.111794665
-0.09705244 0.04151341 0.033123624 0.09330543 -0.03619245 0.046455756 -0.121414 -0.02408366
-0.059716452 -0.08894373 -0.010572733 0.03516335 -0.07333287 -0.100919925 0.098260365 0.057910178
0.08657911 -0.07653708 0.13064052 0.09004046 0.10725538 -0.0007405511 0.06595402 0.08868018
0.08264598 -0.081449114 0.07039912 -0.02239443 0.13678096 -0.03849998 -0.01541945 -0.07304176
-0.045631062 -0.08003065 -0.0069081145 -0.102516524 -0.05703702 0.041381493 -0.08409074 -0.094503686
0.037392236 -0.1123408 -0.079667374 0.11937807 0.008167214 0.12045505 0.03176125 -0.10301147
0.03148681 0.10983164 -0.0039028318 0.132121 0.03365566 -0.059450414 0.007616343 -0.08897221
00000000: dee7 cb3d 880c 6c3d 63f6 2b3d 8f54 84bd
00000010: fb48 993d 94cb 0fbe 9a43 1bbc 8ef5 80bd
00000020: 5282 bc3d e9e2 9cbd ed92 ce3d 6ded 1c3d
00000030: e6cf 863d 1848 b63d d197 6fbd 096a 31bc
00000040: d0b0 a73d 9fea f3bc d62a 853d 7870 973d
00000050: f692 083e 461f 5b3d bbad e33c bb8d a73c
00000060: 3dba c8bd bf3a 813c adf2 9aba 27ed 4e3d
00000070: 488e 943c fb78 aa3d 9398 92bd d7a2 70bd
00000080: 477f 343d b917 a0bd cd17 01bd 0610 b03d
00000090: 6c9c 77bc 955a 10bd 9c53 ccbd 0f34 d5bd
000000a0: 904d 063e 797e c03d b8b9 a83d bfab c73d
000000b0: 0f6d b4bc 13ef d2bd 555a 8abd b0c4 95bc
000000c0: a5b4 e73d f97f 3fbd 13ff 7ebc 3c1c ae3d
000000d0: b029 a13d 0830 a23d 4b65 433c 77f0 6dbd
000000e0: ffef 3a3d 5323 e53d 3ef5 a43b 5ecf e83d
000000f0: d6c4 b93d 0dcf dc3d a019 6bbd 3fed aabd
00000100: d755 ca3d a261 803d 8839 71bd 8c8c e9bb
00000110: b1e2 bf3d 2567 d4bd be5d 02bd 3dca 7ebb
00000120: 9972 df3c 4eb2 623d cd48 623d 1215 3abd
00000130: 32b8 7b3d f076 c53d 8de8 94bc 96c8 b1bd
00000140: 0669 8abd 9238 eebd db26 00bb e870 ac39
00000150: 9e79 9d3d 8dd0 a5bb aa79 d63d ad93 00bd
00000160: c716 b0bd 42ac f7bc 0446 23bc 799e d03a
00000170: 065d 09bd faa0 6cbd 0443 df3b ec7d 043d
00000180: 395e 593c 1f5d abbd d4d8 b7bd 2c63 eebd
00000190: 1d1e cabd 029f d03d 7654 0abd 10ba 673c
000001a0: b835 e83c 4758 db3d b9d5 babd 75af 2abd
000001b0: d30a f5bd 116a d03d 00fa c43d 0d55 47bd
000001c0: 6b84 5dbd 7f27 803d dcc0 dc3d 0349 823d
000001d0: ae9a 04be 3496 753d 4309 c3bd a216 02bd
000001e0: 7e17 933b ef57 d73d 275b 033e 0e71 223d
000001f0: 31b1 643d ff7a 2d3d 1e44 3bbd 1978 9e3d
00000200: 5ba0 01be f7bd 06bd eedd 363d 1ca4 bfbd
00000210: 3d1f d03d 420e 783d 0027 a53d 9af4 e4bd
00000220: 6ec3 c6bd f709 2a3d a3ac 073d eb16 bf3d
00000230: 893e 14bd 6448 3e3d e7a7 f8bd 194b c5bc
00000240: 3d99 74bd 2128 b6bd 4239 2dbc 7207 103d
00000250: 8b2f 96bd 1baf cebd bb3c c93d 3933 6d3d
00000260: 6350 b13d 79bf 9cbd a1c6 053e 2267 b83d
00000270: b5a8 db3d 8b21 42ba e712 873d f49d b53d
00000280: 4c42 a93d cbce a6bd 6a2d 903d 8674 b7bc
00000290: 4f10 0c3e 28b2 1dbd dca1 7cbc eb96 95bd
000002a0: a3e7 3abd 1ce7 a3bd 775d e2bb 2ff4 d1bd
000002b0: a69f 69bd a47f 293d c437 acbd 268b c1bd
000002c0: 9a28 193d ef12 e6bd a628 a3bd 7d7c f43d
000002d0: c7cf 053c 23b1 f63d 1618 023d adf7 d2bd
000002e0: 50f8 003d 69ef e03d a7c6 7fbb ba4a 073e
000002f0: 84da 093d 4782 73bd 8492 f93b 1037 b6bd

main_network.fc.bias f4 [3]
-0.099211276 0.04511735 0.032638542
00000000: 482f cbbd f8cc 383d feaf 053d

dog_avoidance_network.fc1.weight f4 [32, 7]
-0.31113917 0.16369347 0.31039658 -0.19505648 0.25968888 0.44324437 0.3674104 -0.29384285
-0.16405916 -0.37655413 0.118565634 0.09584083 -0.03241859 0.3236935 0.016122831 0.22912422
-0.105229296 0.076254256 0.5363723 0.54013026 0.2957629 -0.4189126 -0.00014440728 0.2799759
-0.21246894 0.30035377 0.080877766 0.72965854 -0.04501261 -0.0058286474 0.0413441 0.13207446
0.5444453 0.44456178 -0.25195572 -0.042901326 0.08730189 -0.2354721 -0.123292916 -0.07156012
0.3188374 0.1125473 0.49987388 -0.34297004 0.32672656 0.18248165 -0.46789646 -0.61424154
-0.0779574 -0.057162557 0.214286 -0.031032337 -0.3546026 0.5501988 0.3278721 0.2472022
-0.37484008 0.31252345 0.34095827 -0.12381733 -0.12813072 -0.11759169 0.33690345 0.096841715
-0.116023935 -0.18878312 0.18202667 0.6201472 0.6337191 -0.39737138 0.032737177 0.14391635
0.33232918 0.2964917 0.47517323 -0.011400207 0.079877734 -0.21010508 0.36815745 0.29614046
-0.27953717 0.17289697 0.13290076 -0.13107751 -0.30083364 0.13997716 0.12237637 -0.12772475
0.13563398 0.20576721 0.41440243 -0.17775805 0.22993195 -0.015040931 0.10988971 0.6157542
0.34068853 -0.053156085 0.10602939 0.10687099 0.15182842 -0.22935486 0.6258722 0.4798592
-0.575965 0.583269 -0.35549447 -0.042231675 -0.1806755 -0.6389911 0.015816174 0.017952543
-0.37564155 -0.11526657 0.3199311 0.06381121 -0.07180993 -0.2091559 -0.33772647 0.14102142
0.21155037 -0.111442864 -0.08321946 -0.2368714 -0.3395719 0.18928148 -0.39458844 -0.17915654
-0.056863263 -0.04885999 0.14959277 0.50311416 0.7037515 -0.31017804 -0.36761796 -0.14347492
-0.31897005 0.31558424 0.3464005 0.73690933 -0.2663391 -0.34228846 -0.27111948 -0.2116362
-0.28092876 0.4365425 0.68486756 -0.33166695 -0.21105222 0.19046195 0.23207693 1.1520061
0.089320086 0.45125484 -0.26615983 0.18882972 -0.122379474 0.28707913 -0.34663853 0.1642397
-0.16514981 -0.3544914 -0.32250062 -0.35255396 -0.28718302 0.62745625 0.22361171 0.5209063
-0.026094692 -0.018278943 0.08890033 -0.18590516 -0.08428442 0.15116248 0.3876089 -0.23471573
0.36703435 0.12871861 0.18931818 0.04106853 0.13457975 -0.036663096 -0.34423494 0.12836501
0.23743825 -0.33874848 0.29817894 0.40251902 -0.12513128 0.011998197 0.19464985 -0.25952557
-0.19696492 -0.2658124 -0.3190593 -0.17746961 -0.14944853 0.18077612 0.07022452 -0.044004347
0.40976787 0.23520835 0.2804817 0.13821265 -0.36464494 -0.23337127 0.23174419 0.35148004
0.41368574 -0.60124314 -0.15764989 0.34260878 -0.024717482 -0.31155542 -0.1114129 0.45233342
0.26438278 0.1516821 0.17398262 0.30441433 -0.2881306 0.6069983 0.7445176 -0.55323327
00000000: a24d 9fbe 439f 273e 4dec 9e3e e3bc 47be
00000010: f1f5 843e edf0 e23e 371d bc3e 9272 96be
00000020: 20ff 27be b4cb c0be 8ad2 f23d 3248 c43d
00000030: 5bc9 04bd 28bb a53e 0714 843c 8a9f 6a3e
00000040: 7582 d7bd 312b 9c3d b24f 093f fa45 0a3f
00000050: 3c6e 973e b67b d6be 096c 17b9 0059 8f3e
00000060: 7591 59be f8c7 993e 3ea3 a53d e7ca 3a3f
00000070: 245f 38bd 3dfe bebb 6e58 293d 873e 073e
00000080: c460 0b3f 9a9d e33e 5700 81be 4db9 2fbd
00000090: 55cb b23d 991f 71be ff80 fcbd 1d8e 92bd
000000a0: a83e a33e 337f e63d 78ef ff3e c599 afbe
000000b0: b448 a73e 78dc 3a3e 2090 efbe ef3e 1dbf
000000c0: 21a8 9fbd 4923 6abd ca6d 5b3e 8737 febc
000000d0: 798e b5be d4d9 0c3f dade a73e 9322 7d3e
000000e0: 0aeb bfbe 1303 a03e 1592 ae3e f193 fdbd
000000f0: b334 03be e9d3 f0bd 9c7e ac3e f354 c63d
00000100: f59d edbd 5d50 41be 3365 3a3e f8c1 1e3f
00000110: 6a3b 223f 4374 cbbe 6b17 063d cf5e 133e
00000120: 0d27 aa3e c3cd 973e e849 f33e efc7 3abc
00000130: f096 a33d c925 57be 227f bc3e b99f 973e
00000140: 7f1f 8fbe e70b 313e 2317 083e 2f39 06be
00000150: de06 9abe 2c56 0f3e 76a0 fa3d 47ca 02be
00000160: a2e3 0a3e a4b4 523e 8e2c d43e 3506 36be
00000170: 4873 6b3e 3d6e 76bc db0d e13d 11a2 1d3f
00000180: ba6e ae3e 32ba 59bd f025 d93d 2ddf da3d
00000190: e978 1b3e 00dc 6abe 2939 203f 1bb0 f53e
000001a0: 7172 13bf 1e51 153f 5f03 b6be 1ffb 2cbd
000001b0: 0003 39be ec94 23bf ec90 813c 3611 933c
000001c0: 1754 c0be e110 ecbd 02ce a33e 74af 823d
000001d0: 1611 93bd f72c 56be 7cea acbe eb67 103e
000001e0: a9a0 583e 283c e4bd f76e aabd 6b8e 72be
000001f0: 5edc adbe 01d3 413e 7f07 cabe d074 37be
00000200: 74e9 68bd 6a21 48bd d92e 193e 17cc 003f
00000210: 0f29 343f a8cf 9ebe 6c38 bcbe 17eb 12be
00000220: 0b50 a3be 4294 a13e 685b b13e 17a6 3c3f
00000230: 995d 88be 6f40 afbe 2cd0 8abe 29b7 58be
00000240: e5d5 8fbe 8082 df3e 7b53 2f3f 40d0 a9be
00000250: 131e 58be 7508 433e 93a5 6d3e f074 933f
00000260: 73ed b63d e00a e73e 1a46 88be 945c 413e
00000270: 17a2 fabd 09fc 923e 9b7a b1be 742e 283e
00000280: 081d 29be e67f b5be cd1e a5be f481 b4be
00000290: a709 93be f9a0 203f 78fa 643e 1e5a 053f
000002a0: 89c4 d5bc b9bd 95bc 6011 b63d ec5d 3ebe
000002b0: 4f9d acbd 56ca 1a3e ac74 c63e 5259 70be
000002c0: edeb bb3e d0ce 033e a0dc 413e 7a37 283d
000002d0: 46cf 093e 0b2c 16bd 903f b0be 1e72 033e
000002e0: 0323 733e 7170 adbe e9aa 983e f916 ce3e
000002f0: 6a22 00be 1694 443c 4a52 473e 89e0 84be
00000300: 2cb1 49be 9018 88be be5b a3be 98ba 35be
00000310: 0909 19be 601d 393e e0d1 8f3d e73d 34bd
00000320: 18cd d13e 75da 703e 4c9b 8f3e 9e87 0d3e
00000330: beb2 babe e1f8 6ebe 594e 6d3e 31f5 b33e
00000340: 9ece d33e 12eb 19bf f96e 21be 6b6a af3e
00000350: 517c cabc 3184 9fbe 722c e4bd 3f98 e73e
00000360: 2e5d 873e 8d52 1b3e 8028 323e 32dc 9b3e
00000370: db85 93be 3e64 1b3f b598 3e3f b2a0 0dbf

dog_avoidance_network.fc1.bias f4 [32]
0.49635088 0.515547 0.45728913 0.48136806 0.5242157 0.4067791 -0.11946743 0.113318175
-0.34434682 0.07926577 0.41049483 0.6907479 0.4620255 0.5840784 0.23466934 -0.16050342
-0.059834 0.00865927 0.41676638 0.17839015 0.089947455 0.48838282 -0.3347597 0.4928601
0.22400254 -0.1658376 0.06472481 0.13421492 0.21152581 0.17690599 0.1251633 0.09215123
00000000: b421 fe3e e3fa 033f cd21 ea3e e075 f63e
00000010: 0033 063f 5a45 d03e 57ab f4bd 5c13 e83d
00000020: 3a4e b0be 1856 a23d 612c d23e dbd4 303f
00000030: 9b8e ec3e 2986 153f 294d 703e 025b 24be
00000040: 7f14 75bd 9cdf 0d3c 6762 d53e e8ab 363e
00000050: 5f36 b83d 500d fa3e a065 abbe 2958 fc3e
00000060: ec60 653e 55d1 29be 718e 843d a36f 093e
00000070: 399a 583e d826 353e cf2a 003e c9b9 bc3d

dog_avoidance_network.fc2.weight f4 [16, 32]
0.16709638 -0.15501973 0.15590395 -0.14929892 -0.005541573 -0.092915215 -0.04171537 0.0042625847
0.07059898 0.0017127004 0.0830558 0.09926276 0.0029272882 -0.16830528 -0.12733047 -0.028397093
0.12070088 -0.17601077 -0.12537806 -0.10614975 -0.058749292 -0.06689942 0.032283854 -0.09668959
-0.16202037 0.05292074 0.13700707 -0.1760853 -0.13566683 0.013378716 -0.1001467 -0.15403876
0.12896568 0.067431904 0.23872162 0.14167716 0.16608499 0.27887145 -0.17259623 0.13446298
0.15068427 0.06571387 0.08656294 0.09571371 0.17197098 0.31867465 0.19505548 -0.3407539
0.065079495 0.0057710647 0.31709653 0.31164783 0.39645928 0.32038254 0.033676468 0.13123211
-0.0108253695 -0.12136326 0.046392612 -0.12365612 0.30753902 0.522821 0.26079342 0.29271448
0.2430465 0.34834096 0.070553295 0.2713517 0.19412832 0.26626566 -0.17872863 0.1980498
-0.06686996 0.08212256 0.024589274 0.12388433 0.2199257 0.087827094 0.1812131 -0.2617601
0.008837878 -0.14205196 0.1013343 0.50302386 0.38126627 0.3478584 0.09383047 0.06863152
0.24227925 0.14042626 0.05425637 -0.024963437 0.31493017 0.49759233 0.26344103 0.18389434
0.3435503 0.31655928 0.12304853 0.51038396 0.28016722 0.09860453 -0.37642905 0.14243506
-0.10548064 0.3307225 0.14554557 0.28731525 0.099179074 0.011303284 0.07188837 -0.17940916
0.13615198 -0.021669978 0.2908928 0.34045824 0.3141614 0.5666652 0.17419861 0.21817005
0.1984508 0.17165853 0.15837461 0.15574856 0.1520063 0.32287815 0.28360748 0.22590469
0.16515696 0.09522014 -0.121784136 -0.15000862 -0.17546801 -0.076526836 -0.15501408 0.09451378
-0.119614735 -0.025112335 -0.056434378 -0.0067575094 -0.16250023 -0.0046862448 0.07856887 0.07134289
0.11792119 0.041525118 -0.1436813 0.0002736384 -0.005286163 -0.09671401 -0.1691239 -0.03759737
0.12222257 0.07538132 0.051717784 0.10625705 0.08173991 0.09694437 0.16890018 -0.08542656
0.17565028 0.12814555 -0.02496355 0.498697 0.15559185 0.10827478 -0.0828881 0.22060187
0.11169443 0.403346 0.14499484 0.2997603 0.23463735 0.22866254 0.31484422 -0.22172546
0.16612205 -0.111987725 0.26684374 0.30542868 0.39221114 0.58178866 0.04236047 0.23796412
0.036960877 -0.11943624 0.23145615 -0.017069526 0.17158717 0.5174564 0.19839285 0.36833593
0.33135235 0.21463874 0.0795312 0.32021472 0.1388495 0.034230657 -0.16227849 0.16180016
0.011012087 0.17560256 0.060026 0.2488707 0.2751264 0.25578052 0.20423055 -0.19187701
-0.08864097 -0.058435068 0.23410913 0.28909972 0.19162491 0.5806024 0.10807744 0.19698308
0.053209446 0.13333043 0.118696325 0.10780088 0.13152114 0.38608742 0.34703425 0.41428196
0.5406645 0.5793986 0.2954714 0.9127583 0.3807878 0.25672564 -0.33215344 0.16245668
0.07723956 0.54310066 0.0583022 0.54879636 0.74242604 0.5683281 0.49717492 -0.23739187
0.16371796 -0.112664044 0.54188985 0.7469791 0.84299034 1.0823705 -0.13687827 0.4572995
-0.03640828 0.1282456 0.13872537 -0.050340112 0.28579795 0.8037923 0.4585195 0.7692532
00000000: 501b 2b3e 7ebd 1ebe 49a5 1f3e d1e1 18be
00000010: 1596 b5bb 554a bebd bcdd 2abd 27ad 8b3b
00000020: 3396 903d b07c e03a 2919 aa3d 464a cb3d
00000030: bfd7 3f3b 3858 2cbe eb62 02be 05a1 e8bc
00000040: 0632 f73d 2b3c 34be 1b63 00be 0a65 d9bd
00000050: 19a3 70bd 9002 89bd 133c 043d 3105 c6bd
00000060: abe8 25be 6bc3 583d 954b 0c3e b44f 34be
00000070: 3fec 0abe 6732 5b3c b719 cdbd 56bc 1dbe
00000080: 940f 043e bd19 8a3d 7173 743e d113 113e
00000090: 2f12 2a3e 3dc8 8e3e 11bd 30be aab0 093e
000000a0: fa4c 1a3e fe94 863d e947 b13d 8d05 c43d
000000b0: 2919 303e 5329 a33e a0bc 473e 4c77 aebe
000000c0: 6648 853d 331b bd3b 7a5a a23e 4e90 9f3e
000000d0: b6fc ca3e 2e09 a43e 56f0 093d b661 063e
000000e0: e45c 31bc 4d8d f8bd 2e06 3e3d 6b3f fdbd
000000f0: c175 9d3e 99d7 053f b786 853e acde 953e
00000100: 2fe1 783e bf59 b23e 3f7e 903d 9cee 8a3e
00000110: 93c9 463e f953 883e a304 37be 91cd 4a3e
00000120: 1ef3 88bd df2f a83d 726f c93c 11b7 fd3d
00000130: 3434 613e b1de b33d ed8f 393e 6b05 86be
00000140: bfcc 103c 1276 11be 5c88 cf3d 2cc6 003f
00000150: 5535 c33e 7f1a b23e 312a c03d af8e 8c3d
00000160: 0d18 783e e7cb 0f3e ed3b 5e3d 1f80 ccbc
00000170: 873e a13e 6cc4 fe3e bee1 863e cc4e 3c3e
00000180: d3e5 af3e 0f14 a23e de00 fc3d 86a8 023f
00000190: 1472 8f3e 2cf1 c93d 4fbb c0be 7fda 113e
000001a0: 3c06 d8bd 7654 a93e e609 153e fc1a 933e
000001b0: 661e cb3d 6931 393c 363a 933d 09b7 37be
000001c0: 6d6b 0b3e 3d85 b1bc e7ef 943e 8b50 ae3e
000001d0: c3d9 a03e f810 113f 1f61 323e f867 5f3e
000001e0: b036 4b3e 41c7 2f3e f42c 223e 8d7c 1f3e
000001f0: 8aa7 1b3e 4950 a53e 0035 913e 8f53 673e
00000200: e81e 293e c702 c33d f669 f9bd dc9b 19be
00000210: e3ad 33be 1aba 9cbd 03bc 1ebe 7190 c13d
00000220: 92f8 f4bd 62b8 cdbc bc27 67bd 196e ddbb
00000230: 7666 26be 128f 99bb b7e8 a03d 391c 923d
00000240: aa80 f13d 3e16 2a3d 3121 13be 2077 8f39
00000250: 8d37 adbb ff11 c6bd d12e 2dbe b3ff 19bd
00000260: d44f fa3d 8661 9a3d 07d6 533d 4c9d d93d
00000270: 4167 a73d c58a c63d 2bf4 2c3e 1ff4 aebd
00000280: abdd 333e 9638 033e 5c80 ccbc 3755 ff3e
00000290: 7853 1f3e 2bbf dd3d 3cc1 a9bd 75e5 613e
000002a0: 0dc0 e43d 5e83 ce3e 8779 143e 2f7a 993e
000002b0: c644 703e 8326 6a3e 4333 a13e 000c 63be
000002c0: e61b 2a3e d259 e5bd be9f 883e 2661 9c3e
000002d0: e6cf c83e 1af0 143f 2c82 2d3d deac 733e
000002e0: 4a64 173d fd9a f4bd d702 6d3e 64d5 8bbc
000002f0: 8cb4 2f3e 0678 043f 7f27 4b3e 8796 bc3e
00000300: 04a7 a93e 42ca 5b3e 41e1 a23d 2ff3 a33e
00000310: 902e 0e3e 7235 0c3d 552c 26be f1ae 253e
00000320: 0a6c 343c 28d1 333e d3dd 753d f6d7 7e3e
00000330: 5edd 8c3e aaf5 823e d021 513e 687b 44be
00000340: 6689 b5bd 9c59 6fbd 4eba 6f3e e104 943e
00000350: 5239 443e 5ca2 143f b457 dd3d efb5 493e
00000360: 26f2 593d c687 083e 0f17 f33d b5c6 dc3d
00000370: 7aad 063e 40ad c53e 79ae b13e c41c d43e
00000380: fd68 0a3f 7753 143f 0748 973e 87aa 693f
00000390: 9ef6 c23e 8b71 833e 0410 aabe 0b5b 263e
000003a0: c62f 9e3d a508 0b3f 4ace 6e3d eb7d 0c3f
000003b0: a20f 3e3f f37d 113f b68d fe3e db16 73be
000003c0: aea5 273e 68bc e6bd 4bb9 0a3f 063a 3f3f
000003d0: 37ce 573f 1e8b 8a3f d129 0cbe 2923 ea3e
000003e0: d920 15bd d152 033e 060e 0e3e 6f31 4ebd
000003f0: 1c54 923e 55c5 4d3f 11c3 ea3e c7ed 443f

dog_avoidance_network.fc2.bias f4 [16]
-0.13348518 0.2314214 0.1997352 0.2425964 -0.10822124 0.16326243 0.22173038 0.20685022
0.04822143 0.26499054 0.15091707 0.17787538 0.08908678 -0.17720754 0.054493614 0.015221077
00000000: 57b0 08be bbf9 6c3e 6287 4c3e 316b 783e
00000010: 19a3 ddbd 442e 273e 4a0d 633e 8bd0 533e
00000020: d683 453d d7ac 873e 018a 1a3e f724 363e
00000030: 2173 b63d e575 35be b234 5f3d d361 793c

dog_avoidance_network.fc3.weight f4 [1, 16]
-0.1641179 0.31702033 0.3895037 0.27937162 0.08243251 0.38560402 0.31106803 0.69815373
-0.15470733 0.40293404 2.9640243 0.28178072 -0.17933755 -0.023887241 -0.24250308 0.5048355
00000000: 860e 28be 7d50 a23e 076d c73e cc09 8f3e
00000010: 60d2 a83d e46d c53e 4f44 9f3e 34ba 323f
00000020: 996b 1ebe 5f4d ce3e 93b2 3d40 9045 903e
00000030: 43a4 37be 2daf c3bc ba52 78be e63c 013f
