RL/V3/V3_demo1/Testing_Suite/model_SC_C10000_R1000_S10.0.pth (torch, 91392 bytes, 11 tensors)

main_network.lstm.weight_ih_l0 f4 [256, 15]
0	0xbdd6e790	-0.10493386
1	0xbd1f4757	-0.038886394
2	0xbdbad81b	-0.0912325
3	0xbd93563e	-0.07194184
4	0xbeed6dcd	-0.46372834
5	0xbe31d827	-0.17367612
6	0xbdf76fe8	-0.12081891
7	0xbf39dcce	-0.72602546
8	0xbe43fd34	-0.19139558
9	0xbe9db15a	-0.3079937
10	0xbeda564e	-0.4264397
11	0xbee05d51	-0.43821195
12	0xbe880317	-0.26564857
13	0xbe9312d8	-0.28725314
14	0xbeace805	-0.33770767
15	0x3e47ec5a	0.19523755
16	0x3c981f14	0.018569507
17	0xbe46aeeb	-0.19402663
18	0x3e835b13	0.25655422
19	0xbe0aa0af	-0.13537858
20	0xbe42cc01	-0.19023134
21	0xbeb70fb1	-0.3575416
22	0x3e695beb	0.2278897
23	0xbe6d5d3d	-0.23180099
24	0x3eb05582	0.34440237
25	0x3d824ff6	0.063629076
26	0xbe246647	-0.1605464
27	0x3dad9913	0.08476462
28	0x3ca1d612	0.019755397
29	0x3c1f66a5	0.009729062
30	0xbe07a9d3	-0.13248377
31	0xbe8f1e21	-0.27952674
32	0xbd94d724	-0.07267597
33	0xbdb00970	-0.0859555
34	0x3dc0c8d1	0.09413303
35	0xbd4fab26	-0.05070033
36	0x3da23eec	0.07922158
37	0xbef998b4	-0.48749316
38	0xbe0cf53f	-0.13765429
39	0xbeb3c4da	-0.35111123
40	0x3d9b07ed	0.07569871
41	0xbd2850c9	-0.041092668
42	0xbdc329ce	-0.09529458
43	0xbe2a139c	-0.16609043
44	0x3c423476	0.011853328
45	0xbd892af6	-0.06697647
46	0xbdc1e80d	-0.09468088
47	0xbdb43345	-0.087988414
48	0x3d9dc6ab	0.077039085
49	0x3e24c90e	0.16092321
50	0xbb5edce1	-0.0034006166
51	0xbe8a2392	-0.26980263
52	0x3f18f19d	0.5974367
53	0xbe052e12	-0.13005856
54	0x3e533721	0.20626499
55	0x3f03fa41	0.5155373
56	0xbde5df68	-0.11224252
57	0xbdbac7fd	-0.09120176
58	0x3db89496	0.090127155
59	0xbe29ea3f	-0.16593264
60	0x3e5e6ba2	0.21720746
61	0xbe8f9596	-0.28043813
62	0xbda1bbf3	-0.078971766
63	0x3ebdc1a6	0.37061805
64	0xbdf68d0d	-0.12038622
65	0xbe093eb2	-0.13402823
66	0xbe4b5264	-0.19855648
67	0x3e96a3f8	0.29421973
68	0xbeb8962d	-0.36052075
69	0xbe249930	-0.16074061
70	0xbef5cceb	-0.48007903
71	0xbe9bc764	-0.3042556
72	0xbf01d8d3	-0.5072147
73	0xbea18169	-0.31544045
74	0x3e8404ee	0.2578501
75	0x3e6a48f9	0.228794
76	0x3c8d907c	0.01728081
77	0xbe1ea8a8	-0.15494025
78	0xbe1b95cf	-0.15193866
79	0xbe2ae08d	-0.16687222
80	0xbe60166f	-0.21883558
81	0xbd591307	-0.05299666
82	0x3e91bd6d	0.28464833
83	0xbe03d151	-0.12872817
84	0x3e5d25de	0.21596476
85	0x3dc021df	0.093814604
86	0xbe7c16b5	-0.24618037
87	0xbe32819f	-0.17432259
88	0xbe431142	-0.19049552
89	0xbd6bf6e8	-0.057608515
90	0xbe07a0d3	-0.13244943
91	0x3dfcd214	0.12344757
92	0xbd5af002	-0.053451546
93	0xbedf2f1a	-0.43590623
94	0xbdffe28e	-0.12494384
95	0xbdbb602e	-0.09149204
96	0xbe941a9d	-0.28926554
97	0xbe151487	-0.14558612
98	0xbe0ecfb0	-0.13946414
99	0xbedf5419	-0.4361885
100	0x3de8cb05	0.11366848
101	0x3e5b7348	0.21430695
102	0xbdcbca67	-0.099507146
103	0xbdae628c	-0.0851489
104	0xbe5bea4a	-0.21476093
105	0xbd8675bb	-0.06565424
106	0xbcd8fe09	-0.02648832
107	0x3e988be6	0.29794234
108	0xbddb409c	-0.10705683
109	0x3e07026f	0.13184522
110	0x39ac2901	0.00032836947
111	0x3d9cd35b	0.076575
112	0x3d8fb965	0.07017783
113	0xbe0e0504	-0.13869101
114	0xbe73fcaa	-0.23826852
115	0x3edf4982	0.4361077
116	0xbf28dcf0	-0.65962124
117	0xbe8803dc	-0.26565444
118	0xbebe6720	-0.37188053
119	0xbd8efcb7	-0.06981795
120	0x3dcd1bec	0.10015091
121	0xbe36c0d7	-0.17847
122	0x3e0bc0f2	0.13647822
123	0x3d9b3b89	0.07579715
124	0x3d3728cb	0.044716638
125	0xbc9507ac	-0.018192135
126	0xbe8e48c4	-0.2778989
127	0x3ea9bfb3	0.33154067
128	0x3b785fe8	0.0037898961
129	0xbdbee359	-0.09320707
130	0xbe1f05a9	-0.15529503
131	0x3ca8144d	0.020517493
132	0x3dd48788	0.10377413
133	0xbd8aee78	-0.067837656
134	0xbb57cfc4	-0.0032930234
135	0xbd0391aa	-0.032121338
136	0x3d2e7367	0.042590525
137	0xbd24a5ad	-0.040197063
138	0xbcbe1d31	-0.023207279
139	0x3de884ef	0.1135348
140	0xbd8fb3e2	-0.07016732
141	0x3de39c7b	0.11113831
142	0x3e01d692	0.12679508
143	0xbdc71524	-0.09720829
144	0x3ddab783	0.10679533
145	0x3e1f035b	0.15528624
146	0xbe063129	-0.1310469
147	0x3d1b78e3	0.037957083
148	0xbd34e3ed	-0.04416268
149	0x3e3c4cb5	0.18388636
150	0x3ebb3447	0.36563322
151	0x3e3f5af3	0.18687038
152	0x3d9fde46	0.07806067
153	0x3e62bf7d	0.2214336
154	0x3e2ab91c	0.16672176
155	0xbe3d7169	-0.18500294
156	0x3e743006	0.23846444
157	0xbdf3a841	-0.11897326
158	0xbdab29c6	-0.08357577
159	0x3bfe7ec3	0.007766576
160	0xbe53547d	-0.20637698
161	0xbe0ce45f	-0.13758992
162	0xbe0a758d	-0.13521405
163	0x3c79a767	0.015237666
164	0x3e064fd5	0.13116391
165	0x3e107eaa	0.14110819
166	0xbe123b74	-0.14280492
167	0xbded0bc9	-0.115745135
168	0x3e5c8757	0.21536003
169	0xbe0fedfe	-0.1405563
170	0xbee4bebc	-0.4467677
171	0x3d8336e7	0.06406956
172	0x3d4efdf9	0.050535176
173	0x3d59efe9	0.05320731
174	0xbede60ea	-0.43433315
175	0xbe938e91	-0.28819707
176	0xbd95a42d	-0.07306705
177	0xbed4b96d	-0.4154772
178	0xbe0a52f7	-0.13508211
179	0xbb8e4c17	-0.0043425667
180	0x3e9741bb	0.29542336
181	0x3d473d32	0.048642345
182	0x3e4d31a4	0.20038468
183	0x3f1c583e	0.61072147
184	0xbe682b12	-0.2267268
185	0xbeaac14f	-0.33350608
186	0x3e93ca7a	0.28865415
187	0x3f42a61e	0.76034725
188	0xbd5252e8	-0.051348597
189	0xbe3b4a62	-0.18290094
190	0xbea31bc0	-0.3185711
191	0x3de3cc84	0.11122993
192	0x3e169fd2	0.14709404
193	0x3e083b37	0.13303839
194	0x3bcc1d05	0.0062290453
195	0x3e84ee80	0.2596321
196	0xbe0c4d60	-0.13701391
197	0xbe49b2ce	-0.19697115
198	0xbf15c519	-0.5850387
199	0xbe688156	-0.22705588
200	0x3e3ba4eb	0.1832463
201	0xbe993fc7	-0.2993147
202	0xbdbf86d2	-0.09351887
203	0x3ebdff40	0.37108803
204	0xbe7248df	-0.2366061
205	0xbd5f7e68	-0.05456391
206	0x3cd19027	0.025581433
207	0x3f3eaf41	0.74486166
208	0x3ead67b2	0.33868176
209	0xbe5035dc	-0.20333046
210	0xbe32e445	-0.1746989
211	0xbd48d1fb	-0.049028378
212	0xbe3e2c0a	-0.18571487
213	0x3ebb6d1a	0.36606675
214	0xbdc2b4de	-0.09507154
215	0xbe9a20bc	-0.301031
216	0xbd83793e	-0.064196095
217	0xbdf0c963	-0.117571615
218	0xbd1b4ac7	-0.03791311
219	0x3e11b416	0.14228854
220	0xbd5aaad7	-0.05338558
221	0xbebbb979	-0.36664942
222	0x3cfbe7d6	0.030750196
223	0xbce49a09	-0.027905481
224	0xbcc0e899	-0.023548411
225	0xbe48480d	-0.19558735
226	0x3ce8d676	0.028422575
227	0x3e9f5347	0.31118223
228	0x3e754300	0.2395134
229	0x3e721586	0.23641023
230	0xbcb224ab	-0.021746
231	0x3ecbf3db	0.39834484
232	0x3e8ae48e	0.27127498
233	0xbe3275b2	-0.1742771
234	0xbd55168d	-0.05202346
235	0xbed84d7c	-0.42246616
236	0xbbbaa354	-0.0056957398
237	0xbe6d2a3d	-0.23160644
238	0x3e8cfeda	0.27538186
239	0x3e02b7d7	0.12765442
240	0xbd3e93ce	-0.046527676
241	0xbe6020ad	-0.21887465
242	0xbe15616d	-0.14587946
243	0x3e8033c4	0.25039494
244	0xbf265280	-0.64969635
245	0xbd93fcbb	-0.07225939
246	0xbf0f0154	-0.558614
247	0x3f189131	0.59596545
248	0xbdccff23	-0.10009601
249	0x3f0a54de	0.5403575
250	0xbe1342cf	-0.14380954
251	0xbe164faa	-0.14678827
252	0x3ee38f9d	0.44445506
253	0xbdfd5492	-0.12369646
254	0xbd956d41	-0.07296229
255	0xbe299cea	-0.16563764

main_network.lstm.weight_hh_l0 f4 [256, 64]
0	0x3ea91d58	0.330302
1	0xbddb8918	-0.10719508
2	0xbe2fc055	-0.17163213
3	0x3d2b8307	0.041873004
4	0x3eb5c22b	0.354997
5	0xbf0ba499	-0.5454803
6	0xbed83ad2	-0.42232376
7	0xbe865090	-0.2623334
8	0xbe523cb4	-0.20530969
9	0xbd9d6a91	-0.076863416
10	0x3e223f05	0.15844353
11	0xbcbc8151	-0.023010882
12	0x3d201153	0.03907902
13	0x3f0c9076	0.5490793
14	0xbe1e802b	-0.1547858
15	0xbe1b881a	-0.15188637
16	0x3de4943f	0.11161088
17	0xbf3c67b6	-0.7359575
18	0x3e0bc5b6	0.1364964
19	0xbedac82c	-0.42730844
20	0xbec89f7d	-0.3918418
21	0x3e63d89a	0.22250596
22	0x3ed49378	0.4151876
23	0xbe2e5acb	-0.17026822
24	0xbde73f8e	-0.11291419
25	0x3eb00871	0.3438144
26	0xbe9de1bd	-0.30836287
27	0x3f1ce021	0.61279494
28	0x3d96c614	0.07361999
29	0xbd80efc9	-0.062957354
30	0x3c1394f6	0.009007683
31	0xbdbcb56f	-0.09214293
32	0x3d9cb351	0.076513894
33	0x3d797de6	0.06091108
34	0xbedbb5e7	-0.42912218
35	0x3e31ae43	0.17351632
36	0x3ea27ed0	0.31737375
37	0x3e90dc4d	0.28293076
38	0xbcaffdef	-0.02148339
39	0xbe65e1c6	-0.22449407
40	0xbea543d3	-0.32278308
41	0xbee6cf41	-0.45079997
42	0xbe9ebc93	-0.31003246
43	0x3ea7cb36	0.32772225
44	0x3f3224b2	0.6958724
45	0xbe445060	-0.19171286
46	0x3f15806e	0.58399093
47	0x3e34e588	0.17665684
48	0xbe1e78e0	-0.15475798
49	0x3daad466	0.08341293
50	0x3d845c40	0.06462908
51	0xbee64cfd	-0.44980612
52	0x3eb6048a	0.35550338
53	0xbf033442	-0.51251614
54	0xbeefef80	-0.46862411
55	0x3d776cc1	0.06040645
56	0x3eae12cc	0.33998716
57	0x3e79fea5	0.24413545
58	0xbf082fb7	-0.5319781
59	0xbea01a29	-0.3126996
60	0xbeade266	-0.3396179
61	0xbc5319f2	-0.012884604
62	0xbf32f0b8	-0.6989856
63	0xbf19a721	-0.60020643
64	0x3dcfe566	0.10151176
65	0x3d4f363f	0.050588842
66	0xbd16941a	-0.036762334
67	0xbed3a386	-0.41335696
68	0x3e9a2713	0.30107936
69	0xbe2f2a74	-0.17106038
70	0x3e4faa41	0.2027979
71	0xbdd9008e	-0.10595809
72	0x3d966911	0.073442586
73	0x3e5b2531	0.21400906
74	0x3eaa7006	0.33288592
75	0xbe34fc44	-0.17674357
76	0xbcb34090	-0.021881372
77	0x3e0a4b9e	0.13505408
78	0x3e486d40	0.19572926
79	0x3e967ce0	0.29392147
80	0xbdeddb86	-0.116141364
81	0x3d09110f	0.033463534
82	0xbd19b9fb	-0.03753088
83	0x3c9eb61a	0.019373942
84	0xbe1e8840	-0.15481663
85	0xbe81145d	-0.25210848
86	0xbdae46d9	-0.08509607
87	0xbe8f2114	-0.27954924
88	0xbd638e15	-0.05555542
89	0xbe2a469a	-0.16628495
90	0xbd846f2f	-0.06466519
91	0xbcfadee5	-0.030623863
92	0x3e87e3a6	0.2654087
93	0x3e527d2f	0.20555566
94	0x3c04aec2	0.008098306
95	0x3cd3453a	0.025789846
96	0x3a8ecd8e	0.0010895
97	0x3e862025	0.261964
98	0x3d3ac505	0.04559805
99	0xbd49f4df	-0.049305793
100	0xbe15d8eb	-0.14633529
101	0xbd2883d0	-0.04114133
102	0xbd693634	-0.056936458
103	0x3d056ef1	0.032576505
104	0x3d5087c2	0.05091072
105	0xbd04c849	-0.03241757
106	0xbd8a5c63	-0.067559026
107	0x3e7be930	0.24600673
108	0xbe83fc38	-0.25778365
109	0xbdbb5d20	-0.091486216
110	0xbe0c7af6	-0.13718781
111	0xbd16cdc0	-0.036817312
112	0x3de28fee	0.11062609
113	0xbead2083	-0.33813867
114	0xbde05973	-0.10954561
115	0x3d6e5185	0.05818321
116	0x3d5c98f4	0.053856805
117	0xbe0c5331	-0.1370361
118	0x3c84d60f	0.016215352
119	0x3c588643	0.013215604
120	0x3d5f7372	0.054553457
121	0x3c2e3869	0.010633566
122	0xbdca259b	-0.09870454
123	0x3d75ba3f	0.05999207
124	0x3de10917	0.10988062
125	0xbc9566fc	-0.018237583
126	0x3d1eb1f9	0.038743947
127	0xbdb849ce	-0.08998452
128	0x3d45869d	0.04822408
129	0xbdbf6ab6	-0.09346525
130	0xbd1e3c1f	-0.038631555
131	0x3c563fbc	0.013076719
132	0x3d515f38	0.0511162
133	0xbc9b79b5	-0.018978933
134	0xbea15e8d	-0.3151745
135	0x3c0b151f	0.008488922
136	0xbda8f1a0	-0.08249211
137	0xbe1eea7c	-0.15519136
138	0x3e145b62	0.14487985
139	0x3d13d0b4	0.036087707
140	0x3d80a60b	0.0628167
141	0xbd941012	-0.07229628
142	0xbda26303	-0.07929041
143	0xbcbbc722	-0.022922102
144	0x3c6821c4	0.014168207
145	0x3d1ff702	0.039053924
146	0x3cc00770	0.023441046
147	0x3d06ff37	0.032958236
148	0xbd3209c8	-0.04346636
149	0x3dd832fe	0.10556601
150	0x3cb907a5	0.022586653
151	0x3b401c94	0.002931391
152	0xbdad7fbc	-0.08471629
153	0x3e1410b2	0.14459494
154	0xbdadaeab	-0.08480581
155	0x3dc4e90f	0.09614765
156	0x3dd10f6d	0.1020802
157	0xbcd3ffe9	-0.025878863
158	0xbd6d99fa	-0.05800817
159	0x3ce5dd56	0.028059643
160	0x3dc17889	0.094468184
161	0x3c0d0e8c	0.008609425
162	0xbe7888c5	-0.24270923
163	0xbe391960	-0.18076086
164	0x3e0a9139	0.1353196
165	0xbd9fb1cd	-0.07797585
166	0x3dc96ca9	0.098351784
167	0xbe78fd5d	-0.243154
168	0xbe2dd813	-0.16976957
169	0xbe201498	-0.15632856
170	0xbd8c897b	-0.0686216
171	0x3dde8bab	0.10866483
172	0x3da60899	0.081071086
173	0xbdf30e26	-0.11867933
174	0x3e1dd3ca	0.15412822
175	0x3ac40e58	0.0014957888
176	0xbd35aab4	-0.04435225
177	0xbd0387ac	-0.03211181
178	0xbce6d890	-0.028179437
179	0x3d5995b3	0.05312128
180	0x3db53ebc	0.08849856
181	0xbe9406f3	-0.28911552
182	0x3c4b7c06	0.012419706
183	0xbcb0d193	-0.021584308
184	0x3e19fb10	0.15037179
185	0x3dd50956	0.10402171
186	0xbd07d4c1	-0.033161882
187	0xbc38d9db	-0.01128241
188	0xbdfe11a5	-0.12405709
189	0xbe21f966	-0.15817794
190	0xbe69134f	-0.22761272
191	0x3cf323b3	0.029680109
192	0x3e3ea149	0.18616213
193	0x3e1f6a82	0.15567973
194	0xbc3a555c	-0.01137289
195	0xbda53aa5	-0.08067826
196	0x3e3d2c6f	0.18473981
197	0xbe102079	-0.14074887
198	0xbd297182	-0.041368015
199	0xbd9ff0d3	-0.078096054
200	0xbe376863	-0.17910914
201	0x3d56fa8d	0.052485038
202	0x3e56cd9f	0.20976876
203	0x3e35bdb6	0.1774815
204	0x3ebfbdcb	0.37449488
205	0x3ca5ef41	0.020255687
206	0x3e7969d9	0.24356784
207	0x3cb1595e	0.021649059
208	0x3d2d4d84	0.042310253
209	0x3c352a54	0.011057455
210	0xbc403993	-0.011732477
211	0x39a6e334	0.00031831267
212	0xbe433b9e	-0.19065711
213	0xbe06efdf	-0.13177441
214	0xbd93e10a	-0.07220657
215	0xbe080a47	-0.1328517
216	0xbd0f251b	-0.034947496
217	0xbdacde5d	-0.0844085
218	0xbddf4be6	-0.10903148
219	0x3de962cd	0.11395798
220	0x3e28c941	0.16483022
221	0x39b0b0ca	0.00033701054
222	0xbe0b12b8	-0.1358136
223	0x3d89d236	0.06729548
224	0x3cc2502f	0.023719875
225	0xbdc6e918	-0.09712428
226	0xbe405176	-0.18781075
227	0x3d7cc00d	0.06170659
228	0x3e0fb182	0.14032558
229	0xbdd96f5a	-0.10616942
230	0x3d232855	0.039833385
231	0x3dbeb9be	0.09312771
232	0xbe94dc57	-0.29074356
233	0x3de909b0	0.11378801
234	0xbde37664	-0.111065656
235	0xbdd509d4	-0.10402265
236	0x3d6a7044	0.05723597
237	0x3ca1bc21	0.019743027
238	0xbd1dd02b	-0.038528603
239	0xba759eb4	-0.0009369657
240	0xbd4b5f16	-0.049651228
241	0x3dd5ac4f	0.10433256
242	0xbc8bec9d	-0.0170806
243	0xbda8baea	-0.08238776
244	0xbddea524	-0.10871342
245	0x3d2b36d0	0.04180032
246	0xbd901778	-0.07035726
247	0xbd70140b	-0.058612864
248	0xbd7fc2f2	-0.062441774
249	0xbe3c2dff	-0.18376921
250	0xbe14eeac	-0.14544171
251	0xbdfe85fc	-0.12427899
252	0x3e4d2dc3	0.20036988
253	0x3e16e177	0.14734446
254	0xbbf17259	-0.0073683676
255	0xbbbbe93d	-0.0057345913

main_network.lstm.bias_ih_l0 f4 [256]
0	0x3d999183	0.07498457
1	0xbdc58b50	-0.096457124
2	0xbd54904c	-0.051895425
3	0x3da58909	0.08082778
4	0x3cc3d5ba	0.023905624
5	0x3e09fb4e	0.13474771
6	0x3d81aaa7	0.063313775
7	0xbd9c2767	-0.07624703
8	0x3e02308d	0.12713833
9	0xbccde5b7	-0.02513395
10	0x3d13f0ae	0.036118202
11	0xbe29e359	-0.16590632
12	0xbb080daa	-0.0020760098
13	0x3ddb803a	0.10717817
14	0xbc836461	-0.016039075
15	0x3e49f75c	0.19723266
16	0xbe403df8	-0.18773639
17	0x3e2b2fa5	0.16717394
18	0x3e328bb7	0.1743611
19	0x3e23f8cb	0.16012876
20	0xbc97851d	-0.01849609
21	0x3bf68953	0.0075236945
22	0x3e5046d0	0.20339513
23	0x3c4ba867	0.012430287
24	0xbe271b09	-0.16318907
25	0x3d978a25	0.07399396
26	0x3d51b460	0.05119741
27	0x3cdffabf	0.027341245
28	0x39b5db39	0.00034686344
29	0x3db1bc06	0.08678441
30	0xbe1b7379	-0.15180768
31	0xbe5fa26e	-0.21839306
32	0xbd0f1054	-0.03492768
33	0x3d4648a7	0.04840913
34	0x3da7114a	0.081575945
35	0x3ddcef9c	0.10787889
36	0xbd64fca1	-0.05590499
37	0x3e09f7eb	0.1347348
38	0xbd1148dc	-0.035469875
39	0x3cd5f0e5	0.026115844
40	0x3c953d20	0.018217623
41	0xbde2b315	-0.110693134
42	0xbe1cd759	-0.15316524
43	0xbdb21722	-0.086958185
44	0x3d0e5363	0.034747493
45	0x3d7e8b6c	0.06214468
46	0xbe201005	-0.15631111
47	0xbe3e18f1	-0.18564202
48	0x3e35331a	0.17695275
49	0x3d5009de	0.05079066
50	0x3dcb1da3	0.09917762
51	0x3b388eb9	0.0028161241
52	0xbe202dd9	-0.1564249
53	0x3db9de21	0.09075571
54	0x3e308388	0.17237675
55	0x3ea0feac	0.314443
56	0xbd0b0ba0	-0.033946633
57	0x3e1c22c8	0.15247643
58	0x3e38ea64	0.18058163
59	0xbe50781e	-0.20358321
60	0x3d3178d9	0.04332814
61	0x3e230ef6	0.15923676
62	0x3e8d0b9b	0.27547917
63	0x3d8b4f55	0.06802241
64	0xbc54bc62	-0.012984367
65	0x3db8f900	0.09031868
66	0xbd8ad089	-0.06778056
67	0x3db1dc97	0.08684652
68	0xbea7794c	-0.3270973
69	0xbdc88c3a	-0.09792371
70	0xbce23da0	-0.027617276
71	0xbd245174	-0.040116742
72	0xbe01a575	-0.12660773
73	0x3cb7d41d	0.02244001
74	0x3d7aa9d1	0.061197106
75	0x3dc6d174	0.09707919
76	0xbe0aaa27	-0.1354147
77	0x3df02f62	0.117277876
78	0x3e05aead	0.13054915
79	0x3e200161	0.15625526
80	0xbca2268c	-0.019793771
81	0xbe01595b	-0.12631743
82	0x3e170c73	0.14750843
83	0xbdd8b10a	-0.105806425
84	0x3d9c4730	0.076307654
85	0xbda3c60b	-0.07996758
86	0xbc3f93e8	-0.011692978
87	0x3df28d44	0.118433505
88	0x3b98214c	0.004642641
89	0xbd731b11	-0.059351984
90	0xbe1a2e63	-0.15056758
91	0xbe2c0ffd	-0.16802974
92	0xbdca4656	-0.09876697
93	0x3e57d18f	0.21076034
94	0x3df9ff93	0.1220695
95	0xbd84c920	-0.06483674
96	0xbd8d0d43	-0.06887295
97	0xbdb302b6	-0.087407514
98	0xbde61ec1	-0.112363346
99	0x3c83eda4	0.016104527
100	0x3e7173d2	0.23579338
101	0x3cad0266	0.021119308
102	0xbd56244c	-0.05228071
103	0xbc4ed3f5	-0.012623777
104	0x3e2da230	0.16956401
105	0xbe21ef7e	-0.15814015
106	0xbdc87b65	-0.09789161
107	0x3e0a1670	0.13485122
108	0x3e0577ea	0.13034025
109	0xbe2ac7e1	-0.1667781
110	0xbdd79cf6	-0.10527985
111	0x3d66d722	0.05635751
112	0x3e253bf2	0.16136149
113	0x3d4ff96e	0.050774984
114	0x3c779169	0.015110352
115	0xbc9bad73	-0.019003605
116	0xbe32ea31	-0.1747215
117	0x3e5489fe	0.20755765
118	0xbd88e66f	-0.06684577
119	0x3e5aee20	0.213799
120	0x3cd3c66c	0.02585145
121	0xbe3408bc	-0.17581457
122	0xbc98c03e	-0.018646356
123	0xbe294615	-0.1653064
124	0x3d37b90c	0.04485421
125	0x3ac58fd2	0.0015072769
126	0x3b8c2b74	0.004277641
127	0x3b1889c5	0.0023275476
128	0xbdeb1136	-0.11477892
129	0x3d452a0c	0.048135802
130	0x3d2e41b8	0.042543143
131	0xbd2b3849	-0.041801725
132	0x3e162ce7	0.14665566
133	0xbe2bad8f	-0.16765426
134	0x3cde3e21	0.027129235
135	0x3e1b1af1	0.15146996
136	0xbc18ea8b	-0.009333263
137	0xbe0e055f	-0.13869236
138	0x3e23bc76	0.15989861
139	0xbe1932c8	-0.14960778
140	0x3a277079	0.0006387304
141	0x3b50efe4	0.0031881267
142	0x3e00acdc	0.1256594
143	0x3e061294	0.13093024
144	0x3d68cb64	0.056834593
145	0xbe7718c8	-0.24130547
146	0xbe3018d5	-0.17196973
147	0x3cd0c653	0.025485193
148	0xbe123382	-0.14277461
149	0xbe3a026c	-0.18164986
150	0x3e4109e8	0.18851435
151	0xbd58c90e	-0.052926116
152	0xbd156b40	-0.036479235
153	0x3e069877	0.13144098
154	0xbe4d2f86	-0.2003766
155	0x3e0da278	0.13831508
156	0x3e3a08e0	0.18167448
157	0x3d9a081f	0.0752108
158	0x3d475e2d	0.048673797
159	0x3e026356	0.12733206
160	0x3da21df6	0.07915871
161	0xbc456ada	-0.012049401
162	0xbd92556d	-0.071452
163	0x3d94e557	0.072703056
164	0xbd731580	-0.059346676
165	0x3821575f	3.8466762e-05
166	0xbd1b8601	-0.037969593
167	0x3dcbe680	0.09956074
168	0xbc25610d	-0.0100939395
169	0x3dcf411d	0.10119841
170	0xbd1015ca	-0.03517703
171	0x3e0fa030	0.1402595
172	0x3d17a341	0.037020925
173	0xbd3d7089	-0.0462499
174	0x3db2a9f8	0.08723825
175	0x3d578f20	0.05262673
176	0x3daa6380	0.08319759
177	0xbdabead9	-0.08394403
178	0xbe7268f3	-0.23672847
179	0xbe2a4b89	-0.16630377
180	0xbcb9e3b2	-0.022691581
181	0xbc89b466	-0.016809653
182	0x3d58a641	0.052892927
183	0x3e1b334d	0.15156288
184	0x3c29d872	0.010366546
185	0x3de0c3ef	0.10974871
186	0x3b791310	0.0038005747
187	0x3e02f3a7	0.12788258
188	0xbd5eacae	-0.0543639
189	0x3d928db0	0.07155931
190	0xbe15e06d	-0.14636393
191	0xbe19ded0	-0.15026402
192	0x3d634806	0.05548861
193	0x3d05598e	0.03255611
194	0xbdb1818d	-0.08667288
195	0xbd216262	-0.039400466
196	0xba32747f	-0.00068075204
197	0x3e1cc9f6	0.15311417
198	0xbd1d76b2	-0.038443275
199	0xbd1efb0a	-0.03881363
200	0xbda98672	-0.082775965
201	0x3d8ba525	0.06818608
202	0x3ca97673	0.020686364
203	0xbd3b4dde	-0.045728557
204	0x3c91090c	0.01770451
205	0x3e9d9844	0.30780232
206	0xbc19edab	-0.009395043
207	0xbae6f7a6	-0.0017621412
208	0x3dd90126	0.10595922
209	0x3e720872	0.23636034
210	0x3dcd2b43	0.10018017
211	0x3e3df49e	0.18550345
212	0x3e7a33a8	0.24433768
213	0x3db6d5d9	0.08927507
214	0x3d3c103a	0.045913912
215	0xbbe175c3	-0.0068804934
216	0xbe36283f	-0.1778879
217	0xbd249fb6	-0.040191375
218	0x3e2c33a5	0.16816576
219	0xbdc96be1	-0.098350294
220	0x3e0c2b84	0.13688475
221	0x3cb84a08	0.022496238
222	0xbdea75ff	-0.11448287
223	0xbd8ef3f5	-0.06980125
224	0x3c7658bf	0.015035807
225	0xbd1bf410	-0.038074553
226	0x3dbd7e29	0.09252579
227	0x3dc105cb	0.09424933
228	0x3dd9f90c	0.10643205
229	0x3d815822	0.06315638
230	0x3ea07da3	0.31345853
231	0x3ca83f2e	0.020537939
232	0x3da32f49	0.07968003
233	0xbe3cb528	-0.1842848
234	0x3d523b22	0.051325925
235	0x3d906f12	0.07052435
236	0x3e3ac47a	0.18239012
237	0x3dae8762	0.08521916
238	0xbe0de139	-0.13855447
239	0xbe05917c	-0.13043779
240	0x3e26e4e5	0.16298254
241	0x3c5695db	0.013097252
242	0x3e4c6edc	0.19964164
243	0xbda934ef	-0.082620494
244	0x3db2891f	0.0871756
245	0x3e14cefa	0.1453208
246	0x3d67e51e	0.056614988
247	0x3e632b2a	0.22184435
248	0xbe40dd3d	-0.18834396
249	0x3eb77f33	0.35839233
250	0x3e6d2943	0.23160271
251	0xbe602e2c	-0.21892613
252	0xbd01fe3f	-0.03173661
253	0x3ba92c2f	0.005162738
254	0x3ea9aff0	0.33142042
255	0xbe333d34	-0.17503816

main_network.lstm.bias_hh_l0 f4 [256]
0	0x3d824b74	0.06362048
1	0x3c96813c	0.01837217
2	0xbe89e0f8	-0.2692945
3	0xbc91bcfa	-0.017790306
4	0xbc6bba7e	-0.014387725
5	0xbcb5541d	-0.022134835
6	0xbd902068	-0.07037431
7	0xbe28a89d	-0.16470571
8	0xbd4224f4	-0.047398522
9	0x3d9ec01f	0.07751488
10	0x3e4f96f5	0.2027243
11	0xbdb83d21	-0.089960344
12	0xbd2a5724	-0.04158701
13	0x3cf989ff	0.03046131
14	0x3d9c21c8	0.07623631
15	0x3de45e5f	0.11150812
16	0xbdc2945d	-0.09500954
17	0x3c436019	0.011924767
18	0x3e526f9c	0.20550388
19	0x3ea42359	0.32058218
20	0x3da79db5	0.08184377
21	0xbd950056	-0.07275455
22	0x3e8f7fd5	0.28027216
23	0xbd98c3e1	-0.07459236
24	0xbd006c62	-0.031353362
25	0x3d9f3265	0.07773284
26	0x3e303ec6	0.17211446
27	0xbd148913	-0.036263537
28	0x3df5a38c	0.11994085
29	0xbd66ad68	-0.056317717
30	0xbe4feb73	-0.2030466
31	0xbd8209d3	-0.0634953
32	0xbcc474fc	-0.023981564
33	0xbda8891c	-0.082292765
34	0x3e5621cd	0.20911331
35	0x3c07d4fa	0.008290524
36	0x3dccb027	0.09994536
37	0x3dac07ad	0.083999015
38	0xbd87aeaf	-0.06625115
39	0xbd52ba0f	-0.05144697
40	0xbde2caf3	-0.11073866
41	0xbcfecf69	-0.03110476
42	0xbe184590	-0.14870286
43	0x3d9660f5	0.07342712
44	0x3d2571bd	0.040391672
45	0xbd929fb6	-0.07159369
46	0xbdf5c1bd	-0.11999843
47	0xbb086f46	-0.0020818277
48	0x3e4e9e7a	0.20177642
49	0x3d872286	0.06598382
50	0xbca8b349	-0.020593302
51	0xbd5845f5	-0.05280109
52	0xbdb709f8	-0.08937448
53	0x3df4bff7	0.11950677
54	0x3d9c9aa3	0.07646682
55	0x3e91a183	0.28443536
56	0x3c49afed	0.01231001
57	0x3dfb2c6a	0.12264331
58	0x3cd44af9	0.025914656
59	0x3c25210c	0.01007868
60	0x3db69fd7	0.08917206
61	0xbcb357cc	-0.02189245
62	0x3e722695	0.2364753
63	0x3d8d2caf	0.06893288
64	0x3dfeead6	0.12447135
65	0x3c86f112	0.016472373
66	0xbdf5ffca	-0.120116785
67	0x3d30d3ce	0.043170743
68	0xbe946299	-0.28981474
69	0x3ce10fd5	0.02747337
70	0xbcd647d6	-0.0261573
71	0x3d0dc618	0.034612745
72	0x3d07f641	0.03319383
73	0xbd5aa186	-0.053376697
74	0x3e4f75af	0.20259736
75	0x3d70b9a2	0.058770783
76	0x3cc04d4f	0.023474364
77	0x3debf95c	0.11522171
78	0xbd3edb12	-0.04659564
79	0xbd7468ab	-0.05967013
80	0x3ddf1416	0.10892503
81	0xbe43f651	-0.19136931
82	0x3d9d0bed	0.0766829
83	0x3d097cb4	0.03356619
84	0xbcd1da50	-0.025616795
85	0x3bfd4d55	0.007730166
86	0xbe005468	-0.12532198
87	0xbd02bdb5	-0.0319192
88	0x3da9195f	0.08256792
89	0x3bfd5581	0.00773114
90	0xbdb002a8	-0.08594257
91	0xbd389f41	-0.04507375
92	0xbd8a9cd6	-0.06768195
93	0x3e8e3c69	0.27780464
94	0x3b76defb	0.0037669528
95	0xbdb19786	-0.08671479
96	0xbe0056ad	-0.12533064
97	0x3d48a3a5	0.04898419
98	0xbe6ce561	-0.23134376
99	0x3e0be336	0.13660893
100	0x3e5879e1	0.21140243
101	0xbd0b591f	-0.03402054
102	0x3e1513bb	0.14558308
103	0xbd5fb28c	-0.054613635
104	0x3ce5db92	0.0280588
105	0xbcbb65bb	-0.022875657
106	0x3d241af3	0.040064763
107	0xbd8c8140	-0.0686059
108	0x3e704255	0.23462804
109	0x3d3c510d	0.045975734
110	0xbd8cead2	-0.06880726
111	0xbc7011d0	-0.014652684
112	0x3bc3f93f	0.00598064
113	0xbcbef68d	-0.023310924
114	0xbd1c3d00	-0.03814411
115	0x3e24f6a3	0.1610971
116	0xbda8dbf0	-0.08245075
117	0x3e2ed206	0.17072305
118	0x3d9789fe	0.07399367
119	0x3e24b161	0.1608329
120	0x3d32377b	0.04350994
121	0xbd9d5487	-0.07682138
122	0x3ba90767	0.005158353
123	0xbe2fd0e8	-0.17169535
124	0xbca9d030	-0.020729154
125	0xbe0b8099	-0.13623275
126	0xbdb54f09	-0.088529654
127	0xbc3e9394	-0.011631865
128	0xbe5460b9	-0.20740022
129	0xbc418ac3	-0.0118128685
130	0x3d8fc97f	0.07020854
131	0x3d1abfc5	0.037780542
132	0xbccbf4fe	-0.024897095
133	0xbe674192	-0.22583607
134	0xbcdebca3	-0.027189558
135	0x3e01035c	0.12598938
136	0x3b9a34b1	0.0047059883
137	0x3d48819a	0.048951723
138	0x3e85cbce	0.26132053
139	0xbcdc2a52	-0.026875649
140	0xbd46b69f	-0.048514005
141	0x3d78cc31	0.060741607
142	0xbd2f97f1	-0.042869512
143	0x3e2ab9bc	0.16672415
144	0x3ddd8850	0.10817015
145	0xbe458fae	-0.1929309
146	0xbdff3222	-0.12460734
147	0xbdb8fc49	-0.090324946
148	0xbe1e7ae7	-0.15476571
149	0xbcd3a43e	-0.025835153
150	0x3dc7b358	0.09751004
151	0xbe227708	-0.1586572
152	0x3dc9ba58	0.098499954
153	0xbd18a36f	-0.037265237
154	0xbe1f7cdf	-0.15574978
155	0x3df052ff	0.1173458
156	0x3e5cb473	0.21553211
157	0x3c57eac4	0.013178531
158	0x3d92236a	0.07135661
159	0x3da4731a	0.080297664
160	0x3e148cee	0.14506885
161	0xbc42db7a	-0.011893148
162	0xbe65c1ce	-0.22437212
163	0x3e142dab	0.14470546
164	0xbe35fbcf	-0.17771839
165	0x3d2bc997	0.041940298
166	0xbdc48378	-0.09595388
167	0x3a821f61	0.0009927565
168	0x3de331b3	0.11093464
169	0xbd98153f	-0.07425927
170	0x3b716735	0.0036835198
171	0x3e0d4e78	0.13799465
172	0xbe176c80	-0.14787483
173	0x3c255be8	0.010092713
174	0x3e0e0031	0.1386726
175	0x3d9411ca	0.072299555
176	0x3d8dceef	0.06924235
177	0x3caca5c5	0.021075139
178	0xbe030888	-0.12796223
179	0xbe861046	-0.2618429
180	0x3d869d59	0.065729804
181	0x3e4a2039	0.19738854
182	0xbdc0f3d8	-0.094215095
183	0x3e4e36d5	0.20138104
184	0x3e1634a2	0.14668515
185	0x3d681a88	0.056665927
186	0xbdf9d615	-0.12199036
187	0x3dc306ba	0.09522767
188	0xbd3ec5f9	-0.04657552
189	0x3b48b161	0.0030623304
190	0xbbd5a1e5	-0.0065195435
191	0xbe29a7e3	-0.1656795
192	0xbaf7e663	-0.0018913265
193	0x3d7362c7	0.059420373
194	0xbe768f74	-0.2407816
195	0x3c9220be	0.017837878
196	0x3d94095e	0.07228349
197	0x3dc7c382	0.09754087
198	0x3d91e278	0.071232736
199	0xbd2a71e7	-0.041612532
200	0xbd614611	-0.05499846
201	0xbd05ff56	-0.03271421
202	0x3c2651c8	0.010151334
203	0xbe086f3e	-0.13323686
204	0x3e60fe87	0.21972094
205	0x3e8d574e	0.2760567
206	0xbdc6b6e8	-0.09702855
207	0xbdad377e	-0.0845785
208	0x3de7e5ab	0.113231026
209	0x3e0ca697	0.13735424
210	0x3e60c5b9	0.21950425
211	0x3ea0e4dd	0.3142461
212	0x3c0e65da	0.0086912755
213	0xbdf31268	-0.11868745
214	0x3d1f85f8	0.038946122
215	0xbd5698ef	-0.052391943
216	0xbe32ad04	-0.17448813
217	0x3be2b073	0.006918007
218	0x3e42a48d	0.19008084
219	0xbd348546	-0.044072412
220	0x3e53cd9c	0.20683903
221	0x3d74e5ba	0.059789397
222	0x3c93b42a	0.018030245
223	0xbe086335	-0.13319094
224	0xbe058918	-0.13040578
225	0x3d4bde7a	0.049772717
226	0x3da8f563	0.08249929
227	0x3ddf049f	0.10889553
228	0xbd10da16	-0.035364233
229	0x3d9a943f	0.07547807
230	0x3ece3863	0.40277395
231	0xbd917a90	-0.07103455
232	0x3e654c39	0.22392358
233	0xbdb803b7	-0.089850836
234	0x3d84ed1d	0.06490538
235	0x3e00c4e9	0.12575115
236	0x3e12e8db	0.1434664
237	0x3d09659c	0.033544168
238	0xbcf76b52	-0.030202542
239	0xbda9c1eb	-0.0828894
240	0x3cf128b0	0.029438347
241	0x3c9f4eaf	0.019446699
242	0x3dbb9682	0.091595665
243	0x3dfece19	0.12441654
244	0xbcdbcb67	-0.026830388
245	0x3d22d8b4	0.039757445
246	0x3d220afc	0.039561257
247	0x3e98b642	0.29826552
248	0xbcaf6791	-0.021411689
249	0x3e76999d	0.24082036
250	0x3d334505	0.043766994
251	0xbde8db75	-0.11369983
252	0x3d7b7099	0.06138668
253	0x3da2f958	0.07957715
254	0x3dd567e9	0.1042021
255	0xbdcf6397	-0.10126417

main_network.fc.weight f4 [3, 64]
0	0x3d067caa	0.032833733
1	0xbdb0b5e9	-0.086284466
2	0xbe70c57f	-0.23512839
3	0x3d5834ec	0.052784845
4	0x3d550b69	0.052012835
5	0xbcb85ea1	-0.02250606
6	0x3a4913d4	0.0007670496
7	0x3d974598	0.07386321
8	0x3d1d2b39	0.0383713
9	0x3d3f7bba	0.046748854
10	0x3c513fbb	0.012771542
11	0x3ba85d9b	0.0051381118
12	0xbbca149c	-0.0061670076
13	0x3cab9c99	0.020948695
14	0x3d3f2fbe	0.04667639
15	0x3c7a6bcd	0.015284491
16	0xbde76503	-0.11298563
17	0x3af864b8	0.0018950915
18	0xbd5c37a8	-0.053764015
19	0xbc225300	-0.009907484
20	0xbd722b1f	-0.059123155
21	0xbdeacbd8	-0.11464661
22	0x3c96fda0	0.018431485
23	0xbb9eea25	-0.0048496895
24	0x3d76c987	0.060250785
25	0xbc67d94e	-0.014150931
26	0xbbe2d331	-0.0069221486
27	0x3ce2a550	0.027666718
28	0x3d037842	0.03209711
29	0x3c53c22f	0.012924715
30	0x3d4cb124	0.049973622
31	0xbd0a04ca	-0.033695973
32	0x3e852622	0.26005656
33	0xbe1f249a	-0.15541306
34	0x3e06d183	0.1316586
35	0xbcb5d1f0	-0.022194833
36	0xbcd20ad4	-0.025639929
37	0x3d13901c	0.036026105
38	0x3d592364	0.053012267
39	0xbdace142	-0.08441402
40	0xbca261a2	-0.019821946
41	0xbb6f046a	-0.0036471137
42	0x3da4abe4	0.08040598
43	0x3dea8624	0.114513665
44	0xbc880853	-0.016605532
45	0xbdb1412f	-0.08655011
46	0x3d8b4f6e	0.068022594
47	0xbdb8e192	-0.09027399
48	0x3cf03ebf	0.029326795
49	0x3c361c5d	0.011115161
50	0x3ccf775e	0.025325473
51	0x3cf9b3e1	0.03048128
52	0xbc306daa	-0.010768333
53	0xbccc8e48	-0.024970189
54	0x3d45bc6e	0.048275404
55	0xbcb14e9e	-0.021643933
56	0xbd024a1c	-0.031808957
57	0x3bf3a1b0	0.007435046
58	0xbc1a819b	-0.009430314
59	0x3ca9c146	0.020722043
60	0xbd4966b5	-0.049170215
61	0x3cdf1801	0.027233126
62	0xbd0fcc30	-0.035106838
63	0x3d0876cd	0.033316422
64	0x3cc329f8	0.023823723
65	0xbd46570d	-0.04842286
66	0x3dde5c05	0.10857395
67	0xbd1fd430	-0.039020717
68	0x3c9df540	0.019281983
69	0xbcdf8b80	-0.027288198
70	0xbcb375ea	-0.021906812
71	0xbcf22720	-0.029559672
72	0x3cb169e1	0.021656932
73	0x3d48731b	0.048937898
74	0x3d06288a	0.032753505
75	0x3da9e9d4	0.08296552
76	0x3cd9d98a	0.026592989
77	0xbd43c7df	-0.047798034
78	0xbd25292b	-0.040322464
79	0x3c3cb0ac	0.011516731
80	0x3cc571b5	0.024102071
81	0xbc3903aa	-0.0112923775
82	0xbd3758f1	-0.044762556
83	0x3d0ac8f4	0.03388305
84	0xbd4a0814	-0.04932411
85	0xbd4a286d	-0.04935496
86	0x3c895982	0.016766313
87	0xbd2c6db5	-0.042096812
88	0xbd10e449	-0.03537396
89	0xbc2b1793	-0.010442632
90	0xbcd80cb7	-0.02637325
91	0x3b9ba0da	0.0047493996
92	0x3c8f0d60	0.017462432
93	0x3d767838	0.060173243
94	0x3e07f588	0.13277256
95	0xbda69152	-0.081331864
96	0xbe0d332b	-0.1378905
97	0x39dd430b	0.00042202356
98	0x3ddbf778	0.1074056
99	0x3d22d842	0.03975702
100	0x3d9e2d49	0.07723481
101	0xbca16cc8	-0.019705191
102	0x3d83d955	0.06437937
103	0xbe103e8d	-0.14086361
104	0xbc903133	-0.017601585
105	0x3d8679ff	0.06566238
106	0x3d9e8efb	0.07742115
107	0x3c80e515	0.015734235
108	0xbc02c2bc	-0.007980999
109	0xbd791741	-0.060813192
110	0x3d2d863a	0.042364337
111	0x3e174f2d	0.14776297
112	0x3dbe1d32	0.09282912
113	0xbdb1b921	-0.08677889
114	0x3d4c3eb1	0.049864475
115	0xbdb6a778	-0.08918661
116	0x3c85e663	0.016345209
117	0xbd343150	-0.04399234
118	0xbdc51993	-0.096240185
119	0xbda4f3e2	-0.080543295
120	0xbd46663d	-0.048437346
121	0xbacc0bc5	-0.0015567472
122	0x3d83add9	0.06429643
123	0x3db8382b	0.08995088
124	0xbcabb631	-0.0209609
125	0x3d87b751	0.06626762
126	0xbc7ac0fc	-0.0153048
127	0xbc9fcbef	-0.019506423
128	0x3f0cb659	0.5496574
129	0x3e56ffe7	0.20996056
130	0xbe36c9a7	-0.17850362
131	0x3ea75a41	0.32686046
132	0x3e9ec2b8	0.31007934
133	0xbe702db9	-0.23454942
134	0xbd157114	-0.036484793
135	0x3ef34846	0.47516078
136	0xbea8efcd	-0.32995453
137	0xbe881da8	-0.26585126
138	0x3e4ea0c6	0.20178518
139	0x3e725209	0.23664106
140	0x3e815d63	0.2526656
141	0xbeceeb05	-0.4041368
142	0x3e9b0978	0.30280662
143	0x3e8a04fc	0.26956928
144	0x3e6644ab	0.22487132
145	0xbdcac5df	-0.09901022
146	0xbea82d14	-0.32846892
147	0xbed8fcc9	-0.4238036
148	0xbf1b6476	-0.60700166
149	0xbe59c4fe	-0.21266553
150	0xbe8c80d8	-0.2744205
151	0xbd2a6341	-0.041598562
152	0xbe93ec04	-0.28891003
153	0x3ed90be9	0.423919
154	0x3d656f04	0.056014076
155	0x3c0cd01d	0.00859454
156	0x3e857424	0.2606517
157	0xbe5db356	-0.21650442
158	0xbe33977c	-0.17538255
159	0x3f01504a	0.50513136
160	0x3e431aed	0.1905324
161	0xbe333b48	-0.17503083
162	0xbe057e99	-0.13036574
163	0x3ec36a4a	0.3816703
164	0x3e4b67eb	0.1986386
165	0xbeab0d93	-0.33408794
166	0x3e90ac99	0.28256682
167	0xbe7c84c2	-0.24660018
168	0xbed7de13	-0.42161617
169	0xbf5da488	-0.8657918
170	0xbea54a5a	-0.32283288
171	0x3f197a71	0.59952456
172	0x3e1e595a	0.15463772
173	0xbe6d3cab	-0.23167674
174	0x3e53f034	0.20697099
175	0x3eb6ea20	0.35725498
176	0xbe527856	-0.20553717
177	0x3e52f630	0.20601726
178	0xbec3d612	-0.3824926
179	0xbeb47bef	-0.35250804
180	0xbe6d12a2	-0.23151639
181	0x3cd428de	0.025898393
182	0xbedb2e39	-0.42808703
183	0x3ed1f0db	0.4100407
184	0x3e4e18e9	0.2012669
185	0x3e5b1450	0.21394467
186	0xbde3bbd1	-0.111198075
187	0xbe80d3b5	-0.2516152
188	0xbef7c819	-0.4839485
189	0x3dc58023	0.09643581
190	0x3eae67cf	0.34063575
191	0xbf09534d	-0.5364273

main_network.fc.bias f4 [3]
0	0x3ceec268	0.029145434
1	0x3dc52c66	0.09627609
2	0x3e59ee57	0.21282326

short_term_context_network.fc1.weight f4 [32, 7]
0	0xbe49c3b1	-0.19703557
1	0x3e505a7a	0.20347014
2	0xbe631e52	-0.22179535
3	0x3e401d99	0.1876129
4	0xbd6fcb4a	-0.05854348
5	0xbdcfd7e0	-0.10148597
6	0xbc520c40	-0.012820303
7	0xbef9275b	-0.48662838
8	0x3d6b221a	0.05740557
9	0xbeb24e03	-0.34825143
10	0xbe502ae9	-0.20328869
11	0x401eef46	2.483354
12	0x402292e2	2.540215
13	0x3f6a6b66	0.91570127
14	0xbea7665b	-0.3269528
15	0x3c216836	0.009851506
16	0x3e490a62	0.19632867
17	0x3e322084	0.17395216
18	0x3eac3811	0.33636525
19	0xbc27dc4b	-0.010245393
20	0x3e34823b	0.17627804
21	0x3eeffffe	0.46874994
22	0x3e08309a	0.1329979
23	0xbe78ff33	-0.24316101
24	0xbda9ed53	-0.08297219
25	0xbf7a7ec9	-0.9784971
26	0xbf84d984	-1.037888
27	0x3eac0c17	0.33602974
28	0xbe7a99a8	-0.24472678
29	0xbd221294	-0.0395685
30	0xbe1afcae	-0.15135452
31	0xbeab34d9	-0.33438757
32	0xbf674cf7	-0.90351814
33	0xbd9f2363	-0.07770421
34	0x3ee555a5	0.44791904
35	0x3f072a1c	0.5279863
36	0xbe17ac74	-0.1481188
37	0xbeae430c	-0.34035528
38	0xbbb54c86	-0.005532804
39	0x3e981354	0.29702246
40	0x3ea0a063	0.31372365
41	0x3e99fe81	0.30076984
42	0x3e6ebbb3	0.23313789
43	0xbe80f5c4	-0.25187504
44	0xbe246646	-0.16054639
45	0xbde72030	-0.11285436
46	0xbdbe5bf5	-0.09294883
47	0x3ead9306	0.33901232
48	0xbdc50967	-0.09620934
49	0xbed7d020	-0.42150974
50	0xbdafce00	-0.08584213
51	0x3e1e1398	0.15437162
52	0xbbe8f948	-0.0071097948
53	0x3d5ebb48	0.054377824
54	0xbd3f7825	-0.046745438
55	0x3f468813	0.7755138
56	0xbeb14756	-0.34624738
57	0xbd5abc19	-0.05340204
58	0xbdcc474e	-0.09974538
59	0xbc1e7c38	-0.009673171
60	0xbe6f3711	-0.2336085
61	0x3e8fb2af	0.28066012
62	0xbe6d474f	-0.23171733
63	0xbeb80de0	-0.35948086
64	0xbe6f323c	-0.23359007
65	0x3df9b03e	0.12191819
66	0xbe8f9709	-0.28044918
67	0x3eaaf53f	0.33390233
68	0x3e9eb755	0.30999246
69	0x3f543587	0.82894176
70	0x3cf1c0af	0.029510824
71	0x3eb1694c	0.34650648
72	0xbe79539b	-0.24348299
73	0x3e8b3a5e	0.27192968
74	0xbdd69b0d	-0.10478792
75	0xbe03bf7a	-0.12866011
76	0xbe110605	-0.14162453
77	0x3ed72bf4	0.4202572
78	0x3dc6fdf5	0.09716407
79	0x3cc967bd	0.0245856
80	0x3d8d7f5c	0.069090575
81	0xbdda0e35	-0.10647241
82	0xbcf388cd	-0.029728318
83	0x3e7c339e	0.24629065
84	0x3e0da001	0.13830568
85	0x3c2ca6c9	0.010537812
86	0x3eb9c2b1	0.3628135
87	0x3e7e597c	0.24838823
88	0x3e489e05	0.1959153
89	0x3f12619b	0.57180184
90	0xbf52d0a9	-0.8234964
91	0xbdd6794b	-0.104723535
92	0x3e785d1a	0.24254265
93	0x3e7b60ea	0.24548689
94	0xbea3c8c8	-0.3198912
95	0x3e047d2f	0.12938379
96	0xbd8f2231	-0.06988943
97	0xbe37261a	-0.17885628
98	0xbed4bf0b	-0.41552004
99	0xbe43432c	-0.19068593
100	0xbdd862fe	-0.10565756
101	0x3dcd8336	0.10034792
102	0x3eaf08ae	0.3418631
103	0x3e8d4c2f	0.27597186
104	0x3f4a884e	0.79114234
105	0xbe9ff3f8	-0.3124082
106	0x3e93d150	0.2887063
107	0x3e67580b	0.2259218
108	0xbea6decc	-0.32591856
109	0xbe081e9f	-0.13292931
110	0x3da2d3e8	0.07950574
111	0x3e56b6bc	0.20968145
112	0xbebf2535	-0.37333074
113	0xbeabf45c	-0.3358487
114	0x3ebc1643	0.36735734
115	0x3ea0edbd	0.3143138
116	0xbdb43119	-0.08798427
117	0xbd80059b	-0.06251069
118	0xbd22481b	-0.039619546
119	0x3e9af329	0.3026364
120	0x3e0c5db8	0.13707626
121	0xbea9709d	-0.3309373
122	0x3e6e793f	0.23288439
123	0x3e95ab6b	0.29232344
124	0xbf37d0b1	-0.7180281
125	0xbef5534e	-0.4791512
126	0x3f1f1610	0.6214304
127	0x3e9bc242	0.30421644
128	0xbea4f7de	-0.32220358
129	0x3dc126d9	0.09431238
130	0xbf479c09	-0.77972466
131	0xbf666202	-0.899933
132	0x3f1265aa	0.5718638
133	0x3cd376c2	0.025813464
134	0x3eaa61e0	0.33277798
135	0xbeac963d	-0.33708373
136	0xbe62451f	-0.2209668
137	0x3e1597c5	0.14608677
138	0x3e131861	0.14364769
139	0x3ed9e3e3	0.42556676
140	0x3e14517c	0.14484209
141	0xbeb3b55e	-0.3509931
142	0xbe644ef0	-0.22295737
143	0xbe2fef46	-0.1718112
144	0x3e77707a	0.24164
145	0x3e51227e	0.20423314
146	0xbf10cf7f	-0.56566614
147	0xbee41e63	-0.44554433
148	0x3e050c8d	0.12993069
149	0xbd9fc095	-0.07800404
150	0x3b4cfc96	0.0031278483
151	0x3db71965	0.089403905
152	0x3e2a0b67	0.16605912
153	0x3f6864cb	0.907788
154	0xbcdd3564	-0.027002998
155	0xbc440db6	-0.01196616
156	0xbd16541b	-0.036701303
157	0xbd9346b6	-0.071912214
158	0x3e724f10	0.23662972
159	0xbe646269	-0.22303165
160	0x3ec541e6	0.3852684
161	0x3f2a7fec	0.66601443
162	0x3e07c800	0.13259888
163	0xbda0de65	-0.078549184
164	0xbdd29eb0	-0.102841735
165	0xbf187f24	-0.59569
166	0xbef6e622	-0.48222452
167	0xbe49552c	-0.19661397
168	0xbe4f6cfa	-0.20256415
169	0x3e263437	0.16230856
170	0xbe82a901	-0.25519565
171	0x3e822502	0.2541886
172	0x3f3f4557	0.7471518
173	0x3e0c2f62	0.1368995
174	0xbb555979	-0.003255455
175	0xbd31b012	-0.043380804
176	0xbebcd38e	-0.36880153
177	0xbc1d3303	-0.009594682
178	0x3e1b8a76	0.15189537
179	0x3e4aa63f	0.1978998
180	0x3e85d0dd	0.26135913
181	0x3d921355	0.071325935
182	0xbea991bc	-0.33119
183	0xbea1355b	-0.3148602
184	0x3dfbb73c	0.122908086
185	0xbeb18d3f	-0.34678075
186	0x3e2f5adb	0.17124502
187	0x3e0febfc	0.14054865
188	0xbe56e8b4	-0.20987207
189	0xbeb71a46	-0.35762233
190	0x3ea417a8	0.32049298
191	0x3deb1724	0.11479023
192	0xbe01625f	-0.12635182
193	0xbc94858d	-0.018130088
194	0xbd99e1b1	-0.0751375
195	0xbebaba35	-0.3647019
196	0x3f1fc4c6	0.6240963
197	0xbe05da7f	-0.13071631
198	0xbccf896d	-0.025334084
199	0x3ea02f52	0.31286103
200	0xbe826e4e	-0.2547478
201	0xbe461420	-0.19343615
202	0xbda78181	-0.08178998
203	0xbe5d6992	-0.21622303
204	0xbe175abb	-0.14780705
205	0x3e89cdb3	0.2691475
206	0x3e8a0b77	0.26961872
207	0xbf37660d	-0.7164009
208	0x3e505269	0.20343937
209	0x3ee9d294	0.4566847
210	0x3f08e2a6	0.5347084
211	0xbe67c34b	-0.22633092
212	0xbe9ed95e	-0.31025213
213	0x3e48a84d	0.19595452
214	0xbf42c1c5	-0.7607692
215	0xbf60f025	-0.8786643
216	0x3f0460b8	0.5171008
217	0xbec3a1b8	-0.3820932
218	0xbe6004d2	-0.21876839
219	0xbe2be382	-0.16786006
220	0xbd8aff10	-0.067869306
221	0x3db5d591	0.08878625
222	0x3e8370b3	0.2567192
223	0xbdc4e2cc	-0.096135706

short_term_context_network.fc1.bias f4 [32]
0	0xbe8920a2	-0.2678271
1	0x3f0bc4c5	0.5459712
2	0xbeac8fab	-0.3370336
3	0xbdab5dd0	-0.08367503
4	0x3ee8e336	0.45485848
5	0x3e2c7cad	0.16844435
6	0x3f20ff5b	0.6288964
7	0x3efb33b4	0.49062884
8	0x3d6334f8	0.055470437
9	0x3e809627	0.25114557
10	0xbe19aad1	-0.15006568
11	0x3f0b1538	0.5432925
12	0x3ed125e2	0.40849215
13	0xbeb49160	-0.35267162
14	0x3ee9f10b	0.45691714
15	0xbe92ba2e	-0.2865767
16	0xbe4107cb	-0.18850629
17	0xbda83ac4	-0.08214334
18	0xbeb254da	-0.34830362
19	0x3f0f2768	0.55919504
20	0x3e064021	0.131104
21	0x3edc941b	0.43081746
22	0x3f144929	0.57924134
23	0xbf61a446	-0.88141286
24	0x3f1cbf80	0.61229706
25	0xbec0c664	-0.3765136
26	0x3e0e0838	0.13870323
27	0xbca9b54f	-0.020716337
28	0xbf6c858d	-0.9239128
29	0x3e478a4f	0.19486354
30	0xbf119382	-0.56865704
31	0x3e8dddb8	0.2770822

short_term_context_network.fc2.weight f4 [16, 32]
0	0x3e22550c	0.15852755
1	0x3f36018c	0.7109611
2	0x3e386e80	0.18010902
3	0xbe9c6eac	-0.30553186
4	0x3e9f9738	0.31170058
5	0x3ee0f483	0.43936548
6	0x3e758460	0.23976278
7	0x3f03826c	0.51370883
8	0xbd9ded85	-0.07711319
9	0x3edbb448	0.4291098
10	0xbd2e2928	-0.04251972
11	0x3ea5a510	0.32352495
12	0x3ec2644c	0.37967145
13	0xbdc35234	-0.095371634
14	0x3ed03095	0.40662065
15	0xbd1bc46d	-0.038029123
16	0x3dba8e86	0.091092154
17	0x3e3697ba	0.17831317
18	0xbebc26fd	-0.36748496
19	0x3ec9c6da	0.39409524
20	0x3d250f85	0.040298004
21	0x3f13256a	0.57478964
22	0x3e78de6a	0.24303594
23	0xbf435c7f	-0.7631301
24	0x3e5b46dc	0.2141375
25	0xbe0c0078	-0.13672054
26	0x3df41a95	0.119191326
27	0x3dce0317	0.10059183
28	0xbea10033	-0.31445464
29	0x3ebf1414	0.37320006
30	0xbea8d700	-0.32976532
31	0x3dfc8bf6	0.12331383
32	0xbcb132e3	-0.02163071
33	0xbd500b4a	-0.050792016
34	0x3d10e5e7	0.035375502
35	0x3dca3a10	0.09874356
36	0x3da8c021	0.08239771
37	0x3d126878	0.03574416
38	0xbc8f42cf	-0.017487912
39	0xbd86c612	-0.06580748
40	0xbda80225	-0.08203534
41	0x3d9fdd47	0.07805877
42	0x3e23148e	0.1592581
43	0xbc9fbdba	-0.019499648
44	0x3c1fc582	0.009751679
45	0xbd12e7f6	-0.035865746
46	0xbe0f896c	-0.14017266
47	0x3d9c5044	0.07632497
48	0xbe1b9bbc	-0.15196127
49	0x3d567799	0.05236015
50	0xbdb5c974	-0.08876315
51	0xbe0bf5f6	-0.13668045
52	0xbe4e6970	-0.20157409
53	0x3db69cf3	0.089166544
54	0x3d59fe70	0.053221166
55	0x3deb8f7c	0.11501977
56	0x3d58a4e2	0.05289162
57	0x3e1c03dd	0.15235849
58	0xbe08f7f9	-0.13375844
59	0x3e1789b4	0.14798623
60	0xbd827419	-0.063698
61	0x3d15c14d	0.0365613
62	0xbe21461d	-0.15749402
63	0xbdf401b6	-0.11914389
64	0xbde124fb	-0.109933816
65	0xbd80b9f0	-0.06285465
66	0xbe1fbdaa	-0.15599695
67	0xba9d2d8d	-0.0011991725
68	0xbe879352	-0.26479584
69	0xbd808445	-0.062752284
70	0x3e53eba0	0.20695353
71	0x3ca86ce2	0.020559732
72	0x3cbabe92	0.02279595
73	0xbeb3731e	-0.35048765
74	0xbe113f08	-0.14184201
75	0xbdb107bb	-0.086440526
76	0x3da203e2	0.07910897
77	0x3e00eaec	0.12589616
78	0x3d94068f	0.072278135
79	0x3d76ad3b	0.0602238
80	0x3dc2e695	0.09516636
81	0x3d138652	0.03601677
82	0x3e579943	0.21054558
83	0xbf150172	-0.5820533
84	0x3d851a5b	0.064991675
85	0xbdd9db8b	-0.106375776
86	0xbe9d1815	-0.30682436
87	0x3ec7d151	0.39026883
88	0xbe765914	-0.24057418
89	0x3db94fb7	0.090484075
90	0xbe8034ac	-0.25040185
91	0xbe22485a	-0.15847912
92	0x3e56f057	0.2099012
93	0xbdeecb95	-0.11659924
94	0xbe5c6e8f	-0.2152655
95	0xbe42820f	-0.18994926
96	0x3e259006	0.16168222
97	0x3f5bfa28	0.85928583
98	0xbdc9ecc5	-0.09859613
99	0xbe919f54	-0.2844187
100	0x3e8582d2	0.2607637
101	0x3ecb74ab	0.39737448
102	0x3e948cab	0.2901357
103	0x3f0ed16c	0.557883
104	0xbda7c289	-0.081914015
105	0x3f231a23	0.63711756
106	0xbd907407	-0.070533805
107	0x3ed88605	0.4228975
108	0x3deb748e	0.114968404
109	0xbd50af22	-0.05094827
110	0x3e4bbb13	0.19895582
111	0x3d528408	0.051395446
112	0x3dc1bd7c	0.094599694
113	0xbeaa5a72	-0.3327213
114	0xbea4411e	-0.3208093
115	0x3ef313d2	0.4747606
116	0x3e5bb448	0.2145549
117	0x3f53ae60	0.8268795
118	0x3eb41ec6	0.35179728
119	0xbf466dea	-0.77511466
120	0x3ea4a0f2	0.32154042
121	0xbd030952	-0.03199131
122	0x3da4a8b9	0.08039994
123	0x3c306a92	0.010767596
124	0xbf29080e	-0.66027915
125	0x3eafefc9	0.3436263
126	0xbea3b9f3	-0.31977805
127	0x3e743a2c	0.23850316
128	0xbe01ee56	-0.12688574
129	0xc030d37b	-2.7629077
130	0xbd3cc4a6	-0.046085976
131	0x3f60dbb4	0.8783524
132	0x3cbab226	0.022790026
133	0x3f1d2c31	0.61395556
134	0x3e4a41f5	0.19751723
135	0xc02eee0d	-2.7332795
136	0xbc09d94f	-0.008413627
137	0xc038a381	-2.8849795
138	0x3e327699	0.17428054
139	0x3f2b0b19	0.6681381
140	0xbe238918	-0.15970266
141	0xbe1a1325	-0.15046366
142	0xc01fb23f	-2.4952543
143	0x3d8b1b8b	0.06792363
144	0x3e30ed23	0.1727796
145	0xbc3d0b07	-0.011538274
146	0x3f7bbc3a	0.98334086
147	0x3e8603cf	0.2617478
148	0xbe964fb3	-0.2935768
149	0xc01e0f6b	-2.469691
150	0xbe0cde35	-0.1375664
151	0x3fb44116	1.4082363
152	0xbfbf0142	-1.4922259
153	0x3e12fc39	0.14354028
154	0xbdd73035	-0.10507242
155	0x3e2f172d	0.17098685
156	0x3f865c42	1.0496905
157	0xbe1d2d08	-0.1534921
158	0x3f3b540d	0.73175126
159	0xbe4dafc6	-0.20086583
160	0x3ddf3979	0.10899634
161	0x3f412b8b	0.75457066
162	0xbc8b1816	-0.016979259
163	0xbe874fc6	-0.2642805
164	0x3ee7c829	0.45269898
165	0x3e58307e	0.21112248
166	0x3db3dc9f	0.087823145
167	0x3f322028	0.69580317
168	0x3db9af65	0.09066657
169	0x3ec3ce85	0.382435
170	0x3db8c1eb	0.09021362
171	0x3eac53af	0.33657596
172	0x3e909d87	0.28245184
173	0x3e19b1fa	0.15009299
174	0x3edb9f27	0.4289486
175	0xbc1c106b	-0.009525399
176	0x3dfadb4e	0.1224886
177	0xbe65a4b5	-0.22426112
178	0xbd2419b1	-0.040063564
179	0x3e9e08c6	0.3086607
180	0x3ce9eedf	0.028556285
181	0x3f5e1e9a	0.86765444
182	0x3eea2729	0.45733002
183	0xbf5527ec	-0.8326404
184	0x3e984cb0	0.29746008
185	0xbe2cd68c	-0.16878718
186	0x3e1d0222	0.15332845
187	0xbe165f52	-0.146848
188	0xbf2b41f1	-0.66897494
189	0x3e8d812f	0.27637622
190	0xbe3bb156	-0.18329367
191	0x3e912262	0.28346545
192	0x3b6c4754	0.0036053257
193	0x3f57a4be	0.8423575
194	0x3ddab5dd	0.10679219
195	0xbe3df954	-0.18552142
196	0x3edeb07b	0.4349402
197	0x3e912a55	0.2835261
198	0x3ed4253a	0.41434652
199	0x3f33ae5d	0.7018793
200	0xbde66672	-0.11250009
201	0x3ed398ea	0.41327602
202	0xbd3b84a5	-0.045780797
203	0x3ee0d5ae	0.43913025
204	0x3eb4863a	0.35258657
205	0xbdc7b887	-0.09751993
206	0x3e2336d7	0.15938888
207	0xbde91485	-0.11380867
208	0x3cf16b79	0.029470192
209	0x3e08bbaf	0.13352846
210	0xbed7510c	-0.4205402
211	0x3e9d2523	0.30692396
212	0x3e1538bf	0.14572428
213	0x3f39adf0	0.7253103
214	0x3ee4b946	0.44672602
215	0xbf488ceb	-0.78340024
216	0x3edebdd3	0.435042
217	0xbd7696a6	-0.060202263
218	0x3d58f233	0.052965354
219	0xbd37e621	-0.044897202
220	0xbee06e9a	-0.43834382
221	0x3e65e22b	0.22449557
222	0xbef2cdbf	-0.47422597
223	0x3cebcee4	0.028785177
224	0x3dd877ae	0.10569702
225	0x3c68b7c7	0.014203972
226	0x3da91946	0.08256774
227	0x3d31f186	0.043443225
228	0xbe0f9060	-0.14019918
229	0xbe3bb412	-0.1833041
230	0xbda3602b	-0.07977327
231	0xbdc0632b	-0.09393915
232	0x3d4bce1e	0.049757116
233	0xbe07e6cc	-0.13271636
234	0x3dc989c5	0.098407306
235	0xbe4c7883	-0.19967847
236	0x3da1e957	0.07905834
237	0xbdd8f6e8	-0.10593969
238	0x3e22fcf1	0.15916802
239	0x3d215f41	0.03939748
240	0x3e24a03a	0.16076747
241	0xbe35d580	-0.17757225
242	0xbdb47a92	-0.08812441
243	0x3cdf78f6	0.027279358
244	0x3de5105d	0.11184762
245	0xbdf3e5e4	-0.119090825
246	0xbcad5ba8	-0.02116187
247	0x3bc2bf4f	0.005943216
248	0xbd691af3	-0.056910466
249	0x3d85619d	0.06512759
250	0xbe2f4902	-0.17117694
251	0x3e27c6b6	0.16384396
252	0x3e0a9eba	0.13537112
253	0xbdd80844	-0.105484515
254	0x3daefc12	0.08544172
255	0xbcdaa775	-0.026691178

short_term_context_network.fc2.bias f4 [16]
0	0x3e1bc73a	0.15212718
1	0xbc99589b	-0.018719008
2	0xbe88e218	-0.26734996
3	0x3e110ab2	0.14164236
4	0xbe4c8784	-0.1997357
5	0x3e453276	0.1925753
6	0x3e42e15b	0.19031279
7	0xbe1e83cb	-0.15479963
8	0x3e3e1da4	0.18565995
9	0x3eab40fa	0.3344801
10	0x3ebbc483	0.36673364
11	0x3e509636	0.20369801
12	0x3e9205bf	0.2852001
13	0x3c89fcbb	0.016844144
14	0x3e978c87	0.295994
15	0xbe3d0cb8	-0.18461883

short_term_context_network.fc3.weight f4 [1, 16]
0	0x3eef33cb	0.46719202
1	0xbd57acfb	-0.0526552
2	0xbee76711	-0.4519582
3	0x3f46b2e3	0.7761671
4	0xbfbe809a	-1.4882996
5	0x3f4abcc2	0.7919427
6	0x3ef330e5	0.4749824
7	0x3e4f97e6	0.20272788
8	0x3f3ba3bd	0.7329672
9	0x3ee52da8	0.44761395
10	0x3ef83e6f	0.48485133
11	0xbe9ceb32	-0.3064819
12	0x3f066e08	0.52511644
13	0xbe0470a9	-0.12933601
14	0x3f388511	0.72078043
15	0xbdb5b7e3	-0.08872964
