RL/V3/V3_demo1/Testing_Suite/model_SC_C1000_R0_S100.0.pth (torch, 91353 bytes, 11 tensors)

main_network.lstm.weight_ih_l0 f4 [256, 15]
00000000: 0e45 b2bd 639d 7e3d 8b30 43bd 47a7 303d
00000010: 7d7e 8c3c a1b7 96bc 056f bbbd 6972 583d
00000020: c613 c43d 0065 403d 29c7 903c be18 87bd
00000030: 0748 a9bd 251c 263d ff35 2fbe 5efa 76bc
00000040: c95a dabc 043c 3fbe 0618 0c3e 0525 bebc
00000050: bb94 44bd 2e59 553c 5587 4dbd 8f04 46bd
00000060: ce19 003d 785a 70bd 7748 a43c 9d46 103d
00000070: 6ec5 84bd a0cd d6bd ba6b 043e 224f 7d3d
00000080: f3b4 313d baa8 d43e 027e bf3d 8de8 da3c
00000090: 321e 15be 6508 243d 733a 523e dcdd aebb
000000a0: f678 e6bc 6e3a 193e c31c 663d bce2 6e3e
000000b0: 26b6 38bd b75b 1abe 7d85 0cbe 69d5 6e3c
000000c0: b3cb 353e 41c1 39be 2879 19bc a42f 17be
000000d0: ee5e 21be 8e4f 18bd b50c 1dbe 0837 52be
000000e0: 7475 39bd dacc 81be b3b8 7dbd 5d91 dabd
000000f0: baf7 6cbe b3a1 7dbe 0592 4cbe 44c7 9f3c
00000100: 8411 13be 7d7a f43b ac84 30be 770a 22be
00000110: 015a 3ebe fb82 03be 59fd 27be f16b 13be
00000120: 8d54 12be f7d5 07be 67b3 46be dfad 4fbe
00000130: 6265 63be d157 a73d 1d8c 293e a03c 8cbe
00000140: 82fe 22bd 8fc9 52be 387f efbd cc5b b6bd
00000150: d332 a23d 7d7b e4bd abdf 0bbe 28c7 15bd
00000160: aeea a7bd 977f 71bd 3773 9e3c dac0 273e
00000170: 347f e93c cf30 babd 7bd5 363e 77cb 443d
00000180: 81e2 c33c 50f2 82bd 44c0 793e ae94 82be
00000190: 0637 b8bd 1ec1 0e3e 0a91 f7bc 45ff 1e3e
000001a0: 0c55 003d 7b3e b13d 53b6 ad3d 3a9a 083e
000001b0: 93c9 c0bd bf0f 2b3e a4b6 8abd a019 34bd
000001c0: 8c4a b73d 8bd0 b43d e145 30bd 4b72 1ebe
000001d0: f57b 26be 105b d93d 74e9 9dbc 9703 eebd
000001e0: ae6e f73c fa7b 2fbd 49f8 13bd 73e0 ca3d
000001f0: 357d 8a3d 7d7f 27bd 192a 18be 8c0b aabd
00000200: f14a 1a3d 5894 b2bd 00a1 3ebd d8de 87bd
00000210: 8eb7 dabd 4286 67bc 0ba4 363d c9de 8bbd
00000220: 17de 003d 9b29 89bc e873 f83d ec2b 25be
00000230: b4dd dbbd 66cc da3d d128 33bd 3ee3 bdbc
00000240: a1f6 b3bb 02a6 e1bd 2c23 983d 7d71 39bb
00000250: bb90 1bbd f0ad 3cbe d6ab 17bd 43d6 65bc
00000260: 65c8 0dbd 289b 203e f2d8 523b 10e3 a73d
00000270: 1f2c 563d 1459 1e3e 65f3 78bd dba6 833d
00000280: f09e 5abd 4c71 a7bd b50c ac3d 17d7 b83d
00000290: fc36 c53d 5545 04b9 1c31 5cbd d231 b33d
000002a0: c325 b03e daf6 63bc 91dd 16bc bc70 c33d
000002b0: 560b 5b3d 5a1f 5fbd a360 a73d bae9 023d
000002c0: 48f9 2e3e 2f21 283c 9865 a43e 187d d8bd
000002d0: fc49 183c 7c9b b63c 9490 a63d c65b 923e
000002e0: 61b7 9d3d 71b0 523d 6341 9d3d 0922 e2bc
000002f0: 27c8 47bd 9912 ba3d 124e a9bd bf51 03be
00000300: be14 3b3d 665c 9d3d bb79 ec3c d618 06be
00000310: 54de 37be 2906 26bd 7113 953e 2a8a e8bc
00000320: 9316 28be 9d18 0ebe 31db a1bb 5a45 fcbd
00000330: 6d9d 9b3c 699e a43d 4303 ecbd aa4a cdbb
00000340: b30e 063e e22f 2abd 955c 5bbd fa11 1abe
00000350: 09c4 87bc d296 d73d 3652 c13d 05e3 d1bd
00000360: 800b f9bc 24f3 0bbd ec13 25be 1312 d03d
00000370: add4 35be 6c1e 30be f022 fabd 9f18 13be
00000380: 5414 03bd dc8f a03d 5cbc 89bd 0ecd 0c3d
00000390: d7c8 653e c12c 013e f175 a4bd 60d4 443e
000003a0: 9b0e 0bbe 6c7b 07be dd42 313e 4a75 b33d
000003b0: 0091 1bbe 10c4 163d 678a f23d 4fda 1c39
000003c0: 0b95 eebd 1ca1 8fbc fc72 3cbe e679 8fbd
000003d0: 8ba7 973b 85c3 a7bc e191 9abd 3bbb f93c
000003e0: 6017 25bd 722d dcbd 6680 17bd d3bc dcbc
000003f0: c067 10bd ba22 ba3d 3557 71bd 9f11 0c3d
-0.087045774 0.062161814 -0.047653716 0.043128278 0.017150158 -0.018398108 -0.09152035 0.052843485
0.09574084 0.04697132 0.017673092 -0.06596516 -0.08265691 0.040554184 -0.17110442 -0.015074341
-0.026654618 -0.18675238 0.13681039 -0.023211012 -0.047993403 0.01302175 -0.05017789 -0.04834419
0.03127461 -0.058680028 0.020054085 0.035223592 -0.06482969 -0.104884386 0.1293172 0.061843045
0.043385457 0.41534978 0.09350206 0.026722217 -0.145623 0.04004707 0.20530109 -0.0053365063
-0.02813385 0.14963695 0.056179773 0.2332868 -0.045095585 -0.15074049 -0.13722797 0.014577248
0.17753486 -0.18140127 -0.009367265 -0.14764267 -0.15758869 -0.037185244 -0.15336879 -0.20528805
-0.045278028 -0.25351602 -0.06194372 -0.10672257 -0.23141375 -0.24768715 -0.19977577 0.019504197
-0.1436215 0.007460891 -0.1723811 -0.15824305 -0.18589021 -0.12842934 -0.16405238 -0.14396645
-0.14290066 -0.13265215 -0.19404374 -0.2028117 -0.22206643 0.081710465 0.16557355 -0.27390003
-0.0397935 -0.20584701 -0.11694187 -0.089042276 0.0791985 -0.11156366 -0.13659541 -0.036566883
-0.081990585 -0.05895957 0.019342048 0.16382161 0.028503038 -0.09091341 0.17854874 0.0480456
0.023911716 -0.06393874 0.2438975 -0.2550406 -0.0899487 0.13940856 -0.030220527 0.15527065
0.031331107 0.08654495 0.08482041 0.13340083 -0.09413447 0.16705225 -0.06773117 -0.04396975
0.089497656 0.08828839 -0.04303539 -0.15473287 -0.16258223 0.10613072 -0.019276358 -0.116217785
0.030204143 -0.042842843 -0.036125455 0.099060915 0.067621626 -0.040893067 -0.14859809 -0.08302984
0.037669126 -0.087197006 -0.04654026 -0.06634301 -0.106795415 -0.014131131 0.044590037 -0.06829602
0.0314618 -0.016743472 0.12131482 -0.16130036 -0.10735646 0.10683517 -0.043740097 -0.023179647
-0.005492047 -0.110179916 0.074285835 -0.0028296404 -0.037979823 -0.18425727 -0.03702911 -0.014028135
-0.03461494 0.15684187 0.0032172767 0.081976056 0.05228817 0.15463668 -0.060778994 0.064283095
-0.05337423 -0.081759065 0.08400861 0.090254 0.09629628 -0.00012614329 -0.05375777 0.08749737
0.3440381 -0.0139138345 -0.009208099 0.09542987 0.053477608 -0.05447326 0.08172729 0.03196118
0.17087281 0.010261818 0.3210876 -0.10570735 0.009294983 0.022290938 0.08133045 0.28585643
0.077009924 0.0514378 0.07678487 -0.02760412 -0.048774865 0.090855785 -0.08266844 -0.12824152
0.04567408 0.07683639 0.02886664 -0.13095412 -0.17955905 -0.04053322 0.29116395 -0.028386194
-0.16414861 -0.13876577 -0.0049394597 -0.12317915 0.018995965 0.08038027 -0.115240596 -0.006265004
0.13091545 -0.04154957 -0.05355509 -0.1504592 -0.016572969 0.105268136 0.094395086 -0.10248379
-0.030400991 -0.034167424 -0.16120881 0.101596974 -0.1775691 -0.17199105 -0.12213695 -0.14364861
-0.03200181 0.07839939 -0.0672538 0.034375243 0.22439896 0.12614729 -0.08030308 0.1922164
-0.1357979 -0.13230675 0.17310663 0.087626055 -0.15192032 0.036808074 0.118428044 0.00014958646
-0.116495214 -0.017532878 -0.18403238 -0.07005672 0.004628127 -0.020478973 -0.075473554 0.030484786
-0.040305495 -0.107508555 -0.036987685 -0.026945507 -0.035255194 0.09088655 -0.058921058 0.034196492

main_network.lstm.weight_hh_l0 f4 [256, 64]
00000000: 3278 febd 755f 10bd de3e 46be d9fd b93d
00000010: c923 053d c733 d2bc 94b1 0d3e 0b52 3dbe
00000020: 4a4a 9bbd 561f dfbd e801 ecbc c10b a03d
00000030: 8ee3 143c dc03 ec3d e54b c43c 1840 dbbc
00000040: ba28 85bd 427c 873d ac8f b83d 1a47 3bbd
00000050: cf41 46bd cab6 21bd b1c0 4b3d f11a 863c
00000060: 369d a9bd 7315 1ebe e54f 153e 4b6c 27bd
00000070: 966d c03e 6cee 68bb 385b 853c 1755 1abe
00000080: ac79 6fbd 41fc cfbc b07f 3cbd e9fa afbc
00000090: 7ad9 e63d 5ced a33d fe22 a5bd 51ec 7d3e
000000a0: d3d5 89bd 4f2b b83d 9a3a 48bd f0c0 97bd
000000b0: bd23 67bd a676 163e dce5 f03c 65ab 543e
000000c0: 9dfd d83b d212 413d b331 773d 4bb0 67bc
000000d0: 1235 2d3e 2587 a23d d0fc 90bd c41f 6c3d
000000e0: 44f2 06bd a7c1 993d c395 063e c0d7 1bbe
000000f0: ef13 37bd ed59 383d 799c 0b3e 35aa b83c
00000100: 90a0 7b3d 8f77 07bd 8512 34bd cb75 85bd
00000110: 5549 1d3e b8e1 333d bb28 663e cb0c b4bd
00000120: 7fd3 42bd 0f21 163d 8c89 343b 0d50 b5bc
00000130: 5a4c 0b3d 2772 4b3d 0b7d 26be e273 093c
00000140: 2b00 b9bc 2822 3fbb 8076 f4ba a4a9 84be
00000150: 2226 523d 98f3 2abd 91da 0bbe e54c febc
00000160: fb5a 04bd 8a01 b53d fbf8 b9ba 00b5 19be
00000170: a4b5 173e 5a3c e4bd 0ba9 7fbd bca9 9abd
00000180: 396c 20bd 23bc 173e e7d7 21bd 630e 0b3d
00000190: 1082 8e3d 9266 1b3c 703e 0cbe 3cab 0a3b
000001a0: 40eb 8a3d fdfc 123d 2afa f43d 9d10 0c3e
000001b0: 37aa 56be c24b ddbd 8c67 21bd 25c4 a23c
000001c0: 5acd e23c e453 aabc d7e9 c4bd 7938 3abe
000001d0: 820d 373d 61eb 683d 2a3f c2bc 09e0 593d
000001e0: 4799 153e 7e79 84bc f727 063c 7f5e 333d
000001f0: fb82 2ebd 98ff 453e ed47 a53d 4916 a63d
00000200: 8442 beba 5698 f53d 8249 df3d dbde 513e
00000210: bc8c 7ebe 5960 1b3d bca1 b3be 8221 b7bd
00000220: d286 143d b82b 7b3e 88f4 2bbe 7912 ddbb
00000230: e3f4 083e f43a 883e 04ee 323e 01de 5f3d
00000240: 69ee 8bbd 23a2 6cbe 0de3 693d 2d97 6f3e
00000250: 95cd 53be 424e 183e 1c7e 80bd 1a2c b9bd
00000260: facf a53d bbf7 cb3d 82d5 8b3d 5023 0bbd
00000270: 0e88 fabd d3b4 1f3d 23b2 02be 9d79 86bd
00000280: 49b8 5a3d ed08 bebc 6583 68be c8cb aa3c
00000290: 254d 303e 698c 133e c691 3c3e e1d0 88be
000002a0: e934 3cbd 5b7c 56be 4df4 15be 095f fdbd
000002b0: 3410 233e cf51 243d 93ba 1e3e 953c 49be
000002c0: 0c10 08be caa6 5f3e cc00 35bc 40e3 213c
000002d0: 88fb 89bc 6b54 fcbd 796a 053e 578c 323e
000002e0: c858 f3bd 37d8 0dbd 95ed 45bb 10be a6ba
000002f0: 0d85 253e 1d9b 99be b9ae 883e 1bfc 1cbe
00000300: fd7e 6bbd fc49 8bbd 88f8 01be a20a 3e3e
00000310: 766e b2bd d2b7 8e3d b662 59bc d1f9 3ebe
00000320: 69a5 ff3d dc9b 063d 3682 10bd 0bb2 673d
00000330: a8f8 17bd 0d5b 023e 3fec 0e3e 17cc da3d
00000340: 5c44 ae3d 167c 0a3d 8185 cbbc c198 573e
00000350: 3e88 553d 0dc7 ea3c 010b 413d 4f75 04be
00000360: 470b 74bd dfb6 98bd 1d44 d43d f1f0 383d
00000370: 25ff 33bc b867 ba3d 2d1a cdbd d9f1 2cbe
00000380: 91c5 00bd 4403 d03d d63e 52bd f98f 9ebd
00000390: 3697 bd3c f8f2 a23d b4c3 213e dede 29bd
000003a0: 4bdd 3abe fbfb e53c ecb7 8b3d 787d d1bc
000003b0: b31a 0e3e 4bac 0d3e f353 c53d 7394 6cbe
000003c0: fea5 cebc d9e9 143d 144d 713e 2b6e 113d
000003d0: 7678 81bc b721 c7bd 3fca 263e c25e 0b3e
000003e0: dd4d c9bd 6e35 2ebd 1e8c 133e 0df4 39be
000003f0: 2479 97bd be81 b7bc d997 463e c0aa dabc
-0.12425269 -0.035247285 -0.1935992 0.09081621 0.03250483 -0.025659455 0.13837272 -0.18488328
-0.07582529 -0.10894649 -0.028809503 0.07814742 0.009087456 0.115241736 0.02396197 -0.02676396
-0.065019086 0.06615497 0.09011778 -0.045722105 -0.048402604 -0.03948096 0.04974431 0.016370269
-0.08281939 -0.1543787 0.14581259 -0.04087476 0.37583607 -0.00355425 0.016278848 -0.15071522
-0.058465645 -0.025388839 -0.04602021 -0.021481948 0.11271949 0.08004257 -0.08063315 0.24797179
-0.06730237 0.089926355 -0.04888401 -0.07409847 -0.056430567 0.14693698 0.02940648 0.20768507
0.00662203 0.04713709 0.06035013 -0.014141153 0.16914776 0.07935933 -0.0707947 0.05764748
-0.032945886 0.075076394 0.13143067 -0.15219021 -0.044696745 0.045007635 0.13633908 0.022542099
0.06143242 -0.033073004 -0.043962974 -0.06516608 0.15360005 0.043916434 0.22476475 -0.087915026
-0.04756498 0.03665262 0.0027547805 -0.022132898 0.03400836 0.04966941 -0.16258638 0.008389445
-0.022583088 -0.0029164646 -0.0018651038 -0.25910676 0.051305898 -0.041736215 -0.13657595 -0.031042526
-0.03231333 0.08838184 -0.0014188582 -0.15010452 0.14815384 -0.11144324 -0.06241707 -0.075519055
-0.03916571 0.14817862 -0.03951254 0.033949267 0.06958401 0.009484904 -0.13695693 0.0021159193
0.067831516 0.0358858 0.119617775 0.13678212 -0.2096337 -0.10805465 -0.03940539 0.01986892
0.02768581 -0.020791955 -0.09614914 -0.18185605 0.044690616 0.0568651 -0.02371176 0.053192172
0.14609252 -0.016171213 0.008188239 0.04379129 -0.04260538 0.19335783 0.080703594 0.08109719
-0.0014515673 0.119919464 0.109026924 0.20495169 -0.24858373 0.03793368 -0.3508433 -0.08941938
0.036261387 0.24528396 -0.167925 -0.006746587 0.13374667 0.26607478 0.17473608 0.05465508
-0.068325825 -0.23108725 0.057101298 0.23397513 -0.20683892 0.14873603 -0.062740535 -0.09041615
0.08096309 0.0995936 0.06827833 -0.033969223 -0.122329816 0.038990807 -0.12763266 -0.06566165
0.053398404 -0.023197616 -0.22706373 0.020849124 0.17216928 0.14409031 0.18414983 -0.26721862
-0.045948897 -0.20945875 -0.14643975 -0.12371642 0.1592415 0.04011708 0.1550086 -0.19652016
-0.13287371 0.21840969 -0.011047553 0.009880841 -0.016843572 -0.12320789 0.13028897 0.17436348
-0.11882168 -0.034630027 -0.0030201424 -0.0012721438 0.16164036 -0.30001155 0.26695803 -0.15330546
-0.057494152 -0.06801221 -0.12692463 0.18558744 -0.08712475 0.06968655 -0.013268163 -0.18649985
0.12482721 0.032863483 -0.03528043 0.05656628 -0.03710237 0.12730046 0.13957308 0.10683458
0.08509132 0.033809744 -0.024843933 0.21054365 0.052131884 0.028659368 0.047129635 -0.12935375
-0.059581067 -0.07456755 0.10364554 0.045151655 -0.010986124 0.09101814 -0.10014758 -0.16889133
-0.031438414 0.10156873 -0.051329456 -0.07742304 0.023143392 0.07956499 0.15797311 -0.04147231
-0.18248479 0.028074255 0.0682219 -0.025572523 0.13877372 0.13835256 0.09635153 -0.23103504
-0.025225636 0.036355827 0.23564559 0.035505455 -0.01580451 -0.097232275 0.16288088 0.13610366
-0.09829304 -0.042531423 0.14408919 -0.18159504 -0.073961526 -0.022400733 0.19393863 -0.026692748

main_network.lstm.bias_ih_l0 f4 [256]
00000000: 6e6f bfbd 1af7 0fbe 3fda fd3d c8ca 0f3d
00000010: 5b49 c8bd 2ae3 ecbd 3c61 9039 b7b0 6fbd
00000020: a1fc 4cbc 5ccd 3b3e c0db 89bd bf43 f83c
00000030: 47ba b13d c808 b93d ebe6 143e f15f 973d
00000040: c37f cebc 123a 283e 8463 aa3d af48 3dbe
00000050: 86b6 ebbc 7368 af3d 17d7 1cbe 01a7 8f3d
00000060: 0b13 b4bd ba30 c0bc a639 0abd ace6 d73d
00000070: f611 953e 3e10 41bd 0698 73bc e3d1 5e3d
00000080: ef78 003e d910 54bd c6fc ba3c 3f53 9b3c
00000090: de8b 003d 1707 97bc 1a65 eb3d eeee 193e
000000a0: 16fd a73d 5842 8a3d 0389 ffbd 8e3d 663e
000000b0: 6c70 833d 2f64 e23d be08 5ebd 842f 8a3d
000000c0: 2d07 4c3e 641a fc3d 978d 7a3a 1726 993c
000000d0: d4f7 573d a373 0fbc a3b3 eb3d 45f8 033e
000000e0: e6bc d1bc b934 b93c b366 6dbd f43a 5c3d
000000f0: 2865 a5bc 8d94 0f3e 50e7 ba3d 258a 9e3d
00000100: d6df 2fbd f6db 30bd 1ec1 adbd 94be db3d
00000110: ffa9 7a3d bd38 ac3c f85d 553d 2f76 d2bd
00000120: d2f2 14bd d2b1 bdbd d3f8 c83d 388d 8d3c
00000130: d7b7 093d 58cf e13d 6e15 243e ecae 983c
00000140: 25a3 99bd 0650 8a3d eeb5 b13c 8966 88bd
00000150: 96d4 523e c59d ab3d 2987 e63d a7b4 653c
00000160: 0b31 40be 2d97 51bd 9d9d e8bc b473 9cbd
00000170: 48eb af3d 3486 4cbd f0bd 0abe aa56 293d
00000180: 5bce a4bd fe0c a8bd 9444 d13d 6ff5 dfbc
00000190: c10d 7cbc 573f 34bd 04b8 1a3d 9f01 2ebc
000001a0: 9ed8 81bd 560a a1bd 2b7b bc3d 0985 d6bd
000001b0: 8423 8d3d 33a6 3bbe ed34 073c fb81 ffbd
000001c0: 5ac4 443d 72a0 eebd beb7 2bbd baf4 27be
000001d0: 200e 2f3d b71a 393e 64fd 8a3c b133 89bd
000001e0: 0267 923c ac7f 67bd cf32 893c d07b fabc
000001f0: 1a9d b93d 305e e2bd bb3a 14bd 6671 87bc
00000200: 980c f7ba 0227 b33d 4895 b9bc 08da 92bd
00000210: 27e4 283d 9043 25bc 6595 fc3d 0e15 4bbd
00000220: 3f7a 273d 94ae c03c 074c 9f3d d8cf 1d3d
00000230: 3a19 0e3e 1e5d 943d 7ad7 2b3d 9fe3 9c3a
00000240: 2a50 22bd b3a8 36be 2bd8 92bd e65c 67bd
00000250: 1705 b6bd 6c5b 13bd aef5 b0bc eb9b 173e
00000260: 709a 883d 9037 f4bc b4a8 3c3d 4000 cd3b
00000270: 94ca 27be 1899 94bd d58f ba3d 1fb3 dabb
00000280: c6ce 323e 56a9 79bc 0f30 1abe c789 c03d
00000290: 0656 ce3d 8519 eb3b 9d59 fd3d 5daf 0abd
000002a0: d27e d0bd fb8f aa3d 6dcb 84bc 0af2 afbd
000002b0: 60ac b83c b3af 223c a027 1f3e 5755 3ebd
000002c0: 23fb 14be edfd 2c3e 84fd 54bd 7afc febc
000002d0: 5f27 1cbe 742d ffbd cc69 48bc 4964 0abe
000002e0: 3d89 c1bd 8b55 1b3d c4dd 95bd 5302 e23d
000002f0: 8936 d53d c58f e4bc dc1e 54bd 6d73 9dbd
00000300: 2752 0a3b 76f8 a13d 47b3 be3d 9620 c63b
00000310: 50b6 a03b c857 e5bc 6a6a 243c a54d a9bd
00000320: a60f 693d 6d08 353e 8108 b8bd c5fc 8e3d
00000330: a515 3bbd 30ce 6e3d 8584 c3bc 2ff7 a33d
00000340: eef8 58bc 2cab 863c f727 ecbd 07d8 4ebc
00000350: 01d5 f03d 2543 e2bd 4767 c9bd c1f2 5abd
00000360: 3f57 c33d b302 483c f17d cf3a 14ef a63d
00000370: 65b2 033e de33 933d b1bd cf3d 1432 9ebd
00000380: 3c12 cd3a a761 3d3c 5902 c33d ab4e 113e
00000390: 1f80 8e3b 1cc5 efbd b265 0e3e 6fff 2f3d
000003a0: f1cd 1d3e 06fb d0bc f3ef 113d 753d 7d3e
000003b0: e03a 1d3d a720 bd3d 7979 d03d bbc1 8abc
000003c0: b952 8e3c 3ac2 dc3d 12cf 183e 295a 7c3d
000003d0: df1a c33d 0fe3 303e 679b 083e 46cf 88bc
000003e0: 1b4c ff3d c176 103e 696d e93d 74ff cabd
000003f0: 2671 57bc 8156 c43d 18b7 0e3e 248f 603e
-0.093474254 -0.14059106 0.12395143 0.035105497 -0.097796164 -0.115667656 0.00027538266 -0.058518138
-0.012511403 0.18340057 -0.06731367 0.030305741 0.08678108 0.09034878 0.14541213 0.07391346
-0.025207406 0.16428402 0.08319762 -0.18484758 -0.028773557 0.08564844 -0.15316425 0.07014275
-0.08792695 -0.023460735 -0.033746384 0.10542044 0.29115266 -0.04713463 -0.014867788 0.054399382
0.12546133 -0.05177388 0.02282561 0.018960593 0.031383388 -0.018435998 0.11493893 0.1503255
0.08202569 0.06750935 -0.12477305 0.22484419 0.06417927 0.11054265 -0.054207556 0.06747344
0.19924612 0.12309721 0.00095578417 0.01869492 0.05272658 -0.008755597 0.11508872 0.12887676
-0.02560277 0.022608148 -0.05795927 0.05376716 -0.020189837 0.14021511 0.091261506 0.07741193
-0.042938076 -0.04317852 -0.084841 0.10729709 0.061197277 0.021023149 0.05209157 -0.10276448
-0.036364384 -0.09262432 0.098130845 0.017279252 0.03362259 0.11025876 0.160238 0.018638097
-0.075018205 0.067535445 0.021693196 -0.06660182 0.20588908 0.083797015 0.112562485 0.014020122
-0.18768708 -0.051169563 -0.028395468 -0.07639256 0.08589798 -0.049932674 -0.13549018 0.041342415
-0.08047172 -0.08205603 0.10218158 -0.027338712 -0.015384139 -0.044005718 0.037773147 -0.010620504
-0.063401446 -0.078632995 0.0920318 -0.10474593 0.0689154 -0.18325119 0.008252365 -0.12475964
0.048038818 -0.11651696 -0.041923277 -0.1640195 0.04273808 0.18076597 0.01696653 -0.066993125
0.017871384 -0.05651824 0.01674786 -0.030576617 0.09063168 -0.11053121 -0.036188822 -0.016533565
-0.0018848358 0.087476745 -0.02265419 -0.071704924 0.041233208 -0.010086909 0.12333182 -0.049580626
0.040888067 0.023520745 0.07778173 0.038528293 0.1387681 0.07244323 0.04195354 0.0011969692
-0.03962723 -0.17837791 -0.07170137 -0.05648508 -0.088876896 -0.03597586 -0.021601524 0.14805572
0.066700816 -0.02981165 0.046059325 0.0062561333 -0.16385871 -0.07255763 0.09109465 -0.006674185
0.1746169 -0.015238127 -0.15057395 0.09401279 0.100750014 0.007174673 0.12370608 -0.033858646
-0.10180439 0.08328243 -0.016210282 -0.08591087 0.022543132 0.009929585 0.1554246 -0.046468105
-0.14548926 0.1689374 -0.051999584 -0.03112625 -0.15249394 -0.12459841 -0.012232255 -0.13514818
-0.09450004 0.037923377 -0.07317689 0.110355996 0.104107924 -0.027900586 -0.051787242 -0.07688031
0.0021106096 0.07908718 0.09311538 0.006046365 0.004904546 -0.027995959 0.010035137 -0.08266763
0.05689969 0.17678995 -0.08985997 0.06981806 -0.04567494 0.058302104 -0.023866901 0.08006131
-0.013242943 0.016439043 -0.1153106 -0.012624747 0.11759377 -0.11047963 -0.09834152 -0.053454164
0.09538125 0.012207675 0.001583038 0.08151069 0.12861021 0.07187627 0.10143603 -0.077243954
0.0015645693 0.011558927 0.09521932 0.14190166 0.0043487693 -0.117075175 0.13905981 0.04296821
0.15410592 -0.025510322 0.035629224 0.24730475 0.038386226 0.092347436 0.10179419 -0.016938081
0.01737343 0.10779233 0.14922741 0.06160942 0.0952661 0.17274116 0.13340531 -0.016700398
0.12465688 0.14107801 0.113978215 -0.09912005 -0.013149535 0.09586812 0.13937032 0.21929604

main_network.lstm.bias_hh_l0 f4 [256]
00000000: e351 dd3c 91bf 77bd 4dfe f93d e6e0 2c3d
00000010: 1cbc 91bb ca00 b1bc ac1f 4c3d 104f 1c3d
00000020: 1bd7 92bd eb86 1b3e 76b5 c2bd 6334 873d
00000030: 195b 5dbd 5d06 97bd a80e 5a3e 58c2 3a3d
00000040: 3e1d 8a3d 8f80 933d 4ee1 913d 5028 4ebe
00000050: be36 d83d a449 1abe 52dd 5e3c 3b9d 3cbd
00000060: 6aad af3d 7bae 953d 1510 1a3d 1df5 4d3e
00000070: 7bb7 8c3e 2551 b33d ba5e 56bd 3990 0d3d
00000080: 7ee8 223d aaf2 5b3d a4e3 873d d017 cfbc
00000090: 1601 aa3d 7a97 8bbd e871 19bb 9c6e fc3d
000000a0: 2c4b 5b3e 3ff9 14be 88d1 a73d 0cef 2c3d
000000b0: 8d69 0abd 4879 9e3d e6eb 0ebd ceaf fa3d
000000c0: 0755 623e ed13 2b3d ffe2 e9bd f6f4 933d
000000d0: 1f73 703d 3ab1 343e 94ef 09bd 0396 f53d
000000e0: dfde cd3d 82d1 20bd 3228 98bc d450 d6bd
000000f0: c8b4 483e b854 853d 1a8b 57bd 6174 173e
00000100: 6c84 6c3d 9e52 5cbd a1d9 f1bd ea15 fc3c
00000110: 7b60 e4bd 9cfd 453a b95f cdbd 3166 13be
00000120: 6550 a03d 3d7c 2bbe 27c9 d2bb 15e9 0fbd
00000130: 5c5e e93d cc91 833d fbb2 7d3d 5c72 04be
00000140: 208b b93d fc53 ed3d c4ea b3bc d722 81bd
00000150: 3ea5 703d eab8 18be 7e2b e13d 419c efbd
00000160: 8184 c5bd 2642 4bbd c26e ac3c 1917 51be
00000170: b138 00bc bf26 f7bc 70d5 843d 46d0 a8bd
00000180: ad71 133e 19a8 67be aad0 313e 4554 f53d
00000190: 6e36 8dbd 1400 bbbd e39b 343d f7b5 b73d
000001a0: b6e5 d6bd 8f55 9cbd 03df 053e 58b9 0dbe
000001b0: 4dd7 bdbd 9629 573d cf34 453e 9b0f b0bd
000001c0: 3b69 633e 3e71 aebd 72bd 15bc 4de6 f0bc
000001d0: 857a 813d 6246 433e 7ffb 27bd 3ba0 f83d
000001e0: 737b 3a3d a5fd 973d 7054 133b ca8f 17bd
000001f0: 5654 d13d 7856 23be ba76 bdbd 46db a9bd
00000200: 12aa d63d 821e 403d 214b f43d a855 17bd
00000210: 1039 c2bd c5a9 09bd 54b4 013c 6d97 f33c
00000220: 59f0 ed3d c9f7 ac3d 4200 0a3d 8604 31bc
00000230: fd25 0cbd 899d 163c 27c3 473e db8e dd3d
00000240: caea 7b3d 7bd4 03be a345 dfbc e18f d7bb
00000250: 516a 35bd 8589 e6ba 433b 843d 220d 253d
00000260: 9cdd 973d 2fa8 c83c 4b6f edbd 938a 013e
00000270: 4469 c6bd 3208 423c 512a aabd 6dd2 9ebc
00000280: e099 8a3d fce3 18bd c9a4 09bd 6bf0 27bd
00000290: ef9c cb3c 6796 12bd 20f1 b5bd b5fd 79bc
000002a0: 9b90 d33d d513 3dbd 46f2 1ebe 9bb2 7c3c
000002b0: b93e df3d 56d7 25bd 4fe6 7f3d 1a18 893d
000002c0: 0fc5 fabc 658a b13c c57c b5bd 758d 663d
000002d0: 9513 6d3d 5155 27be 2cf9 18be dc8c 02be
000002e0: 3a7d 25be 6bc0 6e3d 96a9 54bd cbb6 033e
000002f0: 688c f53c dc50 9bbc 6344 5cba 8830 253d
00000300: 5152 af3d 8bb2 33bd 1d02 26bc 28aa ec3d
00000310: 85f2 f43d 3ea0 bcbc d319 253e c52c cbbd
00000320: 95da d93c 20f1 283e f6a2 16bd 9d49 183d
00000330: aa92 98bc 610d 3ebd 01fa 2e3e 3b8d e83c
00000340: 244e 01bd 9667 973d 3d5c ce3d 252c 5f3c
00000350: 05ca 9c3d b1cd a63d 10b9 0bbe 0520 913c
00000360: a353 003d 9017 773c df53 ae3d cbc2 313c
00000370: 845b 7e3e 07d3 e5bd c698 9abd 09f9 d13d
00000380: 9bc0 9a3c fa8c 1c3d 7c4e 3b3e a445 bfbc
00000390: 2ce6 89bd e044 81bd cc36 a6bc ee93 e83d
000003a0: f773 543e dfd8 26bd 170e e8bd da3c 2e3e
000003b0: 999c 7c3d 8f3b 133e e08c 4b3e fe26 89bd
000003c0: 5eb9 103d b5fd 8e3d 3e3c a9bb 5094 493d
000003d0: 6fd0 e0bb 03c9 d23d 7d87 d93c 92c6 91bc
000003e0: 5ea5 21bd b1ff 113e 6713 e13d 3b65 a2bd
000003f0: e3b6 2e3e 5ca6 913d 91e9 863d 7b7a 333e
0.027016586 -0.060485426 0.12206707 0.042206667 -0.004447473 -0.021606822 0.049834892 0.038161337
-0.07169934 0.15188186 -0.09507267 0.06601789 -0.054041956 -0.073742606 0.21294653 0.045595497
0.06743859 0.07202255 0.071230516 -0.20132565 0.10557316 -0.15067154 0.013602572 -0.046048384
0.08577998 0.0730867 0.037612993 0.20113035 0.27483734 0.087557115 -0.052336432 0.03456137
0.039772503 0.05369822 0.06635216 -0.02527991 0.083009884 -0.06816001 -0.002341384 0.123257846
0.21415395 -0.14548205 0.08194262 0.04222016 -0.033792067 0.07737976 -0.03489294 0.12240563
0.22102748 0.04176705 -0.11420249 0.07224457 0.058703538 0.17645732 -0.033675745 0.11991503
0.10052275 -0.039262302 -0.018573854 -0.104646355 0.19600213 0.065102994 -0.052622892 0.14790489
0.057743475 -0.053789727 -0.118090875 0.030772168 -0.11151215 0.00075527444 -0.10028023 -0.14394452
0.07827834 -0.16746612 -0.0064326706 -0.035134394 0.11394951 0.06424293 0.061938267 -0.1293425
0.09059739 0.115882844 -0.02196253 -0.06305473 0.058751337 -0.14914289 0.109946236 -0.11699725
-0.09644414 -0.04962363 0.021048907 -0.20418967 -0.007826016 -0.030169843 0.064860225 -0.0824285
0.14398833 -0.22622718 0.17364755 0.11978964 -0.06895147 -0.09130874 0.044093978 0.08970254
-0.10493033 -0.076335065 0.13073353 -0.13840234 -0.09269581 0.052529894 0.19258426 -0.085967265
0.22208111 -0.08517693 -0.009139406 -0.029406691 0.06322197 0.19069818 -0.04101133 0.121399365
0.045527887 0.07421426 0.0022480749 -0.037002362 0.10221164 -0.15950954 -0.09251161 -0.08293776
0.10481657 0.046904095 0.11928392 -0.036946923 -0.0948354 -0.03360917 0.007916529 0.029735291
0.11618108 0.08445699 0.033691652 -0.010804301 -0.034215916 0.009192833 0.19508038 0.10818263
0.06150321 -0.12874024 -0.027254885 -0.006578431 -0.044290844 -0.0017588591 0.06456616 0.040295728
0.074153155 0.024494259 -0.11593493 0.12650518 -0.096880466 0.011842774 -0.083088525 -0.019387448
0.067676306 -0.037326798 -0.033604417 -0.041000765 0.024855105 -0.035787966 -0.088838816 -0.015258242
0.10330316 -0.04616149 -0.15522107 0.015423442 0.10900635 -0.040488563 0.0624755 0.0669405
-0.030611543 0.021672437 -0.088616885 0.056287248 0.057880003 -0.1634114 -0.14938802 -0.12749046
-0.16161051 0.058288973 -0.051919542 0.12862699 0.029974177 -0.018959455 -0.00084025244 0.040329486
0.085606225 -0.043871444 -0.01013234 0.11555892 0.119603194 -0.023025628 0.16123132 -0.099206485
0.026593486 0.16498232 -0.036776505 0.037179578 -0.018624622 -0.046399478 0.17087556 0.028387656
-0.03156866 0.07392804 0.10076187 0.013621365 0.0765572 0.08144701 -0.13644814 0.017715463
0.031329762 0.015081301 0.08512091 0.010849665 0.24839598 -0.11221891 -0.075486705 0.10252578
0.01889067 0.038220383 0.18291658 -0.023348637 -0.06733355 -0.06311965 -0.020289801 0.1135634
0.20747362 -0.04073417 -0.113308124 0.170154 0.06167278 0.14378189 0.19877958 -0.0669689
0.03533303 0.069819845 -0.005164652 0.049213707 -0.0068607847 0.10292246 0.026553864 -0.017794881
-0.039464347 0.14257695 0.10990029 -0.079294644 0.17061953 0.07111809 0.06587518 0.17527191

main_network.fc.weight f4 [3, 64]
00000000: a231 7f3c b13c 7c3b c92c ffbc 8414 0fbd
00000010: 3cdb 303e 4a53 e73d e6e3 963d 01d3 82be
00000020: e388 a63c 95b4 adbb df31 2b3d 90cc 15bd
00000030: bcd4 19bd 03e0 14be 6e67 06be 67e5 373d
00000040: e814 92bc 80a5 cb3c a6db bcbd b75e 423d
00000050: 474c 88bc 57aa 273d d36d 14bd aedb 813d
00000060: acfc ad3d c17c a43d a706 9ebb c979 773d
00000070: 76a8 c3bd beb1 a83c 1b60 99bc 5447 08bd
00000080: 890a e63c 3f50 c9bc b2c5 2ebd 2428 80bd
00000090: 891b c5bd 2d5f 143d 454c 4a3d 0fea aa3d
000000a0: 1e74 b8bd dda1 20bd 3abc b03d 2ddd 02bd
000000b0: 7da3 f23c fc94 d5bd 7e3c eabd 0fde 54bc
000000c0: 3072 04be 5e85 893c c661 79bd 748b 843c
000000d0: ad4c 1d3d 754f e73b 1818 0dbc 620a 8ebd
000000e0: 87d4 a5bd df52 713d 9a49 08bd 7c6f ab3c
000000f0: 35ca debc ffa3 193e 4015 0c3d ad07 2abd
00000100: a6a5 bd3c 1721 9fbd e696 a13c 0a45 12bd
00000110: ca1e 8d3d 4627 4bbd ad24 f63d 0fcd 87be
00000120: 0b8a 53bc 12eb 51bd 7088 9b3d bba1 8bbd
00000130: 74d9 b3bd a9f9 15be 0707 413d be40 673d
00000140: 9c54 a7bc 642f b4bd a964 393a d5ea 5e3d
00000150: ae6a 05bc 652f 403b 79dc b63d 40bc be3d
00000160: abeb 33be 891b d53b 757a 823c ba07 a4bc
00000170: 2e2f aabd 271a 223d 55c1 0e3e 139f a4bd
00000180: a068 16bd 6c05 06bd 8447 a1bd fe9c 483d
00000190: 5125 d33d 6c3d b8bc bb98 613d c31d 803d
000001a0: da62 573d a075 5dbd 2f4e b63d 2cdf 5bbc
000001b0: 48dc 6b3d 1c67 a1bd 821f acbd 239f c1bd
000001c0: d8f9 4c3c c729 1dbe 9ef9 35bc a5fd e6bc
000001d0: b44c b5bc 2744 3abd 2b15 0a3d 7d5d 083d
000001e0: 7154 2d3d 1192 1c3e b489 043d 8f02 2abc
000001f0: a778 a53c 49f0 6cbe 4bfa b53d ca44 363c
00000200: 8442 ecbd acdb 703d da2f 7a3e 0450 1a3e
00000210: 8de2 83be 6935 c93d f1b1 5abe ecbd 2c3e
00000220: 6266 9c3d 3e75 283e 312a 4b3c 8a00 26bd
00000230: 5145 73bb a2ed 1f3e 0265 e33d 0ff2 b93d
00000240: d53f abbd a594 90be 9c15 ec3c 91cb 643e
00000250: 12b3 2dbe 8afe f23d 3403 dbbd 0b71 873e
00000260: b36e c5bd c83d bf3e 8aab 82be fcf3 843e
00000270: f413 82be 1ce6 8f3d 99e6 edbd e9b2 50bd
00000280: 66bb b13e d7f4 9e3d 1c60 56be cb1e bb3c
00000290: 9470 5c3b a646 fd3c a9b3 533e cca1 6bbe
000002a0: 8fb3 46be e49f 81be 876b babd ca23 5b3e
000002b0: 12cb 9d3e 0b32 2ebe 52cf 163e 4406 7fbe
000002c0: 0351 52be 4b86 253e 6924 1bbe efac 2b3e
000002d0: 316a e4bb bd50 4bbe 9c82 9bbc 9cd7 8ebb
000002e0: 2053 6cbe 9249 653e f199 8cbe d6d9 e7bd
000002f0: 6d2d 013e 9559 41be 8d2c 9dbd 62fe 2d3e
0.015575798 0.0038488323 -0.031149285 -0.034931675 0.17271131 0.11295183 0.07367687 -0.25551608
0.020328945 -0.005301068 0.041795608 -0.03657204 -0.037556395 -0.14538579 -0.13125393 0.04489651
-0.017832235 0.02485919 -0.09221582 0.04745361 -0.016637934 0.040933933 -0.03623755 0.06340729
0.08495459 0.080316074 -0.0048225704 0.060418878 -0.09553616 0.020592567 -0.018722584 -0.03327115
0.028081195 -0.024574397 -0.042669006 -0.06257656 -0.096243925 0.03622358 0.049389143 0.083454244
-0.090065226 -0.039216865 0.08629651 -0.03194921 0.029618973 -0.10428807 -0.11437319 -0.012992396
-0.12934184 0.016787227 -0.06088426 0.016179778 0.0384032 0.0070590326 -0.008611701 -0.06935574
-0.08097177 0.058916923 -0.033273317 0.020927183 -0.02719603 0.15003966 0.034199953 -0.041511226
0.023150276 -0.07769983 0.019725274 -0.035710372 0.06890638 -0.049598 0.12018714 -0.26523635
-0.01291133 -0.05124957 0.07594383 -0.06817957 -0.0878171 -0.14646019 0.047125842 0.056458227
-0.020426087 -0.087981015 0.00070721895 0.054423172 -0.00814311 0.0029325124 0.089287706 0.093132496
-0.17570369 0.0065035266 0.015927533 -0.020023216 -0.0830978 0.039575722 0.13940938 -0.080381535
-0.036720872 -0.032720014 -0.07874969 0.048977844 0.10309852 -0.022490226 0.055077296 0.062556766
0.052584507 -0.054067254 0.08901631 -0.013419908 0.057583123 -0.07880995 -0.08404447 -0.09454181
0.012510739 -0.15347968 -0.011106877 -0.028197119 -0.022131301 -0.04547515 0.033711594 0.033292282
0.042316858 0.15290095 0.032357886 -0.010376587 0.020199133 -0.23138537 0.0888563 0.011124799
-0.11536124 0.058803245 0.24432316 0.15069586 -0.25758782 0.0982464 -0.21356942 0.16869324
0.076367155 0.16450974 0.012400196 -0.040527858 -0.0037120173 0.15617993 0.1110325 0.09079372
-0.08361784 -0.28238407 0.028818898 0.2234328 -0.16962841 0.11864956 -0.1069397 0.26453432
-0.09640255 0.37351823 -0.255215 0.25967395 -0.25405848 0.07026312 -0.11616249 -0.050951872
0.34713286 0.07761543 -0.209351 0.022841832 0.0033636438 0.030917477 0.20674004 -0.2301094
-0.19404434 -0.253173 -0.091025405 0.21400371 0.30818993 -0.17011277 0.14727524 -0.24904734
-0.20538716 0.1616451 -0.15150608 0.16765188 -0.006970667 -0.19855018 -0.018983178 -0.0043591987
-0.23078585 0.22391346 -0.27461198 -0.11320846 0.12614985 -0.18881829 -0.07674513 0.1699157

main_network.fc.bias f4 [3]
00000000: c79a bd3d 518f a13d 05ec 1f3d
0.09258037 0.078886636 0.039043445

short_term_context_network.fc1.weight f4 [32, 7]
00000000: 07a7 64be 7721 f63d c567 bdbe 9f7c 4dbe
00000010: e8e8 393d bea6 843e 54d6 2ebe 6638 d93e
00000020: 38d0 22bd 0a3f e1bd 9861 00be 25bb 043e
00000030: c0da 2c3e 7992 1a3f 2d21 443e 101c b8be
00000040: b019 983e b75d 863e 28e2 0c3f c00a 633f
00000050: 89d7 21bf a865 03bd 3ad2 1abe 8f66 4ebe
00000060: 3ae5 fd3d ac43 b5be 6ca4 993d e24f f73d
00000070: 22e2 8ebe 57d0 99bc fd15 003e 619a a0be
00000080: a84e 363e af4c a73d 378a 1e3f ae3f 97bd
00000090: c4ef 813e 5b16 093e 881e 983d e78b 273e
000000a0: 7d43 923e 1304 fd3d f111 4cbe 1da6 1bbe
000000b0: 7684 05bd 9105 f93d 83a5 b7bd f1b4 a7be
000000c0: 9e6a 03be 4ca9 c6bd cd99 c03e cfd0 8a3d
000000d0: b309 6d3e 2a1c cc3e 5950 133e 43c6 58be
000000e0: 3531 63be 92a3 b8be 539f c7bd 549e 0ebe
000000f0: e447 153e 88f9 01be d19f 8dbe face 4abd
00000100: 1453 1ebe d201 553e c072 d33c fcec dfbe
00000110: 046f 913e 6d23 bc3e 6384 203e fe38 a23e
00000120: 8c77 f13d 1c9c a3be f9bc 193f 1f43 223f
00000130: 96ef 16bf fcb4 82be 8dd3 a83d 8d41 36be
00000140: a34e 1e3e 700e 0540 5140 f93f a8b7 5c3f
00000150: 28c3 00bf 14ff 44be 12dd a9bd 623f 7dbe
00000160: c817 2bbe d53d efbd 82a4 763f 05dd a5be
00000170: eb6e a33e 0bd6 243e 465b 0c3e 5c37 ac3e
00000180: b96b b63c 8764 073f 2570 01bb 8f51 6b3e
00000190: d9cc fd3d 9e25 38bc fe9b 473d df68 3d3d
000001a0: df7e bebe 4789 293f fdb4 e73b adae 363c
000001b0: ea81 413e 4ca3 1cbf a0db 80bf 0ca0 273c
000001c0: fe60 183e 8b38 f83d bc37 193d 165d 513e
000001d0: 673c 3b3f ed4c 1e3f e25f cabe 9bcb 483f
000001e0: 8755 7c3c 82a2 863d 2abb 823e 742b d7bd
000001f0: a007 9a3e 45d0 283f 5b2e 1c3f 8b7d 44be
00000200: 3b31 753e 0f42 8fbd 8ac5 f3be 780d 9abe
00000210: d6de bcbe 3b6e b83d 0aa8 b33c e9a2 9e3e
00000220: d24d 013e c7ee 593e c034 b63e 2640 34bd
00000230: 2bf5 5abd e8bd 943e d25e 9a3e a688 9a3e
00000240: c847 68be 8d7c e8bd f063 9f3e d62e babe
00000250: 5694 263e 8ce4 1d3e 3dcd 78be bb70 36be
00000260: 3bc6 21be 493a 093f bad3 c93c be04 bb3e
00000270: 9be7 05be 065c d93c 8cbe 3f3e 7874 953e
00000280: ce0d d1be 29ff a03d f4ef 7f3d 1488 b83c
00000290: 624f 463d 947d 35be b654 61be 489b 82be
000002a0: 70d4 99be 1063 c33b a643 fe3d c3d7 8a3e
000002b0: dca8 913e efc8 dcbd da31 813e 6bfd 5c3e
000002c0: c497 98be abbd 4ebe d432 ba3e 60ff 133c
000002d0: bd5d 4b3e 58dc b53e 1787 8dbe 1578 893c
000002e0: 3246 8bbe 325b 303e e187 9e3c ab45 903e
000002f0: 3fd1 9e3e dd8f 06bf d118 42bd 2962 993d
00000300: f98e 993d e050 443e 0345 b43c 6c0c 673f
00000310: 8357 8bbe 2058 36bc b6ca b0be 03e2 3dbb
00000320: 3f03 c1be 0a72 ab3e 0bfe a5be 3424 1ebe
00000330: f5fa 5dbb bfc9 13be 352c 9dbb ca8f c93e
00000340: 72ac 593d 68c7 a63d 8bb1 c3bd 630e 4abe
00000350: b9b1 aabe 7fd6 6a3e f894 5e3e 264a 723e
00000360: b4ab 8fbe c689 193f b066 5a3e 579a bfbb
00000370: 53ea 393d c327 82be e0af 0d3e 5163 133f
-0.22329341 0.12018102 -0.36993232 -0.2006707 0.045388132 0.25908464 -0.17073947 0.4242584
-0.039749354 -0.10998352 -0.12537229 0.12962015 0.16880322 0.6037975 0.1915328 -0.3595891
0.29707098 0.26243374 0.5503259 0.8868828 -0.63219506 -0.03207937 -0.15119258 -0.2015631
0.12397237 -0.35403192 0.07502064 0.12075783 -0.279069 -0.018776102 0.12508388 -0.31367782
0.17803442 0.08168923 0.6192965 -0.07385193 0.2537824 0.13387434 0.074276984 0.16361962
0.28567114 0.12354293 -0.19928719 -0.15200086 -0.032597028 0.12159265 -0.08967116 -0.32755235
-0.1283364 -0.097002596 0.3761734 0.06778108 0.23148231 0.39865237 0.14386119 -0.21169381
-0.2218674 -0.36062294 -0.097471856 -0.13927585 0.14578205 -0.12692845 -0.27660993 -0.049513794
-0.1546138 0.20801476 0.025811553 -0.43735492 0.2840501 0.36745778 0.15675502 0.31684107
0.1179038 -0.3195504 0.60053974 0.6338367 -0.5895933 -0.25528705 0.08243475 -0.17798443
0.15459685 2.0790062 1.9472753 0.8621774 -0.50297785 -0.1923793 -0.08294119 -0.2473121
-0.1670829 -0.116817154 0.9634477 -0.32395187 0.3192056 0.16097276 0.13706693 0.33635986
0.022268163 0.5288777 -0.0019750681 0.22980331 0.12392587 -0.011239437 0.04873275 0.04624259
-0.3720617 0.66225094 0.007071136 0.011150044 0.18897215 -0.6118667 -1.0067024 0.010231029
0.1488075 0.1212016 0.037406668 0.20445666 0.7313904 0.6183613 -0.39526278 0.7843568
0.015401251 0.06573965 0.2553342 -0.10506335 0.30083942 0.65942794 0.6100823 -0.19188516
0.23944561 -0.069950216 -0.47611648 -0.300884 -0.3688876 0.090054 0.021930713 0.30983666
0.12627342 0.21282493 0.3558712 -0.04400649 -0.053456467 0.29051137 0.30150467 0.3018238
-0.22683632 -0.11351881 0.31130934 -0.36363858 0.16267523 0.15419215 -0.24297042 -0.17816441
-0.15798275 0.5360456 0.024637092 0.36527056 -0.13076632 0.026533138 0.18725032 0.2919042
-0.40830845 0.07861168 0.062484697 0.022525825 0.04841555 -0.17723686 -0.22004971 -0.25509095
-0.3004489 0.005962737 0.12415247 0.27117738 0.28449142 -0.107805125 0.25233346 0.21581046
-0.29803288 -0.2018954 0.36366904 0.009033054 0.19859977 0.3551967 -0.27642128 0.016780892
-0.27201992 0.17222288 0.019351901 0.28178152 0.31019017 -0.5256327 -0.047386948 0.07489426
0.07497973 0.19171476 0.022005564 0.9025333 -0.27215204 -0.011129409 -0.34529656 -0.0028973825
-0.3769779 0.33485442 -0.32420382 -0.15443498 -0.0033871506 -0.14432429 -0.0047965297 0.39367515
0.053142972 0.081435025 -0.09555348 -0.1973205 -0.33338717 0.22933386 0.21736515 0.23661098
-0.28060687 0.5997585 0.21328235 -0.005847256 0.045389485 -0.2542096 0.13836622 0.5757342

short_term_context_network.fc1.bias f4 [32]
00000000: b4dd a7be e6e2 883e 84bf 583d ff25 2fbe
00000010: c2c3 d63e 693b b53e 233e b53d 6a87 09bd
00000020: 1c97 c73d d373 593e 065e ec3d dd9e de3e
00000030: bb8a 193f 1b3a 013f 4836 01be bbba 32bf
00000040: 2a3f 5fbd 5880 cdbb 2907 46bf a403 143f
00000050: 38ce a8be d6b7 253f cd2c 963e fe14 73be
00000060: fdd2 373f 542f cb3e 6812 333f e93f 2d3f
00000070: f9ee f7bd 0b20 163f 038b 7ebe 362c 813d
-0.32786334 0.2673561 0.05291702 -0.17104338 0.41946226 0.3539689 0.08849742 -0.033576407
0.09745619 0.2123559 0.11541371 0.43480578 0.5997731 0.50479287 -0.12618363 -0.6981618
-0.054503597 -0.0062714033 -0.77354676 0.57818055 -0.32969832 0.64733636 0.29331055 -0.23738477
0.7180632 0.39684546 0.6994996 0.67675644 -0.12106127 0.58642644 -0.24857716 0.06307261

short_term_context_network.fc2.weight f4 [16, 32]
00000000: 5a70 f63d 6628 47be facd 9a3b 0705 ccba
00000010: 982f 41be 52b2 2dbe f6b7 973d 2044 09be
00000020: 1013 82bd 0889 90bd 1822 873c 59ef 823d
00000030: a268 e13d 4c2f 813c dbac 7abc 2ca8 99bc
00000040: d47a 11bd fa6e 38bd 6774 f3bd d469 31be
00000050: 502e 603c 8c3f 033e 3622 debd 2ea5 9f3d
00000060: 0539 efbd 1ee7 b73d 895c b73d fb88 1c3d
00000070: f261 a03d fae4 053e 01f9 fa3c 9a10 493c
00000080: 032d 0fbd 476e d0bd 187f bdbd 8b8e b23d
00000090: 818b 6bbc 29cd 23be 9084 acbc d29c 64bd
000000a0: 14e0 11bb c06a 20be a296 ffbd 9cc4 823d
000000b0: f251 343e 9d04 123e 793b d3bd 10a2 063e
000000c0: 4c58 133e a4bc 14bd 6ccd 3c3d 03d4 2b3e
000000d0: 6a92 7dbd 86db d03c e11b 80bc 38ee 993d
000000e0: 1976 11be 1de2 f53c e3f3 f4bd 0f54 78bd
000000f0: fcab d83d a674 a03d 827f 16be c25f eebc
00000100: 64ba 103e 2821 35be c200 163e b418 b3bd
00000110: 756c e6bd bb5c 1abe a325 1f3c ee5f a73e
00000120: 32ad 373e 719d 4e3d 5846 a9bc b838 a1bd
00000130: db6a 96be d3bd 97bc ede1 cdbc 0cdd 9b3d
00000140: 39e6 9bbc d4e1 95be 656c 893e 9ca5 173e
00000150: 0494 053e db19 ddbe a102 073e 44f1 d73d
00000160: 941c 33be f2eb 76be 3f4d b2bc 502e 82bd
00000170: 34d2 0c3d 0582 f1bd 2622 a83d 695b e4bd
00000180: 52e2 bd3c d239 e43c f50f 2abc 008f f43d
00000190: 9250 dcbc 347f c73d d0d7 193c bd1a 25be
000001a0: 5edc 50b9 e4ad ad3c d9f3 4dbd 4db7 01be
000001b0: 58f7 2b3d 74ed 23be f043 dbbd 07e6 f6bd
000001c0: c122 94bd ea13 313d ce0b a53d 96b7 1cbe
000001d0: 57b5 fd3d f44a 063e 83c5 c0bd 175c a6bd
000001e0: 45e0 35be cf1d 7c3d 8133 59be 1281 fcbd
000001f0: e4fa 25be 8907 693d e321 163e cbd3 b1bd
00000200: dc93 89bd 56a9 083f c696 463f efb7 ea3d
00000210: a330 4c3f c357 cb3e 9638 18bd 51fc f9bd
00000220: 31c6 d03d 498b 2d3f a1cb 263f 1a52 ad3f
00000230: 46e4 f23e 773f c23e cc5e fabd 6cb3 13bf
00000240: fb52 123f 4d49 523e b25d cfbe ee2c 9b3e
00000250: e188 75ba bd1f 593f 6f18 243e 9a78 173e
00000260: 2d7c 1d3f 51a8 b73e cb4a 043f a067 ff3e
00000270: 2576 583e 3c4b fe3e 72d2 e43c 8f08 c23d
00000280: c7dd b73d 200c 11be 62b0 3fbe e1f5 56ba
00000290: 77dc 85bb 0b9d e33d e741 33bc eed5 53be
000002a0: c028 fabd f01c 183e 9680 2bbd ce78 19be
000002b0: 4b4a 51be 34b5 ba3d 654b 8b3b b7e3 e8bd
000002c0: f4e7 88bd dffd 8b3d 5335 1cbd 9c4f 83bd
000002d0: 3a6b 46bb c259 e43d 1ebf e6bd bbd2 2fbe
000002e0: 657b 9e3d 1fd6 b23d bccc b3bd 2a54 af3d
000002f0: f21e 08be 5652 f03d 498c 1bbe d610 15be
00000300: e629 07be b5f7 ecbd 2d1d 353e 967a e93d
00000310: 55ad 4bbe 0144 61be 4b2f 34be e3a5 573e
00000320: e442 063e dd14 33be 950a 2a3e 5f2e 7abd
00000330: 4f7c 55be ae36 1ebe c199 a6bd 5541 ad3d
00000340: 40b6 013d 9064 9bbe c89b e13d 79ad dfbd
00000350: 14f7 c4ba b914 abbd e96c 553d 9d77 b7bd
00000360: 6178 023e fff6 24be 8f54 ccbd 1dfa b9bc
00000370: 9faa da3c fa08 a73c 1e63 0dbc 1fc9 ebbd
00000380: cb29 18be 4ba6 3c3f 4e3a 71bf 1a7f 0f3e
00000390: 21bc aebf a019 1ebf de78 24be b953 5fbe
000003a0: 91a1 9dbd 90e6 2dbe f9ff 34bf a9a6 c7bf
000003b0: eb85 06c0 15f5 f9bf 2ea7 213e 32c5 953f
000003c0: 51b7 91bf b33d 863f cb62 913f 9c29 67bd
000003d0: fc98 3c3c fe12 0dc0 80bd 0fbf 6d8b d6bd
000003e0: 0b42 d7bf 3628 b43e 93ca 59bf 9f18 07c0
000003f0: c05d 20be ff01 4dbf 2b60 4dbe 88fb 603f
0.12033148 -0.19449005 0.0047242614 -0.0015565463 -0.18865812 -0.16962555 0.07408135 -0.13404894
-0.06351292 -0.07057387 0.01649575 0.06393308 0.11006285 0.015769623 -0.015300001 -0.018756948
-0.03551753 -0.04502771 -0.11887436 -0.17325526 0.013682917 0.1281721 -0.10846369 0.077951774
-0.116807975 0.08979629 0.089531966 0.038216572 0.078311816 0.13075629 0.030636312 0.0122720245
-0.034955036 -0.10177284 -0.09252757 0.08718594 -0.014376522 -0.15996231 -0.021059304 -0.055813618
-0.0022258805 -0.15665722 -0.12479903 0.063851565 0.17609385 0.14259572 -0.10314078 0.1314776
0.14389151 -0.036312714 0.046094343 0.16780095 -0.06190721 0.025495302 -0.015638294 0.0751614
-0.14205207 0.030015046 -0.1196058 -0.06062704 0.105796784 0.07834749 -0.14697078 -0.029098395
0.14133602 -0.1768843 0.14648727 -0.08744946 -0.11251155 -0.15074436 0.009713563 0.32690376
0.17937163 0.050443117 -0.020663425 -0.07872146 -0.293784 -0.018523132 -0.025132144 0.07610521
-0.019030677 -0.29273856 0.2684051 0.14809269 0.13044745 -0.4318379 0.13184597 0.10544065
-0.1749137 -0.24113443 -0.02176535 -0.0635649 0.034380153 -0.117923774 0.08209638 -0.111502476
0.023179207 0.027859602 -0.010379781 0.119413376 -0.026893888 0.09741059 0.009389833 -0.16123481
-0.00019918519 0.021201082 -0.05028138 -0.1266758 0.041983932 -0.1600855 -0.107063174 -0.12055593
-0.07233191 0.043231882 0.08058892 -0.15304407 0.123881035 0.1311453 -0.09412672 -0.081230335
-0.17761333 0.061551865 -0.21211053 -0.12329306 -0.16208988 0.05689195 0.14661364 -0.086829744
-0.06717655 0.53383386 0.7757381 0.11460864 0.79761714 0.39715394 -0.03716334 -0.12206329
0.10194052 0.6779066 0.65154463 1.354068 0.47439784 0.37939045 -0.12225112 -0.5769565
0.5715787 0.20535775 -0.4050117 0.30307716 -0.0009366405 0.84814054 0.16024946 0.147921
0.615176 0.35870603 0.51676625 0.49883747 0.21138819 0.49666774 0.02793238 0.09474289
0.089778475 -0.14164782 -0.18719628 -0.0008200091 -0.0040851193 0.11113938 -0.010941005 -0.20687076
-0.12214804 0.14854789 -0.041870676 -0.1498749 -0.20438497 0.09116593 0.004250931 -0.11371558
-0.066848665 0.068355314 -0.03813679 -0.06411669 -0.0030276314 0.111499324 -0.112669215 -0.17170231
0.077383794 0.087322466 -0.08779284 0.08560975 -0.13293055 0.11734454 -0.15190233 -0.14557204
-0.13199577 -0.11570684 0.17686911 0.114003345 -0.1989034 -0.21998598 -0.17596166 0.21059375
0.13111454 -0.17488427 0.16605599 -0.06107938 -0.20848201 -0.15450546 -0.08134795 0.08459727
0.031667948 -0.3035016 0.11016041 -0.10921759 -0.0015027248 -0.08353562 0.052105818 -0.08958361
0.12741233 -0.16109847 -0.09977066 -0.022702271 0.026692687 0.020390023 -0.008629588 -0.1151297
-0.14859693 0.7369124 -0.9422959 0.14013329 -1.3651162 -0.6175785 -0.16061732 -0.21809281
-0.07696832 -0.16982484 -0.70703083 -1.5597736 -2.1019237 -1.9527918 0.1578643 1.1700804
-1.1384069 1.0487579 1.1358274 -0.056436166 0.011511084 -2.2042842 -0.5614853 -0.10475812
-1.681703 0.3518693 -0.8507473 -2.1108778 -0.15660763 -0.8008117 -0.20056216 0.87883806

short_term_context_network.fc2.bias f4 [16]
00000000: 1a06 bcbd 870d 21be 7847 b03d cb57 c83d
00000010: 9a1a d63e 16c2 77bc 4ecb ac3d 9937 debc
00000020: c335 d33d 5e7b 283e 0c0b 7b3e 0678 cf3e
00000030: 3b3a b53d b346 c23e 4826 3b3d a9a0 f63d
-0.09180851 -0.15727817 0.086073816 0.0978237 0.4181717 -0.015121957 0.08437215 -0.02712612
0.103129886 0.16453311 0.24515933 0.40521258 0.08848997 0.37944564 0.045690805 0.12042362

short_term_context_network.fc3.weight f4 [1, 16]
00000000: ffeb 64be 1a13 6f3e 5006 6abe a0b5 0abe
00000010: 2312 213f d567 ecbd 4722 94be 0487 a0bf
00000020: e94a 56c0 0ba4 90be 6ec0 663f f026 273f
00000030: 9b8e 75bd 1833 7f3f 6883 28be b7f9 513e
-0.2235565 0.2334713 -0.2285397 -0.13545847 0.629183 -0.11543242 -0.28932402 -1.2541203
-3.3483222 -0.28250155 0.90137374 0.6529379 -0.059950452 0.9968734 -0.16456378 0.20505415
