RL/V3/V3_demo1/Testing_Suite/model_SC_C1000_R0_S10.0.pth (torch, 91340 bytes, 11 tensors)

main_network.lstm.weight_ih_l0 f4 [256, 15]
-0.09098231 0.061949488 -0.062192526 0.047308512 0.01416137 -0.024447475 -0.08887761 0.029767524
0.0781563 0.05297939 0.0026252116 -0.064740695 -0.09510587 0.024203686 -0.18116486 -0.031931005
-0.019126805 -0.18808344 0.1496997 -0.032253247 -0.07438755 0.014455211 -0.056753766 -0.049271125
0.026613481 -0.05745352 0.03393433 0.020708095 -0.062854886 -0.09153238 0.12593468 0.057617005
0.03033209 0.42717072 0.11279669 0.022271298 -0.15057793 0.032055516 0.19831094 -0.00070609356
-0.044526856 0.1570726 0.04998945 0.22820285 -0.02179919 -0.13785473 -0.14492159 -0.008218709
0.19249086 -0.18706737 -0.019546723 -0.14583893 -0.17581421 -0.052268535 -0.1532011 -0.21293874
-0.045213077 -0.24365501 -0.07724907 -0.100500524 -0.22368099 -0.25862697 -0.20534593 0.024661437
-0.15366745 0.0035362102 -0.16501272 -0.16361903 -0.20429097 -0.12695406 -0.17242172 -0.1418862
-0.13543656 -0.15326206 -0.19295895 -0.19069943 -0.2302513 0.059647743 0.1775739 -0.26895013
-0.040093407 -0.21939854 -0.11466943 -0.09604631 0.07253249 -0.11683526 -0.14097013 -0.03436132
-0.0993686 -0.055113077 -0.0043531805 0.15971349 0.023467144 -0.08100477 0.17538935 0.032959215
0.026536804 -0.07301709 0.22116049 -0.24747868 -0.1051685 0.13616213 -0.045860507 0.13363655
0.03328088 0.10288861 0.0770224 0.13502684 -0.08984672 0.15438104 -0.03844812 -0.043906055
0.09670894 0.10947914 -0.046569616 -0.12983246 -0.17434552 0.11715335 -0.00501147 -0.1110021
0.030426536 -0.045488335 -0.035217334 0.10467824 0.059728555 -0.05695779 -0.14069654 -0.08198588
0.026007362 -0.100468375 -0.04143734 -0.06527496 -0.11262928 -0.014726791 0.04840986 -0.063880086
0.045639966 -0.019215044 0.11587358 -0.1515944 -0.11247299 0.1089371 -0.047118213 -0.03879482
0.0005857666 -0.109032236 0.06973728 -0.0051701423 -0.057673413 -0.16743974 -0.016348742 -0.010466314
-0.033240862 0.16653697 -0.019634925 0.073158264 0.047620904 0.16157344 -0.06443915 0.06466296
-0.049847525 -0.077417254 0.096986316 0.11119321 0.09293915 -0.010584744 -0.040091198 0.10748306
0.34919038 -0.018796202 -0.023586696 0.09864258 0.035598323 -0.048625078 0.083370484 0.025343098
0.16699499 -0.004901072 0.3287226 -0.08141074 0.0027351524 0.031076638 0.09170897 0.2979628
0.0742299 0.025512433 0.08167949 -0.018157477 -0.033466835 0.088191606 -0.08014797 -0.11623631
0.059471596 0.095067404 0.050454725 -0.12369533 -0.1811917 -0.031235373 0.2980223 -0.019537635
-0.16201793 -0.13254666 0.006122859 -0.12706591 0.017663589 0.07674739 -0.11154649 0.006117648
0.14170483 -0.020495327 -0.08318778 -0.13058169 0.012809456 0.10659484 0.10531071 -0.090882696
-0.02569787 -0.016699003 -0.14515045 0.10067856 -0.1767679 -0.16290195 -0.13377337 -0.12543292
-0.027944881 0.10468158 -0.058667194 0.032532424 0.24277565 0.11872709 -0.09560552 0.19590288
-0.14570035 -0.13074511 0.16939513 0.07126186 -0.15016145 0.042822637 0.10733416 0.020114614
-0.12647043 -0.022060106 -0.19287431 -0.06742127 0.0032138487 -0.044937845 -0.07501204 0.014126718
-0.051483396 -0.10679377 -0.047590453 -0.031123687 -0.042932108 0.074312806 -0.06557964 0.03165631
00000000: ef54 babd bfbe 7d3d 97bd 7ebd 92c6 413d
00000010: 1705 683c 1246 c8bc 7705 b6bd 06db f33c
00000020: 6910 a03d eb00 593d be0b 2c3b c596 84bd
00000030: dec6 c2bd cf46 c63c 4883 39be 16ca 02bd
00000040: d1af 9cbc f298 40be e14a 193e fb1b 04bd
00000050: 8058 98bd 8dd5 6c3c a376 68bd 85d0 49bd
00000060: 8404 da3c 6254 6bbd b9fe 0a3d 06a4 a93c
00000070: 10ba 80bd 5475 bbbd 05f5 003e cfff 6b3d
00000080: 017b f83c 1fb6 da3e f301 e73d 4c72 b63c
00000090: 1a31 1abe a54c 033d 0612 4b3e 2319 39ba
000000a0: cb61 36bd a4d7 203e bdc1 4c3d 02ae 693e
000000b0: 3794 b2bc ca29 0dbe 5366 14be c4a7 06bc
000000c0: 531c 453e 978e 3fbe 7320 a0bc cd56 15be
000000d0: a408 34be 8817 56bd c0e0 1cbe 9d0c 5abe
000000e0: 5931 39bd b380 79be c334 9ebd 38d3 cdbd
000000f0: a10c 65be c16a 84be 3446 52be c806 ca3c
00000100: 005b 1dbe c3bf 673b 18f9 28be bf8b 27be
00000110: a731 51be 3f00 02be 528f 30be 9e4a 11be
00000120: e2af 0abe bbf0 1cbe 0897 45be b646 43be
00000130: ffc6 6bbe 3151 743d efd5 353e d5b3 89be
00000140: fc38 24bd 03aa 60be ced7 eabd eeb3 c4bd
00000150: ea8b 943d 5347 efbd 795a 10be 75be 0cbd
00000160: c481 cbbd 40be 61bd 20a5 8ebb ef8b 233e
00000170: 2b3e c03c d4e5 a5bd 4499 333e 3e00 073d
00000180: b663 d93c fc89 95bd e577 623e 0d6b 7dbe
00000190: 9562 d7bd 166e 0b3e 3ad8 3bbd 05d8 083e
000001a0: 8851 083d 43b7 d23d ecbd 9d3d 7a44 0a3e
000001b0: 8f01 b8bd 1016 1e3e c77b 1dbd d6d6 33bd
000001c0: 560f c63d 9936 e03d c8bf 3ebd cdf2 04be
000001d0: a287 32be 18ee ef3d 4237 a4bb 1255 e3bd
000001e0: 1241 f93c fa51 3abd 0d40 10bd 8c61 d63d
000001f0: eea5 743d 924c 69bd c112 10be 37e8 a7bd
00000200: 640d d53c 5dc2 cdbd 33ba 29bd e1ae 85bd
00000210: 2eaa e6bd a348 71bc 6b49 463d 90d3 82bd
00000220: f9f0 3a3d de68 9dbc 214f ed3d 903b 1bbe
00000230: 3d58 e6bd 6a1a df3d 07ff 40bd 51e7 1ebd
00000240: 228e 193a 4b4c dfbd 6bd2 8e3d 4c6a a9bb
00000250: f53a 6cbd 5375 2bbe cced 85bc e77a 2bbc
00000260: 9227 08bd ab88 2a3e 6cd9 a0bc 00d4 953d
00000270: 230e 433d 8273 253e acf8 83bd 046e 843d
00000280: eb2c 4cbd f08c 9ebd c3a0 c63d 44b9 e33d
00000290: e256 be3d a26b 2dbc ab36 24bd 1420 dc3d
000002a0: 15c9 b23e 7efa 99bc e338 c1bc 1f05 ca3d
000002b0: 8ccf 113d 172b 47bd 25be aa3d 549c cf3c
000002c0: bc00 2b3e 2c99 a0bb 544e a83e adba a6bd
000002d0: 3e40 333b 6f94 fe3c ead1 bb3d 958e 983e
000002e0: d905 983d 73ff d03c 9447 a73d fdbe 94bc
000002f0: 8514 09bd cd9d b43d 9e24 a4bd 4d0d eebd
00000300: 7d98 733d b3b2 c23d 9da9 4e3d fa53 fdbd
00000310: 518a 39be 53e1 ffbc 6196 983e 640d a0bc
00000320: 07e8 25be 50ba 07be 44a2 c83b 911d 02be
00000330: 3bb3 903c bc2d 9d3d 7c72 e4bd 8d76 c83b
00000340: 121b 113e d1e5 a7bc 5b5e aabd 35b7 05be
00000350: c1de 513c 654e da3d 24ad d73d b520 babd
00000360: 5784 d2bc 59cc 88bc 52a2 14be 9030 ce3d
00000370: a502 35be c5cf 26be e3fb 08be 7d71 00be
00000380: aaec e4bc 4c63 d63d 034d 70bd b840 053d
00000390: 2e9a 783e 3027 f33d d4cc c3bd c49a 483e
000003a0: 7932 15be 0ce2 05be eb75 2d3e bdf1 913d
000003b0: ecc3 19be ca66 2f3d 03d2 db3d 67c7 a43c
000003c0: 7781 01be 65b7 b4bc d880 45be 2a14 8abd
000003d0: 6f9f 523b bf10 38bd ea9f 99bd c073 673c
000003e0: 41e0 52bd b1b6 dabd 35ee 42bd 1af7 febc
000003f0: 94d9 2fbd 5031 983d 9e4e 86bd 0caa 013d

main_network.lstm.weight_hh_l0 f4 [256, 64]
-0.12809221 -0.03631511 -0.17242374 0.09657755 0.02856263 -0.021986386 0.13304277 -0.1928908
-0.06455752 -0.093880214 -0.036558412 0.07247953 0.008905039 0.13651432 0.024827966 -0.029892972
-0.06780994 0.07081721 0.1028286 -0.04238458 -0.052692145 -0.030149972 0.032376133 0.009879952
-0.08553715 -0.16644141 0.14800934 -0.045918 0.37636057 0.002938699 0.028468614 -0.15558222
-0.06436309 -0.010230024 -0.04454769 -0.0378803 0.117165074 0.091611624 -0.089632094 0.26739517
-0.07440356 0.093210265 -0.054293133 -0.06582773 -0.05512971 0.16201675 0.027765414 0.20236187
0.0077706524 0.03499149 0.06552938 -0.007397218 0.17448097 0.08193392 -0.06449348 0.06378825
-0.026726866 0.065494955 0.13381831 -0.15501088 -0.04146741 0.033336706 0.13379967 0.014710984
0.07131015 -0.019606596 -0.055895295 -0.069504224 0.16912194 0.039065607 0.23561141 -0.08689955
-0.044055738 0.013127984 0.0026084539 -0.0112518305 0.051038295 0.057603575 -0.15838961 0.0072575873
-0.010339717 -0.0072920313 0.00749428 -0.2638048 0.037196867 -0.042657904 -0.13685971 -0.0506342
-0.03488038 0.072225325 -0.0009053526 -0.1620641 0.15270175 -0.119638175 -0.0717332 -0.066535465
-0.041800078 0.1388218 -0.044260357 0.028842231 0.08273532 0.004640697 -0.12156822 -0.006944843
0.081963554 0.041612703 0.12205997 0.11412205 -0.22101106 -0.09043247 -0.031205272 0.03075819
0.016538532 -0.034715265 -0.10801239 -0.19180515 0.05960396 0.059726723 -0.025660463 0.05354454
0.1582268 -0.025119008 0.012896269 0.056311768 -0.03985747 0.20809093 0.091209695 0.08514872
0.006563656 0.14234956 0.08875154 0.19074082 -0.2232493 0.014042927 -0.34948426 -0.083010584
0.015781213 0.22809254 -0.14560254 0.0072272876 0.13097535 0.25203192 0.16774324 0.04442054
-0.049479745 -0.23269562 0.056300752 0.23326573 -0.18234013 0.13732645 -0.05508549 -0.083852865
0.089743376 0.09058939 0.07448427 -0.035098054 -0.1265582 0.033211716 -0.1517587 -0.054077856
0.058344956 -0.03218335 -0.21794267 0.039990272 0.18562809 0.12850396 0.16493016 -0.26008558
-0.03871769 -0.21721555 -0.14350992 -0.124310136 0.15275295 0.049222317 0.15112841 -0.18188637
-0.12829266 0.21451873 -0.018242048 -0.012333116 -0.023993924 -0.120019905 0.12249256 0.1661198
-0.119598545 -0.029664602 -0.0019770653 0.011252504 0.14873065 -0.27756378 0.2658651 -0.1518917
-0.056441978 -0.07242776 -0.13366109 0.18359426 -0.08481042 0.068498425 -0.014456091 -0.18890934
0.11305366 0.027467253 -0.032736607 0.05824635 -0.039937947 0.12220768 0.13825668 0.086772665
0.08735013 0.034443323 -0.023959463 0.20758069 0.057712104 0.027776685 0.04794423 -0.13961987
-0.059949007 -0.07681176 0.099232964 0.03828251 -0.012369664 0.09198194 -0.096722454 -0.1681461
-0.028756527 0.111959934 -0.04922417 -0.08612464 0.022605782 0.08381702 0.13530922 -0.033353474
-0.18000254 0.030344393 0.06864618 -0.017584976 0.1349261 0.1531927 0.09497328 -0.23127086
-0.025426852 0.01909748 0.23616982 0.038232584 -0.018722437 -0.095668934 0.16015786 0.13718544
-0.08222847 -0.049178164 0.14123517 -0.17888054 -0.07185842 -0.017795289 0.18745169 -0.031674262
00000000: 9b2a 03be 27bf 14bd d98f 30be 73ca c53d
00000010: 2dfc e93c cb1c b4bc 5d3c 083e 2a85 45be
00000020: bc36 84bd 4544 c0bd 46be 15bd 2670 943d
00000030: 71e6 113c 69ca 0b3e 0564 cb3c 1be2 f4bc
00000040: f0df 8abd 9d08 913d cd97 d23d 749b 2dbd
00000050: b8d3 57bd 13fd f6bc d69c 043d 86df 213c
00000060: 1a2e afbd 9e6f 2abe c38f 173e 8314 3cbd
00000070: 55b2 c03e 3097 403b 0337 e93c f250 1fbe
00000080: ccd0 83bd d59b 27bc a377 36bd 6028 1bbd
00000090: 3ef4 ef3d e09e bb3d 0891 b7bd 05e8 883e
000000a0: e560 98bd 06e5 be3d 7a62 5ebd b0d0 86bd
000000b0: b1cf 61bd b8e7 253e 4b74 e33c f337 4f3e
000000c0: f5a0 fe3b 3d53 0f3d 4534 863d 5d64 f2bb
000000d0: 24ab 323e f9cc a73d 2815 84bd 6aa3 823d
000000e0: 4df2 dabc 3822 863d ab07 093e 2cbb 1ebe
000000f0: bbd9 29bd 128c 083d c802 093e 5706 713c
00000100: 0e0b 923d 039e a0bc 77f2 64bd 3b58 8ebd
00000110: 4d2e 2d3e 4203 203d 1e44 713e 64f8 b1bd
00000120: ca73 34bd c116 573c 98f2 2a3b 9959 38bc
00000130: 880d 513d baf1 6b3d e330 22be 0ed1 ed3b
00000140: eb67 29bc fef1 eebb 9492 f53b 6c11 87be
00000150: be5b 183d 0eba 2ebd f424 0cbe cf65 4fbd
00000160: bbde 0ebd dfea 933d 2f55 6dba 22f4 25be
00000170: d95d 1c3e dc04 f5bd dbe8 92bd bf43 88bd
00000180: 8f36 2bbd 4d27 0e3e 594a 35bd 8b46 ec3c
00000190: 2371 a93d fd10 983b c2f8 f8bd 9191 e3bb
000001a0: 82dc a73d 1572 2a3d 94fa f93d d2b8 e93d
000001b0: b950 62be a934 b9bd 33a2 ffbc 9af8 fb3c
000001c0: d17b 873c 9831 0ebd 9a35 ddbd 9268 44be
000001d0: 4823 743d 02a4 743d e435 d2bc 8551 5b3d
000001e0: 3506 223e 61c6 cdbc df4a 533c 2ba7 663d
000001f0: 9641 23bd ca15 553e 26cc ba3d 7462 ae3d
00000200: f013 d73b 15c4 113e 5ec3 b53d 9051 433e
00000210: 779b 64be 4e14 663c 9aef b2be 7401 aabd
00000220: 9a47 813c 1791 693e d518 15be e2d2 ec3b
00000230: 671e 063e 540a 813e e2c4 2b3e 50f2 353d
00000240: 46ab 4abd c347 6ebe 9e9b 663d 36dd 6e3e
00000250: 5fb7 3abe 4e9f 0c3e 53a1 61bd 0dbb abbd
00000260: 60cb b73d ee86 b93d 358b 983d fac2 0fbd
00000270: 7998 01be 0209 083d a266 1bbe be80 5dbd
00000280: 1ffb 6e3d b0d2 03bd 5d2c 5fbe d7cc 233d
00000290: 4a15 3e3e 8b96 033e 74e3 283e f029 85be
000002a0: 7196 1ebd c16d 5ebe 44f4 12be 5096 febd
000002b0: 456b 1c3e 579d 493d 68c1 1a3e 6c40 3abe
000002c0: 275f 03be ccaa 5b3e 5970 95bc d610 4abc
000002d0: e88e c4bc ffcc f5bd 61dd fa3d 4f1b 2a3e
000002e0: 15f0 f4bd 2e03 f3bc a791 01bb 6c5c 383c
000002f0: d94c 183e d71c 8ebe 781f 883e 7f89 1bbe
00000300: b42f 67bd 0155 94bd 74de 08be 2200 3c3e
00000310: 16b1 adbd e748 8c3d 3ed9 6cbc 7371 41be
00000320: ad88 e73d 0103 e13c d216 06bd ba93 6e3d
00000330: f995 23bd 0548 fa3d 2993 0d3e deb5 b13d
00000340: a0e4 b23d 7114 0d3d a346 c4bc 0890 543e
00000350: 8763 6c3d ee8b e33c 2b61 443d 83f8 0ebe
00000360: 178d 75bd 7c4f 9dbd a73a cb3d 1fce 1c3d
00000370: 22aa 4abc 0761 bc3d 6c16 c6bd 7e2e 2cbe
00000380: cf92 ebbc 404b e53d 499f 49bd 1e62 b0bd
00000390: c32f b93c 42a8 ab3d 808e 0a3e a79d 08bd
000003a0: 9652 38be ce94 f83c 5e96 8c3d 5e0e 90bc
000003b0: 112a 0a3e 8cde 1c3e 5a81 c23d 45d2 6cbe
000003c0: f94b d0bc 5272 9c3c 80d6 713e c599 1c3d
000003d0: cc5f 99bc 13ee c3bd 6c00 243e 577a 0c3e
000003e0: 6667 a8bd 0b6f 49bd f49f 103e 762c 37be
000003f0: 822a 93bd 6dc7 91bc 56f3 3f3e dfbc 01bd

main_network.lstm.bias_ih_l0 f4 [256]
-0.09879546 -0.12738502 0.14090149 0.03538284 -0.09415079 -0.117693715 -0.003917068 -0.05160011
-0.0029626854 0.18579839 -0.054224584 0.031563073 0.10242869 0.10119376 0.14959924 0.08623439
-0.026648914 0.1592225 0.08207971 -0.19401012 -0.020052532 0.08527892 -0.14679594 0.07021601
-0.0908649 -0.021894261 -0.029585278 0.10351345 0.31945482 -0.055031404 -0.01004872 0.0542929
0.13043734 -0.04587305 0.027410021 0.012727989 0.04623642 -0.028649839 0.12528004 0.15190405
0.08094829 0.065459505 -0.12303922 0.23588575 0.06307958 0.11521839 -0.05088136 0.06613251
0.20432644 0.12566322 -0.0060751042 0.03679341 0.06208216 -0.0006664785 0.10627765 0.12808509
-0.0072354157 0.027265223 -0.051500075 0.0546171 -0.01207068 0.14357936 0.09098383 0.07699124
-0.049884804 -0.036865167 -0.06616952 0.10061916 0.07012883 0.022007678 0.045311533 -0.10873273
-0.025806153 -0.08024301 0.09301408 0.02870776 0.04551988 0.10115647 0.16186969 0.043287244
-0.07683907 0.070656605 0.014200548 -0.076422244 0.19923116 0.08479324 0.10525845 0.032365713
-0.18526922 -0.04144093 -0.0234145 -0.06087227 0.10502968 -0.05889576 -0.12965651 0.03435305
-0.08558137 -0.072818674 0.10393609 -0.04499292 -0.0020012 -0.057012066 0.05277906 -0.014352528
-0.06899138 -0.08237438 0.08974042 -0.094731 0.073716894 -0.15726057 0.0066971667 -0.12795049
0.048927944 -0.10648067 -0.049217466 -0.14805342 0.03653486 0.18735985 0.008024178 -0.07283055
0.0310112 -0.061295588 0.025604242 -0.03264253 0.09314839 -0.099711835 -0.032178152 -0.007331647
-0.008488284 0.08544977 -0.030810464 -0.06282659 0.03668831 0.00020034621 0.115762815 -0.06644959
0.04628247 0.03080251 0.07079097 0.05193342 0.14943692 0.076682866 0.042564835 0.01525426
-0.040416505 -0.17284015 -0.06671779 -0.048908494 -0.09733808 -0.026225189 -0.03437526 0.14427277
0.063711114 -0.035855696 0.047957085 0.01756384 -0.15080392 -0.0618008 0.087245375 -0.01716641
0.1649232 -0.0147697935 -0.15489207 0.08615486 0.103525154 0.021267004 0.13089892 -0.03239217
-0.116440326 0.08209971 -0.018393364 -0.10601779 0.03194687 0.030660586 0.15544772 -0.052072432
-0.14967476 0.17352112 -0.05421425 -0.03025647 -0.14247675 -0.123906605 -0.0048006275 -0.13036774
-0.10120211 0.0438589 -0.09723877 0.11939025 0.1051749 -0.028582333 -0.04248517 -0.09063115
-0.0036144818 0.0893426 0.110000156 0.0071002305 0.013351036 -0.03102265 0.0013761034 -0.07775577
0.068126 0.18477075 -0.081527226 0.06929808 -0.02741256 0.07547455 -0.019209307 0.09185835
-0.014634588 0.013103887 -0.1164578 -0.021923862 0.13751934 -0.108834885 -0.09504036 -0.059827533
0.09272637 0.013549269 0.0064466693 0.07761047 0.15345345 0.06498592 0.10622666 -0.07640618
0.0065800524 0.017211998 0.10260892 0.13650508 0.020363158 -0.12718044 0.15316522 0.046459977
0.15648992 -0.027375463 0.0373225 0.2602789 0.040397935 0.09859489 0.10470625 -0.017729307
0.024174035 0.11329341 0.15952899 0.07618636 0.11075818 0.18676542 0.12474585 -0.017311612
0.1424479 0.1431067 0.11958283 -0.10282935 -0.0042616776 0.09909506 0.14005645 0.2217365
00000000: 4655 cabd 3871 02be 7b48 103e 99ed 103d
00000010: 21d2 c0bd 6709 f1bd bf5a 80bb a35a 53bd
00000020: 9d29 42bb ef41 3e3e 991a 5ebd 4848 013d
00000030: 22c6 d13d ad3e cf3d 8b30 193e a89b b03d
00000040: d34e dabc 390b 233e 6819 a83d 97aa 46be
00000050: 3545 a4bc b7a6 ae3d ad51 16be 69cd 8f3d
00000060: 6017 babd 985b b3bc d35c f2bc dcfe d33d
00000070: 958f a33e 9c68 61bd 63a3 24bc 3b62 5e3d
00000080: 5e91 053e 61e5 3bbd fb8a e03c 0e89 503c
00000090: 6662 3d3d 11b3 eabc 6949 003e bc8c 1b3e
000000a0: 38c8 a53d a20f 863d fdfb fbbd 098c 713e
000000b0: de2f 813d 9ff7 eb3d f968 50bd 7b70 873d
000000c0: f33a 513e dcad 003e ab11 c7bb b0b4 163d
000000d0: dd49 7e3d 9db6 2eba 19a8 d93d bd28 033e
000000e0: 1117 edbb 515b df3c bef1 52bd 2eb6 5f3d
000000f0: 1ac4 45bc 7806 133e bb55 ba3d 95ad 9d3d
00000100: 0254 4cbd eeff 16bd e383 87bd 6b11 ce3d
00000110: b49f 8f3d 7249 b43c 9698 393d 44af debd
00000120: 6d67 d3bc 7256 a4bd 2a7e be3d 892c eb3c
00000130: 0e73 3a3d 202b cf3d 2bc1 253e f74d 313d
00000140: cd5d 9dbd 69b4 903d 6aa9 683c 4483 9cbd
00000150: 4103 4c3e 14a8 ad3d be91 d73d e991 043d
00000160: 37b7 3dbe f7bd 29bd c4cf bfbc 3455 79bd
00000170: cd19 d73d ae3c 71bd adc4 04be c9b5 0c3d
00000180: 4945 afbd f521 95bd 72dc d43d 7f4a 38bd
00000190: 9126 03bb 7c85 69bd db2e 583d de26 6bbc
000001a0: 5a4b 8dbd e6b3 a8bd d3c9 b73d 5402 c2bd
000001b0: e2f8 963d ea08 21be e873 db3b 7405 03be
000001c0: ab68 483d 8a12 dabd 4198 49bd 519b 17be
000001d0: 94a5 153d 43db 3f3e d877 033c 2f28 95bd
000001e0: 330b fe3c 1511 7bbd fdbf d13c 2cb4 05bd
000001f0: 95c4 be3d b835 ccbd 3dcd 03bd 503e f0bb
00000200: 7212 0bbc 4a00 af3d 3a66 fcbc 3aab 80bd
00000210: 7b46 163d 0714 5239 0e15 ed3d b916 88bd
00000220: b092 3d3d 8c55 fc3c dbfa 903d 23b8 543d
00000230: fe05 193e e80b 9d3d 7758 2e3d 01ed 793c
00000240: c78b 25bd 02fd 30be 56a3 88bd 4654 48bd
00000250: 3059 c7bd 35d6 d6bc 13cd 0cbd 3ebc 133e
00000260: f97a 823d 6cdd 12bd a66e 443d 0be2 8f3c
00000270: 586c 1abe d622 7dbd b4ad b23d 92a0 8cbc
00000280: a1e1 283e 01fd 71bc 079c 1ebe f671 b03d
00000290: ff04 d43d 2438 ae3c 5e0a 063e a7ad 04bd
000002a0: 4478 eebd e523 a83d aead 96bc db1f d9bd
000002b0: b9da 023d e92b fb3c b02d 1f3e e749 55bd
000002c0: 5744 19be 85af 313e c30f 5ebd 6bdc f7bc
000002d0: 6de5 11be bfc2 fdbd 954e 9dbb 1f7f 05be
000002e0: 0d43 cfbd 64a5 333d 1f25 c7bd e082 f43d
000002f0: f065 d73d 7f25 eabc ee04 2ebd d39c b9bd
00000300: f1e0 6cbb 41f9 b63d c347 e13d 0da9 e83b
00000310: 4ebe 5a3c 3623 febc 5e5e b43a 6b3e 9fbd
00000320: a585 8b3d 8b34 3d3e bff7 a6bd 27ec 8d3d
00000330: 4e90 e0bc 6792 9a3d d65c 9dbc 3b20 bc3d
00000340: e9c5 6fbc b0b1 563c 6d81 eebd ac99 b3bc
00000350: dfd1 0c3e d3e4 debd 85a4 c2bd b70d 75bd
00000360: 53e7 bd3d c1fd 5d3c 953e d33b 3df2 9e3d
00000370: e722 1d3e 5717 853d 5d8d d93d d87a 9cbd
00000380: 7b9d d73b 2d00 8d3c a024 d23d fdc7 0b3e
00000390: a3d0 a63c 973b 02be 58d7 1c3e d14c 3e3d
000003a0: e53e 203e 8242 e0bc 7adf 183d 4743 853e
000003b0: 4e78 253d 1eec c93d 3b70 d63d 0d3d 91bc
000003c0: a008 c63c 6006 e83d 915b 233e 9807 9c3d
000003d0: 2fd5 e23d 6f3f 3f3e c17a ff3d 15d1 8dbc
000003e0: dddd 113e 908a 123e d8e7 f43d 3298 d2bd
000003f0: 8ba5 8bbb 5af2 ca3d f56a 0f3e e50e 633e

main_network.lstm.bias_hh_l0 f4 [256]
0.021695364 -0.047279447 0.1390171 0.04248401 -0.0008020701 -0.023632891 0.045642458 0.04507937
-0.062150575 0.15427968 -0.08198359 0.06727518 -0.038394332 -0.06289762 0.21713364 0.057916455
0.065997094 0.06696094 0.0701126 -0.2104882 0.11429416 -0.15104112 0.019970918 -0.045975115
0.08284203 0.07465313 0.041774098 0.19922338 0.3031395 0.07966034 -0.047517356 0.03445489
0.044748537 0.05959905 0.07093658 -0.03151251 0.09786292 -0.07837384 0.007999696 0.12483627
0.21307643 -0.14753196 0.08367641 0.053261712 -0.03489178 0.08205551 -0.03156675 0.121064655
0.22610779 0.04433307 -0.1212334 0.09034303 0.06805911 0.18454644 -0.042486876 0.119123414
0.11889006 -0.03460522 -0.012114636 -0.103796445 0.20412134 0.06846721 -0.05290053 0.14748417
0.050796747 -0.047476374 -0.0994194 0.024094222 -0.1025806 0.00173981 -0.1070603 -0.14991288
0.08883661 -0.15508479 -0.011549437 -0.023705892 0.1258468 0.055140637 0.063569866 -0.10469334
0.08877653 0.119004 -0.029455176 -0.07287516 0.052093398 -0.14814667 0.1026422 -0.09865165
-0.094026245 -0.039894998 0.026029877 -0.18866931 0.011305655 -0.03913292 0.070693865 -0.089417875
0.13887864 -0.21698982 0.17540213 0.10213544 -0.055568542 -0.1043151 0.05909989 0.08597051
-0.11052025 -0.08007645 0.12844214 -0.12838732 -0.08789431 0.07852045 0.19102918 -0.08915815
0.22297025 -0.07514064 -0.016433595 -0.013440607 0.057018768 0.19729206 -0.04995367 0.11556194
0.058667697 0.069436885 0.011104463 -0.039068278 0.10472835 -0.1486901 -0.08850098 -0.07373586
0.098213114 0.04487708 0.11112767 -0.028068606 -0.09938033 -0.023321921 0.0003475425 0.012866303
0.12157549 0.09173877 0.026700903 0.0026008284 -0.023547096 0.013432434 0.19569162 0.12223997
0.060713895 -0.12320248 -0.02227125 0.000998152 -0.052752055 0.007991816 0.051792447 0.036512826
0.07116345 0.018450238 -0.114037216 0.13781287 -0.08382569 0.022599591 -0.0869378 -0.029879676
0.05798258 -0.03685847 -0.03792255 -0.048858706 0.02763023 -0.02169565 -0.081645995 -0.013791761
0.08866722 -0.047344178 -0.15740415 -0.0046834433 0.11841013 -0.019757546 0.062498614 0.06133614
-0.034797017 0.026256083 -0.09083151 0.057157032 0.067897245 -0.16271949 -0.14195643 -0.12271006
-0.16831252 0.06422448 -0.07598142 0.13766122 0.031041173 -0.0196412 0.008461836 0.026578667
0.07988113 -0.033616018 0.006752428 0.116612785 0.12804966 -0.026052315 0.1525722 -0.09429463
0.03781982 0.17296311 -0.028443804 0.03665965 -0.00036226388 -0.029227028 0.17553316 0.040184706
-0.032960296 0.070592865 0.09961467 0.0043222513 0.09648278 0.08309176 -0.13314699 0.01134209
0.028674847 0.01642289 0.08998452 0.0069494797 0.27323908 -0.11910926 -0.07069607 0.10336355
0.023906153 0.043873448 0.1903063 -0.02874521 -0.051319186 -0.07322493 -0.0061843633 0.11705516
0.20985763 -0.042599324 -0.11161485 0.18312813 0.0636845 0.15002932 0.20169169 -0.0677601
0.04213363 0.075320914 0.0051368764 0.06379066 0.008631303 0.11694662 0.017894423 -0.018406091
-0.02167336 0.14460564 0.115504906 -0.083003946 0.17950745 0.07434503 0.06656128 0.17771238
00000000: 7aba b13c 18a8 41bd 805a 0e3e b703 2e3d
00000010: 0342 52ba c499 c1bc 96f3 3a3d 25a5 383d
00000020: 9a91 7ebd 7efb 1d3e 03e7 a7bd 92c7 893d
00000030: 6043 1dbd 78d0 80bd 4858 5e3e ce39 6d3d
00000040: 7c29 873d d122 893d 3297 8f3d 388a 57be
00000050: 0e13 ea3d 86aa 1abe 0d9a a33c 6750 3cbd
00000060: 15a9 a93d bde3 983d 511b 2b3d 3701 4c3e
00000070: 1a35 9b3e f624 a33d 8fa1 42bd 9220 0d3d
00000080: 3e4a 373d 221e 743d 3347 913d 4313 01bd
00000090: 5b6c c83d 7782 a0bd 2811 033c 29aa ff3d
000000a0: b530 5a3e 9e12 17be 8a5e ab3d f428 5a3d
000000b0: afea 0ebd b80c a83d 234c 01bd bff0 f73d
000000c0: cd88 673e 9896 353d 3849 f8bd c405 b93d
000000d0: 9362 8b3d bef9 3c3e b806 2ebd faf6 f33d
000000e0: a27c f33d 34be 0dbd 777c 46bc 3b93 d4bd
000000f0: 2f05 513e 8938 8c3d 3aae 58bd 1706 173e
00000100: 4010 503d 9676 42bd 669c cbbd 3f61 c53c
00000110: c715 d2bd 560a e43a 6e42 dbbd c382 19be
00000120: f8ef b53d 8cce 1ebe da39 3dbc dc32 c2bc
00000130: fcdd 003e 26db 613d eb30 823d 7669 d6bd
00000140: 78d0 b53d 5fb8 f33d fb4b f1bc 923f 95bd
00000150: e35f 553d c3b3 17be 1336 d23d e009 cabd
00000160: d590 c0bd f068 23bd 9c3c d53c 8732 41be
00000170: 5b3b 393c d749 20bd f2c7 903d b820 b7bd
00000180: 3436 0e3e 9432 5ebe 9e9c 333e 632c d13d
00000190: d79b 63bd 28a3 d5bd ba12 723d 4f11 b03d
000001a0: 7158 e2bd 1fff a3bd 5686 033e f777 03be
000001b0: ef01 b4bd 54cf a03d 279d 433e 8c98 b6bd
000001c0: 5052 643e 56e3 99bd bf9f 86bc fe35 5cbc
000001d0: 838c 693d ee06 4a3e 389c 4cbd bdab ec3d
000001e0: 8a4d 703d ed34 8e3d 7eef 353c 0f06 20bd
000001f0: d17b d63d 3842 18be 0040 b5bd d402 97bd
00000200: f523 c93d 07d1 373d e796 e33d 22f0 e5bc
00000210: ea87 cbbd 9d0d bfbc 5d36 b639 30cd 523c
00000220: 92fc f83d 89e1 bb3d dabb da3c a972 2a3b
00000230: d7e5 c0bc b613 5c3c 6263 483e f358 fa3d
00000240: 22af 783d 9551 fcbd 3272 b6bc 6cd4 823a
00000250: 8a12 58bd 1bf0 023c 5124 543d 798e 153d
00000260: 25be 913d f424 973c 588c e9bd d11e 0d3e
00000270: ceac abbd c722 b93c 720c b2bd 39c6 f4bc
00000280: 247f 6d3d e8f8 16bd ad54 1bbd 1120 48bd
00000290: cb58 e23c 13bb b1bc 0436 a7bd d7f6 61bc
000002a0: 2997 b53d f8eb 41bd 8e2e 21be 9277 99bb
000002b0: 0381 f23d 94da a1bc 8cfe 7f3d 9b3b 7b3d
000002c0: 5187 0ebd ff16 d73c df05 babd 7e1d 6a3d
000002d0: b60d 8b3d f09f 26be 075d 11be 694f fbbd
000002e0: 1e5a 2cbe 2088 833d 269c 9bbd 10f7 0c3e
000002f0: 0f4a fe3c 95e6 a0bc 83a3 0a3c 81bb d93c
00000300: b898 a33d f3b0 09bd 7943 dd3b afd2 ee3d
00000310: 731f 033e aa6b d5bc e33b 1c3e 8b1d c1bd
00000320: f5e8 1a3d 3e1d 313e fb02 e9bc 6e28 163d
00000330: 3cee bdb9 856d efbc f7be 333e b898 243d
00000340: 6001 07bd fe92 903d c702 cc3d aca1 8d3b
00000350: c498 c53d 032c aa3d af57 08be 2cd4 393c
00000360: 83e7 ea3c 4c89 863c ce49 b83d 76b8 e33b
00000370: fee5 8b3e 8eef f3bd 1ac9 90bd 45b0 d33d
00000380: d6d6 c33c a5b4 333d a8df 423e 137b ebbc
00000390: 1134 52bd f4f6 95bd 33a6 cabb 9eba ef3d
000003a0: ebe4 563e a17c 2ebd 5496 e4bd f185 3b3e
000003b0: 056d 823d 49a1 193e 4488 4e3e cfc5 8abd
000003c0: 5094 2c3d da41 9a3d 3e53 a83b ada4 823d
000003d0: 4f6a 0d3c b681 ef3d 5397 923c 5fc8 96bc
000003e0: 558c b1bc 8013 143e d68d ec3d f9fd a9bd
000003f0: cdd0 373e 3542 983d 4851 883d 3cfa 353e

main_network.fc.weight f4 [3, 64]
0.007877258 -0.00021621613 -0.019878926 -0.03676423 0.16766919 0.11711449 0.07517482 -0.260896
0.024179924 -0.012026913 0.036834847 -0.038688056 -0.037344437 -0.12283621 -0.12330236 0.030157294
-0.009106122 0.025340261 -0.08013639 0.05029222 -0.03512431 0.04780233 -0.05216172 0.08317244
0.0851277 0.0681459 0.015505006 0.041987944 -0.10472601 0.030376742 -0.02262576 -0.036992963
0.023129571 -0.00029373434 -0.05696833 -0.07221969 -0.09405799 0.037268966 0.05225941 0.07137918
-0.09260227 -0.033160806 0.09004259 -0.029393272 0.020779481 -0.083624065 -0.11104885 -0.012824456
-0.13009602 0.026423085 -0.056687586 -0.007038471 0.04705953 -0.00075257773 -0.0020008143 -0.063285954
-0.1002552 0.034068506 -0.057734694 0.014559763 -0.019877717 0.13874501 0.033184875 -0.060464796
0.014942825 -0.07721638 0.013406949 -0.03599118 0.071581475 -0.04966993 0.12223223 -0.27596858
-0.0073704906 -0.050510444 0.08038447 -0.0630317 -0.08188841 -0.1451063 0.045838594 0.07357005
-0.01641028 -0.08796963 -0.0006342352 0.050606143 -0.013559331 -0.00057961716 0.09418113 0.09285793
-0.17053472 -0.00014640781 0.018877868 -0.020968163 -0.07905385 0.041019786 0.12928168 -0.07638768
-0.037897516 -0.03446206 -0.0680896 0.043433566 0.1081561 -0.029887065 0.05584332 0.062395226
0.05585467 -0.051435586 0.078320935 -0.01637297 0.048853043 -0.06687506 -0.10397026 -0.089024864
0.0054103313 -0.13005759 -0.016162107 -0.027602216 -0.02522572 -0.052261718 0.029466474 0.030449495
0.033552796 0.13137057 0.042381663 -0.007662489 0.0195792 -0.22288416 0.096208684 0.014794626
-0.10730993 0.05952415 0.23551293 0.14675057 -0.25022608 0.09365295 -0.20886426 0.17803743
0.06854591 0.1631112 0.02029477 -0.038005266 0.012835755 0.14686254 0.12170735 0.08745704
-0.08160522 -0.28974608 0.024130052 0.21891947 -0.17029454 0.113830626 -0.10029365 0.2661902
-0.092638314 0.38173145 -0.2624207 0.26086494 -0.2615304 0.065049104 -0.120909944 -0.04680572
0.35527357 0.06992239 -0.22003312 0.033012338 0.009640225 0.023509901 0.21470745 -0.23979342
-0.18760417 -0.25849485 -0.10039205 0.22785045 0.3025465 -0.17935006 0.15509094 -0.24279639
-0.21048515 0.16067496 -0.15736686 0.15784054 -0.01383212 -0.20062582 -0.025344996 -0.0153991645
-0.22754085 0.2307433 -0.2861464 -0.10710677 0.13237314 -0.1873749 -0.08366274 0.1766125
00000000: 9d0f 013c 13b8 62b9 21d9 a2bc 1796 16bd
00000010: 79b1 2b3e b9d9 ef3d 42f5 993d 2994 85be
00000020: fa14 c63c 880c 45bc 23e0 163d 5e77 1ebd
00000030: 7bf6 18bd 8d91 fbbd f385 fcbd 6e0c f73c
00000040: d831 15bc 6196 cf3c 8c1e a4bd 37ff 4d3d
00000050: 82de 0fbd 60cc 433d 87a7 55bd 5056 aa3d
00000060: 6e57 ae3d 1490 8b3d b508 7e3c 8dfb 2b3d
00000070: 977a d6bd a5d8 f83c a859 b9bc ef85 17bd
00000080: 3a7a bd3c 5b00 9ab9 a057 69bd ebe7 93bd
00000090: 7aa1 c0bd 58a7 183d f70d 563d 3f2f 923d
000000a0: 42a6 bdbd a0d3 07bd 4068 b83d 29ca f0bc
000000b0: bb39 aa3c 1843 abbd 946d e3bd ab1d 52bc
000000c0: e437 05be 3a75 d83c 3e31 68bd f9a2 e6bb
000000d0: 7ec1 403d a348 45ba 1820 03bb 119c 81bd
000000e0: 9952 cdbd 6b8b 0b3d 377b 6cbd 128c 6e3c
000000f0: 98d6 a2bc 2c13 0e3e ddec 073d efa9 77bd
00000100: c0d2 743c 9f23 9ebd d2a8 5b3c 7d6b 13bd
00000110: 4f99 923d b272 4bbd e454 fa3d c14b 8dbe
00000120: 2884 f1bb 0ae4 4ebd 9da0 a43d c416 81bd
00000130: 1cb5 a7bd bf96 14be 40c1 3b3d e5ab 963d
00000140: da6e 86bc 6c29 b4bd ce42 26ba 6348 4f3d
00000150: f527 5ebc 73f1 17ba 09e2 c03d 4c2c be3d
00000160: a7a0 2ebe 0c85 19b9 c2a5 9a3c 6dc5 abbc
00000170: fce6 a1bd 5d04 283d 6b62 043e 2571 9cbd
00000180: 6d3a 1bbd 1728 0dbd 8f72 8bbd 65e7 313d
00000190: f280 dd3d b8d5 f4bc f7bb 643d 2392 7f3d
000001a0: dec7 643d 1fae 52bd ba66 a03d 9b20 86bc
000001b0: 211a 483d cbf5 88bd 5cee d4bd ab52 b6bd
000001c0: 2649 b13b d12d 05be 6566 84bc 0b1e e2bc
000001d0: 2ba6 cebc 6210 56bd ad63 f13c 3871 f93c
000001e0: a86e 093d 0286 063e 6598 2d3d 9e15 fbbb
000001f0: 8f64 a03c bf3b 64be 0f09 c53d 2965 723c
00000200: 4fc5 dbbd 98cf 733d 4d2a 713e c845 163e
00000210: a21d 80be 1ecd bf3d 83e0 55be 724f 363e
00000220: cc61 8c3d 9f06 273e 3841 a63c 69ab 1bbd
00000230: 0f4d 523c 2263 163e b441 f93d ad1c b33d
00000240: a320 a7bd 9959 94be 63ac c53c 6d2c 603e
00000250: b161 2ebe 0820 e93d c266 cdbd 154a 883e
00000260: 28b9 bdbd 4e72 c33e 025c 86be 1790 853e
00000270: 50e7 85be 7738 853d a29f f7bd 5bb7 3fbd
00000280: 6be6 b53e 7833 8f3d 5d50 61be f237 073d
00000290: 09f2 1d3c d697 c03c 45dc 5b3e 688c 75be
000002a0: 4f1b 40be 7059 84be 599a cdbd a151 693e
000002b0: 60e7 9a3e 8ba7 37be 29d0 1e3e 9e9f 78be
000002c0: 6b89 57be fa87 243e c724 21be f3a0 213e
000002d0: 1ea0 62bc db70 4dbe 4fa0 cfbc c74c 7cbc
000002e0: 7800 69be f947 6c3e c881 92be cb5a dbbd
000002f0: d38c 073e 35df 3fbe 5f57 abbd e8d9 343e

main_network.fc.bias f4 [3]
0.085471325 0.082125 0.043939646
00000000: 970b af3d 2731 a83d 0ffa 333d

short_term_context_network.fc1.weight f4 [32, 7]
-0.22329341 0.12018102 -0.36993232 -0.2006707 0.045388132 0.25908464 -0.17073947 0.46151745
-0.039749354 -0.10998352 -0.12537229 0.12891439 0.1664892 0.60912484 0.21383615 -0.3595891
0.29707098 0.26243374 0.5430229 0.88485485 -0.6753688 -0.03207937 -0.15119258 -0.2015631
0.12397237 -0.35403192 0.07502064 0.12075783 -0.40080205 -0.018776102 0.12508388 -0.31367782
0.17447743 0.07595231 0.7093653 -0.17696115 0.2537824 0.13387434 0.074276984 0.18955013
0.32018414 0.12815617 -0.19928719 -0.15200086 -0.032597028 0.12159265 -0.08967116 -0.32755235
-0.1283364 -0.11802422 0.3761734 0.06778108 0.23148231 0.39168984 0.14315331 -0.21245122
-0.2218674 -0.36062294 -0.097471856 -0.13927585 0.13744502 -0.12692845 -0.27660993 -0.13557076
-0.1546138 0.20801476 0.025811553 -0.4423975 0.26335952 0.4188547 0.17234744 0.31684107
0.1179038 -0.3195504 0.6147286 0.6562868 -0.6086481 -0.43245572 0.08243475 -0.17798443
0.15459685 2.4682112 2.3556318 0.86948085 -0.5859792 -0.1923793 -0.08294119 -0.2473121
-0.17023215 -0.118852645 1.0814979 -0.41856915 0.3192056 0.16097276 0.13706693 0.3362652
0.014740739 0.67289853 -0.0019750681 0.22980331 0.12392587 -0.011239437 0.04873275 0.04624259
-0.3720617 0.90173125 0.007071136 0.011150044 0.18897215 -0.6433976 -1.0384984 0.08073639
0.1669405 0.1212016 0.037406668 0.20445666 0.7296415 0.669426 -0.44257948 0.8615025
0.015401251 0.06573965 0.2553342 -0.039797932 0.30784184 0.5375787 0.85148835 -0.19188516
0.23944561 -0.069950216 -0.5103233 -0.3463964 -0.3662122 -0.026766978 0.021930713 0.30983666
0.12627342 0.22590658 0.37176487 -0.0056496467 -0.053456467 0.29051137 0.30150467 0.3018238
-0.22683632 -0.11351881 0.31130934 -0.4635818 0.16267523 0.15419215 -0.24297042 -0.18189429
-0.1598188 0.6611267 -0.0003273489 0.36527056 -0.13076632 0.026533138 0.18643618 0.29050988
-0.40830845 0.07861168 0.062484697 0.022525825 0.04841555 -0.17723686 -0.22004971 -0.25509095
-0.35306275 0.005962737 0.12415247 0.27117738 0.31577262 -0.11147483 0.27570683 0.0947337
-0.29803288 -0.2018954 0.36366904 0.02352744 0.21640547 0.33346388 -0.33756536 0.016780892
-0.27201992 0.17222288 0.059621263 0.30523443 0.2742658 -0.58502775 -0.047386948 0.07489426
0.07497973 0.19036992 0.01852852 0.99748755 -0.27215204 -0.011129409 -0.34529656 -0.0028973825
-0.3769779 0.3344097 -0.32420382 -0.23617479 -0.0033871506 -0.14432429 -0.0047965297 0.4197155
0.09344742 0.06651903 -0.09555348 -0.1973205 -0.33338717 0.22933386 0.2173314 0.23697095
-0.28060687 0.73383725 0.21328235 -0.005847256 0.045389485 -0.27790123 0.110810935 0.5740575
00000000: 07a7 64be 7721 f63d c567 bdbe 9f7c 4dbe
00000010: e8e8 393d bea6 843e 54d6 2ebe 044c ec3e
00000020: 38d0 22bd 0a3f e1bd 9861 00be 2202 043e
00000030: 257c 2a3e 9bef 1b3f ddf7 5a3e 101c b8be
00000040: b019 983e b75d 863e 8c03 0b3f d985 623f
00000050: f8e4 2cbf a865 03bd 3ad2 1abe 8f66 4ebe
00000060: 3ae5 fd3d ac43 b5be 6ca4 993d e24f f73d
00000070: ed35 cdbe 57d0 99bc fd15 003e 619a a0be
00000080: 36aa 323e e28c 9b3d f798 353f 4e35 35be
00000090: c4ef 813e 5b16 093e 881e 983d 6e19 423e
000000a0: 2def a33e 5f3b 033e f111 4cbe 1da6 1bbe
000000b0: 7684 05bd 9105 f93d 83a5 b7bd f1b4 a7be
000000c0: 9e6a 03be afb6 f1bd cd99 c03e cfd0 8a3d
000000d0: b309 6d3e 928b c83e c896 123e d08c 59be
000000e0: 3531 63be 92a3 b8be 539f c7bd 549e 0ebe
000000f0: 63be 0c3e 88f9 01be d19f 8dbe 10d3 0abe
00000100: 1453 1ebe d201 553e c072 d33c ed81 e2be
00000110: 0fd7 863e 2074 d63e d97b 303e fe38 a23e
00000120: 8c77 f13d 1c9c a3be db5e 1d3f 6902 283f
00000130: 5dd0 1bbf d66a ddbe 8dd3 a83d 8d41 36be
00000140: a34e 1e3e 2cf7 1d40 acc2 1640 4c96 5e3f
00000150: bc02 16bf 14ff 44be 12dd a9bd 623f 7dbe
00000160: 5651 2ebe 0469 f3bd 866e 8a3f b24e d6be
00000170: eb6e a33e 0bd6 243e 465b 0c3e f42a ac3e
00000180: 2483 713c 1443 2c3f 2570 01bb 8f51 6b3e
00000190: d9cc fd3d 9e25 38bc fe9b 473d df68 3d3d
000001a0: df7e bebe dcd7 663f fdb4 e73b adae 363c
000001b0: ea81 413e b5b5 24bf 84ed 84bf 1f59 a53d
000001c0: 73f2 2a3e 8b38 f83d bc37 193d 165d 513e
000001d0: c9c9 3a3f 815f 2b3f c799 e2be 6e8b 5c3f
000001e0: 8755 7c3c 82a2 863d 2abb 823e 2803 23bd
000001f0: 729d 9d3e c29e 093f 24fb 593f 8b7d 44be
00000200: 3b31 753e 0f42 8fbd 8ca4 02bf de5a b1be
00000210: 2a80 bbbe 6c46 dbbc 0aa8 b33c e9a2 9e3e
00000220: d24d 013e 0e54 673e f757 be3e ac20 b9bb
00000230: 2bf5 5abd e8bd 943e d25e 9a3e a688 9a3e
00000240: c847 68be 8d7c e8bd f063 9f3e 985a edbe
00000250: 5694 263e 8ce4 1d3e 3dcd 78be 7f42 3abe
00000260: 8aa7 23be 993f 293f 07a0 abb9 be04 bb3e
00000270: 9be7 05be 065c d93c 20e9 3e3e b6bd 943e
00000280: ce0d d1be 29ff a03d f4ef 7f3d 1488 b83c
00000290: 624f 463d 947d 35be b654 61be 489b 82be
000002a0: a4c4 b4be 1063 c33b a643 fe3d c3d7 8a3e
000002b0: f3ac a13e ea4c e4bd 7229 8d3e be03 c23d
000002c0: c497 98be abbd 4ebe d432 ba3e 9ebc c03c
000002d0: 6599 5d3e c7bb aa3e 5ed5 acbe 1578 893c
000002e0: 3246 8bbe 325b 303e 6d35 743d b047 9c3e
000002f0: 916c 8c3e 61c4 15bf d118 42bd 2962 993d
00000300: f98e 993d 55f0 423e 1fc9 973c 585b 7f3f
00000310: 8357 8bbe 2058 36bc b6ca b0be 03e2 3dbb
00000320: 3f03 c1be c037 ab3e 0bfe a5be ced7 71be
00000330: f5fa 5dbb bfc9 13be 352c 9dbb f3e4 d63e
00000340: 5c61 bf3d 213b 883d 8bb1 c3bd 630e 4abe
00000350: b9b1 aabe 7fd6 6a3e 1f8c 5e3e 83a8 723e
00000360: b4ab 8fbe c2dc 3b3f b066 5a3e 579a bfbb
00000370: 53ea 393d 1249 8ebe d8f0 e23d 6ff5 123f

short_term_context_network.fc1.bias f4 [32]
-0.32786334 0.2770824 0.045559257 -0.17104338 0.4929706 0.41119567 0.08849742 -0.03761864
0.08911673 0.19902927 0.10101468 0.48434252 0.67635995 0.5827281 -0.12618363 -0.78926367
-0.048411485 0.0071892496 -0.85148007 0.6218991 -0.32969832 0.72951335 0.2954932 -0.23738477
0.78341573 0.4328168 0.7473742 0.7575202 -0.1215029 0.6508471 -0.24824037 0.036095884
00000000: b4dd a7be bfdd 8d3e 589c 3a3d ff25 2fbe
00000010: a466 fc3e 3d88 d23e 233e b53d 0116 1abd
00000020: d582 b63d 54ce 4b3e c9e0 ce3d befb f73e
00000030: ed25 2d3f ab2d 153f 4836 01be 2f0d 4abf
00000040: 1f4b 46bd cc93 eb3b 99fa 59bf c834 1f3f
00000050: 38ce a8be 63c1 3a3f e24a 973e fe14 73be
00000060: ef8d 483f 2a9a dd3e ea53 3f3f d8ec 413f
00000070: 83d6 f8bd ea9d 263f b932 7ebe 47d9 133d

short_term_context_network.fc2.weight f4 [16, 32]
0.12033148 -0.19449005 0.0047242614 -0.0015565463 -0.18865812 -0.16962555 0.07408135 -0.13404894
-0.06351292 -0.07057387 0.01649575 0.06393308 0.11006285 0.015769623 -0.015300001 -0.018756948
-0.03551753 -0.04502771 -0.11887436 -0.17325526 0.013682917 0.1281721 -0.10846369 0.077951774
-0.116807975 0.08979629 0.089531966 0.038216572 0.078311816 0.13075629 0.030636312 0.0122720245
-0.034955036 -0.10177284 -0.09252757 0.08718594 -0.014376522 -0.15996231 -0.021059304 -0.055813618
-0.0022258805 -0.15665722 -0.12479903 0.063851565 0.17609385 0.14259572 -0.10314078 0.1314776
0.14389151 -0.036312714 0.046094343 0.16780095 -0.06190721 0.025495302 -0.015638294 0.0751614
-0.14205207 0.030015046 -0.1196058 -0.06062704 0.105796784 0.07834749 -0.14697078 -0.029098395
0.14133602 0.077194415 -0.4264252 -0.08744946 -0.5268148 -0.26123837 0.009713563 0.3193577
0.17828834 0.1814041 -0.3333063 -0.40051028 -0.7011334 -0.22747113 -0.025132144 0.75230014
-0.21636567 0.010149612 0.7910934 0.112227865 0.13044745 -1.0978725 0.111019626 0.10544065
-0.34065622 -0.1832244 -0.089863665 -0.21914896 0.031652845 -0.2093496 0.08223198 0.24545908
0.023179207 0.027859602 -0.010379781 0.119413376 -0.026893888 0.09741059 0.009389833 -0.16123481
-0.00019918519 0.021201082 -0.05028138 -0.1266758 0.041983932 -0.1600855 -0.107063174 -0.12055593
-0.07233191 0.043231882 0.08058892 -0.15304407 0.123881035 0.1311453 -0.09412672 -0.081230335
-0.17761333 0.061551865 -0.21211053 -0.12329306 -0.16208988 0.05689195 0.14661364 -0.086829744
-0.06717655 0.5253503 0.75558716 0.11460864 0.92779744 0.451461 -0.03716334 -0.12597564
0.093080364 0.63158816 0.6555793 1.6176834 0.5874667 0.4676455 -0.12225112 -0.6700011
0.6126629 0.18418516 -0.5510538 0.33446237 -0.0009366405 0.9677246 0.15805323 0.147921
0.67499024 0.39120105 0.56138855 0.5763181 0.20892543 0.5462369 0.027785385 0.048203714
0.089778475 -0.14164782 -0.18719628 -0.0008200091 -0.0040851193 0.11113938 -0.010941005 -0.20687076
-0.12214804 0.14854789 -0.041870676 -0.1498749 -0.20438497 0.09116593 0.004250931 -0.11371558
-0.066848665 0.068355314 -0.03813679 -0.06411669 -0.0030276314 0.111499324 -0.112669215 -0.17170231
0.077383794 0.087322466 -0.08779284 0.08560975 -0.13293055 0.11734454 -0.15190233 -0.14557204
-0.13199577 -0.11856933 0.17167713 0.114003345 -0.19913027 -0.22100148 -0.17596166 0.2106324
0.13136761 -0.17409879 0.16109824 -0.06107938 -0.20893897 -0.15447679 -0.08134795 0.077138476
0.033005245 -0.30477697 0.10371322 -0.11077718 -0.0015027248 -0.085846126 0.0524051 -0.08958361
0.12632929 -0.1622797 -0.09970377 -0.022605428 0.027406042 0.01932073 -0.008494107 -0.12168606
-0.14859693 0.85622025 -0.9320504 0.14013329 -1.9956679 -0.9088921 -0.16061732 -0.1936952
-0.07696832 -0.17254223 -0.70137256 -2.2214215 -2.592362 -2.5110614 0.1578643 1.374198
-1.1718556 1.3370044 1.615156 -0.14674659 0.011511084 -2.7407577 -0.5081003 -0.10475812
-1.9919074 0.30884737 -1.1772771 -2.6033583 -0.15660763 -1.0596681 -0.20056216 1.0273148
00000000: 5a70 f63d 6628 47be facd 9a3b 0705 ccba
00000010: 982f 41be 52b2 2dbe f6b7 973d 2044 09be
00000020: 1013 82bd 0889 90bd 1822 873c 59ef 823d
00000030: a268 e13d 4c2f 813c dbac 7abc 2ca8 99bc
00000040: d47a 11bd fa6e 38bd 6774 f3bd d469 31be
00000050: 502e 603c 8c3f 033e 3622 debd 2ea5 9f3d
00000060: 0539 efbd 1ee7 b73d 895c b73d fb88 1c3d
00000070: f261 a03d fae4 053e 01f9 fa3c 9a10 493c
00000080: 032d 0fbd 476e d0bd 187f bdbd 8b8e b23d
00000090: 818b 6bbc 29cd 23be 9084 acbc d29c 64bd
000000a0: 14e0 11bb c06a 20be a296 ffbd 9cc4 823d
000000b0: f251 343e 9d04 123e 793b d3bd 10a2 063e
000000c0: 4c58 133e a4bc 14bd 6ccd 3c3d 03d4 2b3e
000000d0: 6a92 7dbd 86db d03c e11b 80bc 38ee 993d
000000e0: 1976 11be 1de2 f53c e3f3 f4bd 0f54 78bd
000000f0: fcab d83d a674 a03d 827f 16be c25f eebc
00000100: 64ba 103e 1b18 9e3d 6754 dabe b418 b3bd
00000110: 56dd 06bf 09c1 85be a325 1f3c da82 a33e
00000120: 3891 363e ffc1 393e 20a7 aabe af0f cdbe
00000130: 7a7d 33bf 31ee 68be ede1 cdbc be96 403f
00000140: f68e 5dbe 8f4a 263c 1985 4a3f b9d7 e53d
00000150: 0494 053e 1687 8cbf 425e e33d 44f1 d73d
00000160: 7e6a aebe 2d9f 3bbe 710a b8bd 9668 60be
00000170: 6aa6 013d be5f 56be 3e69 a83d a059 7b3e
00000180: 52e2 bd3c d239 e43c f50f 2abc 008f f43d
00000190: 9250 dcbc 347f c73d d0d7 193c bd1a 25be
000001a0: 5edc 50b9 e4ad ad3c d9f3 4dbd 4db7 01be
000001b0: 58f7 2b3d 74ed 23be f043 dbbd 07e6 f6bd
000001c0: c122 94bd ea13 313d ce0b a53d 96b7 1cbe
000001d0: 57b5 fd3d f44a 063e 83c5 c0bd 175c a6bd
000001e0: 45e0 35be cf1d 7c3d 8133 59be 1281 fcbd
000001f0: e4fa 25be 8907 693d e321 163e cbd3 b1bd
00000200: dc93 89bd 5b7d 063f 296e 413f efb7 ea3d
00000210: 2284 6d3f e525 e73e 9638 18bd c2ff 00be
00000220: eba0 be3d c3af 213f 0cd4 273f 4010 cf3f
00000230: 3864 163f 3b6f ef3e cc5e fabd 3185 2bbf
00000240: 7ad7 1c3f 099b 3c3e dd11 0dbf a73e ab3e
00000250: e188 75ba cdbc 773f b5d8 213e 9a78 173e
00000260: 29cc 2c3f 814b c83e 29b7 0f3f 9589 133f
00000270: 8cf0 553e 2ed6 0b3f 2d9e e33c 4271 453d
00000280: c7dd b73d 200c 11be 62b0 3fbe e1f5 56ba
00000290: 77dc 85bb 0b9d e33d e741 33bc eed5 53be
000002a0: c028 fabd f01c 183e 9680 2bbd ce78 19be
000002b0: 4b4a 51be 34b5 ba3d 654b 8b3b b7e3 e8bd
000002c0: f4e7 88bd dffd 8b3d 5335 1cbd 9c4f 83bd
000002d0: 3a6b 46bb c259 e43d 1ebf e6bd bbd2 2fbe
000002e0: 657b 9e3d 1fd6 b23d bccc b3bd 2a54 af3d
000002f0: f21e 08be 5652 f03d 498c 1bbe d610 15be
00000300: e629 07be 7ad4 f2bd 21cc 2f3e 967a e93d
00000310: cee8 4bbe 364e 62be 4b2f 34be 05b0 573e
00000320: 3b85 063e f446 32be f0f6 243e 5f2e 7abd
00000330: 19f4 55be 2a2f 1ebe c199 a6bd c7fa 9d3d
00000340: 8230 073d ba0b 9cbe 9967 d43d 25df e2bd
00000350: 14f7 c4ba 18d0 afbd bba6 563d 9d77 b7bd
00000360: 775c 013e a62c 26be 7d31 ccbd 052f b9bc
00000370: a382 e03c 8246 9e3c de2a 0bbc 8b36 f9bd
00000380: cb29 18be 4031 5b3f db9a 6ebf 1a7f 0f3e
00000390: 0c72 ffbf 27ad 68bf de78 24be 0958 46be
000003a0: 91a1 9dbd e9ae 30be 278d 33bf c52b 0ec0
000003b0: 42e9 25c0 3bb5 20c0 2ea7 213e b8e5 af3f
000003c0: 5dff 95bf f622 ab3f 6fbd ce3f bd44 16be
000003d0: fc98 3c3c 9368 2fc0 dc12 02bf 6d8b d6bd
000003e0: d2f6 febf 3e21 9e3e 04b1 96bf 6c9d 26c0
000003f0: c05d 20be 34a3 87bf 2b60 4dbe 0d7f 833f

short_term_context_network.fc2.bias f4 [16]
-0.09180851 -0.15727817 0.07416409 0.0978237 0.4384741 -0.015121957 0.08402075 -0.099258944
-0.08886589 0.16448814 0.2639268 0.4263082 0.088825576 0.39958298 0.045690805 0.121577896
00000000: 1a06 bcbd 870d 21be 58e3 973d cb57 c83d
00000010: ad7f e03e 16c2 77bc 1213 ac3d 4648 cbbd
00000020: 52ff b5bd 946f 283e 6a21 873e 1245 da3e
00000030: 2fea b53d 2496 cc3e 4826 3b3d d5fd f83d

short_term_context_network.fc3.weight f4 [1, 16]
-0.2235565 0.2334713 -0.60282314 -0.13545847 0.79637945 -0.11543242 -0.28966257 -1.8305705
-0.24317524 -0.28304613 1.0827636 0.8200892 -0.060306136 1.1888465 -0.16456378 0.2033536
00000000: ffeb 64be 1a13 6f3e 9e52 1abf a0b5 0abe
00000010: 86df 4b3f d567 ecbd a74e 94be 2250 eabf
00000020: ee02 79be 6ceb 90be ff97 8a3f 5ef1 513f
00000030: 9103 77bd 1f2c 983f 6883 28be ed3b 503e
